cgcnndefect/defect_transfer_100/checkpoint.pth.tar (torch, 208687 bytes, 121 tensors)

embedding.weight f4 [16, 92]
-0.4943689 -0.044412207 0.25057408 -1.7383639 -1.2531815 -0.22780773 0.65528584 1.3718082
1.1690277 0.50928235 1.2766675 -0.22605206 -0.8025938 0.35025662 0.39436537 0.17681623
-0.29772127 0.27413127 -0.36145937 0.6392579 -0.48077437 -0.10308242 0.33895627 0.40361205
0.581417 0.3832127 -0.098262355 -0.64064956 0.08269079 -0.11435536 0.5981506 1.3349532
1.1478344 0.5199841 -0.62268794 -0.051394813 0.6237997 -0.4303983 1.1472778 0.39583656
0.50007397 -0.040729944 -0.60774523 -0.2214431 -0.23566175 -0.2153668 -0.034560945 -0.20727675
-0.27257296 -0.24374743 0.09574553 -0.14182283 0.58095384 1.132954 0.55159736 -0.83173496
-0.18613078 0.417996 -0.2649245 -0.046356525 0.077647164 -0.40142217 0.12628044 1.1196954
0.22325084 0.033089224 0.003980701 -1.2687953 -0.14047301 0.100107156 0.87596196 -0.03820711
-0.022379057 -0.084567584 0.026069732 0.9178714 0.0207487 0.120913744 0.013718632 0.36044064
0.0849315 -0.40095636 0.63192827 -1.3143007 0.0347081 0.2567597 -0.3901867 -0.66837037
0.4213145 0.48321995 -0.45105344 -0.10554153 0.38612524 -0.19771865 0.058158386 -0.1856453
0.8636935 -0.69908655 0.3290078 -0.10999286 0.7766479 0.50736964 0.43236557 -0.31326625
-0.6584177 -0.07109622 0.29448777 0.26275864 0.024874441 -0.0720132 -2.557986 0.81805927
0.25340155 -0.29454613 1.0005987 -0.042032927 -0.1304632 -1.8418785 -0.23086257 -0.56487036
-0.18836655 0.41584307 0.5222026 0.048999257 1.1730357 -0.5863996 -0.03740919 0.0135060325
0.7197207 -0.0635191 -0.022910967 0.7304155 -0.07754053 -0.29672995 0.3499738 -0.57504225
-0.2395558 -0.19577411 -0.2156021 0.4347779 0.017014056 0.6906979 0.12858334 0.031357728
-0.14007397 0.25315785 0.50810844 -0.65498227 -0.3388467 0.31500974 -0.3436424 0.273182
0.10405052 0.10875196 0.48135433 -0.014378721 -0.0016056164 -0.017291294 -0.022041045 0.12444233
0.9327131 -0.020470142 -0.011274889 -0.09001962 -0.47486952 -0.33285347 0.3135175 -0.25536516
-0.093837574 -0.09470289 0.056783345 -0.033066124 0.39217597 0.34924784 0.13978916 1.8701493
0.37238547 -0.70096576 -0.40223137 0.2833777 -0.8666656 -0.77614146 -0.46499237 -0.3602487
0.47389787 0.29053292 -1.2115066 0.9872321 0.6943999 1.650935 2.2122438 0.6881206
-0.51654315 -1.5137328 -1.7475188 -0.78269696 -1.3882065 -0.49919167 0.21705392 -0.1521583
0.12448823 -0.0794858 -1.4383773 -0.027596513 -0.3369781 1.0598197 -0.49103525 -0.071838245
-0.178072 -0.47111383 0.6195815 0.14019153 0.22884879 0.50747603 0.27327964 0.17071174
0.20895909 -1.125902 -0.36932647 -0.101576015 0.03649097 -0.23019932 0.33643737 0.9494245
-0.9750172 -0.16845311 0.11190966 0.16875207 0.28315833 0.3694681 0.25485343 -0.34706154
-0.03619274 0.86044705 0.500515 0.44145188 0.12994826 -0.6886167 -1.5625702 -2.3954132
-0.69088006 -0.75480413 0.5867961 -0.28742468 -0.13565043 -0.4220246 0.66745883 -0.02986114
-0.18176599 -0.03469187 -0.05490945 -0.9419312 -0.2071831 -0.030476417 -0.4455546 -0.038558364
00000000: ec1d fdbe 93e9 35bd 3f4b 803e b582 debf
00000010: 4068 a0bf 6e46 69be d0c0 273f 6997 af3f
00000020: b3a2 953f 5460 023f d769 a33f 317a 67be
00000030: ca76 4dbf d654 b33e 42ea c93e 500f 353e
00000040: ec6e 98be ef5a 8c3e 3411 b9be 68a6 233f
00000050: 0f28 f6be e01c d3bd ad8b ad3e 3da6 ce3e
00000060: bfd7 143f 7434 c43e c63d c9bd 9c01 24bf
00000070: ca59 a93d 2533 eabd 6620 193f bfdf aa3f
00000080: 3dec 923f ae1d 053f 7a68 1fbf 5e83 52bd
00000090: 56b1 1f3f 2a5d dcbe 00da 923f 17ab ca3e
000000a0: d904 003f 71d4 26bd 3195 1bbf fbc1 62be
000000b0: 5051 71be 1d89 5cbe c78f 0dbd 5b40 54be
000000c0: af8e 8bbe ed98 79be 3c16 c43d 013a 11be
000000d0: 64b9 143f a304 913f 7c35 0d3f 95ec 54bf
000000e0: 1199 3ebe 9203 d63e 2fa4 87be 57e0 3dbd
000000f0: 7a05 9f3d 3587 cdbe a94f 013e 2e52 8f3f
00000100: de9b 643e 9188 073d 8a70 823b e267 a2bf
00000110: 28d8 0fbe fb04 cd3d 0b3f 603f 0f7f 1cbd
00000120: 4954 b7bc c531 adbd 3190 d53c 9ff9 6a3f
00000130: 2df9 a93c a0a1 f73d 1dc4 603c ad8b b83e
00000140: 91f0 ad3d 274a cdbe 0dc6 213f 013b a8bf
00000150: 152a 0e3d 0276 833e 8dc6 c7be 521a 2bbf
00000160: 89b6 d73e 9b68 f73e 7af0 e6be 2826 d8bd
00000170: 35b2 c53e c276 4abe 7d37 6e3d cd19 3ebe
00000180: 041b 5d3f 56f7 32bf b673 a83e f043 e1bd
00000190: 66d2 463f fae2 013f 055f dd3e 6f64 a0be
000001a0: 108e 28bf e59a 91bd 1ac7 963e 4d88 863e
000001b0: 7cc5 cb3c a87b 93bd 0bb6 23c0 556c 513f
000001c0: d9bd 813e c0ce 96be 9e13 803f b82a 2cbd
000001d0: 2598 05be adc2 ebbf 3d67 6cbe 589b 10bf
000001e0: 29e3 40be 62e9 d43e 12af 053f 72b3 483d
000001f0: 0926 963f 491e 16bf 613a 19bd 6848 5d3c
00000200: 9e3f 383f 4d16 82bd c8af bbbc 83fc 3a3f
00000210: 92cd 9ebd fdec 97be c42f b33e f835 13bf
00000220: 1e4e 75be 0279 48be ccc6 5cbe 359b de3e
00000230: 1061 8b3c 94d1 303f 5aab 033e f670 003d
00000240: 8d6f 0fbe e89d 813e 6513 023f ebac 27bf
00000250: 517d adbe f548 a13e e6f1 afbe 83de 8b3e
00000260: 7018 d53d 59b9 de3d 1374 f63e ba94 6bbc
00000270: 8c73 d2ba 79a6 8dbc 6c8f b4bc 9fdb fe3d
00000280: 49c6 6e3f 00b1 a7bc 50ba 38bc 355c b8bd
00000290: 1922 f3be c56b aabe 5e85 a03e 39bf 82be
000002a0: ea2d c0bd 97f3 c1bd a795 683d 5870 07bd
000002b0: 4acb c83e 9dd0 b23e e424 0f3e 0d61 ef3f
000002c0: 4fa9 be3e 7e72 33bf 45f1 cdbe e216 913e
000002d0: ccdd 5dbf 35b1 46bf 7b13 eebe 8572 b8be
000002e0: bea2 f23e bbc0 943e a612 9bbf 3ebb 7c3f
000002f0: 31c4 313f d751 d33f 6795 0d40 ac28 303f
00000300: 2c3c 04bf ffc1 c1bf b2ae dfbf d45e 48bf
00000310: c0b0 b1bf 0d96 ffbe 6243 5e3e 63cf 1bbe
00000320: aff3 fe3d 73c9 a2bd bf1c b8bf 1512 e2bc
00000330: 6588 acbe 2ca8 873f f968 fbbe ee1f 93bd
00000340: 8258 36be d535 f1be e59c 1e3f 5e8e 0f3e
00000350: 5657 6a3e f3e9 013f 4feb 8b3e 0fcf 2e3e
00000360: 5ff9 553e 8f1d 90bf 5c18 bdbe 1607 d0bd
00000370: 8e77 153d 5fb9 6bbe 8541 ac3e 7c0d 733f
00000380: ba9a 79bf f97e 2cbe e430 e53d 58cd 2c3e
00000390: 21fa 903e ec2a bd3e 267c 823e 0db2 b1be
000003a0: d73e 14bd 4246 5c3f c021 003f fb05 e23e
000003b0: 2811 053e 2f49 30bf 4d02 c8bf 734e 19c0
000003c0: 84dd 30bf d83a 41bf 4538 163f 5429 93be
000003d0: f2e7 0abe 9c13 d8be 95de 2a3f 599f f4bc
000003e0: dd20 3abe 1019 0ebd bbe8 60bd 6722 71bf
000003f0: ce27 54be aea9 f9bc bc1f e4be 60ef 1dbd

embedding.bias f4 [16]
0.54965496 0.51289886 -0.61044186 -0.20309281 0.1775608 -0.16753393 0.83796024 0.5560537
-0.19542845 0.40542004 0.46618935 -0.40888295 0.22972089 0.012189693 -0.48551077 0.3211278
00000000: 30b6 0c3f 574d 033f eb45 1cbf 90f7 4fbe
00000010: 80d2 353e 048e 2bbe 9084 563f 8959 0e3f
00000020: 651e 48be 3793 cf3e 5fb0 ee3e 1b59 d1be
00000030: f43b 6b3e 47b7 473c de94 f8be dd6a a43e

convs.0.fc_full.weight f4 [32, 56]
-0.15808171 -0.32295132 0.32341564 0.17170146 0.6196706 -0.9235552 -0.11839728 0.04309855
-0.13728786 -1.1131637 1.1431699 -0.41451603 0.45653766 -0.71041894 -0.10283154 0.6455478
-0.5951888 -0.24649233 0.21959104 0.10731462 -0.5625635 0.42178082 0.78343964 -0.43326855
-0.22805917 0.61933887 0.48160008 -0.05651987 -0.5119593 -0.59885186 0.5288697 -0.21229677
1.7027314 1.8669466 1.1100864 -1.1049162 -1.1686441 1.7294295 1.6830004 1.1331217
-1.0803072 -1.3251351 1.7284881 1.7969307 1.2897408 -1.0823148 -1.3145828 1.6717305
2.1488452 2.594171 2.7202888 -1.4467702 -1.6535988 -1.4421297 -0.606716 0.16363022
0.5612584 -0.5005377 -0.95128804 0.044316117 -0.90573895 1.0318624 -0.9714835 0.9934632
0.63615936 1.1882252 -0.011814449 1.8610747 1.1181343 -0.18196957 -0.26459667 -0.16631801
-0.37723285 0.6714676 0.23062915 -0.55636096 0.9283704 -0.31717598 1.4557066 -0.4629369
0.86273354 0.7346311 -0.98770535 -0.3249539 0.25350568 -1.2475114 -0.4230625 0.0921373
0.2850829 0.3303589 1.3905919 2.1377714 0.62497884 0.24212764 0.31523013 1.4544882
2.133653 0.59100735 0.09679109 0.46949562 1.4957561 2.058319 0.6436678 -1.5396328
-0.71393216 0.54675794 2.0098417 -2.9852254 -2.409374 1.4639211 2.637443 1.9725002
0.16934982 1.5448488 -0.7481713 0.03212373 -0.027484506 -0.9111764 0.72869325 0.5440861
-0.39345375 0.36874896 -0.10050633 0.39024702 -0.071648225 -0.66720116 0.004120468 -0.48591572
1.1851188 0.004746845 -0.43086976 0.19655842 0.09419271 0.49413657 -0.91222167 1.0897427
0.3486279 -1.1706725 0.43373856 0.09683747 -0.8138067 0.21506399 -0.061598707 0.4835871
0.045121305 0.6274401 2.6938937 1.5666748 1.2470492 0.027830845 0.7217605 2.8090801
1.7432752 1.0102025 -0.21177033 0.47807518 2.8904018 1.6289419 1.0318506 0.39687192
0.5309836 0.5626514 0.80393857 -3.714095 -4.2524533 -4.4886217 -3.593533 -2.4591186
-0.6041939 -0.437904 0.64797527 -0.17383969 0.12004574 -1.2899039 -0.05743838 -0.9145019
-0.14814156 0.37926432 0.28805366 -0.05167325 0.7084383 -0.17571776 0.39525813 -0.004724197
-0.14645946 0.70098895 0.09251148 0.49256638 -0.57504356 1.0405174 0.90174395 1.2124832
-0.13987787 0.014578202 0.3711464 -0.69744813 -0.4433251 0.743279 -1.1449227 0.1917109
1.221412 0.7582783 -3.046557 -3.6358893 -2.6928744 1.3199985 0.845275 -3.0114176
-3.5928006 -2.592776 1.3327024 0.7706105 -3.1078396 -3.7276793 -2.6112275 3.3550947
2.4767833 1.3529114 0.2187927 0.85425025 1.3296733 1.8250268 2.2342098 2.6951163
0.11160452 -0.13386849 -0.17703216 0.2233911 0.17692588 -0.073731184 -0.1478302 -0.34443164
0.71452487 -0.3135669 0.18866251 -0.34668058 -0.1655569 -0.22846082 1.0891155 -0.05761212
0.24779184 -0.16508417 0.24894398 0.8457328 -0.18699002 0.54710525 0.6428907 -0.13781491
-0.2594897 0.17657435 0.04927274 0.20255023 -0.027365694 -0.055213235 -0.5232063 0.1930472
00000000: 2ce0 21be e059 a5be bc96 a53e 82d2 2f3e
00000010: bca2 1e3f 1d6e 6cbf 467a f2bd 1b88 303d
00000020: 3095 0cbe 267c 8ebf 6453 923f 723b d4be
00000030: 4ebf e93e 04de 35bf 5899 d2bd 9f42 253f
00000040: 4b5e 18bf 7c68 7cbe 79dc 603e c4c7 db3d
00000050: 2904 10bf a8f3 d73e 808f 483f 60d5 ddbe
00000060: 5888 69be fe8c 1e3f 4994 f63e 6181 67bd
00000070: c40f 03bf 5b4e 19bf 0164 073f 5364 59be
00000080: 1af3 d93f 1bf8 ee3f 5017 8e3f e56d 8dbf
00000090: 2196 95bf f25d dd3f 8f6c d73f 220a 913f
000000a0: 8247 8abf 079e a9bf 193f dd3f d301 e63f
000000b0: 3a16 a53f 4b89 8abf 4044 a8bf 44fb d53f
000000c0: ae86 0940 e606 2640 3619 2e40 c42f b9bf
000000d0: 20a9 d3bf b597 b8bf bd51 1bbf ae8e 273e
000000e0: a1ae 0f3f 3d23 00bf 9d87 73bf d184 353d
000000f0: 82de 67bf 1114 843f 25b3 78bf 9b53 7e3f
00000100: 57db 223f c317 983f 6491 41bc b237 ee3f
00000110: 061f 8f3f 3b56 3abe 3779 87be 454f 2abe
00000120: aa24 c1be 4de5 2b3f 0c2a 6c3e ac6d 0ebf
00000130: afa9 6d3f e464 a2be 9854 ba3f 1106 edbe
00000140: 1bdc 5c3f c910 3c3f 42da 7cbf 5c60 a6be
00000150: 7fcb 813e 74ae 9fbf a69b d8be 7bb2 bc3d
00000160: 63f6 913e cd24 a93e eafe b13f 3fd1 0840
00000170: 9dfe 1f3f 4ff0 773e d865 a13e ab2c ba3f
00000180: c58d 0840 424c 173f 683a c63d bb61 f03e
00000190: f074 bf3f 80bb 0340 6ac7 243f b012 c5bf
000001a0: 42c4 36bf 54f8 0b3f 3fa1 0040 ef0d 3fc0
000001b0: 2f33 1ac0 c461 bb3f decb 2840 e37a fc3f
000001c0: 0a6a 2d3e 9bbd c53f 2888 3fbf 2c94 033d
000001d0: 3027 e1bc db42 69bf a48b 3a3f 3a49 0b3f
000001e0: c572 c9be aacc bc3e 43d6 cdbd 75ce c73e
000001f0: 4ebc 92bd b2cd 2abf fe04 873b f2c9 f8be
00000200: f9b1 973f 6c8b 9b3b f69a dcbe 9c46 493e
00000210: 1ce8 c03d 78ff fc3e 5c87 69bf b07c 8b3f
00000220: 5b7f b23e 99d8 95bf fb12 de3e b952 c63d
00000230: a355 50bf bc39 5c3e ed4e 7cbd ba98 f73e
00000240: 1ed1 383d ea9f 203f c168 2c40 cd88 c83f
00000250: 4f9f 9f3f 83fd e33c 4cc5 383f f8c7 3340
00000260: a423 df3f 514e 813f 52da 58be 45c6 f43e
00000270: 58fc 3840 2b81 d03f ae13 843f cc32 cb3e
00000280: 8bee 073f ec09 103f ebce 4d3f bcb3 6dc0
00000290: 1914 88c0 caa2 8fc0 72fc 65c0 3362 1dc0
000002a0: 74ac 1abf f434 e0be b5e1 253f 0803 32be
000002b0: 8ada f53d 921b a5bf 8244 6bbd cc1c 6abf
000002c0: 6cb2 17be ef2e c23e c57b 933e 54a7 53bd
000002d0: 365c 353f 5bef 33be 465f ca3e 70cd 9abb
000002e0: 78f9 15be 0374 333f a976 bd3d a931 fc3e
000002f0: 0e36 13bf ad2f 853f b1d8 663f a632 9b3f
00000300: 253c 0fbe 69d9 6e3c e706 be3e f68b 32bf
00000310: 82fb e2be 8847 3e3f d48c 92bf dd4f 443e
00000320: 3a57 9c3f 871e 423f cafa 42c0 69b2 68c0
00000330: 0e58 2cc0 b6f5 a83f f163 583f 11bb 40c0
00000340: 72f0 65c0 0bf0 25c0 fe95 aa3f bb46 453f
00000350: d8e6 46c0 4c92 6ec0 5a1e 27c0 dfb9 5640
00000360: 9e83 1e40 332c ad3f 320b 603e 25b0 5a3f
00000370: bc32 aa3f 7a9a e93f 4bfd 0e40 c97c 2c40
00000380: e990 e43d d214 09be eb47 35be a3c0 643e
00000390: 0f2c 353e 6000 97bd cd60 17be 5859 b0be
000003a0: 1aeb 363f d78b a0be bf30 413e 1e80 b1be
000003b0: bf87 29be a2f1 69be 2368 8b3f b0fa 6bbd
000003c0: 25bd 7d3e d30b 29be 2ceb 7e3e f281 583f
000003d0: 507a 3fbe 170f 0c3f 7c94 243f 5a1f 0dbe
000003e0: d5db 84be e8cf 343e 36d2 493d 5469 4f3e
000003f0: 052e e0bc 4627 62bd d9f0 05bf 2aae 453e

convs.0.fc_full.bias f4 [32]
-0.06493784 0.3370371 -0.15732136 -0.05267689 -0.23738442 -0.54340094 -0.17427929 -0.13214582
0.01453706 -0.06263828 -0.21282838 0.016505593 -0.14494674 -0.17234121 0.13655931 0.33171704
-0.1043021 -0.04966777 -0.16425736 0.27130726 -0.30590725 0.2549425 -0.06961809 0.13311873
0.001244586 -0.1439772 0.1493853 -0.027652752 -0.038778987 0.10314584 0.3849553 0.45644203
00000000: 21fe 84bd 2090 ac3e da18 21be b9c3 57bd
00000010: e714 73be 531c 0bbf 4576 32be 3c51 07be
00000020: d92c 6e3c 8048 80bd afef 59be bd36 873c
00000030: eb6c 14be 377a 30be 34d6 0b3e d1d6 a93e
00000040: 579c d5bd 6e70 4bbd 1533 28be c9e8 8a3e
00000050: e09f 9cbe d387 823e ee93 8ebd 4750 083e
00000060: 6021 a33a c26e 13be 76f8 183e 0688 e2bc
00000070: b7d6 1ebd 203e d33d dc18 c53e c5b2 e93e

convs.0.bn1.weight f4 [32]
3.3342078 3.8784368 4.708124 3.240835 2.7854264 1.8241452 4.24419 4.173277
4.6665306 7.3203783 2.7774549 4.471054 5.4259305 3.9214873 3.503996 5.6740503
1.6521225 1.1135414 0.63157177 0.6282894 3.9918096 1.0051936 1.9491782 1.4763609
0.88379806 0.8455808 1.5328921 2.62584 0.79667103 0.7099691 1.8460695 1.5437969
00000000: a963 5540 4f38 7840 f4a8 9640 d769 4f40
00000010: 6d44 3240 977d e93f 68d0 8740 7c8b 8540
00000020: 3854 9540 8a40 ea40 d2c1 3140 e012 8f40
00000030: 39a1 ad40 a6f9 7a40 7841 6040 d291 b540
00000040: c078 d33f 8688 8e3f b0ae 213f 93d7 203f
00000050: cf79 7f40 2faa 803f ac7e f93f 65f9 bc3f
00000060: 9740 623f fc77 583f cf35 c43f c30d 2840
00000070: a2f2 4b3f 89c0 353f 014c ec3f 239b c53f

convs.0.bn1.bias f4 [32]
-0.63626355 1.0313137 0.27417582 0.11416208 -1.0567157 0.5280302 -0.39799505 -0.604971
0.7344264 0.53056663 -0.5016941 -0.5782708 -0.81891435 0.007931224 -1.0878946 -0.93992376
-0.6527155 0.4822119 0.9892068 0.456076 -0.25855446 0.33196795 -2.4431305 -1.7027122
1.0054157 0.43957895 -2.7372496 -4.472344 0.022093734 0.4061633 -2.2972097 0.25389767
00000000: 2be2 22bf 1602 843f c660 8c3e cfcd e93d
00000010: 7642 87bf fd2c 073f 02c6 cbbe 61df 1abf
00000020: 5e03 3c3f 37d3 073f 066f 00bf 8e09 14bf
00000030: 5fa4 51bf f7f1 013c 2140 8bbf d89e 70bf
00000040: 5d18 27bf 7ae4 f63e a83c 7d3f cb82 e93e
00000050: 4061 84be b4f7 a93e 405c 1cc0 79f2 d9bf
00000060: 76b1 803f 7e10 e13e 192f 2fc0 711d 8fc0
00000070: ebfd b43c a3f4 cf3e 7c05 13c0 e0fe 813e

convs.0.bn1.running_mean f4 [32]
16.22503 11.515639 23.253756 -13.664134 -3.7879658 9.982774 -13.798194 -20.217607
4.6594424 4.0915513 -16.342155 4.4167886 -53.5853 10.474546 -13.052858 9.488164
-4.844508 37.102596 -8.453121 2.9894226 -5.777776 14.827756 -24.504509 -18.871279
-0.49382806 -12.68931 -12.464333 -18.429321 13.223969 -6.9427896 -36.749546 -0.7975577
00000000: ddcc 8141 0f40 3841 b107 ba41 4ba0 5ac1
00000010: 086e 72c0 71b9 1f41 67c5 5cc1 a9bd a1c1
00000020: 271a 9540 fded 8240 bcbc 82c1 5556 8d40
00000030: 5957 56c2 be97 2741 82d8 50c1 85cf 1741
00000040: 3606 9bc0 0f69 1442 fc3f 07c1 b352 3f40
00000050: 8ae3 b8c0 7d3e 6d41 3c09 c4c1 61f8 96c1
00000060: 08d7 fcbe 6a07 4bc1 e86d 47c1 406f 93c1
00000070: 6195 5341 552b dec0 89ff 12c2 be2c 4cbf

convs.0.bn1.running_var f4 [32]
62.41537 26.97153 30.4741 50.67622 57.956356 67.50769 45.42401 20.734243
61.252083 56.635166 52.9126 12.873031 28.610355 98.363075 21.929663 124.13057
44.130203 45.640053 60.972664 53.07821 131.81934 58.822983 31.369804 19.822905
111.724945 43.9172 47.825718 20.547106 30.64739 154.55344 24.495893 60.137604
00000000: 57a9 7942 b2c5 d741 f5ca f341 73b4 4a42
00000010: 4fd3 6742 f003 8742 30b2 3542 bbdf a541
00000020: 2202 7542 698a 6242 81a6 5342 eff7 4d41
00000030: 02e2 e441 e5b9 c442 f36f af41 da42 f842
00000040: 5485 3042 6a8f 3642 02e4 7342 1650 5442
00000050: c0d1 0343 bc4a 6b42 5cf5 fa41 4f95 9e41
00000060: 2c73 df42 36ab 2f42 894d 3f42 7960 a441
00000070: db2d f541 ae8d 1a43 97f7 c341 e88c 7042

convs.0.bn2.weight f4 [16]
1.142951 1.3144829 1.9126492 1.5605626 1.4401021 1.6149607 1.7557164 1.6964328
1.5964813 0.71560454 1.5763029 1.367967 1.3106223 0.99352705 1.1811855 1.2828133
00000000: 384c 923f fa40 a83f b0d1 f43f 84c0 c73f
00000010: 4455 b83f 08b7 ce3f 51bb e03f b624 d93f
00000020: 8059 cc3f dc31 373f 4bc4 c93f 8b19 af3f
00000030: 79c2 a73f ca57 7e3f 1631 973f 3a33 a43f

convs.0.bn2.bias f4 [16]
0.5916119 0.3865251 -0.5158387 -0.18319339 0.5853424 -0.007215815 0.5750258 0.9694912
-0.11559396 0.6245167 0.23159643 -0.3710633 0.5594489 -0.28579733 -0.2257683 0.10508496
00000000: e173 173f 9ee6 c53e 010e 04bf 0c97 3bbe
00000010: 00d9 153f a572 ecbb e434 133f 9330 783f
00000020: 87bc ecbd 54e0 1f3f 9d27 6d3e 02fc bdbe
00000030: 0b38 0f3f 0754 92be ce2f 67be c936 d73d

convs.0.bn2.running_mean f4 [16]
2.9970746 7.537649 9.158763 6.3489246 15.69752 9.218039 3.0964336 2.656202
10.250656 5.246357 1.6661344 1.4301072 3.4964502 8.97304 2.674632 7.451147
00000000: 12d0 3f40 6c34 f140 4b8a 1241 642a cb40
00000010: 0b29 7b41 167d 1341 f82b 4640 37ff 2940
00000020: b002 2441 28e2 a740 e443 d53f c10d b73f
00000030: d7c5 5f40 9291 0f41 2c2d 2b40 cc6f ee40

convs.0.bn2.running_var f4 [16]
5.6667004 39.66175 69.60938 9.9681635 179.8919 5.240352 28.334743 4.77591
39.77106 53.364998 1.9199849 6.221762 6.121183 5.846194 10.098989 65.82912
00000000: 9c55 b540 a2a5 1e42 0138 8b42 997d 1f41
00000010: 54e4 3343 f7b0 a740 8ead e241 41d4 9840
00000020: 9115 1f42 c275 5542 11c2 f53f ad18 c740
00000030: bbe0 c340 0514 bb40 7595 2141 82a8 8342

convs.1.fc_full.weight f4 [32, 56]
0.6699789 -0.23286667 -0.7064579 -1.3693309 -0.5083161 0.031975944 -0.64704 -0.6881507
-0.3257932 0.18788654 -0.42852417 -0.08668978 -0.17661071 -0.29469633 0.14979695 -0.5676049
-0.6095447 -0.27241093 -0.16971071 0.15388915 1.3017588 0.302611 -1.1349124 0.20227075
-0.2785044 -0.33170342 0.40766892 0.32550097 -0.14074257 0.0051970035 0.98951423 0.55064857
-5.9657693 -6.210652 -6.129302 1.9509633 3.8077896 -5.762325 -6.2138295 -6.080785
1.8141298 4.0028114 -5.6687675 -6.0989866 -6.2074156 1.9127568 3.9743845 -1.3728292
-1.779721 -2.42342 -3.2775393 -1.4612978 -1.6265273 -0.6779918 -0.62703013 -1.6064767
1.3377905 -0.24835779 3.3654716 0.92771894 0.19435084 0.1694045 -0.8410596 -1.0490165
-0.06741651 0.991998 -0.9622446 -0.3635278 -0.41120142 -0.57738954 0.1988809 0.11938785
-0.22781113 0.5067079 1.3491745 0.21648002 0.5335621 1.5724267 0.57783186 0.89797384
0.67914736 0.76858 0.6343272 -1.0308383 1.820071 0.9602053 -0.03282857 -1.2570577
2.148845 2.8234205 0.5091222 -1.059886 -1.205046 2.1552129 2.9085975 0.73045164
-0.9605649 -1.2061895 2.1582448 2.9637153 0.5979423 -0.81603205 -1.3361039 1.2859466
1.9088981 2.4947298 2.346529 4.6030703 4.987719 0.87095237 -0.9244272 -1.8526517
1.0499357 0.3944361 -0.40226102 0.53496605 -0.20851327 1.6015236 0.4040991 0.37876904
-2.2944953 -0.12594293 0.23880537 -0.59129304 -0.019458666 -0.04407404 -0.087133154 0.22774139
0.29856953 2.0750375 -1.0967902 -0.8553311 0.12563488 0.5446838 -0.44203833 -2.0163658
-2.149267 0.21539165 -0.051430117 -0.7296029 -0.5756913 -0.3162971 -0.2139204 -1.0920751
0.06971132 0.27533737 1.2491342 0.3771354 0.10615816 0.18551213 0.31721517 1.231206
0.3414192 0.0981434 0.108080536 0.30020592 1.3820482 0.44476858 0.029867843 -0.6943193
0.14061356 1.2076169 2.4506533 -0.41070712 -0.042238448 0.35289398 0.4315821 0.055138055
-0.09360486 0.06230127 -0.15371194 0.56348324 -1.6186723 0.23058392 -0.5496782 -0.9963831
-0.07406113 1.1308457 1.0145646 -0.36490867 0.13322057 -0.06534597 -2.159955 -0.71962625
-0.111762665 0.29847926 -0.1841897 -0.6240999 0.47846067 -0.8881596 0.20249553 -0.60340047
0.50160867 -0.51676816 0.60512716 0.10954587 -0.9786132 0.17164429 -1.0564411 -0.2161694
-0.25134423 -0.2077463 0.4202575 0.63821954 0.38569704 -0.17687301 -0.0070092874 0.52495736
0.74658054 0.5252577 -0.28594851 -0.12309443 0.51185524 0.6464069 0.43582156 0.41710573
0.27461487 -0.054337975 -0.09671757 -2.8792958 -3.114265 -2.523595 -2.2776506 -2.2556987
-0.31160098 -0.11966506 0.064927556 0.57731724 -0.22258063 0.41117585 -0.5842233 -0.46791396
-0.53777343 0.5199174 1.3209536 -1.8177949 1.7846807 -2.4083428 1.3779191 -0.64955133
-0.2919969 0.89765215 0.020160856 -0.5992053 -0.7020739 0.5368692 -0.15437895 -0.9492197
0.53035414 -0.3900648 -0.8304407 -0.3865947 -0.90770954 -0.33260158 -0.35653746 -0.8701114
00000000: bd83 2b3f 9a74 6ebe 6dda 34bf 3c46 afbf
00000010: 0121 02bf 35f9 023d 6aa4 25bf a52a 30bf
00000020: 5ece a6be 5465 403e 8567 dbbe 698a b1bd
00000030: 70d9 34be 70e2 96be 5f64 193e 8e4e 11bf
00000040: 1f0b 1cbf 7279 8bbe a5c8 2dbe 1e95 1d3e
00000050: 08a0 a63f d4ef 9a3e cf44 91bf 1020 4f3e
00000060: 2198 8ebe 08d5 a9be fbb9 d03e 10a8 a63e
00000070: d21e 10be a04b aa3b ce50 7d3f 4ef7 0c3f
00000080: 95e7 bec0 a9bd c6c0 3e23 c4c0 2ab9 f93f
00000090: d3b2 7340 f764 b8c0 b1d7 c6c0 ca95 c2c0
000000a0: 6835 e83f 0817 8040 8b66 b5c0 e62a c3c0
000000b0: 26a3 c6c0 37d5 f43f 515c 7e40 deb8 afbf
000000c0: e6cd e3bf 5019 1bc0 34c3 51c0 ce0b bbbf
000000d0: 0c32 d0bf df90 2dbf 0c85 20bf 07a1 cdbf
000000e0: b83c ab3f 8151 7ebe e363 5740 fd7e 6d3f
000000f0: e803 473e 6078 2d3e af4f 57bf 2c46 86bf
00000100: ab11 8abd 95f3 7d3f a955 76bf 5120 babe
00000110: fe88 d2be cdcf 13bf 6fa7 4b3e 9e81 f43d
00000120: 5247 69be 9cb7 013f c0b1 ac3f f0ac 5d3e
00000130: 8797 083f 4745 c93f caec 133f 9de1 653f
00000140: 9adc 2d3f a9c1 443f 4463 223f 82f2 83bf
00000150: 16f8 e83f 04d0 753f 4077 06bd 44e7 a0bf
00000160: ad86 0940 ecb2 3440 d555 023f 58aa 87bf
00000170: f33e 9abf 02ef 0940 7626 3a40 e1fe 3a3f
00000180: 95e7 75bf 6b64 9abf af20 0a40 83ad 3d40
00000190: bf12 193f 7ae7 50bf 7405 abbf e699 a43f
000001a0: c656 f43f a7a9 1f40 882d 1640 5a4c 9340
000001b0: 659b 9f40 bcf6 5e3f 43a7 6cbf b123 edbf
000001c0: 4b64 863f 87f3 c93e 28f5 cdbe 89f3 083f
000001d0: 8184 55be bafe cc3f 14e6 ce3e 04ee c13e
000001e0: 03d9 12c0 2ff7 00be 6589 743e fb5e 17bf
000001f0: c867 9fbc fb86 34bd de72 b2bd 0a35 693e
00000200: 1bde 983e 6acd 0440 9f63 8cbf fbf6 5abf
00000210: 6ea6 003e 6670 0b3f d952 e2be 230c 01c0
00000220: 978d 09c0 a18f 5c3e 63a8 52bd 41c7 3abf
00000230: 8160 13bf b2f1 a1be f30d 5bbe 1ec9 8bbf
00000240: cfc4 8e3d 05f9 8c3e a1e3 9f3f e417 c13e
00000250: 7369 d93d e4f6 3d3e 076a a23e 2998 9d3f
00000260: 7fce ae3e 68ff c83d 5459 dd3d 97b4 993e
00000270: f5e6 b03f b5b8 e33e 68ad f43c e9be 31bf
00000280: 00fd 0f3e 3193 9a3f 81d7 1c40 3448 d2be
00000290: 3902 2dbd 85ae b43e 54f8 dc3e 71d8 613d
000002a0: e8b3 bfbd 9e2f 7f3d aa66 1dbe 7040 103f
000002b0: a730 cfbf 311e 6c3e b6b7 0cbf f612 7fbf
000002c0: 5dad 97bd 8dbf 903f 41dd 813f 4fd5 babe
000002d0: f96a 083e 1cd4 85bd b43c 0ac0 6d39 38bf
000002e0: d3e3 e4bd 46d2 983e 3a9c 3cbe 03c5 1fbf
000002f0: ccf8 f43e 6d5e 63bf fd5a 4f3e 7478 1abf
00000300: 6d69 003f eb4a 04bf 9de9 1a3f 9659 e03d
00000310: 6586 7abf 85c3 2f3e 7639 87bf 835b 5dbe
00000320: 31b0 80be 72bb 54be fe2b d73e 5b62 233f
00000330: 157a c53e 331e 35be 2aae e5bb 9b63 063f
00000340: e71f 3f3f 4a77 063f d867 92be ef18 fcbd
00000350: f208 033f ec7a 253f 0124 df3e e28e d53e
00000360: 529a 8c3e 7f91 5ebd dd13 c6bd 6246 38c0
00000370: 1e50 47c0 9582 21c0 07c5 11c0 5e5d 10c0
00000380: 2a8a 9fbe f412 f5bd bdf8 843d 10cb 133f
00000390: 2dec 63be a485 d23e a88f 15bf 6b92 efbe
000003a0: 85ab 09bf 4f19 053f 0215 a93f 81ad e8bf
000003b0: 6b70 e43f 4a22 1ac0 a75f b03f ff48 26bf
000003c0: 9e80 95be 88cc 653f 6128 a53c 8565 19bf
000003d0: 1dbb 33bf 4370 093f 8415 1ebe 1000 73bf
000003e0: 4ac5 073f 93b6 c7be c397 54bf beef c5be
000003f0: a75f 68bf c14a aabe 148c b6be 9fbf 5ebf

convs.1.fc_full.bias f4 [32]
-0.08304449 0.207784 -0.1408177 -0.23371252 0.07839866 0.28785297 0.15001327 -0.257358
0.15398279 0.16249003 0.18391246 -0.16639863 0.22894987 0.4748453 0.031214759 -0.08478673
-0.5937263 -0.39378807 0.47084698 0.14309768 -0.2435234 -0.1784819 0.13091788 -0.5147209
0.11554092 0.21338832 0.5852197 -0.00032722155 0.35232684 0.47372276 -0.043371875 -0.10431681
00000000: 3b13 aabd 54c5 543e 8432 10be 5652 6fbe
00000010: 7a8f a03d 7761 933e 149d 193e 6ec4 83be
00000020: aaad 1d3e c963 263e 8c53 3c3e 6764 2abe
00000030: d671 6a3e ec1e f33e 18b6 ff3c aaa4 adbd
00000040: 72fe 17bf 979e c9be db12 f13e 3388 123e
00000050: 335e 79be f6c3 36be 560f 063e c0c4 03bf
00000060: b8a0 ec3d 7882 5a3e f5d0 153f ef8e abb9
00000070: 2f64 b43e ca8b f23e b5a6 31bd 0da4 d5bd

convs.1.bn1.weight f4 [32]
3.440264 7.2942014 1.8140612 5.7653446 2.8519073 3.5389419 5.043584 3.1845164
6.717547 2.5536392 4.3009405 3.2515275 2.7546542 4.346444 1.4118676 4.763889
2.1277187 1.9348321 1.2885712 0.70709497 3.6730769 1.0209543 3.1950126 4.620451
1.1830757 2.3252428 1.857619 2.6365123 6.130235 2.738807 1.7196021 2.1980171
00000000: 492d 5c40 196a e940 2833 e83f b47d b840
00000010: a685 3640 067e 6240 0a65 a140 1ecf 4b40
00000020: 25f6 d640 d36e 2340 4ea1 8940 0719 5040
00000030: 414c 3040 1216 8b40 14b8 b43f c771 9840
00000040: 8b2c 0840 94a8 f73f e7ef a43f 2d04 353f
00000050: b113 6b40 a1ae 823f 167b 4c40 bcda 9340
00000060: 066f 973f c7d0 1440 76c6 ed3f 9ebc 2840
00000070: e32a c440 9d48 2f40 ec1b dc3f 50ac 0c40

convs.1.bn1.bias f4 [32]
-1.6352215 -1.369713 -0.7685987 -0.011410747 -0.8280953 -0.5772386 -0.8691577 -0.09341946
-0.34363756 -0.22443351 -0.29621318 -1.961389 0.36578605 -1.1231835 -0.63405365 -0.75471044
-3.0094771 -1.1762639 -0.772195 0.24539557 -2.4162912 -0.07578829 -1.1744407 -1.2044065
0.8592737 -1.2087072 -0.54722965 -1.5715631 -1.8916069 -1.1745526 -1.0084623 -0.4255971
00000000: f04e d1bf c152 afbf e2c2 44bf 24f4 3abc
00000010: 0efe 53bf e9c5 13bf 1e81 5ebf b452 bfbd
00000020: 43f1 afbe e6d1 65be 41a9 97be cb0e fbbf
00000030: 4f48 bb3e 7ac4 8fbf 5751 22bf b434 41bf
00000040: 469b 40c0 d18f 96bf 92ae 45bf fa48 7b3e
00000050: 84a4 1ac0 e436 9bbd 1354 96bf fe29 9abf
00000060: 5cf9 5b3f ebb6 9abf 3e17 0cbf fb28 c9bf
00000070: 2d20 f2bf bd57 96bf 4b15 81bf dde7 d9be

convs.1.bn1.running_mean f4 [32]
-44.049282 19.723547 4.643565 -1.4313668 0.26809114 -4.937075 -25.612259 -9.273968
-14.366661 -2.0941646 -2.7249355 -20.518803 -1.3065382 -57.255 -14.939555 -15.855844
-43.0067 4.2480006 3.9746711 1.1850277 -8.798286 -19.71189 -20.362125 0.37824532
-15.543799 -8.907869 -19.58844 -18.887243 6.3002505 -16.514599 -16.781164 -31.896912
00000000: 7732 30c2 d3c9 9d41 1698 9440 0737 b7bf
00000010: 3e43 893e 85fc 9dc0 e8e5 ccc1 2c62 14c1
00000020: d8dd 65c1 cb06 06c0 5865 2ec0 8226 a4c1
00000030: a53c a7bf 1f05 65c2 6b08 6fc1 89b1 7dc1
00000040: dc06 2cc2 9fef 8740 0361 7e40 fdae 973f
00000050: c8c5 0cc1 f3b1 9dc1 a2e5 a2c1 5fa9 c13e
00000060: 67b3 78c1 a286 0ec1 20b5 9cc1 1319 97c1
00000070: a79b c940 e61d 84c1 d33f 86c1 e02c ffc1

convs.1.bn1.running_var f4 [32]
51.374638 39.411266 20.157188 19.323162 26.093994 25.116356 27.222643 62.97415
19.317144 89.74962 74.40878 52.99879 36.20463 15.463018 30.836557 7.534425
16.645555 53.576897 61.12464 87.263855 12.899768 17.05071 47.627003 31.505428
47.25704 40.30678 74.84302 30.11607 36.016342 22.316359 29.1253 22.198507
00000000: a17f 4d42 23a5 1d42 ec41 a141 d695 9a41
00000010: 80c0 d041 4cee c841 f9c7 d941 88e5 7b42
00000020: 8389 9a41 ce7f b342 4cd1 9442 c3fe 5342
00000030: 8bd1 1042 8668 7741 45b1 f641 021a f140
00000040: 192a 8541 be4e 5642 a27f 7442 1887 ae42
00000050: 7365 4e41 db67 8841 0d82 3e42 1e0b fc41
00000060: 3507 3d42 253a 2142 a0af 9542 b6ed f041
00000070: bc10 1042 e787 b241 9d00 e941 8b96 b141

convs.1.bn2.weight f4 [16]
1.1403605 2.1533024 1.5167675 1.7534242 1.2307494 1.914742 0.87921154 1.2487249
1.5988644 0.71713734 2.1767862 1.4325242 2.384633 1.3789152 0.53135926 1.5905929
00000000: 55f7 913f b5cf 0940 7025 c23f 3470 e03f
00000010: 3289 9d3f 4416 f53f 0214 613f 38d6 9f3f
00000020: 97a7 cc3f 5096 373f 7750 0b40 f45c b73f
00000030: d49d 1840 4b80 b03f 2907 083f 8c98 cb3f

convs.1.bn2.bias f4 [16]
0.5622328 0.34109583 -1.5979714 0.3941723 -0.80626947 -0.4961066 -0.9888186 0.10541452
-0.10205453 0.5547895 0.06834169 0.38451868 1.5291377 -0.53224987 -0.53708875 -0.49319863
00000000: 7dee 0f3f 1da4 ae3e 548a ccbf f4d0 c93e
00000010: ad67 4ebf af01 febe 3723 7dbf 91e3 d73d
00000020: f701 d1bd af06 0e3f baf6 8b3d a2df c43e
00000030: c9ba c33f 8741 08bf a67e 09bf 8884 fcbe

convs.1.bn2.running_mean f4 [16]
1.293202 4.274056 2.8643203 3.8358357 3.9920754 2.8851388 5.735801 6.618216
9.628815 5.7490664 8.085117 1.7023175 18.242641 5.69329 4.4117384 4.830914
00000000: a587 a53f 11c5 8840 0651 3740 557e 7540
00000010: 2a7e 7f40 1da6 3840 af8b b740 6dc8 d340
00000020: a00f 1a41 5af8 b740 a45c 0141 8ae5 d93f
00000030: eef0 9141 6f2f b640 f62c 8d40 d996 9a40

convs.1.bn2.running_var f4 [16]
7.911952 8.918605 6.9077044 12.662439 48.679806 5.513838 59.788837 51.182915
51.377403 29.691904 50.655968 3.6549306 244.83049 41.32797 40.058594 19.413168
00000000: b62e fd40 9bb2 0e41 ea0b dd40 5a99 4a41
00000010: 1fb8 4242 5c71 b040 c527 6f42 4ebb 4c42
00000020: 7682 4d42 0589 ed41 b69f 4a42 62ea 6940
00000030: 9bd4 7443 d74f 2542 003c 2042 2b4e 9b41

convs.2.fc_full.weight f4 [32, 56]
0.3180255 0.087587036 0.8219012 0.43109304 -2.0366511 -1.1518062 -0.5564074 1.0755442
0.4367168 -0.37237155 -0.4324228 -1.5800939 -1.9119524 -0.12997432 -0.58764344 0.25904357
-0.5928204 0.51463604 0.8440628 -0.032683946 -0.33973292 -1.1808311 -1.3740132 0.570069
0.4698333 -0.5132257 0.30899885 -1.3833205 -0.5687698 0.09517282 -0.73701745 0.69129074
0.25080374 0.0675997 0.6642336 0.021023866 -0.016168952 0.32895347 0.23477376 0.69814456
0.04292199 -0.11775937 0.16767262 0.33830446 0.85821354 0.09608568 0.0325598 0.15877466
0.42561427 0.37096754 0.7451696 -3.0479057 -1.5888654 0.8593493 0.972185 1.5080124
0.2991859 -0.6539888 -1.9386353 -0.20704621 1.496165 0.18845285 -1.5183417 -0.27884686
-2.2588046 1.2049035 -0.5627535 1.5552717 0.54513276 -1.193995 -0.040185478 -0.07959291
-0.2701201 -0.22670121 -0.5371101 -0.37889907 0.7485734 0.78330016 0.021533629 1.694858
0.052168585 0.0080826 0.55377674 0.7122285 -0.30774578 0.2753963 -0.00059162796 -0.29183334
-0.10500004 0.20954107 1.7288169 0.84380704 0.51620686 -0.027604997 0.32078302 1.7033962
0.9717225 0.4278189 -0.021417717 0.41260684 1.7507632 1.0114567 0.5669194 -0.95598483
-0.865836 -0.7952989 -0.045457676 -0.71542203 -0.2421554 -1.220015 -1.6343325 -1.062202
0.21973011 -1.5683748 -0.5364698 -0.84025425 -2.120736 -0.5078209 0.11179475 -0.1442682
0.2688538 0.22165881 -0.50520825 -0.9838885 0.15213163 0.040509257 0.8156057 0.24948108
0.39124694 -2.4437444 -0.345334 -0.30194888 -1.3139274 0.65118116 -0.9639746 -0.8977976
0.0080527915 0.31886822 -0.57191634 -2.0295658 -0.60600746 -0.9066553 0.52835447 -0.16022286
-2.810528 -2.7373316 -1.8968533 1.5948708 2.4052474 -2.780724 -2.767674 -1.8326334
1.6859989 2.354778 -2.6254616 -2.8258836 -1.7847396 1.7453642 2.5092177 -0.6929983
-0.13844776 0.39398107 0.6228563 -4.27104 -4.1425347 -1.847385 -0.4627862 0.64170986
0.007768575 -0.27163306 -0.076382935 0.2811575 -0.8850668 -0.5284278 1.1096364 0.71336246
1.1852055 0.10408638 -1.2083828 -1.4804053 0.38256916 0.84557927 0.5512555 -0.3402973
-0.38489613 0.7869505 0.28655154 0.24118917 -0.2524055 -0.07346578 0.57183087 1.0115948
0.7041445 0.68175036 -0.8081817 -1.0415974 -0.042667538 1.3194994 0.1586577 0.8610583
1.6840364 2.0147634 4.002831 0.14326593 -0.61730826 1.5482982 1.9085256 4.1088233
0.21925698 -0.5244137 1.4797397 1.8711472 4.116879 0.091514185 -0.5036858 0.058331374
-0.3878602 -0.5589751 -0.310989 -2.806798 -2.0002098 -0.30599406 0.21249464 0.7967028
-1.5166132 -0.8947765 1.1547221 -0.37897712 -0.6663525 1.9253284 0.104847796 1.5798575
-1.0372632 -0.44397366 -0.6135885 0.59419566 -1.2069107 -0.44180837 -0.11536134 -0.45645273
0.8866283 0.82535684 0.20624448 -0.0006857659 -1.5396188 1.3047826 -0.37000665 0.9642823
1.4991843 1.1550611 0.022342231 0.7842055 0.035814308 -0.25382033 1.071578 0.22376572
00000000: 3dd4 a23e d560 b33d 1e68 523f 3ab8 dc3e
00000010: 7e58 02c0 636e 93bf b770 0ebf 6fab 893f
00000020: 5899 df3e 7ca7 bebe 8566 ddbe 8440 cabf
00000030: dbba f4bf fd17 05be cd6f 16bf 5ca1 843e
00000040: 14c3 17bf 30bf 033f 8014 583f 9adf 05bd
00000050: 79f1 adbe 7925 97bf aadf afbf 0bf0 113f
00000060: fe8d f03e c262 03bf 1935 9e3e a510 b1bf
00000070: e69a 11bf f8e9 c23d 2dad 3cbf 6ef8 303f
00000080: 5969 803e b671 8a3d 370b 2a3f 3e3a ac3c
00000090: c074 84bc 976c a83e 8868 703e 9ab9 323f
000000a0: f8ce 2f3d d32b f1bd 5fb2 2b3e 3e36 ad3e
000000b0: e2b3 5b3f 92c8 c43d 6d5d 053d d395 223e
000000c0: 1dea d93e 75ef bd3e 6fc3 3e3f e310 43c0
000000d0: f15f cbbf 51fe 5b3f 1ee1 783f 8d06 c13f
000000e0: e52e 993e cf6b 27bf 3425 f8bf ec03 54be
000000f0: 5682 bf3f c9f9 403e 0559 c2bf 04c5 8ebe
00000100: 4190 10c0 473a 9a3f 9d10 10bf 2513 c73f
00000110: d28d 0b3f d4d4 98bf 8799 24bd 9c01 a3bd
00000120: 2f4d 8abe 5d24 68be 0c80 09bf 0fff c1be
00000130: 82a2 3f3f 5c86 483f 4b67 b03c 1bf1 d83f
00000140: baae 553d e26c 043c 50c4 0d3f 9b54 363f
00000150: db90 9dbe be00 8d3e 7b17 1bba 2e6b 95be
00000160: 430a d7bd ef91 563e df49 dd3f bd03 583f
00000170: 2226 043f e023 e2bc ac3d a43e e308 da3f
00000180: cec2 783f 140b db3e 3574 afbc 3441 d33e
00000190: 0219 e03f 6a77 813f a121 113f 6cbb 74bf
000001a0: 6ea7 5dbf b598 4bbf d431 3abd e625 37bf
000001b0: 96f7 77be 7429 9cbf cf31 d1bf 3cf6 87bf
000001c0: ee00 613e 81c0 c8bf 1656 09bf e71a 57bf
000001d0: 23ba 07c0 8d00 02bf a5f4 e43d 0bbb 13be
000001e0: 35a7 893e 87fa 623e 5455 01bf 1ee0 7bbf
000001f0: 65c8 1b3e 09ed 253d 89cb 503f f877 7f3e
00000200: 8551 c83e 4f66 1cc0 9ecf b0be 0b99 9abe
00000210: c62e a8bf cfb3 263f 0ac7 76bf 10d6 65bf
00000220: dbef 033c b242 a33e 1c69 12bf 68e4 01c0
00000230: 4e23 1bbf 901a 68bf 3d42 073f 7611 24be
00000240: b1df 33c0 7130 2fc0 17cc f2bf ba24 cc3f
00000250: 93ef 1940 62f7 31c0 9221 31c0 bb93 eabf
00000260: d0ce d73f afb4 1640 9007 28c0 47db 34c0
00000270: 5972 e4bf 1868 df3f 0697 2040 5668 31bf
00000280: 40c5 0dbe e3b7 c93e 8373 1f3f 5cac 88c0
00000290: a58f 84c0 1d77 ecbf 50f2 ecbe 1947 243f
000002a0: 888f fe3b 7d13 8bbe a86e 9cbd e0f3 8f3e
000002b0: bd93 62bf 0b47 07bf 9108 8e3f ec9e 363f
000002c0: d0b4 973f 3d2b d53d 4aac 9abf ec7d bdbf
000002d0: 1be0 c33e e277 583f 151f 0d3f 733b aebe
000002e0: 1b11 c5be 9775 493f e2b6 923e 4bfa 763e
000002f0: 4b3b 81be 3a75 96bd 8263 123f f07b 813f
00000300: d042 343f 3187 2e3f ffe4 4ebf 1053 85bf
00000310: 28c4 2ebd 5be5 a83f 2a77 223e 516e 5c3f
00000320: 818e d73f e2f1 0040 3117 8040 4eb4 123e
00000330: ea07 1ebf a32e c63f 914a f43f 7b7b 8340
00000340: e784 603e fa3f 06bf 1c68 bd3f c081 ef3f
00000350: 79bd 8340 ca6b bb3d 8df1 00bf e1ec 6e3d
00000360: 9d95 c6be fe18 0fbf f339 9fbe 94a2 33c0
00000370: 7003 00c0 41ab 9cbe 3298 593e b7f4 4b3f
00000380: 6220 c2bf 1310 65bf efcd 933f 4a09 c2be
00000390: 1496 2abf 2971 f63f 71ba d63d c538 ca3f
000003a0: 0ac5 84bf 8450 e3be 2314 1dbf 351d 183f
000003b0: 0d7c 9abf b534 e2be 9142 ecbd 2cb4 e9be
000003c0: 13fa 623f 964a 533f c131 533e f8c4 33ba
000003d0: 3b12 c5bf 1e03 a73f 8371 bdbe 34db 763f
000003e0: 45e5 bf3f 0bd9 933f 0e07 b73c b1c1 483f
000003f0: 06b2 123d bdf4 81be 7829 893f d722 653e

convs.2.fc_full.bias f4 [32]
0.17315336 -0.14504163 -0.17808233 -0.087000564 -0.008099476 -0.2608489 -0.08397125 0.00055889715
0.08924637 0.014595293 0.0120993685 0.056819122 -0.079792716 0.19407552 0.019865828 -0.18224043
0.07793913 0.054517847 -0.26266006 -0.038896296 0.07354265 -0.11379606 0.0959061 0.104255095
-0.054957226 0.15544792 0.1431367 0.031236038 0.049740806 0.04650133 0.17716981 -0.23875248
00000000: 1d4f 313e cb85 14be 375b 36be 5a2d b2bd
00000010: aab3 04bc fd8d 85be 1ef9 abbd f482 123a
00000020: cdc6 b63d 1921 6f3c 6e3c 463c 2bbb 683d
00000030: 5d6a a3bd bcbb 463e a9bd a23c 3c9d 3abe
00000040: 8d9e 9f3d 1b4e 5f3d 617b 86be b951 1fbd
00000050: 879d 963d e90d e9bd 6b6a c43d b283 d53d
00000060: d41a 61bd bd2d 1f3e 6d92 123e b8e2 ff3c
00000070: 04bd 4b3d 2e78 3e3d 016c 353e 887b 74be

convs.2.bn1.weight f4 [32]
0.98553926 2.870646 2.4736855 0.7414938 1.3747034 5.1821947 6.4500093 4.6619105
5.8983846 2.1057854 2.676747 4.3193045 1.0739641 4.201139 0.5136233 5.9254947
-0.022393145 0.51973015 3.1107647 0.26589674 2.1525714 1.5207993 3.865366 1.1973811
1.5751829 0.7735531 1.3296883 4.6288567 1.6550355 1.5366067 1.369556 3.2130508
00000000: 4d4c 7c3f aab8 3740 dd50 1e40 8ad2 3d3f
00000010: 48f6 af3f 8ad4 a540 7a66 ce40 5f2e 9540
00000020: 91bf bc40 30c5 0640 d34f 2b40 be37 8a40
00000030: a877 893f bb6f 8640 d17c 033f a79d bd40
00000040: d471 b7bc 090d 053f c516 4740 9e23 883e
00000050: bbc3 0940 8da9 c23f 2862 7740 c943 993f
00000060: 989f c93f 9307 463f 3a33 aa3f 981f 9440
00000070: 34d8 d33f 87af c43f 9c4d af3f a0a2 4d40

convs.2.bn1.bias f4 [32]
0.50063306 -1.8821236 0.48033404 0.17164189 -0.77344805 0.26266602 -0.51581615 -1.53232
0.21360528 -0.5558043 -0.017193392 0.08993564 -1.886347 -0.23493978 -0.5346138 -0.8112972
0.81451285 -0.15790986 -1.5418539 -0.0068619386 -0.6057655 0.30728537 -0.76298416 -1.5602565
-0.42093852 -1.578397 -0.45812604 -1.2322947 -2.6942854 -1.674095 -1.4019186 -0.6415218
00000000: 7d29 003f 6de9 f0bf 58ee f53e e4c2 2f3e
00000010: b100 46bf 297c 863e 870c 04bf 1023 c4bf
00000020: 58bb 5a3e 3149 0ebf 28d9 8cbc 2d30 b83d
00000030: d273 f1bf 0e94 70be 73dc 08bf 2cb1 4fbf
00000040: ea83 503f 1fb3 21be 785b c5bf 1dda e0bb
00000050: 7313 1bbf 8254 9d3e ee52 43bf 7cb6 c7bf
00000060: 4185 d7be ea08 cabf 7f8f eabe d5bb 9dbf
00000070: 2c6f 2cc0 bf48 d6bf 1272 b3bf c63a 24bf

convs.2.bn1.running_mean f4 [32]
-12.879932 13.149462 -40.039833 23.455746 -10.246785 0.38151574 -34.35884 -8.59043
-22.383457 -19.499842 -17.873137 -30.252186 -33.83811 -27.536444 -18.524067 -15.521908
-16.669361 -13.620154 -23.684769 20.221615 -23.419788 31.87629 -50.942146 -25.55434
-34.098328 -31.588606 -8.547244 -1.4389389 -18.652458 -27.465334 -23.194656 -35.628067
00000000: 3414 4ec1 3264 5241 ca28 20c2 5ea5 bb41
00000010: d5f2 23c1 0856 c33e 746f 09c2 6772 09c1
00000020: 5211 b3c1 adff 9bc1 2ffc 8ec1 7a04 f2c1
00000030: 3a5a 07c2 a34a dcc1 4a31 94c1 bc59 78c1
00000040: da5a 85c1 27ec 59c1 687a bdc1 dec5 a141
00000050: ba5b bbc1 a402 ff41 c2c4 4bc2 4a6f ccc1
00000060: b064 08c2 77b5 fcc1 83c1 08c1 262f b8bf
00000070: 3c38 95c1 01b9 dbc1 a88e b9c1 2483 0ec2

convs.2.bn1.running_var f4 [32]
63.664757 45.323994 125.29436 52.767746 92.29107 87.55508 62.093384 47.116997
44.42179 149.31686 31.627228 64.2997 74.61023 37.049244 66.79742 34.702812
59.870804 26.174797 120.46583 53.11398 103.62971 34.784832 57.625755 45.471443
37.36064 164.59384 53.467823 57.06867 53.213955 28.757412 75.82132 68.60403
00000000: b6a8 7e42 c54b 3542 b696 fa42 2c12 5342
00000010: 0795 b842 331c af42 a05f 7842 ce77 3c42
00000020: eaaf 3142 1e51 1543 9004 fd41 7299 8042
00000030: 7038 9542 6d32 1442 4798 8542 aecf 0a42
00000040: b47b 6f42 fc65 d141 81ee f042 b774 5442
00000050: 6942 cf42 ab23 0b42 c680 6642 c2e2 3542
00000060: 4c71 1542 0698 2443 0ddf 5542 5146 6442
00000070: 17db 5442 2e0f e641 84a4 9742 4335 8942

convs.2.bn2.weight f4 [16]
1.3732499 2.994913 1.283687 1.8659296 2.0919063 2.4686556 1.6289316 2.3555043
1.5264459 1.7625586 1.6133392 1.628365 1.2875835 1.5479903 1.9394747 2.0417502
00000000: a7c6 af3f a8ac 3f40 db4f a43f c8d6 ee3f
00000010: cbe1 0540 74fe 1d40 d580 d03f 95c0 1640
00000020: 9462 c33f 859b e13f e681 ce3f 446e d03f
00000030: 89cf a43f 8c24 c63f b540 f83f 09ac 0240

convs.2.bn2.bias f4 [16]
0.20818757 0.15051192 -0.81617796 -0.02390697 -2.8751569 -0.5214888 -0.92946136 -0.28481054
-0.36100462 0.2409017 -0.1622768 -0.7848974 -0.7573519 -0.5361505 -0.19058973 -0.2105844
00000000: 1f2f 553e cc1f 1a3e 0af1 50bf 8dd8 c3bc
00000010: 9202 38c0 4a80 05bf 2ef1 6dbf b0d2 91be
00000020: 99d5 b8be efae 763e e42b 26be 09ef 48bf
00000030: d0e1 41bf 2941 09bf f429 43be 70a3 57be

convs.2.bn2.running_mean f4 [16]
8.512975 2.4265714 6.772091 4.7363677 5.7204103 6.026178 13.476357 1.6741604
5.2196245 1.7686082 4.7976723 4.4750996 0.31128415 2.178322 2.177 6.21636
00000000: 2535 0841 f24c 1b40 f8b4 d840 5390 9740
00000010: 9a0d b740 73d6 c040 299f 5741 e34a d63f
00000020: 2a07 a740 c161 e23f 8886 9940 0434 8f40
00000030: a360 9f3e a169 0b40 f853 0b40 6cec c640

convs.2.bn2.running_var f4 [16]
6.561664 7.2816586 86.12183 3.5198088 47.05021 14.453922 177.04446 1.6702243
30.948664 3.5638027 18.037237 63.354675 0.13723566 4.199077 6.8039274 78.66253
00000000: 27f9 d140 5903 e940 613e ac42 8c44 6140
00000010: 6a33 3c42 4443 6741 620b 3143 e9c9 d53f
00000020: dd96 f741 5815 6440 434c 9041 306b 7d42
00000030: 8187 0c3e d75e 8640 c6b9 d940 3753 9d42

convs.3.fc_full.weight f4 [32, 56]
0.6333429 0.17779827 1.7492114 0.8114652 0.2817223 1.1403852 -0.8501214 0.1704347
-1.3575425 0.74737483 -1.2985904 0.61220086 -0.9281889 0.25719818 -0.33845067 -0.27029493
-0.45207933 -0.0031789988 2.1546707 0.3323456 0.2670835 1.032749 0.794891 -0.24222155
0.5237127 -0.43792045 -0.25204828 0.009374644 1.043394 0.9608541 -0.27266753 1.2824974
1.0719388 1.4930247 5.163379 0.9251604 0.0047498588 1.1438423 1.5459898 5.5592647
0.6769208 0.044701748 0.9263767 1.4081138 5.619303 0.7744373 0.12700151 -0.544468
-0.34566295 -0.23671073 0.28963456 -2.95989 -1.9199458 0.3936092 1.2450507 1.6634302
-0.5371586 1.3031344 0.6082532 -0.7514607 -2.1771278 0.5935611 -0.8283186 -0.44988853
-1.5099467 -0.0771191 -0.4687145 1.0568914 0.34329838 -1.1216986 -0.52820975 -0.28623706
-1.1031036 0.5805307 0.6900431 -0.85087824 -0.78059113 0.848912 1.2437792 0.9535403
0.7615734 -0.47328267 0.77255744 0.30289558 1.4122825 -0.29258487 -0.55750704 0.8427089
0.07174745 0.7211424 5.3807726 2.9467132 1.9551058 -0.107105486 0.78796256 5.3796597
2.9548705 1.7543612 0.0007380461 0.81202465 5.480024 2.9145339 1.6752763 -1.4124535
-0.9698476 -0.43176943 0.39330623 -1.7708557 -0.9347274 -2.2891483 -3.6121273 -3.6390598
0.25373706 -0.2689709 2.1253533 -0.007399174 0.083657146 -0.37241027 0.6601137 0.74256766
0.22690493 0.5150091 -0.1920368 -0.028930731 -0.66272855 0.10328841 1.6606346 -0.87924993
0.69570994 0.5264118 2.1338894 -0.43866435 0.76203114 -1.0172702 0.47918156 0.579904
0.028655762 0.6243159 0.14391714 -0.9193298 -0.23250292 0.044568148 1.0654697 0.38532832
-2.4365041 -3.148925 -4.9048877 -0.8771035 0.39473128 -2.212694 -2.9224281 -4.969366
-0.7576428 0.5152331 -1.9769963 -2.8523405 -4.7271037 -0.9540787 0.537506 -0.62141037
-0.10678908 0.10463792 0.45447683 -1.4693153 -0.4163992 1.9142091 1.628759 0.86472976
-0.023395794 -0.651331 0.8389921 1.1678549 -1.2184238 0.713525 -0.31706187 0.18303534
-0.9005651 0.20048715 -1.5123229 0.20889017 -0.15949675 0.29115248 -0.30981094 -0.43101725
-0.39664638 0.9415594 1.4920388 0.35354155 0.14189565 -0.45858958 1.0741516 0.059723105
0.1935014 -0.1849118 -0.56572354 -0.3623328 0.25474945 0.96568435 -0.5448585 1.0566139
1.2630414 1.7447904 4.384052 0.28747475 -0.41889596 1.2298865 1.7616535 4.5491023
0.14611103 -0.3662529 1.3099248 1.6785079 4.7379727 0.28033698 -0.35434756 -0.07903944
-0.3042495 -0.42233756 -0.2074034 -2.6586049 -1.7610155 0.7850954 1.4398519 1.9572527
-0.89932513 -0.17694369 -1.1237226 -0.14177497 -0.64901036 1.6536704 -0.54404885 0.6855563
-0.66290337 1.678803 0.015008021 0.5824266 -0.8324665 0.3727924 0.49231127 -0.33989072
-0.28733262 -0.42594662 -0.86394155 -0.25367096 0.2768566 1.1505841 0.19388488 0.6120878
-0.4429662 0.99190515 0.056045912 1.0512611 -1.0698547 0.2840878 0.055801954 -0.26847172
00000000: c322 223f c010 363e 29e6 df3f 2fbc 4f3f
00000010: e83d 903e 24f8 913f 8ea1 59bf 6f86 2e3e
00000020: f4c3 adbf f553 3f3f 3638 a6bf 32b9 1c3f
00000030: ca9d 6dbf 7baf 833e 6849 adbe 1964 8abe
00000040: f176 e7be c056 50bb 20e6 0940 3429 aa3e
00000050: 2bbf 883e 1f31 843f fa7d 4b3f ed08 78be
00000060: 0912 063f 1c37 e0be 790c 81be 1b98 193c
00000070: ef8d 853f 89fa 753f 149b 8bbe e028 a43f
00000080: 4a35 893f 6f1b bf3f 673a a540 50d7 6c3f
00000090: b4a4 9b3b 6d69 923f fee2 c53f 7fe5 b140
000000a0: ae4a 2d3f 2e19 373d 0627 6d3f 133d b43f
000000b0: 55d1 b340 8641 463f af0c 023e 4162 0bbf
000000c0: bcfa b0be 4c64 72be fb4a 943e d66e 3dc0
000000d0: c9c0 f5bf 2587 c93e d25d 9f3f 48eb d43f
000000e0: 3a83 09bf 1ccd a63f 7bb6 1b3f ba5f 40bf
000000f0: 1056 0bc0 9ff3 173f b00c 54bf ca57 e6be
00000100: ef45 c1bf 9ef0 9dbd 59fb efbe 3848 873f
00000110: cec4 af3e d293 8fbf c138 07bf aa8d 92be
00000120: 8032 8dbf a99d 143f aaa6 303f 28d3 59bf
00000130: d2d4 47bf 4c52 593f 2834 9f3f 381b 743f
00000140: 79f6 423f 1b52 f2be 53c6 453f 2115 9b3e
00000150: acc5 b43f afcd 95be c8b8 0ebf c5bb 573f
00000160: 54f0 923d ca9c 383f 4a2f ac40 f396 3c40
00000170: e840 fa3f 1f5a dbbd eab7 493f 2c26 ac40
00000180: 991c 3d40 e88e e03f 6f79 413a d9e0 4f3f
00000190: 5b5c af40 b987 3a40 746f d63f 47cb b4bf
000001a0: ef47 78bf e210 ddbe 6f5f c93e 66ab e2bf
000001b0: 4b4a 6fbf 6881 12c0 182d 67c0 5be6 68c0
000001c0: d3e9 813e 8eb6 89be ca05 0840 c574 f2bb
000001d0: 7054 ab3d 8fac bebe 36fd 283f ea18 3e3f
000001e0: c459 683e a3d7 033f 4ba5 44be 2400 edbc
000001f0: 94a8 29bf e088 d33d ad8f d43f 8616 61bf
00000200: 0c1a 323f ecc2 063f a591 0840 9d98 e0be
00000210: 7914 433f e935 82bf 4957 f53e 9774 143f
00000220: 7dbf ea3c 2bd3 1f3f 045f 133e 3359 6bbf
00000230: 3f15 6ebe 178d 363d 5061 883f c149 c53e
00000240: afef 1bc0 fd87 49c0 d7f4 9cc0 db89 60bf
00000250: 381a ca3e c79c 0dc0 1009 3bc0 0c05 9fc0
00000260: e1f4 41bf 51e6 033f 370e fdbf bf8c 36c0
00000270: 6f44 97c0 803e 74bf fe99 093f c014 1fbf
00000280: 3cb4 dabd 684c d63d 30b1 e83e 8612 bcbf
00000290: 4732 d5be ce04 f53f 2d7b d03f ee5e 5d3f
000002a0: 89a8 bfbc a1bd 26bf 30c8 563f 457c 953f
000002b0: 50f5 9bbf 93a9 363f ef55 a2be 9e6d 3b3e
000002c0: 6f8b 66bf 814c 4d3e cc93 c1bf 4ee7 553e
000002d0: 1e53 23be f011 953e 8a9f 9ebe 4bae dcbe
000002e0: 3c15 cbbe 090a 713f 21fb be3f 6603 b53e
000002f0: 184d 113e 41cc eabe cd7d 893f 37a0 743d
00000300: 3b25 463e 8559 3dbe 42d3 10bf af83 b9be
00000310: 856e 823e 1737 773f d97b 0bbf 203f 873f
00000320: 57ab a13f 4b55 df3f 274a 8c40 e42f 933e
00000330: 8879 d6be ec6c 9d3f dd7d e13f 3f92 9140
00000340: 219e 153e 8085 bbbe 9eab a73f 59d9 d63f
00000350: 799d 9740 5488 8f3e 0b6d b5be 6edf a1bd
00000360: 97c6 9bbe a13c d8be 8f61 54be 9526 2ac0
00000370: f568 e1bf 03fc 483f 114d b83f 4287 fa3f
00000380: 2c3a 66bf ba30 35be 24d6 8fbf 752d 11be
00000390: 8b25 26bf 79ab d33f c946 0bbf 9e80 2f3f
000003a0: 09b4 29bf 04e3 d63f 34e4 753c e919 153f
000003b0: 861c 55bf a5de be3e 3910 fc3e 2806 aebe
000003c0: 431d 93be ad15 dabe 462b 5dbf 29e1 81be
000003d0: 26c0 8d3e 5746 933f c289 463e c9b1 1c3f
000003e0: 77cc e2be 7fed 7d3f 6690 653d b98f 863f
000003f0: 00f1 88bf f573 913e 9790 643d 2075 89be

convs.3.fc_full.bias f4 [32]
0.07041946 -0.079070106 -0.10813355 0.05308418 0.16654609 0.046832375 -0.04757449 0.038076837
0.06494542 0.13243239 0.1043024 -0.05310286 0.044551358 0.10332145 -0.12518105 -0.05319171
-0.00049834914 0.040590435 0.13986602 -0.051463302 0.1315 0.14108814 0.24593604 -0.105784796
0.070253976 -0.12704372 0.038996685 -0.09548269 0.13405369 -0.0012533917 -0.09295366 0.03113057
00000000: 1438 903d 82ef a1bd 1f75 ddbd cc6e 593d
00000010: 0f8b 2a3e 4ed3 3f3d 78dd 42bd 75f6 1b3d
00000020: 1b02 853d 5b9c 073e 7f9c d53d 6282 59bd
00000030: 7c7b 363d 329a d33d 762f 00be 8ddf 59bd
00000040: a5a3 02ba 2842 263d 0a39 0f3e 2fcb 52bd
00000050: f0a7 063e 6979 103e a8d6 7b3e b3a5 d8bd
00000060: 51e1 8f3d c017 02be fdba 1f3d 6e8c c3bd
00000070: 5f45 093e d948 a4ba 7d5e bebd 8a05 ff3c

convs.3.bn1.weight f4 [32]
1.7313687 3.4900873 1.5691311 1.1444503 2.00748 4.941162 5.1475368 2.2144597
3.0374434 0.7560374 4.3884716 2.0097454 2.3042207 3.4187253 1.034204 2.8432224
0.06250904 1.1284862 0.97089344 0.25445956 3.8880239 1.4664779 2.9992127 3.6003628
2.283604 0.58858144 1.3123636 1.8747464 2.4941497 2.358232 1.248773 1.0553839
00000000: 7d9d dd3f 975d 5f40 4ad9 c83f 597d 923f
00000010: 8d7a 0040 001e 9e40 9fb8 a440 b5b9 0d40
00000020: 7965 4240 ab8b 413f 5c6e 8c40 ab9f 0040
00000030: 5a78 1340 65cc 5a40 cc60 843f 5bf7 3540
00000040: bd04 803d 3c72 903f 798c 783f 8648 823e
00000050: 62d5 7840 8cb5 bb3f 1af3 3f40 586c 6640
00000060: 9126 1240 46ad 163f 88fb a73f b1f7 ef3f
00000070: 26a0 1f40 46ed 1640 cbd7 9f3f d216 873f

convs.3.bn1.bias f4 [32]
1.0155323 -1.657429 -1.9887236 0.13426861 -0.7942925 -0.9770803 -0.9012808 -2.8522398
-2.2320914 -1.6248752 0.09515413 -1.445321 -0.84331644 -0.55441195 0.12987678 0.72057843
0.86743194 -0.5082053 1.8193603 0.24495792 -2.0140522 -1.7094333 -0.87829304 0.57249063
-1.6520932 0.9169413 -0.23499061 -0.65116286 -0.041113984 -1.2320207 -0.09240785 0.26068926
00000000: f6fc 813f a226 d4bf 7f8e febf b67d 093e
00000010: c156 4bbf ef21 7abf 57ba 66bf 198b 36c0
00000020: 96da 0ec0 e9fb cfbf 2be0 c23d 4700 b9bf
00000030: 96e3 57bf f1ed 0dbf 6bfe 043e d477 383f
00000040: 0510 5e3f be19 02bf cce0 e83f 40d6 7a3e
00000050: 3be6 00c0 b6ce dabf d0d7 60bf bf8e 123f
00000060: ca77 d3bf aabc 6a3f 61a1 70be 9cb2 26bf
00000070: 2367 28bd dbb2 9dbf 5440 bdbd 1079 853e

convs.3.bn1.running_mean f4 [32]
32.71652 34.65174 -18.795012 19.511381 -9.744042 -7.9546943 7.06517 -11.758161
-1.5749758 14.083988 -17.562592 -10.461931 -20.985573 13.6180315 6.6178665 6.4489207
13.014773 16.143503 -38.789692 12.702854 -38.201454 -14.948832 -33.68449 -30.159336
-13.028471 -14.750889 -31.146664 -30.109879 4.015678 -4.8313236 -2.4618497 -38.695133
00000000: b7dd 0242 629b 0a42 2f5c 96c1 4f17 9c41
00000010: 99e7 1bc1 db8c fec0 df15 e240 6d21 3cc1
00000020: cf98 c9bf 0458 6141 3080 8cc1 1264 27c1
00000030: 74e2 a7c1 75e3 5941 90c5 d340 8f5d ce40
00000040: 833c 5041 e525 8141 a528 1bc2 e43e 4b41
00000050: 4ace 18c2 6a2e 6fc1 ebbc 06c2 5246 f1c1
00000060: 9e74 50c1 a403 6cc1 5e2c f9c1 08e1 f0c1
00000070: 6f80 8040 349a 9ac0 f28e 1dc0 d1c7 1ac2

convs.3.bn1.running_var f4 [32]
130.00378 120.47483 59.314728 85.892525 102.01332 65.26055 54.4113 125.21339
155.14491 177.9818 79.651924 43.097736 27.639181 126.97619 94.79852 65.70621
160.16533 89.14953 292.32602 121.958565 83.457054 80.63788 211.97624 139.65932
89.21084 136.115 69.56001 105.06309 72.22754 56.81621 100.52007 36.434895
00000000: f800 0243 1df3 f042 4842 6d42 f9c8 ab42
00000010: d206 cc42 6785 8242 2ca5 5942 416d fa42
00000020: 1925 1b43 57fb 3143 c94d 9f42 1564 2c42
00000030: 0b1d dd41 cff3 fd42 d898 bd42 9469 8342
00000040: 532a 2043 8f4c b242 bb29 9243 c9ea f342
00000050: 03ea a642 9846 a142 ebf9 5343 c9a8 0b43
00000060: f36b b242 711d 0843 ba1e 8b42 4d20 d242
00000070: 8074 9042 cd43 6342 470a c942 55bd 1142

convs.3.bn2.weight f4 [16]
1.5171539 3.1271014 1.8401824 1.8306016 2.1426198 1.6854439 2.2693226 1.1574075
1.3126147 1.1492708 2.3389068 2.6916676 1.4223708 1.6760489 1.9596694 1.8732417
00000000: 1932 c23f 6e22 4840 198b eb3f 2751 ea3f
00000010: af20 0940 a0bc d73f 953c 1140 ee25 943f
00000020: c203 a83f 4e1b 933f a6b0 1540 4844 2c40
00000030: 3f10 b63f c588 d63f 72d6 fa3f 62c6 ef3f
