cgcnndefect/defect_transfer_100/model_best.pth.tar (torch, 208687 bytes, 121 tensors)

embedding.weight f4 [16, 92]
-0.4943689 -0.044412207 0.25057408 -1.7383639 -1.2531815 -0.22780773 0.65528584 1.3718082
1.1690277 0.50928235 1.2766675 -0.22605206 -0.8025938 0.35025662 0.39436537 0.17681623
-0.29772127 0.27413127 -0.36145937 0.6392579 -0.48077437 -0.10308242 0.33895627 0.40361205
0.581417 0.3832127 -0.098262355 -0.64064956 0.08269079 -0.11435536 0.5981506 1.3349532
1.1478344 0.5199841 -0.62268794 -0.051394813 0.6237997 -0.4303983 1.1472778 0.39583656
0.50007397 -0.040729944 -0.60774523 -0.2214431 -0.23566175 -0.2153668 -0.034560945 -0.20727675
-0.27257296 -0.24374743 0.09574553 -0.14182283 0.58095384 1.132954 0.55159736 -0.83173496
-0.18613078 0.417996 -0.2649245 -0.046356525 0.077647164 -0.40142217 0.12628044 1.1196954
0.22325084 0.033089224 0.003980701 -1.2687953 -0.14047301 0.100107156 0.87596196 -0.03820711
-0.022379057 -0.084567584 0.026069732 0.9178714 0.0207487 0.120913744 0.013718632 0.36044064
0.0849315 -0.40095636 0.63192827 -1.3143007 0.0347081 0.2567597 -0.3901867 -0.66837037
0.4213145 0.48321995 -0.45105344 -0.10554153 0.38612524 -0.19771865 0.058158386 -0.1856453
0.8636935 -0.69908655 0.3290078 -0.10999286 0.7766479 0.50736964 0.43236557 -0.31326625
-0.6584177 -0.07109622 0.29448777 0.26275864 0.024874441 -0.0720132 -2.557986 0.81805927
0.25340155 -0.29454613 1.0005987 -0.042032927 -0.1304632 -1.8418785 -0.23086257 -0.56487036
-0.18836655 0.41584307 0.5222026 0.048999257 1.1730357 -0.5863996 -0.03740919 0.0135060325
0.7197207 -0.0635191 -0.022910967 0.7304155 -0.07754053 -0.29672995 0.3499738 -0.57504225
-0.2395558 -0.19577411 -0.2156021 0.4347779 0.017014056 0.6906979 0.12858334 0.031357728
-0.14007397 0.25315785 0.50810844 -0.65498227 -0.3388467 0.31500974 -0.3436424 0.273182
0.10405052 0.10875196 0.48135433 -0.014378721 -0.0016056164 -0.017291294 -0.022041045 0.12444233
0.9327131 -0.020470142 -0.011274889 -0.09001962 -0.47486952 -0.33285347 0.3135175 -0.25536516
-0.093837574 -0.09470289 0.056783345 -0.033066124 0.39217597 0.34924784 0.13978916 1.8701493
0.37238547 -0.70096576 -0.40223137 0.2833777 -0.8666656 -0.77614146 -0.46499237 -0.3602487
0.47389787 0.29053292 -1.2115066 0.9872321 0.6943999 1.650935 2.2122438 0.6881206
-0.51654315 -1.5137328 -1.7475188 -0.78269696 -1.3882065 -0.49919167 0.21705392 -0.1521583
0.12448823 -0.0794858 -1.4383773 -0.027596513 -0.3369781 1.0598197 -0.49103525 -0.071838245
-0.178072 -0.47111383 0.6195815 0.14019153 0.22884879 0.50747603 0.27327964 0.17071174
0.20895909 -1.125902 -0.36932647 -0.101576015 0.03649097 -0.23019932 0.33643737 0.9494245
-0.9750172 -0.16845311 0.11190966 0.16875207 0.28315833 0.3694681 0.25485343 -0.34706154
-0.03619274 0.86044705 0.500515 0.44145188 0.12994826 -0.6886167 -1.5625702 -2.3954132
-0.69088006 -0.75480413 0.5867961 -0.28742468 -0.13565043 -0.4220246 0.66745883 -0.02986114
-0.18176599 -0.03469187 -0.05490945 -0.9419312 -0.2071831 -0.030476417 -0.4455546 -0.038558364
00000000: ec1d fdbe 93e9 35bd 3f4b 803e b582 debf
00000010: 4068 a0bf 6e46 69be d0c0 273f 6997 af3f
00000020: b3a2 953f 5460 023f d769 a33f 317a 67be
00000030: ca76 4dbf d654 b33e 42ea c93e 500f 353e
00000040: ec6e 98be ef5a 8c3e 3411 b9be 68a6 233f
00000050: 0f28 f6be e01c d3bd ad8b ad3e 3da6 ce3e
00000060: bfd7 143f 7434 c43e c63d c9bd 9c01 24bf
00000070: ca59 a93d 2533 eabd 6620 193f bfdf aa3f
00000080: 3dec 923f ae1d 053f 7a68 1fbf 5e83 52bd
00000090: 56b1 1f3f 2a5d dcbe 00da 923f 17ab ca3e
000000a0: d904 003f 71d4 26bd 3195 1bbf fbc1 62be
000000b0: 5051 71be 1d89 5cbe c78f 0dbd 5b40 54be
000000c0: af8e 8bbe ed98 79be 3c16 c43d 013a 11be
000000d0: 64b9 143f a304 913f 7c35 0d3f 95ec 54bf
000000e0: 1199 3ebe 9203 d63e 2fa4 87be 57e0 3dbd
000000f0: 7a05 9f3d 3587 cdbe a94f 013e 2e52 8f3f
00000100: de9b 643e 9188 073d 8a70 823b e267 a2bf
00000110: 28d8 0fbe fb04 cd3d 0b3f 603f 0f7f 1cbd
00000120: 4954 b7bc c531 adbd 3190 d53c 9ff9 6a3f
00000130: 2df9 a93c a0a1 f73d 1dc4 603c ad8b b83e
00000140: 91f0 ad3d 274a cdbe 0dc6 213f 013b a8bf
00000150: 152a 0e3d 0276 833e 8dc6 c7be 521a 2bbf
00000160: 89b6 d73e 9b68 f73e 7af0 e6be 2826 d8bd
00000170: 35b2 c53e c276 4abe 7d37 6e3d cd19 3ebe
00000180: 041b 5d3f 56f7 32bf b673 a83e f043 e1bd
00000190: 66d2 463f fae2 013f 055f dd3e 6f64 a0be
000001a0: 108e 28bf e59a 91bd 1ac7 963e 4d88 863e
000001b0: 7cc5 cb3c a87b 93bd 0bb6 23c0 556c 513f
000001c0: d9bd 813e c0ce 96be 9e13 803f b82a 2cbd
000001d0: 2598 05be adc2 ebbf 3d67 6cbe 589b 10bf
000001e0: 29e3 40be 62e9 d43e 12af 053f 72b3 483d
000001f0: 0926 963f 491e 16bf 613a 19bd 6848 5d3c
00000200: 9e3f 383f 4d16 82bd c8af bbbc 83fc 3a3f
00000210: 92cd 9ebd fdec 97be c42f b33e f835 13bf
00000220: 1e4e 75be 0279 48be ccc6 5cbe 359b de3e
00000230: 1061 8b3c 94d1 303f 5aab 033e f670 003d
00000240: 8d6f 0fbe e89d 813e 6513 023f ebac 27bf
00000250: 517d adbe f548 a13e e6f1 afbe 83de 8b3e
00000260: 7018 d53d 59b9 de3d 1374 f63e ba94 6bbc
00000270: 8c73 d2ba 79a6 8dbc 6c8f b4bc 9fdb fe3d
00000280: 49c6 6e3f 00b1 a7bc 50ba 38bc 355c b8bd
00000290: 1922 f3be c56b aabe 5e85 a03e 39bf 82be
000002a0: ea2d c0bd 97f3 c1bd a795 683d 5870 07bd
000002b0: 4acb c83e 9dd0 b23e e424 0f3e 0d61 ef3f
000002c0: 4fa9 be3e 7e72 33bf 45f1 cdbe e216 913e
000002d0: ccdd 5dbf 35b1 46bf 7b13 eebe 8572 b8be
000002e0: bea2 f23e bbc0 943e a612 9bbf 3ebb 7c3f
000002f0: 31c4 313f d751 d33f 6795 0d40 ac28 303f
00000300: 2c3c 04bf ffc1 c1bf b2ae dfbf d45e 48bf
00000310: c0b0 b1bf 0d96 ffbe 6243 5e3e 63cf 1bbe
00000320: aff3 fe3d 73c9 a2bd bf1c b8bf 1512 e2bc
00000330: 6588 acbe 2ca8 873f f968 fbbe ee1f 93bd
00000340: 8258 36be d535 f1be e59c 1e3f 5e8e 0f3e
00000350: 5657 6a3e f3e9 013f 4feb 8b3e 0fcf 2e3e
00000360: 5ff9 553e 8f1d 90bf 5c18 bdbe 1607 d0bd
00000370: 8e77 153d 5fb9 6bbe 8541 ac3e 7c0d 733f
00000380: ba9a 79bf f97e 2cbe e430 e53d 58cd 2c3e
00000390: 21fa 903e ec2a bd3e 267c 823e 0db2 b1be
000003a0: d73e 14bd 4246 5c3f c021 003f fb05 e23e
000003b0: 2811 053e 2f49 30bf 4d02 c8bf 734e 19c0
000003c0: 84dd 30bf d83a 41bf 4538 163f 5429 93be
000003d0: f2e7 0abe 9c13 d8be 95de 2a3f 599f f4bc
000003e0: dd20 3abe 1019 0ebd bbe8 60bd 6722 71bf
000003f0: ce27 54be aea9 f9bc bc1f e4be 60ef 1dbd

embedding.bias f4 [16]
0.54965496 0.51289886 -0.61044186 -0.20309281 0.1775608 -0.16753393 0.83796024 0.5560537
-0.19542845 0.40542004 0.46618935 -0.40888295 0.22972089 0.012189693 -0.48551077 0.3211278
00000000: 30b6 0c3f 574d 033f eb45 1cbf 90f7 4fbe
00000010: 80d2 353e 048e 2bbe 9084 563f 8959 0e3f
00000020: 651e 48be 3793 cf3e 5fb0 ee3e 1b59 d1be
00000030: f43b 6b3e 47b7 473c de94 f8be dd6a a43e

convs.0.fc_full.weight f4 [32, 56]
-0.15812163 -0.32345214 0.32386452 0.17136356 0.6198354 -0.92340577 -0.11807488 0.042646084
-0.13754116 -1.1130342 1.1435189 -0.41460553 0.45622733 -0.7100607 -0.10220809 0.6462158
-0.59489965 -0.24654178 0.21959369 0.10656917 -0.5626052 0.42193708 0.7835683 -0.43360275
-0.22877222 0.61970204 0.4815358 -0.05655168 -0.5124126 -0.5983328 0.52899474 -0.21220346
1.7027395 1.8669103 1.1099478 -1.1049745 -1.1686878 1.7294399 1.682965 1.132985
-1.0803617 -1.3251729 1.7285005 1.7968953 1.2896065 -1.0823659 -1.3146154 1.6716182
2.148694 2.5941293 2.7205198 -1.4467702 -1.6535988 -1.4419775 -0.6062863 0.16416168
0.5618934 -0.50026846 -0.9508326 0.043737806 -0.9062309 1.0320771 -0.97107846 0.9932172
0.63552874 1.18889 -0.012158989 1.8608259 1.1179677 -0.18141837 -0.26506913 -0.16723925
-0.3770789 0.671728 0.23098852 -0.55692536 0.92858416 -0.31740436 1.4555418 -0.46304503
0.86223066 0.7346674 -0.9872816 -0.3250541 0.2534005 -1.2473588 -0.42307863 0.091516
0.2848199 0.33000523 1.3902231 2.1377375 0.62505615 0.24187613 0.3148751 1.4541191
2.133637 0.5911162 0.09655276 0.4691396 1.4953877 2.0583208 0.643807 -1.5393791
-0.71398145 0.5462819 2.0093358 -2.9852254 -2.409374 1.4638984 2.637832 1.9729404
0.16956748 1.5450792 -0.74807626 0.03223649 -0.02748619 -0.91094035 0.7283523 0.54448324
-0.39313355 0.36876795 -0.10056416 0.39049113 -0.07132183 -0.6673991 0.0040501906 -0.48618805
1.1853871 0.0045080525 -0.43114805 0.19679993 0.09393851 0.4944383 -0.9119754 1.0896591
0.34839997 -1.1705817 0.43344223 0.097187564 -0.8135082 0.21518382 -0.06188523 0.4838031
0.044800404 0.6271448 2.6943638 1.5670451 1.2474016 0.027506838 0.7214644 2.8095524
1.743643 1.0105507 -0.21209753 0.47777796 2.8908744 1.6293079 1.0321943 0.39640427
0.5305184 0.5622672 0.803712 -3.714095 -4.2524533 -4.4887567 -3.5937448 -2.4593709
-0.6035028 -0.4381952 0.6474136 -0.17349614 0.12046083 -1.2895696 -0.05796653 -0.91383904
-0.14781816 0.37877768 0.28827745 -0.05092302 0.7089549 -0.17622966 0.3956559 -0.0043068384
-0.14598572 0.7007478 0.09209077 0.4921218 -0.57614124 1.0410615 0.9026692 1.2125629
-0.14071888 0.015743736 0.36974132 -0.69704336 -0.4425622 0.7447433 -1.1456399 0.1918064
1.2208347 0.7578086 -3.0462258 -3.6350052 -2.6921155 1.3193952 0.84479135 -3.0110838
-3.5919192 -2.5920348 1.3320738 0.7701133 -3.1075034 -3.7268019 -2.6105044 3.3544924
2.4758472 1.3520743 0.21812944 0.85425025 1.3296733 1.824988 2.2342203 2.6952002
0.111334436 -0.13413501 -0.17681426 0.22312449 0.17721894 -0.07360674 -0.14801669 -0.34475476
0.714727 -0.3137505 0.18898039 -0.34721673 -0.16600563 -0.22867596 1.0894195 -0.057228375
0.24800159 -0.16570826 0.2485573 0.8460597 -0.18744278 0.54725313 0.6434455 -0.13775177
-0.26004434 0.1765168 0.04850858 0.20293526 -0.026624303 -0.055224687 -0.5235865 0.19347017
00000000: a3ea 21be 859b a5be 92d1 a53e ee79 2f3e
00000010: 88ad 1e3f 5264 6cbf 3ed1 f1bd a9ad 2e3d
00000020: 97d7 0cbe e877 8ebf d45e 923f 2d47 d4be
00000030: a196 e93e 8ac6 35bf 7a52 d1bd 666e 253f
00000040: 584b 18bf 7375 7cbe 2bdd 603e f040 da3d
00000050: e506 10bf 2308 d83e ef97 483f 2e01 debe
00000060: 4443 6abe cba4 1e3f dc8b f63e bca2 67bd
00000070: 792d 03bf 572c 19bf 336c 073f dd4b 59be
00000080: 5ef3 d93f ebf6 ee3f c512 8e3f ce6f 8dbf
00000090: 9097 95bf 495e dd3f 666b d73f a705 913f
000000a0: 4b49 8abf 449f a9bf 813f dd3f aa00 e63f
000000b0: d311 a53f f78a 8abf 5145 a8bf 96f7 d53f
000000c0: 3484 0940 3706 2640 ff1c 2e40 c42f b9bf
000000d0: 20a9 d3bf b892 b8bf 9435 1bbf 001a 283e
000000e0: 3fd8 0f3f 9811 00bf c469 73bf 6a26 333d
000000f0: c0fe 67bf 1a1b 843f 9998 78bf 7b43 7e3f
00000100: 03b2 223f 8c2d 983f 7f36 47bc 8b2f ee3f
00000110: 9119 8f3f bdc5 39be 24b7 87be c440 2bbe
00000120: 7c10 c1be 5ef6 2b3f 4188 6c3e a992 0ebf
00000130: b1b7 6d3f d382 a2be 324f ba3f 3d14 edbe
00000140: 26bb 5c3f 2a13 3c3f 7dbe 7cbf 7e6d a6be
00000150: b6bd 813e 74a9 9fbf c39d d8be be6c bb3d
00000160: ead3 913e 72f6 a83e d5f2 b13f b1d0 0840
00000170: ae03 203f 60ae 773e 4f37 a13e 9320 ba3f
00000180: 828d 0840 6453 173f 74bd c53d 1133 f03e
00000190: dd68 bf3f 87bb 0340 89d0 243f 600a c5bf
000001a0: 7dc7 36bf 21d9 0b3f f598 0040 ef0d 3fc0
000001b0: 2f33 1ac0 0661 bb3f 3dd2 2840 5089 fc3f
000001c0: 19a3 2d3e 28c5 c53f ed81 3fbf 690a 043d
000001d0: b82a e1bc 6333 69bf 4c75 3a3f 4163 0b3f
000001e0: cd48 c9be 27cf bc3e 95f4 cdbd 74ee c73e
000001f0: 2e11 92bd abda 2abf 76b7 843b a4ed f8be
00000200: c4ba 973f 49b8 933b 70bf dcbe ec85 493e
00000210: d562 c03d 0427 fd3e 3877 69bf f379 8b3f
00000220: 7b61 b23e 9fd5 95bf 24ec dd3e 460a c73d
00000230: 1342 50bf 2659 5c3e 5e7b 7dbd 0ab5 f73e
00000240: a180 373d 908c 203f 7570 2c40 ef94 c83f
00000250: dbaa 9f3f 0556 e13c e4b1 383f b5cf 3340
00000260: b22f df3f ba59 813f 1830 59be 509f f43e
00000270: 1604 3940 298d d03f f11e 843f 80f5 ca3e
00000280: 0ed0 073f bef0 0f3f 12c0 4d3f bcb3 6dc0
00000290: 1914 88c0 e5a3 8fc0 eaff 65c0 5566 1dc0
000002a0: 297f 1abf 1f5b e0be e6bc 253f f9a8 31be
000002b0: 2bb4 f63d 9e10 a5bf 506e 6dbd 5bf1 69bf
000002c0: a55d 17be 26ef c13e 1a99 933e a894 50bd
000002d0: 117e 353f 8c75 34be 6993 ca3e 6120 8dbb
000002e0: 487d 15be 3564 333f 169a bc3d 63f7 fb3e
000002f0: fe7d 13bf 8141 853f 5415 673f 4335 9b3f
00000300: 9c18 10be 02f9 803c bc4e bd3e 6f71 32bf
00000310: 8397 e2be 7fa7 3e3f 54a4 92bf e668 443e
00000320: 5044 9c3f bfff 413f 5df5 42c0 eda3 68c0
00000330: 9f4b 2cc0 f1e1 a83f 3f44 583f 99b5 40c0
00000340: 01e2 65c0 e6e3 25c0 6581 aa3f 2526 453f
00000350: 56e1 46c0 ec83 6ec0 8112 27c0 01b0 5640
00000360: 4874 1e40 c510 ad3f 535d 5f3e 25b0 5a3f
00000370: bc32 aa3f 3599 e93f 77fd 0e40 297e 2c40
00000380: 4f03 e43d b05a 09be cc0e 35be bf7a 643e
00000390: e278 353e 21bf 96bd b091 17be b283 b0be
000003a0: 59f8 363f e8a3 a0be 1384 413e 64c6 b1be
000003b0: 61fd 29be 082a 6abe 1972 8b3f 4d68 6abd
000003c0: 21f4 7d3e 6daf 29be ce85 7e3e 5e97 583f
000003d0: 00f1 3fbe c818 0c3f d8b8 243f cd0e 0dbe
000003e0: 8824 85be d2c0 343e efb0 463d 43ce 4f3e
000003f0: 361b dabc 4833 62bd c409 06bf 0b1d 463e

convs.0.fc_full.bias f4 [32]
-0.065065734 0.3367007 -0.15715222 -0.052572496 -0.2369843 -0.5433802 -0.17425618 -0.13207045
0.014552496 -0.06321532 -0.21249783 0.016605219 -0.14491348 -0.17209573 0.13665639 0.33163595
-0.103692286 -0.04925816 -0.16343676 0.27137986 -0.30560425 0.25495392 -0.06955234 0.1334013
0.0012933933 -0.14393806 0.14951538 -0.02743402 -0.038674176 0.10339319 0.38489568 0.45656067
00000000: 2f41 85bd 0964 ac3e 83ec 20be 4256 57bd
00000010: 03ac 72be f71a 0bbf 3670 32be 7a3d 07be
00000020: 986d 6e3c 0977 81bd 0899 59be ab07 883c
00000030: 3364 14be dd39 30be a7ef 0b3e 30cc a93e
00000040: 9f5c d4bd edc2 49bd f75b 27be 4df2 8a3e
00000050: 2978 9cbe 5289 823e 7571 8ebd 5a9a 083e
00000060: 1487 a93a 8064 13be 8f1a 193e 4fbd e0bc
00000070: d068 1ebd cfbf d33d 0c11 c53e 52c2 e93e

convs.0.bn1.weight f4 [32]
3.3342159 3.878185 4.7083635 3.2405562 2.7856667 1.8241372 4.244594 4.1737866
4.666168 7.320832 2.7777705 4.47149 5.426442 3.9224238 3.5043597 5.6740756
1.6520472 1.1136172 0.6316666 0.62877524 3.9923363 1.0049483 1.949358 1.4763129
0.8843272 0.84584045 1.5331968 2.6257935 0.79671973 0.7101623 1.8452605 1.543739
00000000: cb63 5540 2f34 7840 eaaa 9640 4665 4f40
00000010: 5d48 3240 547d e93f b7d3 8740 a98f 8540
00000020: 4051 9540 4144 ea40 fec6 3140 7216 8f40
00000030: 6aa5 ad40 fe08 7b40 6e47 6040 0792 b540
00000040: 4876 d33f 028b 8e3f e7b4 213f 6af7 203f
00000050: 7082 7f40 25a2 803f 9084 f93f d2f7 bc3f
00000060: 4463 623f 0089 583f cb3f c43f 000d 2840
00000070: d3f5 4b3f 32cd 353f 7f31 ec3f 3d99 c53f

convs.0.bn1.bias f4 [32]
-0.6361839 1.0312312 0.2746939 0.11387489 -1.0563561 0.52835906 -0.39797822 -0.60459304
0.73465973 0.5308403 -0.50185114 -0.5775819 -0.8189937 0.008644476 -1.0870987 -0.9396535
-0.652594 0.482319 0.9890331 0.45562056 -0.25867555 0.3321816 -2.443509 -1.7027012
1.0048865 0.43938875 -2.7365437 -4.472334 0.022016872 0.4059794 -2.2972302 0.25414875
00000000: f3dc 22bf 62ff 833f aea4 8c3e 3d37 e93d
00000010: ad36 87bf 8a42 073f cdc3 cbbe 9cc6 1abf
00000020: a912 3c3f 26e5 073f 5179 00bf 68dc 13bf
00000030: 92a9 51bf 8fa1 0d3c 0d26 8bbf 228d 70bf
00000040: 6610 27bf 84f2 f63e 4631 7d3f 1947 e93e
00000050: 1f71 84be b513 aa3e 7462 1cc0 1df2 d9bf
00000060: 1fa0 803f 90f7 e03e 8823 2fc0 5c1d 8fc0
00000070: ba5c b43c 88dc cf3e d205 13c0 c91f 823e

convs.0.bn1.running_mean f4 [32]
16.239609 11.477906 23.210423 -13.62875 -3.775666 10.020941 -13.810626 -20.245592
4.6806464 4.072803 -16.295067 4.458773 -53.594112 10.459918 -13.084267 9.506009
-4.8699126 37.058197 -8.485329 3.0211098 -5.788185 14.860886 -24.523468 -18.880878
-0.47523913 -12.707305 -12.467272 -18.423191 13.291345 -6.9329033 -36.753 -0.80416405
00000000: b8ea 8141 81a5 3741 f2ae b941 5c0f 5ac1
00000010: 83a4 71c0 c655 2041 53f8 5cc1 f9f6 a1c1
00000020: dbc7 9540 6754 8240 4c5c 82c1 45ae 8e40
00000030: 5f60 56c2 d35b 2741 2859 51c1 9d18 1841
00000040: 53d6 9bc0 983b 1442 e8c3 07c1 dd59 4140
00000050: d038 b9c0 30c6 6d41 1030 c4c1 0a0c 97c1
00000060: 8b52 f3be 1f51 4bc1 f279 47c1 b262 93c1
00000070: 59a9 5441 58da ddc0 1203 13c2 b2dd 4dbf

convs.0.bn1.running_var f4 [32]
63.056423 26.68895 31.020905 50.875217 58.012894 67.11446 45.750687 20.7194
61.017574 56.47304 53.78055 13.001617 28.828213 98.6706 22.16752 125.117096
44.319553 45.450348 60.77746 53.49966 132.20122 58.544247 31.152945 20.031116
112.40012 44.286167 47.766167 20.526173 30.306538 154.53134 24.20746 60.11436
00000000: c739 7c42 f882 d541 d02a f841 3980 4b42
00000010: 340d 6842 9b3a 8642 b400 3742 55c1 a541
00000020: ff11 7442 65e4 6142 481f 5742 a006 5041
00000030: 2ea0 e641 5957 c542 1557 b141 f43b fa42
00000040: 3947 3142 28cd 3542 1e1c 7342 a7ff 5542
00000050: 8333 0443 4f2d 6a42 3b39 f941 ba3f a041
00000060: ddcc e042 0925 3142 8e10 3f42 9a35 a441
00000070: ca73 f241 0688 1a43 e1a8 c141 1b75 7042

convs.0.bn2.weight f4 [16]
1.1430005 1.3149668 1.9125289 1.5605615 1.439753 1.6147403 1.7553257 1.6964446
1.5962994 0.7153368 1.576086 1.3677812 1.3100111 0.9938461 1.1810611 1.2834917
00000000: d74d 923f d550 a83f bfcd f43f 7bc0 c73f
00000010: d449 b83f cfaf ce3f 83ae e03f 1925 d93f
00000020: 8a53 cc3f 5020 373f 30bd c93f 7413 af3f
00000030: 72ae a73f b36c 7e3f 032d 973f 7549 a43f

convs.0.bn2.bias f4 [16]
0.5917036 0.3865132 -0.5160974 -0.18315332 0.5848014 -0.0078051444 0.5745592 0.9694902
-0.11570081 0.62425965 0.2311552 -0.37146538 0.55867696 -0.28568986 -0.22572513 0.10560859
00000000: e379 173f 0fe5 c53e f61e 04bf 8b8c 3bbe
00000010: 8bb5 153f 4cc2 ffbb 5016 133f 8230 783f
00000020: 8cf4 ecbd 7bcf 1f3f f3b3 6c3e b630 bebe
00000030: 7405 0f3f f145 92be 7d24 67be 5149 d83d

convs.0.bn2.running_mean f4 [16]
2.997804 7.5184336 9.203516 6.3646665 15.69397 9.2171335 3.099562 2.662948
10.254487 5.2391534 1.660698 1.4300964 3.515278 8.974506 2.6757789 7.45308
00000000: 05dc 3f40 0297 f040 9a41 1341 59ab cb40
00000010: 801a 7b41 6179 1341 395f 4640 bd6d 2a40
00000020: 6112 2441 25a7 a740 c191 d43f 660d b73f
00000030: 51fa 6040 9497 0f41 f63f 2b40 a27f ee40

convs.0.bn2.running_var f4 [16]
5.718896 39.217113 69.09103 10.033107 179.2532 5.250064 28.553074 4.7496734
39.47641 53.375416 1.9368464 6.2934346 6.188032 5.777455 10.129664 65.72492
00000000: 3201 b740 53de 1c42 9b2e 8a42 9b87 2041
00000010: d240 3343 8600 a840 b26c e441 53fd 9740
00000020: d8e7 1d42 6d80 5542 95ea f73f d163 c940
00000030: 5c04 c640 e9e0 b840 1b13 2241 2973 8342

convs.1.fc_full.weight f4 [32, 56]
0.6697559 -0.23297395 -0.7069308 -1.3695713 -0.50903165 0.03258277 -0.6462167 -0.6881746
-0.3259468 0.18799081 -0.4292068 -0.087261654 -0.17689316 -0.2941262 0.1490521 -0.56690735
-0.609311 -0.27167612 -0.1697624 0.15354331 1.3012342 0.30300176 -1.1345705 0.20286734
-0.2788446 -0.33117363 0.40760115 0.32640448 -0.14070733 0.0054014404 0.98840857 0.55142117
-5.9663043 -6.2111616 -6.129548 1.951586 3.8083725 -5.7628675 -6.2143393 -6.081032
1.8147486 4.003386 -5.669312 -6.099498 -6.2076626 1.9133716 3.9749546 -1.3736886
-1.7806535 -2.42394 -3.2778406 -1.4612978 -1.6265273 -0.67801696 -0.6270449 -1.6064656
1.3375398 -0.24834579 3.3656003 0.9278865 0.19442424 0.17020859 -0.84097034 -1.0490274
-0.06751086 0.99187994 -0.9622765 -0.3632731 -0.41058668 -0.5773748 0.19893982 0.11953501
-0.22802348 0.5062657 1.3487035 0.21759515 0.53396213 1.5724045 0.5776105 0.8973868
0.6797585 0.768173 0.6339499 -1.0317466 1.8207492 0.9598424 -0.03270733 -1.2570267
2.1491609 2.8236926 0.50872225 -1.0602415 -1.2053912 2.1555305 2.9088676 0.73005456
-0.960916 -1.2065293 2.1585617 2.9639852 0.5975484 -0.8163787 -1.3364382 1.2860689
1.9088305 2.494518 2.3464031 4.6030703 4.987719 0.8713174 -0.92408913 -1.8522736
1.0512757 0.3947194 -0.40242937 0.53531486 -0.20853956 1.6012106 0.403952 0.37883466
-2.2943382 -0.12572517 0.23943353 -0.59100723 -0.019046385 -0.04465417 -0.087218985 0.2276436
0.29902804 2.075644 -1.0962008 -0.8552062 0.1249961 0.5447355 -0.4417577 -2.0157287
-2.1492891 0.21582337 -0.05116695 -0.72876585 -0.57493305 -0.31636044 -0.21442464 -1.0921115
0.06935566 0.27477252 1.2486959 0.3769976 0.106153935 0.18519804 0.3166594 1.230766
0.34129265 0.0981771 0.10780903 0.2996596 1.381607 0.44465408 0.02994272 -0.69402856
0.14089844 1.2076098 2.4503293 -0.41070712 -0.042238437 0.35290796 0.43165284 0.055387445
-0.0936376 0.062481176 -0.15404612 0.5632466 -1.6189286 0.23058663 -0.549581 -0.99641335
-0.07392875 1.1309009 1.014673 -0.36469704 0.13292862 -0.06523776 -2.1598487 -0.7195717
-0.111723416 0.29881325 -0.18404475 -0.62441266 0.47810444 -0.887349 0.20294563 -0.603497
0.50159097 -0.5167389 0.60487515 0.109718174 -0.9784288 0.17173828 -1.0566438 -0.21554686
-0.25141466 -0.20778808 0.42040738 0.638329 0.38579494 -0.17693964 -0.0070430324 0.52510774
0.74668264 0.5253466 -0.2860128 -0.1231207 0.51200664 0.64650136 0.43590167 0.41697133
0.274692 -0.053964023 -0.09624317 -2.8792958 -3.114265 -2.5238023 -2.2780716 -2.2561145
-0.31117627 -0.12042503 0.064616285 0.5779435 -0.22189863 0.4105493 -0.58422875 -0.46836507
-0.5371864 0.51922256 1.3210784 -1.8183348 1.7839909 -2.408597 1.3788204 -0.64987123
-0.2911995 0.89799076 0.019778116 -0.59904784 -0.702032 0.5376121 -0.15451376 -0.94920295
0.53063905 -0.3899881 -0.82993346 -0.3860583 -0.9079727 -0.33274746 -0.35703975 -0.86994624
00000000: 1f75 2b3f b990 6ebe 6bf9 34bf 1d4e afbf
00000010: e64f 02bf 8375 053d 756e 25bf 362c 30bf
00000020: 80e2 a6be aa80 403e fec0 dbbe 3db6 b2bd
00000030: 7b23 35be b697 96be 1da1 183e d720 11bf
00000040: cefb 1bbf 2219 8bbe 32d6 2dbe 753a 1d3e
00000050: d88e a63f 0c23 9b3e 9b39 91bf 75bc 4f3e
00000060: b8c4 8ebe 978f a9be 19b1 d03e 7d1e a73e
00000070: 9515 10be 91fe b03b 5808 7d3f f029 0d3f
00000080: f7eb bec0 d6c1 c6c0 4225 c4c0 92cd f93f
00000090: 60bc 7340 6969 b8c0 dedb c6c0 d097 c2c0
000000a0: af49 e83f bd1b 8040 016b b5c0 162f c3c0
000000b0: 2ca5 c6c0 5ce9 f43f a865 7e40 07d5 afbf
000000c0: 74ec e3bf d521 1bc0 24c8 51c0 ce0b bbbf
000000d0: 0c32 d0bf 8592 2dbf 0486 20bf aaa0 cdbf
000000e0: 8134 ab3f 5c4e 7ebe ff65 5740 f889 6d3f
000000f0: 2617 473e 294b 2e3e d549 57bf 8846 86bf
00000100: 2243 8abd d8eb 7d3f c157 76bf effe b9be
00000110: 6b38 d2be d6ce 13bf e1b6 4b3e c5ce f43d
00000120: fd7e 69be a19a 013f 51a2 ac3f 43d1 5e3e
00000130: beb1 083f 8d44 c93f 48de 133f 24bb 653f
00000140: a704 2e3f fca6 443f 8a4a 223f 4610 84bf
00000150: 4f0e e93f 3bb8 753f 1ff8 05bd 40e6 a0bf
00000160: da8b 0940 61b7 3440 9f3b 023f feb5 87bf
00000170: 424a 9abf 36f4 0940 e32a 3a40 dbe4 3a3f
00000180: 97fe 75bf 8d6f 9abf e025 0a40 efb1 3d40
00000190: eff8 183f 32fe 50bf 6810 abbf e89d a43f
000001a0: 8f54 f43f 2fa6 1f40 782b 1640 5a4c 9340
000001b0: 659b 9f40 a80e 5f3f 1b91 6cbf 4d17 edbf
000001c0: 3490 863f a918 ca3e 390b cebe 650a 093f
000001d0: 658b 55be 78f4 cc3f ccd2 ce3e 9ef6 c13e
000001e0: 70d6 12c0 19be 00be 102e 753e 404c 17bf
000001f0: 2a07 9cbc 4ae7 36bd de9f b2bd 671b 693e
00000200: 341a 993e 5ad7 0440 4f50 8cbf cbee 5abf
00000210: f5fd ff3d c973 0b3f 112e e2be b301 01c0
00000220: f48d 09c0 cd00 5d3e 7094 51bd 6690 3abf
00000230: d02e 13bf fff9 a1be 2292 5bbe 4fca 8bbf
00000240: 570a 8e3d fcae 8c3e 44d5 9f3f d405 c13e
00000250: 3c67 d93d 8ea4 3d3e 2e21 a23e be89 9d3f
00000260: e9bd ae3e 1311 c93d fbca dc3d fc6c 993e
00000270: 80d8 b03f b3a9 e33e 6f4a f53c dbab 31bf
00000280: ae47 103e f592 9a3f 32d2 1c40 3448 d2be
00000290: 3602 2dbd 5ab0 b43e 9a01 dd3e f2dd 623d
000002a0: 12c5 bfbd 43ec 7f3d 44be 1dbe ee30 103f
000002b0: 0d39 cfbf e71e 6c3e 57b1 0cbf f214 7fbf
000002c0: f567 97bd 5cc1 903f cee0 813f 92b9 babe
000002d0: 711e 083e 609b 85bd f63a 0ac0 da35 38bf
000002e0: 3fcf e4bd 0dfe 983e 3a76 3cbe 82d9 1fbf
000002f0: 1bca f43e 4e29 63bf fbd0 4f3e c87e 1abf
00000300: 4468 003f 0049 04bf 19d9 1a3f ecb3 e03d
00000310: 4f7a 7abf 29dc 2f3e 1b40 87bf 51b8 5cbe
00000320: 6cb9 80be 66c6 54be a33f d73e 8869 233f
00000330: ea86 c53e aa2f 35be 3dc9 e6bb 766d 063f
00000340: 9826 3f3f 1d7d 063f 4570 92be b526 fcbd
00000350: de12 033f 1d81 253f 812e df3e 447d d53e
00000360: 6ea4 8c3e 6109 5dbd 241b c5bd 6246 38c0
00000370: 1e50 47c0 fa85 21c0 edcb 11c0 2e64 10c0
00000380: 7f52 9fbe 66a1 f6bd 8b55 843d 1bf4 133f
00000390: 6539 63be 8533 d23e 0490 15bf 8ccd efbe
000003a0: 0c85 09bf c5eb 043f 1919 a93f 32bf e8bf
000003b0: d059 e43f 7426 1ac0 307d b03f f65d 26bf
000003c0: 1a18 95be b9e2 653f b705 a23c 335b 19bf
000003d0: 5fb8 33bf f2a0 093f db38 1ebe f7fe 72bf
000003e0: f6d7 073f 85ac c7be 8576 54bf 6fa9 c5be
000003f0: e670 68bf e05d aabe eacd b6be ccb4 5ebf

convs.1.fc_full.bias f4 [32]
-0.08327911 0.20831178 -0.1412714 -0.23362653 0.078009695 0.28760722 0.14980367 -0.2573231
0.15481158 0.16259794 0.18397382 -0.16649085 0.22877772 0.47397912 0.031236578 -0.08483543
-0.59415644 -0.39338315 0.47075203 0.14315946 -0.2436825 -0.17816465 0.13115011 -0.5151103
0.116070755 0.21312477 0.5855391 -0.00044245238 0.35191625 0.4732005 -0.043303892 -0.10400896
00000000: 3d8e aabd af4f 553e 73a9 10be cb3b 6fbe
00000010: 8cc3 9f3d 4141 933e 2266 193e dabf 83be
00000020: ed86 1e3e 1380 263e a263 3c3e 947c 2abe
00000030: b544 6a3e 64ad f23e dae3 ff3c 33be adbd
00000040: a31a 18bf 8469 c9be 6906 f13e 6598 123e
00000050: e887 79be cb70 36be 374c 063e 45de 03bf
00000060: 81b6 ed3d 613d 5a3e e4e5 153f f4f8 e7b9
00000070: 5e2e b43e 5647 f23e 6c5f 31bd a602 d5bd

convs.1.bn1.weight f4 [32]
3.4404843 7.293619 1.8134233 5.76558 2.8506572 3.5385644 5.042701 3.1840203
6.716804 2.5536015 4.300325 3.251124 2.753811 4.346224 1.4128188 4.7637086
2.1278021 1.9348285 1.2889347 0.7074397 3.6731496 1.0206665 3.195346 4.6196156
1.1835729 2.325476 1.8578206 2.6366906 6.130734 2.7386155 1.7199377 2.198527
00000000: e530 5c40 5465 e940 411e e83f a27f b840
00000010: 2b71 3640 d777 6240 ce5d a140 fdc6 4b40
00000020: 0ff0 d640 356e 2340 439c 8940 6a12 5040
00000030: 703e 3040 4414 8b40 3fd7 b43f 4d70 9840
00000040: e92d 0840 76a8 f73f d0fb a43f c51a 353f
00000050: e214 6b40 33a5 823f 8d80 4c40 e4d3 9340
00000060: 517f 973f 99d4 1440 11cd ed3f 8abf 2840
00000070: f92e c440 7a45 2f40 eb26 dc3f abb4 0c40

convs.1.bn1.bias f4 [32]
-1.6344967 -1.369715 -0.7689353 -0.011271632 -0.82878786 -0.57721317 -0.86955565 -0.09306052
-0.34304854 -0.22478573 -0.29590434 -1.9614683 0.36601797 -1.1227387 -0.63345844 -0.75453943
-3.0092661 -1.1764481 -0.77261686 0.24515918 -2.4158921 -0.07549546 -1.173957 -1.2046254
0.8587444 -1.2087284 -0.5474313 -1.5715067 -1.8912678 -1.1748085 -1.0083969 -0.4261193
00000000: 3037 d1bf d252 afbf f2d8 44bf a7ac 38bc
00000010: 712b 54bf 3ec4 13bf 339b 5ebf 8496 bebd
00000020: 0fa4 afbe 3b2e 66be c680 97be 6511 fbbf
00000030: b566 bb3e e7b5 8fbf 552a 22bf 7f29 41bf
00000040: d197 40c0 da95 96bf 38ca 45bf 020b 7b3e
00000050: fa9d 1ac0 5d9d 9abd 3944 96bf 2a31 9abf
00000060: acd6 5b3f 9db7 9abf 7524 0cbf 2227 c9bf
00000070: 1015 f2bf 2060 96bf 2613 81bf 4f2c dabe

convs.1.bn1.running_mean f4 [32]
-44.05402 19.731756 4.699869 -1.399485 0.27397287 -4.94874 -25.60572 -9.223298
-14.400307 -2.1080685 -2.761221 -20.48171 -1.3197951 -57.258778 -14.928453 -15.815549
-42.940258 4.2555866 4.0307727 1.1716638 -8.809092 -19.697557 -20.372404 0.4002698
-15.534272 -8.897453 -19.567215 -18.87094 6.297893 -16.469786 -16.784306 -31.91495
00000000: 5137 30c2 a3da 9d41 5465 9640 5322 b3bf
00000010: 2c46 8c3e 145c 9ec0 84d8 ccc1 a192 13c1
00000020: a867 66c1 98ea 06c0 d8b7 30c0 8bda a3c1
00000030: 0cef a8bf fd08 65c2 f2da 6ec1 7d0c 7dc1
00000040: d3c2 2bc2 c42d 8840 17fc 8040 14f9 953f
00000050: 0af2 0cc1 9994 9dc1 affa a2c1 2af0 cc3e
00000060: 618c 78c1 f85b 0ec1 a889 9cc1 aff7 96c1
00000070: 5788 c940 1fc2 83c1 4246 86c1 d151 ffc1

convs.1.bn1.running_var f4 [32]
51.546684 38.731094 19.965185 19.266096 26.229174 25.252449 27.033247 62.370342
19.40527 89.55707 74.31833 52.6447 35.73069 15.543106 30.695097 7.5396624
16.858004 53.37025 60.413567 86.72521 12.856991 17.164436 47.062675 31.525906
46.794506 40.378944 74.253265 29.94001 36.155075 22.328423 28.86164 21.975512
00000000: ce2f 4e42 a4ec 1a42 b3b8 9f41 f720 9a41
00000010: 59d5 d141 0405 ca41 1744 d841 3b7b 7942
00000020: fe3d 9b41 381d b342 fca2 9442 2c94 5242
00000030: 3aec 0e42 90b0 7841 8f8f f541 ea44 f140
00000040: 31dd 8641 237b 5542 7ea7 7142 4f73 ad42
00000050: 3cb6 4d41 c450 8941 2e40 3c42 0e35 fc41
00000060: 932d 3b42 0a84 2142 ac81 9442 2485 ef41
00000070: cc9e 1042 9ca0 b241 a4e4 e641 d9cd af41

convs.1.bn2.weight f4 [16]
1.1402038 2.1533356 1.5167854 1.7541668 1.2310638 1.9139346 0.8791507 1.2484605
1.5994711 0.71747375 2.177421 1.4321655 2.3844175 1.3789796 0.5317697 1.5900489
00000000: 33f2 913f 40d0 0940 0626 c23f 8a88 e03f
00000010: 8093 9d3f cffb f43f 0510 613f 8ecd 9f3f
00000020: 78bb cc3f 5cac 373f de5a 0b40 3351 b73f
00000030: 4c9a 1840 6782 b03f 0f22 083f b986 cb3f

convs.1.bn2.bias f4 [16]
0.56203985 0.34098995 -1.598511 0.39436936 -0.80672073 -0.49668136 -0.98903126 0.10503676
-0.10204259 0.5545859 0.06786192 0.38399202 1.5289102 -0.53252786 -0.5366104 -0.49290448
00000000: d8e1 0f3f 3c96 ae3e 029c ccbf c8ea c93e
00000010: 4085 4ebf 054d febe 2731 7dbf 831d d73d
00000020: b5fb d0bd 57f9 0d3f 31fb 8a3d 9a9a c43e
00000030: 54b3 c33f bf53 08bf 4d5f 09bf fa5d fcbe

convs.1.bn2.running_mean f4 [16]
1.2735182 4.2912374 2.8630252 3.853589 3.9950423 2.8945084 5.803531 6.5646443
9.661823 5.749561 8.084314 1.6968368 18.246468 5.6508884 4.41664 4.8798814
00000000: a502 a33f d151 8940 ce3b 3740 34a1 7640
00000010: c6ae 7f40 a03f 3940 87b6 b940 9111 d240
00000020: d496 1a41 67fc b740 5a59 0141 f331 d93f
00000030: c4f8 9141 14d4 b440 1d55 8d40 fd27 9c40

convs.1.bn2.running_var f4 [16]
7.6166677 8.90539 6.939795 12.746481 48.407623 5.554258 60.664406 50.437138
51.869907 29.608286 50.636333 3.6567924 243.07428 40.76805 40.21882 20.107382
00000000: bebb f340 7a7c 0e41 cd12 de40 96f1 4b41
00000010: 68a1 4142 7bbc b140 5aa8 7242 a1bf 4942
00000020: c97a 4f42 c5dd ec41 9b8b 4a42 e308 6a40
00000030: 0413 7343 7c12 2342 12e0 2042 ebdb a041

convs.2.fc_full.weight f4 [32, 56]
0.31749812 0.08736455 0.8220902 0.43195197 -2.036349 -1.1525184 -0.5573709 1.0747489
0.43661273 -0.3724479 -0.43133998 -1.5799924 -1.9119443 -0.13012192 -0.5876683 0.2585282
-0.5934294 0.5141825 0.84410274 -0.03194456 -0.34056735 -1.1807241 -1.374289 0.5693274
0.46966624 -0.51305914 0.30917835 -1.3834655 -0.56905085 0.09530388 -0.73758143 0.6911255
0.25125307 0.06805489 0.664372 0.020679712 -0.016568106 0.32940257 0.23523346 0.6982893
0.042569846 -0.118170634 0.16811997 0.33876824 0.85836494 0.09572547 0.03213722 0.15866168
0.42525402 0.37093946 0.7455716 -3.0479057 -1.5888654 0.8592142 0.9719961 1.508014
0.29944468 -0.65419465 -1.938502 -0.20782967 1.4959971 0.18883224 -1.5178441 -0.27868316
-2.2590926 1.2050335 -0.5631733 1.5550523 0.545102 -1.1936882 -0.040323988 -0.07906392
-0.2705515 -0.22685303 -0.5377133 -0.3792062 0.74882066 0.78225714 0.021519748 1.6950804
0.052576166 0.008048174 0.5542425 0.7125642 -0.30764297 0.27560884 -0.00055736944 -0.2916592
-0.10519179 0.20942621 1.7292207 0.84417254 0.516509 -0.027808903 0.32066298 1.7037961
0.9720812 0.42810747 -0.021633444 0.4124818 1.75116 1.0118084 0.5671944 -0.9563659
-0.8659143 -0.79518497 -0.045306303 -0.71542203 -0.2421555 -1.2199082 -1.6339669 -1.0618145
0.21905158 -1.5684215 -0.536109 -0.84034485 -2.1205606 -0.50814533 0.11163831 -0.14442609
0.26901662 0.22161824 -0.5049013 -0.9837567 0.15232098 0.040342502 0.8155514 0.24945234
0.3910617 -2.4439332 -0.3449658 -0.30201945 -1.3141009 0.6516499 -0.96447724 -0.8978243
0.007823047 0.31924245 -0.5721092 -2.0288959 -0.60610163 -0.9064076 0.52810496 -0.15977801
-2.8103848 -2.73715 -1.896841 1.5947891 2.4051468 -2.7805889 -2.7674978 -1.8326181
1.6859181 2.3546748 -2.6253335 -2.8257139 -1.7847213 1.7452838 2.5091116 -0.6930974
-0.13866496 0.39388126 0.6229206 -4.27104 -4.1425347 -1.8475362 -0.46306905 0.641565
0.0075253467 -0.27140105 -0.07641213 0.2817906 -0.88577974 -0.5287462 1.1096364 0.7131216
1.1855866 0.10463507 -1.2082287 -1.4796808 0.38195556 0.8452359 0.5513388 -0.34034735
-0.3855603 0.78747845 0.28623545 0.24127834 -0.2528758 -0.073279634 0.57199055 1.0110514
0.70417595 0.6821824 -0.8079093 -1.0417949 -0.042119183 1.3199073 0.15869126 0.86067796
1.6839086 2.0145464 4.0025835 0.14322396 -0.6172956 1.5481797 1.9083114 4.108582
0.21922445 -0.5243847 1.4796312 1.8709337 4.116641 0.09149091 -0.50364095 0.05837172
-0.38827136 -0.5596207 -0.31135613 -2.806798 -2.0002098 -0.30634212 0.21222863 0.7967663
-1.516543 -0.8955679 1.1556866 -0.37937984 -0.66661316 1.925157 0.10489182 1.5795544
-1.0374867 -0.4440776 -0.61403537 0.59345835 -1.2075784 -0.4414446 -0.11632119 -0.45620716
0.8858524 0.8245344 0.20652348 1.193883e-05 -1.5389144 1.304316 -0.37077218 0.964094
1.4992139 1.1544442 0.022971895 0.78440344 0.03581113 -0.2537281 1.0707777 0.22413242
00000000: 1d8f a23e 2fec b23d 8174 523f cf28 dd3e
00000010: 8b53 02c0 b985 93bf dcaf 0ebf 5f91 893f
00000020: b48b df3e 7eb1 bebe 98d8 dcbe 313d cabf
00000030: 97ba f4bf ae3e 05be 6e71 16bf cf5d 843e
00000040: fdea 17bf 77a1 033f 1e17 583f 4dd8 02bd
00000050: d85e aebe f821 97bf b4e8 afbf 71bf 113f
00000060: 1878 f03e d857 03bf a04c 9e3e 6615 b1bf
00000070: 51ad 11bf ae2e c33d 23d2 3cbf 9aed 303f
00000080: 3ea4 803e 5d60 8b3d 4914 2a3f 8068 a93c
00000090: d6b9 87bc 74a7 a83e 0ae1 703e 16c3 323f
000000a0: b85d 2e3d 7203 f2bd a427 2c3e 0873 ad3e
000000b0: cebd 5b3f b70b c43d 51a2 033d 3578 223e
000000c0: e5ba d93e c7eb bd3e c8dd 3e3f e310 43c0
000000d0: f15f cbbf 76f5 5b3f bdd4 783f 9a06 c13f
000000e0: d050 993e 4d79 27bf d520 f8bf 4dd1 54be
000000f0: d57c bf3f 3d5d 413e b748 c2bf 8faf 8ebe
00000100: f994 10c0 8a3e 9a3f 202c 10bf f40b c73f
00000110: ce8b 0b3f c6ca 98bf c42a 25bd 44ec a1bd
00000120: ba85 8abe 294c 68be 94a7 09bf 5127 c2be
00000130: b6b2 3f3f 0142 483f 2f4a b03c 65f8 d83f
00000140: 1b5a 573d 7ddc 033c d6e2 0d3f 9b6a 363f
00000150: 6183 9dbe 9a1c 8d3e 6e1c 12ba 5b54 95be
00000160: cb6e d7bd d373 563e 1b57 dd3f b11b 583f
00000170: ef39 043f 7fcf e3bc f02d a43e fe15 da3f
00000180: 50da 783f e730 db3e 9f38 b1bc d130 d33e
00000190: 0326 e03f f082 813f a733 113f 65d4 74bf
000001a0: 8fac 5dbf 3e91 4bbf 1a93 39bd e625 37bf
000001b0: 9df7 77be f425 9cbf d425 d1bf 8ae9 87bf
000001c0: 0f4f 603e 09c2 c8bf 703e 09bf d720 57bf
000001d0: 44b7 07c0 d015 02bf a0a2 e43d 6fe4 13be
000001e0: 8cbc 893e e4ef 623e 3641 01bf 7bd7 7bbf
000001f0: 08fa 1b3e 2e3e 253d fac7 503f 6f70 7f3e
00000200: 3d39 c83e 6769 1cc0 5b9f b0be 4ba2 9abe
00000210: 7534 a8bf 87d2 263f fbe7 76bf d0d7 65bf
00000220: 3d2c 003c bf73 a33e c075 12bf 6ed9 01c0
00000230: 7a29 1bbf 540a 68bf e331 073f d99c 23be
00000240: 58dd 33c0 772d 2fc0 b0cb f2bf 0d22 cc3f
00000250: eded 1940 2bf5 31c0 af1e 31c0 3b93 eabf
00000260: 2acc d73f feb2 1640 7705 28c0 7fd8 34c0
00000270: bf71 e4bf 7665 df3f 4995 2040 d56e 31bf
00000280: 30fe 0dbe ceaa c93e b977 1f3f 5cac 88c0
00000290: a58f 84c0 117c ecbf 6317 edbe 9b3d 243f
000002a0: 2f97 f63b 14f5 8abe f67d 9cbd dc46 903e
000002b0: 76c2 62bf e95b 07bf 9108 8e3f 238f 363f
000002c0: 4dc1 973f e94a d63d 3da7 9abf 2e66 bdbf
000002d0: ae8f c33e 6161 583f 8a24 0d3f 0242 aebe
000002e0: 2968 c5be 3098 493f 748d 923e ab11 773e
000002f0: f078 81be a213 96bd f96d 123f 226a 813f
00000300: e044 343f 81a3 2e3f 25d3 4ebf 8959 85bf
00000310: 2a85 2cbd b9f2 a83f f67f 223e 6455 5c3f
00000320: 518a d73f 54ee 0040 2a15 8040 4da9 123e
00000330: 1607 1ebf c12a c63f 8c43 f43f 8179 8340
00000340: 607c 603e 133e 06bf 8e64 bd3f c17a ef3f
00000350: 86bb 8340 965f bb3d 9dee 00bf 2f17 6f3d
00000360: 81cb c6be 4d43 0fbf 126a 9fbe 94a2 33c0
00000370: 7003 00c0 e0d8 9cbe 7652 593e e0f8 4b3f
00000380: 151e c2bf f043 65bf 8aed 933f 133e c2be
00000390: 29a7 2abf 8b6b f63f 86d1 d63d d72e ca3f
000003a0: 5dcc 84bf 245e e3be 6c31 1dbf e3ec 173f
000003b0: ee91 9abf 0705 e2be ce39 eebd fc93 e9be
000003c0: 39c7 623f b014 533f e47a 533e e24c 4837
000003d0: 26fb c4bf d4f3 a63f dad5 bdbe ddce 763f
000003e0: 3ee6 bf3f d4c4 933f 8e2f bc3c aace 483f
000003f0: b1ae 123d a6e8 81be 3e0f 893f f882 653e

convs.2.fc_full.bias f4 [32]
0.17342757 -0.14458644 -0.17822963 -0.087105334 -0.008017891 -0.26021838 -0.084045164 3.907896e-05
0.08912439 0.014770919 0.011973477 0.05693011 -0.07963608 0.19410257 0.019888297 -0.18168269
0.0779385 0.054421924 -0.2632662 -0.038841527 0.074207716 -0.1126584 0.09578566 0.104199134
-0.055111155 0.15572035 0.1430463 0.03116094 0.05000499 0.04668324 0.17721243 -0.23839065
00000000: ff96 313e 780e 14be d481 36be 4864 b2bd
00000010: 795d 03bc 583b 85be df1f acbd b7e8 2338
00000020: d986 b63d ba01 723c 672c 443c 8c2f 693d
00000030: 3e18 a3bd d3c2 463e c8ec a23c 070b 3abe
00000040: 389e 9f3d 86e9 5e3d d4ca 86be 4b18 1fbd
00000050: 37fa 973d 72b9 e6bd 462b c43d 5b66 d53d
00000060: 3cbc 61bd 2875 1f3e bb7a 123e 3a45 ff3c
00000070: 08d2 4c3d ed36 3f3d 2d77 353e ae1c 74be

convs.2.bn1.weight f4 [32]
0.98585653 2.8706417 2.4728782 0.74122924 1.3749447 5.1820574 6.4496703 4.661453
5.897363 2.1058855 2.6772902 4.3192716 1.0739836 4.2003427 0.51411486 5.9251714
-0.022067541 0.51890254 3.111193 0.26550013 2.1536345 1.5209115 3.8642414 1.1972692
1.575164 0.77344465 1.329367 4.62921 1.6557364 1.5362921 1.370149 3.2130575
00000000: 1861 7c3f 98b8 3740 a343 1e40 33c1 3d3f
00000010: 30fe af3f 6ad3 a540 b363 ce40 9f2a 9540
00000020: 33b7 bc40 d4c6 0640 b958 2b40 7937 8a40
00000030: 4b78 893f 3569 8640 089d 033f 019b bd40
00000040: fdc6 b4bc ccd6 043f c91d 4740 a2ef 873e
00000050: 26d5 0940 3aad c23f bb4f 7740 1e40 993f
00000060: f99e c93f 7800 463f b328 aa3f 7d22 9440
00000070: 2cef d33f 38a5 c43f 0b61 af3f bca2 4d40

convs.2.bn1.bias f4 [32]
0.5008307 -1.8819226 0.48014146 0.17229645 -0.7728604 0.2624574 -0.51587504 -1.5323554
0.21368282 -0.5554631 -0.016834795 0.0900856 -1.8867403 -0.23508735 -0.5348673 -0.8112737
0.81490946 -0.15732218 -1.5413429 -0.0063889725 -0.60602075 0.30718035 -0.76356006 -1.5600667
-0.4207115 -1.578152 -0.4578097 -1.2319622 -2.6945639 -1.6736366 -1.4022095 -0.64167494
00000000: 7136 003f d7e2 f0bf 1ad5 f53e 7b6e 303e
00000010: 2eda 45bf d160 863e 6310 04bf 3924 c4bf
00000020: abcf 5a3e d432 0ebf 20e9 89bc cd7e b83d
00000030: b580 f1bf bdba 70be 10ed 08bf a2af 4fbf
00000040: e89d 503f 1119 21be b94a c5bf 965a d1bb
00000050: 2d24 1bbf be46 9d3e ac78 43bf 44b0 c7bf
00000060: 7f67 d7be e200 cabf 0866 eabe f0b0 9dbf
00000070: bc73 2cc0 b939 d6bf 9a7b b3bf cf44 24bf

convs.2.bn1.running_mean f4 [32]
-12.90388 13.124042 -40.05616 23.449738 -10.29236 0.4494139 -34.342667 -8.606533
-22.376055 -19.560558 -17.880306 -30.222397 -33.788902 -27.5344 -18.53417 -15.50589
-16.661789 -13.608978 -23.753237 20.232927 -23.416176 31.901796 -50.978443 -25.521215
-34.11583 -31.621042 -8.538602 -1.4450483 -18.638838 -27.481668 -23.203287 -35.631653
00000000: 4b76 4ec1 13fc 5141 8239 20c2 1099 bb41
00000010: 82ad 24c1 9419 e63e e45e 09c2 5cb4 09c1
00000020: 2902 b3c1 067c 9cc1 de0a 8fc1 78c7 f1c1
00000030: d627 07c2 7446 dcc1 fb45 94c1 2018 78c1
00000040: 584b 85c1 60be 59c1 a106 bec1 09dd a141
00000050: 5454 bbc1 e136 ff41 ede9 4bc2 732b ccc1
00000060: 9c76 08c2 e5f7 fcc1 1d9e 08c1 58f7 b8bf
00000070: 571c 95c1 75da dbc1 55a0 b9c1 d086 0ec2

convs.2.bn1.running_var f4 [32]
63.21668 45.36204 124.056595 53.06142 92.554726 87.43671 62.573936 47.259644
44.49303 148.7693 31.766653 64.10826 75.88951 37.002502 66.97067 34.65703
59.150455 26.065529 120.305855 53.076633 103.65197 35.517544 58.40797 45.247414
37.674667 164.27182 53.92945 57.60457 53.233597 29.257444 75.47395 68.60062
00000000: e1dd 7c42 bb72 3542 fa1c f842 e53e 5442
00000010: 051c b942 98df ae42 b64b 7a42 e009 3d42
00000020: ddf8 3142 f1c4 1443 1b22 fe41 6e37 8042
00000030: 6ec7 9742 9002 1442 fcf0 8542 cca0 0a42
00000040: 119a 6c42 3486 d041 999c f042 794e 5442
00000050: cf4d cf42 f711 0e42 c3a1 6942 5afd 3442
00000060: dcb2 1642 9645 2443 c2b7 5742 146b 6642
00000070: 34ef 5442 3f0f ea41 aaf2 9642 8433 8942

convs.2.bn2.weight f4 [16]
1.3731781 2.9951422 1.2831357 1.8653853 2.0919309 2.4683115 1.6290287 2.3553026
1.5261551 1.7621769 1.6130915 1.6277168 1.28782 1.5475242 1.9403433 2.041816
00000000: 4dc4 af3f 69b0 3f40 ca3d a43f f2c4 ee3f
00000010: 32e2 0540 d1f8 1d40 0384 d03f 47bd 1640
00000020: 0d59 c33f 038f e13f c879 ce3f 0659 d03f
00000030: 49d7 a43f 4615 c63f 2b5d f83f 1dad 0240

convs.2.bn2.bias f4 [16]
0.20792788 0.15021817 -0.81675553 -0.023944544 -2.8755794 -0.5221892 -0.9290978 -0.28499666
-0.36104152 0.24064572 -0.16269399 -0.78541905 -0.7575588 -0.53638345 -0.1905116 -0.2105867
00000000: 0ceb 543e cbd2 193e e416 51bf 5927 c4bc
00000010: 7e09 38c0 31ae 05bf 5ad9 6dbf 15eb 91be
00000020: 6fda b8be d56b 763e 4199 26be 3911 49bf
00000030: 60ef 41bf 6d50 09bf 7915 43be 0aa4 57be

convs.2.bn2.running_mean f4 [16]
8.513776 2.442508 6.7564673 4.7394986 5.732855 6.0370693 13.437081 1.6804603
5.2334657 1.7691882 4.7865143 4.496787 0.31210837 2.1780524 2.1746936 6.2874336
00000000: 6d38 0841 0d52 1c40 fb34 d840 f9a9 9740
00000010: 8c73 b740 ac2f c140 49fe 5641 5319 d73f
00000020: 8d78 a740 c274 e23f 202b 9940 aee5 8f40
00000030: abcc 9f3e 3665 0b40 2e2e 0b40 a832 c940

convs.2.bn2.running_var f4 [16]
6.5567465 7.3244977 86.305984 3.525429 47.00074 14.601583 176.69759 1.7027929
31.600037 3.5763328 17.91045 66.420166 0.1419441 4.1887383 6.659723 81.42697
00000000: ded0 d140 4962 ea40 aa9c ac42 a1a0 6140
00000010: c200 3c42 15a0 6941 95b2 3043 1ef5 d93f
00000020: e0cc fc41 a3e2 6440 9a48 8f41 20d7 8442
00000030: cb59 113e 250a 8640 731c d540 9cda a242

convs.3.fc_full.weight f4 [32, 56]
0.6335003 0.17799456 1.748468 0.81185997 0.28076 1.139867 -0.85068005 0.17002767
-1.3572125 0.74796724 -1.2988472 0.6130848 -0.92903715 0.25687778 -0.33776885 -0.2699471
-0.4518111 -0.0035149856 2.154083 0.33267987 0.26561582 1.0327699 0.7943779 -0.24191381
0.52340895 -0.4374699 -0.25203323 0.010215814 1.0432893 0.9601244 -0.27228627 1.282446
1.0726023 1.4936876 5.163193 0.9246256 0.0041597914 1.1444979 1.5466495 5.559079
0.6763819 0.044101994 0.9270239 1.4087702 5.6191216 0.77389467 0.12639233 -0.5441934
-0.3455602 -0.2366516 0.2897783 -2.95989 -1.9199458 0.39321253 1.2442459 1.662646
-0.5368595 1.3032764 0.6087185 -0.75197357 -2.176385 0.5938047 -0.8283483 -0.45028684
-1.510349 -0.07713464 -0.46852952 1.056332 0.34365582 -1.1211438 -0.5289243 -0.28635302
-1.103019 0.58133346 0.6902785 -0.8511191 -0.78032476 0.8484363 1.2433252 0.95267606
0.76197475 -0.4734484 0.7726442 0.30272102 1.4124038 -0.29262584 -0.557898 0.8433457
0.07125797 0.7207811 5.3814464 2.9473805 1.9557229 -0.107607536 0.7875969 5.3803296
2.955529 1.7549611 0.00022391838 0.8116547 5.480692 2.9151812 1.6758598 -1.4130912
-0.97006285 -0.43160817 0.39367 -1.7708557 -0.9347274 -2.288755 -3.6114535 -3.638358
0.25360197 -0.26889014 2.1248922 -0.0076748054 0.08357512 -0.37287873 0.65977216 0.7422596
0.2273621 0.5150034 -0.19179627 -0.028337384 -0.6629359 0.10363855 1.661368 -0.8795368
0.6953342 0.52618355 2.1334403 -0.4391095 0.76202476 -1.0172377 0.4787223 0.58030474
0.028764835 0.62455714 0.14385647 -0.9189492 -0.23266877 0.044549968 1.0658804 0.38462925
-2.4361405 -3.1484637 -4.9043326 -0.8772158 0.39452043 -2.2123513 -2.9219759 -4.968801
-0.75775653 0.51500833 -1.9766752 -2.8518994 -4.726535 -0.95419407 0.5372661 -0.6216993
-0.10746399 0.104185276 0.45461404 -1.4693153 -0.41639897 1.914735 1.6295515 0.8655897
-0.023156757 -0.6515252 0.838585 1.1683224 -1.2188169 0.7133453 -0.3171766 0.18278277
-0.9005843 0.20084569 -1.5128274 0.20959914 -0.1602881 0.290515 -0.3094487 -0.4308082
-0.39731264 0.9413921 1.4911393 0.35365793 0.14111191 -0.45852533 1.0737883 0.05998371
0.19287962 -0.18492556 -0.5650926 -0.3614094 0.25585726 0.9655995 -0.5447086 1.0562009
1.2638483 1.7455721 4.3839517 0.2868223 -0.41962746 1.2306905 1.7624379 4.5490036
0.14544988 -0.3669992 1.3107239 1.6792943 4.7378755 0.27966744 -0.3551073 -0.0786376
-0.30387506 -0.42211404 -0.20729867 -2.6586049 -1.7610155 0.7847662 1.4392694 1.9568441
-0.899226 -0.1768535 -1.123597 -0.14104892 -0.6492081 1.6530453 -0.5437968 0.68529564
-0.66182786 1.6793125 0.014658351 0.582943 -0.83309907 0.37283656 0.49254832 -0.3397695
-0.28681543 -0.42625362 -0.8635894 -0.25348765 0.27745098 1.1506938 0.19392551 0.6122202
-0.44388366 0.9922609 0.05552411 1.051272 -1.0702641 0.28372937 0.05582912 -0.2686915
00000000: 132d 223f 3544 363e cdcd df3f 0ed6 4f3f
00000010: c6bf 8f3e 29e7 913f 2bc6 59bf bc1b 2e3e
00000020: 24b9 adbf c87a 3f3f a040 a6bf 20f3 1c3f
00000030: 61d5 6dbf 7c85 833e 0af0 acbe 8236 8abe
00000040: c953 e7be ac5b 66bb 7fdc 0940 0455 aa3e
00000050: ccfe 873e ce31 843f 5a5c 4b3f 41b8 77be
00000060: 21fe 053f 0efc dfbe 800a 81be 3b60 273c
00000070: 818a 853f b6ca 753f 1b69 8bbe 3127 a43f
00000080: 084b 893f 2831 bf3f e138 a540 43b4 6c3f
00000090: dc4e 883b e87e 923f 9cf8 c53f fae3 b140
000000a0: 5d27 2d3f 4ba4 343d 7051 6d3f 9552 b43f
000000b0: d8cf b340 f61d 463f fe6c 013e 4250 0bbf
000000c0: 44ed b0be cc54 72be d25d 943e d66e 3dc0
000000d0: c9c0 f5bf 2753 c93e 7343 9f3f 96d1 d43f
000000e0: a06f 09bf c3d1 a63f fad4 1b3f 5781 40bf
000000f0: e449 0bc0 9603 183f a20e 54bf ff8b e6be
00000100: 1e53 c1bf c4f8 9dbd 1ae3 efbe e335 873f
00000110: a8f3 af3e a481 8fbf 9567 07bf dd9c 92be
00000120: ba2f 8dbf 45d2 143f 17b6 303f f1e2 59bf
00000130: 5dc3 47bf 1f33 593f 4825 9f3f 94e2 733f
00000140: c710 433f d467 f2be 03cc 453f 40fe 9a3e
00000150: a6c9 b43f 0ed3 95be 67d2 0ebf 81e5 573f
00000160: b3ef 913d 1c85 383f cf34 ac40 e2a1 3c40
00000170: 2155 fa3f 5761 dcbd f39f 493f a92b ac40
00000180: 6327 3d40 91a2 e03f a2cb 6a39 9ac8 4f3f
00000190: d461 af40 5492 3a40 9382 d63f 2ce0 b4bf
000001a0: 0a56 78bf bffb dcbe 1d8f c93e 66ab e2bf
000001b0: 4b4a 6fbf f67a 12c0 0e22 67c0 dcda 68c0
000001c0: 1ed8 813e f8ab 89be 3cfe 0740 ef7c fbbb
000001d0: 6f29 ab3d f6e9 bebe d4e6 283f ba04 3e3f
000001e0: 9cd1 683e 43d7 033f 3e66 44be cd23 e8bc
000001f0: 2bb6 29bf 7340 d43d b5a7 d43f 5329 61bf
00000200: 6c01 323f f7b3 063f 498a 0840 f6d2 e0be
00000210: 0e14 433f d834 82bf 171b f53e da8e 143f
00000220: 3ba4 eb3c fae2 1f3f 1c4f 133e 4140 6bbf
00000230: b940 6ebe 077a 363d c56e 883f 20ee c43e
00000240: bae9 1bc0 6e80 49c0 4bf0 9cc0 3791 60bf
00000250: 95fe c93e 2a97 0dc0 a701 3bc0 6b00 9fc0
00000260: 55fc 41bf 96d7 033f b103 fdbf 8585 36c0
00000270: c63f 97c0 1046 74bf 458a 093f af27 1fbf
00000280: 1516 dcbd 175f d53d 2cc3 e83e 8612 bcbf
00000290: 3f32 d5be 0916 f53f 2595 d03f 4997 5d3f
000002a0: 3db3 bdbc 5bca 26bf 82ad 563f 978b 953f
000002b0: 3102 9cbf cc9d 363f f964 a2be 682b 3b3e
000002c0: b18c 66bf 7eaa 4d3e 54a4 c1bf 28a1 563e
000002d0: 9022 24be 62be 943e 0f70 9ebe e492 dcbe
000002e0: 906c cbbe 13ff 703f a7dd be3f a712 b53e
000002f0: a47f 103e d5c3 eabe e571 893f 7bb1 753d
00000300: 3c82 453e 205d 3dbe e9a9 10bf a70a b9be
00000310: b9ff 823e 8731 773f 0672 0bbf 9731 873f
00000320: c8c5 a13f e86e df3f 5549 8c40 5fda 923e
00000330: 69d9 d6be 4487 9d3f 9197 e13f 7091 9140
00000340: d0f0 143e 52e7 bbbe cdc5 a73f 1ef3 d63f
00000350: ad9c 9740 9230 8f3e a0d0 b5be c00c a1bd
00000360: 8395 9bbe 551f d8be 1a46 54be 9526 2ac0
00000370: f568 e1bf 70e6 483f fb39 b83f de79 fa3f
00000380: ad33 66bf 1519 35be 07d2 8fbf 216f 10be
00000390: 8132 26bf fd96 d33f 4436 0bbf 896f 2f3f
000003a0: 8d6d 29bf b6f3 d63f 9529 703c c13b 153f
000003b0: fb45 55bf 6fe4 be3e 4b2f fc3e 45f6 adbe
000003c0: 79d9 92be ea3d dabe 3214 5dbf 22c9 81be
000003d0: 0e0e 8e3e ef49 933f 6994 463e 77ba 1c3f
000003e0: b844 e3be cf04 7e3f 406d 633d 1590 863f
000003f0: 6afe 88bf fa44 913e 13ad 643d ef91 89be

convs.3.fc_full.bias f4 [32]
0.07014066 -0.07880869 -0.10796456 0.05304463 0.16643555 0.04682302 -0.04727243 0.037854407
0.064762555 0.13240613 0.103974745 -0.053113986 0.044331025 0.1033435 -0.12523635 -0.05327035
-0.0004951074 0.040284008 0.13983141 -0.051543098 0.13148066 0.14137821 0.24624515 -0.10590086
0.07011724 -0.12693568 0.03878851 -0.09538424 0.13395515 -0.0015085909 -0.0926664 0.03119476
00000000: e8a5 8f3d 7366 a1bd 861c ddbd 5345 593d
00000010: 156e 2a3e 7fc9 3f3d bca0 41bd 390d 1b3d
00000020: 3ba2 843d 7995 073e b6f0 d43d 0d8e 59bd
00000030: 7394 353d c2a5 d33d f53d 00be 0332 5abd
00000040: 18ca 01ba d800 253d f72f 0f3e db1e 53bd
00000050: dea2 063e 73c5 103e b027 7c3e 8de2 d8bd
00000060: a199 8f3d 6dfb 01be b3e0 1e3d d058 c3bd
00000070: 8a2b 093e e9bb c5ba e2c7 bdbd 278c ff3c

convs.3.bn1.weight f4 [32]
1.7317531 3.489553 1.568347 1.1448113 2.007184 4.9402623 5.146989 2.2140858
3.0371203 0.75563484 4.3877983 2.0092351 2.3043585 3.4183738 1.034227 2.8419816
0.061922487 1.1282253 0.97063726 0.25390133 3.887652 1.4670156 2.999415 3.6007156
2.2833557 0.58853203 1.3129691 1.8748685 2.4945958 2.358762 1.2490183 1.0557597
00000000: 16aa dd3f d654 5f40 98bf c83f 2d89 923f
00000010: b475 0040 a116 9e40 22b4 a440 95b3 0d40
00000020: 2e60 4240 4971 413f d868 8c40 4f97 0040
00000030: 9c7a 1340 a3c6 5a40 8d61 843f 07e3 3540
00000040: 6fa2 7d3d b069 903f af7b 783f 5bff 813e
00000050: 4acf 7840 2bc7 bb3f 6af6 3f40 2072 6640
00000060: 8022 1240 09aa 163f 5f0f a83f b1fb ef3f
00000070: 75a7 1f40 f5f5 1640 d5df 9f3f 2223 873f

convs.3.bn1.bias f4 [32]
1.0159594 -1.6581517 -1.9891342 0.13479757 -0.7941879 -0.97801346 -0.9012448 -2.8520172
-2.2326055 -1.6248511 0.09572809 -1.445362 -0.8437108 -0.55446476 0.13019481 0.7207824
0.86803305 -0.50785685 1.8196173 0.24546638 -2.0140285 -1.7102379 -0.8785725 0.5720901
-1.6519265 0.9170181 -0.2353909 -0.6513668 -0.041222382 -1.2314391 -0.092560425 0.26019114
00000000: f50a 823f 513e d4bf f39b febf 6008 0a3e
00000010: e64f 4bbf 175f 7abf fbb7 66bf 7387 36c0
00000020: 02e3 0ec0 1ffb cfbf 170d c43d 9f01 b9bf
00000030: 6efd 57bf 67f1 0dbf ca51 053e 3285 383f
00000040: 6a37 5e3f e802 02bf 38e9 e83f 8a5b 7b3e
00000050: d8e5 00c0 13e9 dabf 21ea 60bf 7f74 123f
00000060: 5472 d3bf b3c1 6a3f 500a 71be f9bf 26bf
00000070: cdd8 28bd cc9f 9dbf 5290 bdbd c637 853e

convs.3.bn1.running_mean f4 [32]
32.72852 34.65262 -18.80669 19.526543 -9.746167 -7.9316163 7.0423436 -11.820308
-1.5845602 14.087881 -17.571123 -10.461107 -20.9862 13.634555 6.656599 6.4351573
13.049089 16.139603 -38.77169 12.722565 -38.188057 -14.894782 -33.57586 -30.1817
-12.973045 -14.724478 -31.140606 -30.128647 4.018614 -4.824236 -2.4270625 -38.710735
00000000: 01ea 0242 489c 0a42 1a74 96c1 5c36 9c41
00000010: 4df0 1bc1 cdcf fdc0 e15a e140 fb1f 3dc1
00000020: ded2 cabf f667 6141 a991 8cc1 b260 27c1
00000030: bde3 a7c1 2327 5a41 dc02 d540 cfec cd40
00000040: 12c9 5041 e81d 8141 3616 1bc2 a08f 4b41
00000050: 92c0 18c2 0751 6ec1 ae4d 06c2 1f74 f1c1
00000060: 9891 4fc1 7697 6bc1 f61f f9c1 7807 f1c1
00000070: 7c98 8040 2460 9ac0 fe54 1bc0 cbd7 1ac2

convs.3.bn1.running_var f4 [32]
131.4844 119.080444 58.902424 86.39317 102.13041 65.318695 54.68576 125.47756
154.9217 176.92259 80.49665 42.730667 27.724205 126.33565 96.19075 65.35516
160.8534 89.744606 291.28442 121.891815 83.15822 83.31895 211.18983 139.68541
89.14261 135.917 69.333664 105.69362 71.77023 57.80222 101.94095 37.35075
00000000: 027c 0343 3029 ee42 159c 6b42 4ec9 ac42
00000010: c542 cc42 2ca3 8242 38be 5a42 83f4 fa42
00000020: f5eb 1a43 2fec 3043 49fe a042 34ec 2a42
00000030: 2ccb dd41 daab fc42 aa61 c042 d8b5 8242
00000040: 78da 2043 3d7d b342 68a4 9143 9cc8 f342
00000050: 0251 a642 4da3 a642 9930 5343 77af 0b43
00000060: 0449 b242 c1ea 0743 d6aa 8a42 2263 d342
00000070: 5c8a 8f42 7935 6742 c4e1 cb42 2b67 1542

convs.3.bn2.weight f4 [16]
1.516712 3.1272013 1.8396056 1.8300596 2.1424072 1.6853666 2.2696033 1.1576773
1.3125632 1.1487695 2.3382792 2.6914654 1.4223056 1.6758528 1.9593745 1.8733321
00000000: 9e23 c23f 1124 4840 3278 eb3f 653f ea3f
00000010: 331d 0940 18ba d73f 2e41 1140 c52e 943f
00000020: 1202 a83f e10a 933f 5ea6 1540 f840 2c40
00000030: 1c0e b63f 5882 d63f c9cc fa3f 59c9 ef3f
