cgcnndefect/defect_scratch_10/checkpoint.pth.tar (torch, 208559 bytes, 121 tensors)

embedding.weight f4 [16, 92]
0.0108058 0.055928107 -0.1040747 -0.12891346 -0.02145996 0.020154893 -0.0020656667 0.06828241
-0.004901637 0.02671097 0.021081917 -0.020493358 -0.09960196 -0.054102425 -0.04297723 0.0038620592
0.05352873 0.0625567 -0.07068024 -0.04540014 0.05018019 0.067144796 -0.016666368 0.055238415
-0.01597065 0.011031882 0.09440242 -0.102349244 -0.0857402 -0.03819005 0.011950377 0.09007831
-0.0675774 -0.04799302 -0.060526114 -0.09764323 -0.06085915 0.101931535 0.04652148 0.0650396
0.0011846975 -0.07647279 0.021272423 -0.118347116 -0.07533274 -0.053747714 0.06577983 0.047374435
-0.047486395 0.014933322 0.058876358 0.11595779 0.026995823 0.018434985 0.069026284 -0.008797072
0.019427707 -0.080831185 -0.072259225 -0.06178837 0.046290625 0.038830496 -0.061757017 0.03149684
0.06954654 -0.013159069 0.003980701 0.024156885 0.06467873 0.100107156 -0.08034306 -0.03820711
0.039134715 0.09206886 0.11145786 0.09199205 0.0207487 -0.09066026 -0.008675237 -0.05320022
-0.09525098 0.10421821 0.079272985 -0.10582052 0.0344593 -0.010150581 -0.011861249 -0.042038836
0.04498332 -0.08275463 0.038219787 0.052723713 0.06912139 0.03898293 -0.10434458 -0.037215456
0.04412403 0.026070543 -0.081329376 -0.05640206 0.13166913 0.05725072 -0.094312355 -0.026239952
-0.09931521 0.013757661 -0.07851182 -0.080419496 0.004055251 0.015653703 -0.042696483 0.061863888
-0.05364474 0.113434635 0.07960329 -0.087139614 -0.039218184 0.0047043585 0.015211239 0.019913156
0.03770089 0.02043256 -0.099723674 0.04933336 -0.10000861 -0.061793942 -0.016298955 -0.050785076
-0.03647265 -0.07565179 -0.022177087 0.002499099 -0.05437862 0.0010063178 0.089569524 -0.03019094
0.0028975387 -0.008994155 0.021099716 0.06273943 0.118422456 0.05827602 0.10323258 0.0022597301
-0.09002535 -0.015837006 0.057989623 -0.049529314 -0.051820662 -0.07989352 -0.09756932 -0.101715446
-0.01193837 0.056792192 0.056365725 -0.10054897 0.074833445 -0.08158225 -0.022041045 -0.042273443
-0.02008153 -0.020470142 -0.0935552 -0.09001962 -0.018412376 -0.0067141834 -0.044729214 0.039273605
-0.093837574 -0.0070360308 0.090528265 -0.030182064 0.09229364 0.03224391 -0.094088055 0.069636464
0.0036008977 -0.05125491 0.09282909 -0.086192295 0.034038767 -0.041301455 0.07445139 0.029102828
0.07410387 0.036819365 -0.018056737 -0.0026939334 -0.023017006 0.06656835 0.08277793 0.040206935
-0.08760996 -0.012305671 -0.09509466 -0.05739194 -0.060751244 0.03050972 -0.062128242 -0.002274601
-0.006329878 0.0672066 -0.07881011 -0.071573846 -0.07125386 0.07962603 -0.030670037 0.086640425
0.047136333 0.013201674 -0.00077609316 -0.00888391 0.084671326 -0.036956754 -0.022332676 0.013302494
-0.081550516 -0.054644477 0.07347122 -0.08460959 -0.0074863127 0.09241955 0.037661564 -0.016579702
-0.091446176 0.064708196 -0.04562972 -0.043867502 -0.034979995 -0.015439176 0.0011403952 0.10050514
0.013688831 0.15628189 0.073852606 -0.07662857 0.015631428 -0.0877682 -0.0611424 0.009064236
0.034424905 0.07821668 -0.03356205 0.0005809037 0.0714662 -0.10308535 0.07537594 -0.08621262
-0.009278875 -0.017725473 -0.05490945 0.013779783 0.08621223 -0.030476417 -0.061896887 -0.038558364
00000000: cf0a 313c df14 653d 1e25 d5bd e401 04be
00000010: cccc afbc e01b a53c 2360 07bb a6d7 8b3d
00000020: e99d a0bb f7d0 da3c fcb3 ac3c b0e1 a7bc
00000030: 1dfc cbbd 819a 5dbd e408 30bd 9a1a 7d3b
00000040: f140 5b3d ba1d 803d cdc0 90bd 7ff5 39bd
00000050: be89 4d3d 3683 893d e887 88bc ad41 623d
00000060: e1d4 82bc 11bf 343c 0e56 c13d 7b9c d1bd
00000070: 8f98 afbd 2b6d 1cbd 84cb 433c fa7a b83d
00000080: 0566 8abd 5494 44bd 3bea 77bd 2cf9 c7bd
00000090: 7247 79bd 7bc1 d03d 4f8d 3e3d 7b33 853d
000000a0: da47 9b3a c49d 9cbd 8143 ae3c f95f f2bd
000000b0: 0d48 9abd 9026 5cbd 93b7 863d b20b 423d
000000c0: 1881 42bd e4aa 743c 5628 713d 477b ed3d
000000d0: 5826 dd3c f704 973c a75d 8d3d 9821 10bc
000000e0: db26 9f3c d28a a5bd a5fc 93bd cd15 7dbd
000000f0: 3d9b 3d3d ba0c 1f3d edf4 7cbd d502 013d
00000100: 6b6e 8e3d 2399 57bc 8a70 823b a9e4 c53c
00000110: 4876 843d fb04 cd3d e78a a4bd 0f7f 1cbd
00000120: b94b 203d 998e bc3d 0544 e43d 5466 bc3d
00000130: 2df9 a93c 16ac b9bd 9522 0ebc 79e8 59bd
00000140: f212 c3bd 5b70 d53d e059 a23d 6eb8 d8bd
00000150: 3225 0d3d 9f4e 26bc af55 42bc ea30 2cbd
00000160: 6e40 383d 427b a9bd 5a8c 1c3d d2f4 573d
00000170: 848f 8d3d 91ac 1f3d 9cb2 d5bd 3c6f 18bd
00000180: 66bb 343d e491 d53c 0490 a6bd d905 67bd
00000190: 46d4 063e bb7f 6a3d d626 c1bd 2bf5 d6bc
000001a0: c665 cbbd d067 613c ceca a0bd fab2 a4bd
000001b0: e9e1 843b 323c 803c 82e2 2ebd fd64 7d3d
000001c0: 96ba 5bbd 6b50 e83d 0d07 a33d 4176 b2bd
000001d0: 3fa3 20bd 0527 9a3b 9038 793c ea20 a33c
000001e0: 406c 1a3d 2f62 a73c ed3b ccbd c711 4a3d
000001f0: 50d1 ccbd a51b 7dbd 6385 85bc 0304 50bd
00000200: 5864 15bd 53ef 9abd b9ac b5bc ecc7 233b
00000210: 1ebc 5ebd 6ce6 833a 3a70 b73d fd52 f7bc
00000220: a2e4 3d3b 385c 13bc 50d9 ac3c 887d 803d
00000230: 7987 f23d d6b2 6e3d 9a6b d33d fb17 143b
00000240: 365f b8bd 9cbc 81bc 8786 6d3d 40df 4abd
00000250: e741 54bd 379f a3bd 6cd2 c7bd 3050 d0bd
00000260: 2799 43bc ee9e 683d bfdf 663d 9eec cdbd
00000270: 4742 993d 9814 a7bd 6c8f b4bc eb26 2dbd
00000280: 0582 a4bc 00b1 a7bc de99 bfbd 355c b8bd
00000290: 8dd5 96bc a702 dcbb fb35 37bd 5cdd 203d
000002a0: ea2d c0bd 818e e6bb e266 b93d 6040 f7bc
000002b0: 7304 bd3d 3112 043d 3db1 c0bd 909d 8e3d
000002c0: 0afd 6b3b abf0 51bd 2e1d be3d 9685 b0bd
000002d0: 3c6c 0b3d b72b 29bd f879 983d 0e69 ee3c
000002e0: c5c3 973d e7cf 163d b9eb 93bc b48c 30bb
000002f0: 298e bcbc fd54 883d 7a87 a93d 07b0 243d
00000300: da6c b3bd ba9d 49bc fdc0 c2bd d013 6bbd
00000310: 4cd6 78bd 85ef f93c 2f7a 7ebd 7911 15bb
00000320: dd6a cfbb 9da3 893d 3267 a1bd 4f95 92bd
00000330: 8bed 91bd f912 a33d bb3f fbbc 8970 b13d
00000340: 0712 413d d64b 583c bb72 4bba d28d 11bc
00000350: 2968 ad3d f75f 17bd 04f3 b6bc b4f2 593c
00000360: f503 a7bd e3d2 5fbd 1478 963d cb47 adbd
00000370: be4f f5bb 7646 bd3d 0343 1a3d 28d2 87bc
00000380: 2248 bbbd bb85 843d 3be6 3abd 69ae 33bd
00000390: 2f47 0fbd 99f4 7cbc 5079 953a a4d5 cd3d
000003a0: 1e47 603c 5c08 203e 0940 973d 71ef 9cbd
000003b0: 7b0d 803c d0bf b3bd 7470 7abd 2982 143c
000003c0: 2101 0d3d 1130 a03d 5c78 09bd ca47 183a
000003d0: df5c 923d 691e d3bd b35e 9a3d 3e90 b0bd
000003e0: 6c06 18bc 0335 91bc bbe8 60bd 99c4 613c
000003f0: 0a90 b03d aea9 f9bc 9787 7dbd 60ef 1dbd

embedding.bias f4 [16]
0.123898976 0.111474834 -0.03660626 -0.022637628 -0.10295511 -0.050255474 0.10660433 0.06389037
0.13391742 0.11196023 0.016944915 -0.017621215 0.15211178 0.09476857 0.040567797 -0.009972303
00000000: bfbe fd3d eb4c e43d 72f0 15bd 8c72 b9bc
00000010: 21da d2bd afd8 4dbd 5f53 da3d f4d8 823d
00000020: a621 093e 684b e53d 10d0 8a3c 5e5a 90bc
00000030: 31c3 1b3e 0616 c23d 6b2a 263d df62 23bc

convs.0.fc_full.weight f4 [32, 56]
0.12260283 0.020143371 0.10144684 0.07672747 0.08358726 -0.10745898 -0.06835568 0.08580848
-0.034774967 -0.088162355 0.16490272 0.048811514 0.080858774 -0.11104154 0.012853009 -0.032042157
-0.051187135 -0.024999838 -0.056242656 0.13441928 -0.04744483 0.09329659 0.03536933 -0.014324722
-0.046678435 -0.13790658 -0.06085633 -0.13047957 -0.006924954 0.040068574 0.008700174 -0.061913576
0.084600456 0.06656349 -0.04822483 -0.04692149 0.09104883 0.108165026 -0.13106778 -0.044129986
-0.006314502 -0.041119553 0.10604403 -0.028464505 0.098085195 0.0069459975 -0.0070325253 -0.07100345
-0.045519978 0.03090646 0.041229647 -0.0047545983 0.12733458 -0.04914077 0.115530156 0.1830352
-0.021692539 0.10032839 0.0061494447 -0.09723495 -0.07657284 0.046195704 -0.048114378 0.038279753
0.13688399 0.03544297 -0.029137375 0.031725287 -0.07324139 -0.099167034 -0.0934006 -0.11440557
0.08115933 0.042730995 -0.058370333 -0.13960055 0.07688887 -0.078093134 -0.0015239269 -0.102242224
-0.08287003 0.09813186 -0.10356627 -0.05602055 0.08981567 -0.049713206 -0.038141638 -0.033694852
0.0639923 -0.08417934 -0.00913371 0.04478702 -0.017703457 0.031854246 -0.097751155 0.03794593
0.03995164 -0.024786644 -0.10208605 0.058331467 0.06479502 -0.03356327 0.054983597 0.055448137
-0.042004403 0.015304026 0.17163087 0.00063120964 -0.10615833 0.07802242 0.15438549 0.029447285
-0.098149374 0.11087292 0.030268291 -0.030901833 -0.01289865 -0.05503084 0.012544635 0.026200952
-0.07821617 0.031889178 0.009489835 0.016070073 -0.017809628 0.049464535 -0.08697146 0.02649311
0.063972704 -0.013227948 -0.09848541 0.0023875243 0.022134498 -0.11319231 -0.11984051 0.14293501
0.0794319 0.10015994 0.100748725 0.03893069 0.06309499 0.10019928 -0.018574476 -0.0334241
0.09428827 -0.01504176 -0.1678127 -0.13208538 0.05690741 0.11169069 0.089616045 -0.058518834
0.0649764 -0.13809027 -0.093292624 -0.1419263 0.027015343 -0.027277043 -0.07454986 0.06920743
-0.043182775 -0.08802151 0.036678147 0.024468055 -0.09537804 0.020128528 0.1746687 0.21395558
0.02322331 -0.033502337 0.055145722 0.013987117 -0.13477775 -0.07762996 0.027664512 0.08523278
-0.031710744 0.08537726 -0.06207811 0.15696006 0.096911795 0.02878707 0.07550044 0.047834426
-0.07424708 0.026751457 0.056523114 -0.009245098 0.1112035 -0.03759531 -0.14434361 -0.03924985
-0.12397511 0.14358588 -0.06255337 -0.1042992 -0.025976432 -0.045788515 -0.04666584 0.053978574
-0.11149567 0.029861534 0.031568006 -0.029688857 0.042584676 -0.082950294 0.07210904 0.06423023
0.0037173957 0.10829766 -0.13777702 -0.045710724 -0.038737755 -0.14282376 0.05488188 -0.03906531
-0.05651827 -0.111490615 0.03680555 -0.09723275 -0.027890759 0.16593187 0.2103805 0.13959241
-0.035140134 -0.057504687 0.08202735 0.04003095 0.14371644 0.018179024 0.100952044 -0.062147792
0.10623627 -0.04891189 -0.021067243 0.010458603 -0.026353752 0.008524683 0.08190408 -0.072287634
0.06375892 -0.12457581 0.02947295 0.10235351 0.10177514 0.12159795 0.1382789 -0.034016605
0.06523918 -0.043262474 0.13572781 0.09338483 -0.095301874 0.10365937 0.019320326 0.03663027
00000000: 3117 fb3d b603 a53c 5cc3 cf3d 4b23 9d3d
00000010: cc2f ab3d 7413 dcbd 10fe 8bbd 5bbc af3d
00000020: 3270 0ebd 778e b4bd 42dc 283e 95ee 473d
00000030: 4999 a53d bf69 e3bd 6d95 523c a33e 03bd
00000040: 9aa9 51bd 76cc ccbc b35e 66bd 35a5 093e
00000050: 8355 42bd 4812 bf3d 6edf 103d 3db2 6abc
00000060: e331 3fbd 6237 0dbe 7d44 79bd 709c 05be
00000070: b9ea e2bb f21e 243d 2d8b 0e3c 1799 7dbd
00000080: 0143 ad3d 7052 883d 6687 45bd c030 40bd
00000090: cf77 ba3d a085 dd3d a236 06be a5c1 34bd
000000a0: e2e9 cebb fa6c 28bd 9d2d d93d 652e e9bc
000000b0: e4e0 c83d 409b e33b 1971 e6bb 426a 91bd
000000c0: 2873 3abd 8b2f fd3c 6be0 283d 76cc 9bbb
000000d0: ff63 023e d547 49bd 139b ec3d 946d 3b3e
000000e0: 8db4 b1bc f978 cd3d 4881 c93b 1e23 c7bd
000000f0: 39d2 9cbd b537 3d3d 9513 45bd 3bcb 1c3d
00000100: 512b 0c3e a62c 113d 81b1 eebc 60f2 013d
00000110: 95ff 95bd 1618 cbbd d048 bfbd 784d eabd
00000120: dd36 a63d b206 2f3d bb15 6fbd 72f3 0ebe
00000130: e977 9d3d 4bef 9fbd 80be c7ba 5f64 d1bd
00000140: c3b7 a9bd 5bf9 c83d 8d1a d4bd ce75 65bd
00000150: 47f1 b73d 13a0 4bbd 683a 1cbd 9d03 0abd
00000160: 650e 833d 3866 acbd 8ea5 15bc 9872 373d
00000170: d706 91bc 9979 023d c231 c8bd 316d 1b3d
00000180: 55a4 233d 5c0d cbbc 7e12 d1bd faec 6e3d
00000190: 40b3 843d a479 09bd 7b36 613d 961d 633d
000001a0: cf0c 2cbd bdbd 7a3c 01c0 2f3e c377 253a
000001b0: 8a69 d9bd 38ca 9f3d 3b17 1e3e 6f3b f13c
000001c0: 8a02 c9bd 5711 e33d 35f5 f73c d725 fdbc
000001d0: dc54 53bc 0568 61bd 0388 4d3c 61a3 d63c
000001e0: cd2f a0bd 3a9e 023d 417b 1b3c 63a5 833c
000001f0: 7fe5 91bc 539b 4a3d 181e b2bd 1408 d93c
00000200: 1f04 833d 09ba 58bc b8b2 c9bd 0378 1c3b
00000210: 6853 b53c 5fd1 e7bd f16e f5bd 8e5d 123e
00000220: 31ad a23d a820 cd3d 5955 ce3d ca75 1f3d
00000230: f237 813d 4835 cd3d 8029 98bc b6e7 08bd
00000240: 351a c13d b771 76bc 18d7 2bbe 6441 07be
00000250: bf17 693d 17be e43d 9e88 b73d 72b1 6fbd
00000260: 5912 853d 8967 0dbe 3410 bfbd 2155 11be
00000270: 484f dd3c 1b74 dfbc 99ad 98bd a0bc 8d3d
00000280: 6ce0 30bd 9f44 b4bd d33b 163d 3b71 c83c
00000290: 9055 c3bd 95e4 a43c 5adc 323e 2c17 5b3e
000002a0: d03e be3c bf39 09bd 7be0 613d 392a 653c
000002b0: 2e03 0abe 75fc 9ebd b0a0 e23c 868e ae3d
000002c0: 20e3 01bd 46da ae3d 9e45 7ebd 23ba 203e
000002d0: b179 c63d ddd2 eb3c fa9f 9a3d 08ee 433d
000002e0: da0e 98bd df25 db3c c884 673d c078 17bc
000002f0: a9be e33d 8afd 19bd d0ce 13be 73c4 20bd
00000300: aae6 fdbd 2d08 133e fb1b 80bd d29a d5bd
00000310: 87cc d4bc bd8c 3bbd ae24 3fbd a318 5d3d
00000320: d857 e4bd 2da0 f43c 744d 013d 0c36 f3bc
00000330: 456d 2e3d d8e1 a9bd e8ad 933d 248b 833d
00000340: 8d9f 733b 2acb dd3d 6b15 0dbe 2b3b 3bbd
00000350: 7bab 1ebd 6440 12be d2cb 603d f202 20bd
00000360: b47f 67bd 3155 e4bd 6bc1 163d f721 c7bd
00000370: 297b e4bc 0bea 293e fc6d 573e 50f1 0e3e
00000380: 1aef 0fbd 098a 6bbd f5fd a73d 7ef7 233d
00000390: 672a 133e 2dec 943c f2bf ce3d af8e 7ebd
000003a0: 6792 d93d d557 48bd 3695 acbc 8f5a 2b3c
000003b0: d3e3 d7bc 1dab 0b3c 54bd a73d 8a0b 94bd
000003c0: 0994 823d 9a21 ffbd 4271 f13c b89e d13d
000003d0: 7c6f d03d 5908 f93d fc98 0d3e ff54 0bbd
000003e0: 1f9c 853d fe33 31bd 3bfc 0a3e 8c40 bf3d
000003f0: a12d c3bd 5d4b d43d a945 9e3c 9f09 163d

convs.0.fc_full.bias f4 [32]
-0.01417542 0.0917772 -0.06662681 0.1191137 -0.113800116 -0.09563823 0.027480422 -0.058235914
0.06686314 -0.061547898 0.1149338 0.12844025 0.020519437 0.032700617 0.13953556 0.08476137
-0.10316185 -0.015063123 -0.12101336 0.089625165 -0.023411393 0.023600504 -0.08373775 -0.078950934
0.00925423 0.11841428 -0.09728884 0.032293163 0.12841132 0.11221314 -0.013171964 0.10896197
00000000: 0540 68bc aff5 bb3d a373 88bd e2f1 f33d
00000010: 0910 e9bd fadd c3bd 9f1e e13c c888 6ebd
00000020: 8bef 883d a619 7cbd 6a62 eb3d d785 033e
00000030: 6118 a83c 15f1 053d 69e2 0e3e 5f97 ad3d
00000040: 8546 d3bd 51cb 76bc dad5 f7bd 668d b73d
00000050: 40c9 bfbc d855 c13c b37e abbd 07b1 a1bd
00000060: 0e9f 173c 3083 f23d 5f3f c7bd d645 043d
00000070: 427e 033e 01d0 e53d 39cf 57bc 7427 df3d

convs.0.bn1.weight f4 [32]
1.0028696 1.002069 0.98240113 1.0220848 1.0162618 1.004073 1.0036182 1.0178617
1.0227711 0.9908676 1.0064416 1.0383116 1.0005275 0.9885156 1.0372487 1.0275737
0.9815199 0.99688804 1.014826 0.9870401 0.972715 1.0080183 1.026275 0.9791541
0.9850194 0.9804922 1.0034072 1.0048972 1.0099573 0.9894619 0.96670514 0.9793097
00000000: 085e 803f cc43 803f a47e 7b3f add3 823f
00000010: de14 823f 7785 803f 9076 803f 4b49 823f
00000020: 2aea 823f 80a9 7d3f 14d3 803f 65e7 843f
00000030: 4911 803f 5c0f 7d3f 91c4 843f 8987 833f
00000040: e344 7b3f 0e34 7f3f d2e5 813f a9ae 7c3f
00000050: da03 793f be06 813f fb5c 833f d8a9 7a3f
00000060: 3b2a 7c3f 8901 7b3f a66f 803f 79a0 803f
00000070: 4846 813f 604d 7d3f fd79 773f 0ab4 7a3f

convs.0.bn1.bias f4 [32]
0.0059382035 -0.0070710895 0.014162576 0.005792182 -0.02147826 0.0040885233 -0.007930206 -0.0098136505
-0.018659322 -0.0017702859 -0.011784086 -0.03592053 0.003076694 0.02924186 0.028874692 -0.012117489
0.019681057 0.0077712894 -0.0004102276 0.009665134 0.032488693 0.010565607 -0.025481371 0.011085128
0.002057759 0.021345912 -0.0037156024 0.009627995 -0.0013314532 0.0012365857 0.015824214 0.019689057
00000000: 4395 c23b 99b4 e7bb 260a 683c 58cc bd3b
00000010: 2df3 afbc 05f9 853b b2ed 01bc 6fc9 20bc
00000020: 6fdb 98bc f008 e8ba 0a12 41bc 6821 13bd
00000030: 5ca2 493b a08c ef3c 9e8a ec3c 6f88 46bc
00000040: 2b3a a13c 4da6 fe3b d113 d7b9 835a 1e3c
00000050: dd12 053d 5e1b 2d3c 4fbe d0bc 669e 353c
00000060: 78db 063b 9fdd ae3c 7781 73bb bdbe 1d3c
00000070: 2884 aeba ee14 a23a c8a1 813c f24a a13c

convs.0.bn1.running_mean f4 [32]
0.05121933 0.23432325 -0.3642497 -0.07696106 -0.43802726 0.09131631 1.0194529 0.6067838
-0.3404747 0.35460132 -0.08042203 0.0026805832 -0.025190163 0.5554996 0.10990774 0.29742068
-0.49392143 -0.56221825 -0.7295658 0.07057409 0.30094418 0.31988072 0.08590777 -0.10572442
-0.42624882 0.39612737 0.3195835 -0.17652357 0.3045591 -0.18897244 -0.16218026 -0.43291184
00000000: 5ccb 513d 6ff2 6f3e f07e babe c39d 9dbd
00000010: 1c45 e0be 0c04 bb3d 6f7d 823f 2f56 1b3f
00000020: b352 aebe 4e8e b53e 4eb4 a4bd b9ac 2f3b
00000030: 9a5b cebc 3935 0e3f 4f17 e13d 8647 983e
00000040: 45e3 fcbe 89ed 0fbf d3c4 3abf 2689 903d
00000050: 5b15 9a3e 68c7 a33e 6af0 af3d 0b86 d8bd
00000060: 493d dabe 35d1 ca3e 73a0 a33e 98c2 34be
00000070: 2cef 9b3e fe81 41be 9512 26be 9fa6 ddbe

convs.0.bn1.running_var f4 [32]
0.012338605 0.0051850914 0.008961138 0.009810881 0.013029499 0.0057569384 0.00973497 0.012183666
0.0041003255 0.011604253 0.0065643582 0.010426477 0.01216345 0.007650573 0.009663338 0.0033353455
0.005775344 0.0104842195 0.005379385 0.009195749 0.0077794334 0.015581503 0.024731735 0.013257764
0.0061798305 0.020709263 0.00975744 0.011994613 0.009956137 0.014560951 0.0059084087 0.015558386
00000000: dc27 4a3c b3e7 a93b bdd1 123c d1bd 203c
00000010: ae79 553c b3a4 bc3b 6c7f 1f3c 009e 473c
00000020: 065c 863b c41f 3e3c d419 d73b d0d3 2a3c
00000030: 3549 473c a8b1 fa3b fa52 1e3c d095 5a3b
00000040: 193f bd3b 01c6 2b3c 8d45 b03b c4a9 163c
00000050: 9eea fe3b 8f49 7f3c 359a ca3c 1837 593c
00000060: 2d80 ca3b 79a6 a93c abdd 1f3c 0e85 443c
00000070: 111f 233c 0e91 6e3c 539b c13b 9ae8 7e3c

convs.0.bn2.weight f4 [16]
1.013102 0.99011064 0.98545593 1.0492917 0.99278015 0.99857163 1.022081 1.0002708
1.0327524 1.0141631 1.0298522 1.0395373 1.0073501 0.98045456 0.9574214 1.0236235
00000000: 54ad 813f e477 7d3f d746 7c3f 314f 863f
00000010: d726 7e3f 64a2 7f3f 8dd3 823f e008 803f
00000020: 3b31 843f 19d0 813f 32d2 833f 8f0f 853f
00000030: d9f0 803f 12ff 7a3f 9219 753f 1806 833f

convs.0.bn2.bias f4 [16]
0.019827127 0.015911527 0.017351497 0.066074535 -0.008989221 -4.9194794e-05 0.018946413 0.02887566
0.03332403 0.034682598 0.015432924 0.04699503 0.050304126 0.0111361295 -0.0045697824 0.04697913
00000000: 806c a23c e458 823c ba24 8e3c 1652 873d
00000010: 8747 13bc 8256 4eb8 8235 9b3c a68c ec3c
00000020: c77e 083d 570f 0e3d 60da 7c3c dc7d 403d
00000030: b30b 4e3d 5074 363c 1dbe 95bb 306d 403d

convs.0.bn2.running_mean f4 [16]
5.4415574 4.4804425 5.686073 4.075081 5.420361 4.222251 5.0394497 5.500032
4.593884 5.8511763 4.797715 4.55449 5.414135 5.2589955 5.0396233 4.5881305
00000000: 3d21 ae40 c95f 8f40 4ff4 b540 1067 8240
00000010: 9973 ad40 ae1c 8740 2c43 a140 4300 b040
00000020: 1901 9340 d63c bb40 e286 9940 62be 9140
00000030: 9840 ad40 b149 a840 9844 a140 f7d1 9240

convs.0.bn2.running_var f4 [16]
4.713602 9.426454 17.723677 2.3368626 7.7156286 2.561047 14.262079 5.3742843
1.8311248 14.387822 3.4327865 2.5874276 5.708028 3.2350507 7.6322217 3.58743
00000000: d4d5 9640 c1d2 1641 17ca 8d41 288f 1540
00000010: 6ee6 f640 32e8 2340 7a31 6441 23fa ab40
00000020: 4c62 ea3f 8534 6641 c6b2 5b40 6a98 2540
00000030: 2aa8 b640 120b 4f40 293b f440 7498 6540

convs.1.fc_full.weight f4 [32, 56]
0.04002682 0.16986689 -0.0037965046 -0.050564893 0.03348213 0.05151572 0.02158238 -0.15048322
0.08142226 -0.13270758 0.08065418 0.10800514 -0.022309633 -0.042219758 0.04981738 -0.060775083
-0.124946654 -0.104366735 0.01587031 0.10045765 0.023438197 -0.12423132 -0.18227878 0.04734154
0.099611245 -0.030141737 0.024203595 -0.027324796 0.07919632 -0.07407701 -0.002485657 -0.12339737
-0.14414021 -0.025243716 -0.014367231 0.07665179 -0.10496245 0.0003911715 -0.051044963 0.042675916
-0.055621315 0.053213816 0.032223463 0.036055118 -0.081278 0.048813604 -0.01130871 0.022153532
-0.11955496 -0.13885555 -0.115630895 -0.084003836 -0.056520198 0.10610611 0.06959197 0.02146299
-0.011415515 -0.08483234 0.096476465 -0.11782801 -0.06746212 -0.12421028 0.023761492 0.02303072
0.0054387012 0.11853348 -0.028738525 -0.011993349 0.03614181 0.11965318 0.08157686 0.039424833
-0.0780649 0.018284854 0.08433092 0.007433108 0.07818441 0.09784781 -0.058463804 -0.027108891
-0.12262386 0.020135514 0.07799646 -0.033462137 0.006895302 0.060473528 0.0017868467 0.095312215
0.024714634 -0.1297287 -0.12085949 -0.14160642 -0.0036787335 0.07787323 -0.015916096 0.10959078
-0.033286426 0.018602664 0.1265368 0.06943464 -0.014876598 0.119489715 -0.08804592 0.062270895
0.08042468 -0.10180664 -0.14457189 0.042743374 -0.05070459 -0.10232087 -0.029294712 -0.16300926
0.14691132 -0.025770959 -0.053010818 0.0832839 0.036560893 0.030418245 -0.04325021 0.14162661
-0.034467485 0.12833159 -0.023346715 0.08689976 0.102670014 -0.060443442 -0.090156086 -0.13141699
0.094027124 0.102188915 -0.04402111 -0.07262926 0.023282193 0.07398973 0.0741307 -0.015172488
-0.10088607 0.09143787 -0.10681122 -0.15221974 -0.07379689 0.0612252 0.032276083 0.041878536
-0.043460906 -0.012912452 -0.040118165 -0.08556579 -0.13974625 0.060627524 -0.00070104754 -0.109243594
-0.09936869 -0.10836456 -0.02506763 -0.044627942 -0.0037260833 0.026067326 -0.13716204 0.002858823
-0.02597806 -0.057291765 0.004979085 -0.05663683 0.0042816475 -0.17186518 -0.07483065 0.034550704
0.086479634 -0.06294945 0.038951132 -0.109814 0.082633115 -0.1324005 -0.14993727 -0.11135397
-0.10656211 0.024114383 -0.06037501 0.026672577 -0.0108185485 -0.040184855 -0.03359519 -0.09233146
-0.14092791 0.08259569 -0.09637028 -0.017159414 0.056482006 -0.026869575 -0.07813389 -0.12820475
-0.069333985 0.08752673 -0.021762077 0.09591025 0.04707749 -0.029516447 -0.08774693 -0.013565881
-0.064764224 -0.11634726 -0.087078236 0.009073412 -0.08129838 -0.010855332 0.0536563 -0.02949564
0.13106532 0.08414314 -0.13695692 -0.091162965 -0.08779318 0.044886224 0.020045854 0.08923941
-0.0009954857 -0.07914631 -0.03414209 -0.111175425 -0.036708422 0.16707726 0.10751734 -0.02230007
-0.12460776 0.047273364 -0.12149583 -0.10088966 -0.099069335 0.10207085 -0.018816685 -0.07356378
-0.07507759 0.09037155 -0.02397021 0.031301297 0.016605565 0.025306456 0.09970874 0.006743474
-0.025778174 -0.0030112476 -0.10952 -0.03493268 0.124816984 -0.09417147 -0.09279174 -0.15340175
0.019807093 -0.122808 -0.07025351 0.14225897 0.061385203 0.07855169 0.034587152 -0.101452194
00000000: 2af3 233d 96f1 2d3e c7ce 78bb 221d 4fbd
00000010: 8f24 093d 2602 533d 88cd b03c 4618 1abe
00000020: b7c0 a63d 7fe4 07be 052e a53d cd31 dd3d
00000030: b1c2 b6bc a0ee 2cbd 4f0d 4c3d 4bef 78bd
00000040: 08e4 ffbd 3abe d5bd 7402 823c bebc cd3d
00000050: 7601 c03c fe6c febd 4aa7 3abe 34e9 413d
00000060: fb00 cc3d ceeb f6bc 9e46 c63c 40d8 dfbc
00000070: ae31 a23d b0b5 97bd 68e6 22bb c3b7 fcbd
00000080: 7e99 13be e9cb cebc 8964 6bbc 9dfb 9c3d
00000090: 8ef6 d6bd 2616 cd39 8614 51bd f1cc 2e3d
000000a0: 2dd3 63bd bbf6 593d c0fc 033d 88ae 133d
000000b0: 1475 a6bd c6f0 473d 2b48 39bc 537b b53c
000000c0: 3bd9 f4bd 2630 0ebe e4cf ecbd 340a acbd
000000d0: b981 67bd 294e d93d 3c86 8e3d 27d3 af3c
000000e0: 2408 3bbc 94bc adbd 7495 c53d d04f f1bd
000000f0: 9429 8abd f661 febd 76a7 c23c ecaa bc3c
00000100: 2237 b23b aec1 f23d 0e6d ebbc c07f 44bc
00000110: 6f09 143d ba0c f53d c511 a73d ef7b 213d
00000120: 7ee0 9fbd 1eca 953c b0b5 ac3d 6e91 f33b
00000130: 261f a03d 6f64 c83d be77 6fbd 7713 debc
00000140: 3822 fbbd 3cf3 a43c 9cbc 9f3d 980f 09bd
00000150: fcf1 e13b 17b3 773d a034 ea3a 0d33 c33d
00000160: 5876 ca3c 9ad7 04be 2e85 f7bd 4601 11be
00000170: e816 71bb 007c 9f3d 7962 82bc 2271 e03d
00000180: 5957 08bd 9d64 983c dd92 013e c033 8e3d
00000190: f9bc 73bc 06b7 f43d 6b51 b4bd c40f 7f3d
000001a0: b2b5 a43d 0080 d0bd a70a 14be ad13 2f3d
000001b0: 9eaf 4fbd 9b8d d1bd 77fb efbc e6eb 26be
000001c0: ec6f 163e 9e1d d3bc df21 59bd c090 aa3d
000001d0: e0c0 153d af2f f93c 2227 31bd 9106 113e
000001e0: c72d 0dbd 5b69 033e 9c41 bfbc 80f8 b13d
000001f0: a844 d23d 8b93 77bd c1a3 b8bd 2d92 06be
00000200: 4b91 c03d 6c48 d13d 7b4f 34bd a6be 94bd
00000210: 4cba be3c ed87 973d d6d1 973d 0796 78bc
00000220: 5b9d cebd c743 bb3d d7bf dabd 7edf 1bbe
00000230: d322 97bd 46c7 7a3d ed33 043d d488 2b3d
00000240: 1004 32bd c08e 53bc f252 24bd 1e3d afbd
00000250: a419 0fbe 9154 783d 81c6 37ba 1bbb dfbd
00000260: d081 cbbd 3dee ddbd a15a cdbc cacb 36bd
00000270: 4e31 74bb 258b d53c 3574 0cbe 175b 3b3b
00000280: f1cf d4bc c5aa 6abd 9827 a33b 05fc 67bd
00000290: 104d 8c3b 6dfd 2fbe d040 99bd 0a85 0d3d
000002a0: 3c1c b13d a4eb 80bd 398b 1f3d 2ae6 e0bd
000002b0: 8d3b a93d ff93 07be 2889 19be 8d0d e4bd
000002c0: 3c3d dabd 878b c53c c94b 77bd 7380 da3c
000002d0: 4840 31bc e098 24bd 1c9b 09bd 4718 bdbd
000002e0: 684f 10be ee27 a93d c85d c5bd e691 8cbc
000002f0: ad59 673d 951d dcbc a904 a0bd 1b48 03be
00000300: fafe 8dbd 3741 b33d 6246 b2bc 986c c43d
00000310: 53d4 403d 7acc f1bc aab4 b3bd 6e43 5ebc
00000320: 1ba3 84bd 7947 eebd 1356 b2bd a6a8 143c
00000330: c47f a6bd 90da 31bc b5c6 5b3d d7a0 f1bc
00000340: fd35 063e 3d53 ac3d 6f3e 0cbe a6b3 babd
00000350: e9cc b3bd 9eda 373d 3437 a43c 27c3 b63d
00000360: f57a 82ba 7617 a2bd 93d8 0bbd f1af e3bd
00000370: 925b 16bd 4d16 2b3e 0d32 dc3d a3ae b6bc
00000380: 5a32 ffbd b7a1 413d ced2 f8bd 3d9f cebd
00000390: dde4 cabd 860a d13d 7325 9abc 9ba8 96bd
000003a0: 48c2 99bd b814 b93d 2d5d c4bc ca35 003d
000003b0: 6508 883c 7c4f cf3c 1934 cc3d 5cf8 dc3b
000003c0: c02c d3bc 5a58 45bb 064c e0bd 9215 0fbd
000003d0: 0ca0 ff3d f9dc c0bd 9909 bebd 5915 1dbe
000003e0: 7c42 a23c c382 fbbd 12e1 8fbd 56ac 113e
000003f0: 0d6f 7b3d b5df a03d 42ab 0d3d 2bc6 cfbd

convs.1.fc_full.bias f4 [32]
-0.06608748 0.07334423 -0.0021757549 -0.07264744 -0.076695114 0.12581602 0.08760121 -0.10031704
-0.0019438047 0.008020773 0.072583266 -0.11479281 -0.0027448635 0.030525975 0.06764338 0.009438389
-0.066089064 -0.1287095 0.07153635 0.11979374 -0.04845992 -0.11214654 0.04854388 -0.088800825
-0.07819879 0.032633822 -0.0011710443 -0.011363232 0.12871712 -0.023212586 0.083046086 -0.030954665
00000000: df58 87bd 8035 963d 1c97 0ebb 2ec8 94bd
00000010: 5412 9dbd ead5 003e 4368 b33d 0573 cdbd
00000020: 43c7 feba 8f69 033c 89a6 943d 7e18 ebbd
00000030: 2be3 33bb 9c11 fa3c 9d88 8a3d 79a3 1a3c
00000040: b459 87bd 6ccc 03be a681 923d 6c56 f53d
00000050: e97d 46bd 16ad e5bd f3d5 463d 35dd b5bd
00000060: b026 a0bd 0bab 053d ba7d 99ba d92c 3abc
00000070: 6cce 033e 5228 bebc 1114 aa3d a394 fdbc

convs.1.bn1.weight f4 [32]
1.067729 1.0512352 1.0265819 1.0270482 1.0206228 1.0056387 0.99540484 0.99791676
1.029607 1.055583 0.99162686 0.97893125 1.0067372 1.0275552 1.0361055 0.9887298
0.99589 0.9949797 0.9931135 1.0181816 0.97464246 1.0193825 1.011914 1.013747
0.99580956 0.97539234 1.0036302 1.0015662 1.0168536 0.9873247 0.9677541 1.0092432
00000000: 58ab 883f e08e 863f 0967 833f 5176 833f
00000010: c5a3 823f c5b8 803f dad2 7e3f 7977 7f3f
00000020: 2aca 833f 581d 873f 42db 7d3f 3d9b 7a3f
00000030: c4dc 803f ee86 833f 1b9f 843f 651d 7d3f
00000040: a6f2 7e3f fdb6 7e3f b03c 7e3f c653 823f
00000050: 2b82 793f 207b 823f 6686 813f 76c2 813f
00000060: 60ed 7e3f 50b3 793f f476 803f 5233 803f
00000070: 4228 823f 50c1 7c3f bcbe 773f e22e 813f

convs.1.bn1.bias f4 [32]
-0.004455026 -0.061962422 -0.017584799 0.022161493 -0.019752955 -0.0070420755 0.009324331 -0.00022418334
-0.033678498 -0.04198886 0.019687008 0.02128081 0.005976663 -0.017633671 -0.022815485 0.028101958
0.0064271255 -0.004990666 0.0010640431 -0.02129565 0.026196439 -0.042960297 0.0029348142 -0.017901022
0.010822875 0.021050172 0.008634573 0.0014835756 -0.0050580287 0.0033717267 0.035844557 -0.0077771503
00000000: 77fb 91bb 4fcc 7dbd ff0d 90bc 058c b53c
00000010: f3d0 a1bc 36c1 e6bb 14c5 183c c212 6bb9
00000020: 77f2 09bd 83fc 2bbd a646 a13c 1855 ae3c
00000030: e2d7 c33b 7d74 90bc 8ae7 babc 1436 e63c
00000040: a39a d23b be88 a3bb 5d77 8b3a 3774 aebc
00000050: ea99 d63c 23f7 2fbd 0356 403b 2aa5 92bc
00000060: 6e52 313c 6971 ac3c 0678 0d3c 8974 c23a
00000070: d2bd a5bb 30f8 5c3b bed1 123d 77d7 febb

convs.1.bn1.running_mean f4 [32]
-0.6316297 0.23947428 -0.38229898 -1.286976 -0.80521685 -0.5000148 0.31507662 0.6541948
0.1877084 -0.09914822 0.45521098 -0.1864944 0.17473666 0.012349762 0.29121166 -0.22211656
-0.33180106 -0.6779882 0.14696738 -0.99504817 0.59673715 0.68654346 -0.7196632 0.90246123
-0.82782066 -0.44126555 0.2668143 0.054162472 -0.9080953 0.087816186 -0.5971055 0.55669826
00000000: 7cb2 21bf bf38 753e b1bc c3be a1bb a4bf
00000010: b122 4ebf f800 00bf b951 a13e 4f79 273f
00000020: a136 403e 390e cbbd 6a11 e93e 63f8 3ebe
00000030: 2bee 323e a856 4a3c b219 953e 8672 63be
00000040: d4e1 a9be a290 2dbf 9e7e 163e 7abb 7ebf
00000050: c4c3 183f 50c1 2f3f d93b 38bf b307 673f
00000060: 0eec 53bf 8fed e1be e29b 883e 78d9 5d3d
00000070: ef78 68bf f9d8 b33d e8db 18bf c783 0e3f

convs.1.bn1.running_var f4 [32]
0.06288183 0.07972078 0.06321366 0.038181644 0.096085146 0.08231153 0.05997069 0.0766473
0.041194618 0.1263626 0.105795644 0.052117564 0.11077568 0.06965516 0.047403786 0.045360915
0.09143156 0.115973905 0.09256003 0.11748975 0.080886126 0.07253669 0.07378685 0.17854328
0.08170065 0.054807127 0.11956688 0.08173854 0.129686 0.05054856 0.11164334 0.087771036
00000000: 30c8 803d a644 a33d 2a76 813d 5b64 1c3d
00000010: 4ac8 c43d f392 a83d d4a3 753d 42f9 9c3d
00000020: b0bb 283d 3365 013e 63ab d83d 3a79 553d
00000030: 5cde e23d 5da7 8e3d 792a 423d 5ecc 393d
00000040: 7840 bb3d ba83 ed3d 1d90 bd3d 779e f03d
00000050: a0a7 a53d 1e8e 943d 8f1d 973d 0dd4 363e
00000060: ac52 a73d 707d 603d 7bdf f43d 8966 a73d
00000070: 68cc 043e 020c 4f3d 43a5 e43d 4dc1 b33d

convs.1.bn2.weight f4 [16]
1.0225043 1.0322638 1.0077658 1.0585856 0.9918194 1.0411737 0.9784998 1.0118032
1.0586526 1.0038409 1.0094006 0.9928256 1.0400162 1.0390795 0.98453 1.0216035
00000000: 6ce1 823f 3821 843f 78fe 803f bc7f 873f
00000010: e0e7 7d3f 2e45 853f f77e 7a3f c482 813f
00000020: ee81 873f dc7d 803f 0a34 813f d229 7e3f
00000030: 401f 853f 8f00 853f 280a 7c3f e7c3 823f

convs.1.bn2.bias f4 [16]
0.01465926 0.057891164 0.038084857 0.056377046 -0.016731493 0.052994534 0.03463384 0.039149567
0.066833705 0.042826846 0.049905468 0.052773103 0.062142443 0.06183937 0.054098256 0.050210617
00000000: 652d 703c 491f 6d3d defe 1b3d 9eeb 663d
00000010: 7c10 89bc cc10 593d 37dc 0d3d 4c5b 203d
00000020: 1ce0 883d 346b 2f3d ad69 4c3d 9c28 583d
00000030: 1389 7e3d 474b 7d3d 2296 5d3d a6a9 4d3d

convs.1.bn2.running_mean f4 [16]
5.380671 5.3493233 4.922585 4.9713993 5.159246 5.308763 4.7914166 4.759435
4.8154445 4.974857 4.5661197 4.8226614 4.6645136 4.989381 4.7387395 4.7592535
00000000: 752e ac40 a82d ab40 d185 9d40 b415 9f40
00000010: 8b18 a540 63e1 a940 4953 9940 4b4d 9840
00000020: 1f18 9a40 0732 9f40 a71d 9240 3e53 9a40
00000030: b243 9540 02a9 9f40 c1a3 9740 ce4b 9840

convs.1.bn2.running_var f4 [16]
25.53615 16.510075 6.3594522 8.465408 9.257844 15.012339 8.511141 12.531505
11.223805 5.6470485 2.6778843 7.9149723 7.5181746 14.118059 8.111686 7.3737345
00000000: 094a cc41 a214 8441 a280 cb40 5072 0741
00000010: 2120 1441 8a32 7041 a22d 0841 0b81 4841
00000020: b594 3341 9fb4 b440 7562 2b40 7447 fd40
00000030: e394 f040 92e3 6141 77c9 0141 a2f5 eb40

convs.2.fc_full.weight f4 [32, 56]
0.12501933 0.030480558 0.09561346 0.11482794 -0.055968493 0.05301103 0.10773965 0.03669063
0.072846316 -0.09542825 0.0670933 -0.10178804 0.0932853 -0.011096945 0.015283117 -0.14142698
0.07610977 0.12138826 0.08196736 0.037280366 0.022115385 -0.0028278937 -0.07933585 0.06669855
0.06577666 -0.0048520537 0.020059964 0.06829731 -0.17924911 -0.14780264 0.020386687 0.09820538
0.053559694 -0.14905542 -0.053673662 -0.013580096 0.04758673 0.09873462 -0.017862003 -0.11724132
0.009153929 -0.047088318 -0.09131244 0.05392865 -0.0308563 0.064477876 0.10936716 -0.0078080283
0.046365485 -0.08850254 0.08503288 0.005338596 0.08881906 0.20231867 -0.001370232 0.22728999
0.07609585 -0.11992102 0.041878127 -0.12167556 0.033741064 -0.021733213 -0.12893757 0.051279854
-0.056645494 0.14902058 0.14950117 0.03676037 0.11638394 0.07733063 0.106658064 -0.0050582797
-0.0048778392 -0.02637247 -0.023926841 -0.011559938 -0.055705857 0.02225701 0.08350751 -0.04442779
-0.11915803 0.07701478 -0.14606896 0.03574681 -0.11304979 0.13736732 0.08960258 -0.12294394
-0.11737042 -0.061856 0.0902394 -0.054951556 -0.02607961 -0.028575929 0.040919904 -0.010059705
0.07212796 -0.09123195 -0.008121358 0.1276805 -0.020891616 0.1133567 0.07256431 -0.03905172
0.0562904 -0.08836723 0.018752897 0.037852287 0.11558193 -0.12050027 -0.17412473 -0.17142001
-0.12750861 -0.0028947582 -0.12066269 -0.05913109 -0.068422124 -0.021315781 0.049973875 -0.09850417
-0.0581171 -0.007691374 -0.07485067 0.017888913 0.038596522 -0.061388597 0.09829502 0.08092608
-0.06826871 0.028250115 0.012947855 0.04067419 -0.12975912 0.05783206 0.07752537 -0.13376456
-0.11228318 0.12984565 -0.011590696 -0.0023262708 0.09434259 0.026695557 0.043546565 0.07389035
0.030182272 0.17292657 -0.07693202 -0.10340219 -0.008737129 0.02360084 0.12150689 -0.019462908
-0.0019046736 -0.060663275 0.13934721 0.036141966 0.018856507 0.07412925 0.09566258 0.15485182
-0.101465575 -0.057343375 -0.020281406 -0.027587147 0.07728823 -0.00834318 -0.11262977 -0.10206469
0.026209729 0.11906952 0.08437103 -0.037384037 -0.081854224 0.022306236 -0.0008487364 -0.10444423
-0.12431952 0.012055218 -0.062620014 -0.06030238 -0.0032569747 0.07657283 0.1489989 0.061606105
-0.121803276 0.12710316 0.03406981 0.063797385 -0.038657933 0.0014798426 -0.07057149 -0.055350147
-0.009532779 -0.044923875 -0.14216687 0.0574479 -0.13373625 -0.12876756 0.061026856 -0.10159299
0.0656556 0.0626493 -0.0863657 0.009485695 -0.05584765 -0.052381914 -0.040422127 -0.11692427
0.07596132 0.043806307 -0.09877359 -0.06486078 -0.17286035 -0.058592428 0.06894688 0.07396916
-0.1329422 0.079490244 0.02390136 -0.057492014 0.00023199698 0.1587469 0.11828068 0.21889378
-0.007285488 -0.06991524 0.16824584 0.021258835 0.033744268 0.07505474 0.006703756 -0.15305445
-0.12520055 0.035537377 0.07606367 0.040942255 -0.1359189 -0.0025543221 0.14154483 0.076279655
0.1091887 0.11930665 0.020155968 -0.04001755 -0.10900977 0.015309406 -0.026318729 -0.031465016
0.04880002 0.06735599 0.08658723 0.06251142 -0.014167826 0.069973014 -0.018098366 -0.060771886
00000000: 1105 003e 5db2 f93c fdd0 c33d e92a eb3d
00000010: 383f 65bd 1822 593d 9ba6 dc3d ea48 163d
00000020: 7330 953d e36f c3bd 3668 893d 3f76 d0bd
00000030: 5d0c bf3d f6cf 35bc 0a66 7a3c 3cd2 10be
00000040: 70df 9b3d 689a f83d 81de a73d 4cb3 183d
00000050: 532b b53c 2f54 39bb d67a a2bd 4099 883d
00000060: eab5 863d fafd 9ebb cb54 a43c 76df 8b3d
00000070: 148d 37be 9359 17be fb01 a73c e71f c93d
00000080: 6961 5b3d fca1 18be ead8 5bbd 0d7f 5ebc
00000090: 4eea 423d 6035 ca3d 5653 92bc 381c f0bd
000000a0: 5cfa 153c aedf 40bd 0402 bbbd 4ae4 5c3d
000000b0: 5ac6 fcbc fa0c 843d e4fb df3d 7dda ffbb
000000c0: bce9 3d3d d240 b5bd b825 ae3d 64ef ae3b
000000d0: c4e6 b53d a02c 4f3e 5b99 b3ba b5be 683e
000000e0: 24d8 9b3d 2799 f5bd 6688 2b3d 0931 f9bd
000000f0: 1234 0a3d da09 b2bc 3608 04be d30a 523d
00000100: 1b05 68bd da98 183e d616 193e 0b92 163d
00000110: b45a ee3d 855f 9e3d 8b6f da3d edbf a5bb
00000120: 48d6 9fbb 140b d8bc 3902 c4bc e565 3dbc
00000130: d32b 64bd 5554 b63c fc05 ab3d eaf9 35bd
00000140: 2009 f4bd edb9 9d3d 1a93 15be 3f6b 123d
00000150: a686 e7bd 05aa 0c3e 8f81 b73d 08ca fbbd
00000160: e75f f0bd b85c 7dbd 6fcf b83d e214 61bd
00000170: e8a4 d5bc 1118 eabc a19b 273d 76d1 24bc
00000180: d3b7 933d d1d7 babd 720f 05bc adbe 023e
00000190: e524 abbc 8f27 e83d 999c 943d b2f4 1fbd
000001a0: c390 663d e1f9 b4bd ad9f 993c 000b 1b3d
000001b0: 38b6 ec3d d8c8 f6bd c14d 32be ba88 2fbe
000001c0: 9e91 02be fcb5 3dbb 001e f7bd 7133 72bd
000001d0: e620 8cbd 6f9e aebc 68b1 4c3d 8ebc c9bd
000001e0: 320c 6ebd ec07 fcbb 4f4b 99bd c58b 923c
000001f0: 6317 1e3d 9c72 7bbd e64e c93d 93bc a53d
00000200: 77d0 8bbd c96c e73c 3d23 543c fb99 263d
00000210: 93df 04be 4fe1 6c3d 9fc5 9e3d 94f9 08be
00000220: b9f4 e5bd 42f6 043e e7e6 3dbc 5974 18bb
00000230: b036 c13d a4b0 da3c e25d 323d d353 973d
00000240: d040 f73c aa13 313e 898e 9dbd 87c4 d3bd
00000250: 2d26 0fbc 8c56 c13c 9bd8 f83d ad70 9fbc
00000260: 3ea6 f9ba 0e7a 78bd 09b1 0e3e 9909 143d
00000270: f678 9a3c 14d1 973d beea c33d 7a91 1e3e
00000280: 2fcd cfbd e3e0 6abd 3125 a6bc 71fe e1bc
00000290: 4b49 9e3d d5b1 08bc 70aa e6bd 4b07 d1bd
000002a0: c9b5 d63c b8da f33d b8ca ac3d 0120 19bd
000002b0: 30a3 a7bd 91bb b63c bc7d 5eba dbe6 d5bd
000002c0: 3c9b febd 4083 453c ec3e 80bd a1ff 76bd
000002d0: f872 55bb 37d2 9c3d 2b93 183e af56 7c3d
000002e0: ff73 f9bd 5527 023e c98c 0b3d 34a8 823d
000002f0: c857 1ebd 47f7 c13a c987 90bd d6b6 62bd
00000300: 602f 1cbc 1902 38bd 3194 11be 7d4e 6b3d
00000310: 28f2 08be a5db 03be 4cf7 793d fc0f d0bd
00000320: 7176 863d 474e 803d 80e0 b0bd e369 1b3c
00000330: 81c0 64bd 6b8e 56bd ac91 25bd fe75 efbd
00000340: 9c91 9b3d 3e6e 333d cf49 cabd bbd5 84bd
00000350: 4e02 31be 9dfe 6fbd 0634 8d3d 257d 973d
00000360: 0022 08be c8cb a23d c9cc c33c bf7c 6bbd
00000370: 3744 7339 8c8e 223e 243d f23d b125 603e
00000380: 1abb eebb b92f 8fbd a348 2c3e 0227 ae3c
00000390: 6e37 0a3d 4db6 993d 2eab db3b 4eba 1cbe
000003a0: 9334 00be a48f 113d 45c7 9b3d 11b3 273d
000003b0: 532e 0bbe 6a66 27bb 21f1 103e 8238 9c3d
000003c0: 539e df3d 0b57 f43d 211e a53c 71e9 23bd
000003d0: 8440 dfbd 4ed4 7a3c 609a d7bc 76e1 00bd
000003e0: 88e2 473d f0f1 893d a554 b13d fd05 803d
000003f0: 2b20 68bc 034e 8f3d 0643 94bc f1eb 78bd

convs.2.fc_full.bias f4 [32]
0.1289942 -0.02726404 -0.12107864 -0.02754036 0.045621313 0.054520667 -0.08847435 -0.09686183
-0.03494441 0.010206623 -0.11060622 0.057658907 -0.024588013 0.07722063 0.034041543 -0.01295721
-0.018900607 0.035551902 -0.065739825 -0.034549937 0.06476417 -0.11807096 -0.0317406 0.028662033
-0.06551446 0.060568556 0.06793407 -0.019834561 -0.05377629 0.06556079 0.004803173 -0.0972204
00000000: 0e17 043e d658 dfbc 14f8 f7bd 529c e1bc
00000010: 6add 3a3d 1051 5f3d 0a32 b5bd 7f5f c6bd
00000020: df21 0fbd ae39 273c 8485 e2bd bf2b 6c3d
00000030: cd6c c9bc da25 9e3d 256f 0b3d 7a4a 54bc
00000040: 72d5 9abc df9e 113d 9aa2 86bd 3c84 0dbd
00000050: 14a3 843d 30cf f1bd 6e02 02bd a4cc ea3c
00000060: 722c 86bd bc16 783d 0521 8b3d 177c a2bc
00000070: 8744 5cbd bc44 863d ef63 9d3b 7d1b c7bd

convs.2.bn1.weight f4 [32]
1.0653894 1.0263071 1.0517206 0.9563075 1.0403535 0.9840419 1.0052677 1.0333015
1.0377854 0.97724205 1.0073771 1.0604669 1.024064 0.9935545 1.0395546 1.0321926
0.9828058 1.011505 0.98453265 1.0726999 0.98546964 1.0283132 1.0186816 0.9893547
0.9698147 1.0165987 1.0196786 0.9489551 0.9613003 0.9835884 0.9430072 0.9774886
00000000: ae5e 883f 085e 833f c89e 863f 91d0 743f
00000010: 4e2a 853f 2cea 7b3f 9dac 803f 3943 843f
00000020: 27d6 843f 892c 7a3f bcf1 803f 61bd 873f
00000030: 8714 833f 9659 7e3f 2010 853f e31e 843f
00000040: 2999 7b3f ff78 813f 550a 7c3f 3b4e 893f
00000050: bd47 7c3f c49f 833f 2964 823f 5a46 7d3f
00000060: c745 783f e81f 823f d484 823f b9ee 723f
00000070: c717 763f 73cc 7b3f eb68 713f b13c 7a3f

convs.2.bn1.bias f4 [32]
-6.458686e-05 0.014309812 -0.011232958 0.039431147 -0.044550605 -0.0017714732 0.013940591 -0.013387451
-0.014730368 0.043353453 -0.0075029843 -0.010135621 0.002069355 -0.0128980065 0.026813572 0.0066929394
0.020726623 -0.023387922 0.027459195 -0.048666146 0.01272046 -0.03291882 0.00034498793 0.014693077
0.06005435 -0.0006025668 0.007993643 0.049999557 0.041163363 0.019229507 0.06651653 0.0250194
00000000: ce72 87b8 b473 6a3c 710a 38bc 8e82 213d
00000010: b27a 36bd c730 e8ba 1467 643c 0a57 5bbc
00000020: a457 71bc 6493 313d 98db f5bb e00f 26bc
00000030: 049e 073b 2952 53bc 23a8 db3c 7250 db3b
00000040: e1ca a93c 0798 bfbc 1bf2 e03c 2756 47bd
00000050: 7a69 503c e2d5 06bd 7fdf b439 3bbb 703c
00000060: 8dfb 753d 93f5 1dba c5f7 023c 56cc 4c3d
00000070: ea9a 283d 3387 9d3c d239 883d 7cf5 cc3c

convs.2.bn1.running_mean f4 [32]
0.92709124 0.3095805 -0.10227064 -1.0344387 0.59276235 -0.027920043 -0.6201418 0.4810908
-0.27498335 -0.10944548 -0.07931703 -0.59064114 0.9596841 -0.7334073 1.6067508 0.03163465
0.8104602 0.66381633 -1.5865394 -0.78245646 1.2703019 0.47315043 -0.45895416 0.21242225
-0.5708447 -0.9110332 0.029581122 0.4976412 0.68257004 1.6173074 -0.7504477 0.13521087
00000000: da55 6d3f 5681 9e3e 4573 d1bd 7d68 84bf
00000010: 46bf 173f 93b8 e4bc 9dc1 1ebf 8951 f63e
00000020: 9eca 8cbe f424 e0bd f870 a2bd 4234 17bf
00000030: dbad 753f 95c0 3bbf 03aa cd3f 5693 013d
00000040: 527a 4f3f deef 293f b913 cbbf 114f 48bf
00000050: 4199 a23f c640 f23e 0afc eabe 3885 593e
00000060: e122 12bf 7939 69bf 1c54 f23c d4ca fe3e
00000070: e9bc 2e3f ee03 cf3f 571d 40bf b874 0a3e

convs.2.bn1.running_var f4 [32]
0.2680838 0.29454574 0.12850869 0.13728608 0.0877962 0.1572091 0.3108771 0.10660909
0.20038824 0.20520309 0.09358238 0.13421884 0.11769295 0.20922789 0.118649505 0.21695298
0.2004994 0.18992235 0.37685388 0.19071876 0.18894467 0.12726368 0.20064315 0.11923756
0.2022755 0.2705773 0.2977118 0.23257981 0.28204045 0.11703377 0.20434076 0.3230102
00000000: 4842 893e b3ce 963e c897 033e b994 0c3e
00000010: 7ece b33d 6cfb 203e 492b 9f3e de55 da3d
00000020: 9332 4d3e c220 523e 1ea8 bf3d aa70 093e
00000030: 0009 f13d d63f 563e 83fe f23d ec28 5e3e
00000040: b74f 4d3e 017b 423e fef2 c03e c74b 433e
00000050: b67a 413e 6951 023e 6675 4d3e d232 f43d
00000060: 4f21 4f3e 1c89 8a3e ae6d 983e 6729 6e3e
00000070: 9b67 903e 67af ef3d b43e 513e 9861 a53e

convs.2.bn2.weight f4 [16]
1.0482382 1.0476649 1.0259206 1.0829947 0.98950803 1.0558705 1.0092878 1.0160998
1.0044595 0.9818969 1.0281694 1.0192616 1.0202386 1.0016497 1.0594345 1.0199153
00000000: ab2c 863f e219 863f 5e51 833f 929f 8a3f
00000010: 6650 7d3f c426 873f 5830 813f 8f0f 823f
00000020: 2192 803f 985d 7b3f 0e9b 833f 2a77 823f
00000030: 2e97 823f 0f36 803f 8d9b 873f 968c 823f

convs.2.bn2.bias f4 [16]
0.025840955 0.052839633 0.048528988 0.051786214 -0.035263535 0.054278202 0.04599382 0.053115938
0.06387898 0.06693786 0.05641951 0.060105387 0.060706712 0.06272724 0.05358298 0.05440382
00000000: 69b0 d33c 5f6e 583d 55c6 463d c81d 543d
00000010: 7f70 10bd d252 5e3d 0464 3c3d 1990 593d
00000020: fcd2 823d b716 893d 2518 673d 1131 763d
00000030: 9aa7 783d 2477 803d d479 5b3d 8ad6 5e3d

convs.2.bn2.running_mean f4 [16]
5.6797147 5.440284 4.4383636 4.620795 4.719284 4.6878953 4.8121686 4.8586574
5.1580434 5.64814 4.682127 5.4444256 5.473096 5.280188 5.506051 5.767125
00000000: 39c0 b540 ce16 ae40 1307 8e40 8ddd 9340
00000010: 6004 9740 3d03 9640 49fd 9940 1f7a 9b40
00000020: b10e a540 90bd b440 fcd3 9540 bc38 ae40
00000030: 9a23 af40 4df7 a840 9231 b040 4a8c b840

convs.2.bn2.running_var f4 [16]
24.187605 15.074106 4.482581 9.206481 9.664968 6.380544 14.572608 8.535044
14.310089 18.198395 3.361517 18.269506 12.0231695 13.63685 15.712258 18.275503
00000000: 3780 c141 8a2f 7141 4e71 8f40 bf4d 1341
00000010: b5a3 1a41 6b2d cc40 6729 6941 8a8f 0841
00000020: 20f6 6441 5096 9141 1823 5740 f327 9241
00000030: e75e 4041 8a30 5a41 6965 7b41 3b34 9241

convs.3.fc_full.weight f4 [32, 56]
0.13326699 0.08953237 0.09005473 0.0055380836 0.082052454 -0.08784483 -0.09883678 0.040119965
-0.14585592 0.07872196 0.109574325 -0.11757227 0.034223676 -0.062039867 -0.09251034 -0.020522958
0.039780628 -0.079953186 0.15565969 0.13582933 -0.11341986 0.130986 0.015093737 0.039308555
-0.0030602387 0.020212783 0.054819673 0.13484843 -0.008614564 0.11479157 0.05312505 0.055666864
-0.06925591 -0.078732386 -0.17916591 0.11394782 -0.05265697 0.017738415 -0.032907937 0.007999052
-0.1371893 0.013800767 -0.1778606 -0.1684256 -0.03134452 -0.038420636 0.12136373 0.127699
-0.019616619 -0.087888986 0.04766817 0.12741163 0.016162144 -0.04571872 0.16129997 0.08556941
-0.13228391 0.062189016 -0.005366845 -0.018551642 0.16975911 0.025829433 0.053312123 0.009700977
-0.011514216 0.028755037 -0.096205994 0.108512245 0.0020322069 -0.12535103 -0.1493385 0.07662591
0.0042641247 0.06841596 -0.17040248 0.0294794 0.10975558 0.0025876192 -0.02187359 -0.0975697
0.11397076 -0.009232755 0.06931628 0.064161636 0.053805474 -0.02044861 0.044882763 0.07216654
0.040821813 -0.0999377 0.07350273 -0.084150404 0.09934317 -0.074982576 -0.0061428547 -0.07173491
-0.09122862 -0.057587452 0.094941214 0.04724245 -0.03249441 -0.12472697 -0.08645905 0.12748276
-0.04217947 -0.123176865 -0.09494467 -0.044683237 -0.05938749 0.039695997 -0.09273919 0.015812784
-0.1547635 -0.046499867 0.06759314 0.037459992 -0.030634144 0.026415495 -0.06432817 -0.08726182
0.06082725 0.0012692192 -0.09012403 -0.0110771125 0.13835645 0.022721859 -0.037701674 0.0006506895
-0.10735909 0.08017858 0.009806639 -0.069589816 0.019882735 -0.038871147 0.009016321 -0.008252296
-0.14221562 -0.014678516 -0.047962155 -0.006013775 -0.08417159 0.022926625 -0.09657557 -0.045976356
-0.055681854 -0.0522234 0.02633288 -0.051375344 -0.054426346 0.01880396 0.07051243 -0.039218403
0.0788029 0.04191556 0.106905535 0.024839811 0.13393256 -0.11338462 0.040060345 -0.11780696
0.058888096 -0.04987131 -0.028282644 0.11318377 0.12510039 -0.07850922 -0.17016095 -0.024396844
-0.041847434 -0.077521265 -0.05553928 0.18796536 -0.0062287417 0.034481544 -0.050709683 0.061899684
-0.15149505 -0.061158076 0.009838593 0.071869634 -0.020509718 0.00016059903 0.07851564 0.0359179
0.04952743 -0.030900799 0.06923258 -0.015404699 -0.050983775 0.046732433 0.11807398 -0.004636921
0.032175478 -0.045062043 -0.09736318 0.06379793 -0.032659374 -0.054725792 0.06428774 0.038201943
-0.043857977 0.073409006 0.03577171 0.018323915 -0.065036766 -0.075116836 0.078550406 -0.01812817
-0.13246152 -0.0168354 0.012763227 -0.00094112527 0.067944616 -0.005656516 -0.012009718 0.08911397
-0.04740659 0.010046359 -0.1162483 -0.04718611 -0.1007633 0.09754544 -0.0033371819 0.20243576
0.013613516 -0.12851459 -0.026946023 0.02571053 -0.126035 0.043975737 0.016453395 -0.02236872
0.054487903 -0.081441335 -0.0039933054 0.08226423 -0.10337101 0.009992876 0.07763044 -0.06610141
0.12746266 -0.07961135 -0.0666775 0.10338323 -0.06283181 -0.01430756 -0.08377714 -0.02666787
-0.053633664 -0.1275582 -0.13328613 0.10793877 -0.027575742 -0.0024255954 -0.11789139 -0.040164307
00000000: 2477 083e bf5c b73d 9d6e b83d d078 b53b
00000010: 1e0b a83d fde7 b3bd f06a cabd d554 243d
00000020: 415b 15be fb38 a13d 8168 e03d bbc9 f0bd
00000030: 202e 0c3d 841d 7ebd 1076 bdbd c31f a8bc
00000040: 03f1 223d 7fbe a3bd 4165 1f3e d816 0b3e
00000050: ac48 e8bd 3221 063e b94b 773c 0202 213d
00000060: 498e 48bb 4795 a53c 988a 603d b515 0a3e
00000070: 1a24 0dbc d817 eb3d a799 593d f002 643d
00000080: 0bd6 8dbd 723e a1bd 4577 37be 7a5d e93d
00000090: d6ae 57bd 2750 913c 79ca 06bd 750e 033c
000000a0: 5a7b 0cbe 9d1c 623c 1721 36be c377 2cbe
000000b0: 1d63 00bd f55e 1dbd 8c8d f83d 87c3 023e
000000c0: 08b3 a0bc 24ff b3bd b33f 433d 3278 023e
000000d0: 7966 843c 8d43 3bbd d22b 253e 043f af3d
000000e0: 6f75 07be e9b9 7e3d 5cdc afbb 9df9 97bc
000000f0: 55d5 2d3e 3f98 d33c d05d 5a3d d9f0 1e3c
00000100: 1fa6 3cbc af8f eb3c a607 c5bd ab3b de3d
00000110: c62e 053b 055c 00be 31ec 18be 0cee 9c3d
00000120: 12ba 8b3b ab1d 8c3d fd7d 2ebe c87e f13c
00000130: 89c7 e03d 0c95 293b 3e30 b3bc 9fd2 c7bd
00000140: 8069 e93d fb44 17bc b2f5 8d3d 2d67 833d
00000150: 2163 5c3d d883 a7bc fdd6 373d 0dcc 933d
00000160: c634 273d 23ac ccbd 9988 963d 0c57 acbd
00000170: 6f74 cb3d 7790 99bd 004a c9bb c1e9 92bd
00000180: 12d6 babd d2e0 6bbd 8a70 c23d 4d81 413d
00000190: dc18 05bd db70 ffbd 7111 b1bd d78a 023e
000001a0: 61c4 2cbd 2744 fcbd 5a72 c2bd c505 37bd
000001b0: 4c40 73bd 4598 223d 0bee bdbd d089 813c
000001c0: 537a 1ebe a576 3ebd 466e 8a3d a66f 193d
000001d0: 75f4 fabc 4f65 d83c 7dbe 83bd 53b6 b2bd
000001e0: ff25 793d ee5b a63a f392 b8bd c77c 35bc
000001f0: 50ad 0d3e 3123 ba3c 126d 1abd 0893 2a3a
00000200: 15df dbbd ab34 a43d 06ac 203c 1b85 8ebd
00000210: 1ee1 a23c 5a37 1fbd 31b9 133c a334 07bc
00000220: f9a0 11be 297e 70bc f773 44bd 330f c5bb
00000230: 2862 acbd 9ed0 bb3c 6ac9 c5bd b451 3cbd
00000240: a812 64bd 34e8 55bd 0db8 d73c f46e 52bd
00000250: 29ee 5ebd c30a 9a3c d268 903d 7aa3 20bd
00000260: 6a63 a13d a6af 2b3d 4af1 da3d dc7c cb3c
00000270: 9e25 093e 3236 e8bd 5116 243d c744 f1bd
00000280: a534 713d dc45 4cbd 01b1 e7bc e4cc e73d
00000290: 511a 003e 71c9 a0bd ac3e 2ebe e4db c7bc
000002a0: 3768 2bbd 78c3 9ebd 287d 63bd fe79 403e
000002b0: 791a ccbb 853c 0d3d f5b4 4fbd 868a 7d3d
000002c0: 8521 1bbe e480 7abd 0d32 213c 6330 933d
000002d0: ff03 a8bc 7966 2839 cfcc a03d a61e 133d
000002e0: 46dd 4a3d ac23 fdbc d0c9 8d3d fe63 7cbc
000002f0: 5dd4 50bd 826a 3f3d c5d0 f13d 50f1 97bb
00000300: 6fca 033d fa92 38bd 5966 c7bd 7da8 823d
00000310: d6c5 05bd 2728 60bd 4aa9 833d a479 1c3d
00000320: 6ca4 33bd 7657 963d 5b85 123d 091c 963c
00000330: ff31 85bd dbd6 99bd 09df a03d 8781 94bc
00000340: fea3 07be 65ea 89bc db1c 513c d9b5 76ba
00000350: 8c26 8b3d 4c5a b9bb 69c4 44bc 6381 b63d
00000360: 6a2d 42bd 7c99 243c 9713 eebd 3946 41bd
00000370: fd5c cebd e7c5 c73d 9fb4 5abb 524b 4f3e
00000380: 3a0b 5f3c 5499 03be e8bd dcbc e49e d23c
00000390: 520f 01be e71f 343d 45c9 863c 9b3e b7bc
000003a0: b52e 5f3d b7ca a6bd 46da 82bb 267a a83d
000003b0: 2eb4 d3bd 29b9 233c b5fc 9e3d 2d60 87bd
000003c0: 9285 023e 470b a3bd 378e 88bd 96ba d33d
000003d0: f7ad 80bd 426a 6abc 5993 abbd 9476 dabc
000003e0: f9ae 5bbd 9e9e 02be 297c 08be 000f dd3d
000003f0: 86e6 e1bc bdf6 1ebb 0b71 f1bd 5483 24bd

convs.3.fc_full.bias f4 [32]
0.075280495 -0.08942358 -0.11089757 0.08902834 0.09197978 -0.10570018 -0.03110535 0.058561917
0.06998356 0.079571836 0.094819985 -0.05462054 0.023109756 0.115848735 -0.101862125 0.085098915
0.037725568 0.009383516 0.12865041 -0.059884127 -0.035612613 -0.10174456 0.106366575 -0.09360061
0.12201786 -0.09709077 0.074878424 -0.058535714 0.10843488 -0.08366553 -0.08329143 -0.036945257
00000000: a92c 9a3d b623 b7bd 441e e3bd 7e54 b63d
00000010: e55f bc3d 5679 d8bd a6d0 febc 9fde 6f3d
00000020: 8a53 8f3d 8ff6 a23d fb30 c23d cab9 5fbd
00000030: ac50 bd3c 1a42 ed3d 179d d0bd 5748 ae3d
00000040: 2086 1a3d 52bd 193c efbc 033e 0f49 75bd
00000050: 88de 11bd 745f d0bd b8d6 d93d adb1 bfbd
00000060: 80e4 f93d 87d7 c6bd dc59 993d 25c3 6fbd
00000070: 1b13 de3d d558 abbd b294 aabd e953 17bd

convs.3.bn1.weight f4 [32]
0.98395675 1.0502244 1.0063628 1.0341978 1.0096691 1.0591598 1.0036074 0.9877687
1.0765264 1.0479554 1.0518901 1.0190525 1.0296582 0.9713465 0.95483804 1.0172936
1.0400919 0.93698543 1.0056349 1.0507991 1.0427561 0.9139656 0.99768925 1.0255505
0.9349059 0.98358476 0.96299666 0.97853667 0.9589234 1.0308919 0.9926229 1.0018262
00000000: 97e4 7b3f c16d 863f 7fd0 803f 9860 843f
00000010: d63c 813f 8c92 873f 3576 803f 69de 7c3f
00000020: 9ecb 893f 6723 863f 56a4 863f 5070 823f
00000030: d7cb 833f 2aaa 783f 4470 743f ad36 823f
00000040: bb21 853f 47de 6f3f a5b8 803f 9680 863f
00000050: 0879 853f a6f9 693f 9068 7f3f 3d45 833f
00000060: fe55 6f3f 36cc 7b3f f386 763f 6181 7a3f
00000070: 017c 753f 44f4 833f 891c 7e3f d73b 803f

convs.3.bn1.bias f4 [32]
0.047387645 0.04825719 0.028442139 0.011753302 -0.018360343 0.015527229 0.011681563 0.020948704
0.044311915 0.0016747474 -0.014512112 0.012870584 -0.0057543567 0.027181104 0.049567603 0.018111086
-0.012116341 0.0562012 0.015769051 -0.012045202 -0.03424795 0.083040565 -0.0009194326 -0.002169146
0.07585242 0.032237336 0.03583704 0.049368713 0.047323838 -0.02104544 0.03158828 0.0009609963
00000000: 8c19 423d 55a9 453d 7dff e83c ec90 403c
00000010: 6e68 96bc eb65 7e3c 0764 3f3c 9e9c ab3c
00000020: 6980 353d 3383 db3a 36c4 6dbc 24df 523c
00000030: 0b8f bcbb e8aa de3c 6607 4b3d b35d 943c
00000040: 9e83 46bc 3b33 663d 192e 813c 3d59 45bc
00000050: 9447 0cbd 2c11 aa3d 1406 71ba 3b28 0ebb
00000060: 8358 9b3d 4c0b 043d dcc9 123d d936 4a3d
00000070: a4d6 413d 7d67 acbc b662 013d 5feb 7b3a
