cgcnndefect/defect_scratch_10/model_best.pth.tar (torch, 208559 bytes, 121 tensors)

embedding.weight f4 [16, 92]
0	0x3bcfac89	0.0063377065
1	0x3d6514df	0.055928107
2	0xbdc6cece	-0.097074136
3	0xbd9d0438	-0.0766682
4	0xbd2211f7	-0.039567914
5	0x3d14a0b3	0.036286067
6	0xbb076023	-0.0020656667
7	0x3d982509	0.07428939
8	0xbb4460b9	-0.0029964878
9	0x3c7796a4	0.015111599
10	0x3ab40ecc	0.001373732
11	0xbca7e1b0	-0.020493358
12	0xbdcbfc1d	-0.09960196
13	0xbd82b3f6	-0.06381981
14	0xbd3008e4	-0.04297723
15	0x3b7d1a9a	0.0038620592
16	0x3d40ecda	0.04710088
17	0x3d801dba	0.0625567
18	0xbd90c0cd	-0.07068024
19	0xbd39f57f	-0.04540014
20	0x3d3335a7	0.04375234
21	0x3d999cdf	0.07500624
22	0xbcab8ba6	-0.020940613
23	0x3d93c9a6	0.07216196
24	0xbc70efc6	-0.014705604
25	0x3c34bf11	0.011031882
26	0x3dc1560e	0.09440242
27	0xbdcfca21	-0.10145975
28	0xbda297c3	-0.079391025
29	0xbd04f0c4	-0.032456174
30	0xbbfe354c	-0.0077578183
31	0x3db87afa	0.09007831
32	0xbd8a6605	-0.0675774
33	0xbd449454	-0.04799302
34	0xbd891f2c	-0.06695399
35	0xbdc7f92c	-0.09764323
36	0xbd794772	-0.06085915
37	0x3dc39764	0.0955036
38	0x3d3e8d4f	0.04652148
39	0x3d45a6fd	0.048254956
40	0x3bc2d328	0.005945582
41	0xbd696588	-0.056981593
42	0x3cab6ba6	0.020925354
43	0xbde0ec31	-0.1098255
44	0xbd9a480d	-0.07533274
45	0xbd5c2690	-0.053747714
46	0x3d86b793	0.06577983
47	0x3d54b3ea	0.051929392
48	0xbd284ca1	-0.041088704
49	0xbb500db7	-0.0031746456
50	0x3d999d8e	0.07500754
51	0x3de05130	0.10952985
52	0x3d072ded	0.033002783
53	0x3ca6a057	0.020340128
54	0x3d6b3870	0.05742687
55	0xbce983e1	-0.028505268
56	0x3c9f26db	0.019427707
57	0xbda58ad2	-0.080831185
58	0xbd93fca5	-0.072259225
59	0xbd60a16b	-0.05484144
60	0x3d3a47e7	0.045478728
61	0x3d28ff24	0.041258946
62	0xbd7cf4ed	-0.061757017
63	0x3d0102d5	0.03149684
64	0x3d814454	0.06311861
65	0xbc579923	-0.013159069
66	0x3b82708a	0.003980701
67	0x3cc5e4a9	0.024156885
68	0x3d847648	0.06467873
69	0x3dcd04fb	0.100107156
70	0xbda48ae7	-0.08034306
71	0xbd1c7f0f	-0.03820711
72	0x3d2fcac8	0.042917997
73	0x3daa2a7c	0.083088845
74	0x3dcf9762	0.10136296
75	0x3dbc6654	0.09199205
76	0x3ca9f92d	0.0207487
77	0xbdb9ac16	-0.09066026
78	0xbadb86df	-0.0016748569
79	0xbd7a33e5	-0.061084647
80	0xbdbf63dc	-0.093452185
81	0x3dcc49bc	0.09975001
82	0x3da259e0	0.079272985
83	0xbdd806f3	-0.105482005
84	0x3ccaaf8b	0.024741909
85	0xbc54ee80	-0.012996316
86	0xbc80720b	-0.01567938
87	0xbd27a1d6	-0.040925823
88	0x3d2f6269	0.04281846
89	0xbd98077a	-0.07423301
90	0x3d1c8c5a	0.038219787
91	0x3d57f4d2	0.052723713
92	0x3d92e9ce	0.07173501
93	0x3d1fac91	0.03898293
94	0xbdd73811	-0.10508741
95	0xbd54cec3	-0.051954996
96	0x3d65e936	0.05613061
97	0x3cbce66c	0.023059092
98	0xbda69004	-0.081329376
99	0xbd7a754b	-0.061147016
100	0x3dceaf3a	0.100920156
101	0x3d8b7972	0.06810273
102	0xbd6770c9	-0.056504045
103	0xbcd6f52b	-0.026239952
104	0xbdcb65c6	-0.09931521
105	0xbbb779b6	-0.005599226
106	0xbda0cace	-0.07851182
107	0xbda4b2fa	-0.080419496
108	0x3bcaab19	0.006184947
109	0x3c803c32	0.015653703
110	0xbd2ee282	-0.042696483
111	0x3d7d64fd	0.061863888
112	0xbd530181	-0.051515106
113	0x3dbab94c	0.09117374
114	0x3dae39fb	0.08507153
115	0xbdbcfbaa	-0.092276886
116	0xbd10c5a1	-0.035344724
117	0x3b9a2705	0.0047043585
118	0x3c793890	0.015211239
119	0x3cbe95ae	0.023264732
120	0x3d36a509	0.044590984
121	0x3b10e044	0.002210633
122	0xbd7d9af8	-0.061915368
123	0x3d4a11c7	0.04933336
124	0xbdccd150	-0.10000861
125	0xbd7d1ba5	-0.061793942
126	0xbc6825fd	-0.014169213
127	0xbd500403	-0.050785076
128	0xbd156458	-0.03647265
129	0xbd9692b3	-0.073521994
130	0xbcb5acb9	-0.022177087
131	0x3c9dd51b	0.019266656
132	0xbd84d17b	-0.06485268
133	0xbba653ec	-0.0050759222
134	0x3dbda6d7	0.09260338
135	0xbcf1b14c	-0.029503487
136	0x3b3de4a2	0.0028975387
137	0xbc135c38	-0.008994155
138	0x3cacd950	0.021099716
139	0x3d81e0ec	0.063417286
140	0x3dc7c9ac	0.09755263
141	0x3d8ff052	0.07028259
142	0x3dcd40b9	0.100221105
143	0x3b8fd52a	0.004389425
144	0xbdc216dd	-0.09477017
145	0xbd3ed0af	-0.046585735
146	0x3d8cfcd8	0.068841636
147	0xbc4009f1	-0.01172112
148	0xbd5441e7	-0.051820662
149	0xbda39f37	-0.07989352
150	0xbdc7d26c	-0.09756932
151	0xbdcbd48b	-0.09952649
152	0xbc81d3fe	-0.015848156
153	0x3d5f7925	0.05455889
154	0x3d66dfbf	0.056365725
155	0xbdcdec9e	-0.10054897
156	0x3d9d9ee7	0.07696324
157	0xbda71498	-0.08158225
158	0xbcb48f6c	-0.022041045
159	0xbd2d26eb	-0.042273443
160	0xbca48205	-0.02008153
161	0xbca7b100	-0.020470142
162	0xbdbf99de	-0.0935552
163	0xbdb85c35	-0.09001962
164	0xbcba96a7	-0.022776915
165	0xbbaf0afc	-0.0053418856
166	0xbd146c23	-0.03623594
167	0x3d20dd5c	0.039273605
168	0xbdc02dea	-0.093837574
169	0xbbe68e81	-0.0070360308
170	0x3db7e16d	0.089785434
171	0xbd07e123	-0.03317369
172	0x3dbeaaaf	0.09309899
173	0x3d0ec69f	0.03485739
174	0xbdc0b13d	-0.094088055
175	0x3d7e1b06	0.06203749
176	0xbc8112b9	-0.015755998
177	0xbd271e86	-0.040800594
178	0x3dbda3c5	0.09259752
179	0xbdaf433d	-0.085577466
180	0x3d18cf91	0.037307326
181	0xbd265ae4	-0.040614024
182	0x3d9879f8	0.07445139
183	0x3cee690e	0.029102828
184	0x3d876d69	0.06612665
185	0x3d16cfe7	0.036819365
186	0xbca9ddc5	-0.02073563
187	0xbcf5e7e8	-0.030017808
188	0xbd57e7ce	-0.0527113
189	0x3d7baddc	0.061445102
190	0x3da9877a	0.08277793
191	0x3d3273a2	0.043567307
192	0xbdafb56a	-0.08579524
193	0x3b8e126f	0.0043356935
194	0xbdb7913b	-0.089632474
195	0xbd6b13d0	-0.05739194
196	0xbd78d64c	-0.060751244
197	0x3d050ed7	0.032484856
198	0xbd7e7a2f	-0.062128242
199	0xbb151179	-0.002274601
200	0xbb46c9ad	-0.003033261
201	0x3d89a39d	0.0672066
202	0xbda16732	-0.07881011
203	0xbd92954f	-0.071573846
204	0xbd8b2d32	-0.0679573
205	0x3d8d514a	0.0690027
206	0xbd10726a	-0.035265364
207	0x3da17ad7	0.07884758
208	0x3d58690d	0.05283456
209	0x3c584bd6	0.013201674
210	0xba4b72bb	-0.00077609316
211	0xbc104ee0	-0.008807868
212	0x3d332d33	0.043744277
213	0xbd068aff	-0.0328474
214	0xbc8a3418	-0.016870543
215	0x3c59f2b4	0.013302494
216	0xbda703f5	-0.081550516
217	0xbd5fd2e3	-0.054644477
218	0x3d9d386d	0.07676778
219	0xbdad47cb	-0.08460959
220	0xbbf54fbe	-0.0074863127
221	0x3dc406cf	0.09571611
222	0x3d1a4303	0.037661564
223	0xba1e1644	-0.00060305395
224	0xbdc6e361	-0.09711338
225	0x3d560597	0.052251425
226	0xbd6cc553	-0.05780537
227	0xbd12949b	-0.035786252
228	0xbd0f472f	-0.034979995
229	0xbc7cf499	-0.015439176
230	0x3a957950	0.0011403952
231	0x3dc62537	0.09675067
232	0x3c1274bd	0.008938965
233	0x3e01a02a	0.12658754
234	0x3d8cc1fa	0.068729356
235	0xbd962f18	-0.07333201
236	0x3c9b948d	0.018991733
237	0xbdb00860	-0.085953474
238	0xbd3646ad	-0.044500995
239	0x3c6e0038	0.014526419
240	0x3d0d0121	0.034424905
241	0x3da03011	0.07821668
242	0xbd09785c	-0.03356205
243	0x3bf10f58	0.0073565654
244	0x3d7fd4b0	0.062458694
245	0xbdd9cdaf	-0.10634934
246	0x3d9a5eb3	0.07537594
247	0xbdb0903e	-0.08621262
248	0xbbc406a9	-0.0059822393
249	0xbc913503	-0.017725473
250	0xbd60e8bb	-0.05490945
251	0x3c61c499	0.013779783
252	0x3db0900a	0.08621223
253	0xbcf9a9ae	-0.030476417
254	0xbd7d8797	-0.061896887
255	0xbd1def60	-0.038558364

embedding.bias f4 [16]
0	0x3dd87184	0.105685264
1	0x3dcc288b	0.099686705
2	0xbd5d533b	-0.054034453
3	0xbd2d3130	-0.042283237
4	0xbdcd0fe1	-0.10012794
5	0xbd387018	-0.045028776
6	0x3dbd0cc5	0.09230951
7	0x3d5c41c6	0.053773664
8	0x3e000154	0.12500507
9	0x3de25d6c	0.11052975
10	0x3cbcac63	0.02303142
11	0xbce99f6f	-0.028518407
12	0x3e0cb2fa	0.13740149
13	0x3d9a51c8	0.0753513
14	0x3d4a16d4	0.049338177
15	0xbc6ec1d6	-0.014572581

convs.0.fc_full.weight f4 [32, 56]
0	0x3dec1eb3	0.11529293
1	0x3cb7319f	0.022362528
2	0x3dd6026d	0.104496814
3	0x3d8005b9	0.062510915
4	0x3d99fd18	0.07518977
5	0xbdd5a619	-0.10432071
6	0xbdace9da	-0.08443041
7	0x3dc7141d	0.09720633
8	0xbd493535	-0.049123008
9	0xbdbe9a34	-0.09306756
10	0x3e0ff182	0.14056972
11	0x3c56b0c1	0.013103665
12	0x3db138e1	0.08653427
13	0xbdbc8a18	-0.09206027
14	0x3c9ef29f	0.0194028
15	0xbd5fc883	-0.054634582
16	0xbd4b8015	-0.049682695
17	0xbd281ba0	-0.04104197
18	0xbd2f6e58	-0.04282984
19	0x3da2033b	0.079107724
20	0xbd36f3c8	-0.04466608
21	0x3ddbd6e9	0.1073435
22	0x3d368010	0.044555724
23	0xbc2466d0	-0.010034278
24	0xbd90d832	-0.07072486
25	0xbdf3ea56	-0.119099304
26	0xbd0c0d71	-0.034192506
27	0xbddcff98	-0.10790938
28	0xbcc04da1	-0.023474516
29	0x3cac2dda	0.021017957
30	0xbc11a931	-0.008890436
31	0xbd55af6e	-0.052169256
32	0x3da1a899	0.078934856
33	0x3d7b53fa	0.061359383
34	0xbd3ac361	-0.045596484
35	0xbd249394	-0.040179804
36	0x3dc769f8	0.09737009
37	0x3dd1d823	0.10246303
38	0xbe0b86f6	-0.13625702
39	0xbd2a1a34	-0.041528895
40	0x39b5cc42	0.00034675194
41	0xbd0f059b	-0.034917455
42	0x3dcd69da	0.10029955
43	0xbd09ca3f	-0.033640143
44	0x3dce26fd	0.1006603
45	0x3c5d9c71	0.013526068
46	0xba7793c4	-0.0009444321
47	0xbda3b87e	-0.079941735
48	0xbd7b3013	-0.061325144
49	0x3cd236f2	0.025660966
50	0x3d332888	0.043739825
51	0xbb9bcc77	-0.0047545987
52	0x3e0262cc	0.12733
53	0xbda260eb	-0.07928642
54	0x3d9c0ee8	0.07620031
55	0x3e1391d7	0.14411102
56	0xbca5fe88	-0.020262972
57	0x3ddd3714	0.10801521
58	0x3bd6950c	0.0065485295
59	0xbdc3aa34	-0.09553948
60	0xbd69f9d1	-0.05712301
61	0x3d3c8121	0.046021584
62	0xbd542114	-0.05178936
63	0x3cf3b597	0.029749675
64	0x3e036392	0.12830952
65	0x3d2a0bdf	0.041515227
66	0xbc9d2f98	-0.019187734
67	0x3ce5bd02	0.028044228
68	0xbdaeb8ff	-0.08531379
69	0xbdf45852	-0.11930908
70	0xbdde67b9	-0.10859627
71	0xbdea9cd5	-0.114556946
72	0x3d3a7adf	0.045527335
73	0x3d28434e	0.04107981
74	0xbd798534	-0.060918048
75	0xbe04f137	-0.12982641
76	0x3d95bddd	0.07311604
77	0xbd9204eb	-0.07129844
78	0xbc2dcbb5	-0.01060765
79	0xbde87003	-0.113494895
80	0xbda5153b	-0.0806069
81	0x3d8cd4b5	0.06876508
82	0xbdf62bb1	-0.12020052
83	0xbd8c81ef	-0.0686072
84	0x3dbe5f2d	0.09295497
85	0xbd7511c5	-0.0598314
86	0xbd330998	-0.04371032
87	0xbd2b0722	-0.04175485
88	0x3d8a4351	0.06751121
89	0xbd9f6d65	-0.07784537
90	0x3c36d744	0.011159722
91	0x3d4847f8	0.04889676
92	0xbc88b466	-0.016687583
93	0x3d0e286f	0.03470653
94	0xbdbc03dc	-0.091804236
95	0x3d6e5329	0.058184776
96	0x3d343535	0.043996055
97	0xbcc5f169	-0.024162965
98	0xbdcc8d68	-0.099879086
99	0x3d82dab0	0.063893676
100	0x3dae0a20	0.08498025
101	0xbcf25b8d	-0.02958467
102	0x3d6217be	0.055198424
103	0x3d5aced9	0.05341992
104	0xbd41790e	-0.047234587
105	0x3b0876f6	0.002082286
106	0x3e20286a	0.15640417
107	0x3a2563b4	0.00063091074
108	0xbdd9d483	-0.106362365
109	0x3c961c3e	0.018324014
110	0x3dc06bd0	0.093955636
111	0xbcf44b1e	-0.029820975
112	0xbdb41a74	-0.08794108
113	0x3ddc5254	0.1075789
114	0x3d646726	0.055762433
115	0xbce4b375	-0.027917603
116	0x393d161c	0.00018032681
117	0xbce52b91	-0.027974876
118	0x3c940812	0.018070254
119	0x3cb1f93a	0.021725286
120	0xbda84c4f	-0.0821768
121	0x3d139466	0.036030196
122	0x3c04ef1a	0.008113647
123	0x3c23d97b	0.010000582
124	0xbd1090ba	-0.035294272
125	0x3d2a2d28	0.04154697
126	0xbdceee48	-0.10104042
127	0x3d03330c	0.032031104
128	0x3d66c1ec	0.056337282
129	0xbc3680a6	-0.011139071
130	0xbdda8f55	-0.1067187
131	0x39fd39bb	0.00048298933
132	0x3c93002e	0.017944422
133	0xbdf1fcbb	-0.11815783
134	0xbdf4a964	-0.11946371
135	0x3e105c9d	0.14097829
136	0x3dac354a	0.084086016
137	0x3db1922e	0.0867046
138	0x3dc170ed	0.09445367
139	0x3d2c2693	0.042028975
140	0x3d8f85c8	0.070079386
141	0x3dc08526	0.09400396
142	0xbcd26398	-0.025682256
143	0xbd05e540	-0.032689333
144	0x3db3eedf	0.087857954
145	0xbc2e45a8	-0.0106367245
146	0xbde7529a	-0.11295052
147	0xbdd6df0e	-0.10491763
148	0x3d9d8bbc	0.07692668
149	0x3dd4d912	0.103929654
150	0x3dbf9cfc	0.09356114
151	0xbb752f19	-0.0037412106
152	0x3dbabde5	0.09118251
153	0xbdf59303	-0.11990931
154	0xbdd1af85	-0.10238556
155	0xbe0dc2cd	-0.13843842
156	0x3da7561f	0.08170723
157	0xbb04f928	-0.002029011
158	0xbd6e41a3	-0.058168065
159	0x3d32a3a9	0.04361311
160	0xbd4821e8	-0.04886046
161	0xbda6553a	-0.081217244
162	0x3d5dcf3e	0.05415272
163	0x3cc8704e	0.024467614
164	0xbdc3f427	-0.09568053
165	0xbd793665	-0.06084289
166	0x3dbd3a15	0.09239594
167	0x3e06b97d	0.13156696
168	0x3ba0d955	0.0049087205
169	0xbd1fcc88	-0.039013416
170	0x3d4bce46	0.049757265
171	0x3cabf0c5	0.020988831
172	0xbe0bf8e6	-0.13669166
173	0xbda0c5cd	-0.078502275
174	0x3c493391	0.012280361
175	0x3daf509f	0.08560299
176	0xbd34703c	-0.044052348
177	0x3d8b730e	0.06809054
178	0xbdaa54b0	-0.08316934
179	0x3dfe8c36	0.12429087
180	0x3dde1cc3	0.108453296
181	0x3d1a8326	0.03772273
182	0x3d9ad8c3	0.07560875
183	0x3d06bcc4	0.032894865
184	0xbd865a9d	-0.06560252
185	0x3ca8dff4	0.020614602
186	0x3d1ac3c4	0.037784353
187	0xbcc50477	-0.02404998
188	0x3dfc4ed7	0.12319725
189	0xbd5368fa	-0.051613785
190	0xbe0a7e65	-0.13524778
191	0xbd37b076	-0.04484602
192	0xbdfb62c7	-0.122747
193	0x3e0a43cc	0.13502425
194	0xbd34e3f6	-0.044162713
195	0xbdbe0229	-0.09277756
196	0xbca53f07	-0.020171655
197	0xbd6ec9d7	-0.05829796
198	0xbd760b4a	-0.06006936
199	0x3d8be3a2	0.06830527
200	0xbde26e2a	-0.110561684
201	0x3d428190	0.04748684
202	0x3da497ce	0.08036767
203	0xbb3fc0f6	-0.00292593
204	0x3d7a616d	0.06112807
205	0xbdaca30f	-0.084295385
206	0x3db6098f	0.08888542
207	0x3de711d2	0.11282696
208	0x3cf25efb	0.029586306
209	0x3dff4e42	0.12466098
210	0xbe10be59	-0.14135112
211	0xbcf40927	-0.02978952
212	0x3c1e3eb1	0.0096585015
213	0xbdf15b47	-0.11784988
214	0x3d8d5634	0.069012076
215	0xbd48463b	-0.048895102
216	0xbd6a664e	-0.05722647
217	0xbde1b807	-0.110214286
218	0x3d477df4	0.048704103
219	0xbdc72239	-0.09723324
220	0xbce81ec4	-0.028334983
221	0x3daba526	0.08381109
222	0x3e0318a7	0.12802373
223	0x3d6f4f5b	0.05842529
224	0xbd5ad13b	-0.053422194
225	0xbd6aae1d	-0.057294954
226	0x3da899a5	0.0823243
227	0x3caba552	0.020952854
228	0x3dea50b5	0.11441175
229	0x3d62d7af	0.055381473
230	0x3dd46823	0.10371425
231	0xbdbf7c8e	-0.09349929
232	0x3dd173d0	0.102271676
233	0xbd79c057	-0.060974445
234	0xbd06b248	-0.032884866
235	0xbad86059	-0.0016508206
236	0xbcb77b4e	-0.022397663
237	0x3c50ea36	0.012751153
238	0x3ddf661a	0.10908146
239	0xbda71c9c	-0.08159754
240	0x3d5b9413	0.05360801
241	0xbddd7932	-0.10814132
242	0x3cc59c39	0.024122344
243	0x3df18199	0.11792297
244	0x3dcc61a4	0.09979561
245	0x3de6a04a	0.112610415
246	0x3dc7a2fd	0.097478844
247	0xbca70bd2	-0.020391379
248	0x3d500c9a	0.050793268
249	0xbd29fe9a	-0.041502573
250	0x3dfdb5d8	0.123881996
251	0x3d9ce49d	0.07660792
252	0xbdd58e64	-0.104275495
253	0x3dd254bc	0.10270068
254	0x3c3ed5d3	0.011647659
255	0x3c0f7246	0.008755272

convs.0.fc_full.bias f4 [32]
0	0xbc1760b7	-0.009239367
1	0x3df2679b	0.118361674
2	0xbd815d36	-0.06316607
3	0x3e0413c4	0.12898165
4	0xbddd1d75	-0.10796634
5	0xbdd7469f	-0.10511517
6	0x3d29957d	0.04140233
7	0xbda1a516	-0.07892816
8	0x3d9edff8	0.077575624
9	0xbd917966	-0.07103233
10	0x3dd3fe1d	0.10351203
11	0x3df1269f	0.117749445
12	0x3c47c63f	0.012193262
13	0x3cc4ebfe	0.024038311
14	0x3e036198	0.12830198
15	0x3da24756	0.079237625
16	0xbddfdea1	-0.10931135
17	0xbb5336a2	-0.0032228609
18	0xbdf9249f	-0.12165188
19	0x3dd292ed	0.1028193
20	0xbccf31ae	-0.025292244
21	0x3bce40eb	0.00629436
22	0xbdb31fa8	-0.08746272
23	0xbda33a08	-0.07970053
24	0x3cb98eef	0.022651164
25	0x3deaf21d	0.11471961
26	0xbd8dbb3e	-0.06920479
27	0x3c4f293d	0.012644109
28	0x3e0616f0	0.13094687
29	0x3def4784	0.116835624
30	0xbcbab123	-0.022789543
31	0x3de1d81c	0.11027548

convs.0.bn1.weight f4 [32]
0	0x3f7f17bf	0.9964561
1	0x3f820118	1.0156584
2	0x3f7e069d	0.9922884
3	0x3f7de051	0.99170405
4	0x3f806922	1.0032084
5	0x3f8080a3	1.0039257
6	0x3f7ef592	0.9959346
7	0x3f81a0ea	1.0127232
8	0x3f813c09	1.0096446
9	0x3f805b33	1.0027832
10	0x3f807bcf	1.0037783
11	0x3f827d9d	1.0194584
12	0x3f7eef9e	0.99584377
13	0x3f7f7264	0.9978392
14	0x3f8266f5	1.018767
15	0x3f825581	1.0182344
16	0x3f7fc1c2	0.99905026
17	0x3f7d5e1c	0.98971725
18	0x3f814e7e	1.0102079
19	0x3f81f10e	1.0151689
20	0x3f7cd8fa	0.9876858
21	0x3f811a3a	1.0086129
22	0x3f822216	1.0166652
23	0x3f7e7de3	0.9941084
24	0x3f7cbace	0.9872254
25	0x3f7ca154	0.9868367
26	0x3f7e5303	0.99345416
27	0x3f7f57af	0.9974317
28	0x3f82f7df	1.0231894
29	0x3f7ebe49	0.995091
30	0x3f79011c	0.9726732
31	0x3f7e0f9b	0.9924256

convs.0.bn1.bias f4 [32]
0	0x3b79aaec	0.0038096262
1	0xbbd2a815	-0.0064287283
2	0xbac68476	-0.0015145678
3	0x3c9da9b7	0.019245965
4	0xbc7933af	-0.015210076
5	0xba811370	-0.0009847712
6	0x390885cb	0.00013019812
7	0xbc8d113f	-0.017220138
8	0xbaeffbac	-0.0018309257
9	0xbc6f00d9	-0.014587604
10	0xbbd5c77c	-0.0065240245
11	0xbc40955d	-0.011754361
12	0x3b6a80aa	0.0035782256
13	0x3c09bd64	0.008406971
14	0x3bca9bf0	0.00618314
15	0xbc214419	-0.009842896
16	0x3bac5e13	0.005260238
17	0x3c1b8c26	0.009493863
18	0xbc348828	-0.01101879
19	0xbc2a0ff8	-0.010379784
20	0x3c4bbeee	0.012435658
21	0x3add2d42	0.001687445
22	0xbcab3d36	-0.020903211
23	0xbbfc2c03	-0.0076956763
24	0x3c0fac05	0.00876904
25	0x3c259cdd	0.0101082
26	0x3be93872	0.0071173245
27	0x3c164b75	0.009173264
28	0xbc518635	-0.012788345
29	0x3b3216d5	0.0027174253
30	0x3ca772c4	0.020440467
31	0x3bd1fa35	0.006408001

convs.0.bn1.running_mean f4 [32]
0	0x3d09e231	0.03366298
1	0x3eb213cd	0.34780732
2	0xbdaed4f8	-0.08536714
3	0x3e749550	0.23885083
4	0xbefcafc2	-0.49352843
5	0x3d5399f3	0.05166049
6	0x3f4b5a65	0.79434806
7	0x3ec1afc1	0.37829402
8	0xbe81adfc	-0.25328052
9	0x3e8099e2	0.25117403
10	0xbe76bbdd	-0.24095102
11	0x3dd7c0f5	0.105348505
12	0xbcb0d7e4	-0.02158732
13	0x3ec7977b	0.38982758
14	0x3e47326b	0.19452827
15	0x3e115f6a	0.14196554
16	0xbeca6566	-0.39530486
17	0xbeec8570	-0.46195555
18	0xbf0cb25a	-0.5495964
19	0x3ec8847f	0.39163586
20	0x3ea7b8cf	0.32758185
21	0x3e77ef2d	0.24212332
22	0xbe09c146	-0.13452634
23	0xbe82df53	-0.25561008
24	0xbee7e044	-0.4528829
25	0x3eafd093	0.34338817
26	0x3e19316b	0.14960258
27	0xbe6f236e	-0.23353359
28	0x3e88b41c	0.26699913
29	0xbe889706	-0.26677722
30	0xbd6ccca5	-0.05781235
31	0xbf044a9b	-0.5167634

convs.0.bn1.running_var f4 [32]
0	0x3c9f60ad	0.019455278
1	0x3c45d288	0.01207412
2	0x3c86383e	0.01638424
3	0x3c9fb837	0.01949702
4	0x3c7ee8a1	0.015558393
5	0x3c7320c7	0.014839358
6	0x3cb2af6d	0.021812165
7	0x3c95a5cd	0.018267537
8	0x3c5e55db	0.013570274
9	0x3c879bc3	0.016553765
10	0x3c735250	0.014851168
11	0x3ca509b5	0.02014623
12	0x3c8cdc65	0.017194936
13	0x3c6c9329	0.014439383
14	0x3cafbccd	0.021452332
15	0x3c6456fd	0.013936755
16	0x3c84c539	0.016207324
17	0x3c9bbaa3	0.019009894
18	0x3c83671b	0.016040375
19	0x3c96be90	0.018401414
20	0x3c7643e2	0.015030833
21	0x3c98c032	0.018646333
22	0x3d0764c6	0.03305509
23	0x3cb1ffb2	0.02172837
24	0x3c8b59e1	0.017010631
25	0x3cc3eeb1	0.023917528
26	0x3ca40281	0.020020725
27	0x3c9dd31a	0.0192657
28	0x3c9384ed	0.01800772
29	0x3c902200	0.017594337
30	0x3c7639df	0.015028446
31	0x3cafcc57	0.021459742

convs.0.bn2.weight f4 [16]
0	0x3f801321	1.0005838
1	0x3f7dd293	0.99149436
2	0x3f7cb67d	0.98715955
3	0x3f84bba1	1.036976
4	0x3f7e616d	0.9936741
5	0x3f804e03	1.0023807
6	0x3f8148e1	1.0100366
7	0x3f7e2fb0	0.99291515
8	0x3f82cdca	1.0219052
9	0x3f828393	1.0196403
10	0x3f8065c3	1.0031055
11	0x3f83a563	1.0284847
12	0x3f80eb35	1.007178
13	0x3f7b01ec	0.9804981
14	0x3f7a034b	0.97661275
15	0x3f834e71	1.0258313

convs.0.bn2.bias f4 [16]
0	0x3ad37c1c	0.001613501
1	0x3b871915	0.004122863
2	0xb8a20484	-7.725603e-05
3	0x3d3e2ce9	0.04642955
4	0xbbc9e886	-0.006161752
5	0x3ba9a780	0.0051774383
6	0x3b986f9a	0.004651976
7	0x3c99ac5a	0.018758941
8	0x3cc7fbe7	0.024412109
9	0x3d08334c	0.033252046
10	0x3cb04a52	0.021519814
11	0x3d13db14	0.0360976
12	0x3d11cb48	0.035594255
13	0xbc07ac4e	-0.008280827
14	0x3b89a7a4	0.0042008925
15	0x3d2d95d4	0.042379215

convs.0.bn2.running_mean f4 [16]
0	0x40a6de9d	5.2146745
1	0x4089e7e6	4.309558
2	0x40b0a242	5.519807
3	0x408a1ae9	4.315785
4	0x40a48c27	5.1421084
5	0x407bb204	3.9327402
6	0x40a52839	5.16116
7	0x40aeddb8	5.4645653
8	0x4094c61c	4.6491833
9	0x40abb190	5.365425
10	0x4090e1b2	4.5275507
11	0x40a0dcd8	5.0269585
12	0x40a61c76	5.190974
13	0x409a678e	4.825141
14	0x40ac8af6	5.391963
15	0x40977ed3	4.7342315

convs.0.bn2.running_var f4 [16]
0	0x4106f7a8	8.435463
1	0x40c971c1	6.295136
2	0x41805a4d	16.044092
3	0x40e5913d	7.1739793
4	0x41950545	18.627573
5	0x3fe71a5c	1.8054919
6	0x41a611af	20.758635
7	0x40a33002	5.0996103
8	0x404c93ac	3.1965132
9	0x41271597	10.442771
10	0x4012d58b	2.2942836
11	0x40ec12a6	7.3772764
12	0x4077ea6e	3.8736835
13	0x40966fb8	4.7011375
14	0x40ef7bd2	7.483865
15	0x40a42d83	5.1305556

convs.1.fc_full.weight f4 [32, 56]
0	0x3d05db39	0.03267977
1	0x3e156b6e	0.14591762
2	0xba181e33	-0.000580284
3	0xbd9f921d	-0.07791541
4	0xbaad0da3	-0.0013202917
5	0x3d5879cf	0.05285054
6	0x3d51a046	0.05117824
7	0xbe0c4e3e	-0.13701722
8	0x3dc69c58	0.09697789
9	0xbe09635f	-0.13416813
10	0x3d97f745	0.0742021
11	0x3dec261b	0.115307055
12	0x3b5e5bdd	0.0033929267
13	0xbd29ae99	-0.041426275
14	0x3d56a107	0.05239966
15	0xbd5566b0	-0.052099884
16	0xbdeea52a	-0.11652596
17	0xbdd76c3b	-0.1051869
18	0x3d0df2b5	0.03465529
19	0x3dd944ee	0.106088504
20	0x3c4115f1	0.011785016
21	0xbdfeffb9	-0.12451119
22	0xbe320616	-0.17385134
23	0x3c18efd9	0.009334528
24	0x3dbea7de	0.09309362
25	0xbd75259d	-0.059850324
26	0x3d4f823e	0.050661318
27	0xbd28aaf9	-0.041178677
28	0x3dc8d25e	0.09805749
29	0xbd05d3f6	-0.032672845
30	0xbc8e0695	-0.017337123
31	0xbdcefe35	-0.1010708
32	0xbe082020	-0.13293505
33	0xbc587c51	-0.013213233
34	0xbbe5ca96	-0.0070126755
35	0x3d8c953d	0.068644024
36	0xbdea37f3	-0.11436453
37	0x3c39f305	0.011349444
38	0xbd20aea3	-0.039229047
39	0x3d4bdd1d	0.049771417
40	0xbd828ae6	-0.06374149
41	0x3d32ab27	0.043620255
42	0x3d2ff8b1	0.04296178
43	0x3d433e27	0.047666695
44	0xbd9874ca	-0.07444151
45	0x3d264b17	0.040598955
46	0xbcac8fc1	-0.021064641
47	0x3d353818	0.04424295
48	0xbdb5ecd2	-0.088830605
49	0xbdfa0a95	-0.122090496
50	0xbe009102	-0.12555316
51	0xbdac0a34	-0.084003836
52	0xbd67a249	-0.05655125
53	0x3d3797a0	0.044822335
54	0x3b83aa07	0.0040180716
55	0xbd2ecef1	-0.042677823
56	0xbb7750f8	-0.003773747
57	0xbd8b063d	-0.06788299
58	0x3dbc8dda	0.092067435
59	0xbdf8e097	-0.12152212
60	0xbd14e421	-0.036350373
61	0xbde76640	-0.112987995
62	0xbc01869f	-0.007905631
63	0x3cbb18d1	0.022838982
64	0x3cd6186d	0.026134694
65	0x3e191024	0.14947563
66	0xbcfca5b2	-0.030840728
67	0x3c02c906	0.007982498
68	0x3d0ca965	0.034341235
69	0x3e0de5bb	0.13857166
70	0x3dbfa4ce	0.09357606
71	0x3d31ad1a	0.043377973
72	0xbd5494e8	-0.05189982
73	0x3ca6701e	0.020317134
74	0x3d9cf20a	0.07663353
75	0xbbae28f8	-0.0053149424
76	0x3d961c90	0.073296666
77	0x3da3d9cb	0.08000525
78	0xbd94fa51	-0.072743066
79	0xbc20e4f3	-0.009820211
80	0xbe0173b4	-0.12641793
81	0x3d068a00	0.03284645
82	0x3d92fb45	0.07176832
83	0xbcecd261	-0.02890891
84	0xbb28996a	-0.0025726208
85	0x3d33ef8f	0.043929633
86	0xbba4279c	-0.0050096046
87	0x3da8a033	0.082336806
88	0x3cf6cc83	0.030126816
89	0xbdf25378	-0.11832327
90	0xbdab76f2	-0.083722964
91	0xbe094446	-0.1340495
92	0xba7740f0	-0.00094319787
93	0x3da90e8e	0.08254729
94	0xbb9a0fc6	-0.0047015874
95	0x3e165976	0.14682564
96	0xbcd86eab	-0.026419958
97	0x3ca4ff75	0.020141343
98	0x3e05944b	0.1304485
99	0x3da4c52b	0.08045419
100	0x3cb7f835	0.022457222
101	0x3e00af05	0.12566765
102	0xbdb38c0c	-0.08766946
103	0x3cfc929b	0.030831626
104	0x3d8f7339	0.07004399
105	0xbdaadc41	-0.08342791
106	0xbde3d6d5	-0.1112496
107	0x3d2f13ad	0.042743374
108	0xbd4fa8eb	-0.050698202
109	0xbd932776	-0.07185261
110	0x3c2a0c42	0.010378899
111	0xbdf5bc29	-0.11998779
112	0x3e1521aa	0.14563623
113	0xbcbd8eb6	-0.023139339
114	0xbd55ea27	-0.05222526
115	0x3dbd031c	0.09229109
116	0x3d06ff6f	0.032958444
117	0x3cd95e2d	0.026534164
118	0xbd5e591e	-0.054284208
119	0x3e16f900	0.14743423
120	0xbcfc938e	-0.030832078
121	0x3e0991a9	0.13434471
122	0xbc1580aa	-0.009124914
123	0x3db7c4a6	0.089730546
124	0x3dd826b9	0.10554261
125	0xbd8a4884	-0.067521125
126	0xbda5879e	-0.080825076
127	0xbde15163	-0.110018514
128	0x3de896c2	0.1135688
129	0x3dd42f26	0.10360555
130	0xbd2547f9	-0.04035184
131	0xbd8ac1bb	-0.067752324
132	0x3cd77d90	0.02630499
133	0x3d8f1b03	0.06987574
134	0x3d4c5846	0.04988887
135	0xbc887449	-0.016657012
136	0xbdb90ff8	-0.09036249
137	0x3dd5c4a2	0.10437895
138	0xbdc57d33	-0.096430205
139	0xbe090f73	-0.133848
140	0xbd844d66	-0.06460075
141	0x3d6cb700	0.05779171
142	0x3d373334	0.044726565
143	0x3d8b518b	0.068026625
144	0xbd5c2ae0	-0.053751826
145	0xbcca0fd2	-0.024665747
146	0xbd3c6356	-0.04599317
147	0xbda1900b	-0.07888802
148	0xbe06d4a4	-0.13167053
149	0x3d4f3928	0.050591618
150	0xbc4a4dba	-0.012347633
151	0xbdebf19d	-0.115206935
152	0xbdbd9581	-0.09257031
153	0xbdccd403	-0.100013755
154	0xbd0eb904	-0.034844413
155	0xbd661030	-0.05616778
156	0xbc203aa6	-0.009779608
157	0x3d071eff	0.032988545
158	0xbe039e7d	-0.12853427
159	0xba6dccf7	-0.00090713747
160	0xbcc19c9a	-0.023634244
161	0xbd4aea7e	-0.049540035
162	0x3a6ef684	0.0009115713
163	0xbd67fc05	-0.05663683
164	0x3b8cbba5	0.00429483
165	0xbde2d89d	-0.11076472
166	0xbb81b8ea	-0.003958811
167	0x3dc087b8	0.09400886
168	0x3dafe918	0.08589381
169	0xbd799a09	-0.060937915
170	0x3d3c3956	0.045953117
171	0xbdeb1115	-0.114778675
172	0x3dcfc3ee	0.101447925
173	0xbdfdfee1	-0.1240213
174	0xbe0ab960	-0.13547277
175	0xbdf5aaf2	-0.11995496
176	0xbdee3c9a	-0.116326526
177	0x3c5d0c46	0.013491696
178	0xbcfa8d91	-0.030585082
179	0x3cdc9ef4	0.026931264
180	0xbba3d457	-0.004999678
181	0xbcf2c3fb	-0.029634466
182	0xbd441014	-0.047866896
183	0xbdbf2e39	-0.09334988
184	0xbe0d1ad8	-0.13779771
185	0x3d791f5e	0.06082093
186	0xbdbfc36c	-0.09363446
187	0xbc886ae7	-0.016652538
188	0x3d90e5b7	0.07075065
189	0xbc8ee2f5	-0.017442206
190	0xbd99e9fe	-0.075153336
191	0xbdd09f66	-0.10186653
192	0xbd998746	-0.074965045
193	0x3dbb1b17	0.09136026
194	0xbc58902d	-0.013217968
195	0x3dcb0863	0.09913709
196	0x3cfa74a5	0.030573199
197	0xbc46665e	-0.012109367
198	0xbdda6de6	-0.10665493
199	0xbb216b10	-0.0024630465
200	0xbd5a36a9	-0.053274784
201	0xbdd0ecc7	-0.10201412
202	0xbd71174f	-0.05886012
203	0x3bed3742	0.0072392533
204	0xbdb3264e	-0.087475404
205	0xb8f495c8	-0.000116627256
206	0x3d8a47c5	0.0675197
207	0xbac2673c	-0.0014831792
208	0x3e042ba4	0.12907273
209	0x3d9ea51d	0.077463366
210	0xbe01fcf3	-0.12694149
211	0xbd9f427f	-0.07776355
212	0xbd75b381	-0.05998564
213	0x3d2f189a	0.04274807
214	0x3c52f03a	0.012874657
215	0x3ddd69f8	0.108112276
216	0x3c4c1a94	0.012457509
217	0xbdc2a3e4	-0.09503916
218	0xbd6add8b	-0.057340186
219	0xbde3aff9	-0.111175485
220	0xbd16de45	-0.036833066
221	0x3dc0a949	0.094072886
222	0x3d077c2c	0.033077404
223	0xbdc3ea71	-0.095662005
224	0xbe00d72d	-0.12582083
225	0x3d106118	0.035248846
226	0xbdeb184c	-0.11479244
227	0xbdf55a18	-0.11980075
228	0xbdb3f4f9	-0.08786959
229	0x3de3ccb3	0.11123028
230	0xbd24ee7a	-0.04026649
231	0xbd81544c	-0.063149065
232	0xbda2a164	-0.07940939
233	0x3dbdcbee	0.09267412
234	0xbd04e2a6	-0.03244271
235	0x3d01d943	0.031701338
236	0x3ce97709	0.028499143
237	0x3d338f32	0.043837734
238	0x3dd0478e	0.10169898
239	0x3c9d82ba	0.019227374
240	0x3c161175	0.0091594355
241	0xbc8b682b	-0.017017445
242	0xbdb9160c	-0.09037408
243	0xbd34e206	-0.044160865
244	0x3dfc1246	0.12308173
245	0xbdbf6ebe	-0.09347294
246	0xbd9527d5	-0.07282988
247	0xbe05ef1b	-0.13079493
248	0xbbc0de9e	-0.005885913
249	0xbe0eae51	-0.13933684
250	0xbd9e2244	-0.077213794
251	0x3ddd33f9	0.108009286
252	0x3d815383	0.06314757
253	0x3d9fe9a2	0.07808234
254	0x3c5f025d	0.013611403
255	0xbdd3b6c2	-0.10337593

convs.1.fc_full.bias f4 [32]
0	0xbd7f1761	-0.062278155
1	0x3dab8241	0.08374453
2	0xbb9fab06	-0.0048726825
3	0xbd9ee7f8	-0.07759088
4	0xbda47ba4	-0.08031395
5	0x3e00a364	0.12562329
6	0x3db6d1b9	0.0892672
7	0xbdc9cbfd	-0.09853361
8	0x3b144594	0.002262448
9	0x3afb384b	0.0019166557
10	0x3d84a29f	0.0647633
11	0xbdeb02b7	-0.11475127
12	0x3b8188cd	0.0039530755
13	0x3d37ab23	0.044840943
14	0x3d86e169	0.06585962
15	0x3c4104d7	0.011780939
16	0xbd85fd62	-0.065424696
17	0xbe02ec5c	-0.12785476
18	0x3d972ddb	0.07381793
19	0x3ded96ec	0.11601052
20	0xbd276670	-0.040869176
21	0xbdf14b1b	-0.11781903
22	0x3d16f91a	0.036858656
23	0xbdc1c518	-0.09461421
24	0xbdb31421	-0.08744074
25	0x3d147ae2	0.036250003
26	0xbc2e0bea	-0.010622958
27	0xbc16722e	-0.009182496
28	0x3deb2263	0.11481168
29	0xbcb388cc	-0.021915816
30	0x3da3fcb3	0.08007183
31	0xbd2ce936	-0.042214595

convs.1.bn1.weight f4 [32]
0	0x3f848128	1.0351915
1	0x3f84b649	1.0368129
2	0x3f81ac14	1.0130639
3	0x3f7ea9a5	0.99477607
4	0x3f802dfb	1.0014032
5	0x3f7eba0c	0.99502635
6	0x3f81396d	1.009565
7	0x3f7df556	0.9920248
8	0x3f82b507	1.0211495
9	0x3f846049	1.0341884
10	0x3f7c130c	0.98466563
11	0x3f794a64	0.97379136
12	0x3f800fbe	1.0004804
13	0x3f7ff2a4	0.99979615
14	0x3f835ec0	1.026329
15	0x3f7a7eda	0.9784981
16	0x3f7a6446	0.97809255
17	0x3f7bf86e	0.9842595
18	0x3f807dcf	1.0038394
19	0x3f831303	1.0240177
20	0x3f7c373d	0.98521787
21	0x3f8030e0	1.0014915
22	0x3f7befef	0.98412985
23	0x3f816c3d	1.0111157
24	0x3f7b4b1e	0.98161495
25	0x3f7c7ed5	0.9863103
26	0x3f820b6b	1.0159734
27	0x3f80e7c0	1.0070724
28	0x3f815f48	1.0107203
29	0x3f7e7cdf	0.9940929
30	0x3f7d346b	0.9890811
31	0x3f8372b6	1.0269382

convs.1.bn1.bias f4 [32]
0	0xbca7166c	-0.020396434
1	0xbcfe2152	-0.031021748
2	0xbce19429	-0.027536469
3	0x3c7b8af2	0.015352951
4	0x3b33396d	0.002734746
5	0x3c30ac82	0.010783317
6	0xbc6bcc14	-0.014391918
7	0x3be84b4b	0.0070890537
8	0xbcbf33ab	-0.023340067
9	0xbcf9dde9	-0.030501323
10	0x3d0647fe	0.0327835
11	0x3c876132	0.016525839
12	0x3b46988c	0.0030303327
13	0x3b5edb48	0.0034005214
14	0xbc8eab77	-0.017415745
15	0x3ce09929	0.027416782
16	0x3c3944f9	0.011307948
17	0x3bbc4424	0.0057454277
18	0xbc3e50d4	-0.011615951
19	0xbcc4c255	-0.024018446
20	0x3c6de5ff	0.014520167
21	0xbba22271	-0.0049479534
22	0x3cb18250	0.021668583
23	0xbcb39060	-0.02191943
24	0x3cc8da43	0.024518138
25	0x3c619df8	0.013770573
26	0xbc367fb4	-0.011138845
27	0xbbc15bb2	-0.0059008235
28	0xbbd738bf	-0.006568044
29	0xba53ca66	-0.0008079171
30	0x3c01326d	0.007885558
31	0xbca4f25d	-0.020135099

convs.1.bn1.running_mean f4 [32]
0	0xbef085ea	-0.46977168
1	0x3ef96cd8	0.48715854
2	0xbebd3d64	-0.369609
3	0xbf86e26e	-1.0537851
4	0xbf40302d	-0.7507351
5	0xbefc18af	-0.49237582
6	0x3ef62d0e	0.4808125
7	0x3f1ed472	0.62042916
8	0xbdd2a683	-0.10285666
9	0xbdbf05e7	-0.09327298
10	0x3eeabcd1	0.4584718
11	0xbe182493	-0.14857702
12	0x3e99abff	0.30014035
13	0xbaa889f2	-0.0012858494
14	0x3e8c6572	0.27421147
15	0xbe050b8b	-0.12992685
16	0xbe97e8e4	-0.2966987
17	0xbef87a5c	-0.48530853
18	0x3e845554	0.2584635
19	0xbf463efb	-0.7743985
20	0x3f2e752c	0.6814754
21	0x3f2a7f6b	0.66600674
22	0xbf35531f	-0.7082996
23	0x3f66c81b	0.90149087
24	0xbf73d372	-0.95244515
25	0xbea1732e	-0.31533188
26	0x3ec16dba	0.37779027
27	0x3d724f6e	0.05915778
28	0xbf6f32ae	-0.93436706
29	0x3cb278d9	0.02178614
30	0xbf14889b	-0.58020943
31	0x3f1ad8fe	0.60487354

convs.1.bn1.running_var f4 [32]
0	0x3d6e713d	0.05821346
1	0x3dd2ce29	0.10293228
2	0x3d83285f	0.064041846
3	0x3d3cbef2	0.046080537
4	0x3dd66303	0.10468104
5	0x3d8af6e1	0.0678537
6	0x3d900f8c	0.07034215
7	0x3db08ecb	0.086209856
8	0x3dad0bb5	0.084494986
9	0x3dde2b1e	0.10848068
10	0x3d87da1a	0.066333964
11	0x3d842b61	0.06453586
12	0x3e4a1860	0.19735861
13	0x3d7f9fa1	0.062408093
14	0x3d25eb63	0.040507685
15	0x3d87bcca	0.066278055
16	0x3d8b833f	0.068121426
17	0x3de90376	0.11377613
18	0x3d8850c7	0.06656032
19	0x3deee4e3	0.116647504
20	0x3d785330	0.06062621
21	0x3d7d6607	0.06186488
22	0x3d9b73c5	0.07590441
23	0x3e0e50df	0.13898037
24	0x3d71ec6e	0.059063368
25	0x3d5c0863	0.053718936
26	0x3da5e854	0.08100954
27	0x3d9be094	0.07611194
28	0x3dc87424	0.09787777
29	0x3d81681e	0.06318687
30	0x3e1dd148	0.15411866
31	0x3e136aa9	0.14396156

convs.1.bn2.weight f4 [16]
0	0x3f815c1b	1.0106233
1	0x3f83a1fd	1.028381
2	0x3f814a2e	1.0100763
3	0x3f852748	1.0402613
4	0x3f7df6e4	0.9920485
5	0x3f813f1a	1.0097382
6	0x3f7abc25	0.97943336
7	0x3f81948b	1.0123457
8	0x3f8158a0	1.0105171
9	0x3f813d6e	1.0096872
10	0x3f814fd1	1.0102483
11	0x3f7f46c9	0.99717385
12	0x3f84c9e3	1.0374111
13	0x3f82b347	1.0210961
14	0x3f7d6a7b	0.989906
15	0x3f8316e1	1.0241357

convs.1.bn2.bias f4 [16]
0	0x3afaf1c6	0.001914554
1	0x3d29d36b	0.04146139
2	0x3cc4151f	0.023935853
3	0x3d41c605	0.047307987
4	0xbc391e65	-0.0112987505
5	0x3d15d69d	0.036581624
6	0x3bd51b38	0.006503489
7	0x3cfc10cb	0.030769726
8	0x3d1bc2e0	0.038027644
9	0x3d1cbe06	0.038267158
10	0x3d1426ab	0.03616969
11	0x3d0da104	0.034577385
12	0x3d405be8	0.04696265
13	0x3cdf4edc	0.027259283
14	0x3d247ee2	0.040160067
15	0x3d3a88e5	0.04554071

convs.1.bn2.running_mean f4 [16]
0	0x4093f00d	4.623053
1	0x409f490e	4.977668
2	0x409de721	4.934464
3	0x40a3a12c	5.1134243
4	0x40a1d340	5.0570374
5	0x409a208e	4.816474
6	0x40912728	4.53603
7	0x408c4cc4	4.384371
8	0x4090089e	4.501052
9	0x40a324a6	5.0982237
10	0x4097b13c	4.740385
11	0x409a7fde	4.828109
12	0x40912de9	4.5368543
13	0x409e8337	4.9535174
14	0x4097bbd3	4.7416778
15	0x4088ffef	4.281242

convs.1.bn2.running_var f4 [16]
0	0x41222764	10.134617
1	0x414c4780	12.767456
2	0x4129ff30	10.624802
3	0x41872ad1	16.895906
4	0x4127cbee	10.4872875
5	0x41258460	10.344818
6	0x40c608d5	6.188578
7	0x40646ea9	3.5692542
8	0x410be0f8	8.742424
9	0x40c60857	6.188518
10	0x40b152fd	5.5413804
11	0x41136741	9.212708
12	0x40f046f0	7.5086594
13	0x40df73e0	6.982895
14	0x409cdd62	4.9020243
15	0x409eea47	4.9660983

convs.2.fc_full.weight f4 [32, 56]
0	0x3dd0a306	0.10187344
1	0x3d03feb8	0.03222534
2	0x3dd9533c	0.10611579
3	0x3daa93cb	0.083289705
4	0xbd857933	-0.065172575
5	0x3d22e771	0.0397715
6	0x3decace7	0.11556416
7	0x3cac0c30	0.021001905
8	0x3d9ec5a3	0.0775254
9	0xbde5860d	-0.11207209
10	0x3d5f166f	0.054464754
11	0xbdf23f74	-0.11828509
12	0x3dc61aac	0.09673056
13	0x3cbce59e	0.023058709
14	0x3bb748fa	0.0055934163
15	0xbe16def7	-0.14733492
16	0x3dddc2b6	0.10828154
17	0x3dbef7f4	0.09324637
18	0x3dd1e940	0.10249567
19	0x3d1d15a0	0.0383507
20	0x3ce3c0e0	0.02780193
21	0xbd2308e3	-0.039803397
22	0xbd9a519a	-0.075350955
23	0x3d5c5938	0.053796023
24	0x3d708c2f	0.05872744
25	0xba28c046	-0.00064373424
26	0x3c757ee3	0.014983865
27	0x3d41056f	0.047124323
28	0xbe1666f4	-0.14687711
29	0xbdf01f1a	-0.11724682
30	0xbc7be720	-0.015374929
31	0x3dc3ad7d	0.09554575
32	0x3d7ade47	0.061247136
33	0xbe062775	-0.13100989
34	0xbd25dd1c	-0.04049407
35	0xbc2253d3	-0.009907681
36	0x3d45ee75	0.048323113
37	0x3dd7b54a	0.10532625
38	0xb9dc4a62	-0.0004201709
39	0xbdd59622	-0.10429026
40	0x3c4c5bb3	0.012473035
41	0xbd414959	-0.04718909
42	0xbdaf96c0	-0.08573675
43	0x3d90f497	0.07077902
44	0xbc948921	-0.018131794
45	0x3d8a251a	0.06745358
46	0x3dde0388	0.10840517
47	0x3b94d7c7	0.004542324
48	0x3d833371	0.06406296
49	0xbd96d994	-0.073657185
50	0x3d9cef84	0.076628715
51	0x3baeef3a	0.0053385766
52	0x3db5de37	0.08880275
53	0x3e105fc4	0.14099032
54	0xbd94f9e5	-0.07274226
55	0x3e20c701	0.15700914
56	0x3daccba9	0.084372826
57	0xbde1ff3b	-0.110350095
58	0x3cf75511	0.03019193
59	0xbdf6f3e8	-0.1205824
60	0x3d807a0e	0.0627328
61	0x3b03fc46	0.002013938
62	0xbe124acb	-0.14286344
63	0x3d84f645	0.06492285
64	0xbd41261b	-0.04715548
65	0x3e1cc022	0.15307668
66	0x3e0bb493	0.13643102
67	0x3d529328	0.05140987
68	0x3e09c55c	0.13454193
69	0x3d7bbef8	0.06146142
70	0x3de43cf3	0.11144438
71	0x3c100158	0.008789383
72	0x3c2eb589	0.010663399
73	0xbc805399	-0.015664862
74	0xbc8d29d5	-0.017231861
75	0xbd043845	-0.032280225
76	0xbd0f7bff	-0.03503036
77	0x3d5e82cc	0.054323956
78	0x3d457a6f	0.048212465
79	0xbd2a3398	-0.04155311
80	0xbddda9e4	-0.1082342
81	0x3d9b01f0	0.07568729
82	0xbe116ae3	-0.1420093
83	0x3cc6b762	0.024257366
84	0xbde1afc0	-0.1101985
85	0x3df811b9	0.12112755
86	0x3da87352	0.082251206
87	0xbdd6113d	-0.10452507
88	0xbdd2a7ec	-0.10285935
89	0xbd551ccd	-0.05202942
90	0x3d984448	0.074348986
91	0xbd9d4e2e	-0.07680927
92	0xbd3bfe5b	-0.04589687
93	0xbc5aa953	-0.013346034
94	0x3d5173f4	0.051135972
95	0xbcd21ce9	-0.025648551
96	0x3d4e7461	0.050403956
97	0xbde26e08	-0.11056143
98	0x3bff0927	0.0077830735
99	0x3e0d9772	0.13827303
100	0xbd142a97	-0.03617343
101	0x3dbbef5c	0.091765136
102	0x3d5c23c9	0.053745065
103	0xbd2122fc	-0.039340004
104	0x3d5a1ac7	0.053248193
105	0xbdac251d	-0.08405516
106	0x3cf1d2a0	0.02951938
107	0x3d1b0b00	0.037852287
108	0x3decb7d4	0.115585
109	0xbda41a78	-0.08012861
110	0xbdc68abe	-0.09694432
111	0xbdbd9fed	-0.09259019
112	0xbe17884a	-0.14798084
113	0x3c9d14c7	0.019174946
114	0xbe002d56	-0.12517294
115	0xbd72fd69	-0.059323702
116	0xbd1bd81a	-0.038047887
117	0x3c6b7fdf	0.014373749
118	0x3cfaa61b	0.030596783
119	0xbd9f190f	-0.077684514
120	0xbd6aa47e	-0.05728578
121	0x3b0d75cc	0.0021585105
122	0xbd87f39d	-0.066382624
123	0x3ccca3c7	0.024980439
124	0x3d981a17	0.07426851
125	0xbd6fb503	-0.058522236
126	0x3dc36237	0.09540217
127	0x3df5dba7	0.12004786
128	0xbd565c23	-0.052333962
129	0x3cd90225	0.02649028
130	0x3bfd9555	0.007738749
131	0x3b125417	0.0022327953
132	0xbdbca196	-0.092105076
133	0x3d9201c0	0.0712924
134	0x3d8a016f	0.06738555
135	0xbdfb012a	-0.122560814
136	0xbdcb7373	-0.099341296
137	0x3dfb78ea	0.12278922
138	0x3c45054b	0.012025188
139	0xbc49f9b9	-0.012327605
140	0x3db33732	0.08750762
141	0x3d704f61	0.05866945
142	0x3cf5dda7	0.030012919
143	0x3dc6e9fc	0.09712598
144	0xbc084e6a	-0.008319477
145	0x3e0b2d5c	0.13591522
146	0xbd842bde	-0.064536795
147	0xbd84b0be	-0.064790234
148	0x3cf982e8	0.030457929
149	0xbc7697cc	-0.01505084
150	0x3dad0ce9	0.08449728
151	0xbbe3915f	-0.00694482
152	0x3d175d18	0.036954015
153	0xbcaf5eb6	-0.021407466
154	0x3dcde704	0.10053828
155	0xba632ea7	-0.00086663145
156	0x3d010058	0.03149447
157	0x3de7cd10	0.113184094
158	0x3e0a20fd	0.13489147
159	0x3ddda31d	0.10822127
160	0xbe151fe5	-0.14562948
161	0xbd89577d	-0.0670614
162	0xbc869cbd	-0.01643216
163	0xbce1fe71	-0.027587147
164	0x3d9e4d58	0.07729596
165	0x3d46eac0	0.04856372
166	0xbd0b74dd	-0.034046996
167	0xbcabda61	-0.020978155
168	0x3d013d63	0.031552684
169	0x3df5fc00	0.12010956
170	0x3dae1e43	0.08501866
171	0xbd31d420	-0.04341519
172	0xbdb01fb4	-0.08599797
173	0x3cc7697a	0.024342287
174	0x3ab5468e	0.0013830231
175	0xbdec180c	-0.11528024
176	0xbdd5b90a	-0.10435684
177	0xbbeea7c5	-0.0072831833
178	0xbd60b11a	-0.054856397
179	0xbda39988	-0.07988268
180	0xbb9b6495	-0.004742215
181	0x3dc7b391	0.097510464
182	0x3e09b837	0.13449179
183	0x3d4027a9	0.046912823
184	0xbdc6d1d1	-0.09707988
185	0x3de49f12	0.11163153
186	0x3d3f3176	0.04667803
187	0x3d644944	0.055733934
188	0xbd5e1717	-0.05422124
189	0xbadfc88e	-0.001707332
190	0xbd9987ec	-0.07496628
191	0xbd65851c	-0.056035146
192	0xbc663e46	-0.014052933
193	0xbd384c52	-0.04499466
194	0xbdf2850f	-0.11841785
195	0x3d19d8e3	0.037560355
196	0xbe07b002	-0.13250735
197	0xbde830d7	-0.113374405
198	0x3dbb2968	0.09138757
199	0xbde8ed3c	-0.11373374
200	0x3dcec37c	0.100958794
201	0x3dcaee6a	0.09908755
202	0xbd842c9c	-0.06453821
203	0xbc096757	-0.008386455
204	0xbda795d6	-0.08182876
205	0xbc9064a7	-0.01762612
206	0xbb883d2a	-0.004157682
207	0xbdc3376e	-0.09532057
208	0x3d69a930	0.057046115
209	0x3c840d4c	0.016119622
210	0xbd845aa4	-0.06462601
211	0xbcebab44	-0.02876819
212	0xbe1b1e36	-0.15148243
213	0xbda0ced7	-0.078519516
214	0x3d22c6c2	0.03974033
215	0x3de9397f	0.1138792
216	0xbdb225ad	-0.08698592
217	0x3dad5fb2	0.08465518
218	0x3c18ee82	0.009334208
219	0xbd6b7cd0	-0.057492077
220	0x3921f9c6	0.00015447204
221	0x3db8c04a	0.09021051
222	0x3d43fac5	0.047846574
223	0x3e1989c8	0.14993966
224	0xbd0b22a0	-0.033968568
225	0xbda0dfc0	-0.07855177
226	0x3df91620	0.12162423
227	0xbc9ab5cf	-0.018885521
228	0x3d69999b	0.057031255
229	0x3d935277	0.07193463
230	0x3cab8a40	0.020939946
231	0xbe068245	-0.13135631
232	0xbe0555e7	-0.1302105
233	0x3d78e6bb	0.060766917
234	0x3d27728d	0.04088073
235	0x3d941384	0.07230285
236	0xbe003cd5	-0.12523206
237	0x3aadf9ba	0.0013273277
238	0x3e02f7b4	0.12789804
239	0x3d8ef391	0.0698005
240	0x3df99738	0.12187046
241	0x3dfb5f27	0.12274008
242	0xbc8ba89e	-0.017048176
243	0xbd8efc1f	-0.06981682
244	0xbdc248b2	-0.09486522
245	0x3ca21e42	0.019789819
246	0xbd000bbb	-0.031261187
247	0xbccc8d67	-0.02496977
248	0x3ccbc180	0.024872541
249	0x3da8bdf4	0.08239356
250	0x3d972a0e	0.07381068
251	0x3da20113	0.07910361
252	0xbbb75f3a	-0.0055960687
253	0x3dadc477	0.08484738
254	0xbd74f4a8	-0.059803635
255	0xbd77ec1b	-0.060527902

convs.2.fc_full.bias f4 [32]
0	0x3e0469d2	0.12930992
1	0xbcc33e49	-0.02383341
2	0xbdf8cc17	-0.12148302
3	0xbd228813	-0.03968055
4	0x3d49bf66	0.049254797
5	0x3d69f8bc	0.057121977
6	0xbdb7b3d6	-0.08969848
7	0xbdc0b6fe	-0.09409903
8	0xbd18ff1e	-0.037352674
9	0x3c092f78	0.008373134
10	0xbde241d1	-0.1104771
11	0x3d7e5b07	0.06209853
12	0xbcea0e30	-0.028571218
13	0x3d9e6279	0.07733626
14	0x3d23c543	0.039983045
15	0xbc9d6b79	-0.019216286
16	0xbc3d40a8	-0.01155106
17	0x3d282bd3	0.04105742
18	0xbd91277e	-0.07087611
19	0xbd0633bd	-0.032764185
20	0x3d7cc34d	0.06170969
21	0xbdf53c27	-0.11974364
22	0xbcd898db	-0.026440075
23	0x3cd9cf00	0.026587963
24	0xbd8b81ad	-0.06811843
25	0x3d7cf7fb	0.06175993
26	0x3d8859f6	0.06657784
27	0xbc9dadf6	-0.01924799
28	0xbd3c6a50	-0.045999825
29	0x3d8649d9	0.06557054
30	0x3c071bb2	0.008246349
31	0xbdd2ec0f	-0.10298931

convs.2.bn1.weight f4 [32]
0	0x3f83d41e	1.0299108
1	0x3f81fd46	1.0155418
2	0x3f81d350	1.0142612
3	0x3f76ea01	0.9645081
4	0x3f82a3a0	1.0206184
5	0x3f7c4329	0.9853998
6	0x3f7a1076	0.9768137
7	0x3f81d92b	1.01444
8	0x3f7f0003	0.9960939
9	0x3f7cca63	0.9874632
10	0x3f7ee1d9	0.99563366
11	0x3f846566	1.0343444
12	0x3f839cd1	1.0282232
13	0x3f7aa8bb	0.9791371
14	0x3f8092e1	1.0044824
15	0x3f823eed	1.0175453
16	0x3f7bc399	0.98345333
17	0x3f7c58aa	0.9857279
18	0x3f82396f	1.0173777
19	0x3f85c676	1.045119
20	0x3f7c6ebd	0.98606473
21	0x3f7e95c8	0.994473
22	0x3f83f28d	1.0308396
23	0x3f7f77e6	0.99792325
24	0x3f815065	1.010266
25	0x3f828f1d	1.0199925
26	0x3f8439b1	1.0330106
27	0x3f769925	0.9632743
28	0x3f79ca0c	0.97573924
29	0x3f82ab0c	1.0208449
30	0x3f7a38f3	0.9774315
31	0x3f7c9c80	0.986763

convs.2.bn1.bias f4 [32]
0	0xbb8b6efe	-0.0042551747
1	0x3ce06058	0.02738969
2	0xbc332278	-0.010933511
3	0x3ce4d687	0.027934326
4	0xbc6ad1a7	-0.014332212
5	0xbc2649f7	-0.0101494705
6	0x3c51f42b	0.012814562
7	0x3b80e7cf	0.0039338837
8	0x3c6c7af0	0.014433607
9	0x3c2ae2ab	0.010430018
10	0xbb02e706	-0.0019974126
11	0xbd0d32b3	-0.03447218
12	0xbc5d5fc6	-0.013511604
13	0xbc4f34dc	-0.01264688
14	0x3c33d40e	0.010975851
15	0x3a61e5dc	0.00086173206
16	0x3c39c81c	0.011339214
17	0x3c96324a	0.018334527
18	0xbc583a71	-0.013197527
19	0xbd2353b3	-0.039874744
20	0x3c810d1f	0.015753327
21	0x3b42d173	0.0029726892
22	0xbc9f3b1e	-0.019437369
23	0x3bf37890	0.0074301437
24	0x3a29188b	0.00064504956
25	0xbd019480	-0.03163576
26	0xbcc9fa05	-0.024655351
27	0x3cdeb696	0.027186673
28	0x3cc1dfc4	0.02366627
29	0xbcb8bdcb	-0.022551438
30	0x3cacef94	0.021110334
31	0x3c257ea3	0.010100993

convs.2.bn1.running_mean f4 [32]
0	0x3f6c3fdb	0.92284936
1	0x3ea91059	0.33020285
2	0x3e48762d	0.1957633
3	0xbf53dd8f	-0.82759947
4	0x3ed8917b	0.42298493
5	0x3dabd07d	0.08389375
6	0xbe876242	-0.26442152
7	0x3f01e73d	0.50743467
8	0xbefd247a	-0.49441892
9	0x3ea85c21	0.3288279
10	0xbe026f4b	-0.12737767
11	0xbd009048	-0.031387597
12	0x3f755c8b	0.95844334
13	0xbf26fdea	-0.6523119
14	0x3fc0573a	1.502662
15	0xbdbf9bc8	-0.09355885
16	0x3f8857b1	1.0651761
17	0x3f129217	0.57254165
18	0xbf9e0d02	-1.234772
19	0xbf46300a	-0.7741705
20	0x3f849296	1.0357234
21	0x3f13076b	0.57433194
22	0xbcbe007c	-0.02319359
23	0x3e9a2540	0.30106544
24	0xbeecbbb7	-0.46236965
25	0xbea81c21	-0.3283396
26	0x3effb8ab	0.49945578
27	0x3f675d96	0.90377176
28	0x3ef8da45	0.48604026
29	0x3fc83162	1.564007
30	0xbf2c344f	-0.67267317
31	0xbdd34cc5	-0.10317377

convs.2.bn1.running_var f4 [32]
0	0x3ea202e4	0.3164283
1	0x3ed2bd80	0.41160202
2	0x3e708e02	0.23491672
3	0x3e4affff	0.19824217
4	0x3dea72ea	0.11447699
5	0x3e065778	0.13119304
6	0x3ded73f0	0.11594379
7	0x3e3f979d	0.1871018
8	0x3e5e9bf3	0.21739177
9	0x3dd22ee8	0.10262853
10	0x3de4883a	0.11158796
11	0x3e377c98	0.17918622
12	0x3e15fb6e	0.14646694
13	0x3dcf6cef	0.10128199
14	0x3e086af7	0.13322054
15	0x3dfde903	0.12397959
16	0x3e572221	0.21009113
17	0x3e7513e4	0.23933369
18	0x3e181e65	0.14855345
19	0x3e99bfd7	0.30029175
20	0x3e5b24e3	0.2140079
21	0x3e396f43	0.18108849
22	0x3e387d83	0.18016629
23	0x3e0f75e9	0.14009823
24	0x3e1981fd	0.14990993
25	0x3e289f7f	0.16467093
26	0x3e28f965	0.16501386
27	0x3e44fdb1	0.192374
28	0x3e27fa1c	0.16404003
29	0x3e073081	0.13202097
30	0x3e86e35d	0.2634534
31	0x3e0722a9	0.13196816

convs.2.bn2.weight f4 [16]
0	0x3f8366ff	1.0265807
1	0x3f85e107	1.0459298
2	0x3f818c0b	1.0120863
3	0x3f8609e8	1.0471773
4	0x3f7beb71	0.9840613
5	0x3f83c748	1.0295191
6	0x3f801b2c	1.0008292
7	0x3f826a39	1.0188667
8	0x3f7e6cc6	0.99384725
9	0x3f799aec	0.9750202
10	0x3f82261f	1.0167884
11	0x3f82e765	1.0226866
12	0x3f845c90	1.0340748
13	0x3f8164ef	1.0108927
14	0x3f857d89	1.0428935
15	0x3f83fc2a	1.0311329

convs.2.bn2.bias f4 [16]
0	0x3c6c72c6	0.014431661
1	0x3d3fce64	0.04682769
2	0x3d0ec5af	0.034856495
3	0x3d3b261e	0.04569065
4	0xbcb61855	-0.0222284
5	0x3d23a9ed	0.039956976
6	0x3ca504a2	0.02014381
7	0x3d326536	0.043553554
8	0x3d1db1be	0.038499586
9	0x3d298e1d	0.041395295
10	0x3d1e1f62	0.038604148
11	0x3d1fe927	0.03904071
12	0x3d3f28c3	0.046669733
13	0x3cea8a37	0.02863036
14	0x3d22b081	0.03971911
15	0x3d321415	0.043476183

convs.2.bn2.running_mean f4 [16]
0	0x40a7b0c2	5.240327
1	0x40b0e2aa	5.527669
2	0x4099fbf2	4.812005
3	0x4096d77a	4.7138033
4	0x40a68cef	5.204704
5	0x40aa8e26	5.329852
6	0x408ca915	4.39564
7	0x4098ecd1	4.7789083
8	0x40906e56	4.5134687
9	0x4091f338	4.56094
10	0x409d7ee3	4.921739
11	0x409f70b1	4.9825063
12	0x40ac7136	5.3888197
13	0x409dfd68	4.9371834
14	0x40ad4705	5.4149194
15	0x40aede92	5.464669

convs.2.bn2.running_var f4 [16]
0	0x41ab9b6f	21.450895
1	0x414cd7e1	12.802705
2	0x415ef61c	13.935085
3	0x413d87ff	11.845702
4	0x414ec95c	12.92416
5	0x41644325	14.266393
6	0x40dadbb9	6.8393216
7	0x4115c5e0	9.360809
8	0x40979112	4.736459
9	0x415163f8	13.086906
10	0x40eee191	7.465035
11	0x41febeb7	31.843122
12	0x41738989	15.221078
13	0x41826762	16.30048
14	0x4196a2b2	18.829441
15	0x41713ec5	15.077825
