cgcnndefect/defect_scratch_40/checkpoint.pth.tar (torch, 208559 bytes, 121 tensors)

embedding.weight f4 [16, 92]
000000 70 be 34 3c df 14 65 3d 9f e8 7d bd c7 85 7c bd
       0.011031732 0.055928107 -0.061989423 -0.061651018
000010 2e 45 8e bc 93 1e 57 bc 23 60 07 bb 5d 2d 66 3d
       -0.017366972 -0.013129848 -0.0020656667 0.056195606
000020 e3 fe 53 bc 58 8c b5 3c 68 47 0a bd b0 e1 a7 bc
       -0.012939188 0.022161648 -0.033759505 -0.020493358
000030 1d fc cb bd ee 93 22 bd e4 08 30 bd 9a 1a 7d 3b
       -0.09960196 -0.039691858 -0.04297723 0.0038620592
000040 47 00 08 3d ba 1d 80 3d cd c0 90 bd 7f f5 39 bd
       0.03320339 0.0625567 -0.07068024 -0.04540014
000050 1c 92 f4 3c 43 68 27 3e 2e 5c fe bc bc d0 3c 3d
       0.029854827 0.16348366 -0.031049814 0.046097502
000060 33 64 a2 bc 11 bf 34 3c 0e 56 c1 3d cd bd c3 bd
       -0.01982317 0.011031882 0.09440242 -0.09557686
000070 f3 6a 23 bc 06 0d 3c bd 9e ae 2f bd fa 7a b8 3d
       -0.009974229 -0.045910858 -0.042891137 0.09007831
000080 05 66 8a bd 54 94 44 bd 5b 95 a5 bd 2c f9 c7 bd
       -0.0675774 -0.04799302 -0.08085128 -0.09764323
000090 72 47 79 bd 35 21 a7 3d 4f 8d 3e 3d c1 bb 34 3d
       -0.06085915 0.081606306 0.04652148 0.04412437
0000a0 9c 90 ad 3c 37 f5 7a bd 06 23 16 3d cf 76 e3 bd
       0.02118712 -0.06126901 0.036654495 -0.11106645
0000b0 0d 48 9a bd 90 26 5c bd 93 b7 86 3d a3 32 af 3d
       -0.07533274 -0.053747714 0.06577983 0.0855458
0000c0 a3 82 3d bc 18 dd 9b 3c 75 a5 d1 3c 01 db c3 3d
       -0.011566791 0.019026324 0.025591591 0.09563256
0000d0 1e 44 74 3c ed 59 2a 3c 49 0c 84 3d f8 54 82 bd
       0.0149088185 0.010397417 0.06447656 -0.06363863
0000e0 db 26 9f 3c d2 8a a5 bd a5 fc 93 bd f1 4c 80 bd
       0.019427707 -0.080831185 -0.072259225 -0.062646754
0000f0 29 18 8a 3d 72 72 20 3d ed f4 7c bd d5 02 01 3d
       0.067428894 0.039171644 -0.061757017 0.03149684
000100 15 9c 49 3d 23 99 57 bc 8a 70 82 3b a9 e4 c5 3c
       0.049221117 -0.013159069 0.003980701 0.024156885
000110 48 76 84 3d fb 04 cd 3d e7 8a a4 bd 0f 7f 1c bd
       0.06467873 0.100107156 -0.08034306 -0.03820711
000120 11 db 25 3d ab 1b c7 3d 8e de a8 3d 54 66 bc 3d
       0.04049212 0.09722074 0.08245574 0.09199205
000130 2d f9 a9 3c 16 ac b9 bd cb d8 08 3d a2 21 7d bd
       0.0207487 -0.09066026 0.033409875 -0.061799653
000140 7a 18 f3 bd d3 e6 d5 3d e0 59 a2 3d 96 62 fd bd
       -0.11869903 0.10444417 0.079272985 -0.123723194
000150 de ae 8b 3d 0f fb a3 bc c2 21 77 bb 5d ee 04 bd
       0.06820463 -0.020017175 -0.003770933 -0.032453883
000160 d0 31 30 3d 1b 92 9a bd 5a 8c 1c 3d d2 f4 57 3d
       0.043016255 -0.07547399 0.038219787 0.052723713
000170 d5 23 6b 3d 91 ac 1f 3d 74 45 c3 bd 5c 6a 7b bd
       0.05740722 0.03898293 -0.095347315 -0.06138073
000180 f7 64 65 3d 59 2c a6 3c 04 90 a6 bd 74 d3 86 bd
       0.05600449 0.020284818 -0.081329376 -0.065833
000190 fa d6 a9 3d 2e da 83 3d 3a 0f 9a bc 2b f5 d6 bc
       0.08292957 0.06438099 -0.018806089 -0.026239952
0001a0 c6 65 cb bd 5e 53 7e bb ce ca a0 bd fa b2 a4 bd
       -0.09931521 -0.0038807015 -0.07851182 -0.080419496
0001b0 f8 09 31 3a 32 3c 80 3c 82 e2 2e bd fd 64 7d 3d
       0.00067534996 0.015653703 -0.042696483 0.061863888
0001c0 a4 92 69 bd fe 0f e0 3d fc 71 68 3d 26 74 ad bd
       -0.057024613 0.1094055 0.05674933 -0.08469419
0001d0 66 88 16 bd 05 27 9a 3b 90 38 79 3c 6f 23 7d 3c
       -0.036751173 0.0047043585 0.015211239 0.015450343
0001e0 ca 53 90 3d f2 78 12 bc 99 63 c6 bc c7 11 4a 3d
       0.070472315 -0.008939968 -0.024217414 0.04933336
0001f0 50 d1 cc bd a5 1b 7d bd 75 35 a1 bc 03 04 50 bd
       -0.10000861 -0.061793942 -0.01967881 -0.050785076
000200 58 64 15 bd 61 db a1 bd b9 ac b5 bc e5 72 e9 3c
       -0.03647265 -0.07903171 -0.022177087 0.028497169
000210 60 a0 b2 bd 4c 95 3c 3c 1a de 80 3d cf 1b 98 bc
       -0.08721995 0.0115102045 0.062923625 -0.018567948
000220 a2 e4 3d 3b 38 5c 13 bc 50 d9 ac 3c 85 59 8e 3d
       0.0028975387 -0.008994155 0.021099716 0.06950668
000230 53 b6 cb 3d 0c ae 8f 3d 30 92 c7 3d ba d2 92 ba
       0.09946885 0.07015619 0.0974468 -0.0011201717
000240 ac af cb bd 7c 40 84 bd 94 5d 85 3d 4a cd d4 3c
       -0.09945616 -0.06457612 0.06511989 0.025976796
000250 e7 41 54 bd 37 9f a3 bd 6c d2 c7 bd 72 78 bd bd
       -0.051820662 -0.07989352 -0.09756932 -0.09251489
000260 7c 8b ce bc cb 0b 77 3d bf df 66 3d 9e ec cd bd
       -0.025212996 0.06031398 0.056365725 -0.10054897
000270 39 56 92 3d 98 14 a7 bd 6c 8f b4 bc eb 26 2d bd
       0.07145352 -0.08158225 -0.022041045 -0.042273443
000280 05 82 a4 bc 00 b1 a7 bc de 99 bf bd 35 5c b8 bd
       -0.02008153 -0.020470142 -0.0935552 -0.09001962
000290 e8 14 d6 bc 4e 16 4b bc 73 5f 0c bd 5c dd 20 3d
       -0.026133016 -0.012395455 -0.034270715 0.039273605
0002a0 ea 2d c0 bd 81 8e e6 bb 0a d4 cb 3d 7e 23 1e bd
       -0.093837574 -0.0070360308 0.099525526 -0.038608067
0002b0 18 80 ba 3d 50 2d a8 3c 3d b1 c0 bd ab 93 52 3d
       0.09106463 0.02052942 -0.094088055 0.05141036
0002c0 00 b4 6c bc 1d 59 35 bd 4f 9b d5 3d ec bd cb bd
       -0.014447212 -0.04427444 0.104300134 -0.09948334
0002d0 61 f7 cf 3b 3d 20 f3 bc f8 79 98 3d 0e 69 ee 3c
       0.0063466285 -0.029678458 0.07445139 0.029102828
0002e0 ca 9f 9a 3d e7 cf 16 3d 8d 15 6a bd b0 09 d8 b9
       0.075500086 0.036819365 -0.05714946 -0.00041205948
0002f0 47 2e 5f bd 16 76 bd 3d 7a 87 a9 3d 72 32 85 3d
       -0.054487493 0.09251039 0.08277793 0.06503762
000300 fa 99 9a bd a0 14 80 bc 44 21 b0 bd d0 13 6b bd
       -0.075489 -0.015634835 -0.08600095 -0.05739194
000310 4c d6 78 bd 04 26 47 3c 2f 7a 7e bd 79 11 15 bb
       -0.060751244 0.01215506 -0.062128242 -0.002274601
000320 1b 5a 33 bc 9d a3 89 3d 32 67 a1 bd 4f 95 92 bd
       -0.010946776 0.0672066 -0.07881011 -0.071573846
000330 13 62 9b bd af 93 9a 3d 48 d5 a5 bc 15 24 87 3d
       -0.075870655 0.075477 -0.020243302 0.06598679
000340 62 15 66 3d d6 4b 58 3c bb 72 4b ba dc fa f7 bb
       0.056172736 0.013201674 -0.00077609316 -0.0075677466
000350 33 81 15 3d 7a 05 e6 bc fa e8 58 bc b4 f2 59 3c
       0.036500167 -0.028078783 -0.01323914 0.013302494
000360 f5 03 a7 bd e3 d2 5f bd 8d 03 8d 3d cb 47 ad bd
       -0.081550516 -0.054644477 0.06885443 -0.08460959
000370 be 4f f5 bb ef d1 b3 3d 03 43 1a 3d 71 51 a5 bc
       -0.0074863127 0.08780276 0.037661564 -0.020180436
000380 36 71 a2 bd 3a 1e 2e 3d b0 2d 7b bc 73 33 9c bd
       -0.079317495 0.042509295 -0.015330717 -0.07627001
000390 2f 47 0f bd 99 f4 7c bc 50 79 95 3a 57 1f b1 3d
       -0.034979995 -0.015439176 0.0011403952 0.08648556
0003a0 54 75 ba 39 1c 9d ff 3d 24 61 cc 3d f9 63 a6 bd
       0.000355641 0.12481138 0.099794656 -0.08124537
0003b0 22 bb 25 3d f0 ec 9a bd b4 09 84 bd c3 bf 94 3c
       0.040461667 -0.075647235 -0.06447163 0.018157845
0003c0 21 01 0d 3d 11 30 a0 3d 5c 78 09 bd a1 c0 70 bc
       0.034424905 0.07821668 -0.03356205 -0.014694364
0003d0 59 54 78 3d aa fb a9 bd b3 5e 9a 3d 3e 90 b0 bd
       0.060627315 -0.08299954 0.07537594 -0.08621262
0003e0 05 ab 63 bc 03 35 91 bc bb e8 60 bd 99 c4 61 3c
       -0.013895755 -0.017725473 -0.05490945 0.013779783
0003f0 0a 90 b0 3d ae a9 f9 bc 97 87 7d bd 60 ef 1d bd
       0.08621223 -0.030476417 -0.061896887 -0.038558364

embedding.bias f4 [16]
000000 ba cc 14 3e 9a 31 c0 3d 7d 85 93 3b fc e3 25 bd
       0.14531222 0.09384461 0.004501997 -0.040500626
000010 7c c6 e5 bd da d1 7d bd e7 f4 e6 3d 18 6c 29 3d
       -0.112194985 -0.06196771 0.1127718 0.04136285
000020 5f 1f 1f 3e 8a 39 c9 3d 1e b4 1e 3d 1a 21 10 bd
       0.15539311 0.09825428 0.038745992 -0.035187818
000030 aa e0 22 3e 4e 2c 85 3c d2 7f 9d 3d 07 70 69 3c
       0.15906015 0.016256478 0.076903954 0.014247901

convs.0.fc_full.weight f4 [32, 56]
000000 ca 86 03 3e 50 9a 47 3d 95 bb c3 3d 1d 0c 7d 3d
       0.12844387 0.04873115 0.09557263 0.06177913
000010 0e 06 33 3d 53 bb dc bd f1 97 c8 bd a9 77 af 3d
       0.043706946 -0.10777917 -0.097946055 0.08567745
000020 b6 b7 a7 bc 7c 71 b1 bd d9 9d 12 3e e4 61 f7 3b
       -0.020473342 -0.086642236 0.14318027 0.0075495113
000030 65 be d8 3d e5 b0 a7 bd fb cc 42 3d c8 34 85 bd
       0.1058319 -0.08188037 0.047558766 -0.06504208
000040 39 a1 8f bd 5b 5d 15 bd 7b 4c 48 bd fe f7 b0 3d
       -0.07013173 -0.036465984 -0.048901062 0.08641051
000050 f1 43 dc bc 64 17 98 3d 84 61 ec 3c 5c 5e 4f 3c
       -0.026887866 0.074263364 0.028855093 0.012656774
000060 e7 fe 54 bd df 9b e5 bd ec d9 af bc dc 1f 16 be
       -0.052000906 -0.11211371 -0.021466218 -0.14660591
000070 fd 79 31 bd e2 74 13 bc e0 28 53 bd a2 5a ac bc
       -0.043329228 -0.009000035 -0.051552653 -0.02103931
000080 c9 0a 17 3e c3 45 05 3e 51 6a 9f bc fe c4 b1 bd
       0.14750208 0.13014893 -0.019459875 -0.086801514
000090 1d 55 1e 3d d0 45 2e 3e c1 ff 8a bd d5 27 7c bc
       0.03865539 0.17018819 -0.067870624 -0.015390356
0000a0 05 25 41 bd 1f 0f c3 bd d3 1d 2b 3e 23 a9 0c 3d
       -0.047154445 -0.095243685 0.16710596 0.03434099
0000b0 53 d6 01 3e d6 b2 0e bd dc 69 80 bd 5b 9d 7a bd
       0.12679414 -0.03483852 -0.06270191 -0.061185222
0000c0 d0 38 bd bc 90 dd 66 3d 80 47 8d 3d 82 e8 9b bb
       -0.02309838 0.056363642 0.06898403 -0.0047579417
0000d0 e5 74 01 3e 59 e9 0d be c3 d6 54 3d 01 41 45 3e
       0.12642248 -0.13858546 0.051962625 0.19263078
0000e0 13 6d 1c bd 7c 7a cc 3d 79 88 e1 3c 0b c4 1e be
       -0.03818996 0.099842995 0.027530896 -0.15504472
0000f0 2e b7 8d bd 28 97 a6 3d c2 49 8b bd 19 64 5e 3d
       -0.069197044 0.081342995 -0.068011776 0.05429468
000100 10 3a ec 3d ab 57 32 3d 7e 33 30 bd cd 6e 56 bb
       0.11534512 0.043540638 -0.043017857 -0.003271985
000110 f6 94 a8 bd 92 85 f8 bd bc cc ec bd 36 32 09 be
       -0.08231537 -0.121348515 -0.115624875 -0.1339806
000120 73 be 05 3d c7 06 2c 3d ba 93 57 bd c8 8d fc bd
       0.03265233 0.04199865 -0.052631117 -0.1233173
000130 1b 7f 7b 3d 85 9a 8e bd af 60 32 3b eb 38 1b be
       0.061400514 -0.06963066 0.0027218272 -0.15158431
000140 f4 4b 91 bd 51 71 7b 3d fb 37 b8 bd e5 13 46 bd
       -0.07094565 0.061387364 -0.089950524 -0.048358817
000150 50 65 f3 3d 43 6f 23 bd ef b7 b4 bc 50 1f 1f bd
       0.11884558 -0.03990103 -0.022060363 -0.03884822
000160 20 61 83 3d 4e 1e b2 bd 86 f3 bd bc f4 aa 0b 3d
       0.064150095 -0.086971864 -0.02318741 0.03409858
000170 87 32 cf bc 8d 55 02 3d 85 7a cf bd e4 5d c1 3c
       -0.025292648 0.03181987 -0.101307906 0.02360434
000180 a5 cf f7 3c 02 e3 fd bc 7a 2e d1 bd 67 62 5d 3d
       0.03025038 -0.030992035 -0.10213943 0.054048922
000190 bc 7b 4d 3d 4d 27 2d bd 24 2a 4d 3d a4 ad a6 3d
       0.05016683 -0.04227381 0.050089017 0.08138588
0001a0 a2 57 10 bd f1 27 b9 bc 9a a9 c3 3d d6 bc 1e 3a
       -0.035239823 -0.022602053 0.09553833 0.00060553604
0001b0 5f 78 e7 bd b0 4d dd bd 03 7a 71 bc 0b 89 ac bd
       -0.11302256 -0.10805833 -0.0147385625 -0.08424576
0001c0 87 49 14 be 76 b0 e7 3d a6 f9 47 3d a2 76 fd bc
       -0.14481173 0.11312954 0.048822068 -0.030940358
0001d0 cf 29 b4 bb 56 d9 56 3b fe 72 84 bc 87 45 a0 ba
       -0.005498148 0.003278335 -0.016168114 -0.0012227752
0001e0 80 1e d4 bd 5a 32 0a 3c 87 9c 90 ba f4 58 48 bd
       -0.1035738 0.008434856 -0.0011032977 -0.048912957
0001f0 96 8f 5d bd fd a1 a1 3c 81 fc f0 bd 6b 60 e1 3c
       -0.054092012 0.019730562 -0.11766911 0.027511796
000200 c3 4e b0 3d 74 98 a3 ba 9e 4b a8 bd 3d 61 1a bd
       0.086087726 -0.0012481348 -0.08217548 -0.03769039
000210 ac cd cc 3c 52 9b 8c bd 58 22 a8 bd 7f 15 ee 3d
       0.025000416 -0.068655625 -0.082096756 0.11625194
000220 ae 92 ca 3d b8 c8 e6 3d 69 fb ae 3d 4a 20 17 3d
       0.09891258 0.11268753 0.085440464 0.036896028
000230 24 ee 55 3d 12 34 84 3d a0 d6 0b bd 4c 68 21 bd
       0.05222906 0.06455244 -0.03414023 -0.039406106
000240 2f de df 3d 71 38 a6 bb c2 a6 13 be d5 2a 1d be
       0.1093105 -0.0050726463 -0.14419082 -0.1534837
000250 86 c0 10 3d 84 43 02 3e de f2 cb 3d b1 5d 10 bd
       0.035339855 0.12721068 0.099584326 -0.0352456
000260 28 0f 31 3d 3d 1e 23 be 77 35 9e bd a7 1b 07 be
       0.043227345 -0.15929504 -0.07725041 -0.13194142
000270 0a 8e 4c 3d 6e e9 49 bd 42 f9 c2 bd 53 30 c5 3d
       0.049940147 -0.04929488 -0.095201984 0.09628358
000280 1b 40 0a bd d2 98 bc bd 36 a0 16 3d c3 17 c8 3c
       -0.033752542 -0.09208836 0.036773883 0.024425393
000290 7b 4a d8 bd 1b 8e 3f be b1 1b b5 bc 96 0d 31 3d
       -0.10561081 -0.18706553 -0.02210793 0.043225847
0002a0 c4 f2 2b 3c 96 46 74 bd 35 d9 9f 3d d9 71 33 3d
       0.010494892 -0.05963763 0.07805101 0.043809745
0002b0 93 5f 0c be 0d b5 a1 bd 91 4d a8 3c 18 8a ac 3d
       -0.13708334 -0.07895861 0.020544799 0.08424777
0002c0 a9 36 36 bd 63 b5 81 3d 6c 79 bd bd 52 4f eb 3d
       -0.04448572 0.06333425 -0.09251675 0.114897385
0002d0 cb 70 dd 3d 3d 45 4c 3d ee 42 ac 3d 8f ef d9 3c
       0.10812529 0.04987072 0.08411203 0.026603488
0002e0 33 b1 a1 bd ac 18 b5 3c 7e b0 8a 3d b0 14 95 bd
       -0.07895126 0.022106491 0.067719445 -0.072793365
0002f0 29 ca 03 3e c9 df 07 bd 76 82 0d be ba 56 0b bd
       0.12870087 -0.033172403 -0.13819298 -0.034018256
000300 b3 eb e2 bd d8 d3 fe 3d d6 63 8c bd 28 11 f9 bd
       -0.11080112 0.1244275 -0.0685498 -0.121614754
000310 d4 6e f4 bb ed 4a cf bd 74 9c c2 bd 63 00 71 3d
       -0.007459501 -0.10121713 -0.09502497 0.05883826
000320 f9 66 b7 bd 29 20 4d 3d c0 6b df 3c 53 66 3f bd
       -0.08955187 0.0500795 0.027273059 -0.046728443
000330 89 b1 cf 3c 71 8c 7c bd ce 91 bb 3d 9d e8 74 3d
       0.02535321 -0.061657373 0.091586694 0.05979215
000340 d1 17 38 bc b2 1c b9 3d 6e ba ef bd 69 a9 dc bc
       -0.011236147 0.09038676 -0.117054805 -0.02693625
000350 1b 6e 31 bd 9b b8 21 be b2 0e 15 3d 50 db db bc
       -0.043317895 -0.15793078 0.036390968 -0.026837975
000360 37 f9 67 bd 48 67 0a be 7f 6a 88 3c 01 24 c7 bd
       -0.056634154 -0.13515961 0.016652344 -0.09723664
000370 d6 2b eb bc 6c 61 83 3d 13 69 09 3e 73 2d cf 3d
       -0.028707426 0.06415066 0.13418989 0.101160906
000380 af 04 37 bd d1 8c 9c bd 07 39 ac 3d 37 0f 46 3d
       -0.0446822 -0.07644046 0.084093146 0.048354354
000390 72 9a d7 3d dc f4 a2 3d 00 d8 04 3e 5b 55 f0 bd
       0.10527505 0.079568595 0.12973022 -0.1173503
0003a0 33 c2 dc 3d 1e 4e 6c bd 4e 3e a3 bc ce fe 81 ba
       0.10779228 -0.057691686 -0.01992717 -0.0009917857
0003b0 7b 02 04 bd 92 6c 11 3d f4 71 c2 3d b7 bf 39 bd
       -0.032228928 0.03550393 0.09494391 -0.04534885
0003c0 2c cd 09 3d aa b5 c3 bd f8 51 eb bb 1a 00 c1 3d
       0.033642933 -0.09556134 -0.0071814023 0.094238475
0003d0 80 8d fa 3d 5d bd 97 3d af 85 91 3d 35 20 c2 bb
       0.1223402 0.07409165 0.07105576 -0.0059242495
0003e0 bd 19 4b 3d e7 1e 4c bd 04 65 15 3e 2f 8a 67 3d
       0.049585093 -0.04983416 0.14589316 0.056528267
0003f0 ec 31 c1 bd c0 e3 00 3e 5f bb 02 bc 13 10 47 3c
       -0.0943335 0.1258688 -0.007979243 0.0121498285

convs.0.fc_full.bias f4 [32]
000000 25 0a ff bc ca fc e8 3d d3 9a aa bd d9 23 04 3e
       -0.031132767 0.11376341 -0.083303116 0.129043
000010 bf 57 d1 bd cf ab b3 bd 86 70 cd 3c cb dd e3 bd
       -0.10221814 -0.08773004 0.02507807 -0.11126288
000020 7a 84 42 3d 76 37 bf bd 04 16 dd 3d 66 2b 0f 3e
       0.04748962 -0.0933675 0.10795215 0.13981399
000030 76 9f 72 3b 7a 9a cb 3c af 9f 04 3e 4d 3f 97 3d
       0.0037021316 0.024853934 0.1295154 0.073851205
000040 0e bb 08 be 68 d1 86 bc c3 f0 03 be b6 fc bb 3d
       -0.13352606 -0.016457275 -0.12884812 0.0917906
000050 05 d1 d2 bc c3 c7 9f bb dc cf 8f bd 13 93 ae bd
       -0.025734434 -0.0048761084 -0.07022068 -0.08524146
000060 6b cc a8 3c 81 aa c7 3d af f2 95 bd a4 05 0d 3c
       0.020605287 0.09749318 -0.07321679 0.008607302
000070 a7 b3 04 3e ba 9b 9b 3d b2 5b a0 3c 5d 1d 16 3e
       0.12959157 0.07598062 0.019574974 0.14659639

convs.0.bn1.weight f4 [32]
000000 19 97 78 3f a9 b4 84 3f a9 87 82 3f fb 41 79 3f
       0.97105557 1.0367633 1.019765 0.97366303
000010 3a 0e 85 3f 69 e0 72 3f b4 37 7b 3f 12 9c 87 3f
       1.0394967 0.9487367 0.9813187 1.0594504
000020 79 6f 84 3f e7 c3 85 3f 6a b4 82 3f b1 59 86 3f
       1.0346519 1.045041 1.0211308 1.0496122
000030 8b 68 76 3f 8f 3b 82 3f 54 da 72 3f d7 3a 89 3f
       0.9625327 1.0174426 0.9486439 1.0721081
000040 74 78 81 3f a6 99 82 3f 6f 2e 84 3f 1c f1 82 3f
       1.0114884 1.020314 1.032667 1.0229831
000050 99 6b 7a 3f 35 aa 83 3f f7 a0 81 3f 80 23 6f 3f
       0.9782043 1.0286318 1.0127248 0.93413544
000060 40 1e 76 3f e6 eb 75 3f 0a 17 71 3f 61 89 7a 3f
       0.9613991 0.9606308 0.9417578 0.97865874
000070 fa 84 83 3f a2 59 74 3f f3 09 85 3f 3c c4 80 3f
       1.0274956 0.9544927 1.0393661 1.0059886

convs.0.bn1.bias f4 [32]
000000 2d 86 b6 3c 4a 83 17 3d 5c 15 39 38 8b af 18 3d
       0.022280777 0.03699044 4.412733e-05 0.037276786
000010 23 c8 bb bb 8d 39 73 3c 1a 24 ad 3c 3b 01 b5 bc
       -0.0057306453 0.014845264 0.021135379 -0.022095313
000020 38 3e c0 bc a7 b4 4a 3d 8d 9e 1a 3c 3d 3c ee bc
       -0.023467168 0.04948869 0.0094372155 -0.029081458
000030 44 16 1f 3d 57 df d8 3c fc 18 b0 bc 21 45 84 bc
       0.038839594 0.026473684 -0.021496288 -0.016146244
000040 06 81 20 3d 27 3c c9 bc 69 4b 5f bd 02 78 4e bc
       0.039185546 -0.024564816 -0.054515276 -0.012601854
000050 d8 c0 91 3c 15 ba 0c 3a 65 27 a9 bc 91 ca 4f 3d
       0.01779215 0.00053683046 -0.020648668 0.05073029
000060 91 89 f4 3c 8c 15 14 3c 41 86 a2 3d 29 99 f3 3c
       0.029850753 0.00903834 0.07935763 0.029736118
000070 1c d9 96 bc 0b 77 db 3c 29 74 5f bd 35 ad 38 b9
       -0.018414073 0.026790163 -0.05455414 -0.00017612132

convs.0.bn1.running_mean f4 [32]
000000 34 84 6d 3e f5 34 d0 3d 05 14 eb be ba 5b 04 be
       0.23194963 0.10166351 -0.4591371 -0.12925616
000010 97 ad 0d bf a3 75 29 3e ac 77 7f 3f 1d 7d 12 3f
       -0.55343 0.16548781 0.9979198 0.5722216
000020 33 0f 04 bf 76 5c 2b 3f 41 1e 18 be 6c 89 02 3e
       -0.5158569 0.6693796 -0.14855291 0.12747735
000030 be 84 5c bd b9 61 bd 3e 7f b8 9b 3e be d4 17 3e
       -0.05383753 0.3698862 0.30414197 0.14827248
000040 fa e3 a2 be 50 c3 44 bf 13 84 74 bf ec 93 5d be
       -0.31814557 -0.76860523 -0.9551403 -0.21638459
000050 b4 b1 24 3e ff 20 ea 3e e0 40 2c 3e 98 70 a7 be
       0.16083413 0.457283 0.16821623 -0.3270309
000060 a0 ee 41 bf 66 72 de 3e 23 5f dd 3e b1 99 88 be
       -0.7575474 0.43446654 0.43236646 -0.26679757
000070 a9 33 52 3e 63 f0 8b be 54 55 8c bd 69 c4 1c bf
       0.2052752 -0.27331838 -0.068522125 -0.612372

convs.0.bn1.running_var f4 [32]
000000 eb a4 01 3c 11 fc 55 3b 0b 57 0e 3c 8f de 20 3c
       0.007912855 0.0032651464 0.008687745 0.009818687
000010 4b a9 46 3c 33 0d 32 3c f7 2b 93 3c 27 ab 07 3c
       0.0121253235 0.010867405 0.0179653 0.008280552
000020 28 20 ce 3b 61 9c 97 3c 7d ab b3 3b cc 46 57 3c
       0.0062904544 0.018507184 0.0054830895 0.013139438
000030 4a b0 48 3c fd 0a 09 3c 87 af d2 3c 83 37 8a 3b
       0.012249062 0.008364436 0.025718464 0.0042180433
000040 e3 aa 2c 3c 3d 4e 36 3c 10 cb cb 3b 19 c6 a9 3c
       0.010538789 0.011127052 0.0062192753 0.020724343
000050 61 ed f6 3b 31 ca 6f 3c 93 c2 af 3c e4 5c 5d 3c
       0.007535622 0.0146356085 0.021455085 0.013510916
000060 f1 f2 4a 3c 82 19 76 3c 3d 85 a9 3c 68 f7 8d 3c
       0.012387023 0.01502073 0.020693416 0.017329887
000070 a4 86 1d 3c 55 a2 44 3c 8a 0b 73 3c 0b 8b 57 3c
       0.00961462 0.012001594 0.014834294 0.013155709

convs.0.bn2.weight f4 [16]
000000 c0 e9 84 3f 3a f9 78 3f 6b 14 87 3f f4 41 84 3f
       1.0383835 0.9725529 1.0553106 1.0332627
000010 eb cc 75 3f 48 89 7d 3f cf 03 81 3f da 5a 77 3f
       0.96015805 0.990376 1.0079287 0.96623003
000020 d8 69 83 3f 96 bc 80 3f 82 92 7e 3f 8f af 83 3f
       1.0266676 1.0057552 0.99442303 1.0287951
000030 f3 92 7f 3f de 70 77 3f e6 f4 7e 3f 8b 04 87 3f
       0.998336 0.96656597 0.99592435 1.0548261

convs.0.bn2.bias f4 [16]
000000 6a ec 28 3d 1b 9b e1 ba d3 72 6f 3d e2 79 45 3d
       0.041241087 -0.0017212363 0.058459114 0.04821194
000010 b8 54 95 bc c4 b3 40 bc 26 bc cd 3c ac 02 d0 3b
       -0.018228874 -0.011761609 0.02511413 0.0063479748
000020 58 76 60 3d 0a d5 ab 3c 2d 83 18 3d 62 14 f1 3c
       0.05480036 0.020975608 0.037234474 0.029428665
000030 d9 81 6a 3d 31 fc 89 bd d8 1e 02 3d 55 d1 91 3d
       0.05725274 -0.06737555 0.031767696 0.07120005

convs.0.bn2.running_mean f4 [16]
000000 ce 36 ac 40 8e fc 9e 40 a4 be ac 40 57 28 9e 40
       5.38169 4.9683294 5.3982716 4.9424243
000010 66 e8 9b 40 4e a0 9d 40 1b 85 af 40 bc 9d a7 40
       4.872119 4.9258184 5.484998 5.2380047
000020 7a 7e 93 40 ac 69 b9 40 55 90 91 40 26 c2 99 40
       4.609189 5.7941494 4.5488687 4.8049498
000030 5f df 9a 40 b4 c4 b2 40 2b 0d ab 40 00 0a a1 40
       4.839767 5.5865116 5.3453574 5.0324707

convs.0.bn2.running_var f4 [16]
000000 f3 b0 17 41 71 ec a0 41 4e 11 42 41 fa b1 2b 41
       9.4807005 20.11545 12.129225 10.730951
000010 80 1d a0 40 65 92 ce 3f b0 16 b0 41 08 dd ac 40
       5.003601 1.6138426 22.011078 5.4019814
000020 1a 3f 9f 40 23 4f 0f 41 78 5b ee 3f 47 91 ca 40
       4.976453 8.9568205 1.8621664 6.330234
000030 b3 f9 0f 41 ec 15 4d 40 c6 79 c6 40 f5 a9 72 40
       8.998462 3.204463 6.202365 3.7916234

convs.1.fc_full.weight f4 [32, 56]
000000 9a dc dd 3d e7 2d f6 3d 7e 53 e6 bb fa df dd bd
       0.10833092 0.12020474 -0.007028996 -0.10833736
000010 2f 3e b7 bc a4 5c a9 3c ef 69 d8 3d d4 97 2f be
       -0.022368519 0.020674057 0.1056708 -0.17147762
000020 c2 35 9a 3d 81 14 09 be 26 f4 38 3d ce 0e f4 3d
       0.07529785 -0.13386728 0.045154713 0.11916886
000030 ba 67 36 bd 22 da a8 bd 25 de 3c 3d a9 2c a3 bd
       -0.044532515 -0.082447305 0.04611029 -0.079675026
000040 b2 e6 45 bd 0e 54 c5 bd 55 d1 c4 3c 65 3e d7 3d
       -0.04831571 -0.09635173 0.024025599 0.10509948
000050 cc e3 ce 3c 86 dd de bd 90 bd 01 be 4e 8f 15 bc
       0.025255106 -0.10882096 -0.12669969 -0.009128405
000060 3e 15 c7 3d 56 18 af bd 0e 66 6e 3d af 7a 40 bd
       0.097208485 -0.085495636 0.058202796 -0.046992
000070 55 48 a4 3d fb fa 73 bd 14 a6 0e bd 22 8d 31 be
       0.08021609 -0.059565526 -0.034826353 -0.17338994
000080 23 fa 06 be 8a 7e 4f bc df 75 19 bd b8 50 5b 3d
       -0.13181357 -0.012664447 -0.037465926 0.053543776
000090 69 2f fd bd d7 2d 6a 3c 4b ea 20 bd c4 69 9b 3c
       -0.123625584 0.014293156 -0.03928594 0.018971331
0000a0 02 a3 a2 bd 70 60 0d 3d 39 3b 43 3d 1a 35 48 3d
       -0.079412475 0.034515798 0.0476639 0.048878767
0000b0 f5 3c d8 bd 8b c7 c7 3c 89 9f f4 bc 10 29 74 3d
       -0.10558502 0.024387142 -0.029861229 0.059609473
0000c0 3c e5 72 bc 1d 85 2d bd 5b ca b7 bd 10 0f ac bd
       -0.014825162 -0.042363275 -0.08974143 -0.084013104
0000d0 1e e8 72 bd 8f 20 ab bd 8d c3 fb bd f9 de 16 be
       -0.059303395 -0.083558194 -0.12293158 -0.14733495
0000e0 fc 17 b0 bc 73 dc 69 bd 58 52 c0 3d 28 80 93 bd
       -0.021495812 -0.057095002 0.09390706 -0.07202178
0000f0 26 ab 3f bd 4f 1b 02 be 41 fd f0 3c 8e 38 bc bb
       -0.04679408 -0.1270573 0.029417636 -0.0057440465
000100 62 d6 2d bd 99 f2 ba 3d 8a 46 9c bc 5d fd 80 bd
       -0.04244078 0.09128303 -0.019076604 -0.06298325
000110 c8 30 c6 3d da 9e 09 3e d6 50 65 3d 9a ca 57 3d
       0.09677273 0.13439503 0.055985294 0.05268345
000120 14 82 92 bc 1a ec 2b 3d 98 c4 a3 3d d3 f3 57 bd
       -0.017884292 0.04197321 0.07996482 -0.052722763
000130 00 4e 9a 3d 04 cb 75 3d 77 72 8b bd 18 cb 65 bd
       0.075344086 0.060008064 -0.06808942 -0.05610189
000140 db 86 c4 bd 56 59 60 3d 4c f4 f3 3d a3 bc c0 bc
       -0.09596034 0.054772697 0.1191183 -0.023527449
000150 98 62 43 3d 5d 6c 6b 3d 76 23 f9 3c 2b 51 f8 3d
       0.04770145 0.05747639 0.030412417 0.121248566
000160 47 62 3e 3d f7 8a d9 bd da 1f ff bd 64 8a 21 be
       0.046480443 -0.106222086 -0.12457247 -0.15775448
000170 52 44 a9 bc 9c 46 ca 3d c1 1e dc 3b 20 ca d8 3d
       -0.02066246 0.09876749 0.0067175333 0.10585427
000180 f2 9a 47 bd a3 ce ee 3a 9d 30 16 3e 4d dc ba 3d
       -0.04873175 0.0018219542 0.14666982 0.0912405
000190 1e 9e 98 bc 6e 5e d6 3d 04 75 d6 bd d4 37 c6 3d
       -0.018630084 0.1046723 -0.10471538 0.09678617
0001a0 4b 23 09 3e 4e 78 86 bd 1f 88 21 be 05 1d 2f 3d
       0.1339237 -0.06565915 -0.15774582 0.042752285
0001b0 f3 1b 45 bd 12 18 4f 3d 3c 51 06 3e 39 3a a0 bc
       -0.048122358 0.050560065 0.13116926 -0.019559013
0001c0 9a 77 27 3e 9f f9 1b bd 0c c4 b9 bd 48 98 fb 3d
       0.16354218 -0.038079854 -0.09070596 0.12284905
0001d0 ef bb d8 3c 87 73 74 3b d1 a6 b6 bd 3a c1 c2 3d
       0.026456801 0.0037300305 -0.089185365 0.09509511
0001e0 80 94 40 bd 1a d0 f9 3d 03 79 a4 bc 00 a5 94 3d
       -0.04701662 0.12197895 -0.020077234 0.07258034
0001f0 93 6e e7 3c 84 a7 c2 bd 81 0a ab bd 60 9b 39 be
       0.028250968 -0.09504607 -0.08351613 -0.18125677
000200 d8 72 eb 3d cf 20 76 3d 5a 1f 38 bd a2 ba 34 bd
       0.11496514 0.060089882 -0.044951774 -0.0441233
000210 e8 96 60 3b 30 4b 8e 3c 97 5d f8 3c e9 47 ef bb
       0.0034269635 0.017369837 0.030318065 -0.0073022735
000220 60 9b a5 bd 2f f8 da 3d 68 b9 a0 bd a5 7c fe bd
       -0.08086276 0.106918685 -0.078478634 -0.12426118
000230 b5 a8 a4 bd ef 85 95 3d 1a 65 46 3d 50 78 e8 bc
       -0.08039991 0.073009364 0.04843626 -0.028377682
000240 18 3c 9c bd 6a 38 45 bd 56 56 c7 bc c8 0b 77 bd
       -0.076286495 -0.048149504 -0.02433316 -0.06031397
000250 ab 7b e2 bd fa 2a e7 3c d1 65 12 bd 29 ce be bd
       -0.11058744 0.028218735 -0.03574163 -0.09316666
000260 87 75 97 bd 52 58 a1 bd 00 c0 69 bd d1 c2 a2 bd
       -0.073954634 -0.07878174 -0.05706787 -0.079473145
000270 69 1b 4f 3c 64 85 53 3d ad 77 db bd af 2f 07 bd
       0.012640812 0.051640883 -0.10716186 -0.03300446
000280 0e 60 45 bd 79 61 8b bd fa 53 0b bc 7e f4 67 bd
       -0.048187308 -0.06805701 -0.008503908 -0.05662965
000290 63 88 d3 3b ec 84 9b 3b 1a 89 07 3e 1a 4a 72 3e
       0.0064554675 0.00474607 0.13235894 0.2366108
0002a0 8c 30 02 3e 16 c9 f3 bc 35 8f 52 3d 1f 26 c9 bd
       0.12713832 -0.029758971 0.051406104 -0.09821724
0002b0 b0 29 d3 3d b0 dc 1c be fd 12 01 be 04 e1 f7 bd
       0.10310686 -0.1531856 -0.126049 -0.12103465
0002c0 c4 71 13 be 52 8c 2b 3b 86 58 9d bb ed 75 fd b9
       -0.14398867 0.0026176167 -0.0048018126 -0.00048343782
0002d0 01 4e c0 bc 87 ad 46 bd 9d 12 a7 bd 2d 72 17 be
       -0.023474695 -0.048505332 -0.08157847 -0.14789648
0002e0 f5 9d ed bd 2a d9 00 3d e2 00 c5 bd 9d 9d f6 39
       -0.116023935 0.031457104 -0.09619309 0.00047038207
0002f0 ec 20 3f 3d d1 12 7f bc 64 88 82 bd cb 46 ef bd
       0.046662256 -0.015568451 -0.06373671 -0.116834246
000300 5b 1b 89 bd ff 41 c6 3d b5 2f 6c 3c 38 b0 d0 3d
       -0.06694671 0.096805565 0.014415671 0.10189861
000310 08 28 a5 3c 91 9f 01 3d 24 12 ce bd 99 d2 98 3c
       0.02016069 0.031646315 -0.10062054 0.018655108
000320 47 2f d1 bd a0 dd 26 be 65 01 cb bd d3 5d a7 3c
       -0.102140956 -0.1629548 -0.09912375 0.020430481
000330 1f 19 82 bd f9 c8 3f bd 8f 24 d9 3b b3 ef 2b bd
       -0.06352448 -0.04682252 0.0066266726 -0.041976642
000340 14 7b 12 3e 37 dd d5 3d 03 50 2f be 53 dd 0d be
       0.14304763 0.10442584 -0.17120366 -0.1385396
000350 08 3f ce bd 23 dc 6b 3d 98 d8 30 3d 1d e1 e8 3d
       -0.10070616 0.057582986 0.04317531 0.11371062
000360 3b 67 df 3c 61 68 b3 bd d4 0c c2 bd 94 b3 e3 bd
       0.027270904 -0.08760143 -0.09475103 -0.11118236
000370 20 cd 1e bd 3d 35 a2 3c 4d 74 ff bc 39 57 08 be
       -0.03876984 0.019800777 -0.031183386 -0.13314523
000380 f6 5a 2e be 90 ea 5d 3d 30 ec 9d bd 02 01 49 bd
       -0.17026886 0.054178774 -0.07711065 -0.049073227
000390 95 63 83 bd f0 e3 0b 3e 2e 50 6f bc c6 9a 90 bd
       -0.06415478 0.1366117 -0.014606519 -0.07060771
0003a0 f8 1f f0 bd ec ba 72 3d c5 07 d3 bc e6 f4 0a bc
       -0.117248476 0.059260294 -0.02576054 -0.00848124
0003b0 f2 81 89 3c 0e c5 26 bb 2a 62 49 3d a6 3b 2c bc
       0.016785596 -0.0025447044 0.049165882 -0.010512268
0003c0 b7 65 37 ba a6 28 2a 3d 7b 11 a5 bd d4 35 1b 3c
       -0.00069960527 0.04154267 -0.08059975 0.009473283
0003d0 60 fa c2 3d ef de fc bd a8 e1 a5 bd c2 a3 2b be
       0.095204115 -0.12347209 -0.08099681 -0.16761687
0003e0 a2 b4 51 bb d4 8f e6 bd a7 01 12 be 23 a4 d3 3d
       -0.0031998535 -0.11257902 -0.14258443 0.10334041
0003f0 2e ce 76 3d 74 4d e6 3c d2 10 7a 3d 2d 27 05 be
       0.060255222 0.028113104 0.061051197 -0.13003226

convs.1.fc_full.bias f4 [32]
000000 d8 be 5a bd c6 06 e6 3d 1f 91 14 3d e8 ec 81 bd
       -0.05340466 0.11231761 0.03627121 -0.063440144
000010 e9 c4 c7 bd 1a f9 02 3e 73 7c be 3d 41 96 bb bd
       -0.097543545 0.12790337 0.093010806 -0.09159518
000020 af ee ff 3a 69 48 46 bb 9b aa 33 3d 11 b2 ca bd
       0.0019526089 -0.0030255562 0.043863874 -0.09897245
000030 9d 08 85 3c 5e 67 2d 3d 86 dc 97 3d 85 d5 b4 3c
       0.016239459 0.042334907 0.074151084 0.02207447
000040 7e f4 a1 bd b4 c1 e5 bd 5a 79 b3 3d e2 db d2 3d
       -0.07907961 -0.112185866 0.0876338 0.102958456
000050 80 62 83 bd 1d df e8 bd b4 34 5f 3d 44 d8 e5 bd
       -0.06415272 -0.113706805 0.05449362 -0.1122289
000060 14 47 b7 bd c2 ab bd 3c dd 59 aa bc 19 8b 05 bd
       -0.08949104 0.02315319 -0.020794803 -0.032603357
000070 ee 07 11 3e e1 3e 88 bc 11 2a d1 3d bb 1f 02 bd
       0.14163181 -0.016631545 0.10213102 -0.03176854

convs.1.bn1.weight f4 [32]
000000 13 5d 8a 3f 25 3c 87 3f 0f 52 91 3f e2 b0 7e 3f
       1.0809654 1.056523 1.1353167 0.9948865
000010 39 f0 7e 3f e1 c5 88 3f f7 48 85 3f b2 59 82 3f
       0.995853 1.0685388 1.0412892 1.0183623
000020 8b 88 85 3f 2a 07 7c 3f b2 7b 7d 3f 8a 54 83 3f
       1.0432295 0.9844843 0.9901687 1.0260174
000030 c9 1c 88 3f fb 80 83 3f d1 a2 83 3f 3e fd 7f 3f
       1.0633785 1.0273737 1.0284063 0.9999579
000040 59 63 83 3f 96 19 77 3f 6d 54 79 3f cb 6c 82 3f
       1.0264693 0.96523416 0.9739445 1.0189451
000050 6f a8 82 3f bc e4 79 3f 00 cf 7d 3f a1 6f 7f 3f
       1.0207652 0.97614646 0.9914398 0.9977971
000060 29 0d 85 3f 98 a8 86 3f ed 2f 8a 3f 9a ca 84 3f
       1.0394641 1.0520201 1.0795876 1.0374329
000070 2e c8 7c 3f 8a 40 7e 3f 4e da 72 3f 29 fa 7a 3f
       0.9874295 0.9931723 0.94864357 0.98037964

convs.1.bn1.bias f4 [32]
000000 c1 04 ed 3a 4b b4 ea bc 4d e9 25 3c 3a ff 53 3c
       0.0018083082 -0.028650424 0.010126424 0.012939269
000010 e4 f2 12 bd 15 d5 1c 3c 92 95 3c bd e3 6f c0 bc
       -0.03587617 0.009572287 -0.04604108 -0.023490852
000020 1c ce f0 bc 21 9e d7 3c 73 1d f0 3c de 87 b9 bb
       -0.029395156 0.026320519 0.029310917 -0.0056619486
000030 94 bd 2e b9 bd 27 66 bd 7d ed e3 3c 91 a9 99 bb
       -0.00016664556 -0.05619024 0.027823204 -0.0046894033
000040 a1 ec 31 bc 8d 6a 2f 3d 6b 53 5f 3d 26 de e2 bc
       -0.010859639 0.042826224 0.054522913 -0.02769382
000050 ce 8a 2f bd 30 22 dd 3c ed 39 0a 3b 9b 59 00 ba
       -0.042856984 0.026993841 0.0021091655 -0.0004896165
000060 e3 74 a9 bc 39 56 76 bc 0c 26 0c bd c8 5e 40 bd
       -0.020685619 -0.0150352055 -0.03421597 -0.04696539
000070 40 5f 0d 3c b1 f7 43 bc d0 ca 5a 3d 4d 5d a7 3c
       0.008628666 -0.01196091 0.053416073 0.020430231

convs.1.bn1.running_mean f4 [32]
000000 5b 22 32 bf fb 68 df 3e 56 ea 38 bf 43 14 b7 bf
       -0.6958367 0.4363478 -0.7223257 -1.4303058
000010 d7 5f 55 bf 88 d9 42 bf 3a 29 60 3f ff bc f8 3e
       -0.83349365 -0.76113176 0.87562907 0.48581693
000020 fc 23 a3 be 85 c3 05 3d 4f e5 bf 3e 8d 52 27 bf
       -0.3186339 0.032657165 0.37479636 -0.6536034
000030 18 6f 8f 3b f0 d3 a5 3d dd ce 3b 3e 41 f7 11 be
       0.004377257 0.080970645 0.18340631 -0.14254476
000040 44 27 59 bf 63 5d d8 be db 2c 8b bc 6a 39 8c bf
       -0.8482554 -0.42258748 -0.016989162 -1.0955021
000050 4f b9 2d 3f d3 46 1c 3f 37 a4 11 be 6a 30 7c 3f
       0.67860883 0.6104557 -0.14222799 0.98511374
000060 7a 5b a2 bf a5 fe e8 be a6 39 a5 3e da bb cd be
       -1.2684166 -0.45506778 0.32270545 -0.40182382
000070 63 8d 86 bf 70 39 5f 3c d6 38 2e bf 2c 9f d6 3e
       -1.0511898 0.013624534 -0.68055475 0.41918314

convs.1.bn1.running_var f4 [32]
000000 03 b6 8c 3d d0 f4 aa 3d 94 67 b9 3d be 74 b7 3d
       0.068706535 0.083474755 0.09052959 0.08957814
000010 d1 35 45 3d e6 3c 4a 3d 5d 30 a2 3d 04 d9 98 3d
       0.048147026 0.049374484 0.07919381 0.074632674
000020 3a f8 90 3d 83 0d 9e 3d 4d 9b a9 3d 0e 96 77 3d
       0.070785955 0.07717421 0.082815744 0.060445838
000030 cb 3a d5 3d a5 e5 22 3d 8c 1f 20 3e f6 d9 ce 3d
       0.104116045 0.039769787 0.15637034 0.101001665
000040 5c 81 af 3d 45 0e 07 3e 8e 77 0e 3e ea b2 08 3e
       0.08569595 0.13189037 0.13912794 0.133495
000050 38 97 4c 3d 48 5b 6f 3d 75 5a 99 3d 5a 0a 52 3e
       0.0499489 0.058436662 0.074879564 0.20511761
000060 63 9b 25 3d 7c 8e 53 3d 89 36 46 3d 65 e5 ac 3d
       0.04043139 0.051649556 0.048391853 0.08442191
000070 5a 29 ce 3d 1b 1e 5d 3d 2b 53 45 3e bc 59 09 3e
       0.10066481 0.05398379 0.19270007 0.13413137

convs.1.bn2.weight f4 [16]
000000 61 7a 85 3f d7 58 85 3f 15 41 84 3f 3b 61 82 3f
       1.0427972 1.0417737 1.0332361 1.0185922
000010 db 0e 88 3f 77 d1 7f 3f 65 01 79 3f ef 21 84 3f
       1.0629534 0.99928993 0.9726775 1.0322856
000020 d8 33 86 3f 44 ff 82 3f dd dd 83 3f 2f 0f 82 3f
       1.0484571 1.0234151 1.0302082 1.0160884
000030 d4 77 86 3f f4 85 82 3f b1 1e 80 3f b6 b4 82 3f
       1.0505319 1.0197129 1.0009366 1.0211399

convs.1.bn2.bias f4 [16]
000000 af be b3 3c 6c 7d 0a 3d bb 11 94 3d 61 48 57 3d
       0.021941511 0.033811018 0.07229944 0.05255926
000010 ac 44 9a 3c 0e 5d 0f 3d 67 ce 4a 3a 2f 9f 23 3d
       0.018831573 0.035000853 0.0007736445 0.03994673
000020 6d e6 49 3d 41 2b 3a 3d 57 59 ad 3c a6 9c fe 3c
       0.049292017 0.045451406 0.021160765 0.031080555
000030 93 6a 6a 3d 32 dd 4d bd 65 da 48 3d c0 36 33 3d
       0.057230543 -0.050259776 0.049036402 0.043753386

convs.1.bn2.running_mean f4 [16]
000000 81 c5 a9 40 1a 87 8d 40 c7 3d 9c 40 64 fa a7 40
       5.3053594 4.422742 4.882541 5.2493153
000010 ef 06 86 40 3e 61 91 40 9d 91 ae 40 21 0b 8a 40
       4.1883464 4.5431204 5.455275 4.3138585
000020 f4 44 90 40 61 ba 86 40 4b 6d 91 40 d2 1d a0 40
       4.508417 4.2102513 4.5445914 5.00364
000030 11 21 9e 40 6d ed a7 40 da 59 ad 40 bd 70 8b 40
       4.9415364 5.2477326 5.417218 4.357512

convs.1.bn2.running_var f4 [16]
000000 08 67 72 41 ea 97 87 40 a9 fe b4 40 80 cd c0 41
       15.150154 4.237294 5.6560864 24.100342
000010 9f 02 73 40 9e 09 7f 40 8d 92 33 41 4a 6e c0 3f
       3.797035 3.984962 11.223279 1.5033658
000020 bc c6 a6 40 ee 45 1d 40 3c fb 55 40 dc 0d 8b 40
       5.2117596 2.4573932 3.3434591 4.345442
000030 5b 39 01 41 d0 58 ba 40 88 b7 f6 40 a3 ab b7 40
       8.076503 5.8233414 7.7099037 5.7397017

convs.2.fc_full.weight f4 [32, 56]
000000 9f 1f 01 3e 42 b6 0e 3d 5e 04 e1 3d a8 7d 1d 3d
       0.12609719 0.034841783 0.10987161 0.038449913
000010 fd ef 77 bd c0 8c 3d 3d 74 2d 7c 3d 8d 71 aa 3c
       -0.060531605 0.046276808 0.061566785 0.020806098
000020 e2 96 d2 3d cd 4d 85 bd cd 2a 39 3d 1f ed ce bd
       0.10282685 -0.0650898 0.045206834 -0.10103821
000030 3a bc cb 3d 4f 8e 32 3d ee e8 0c 3c f5 da 3f be
       0.09948011 0.043592747 0.008600457 -0.18735869
000040 c0 ce 14 3e 15 6f 8e 3d 1f ec ac 3d 6b fc 36 3d
       0.14531994 0.06954781 0.08443474 0.04467432
000050 ed 9f 36 3c 6d 2d 33 bc a6 cc 00 be 55 a8 f7 3d
       0.011146528 -0.010936123 -0.12578067 0.12092654
000060 51 88 89 3a 10 18 55 3d cc cb 08 3d 5e f6 03 3b
       0.0010492896 0.0520249 0.03339748 0.002013586
000070 ba 18 0c be 82 27 ff bd 36 dc 5e bd 62 87 ec 3d
       -0.13681307 -0.124587074 -0.05440923 0.1154926
000080 11 b0 7a 3d ad a8 32 be bc fa e3 bd 37 c3 6a bd
       0.061203066 -0.17447157 -0.11131808 -0.057315078
000090 62 1a 39 3c 6e 47 e3 3d 9f aa 27 bd 98 ad 33 be
       0.011297794 0.110976085 -0.0409342 -0.1754669
0000a0 1a e7 0d bd 8f 45 a7 bd b8 2a 99 bd 24 2a 08 3d
       -0.034644224 -0.08167564 -0.07478851 0.033243313
0000b0 13 93 b7 bd 17 a7 a9 3c 29 70 a1 3d 36 25 5e 3d
       -0.08963599 0.020709557 0.07882721 0.054234706
0000c0 a8 01 26 3e e7 eb 60 b9 89 92 66 3d 48 d9 ae 3b
       0.1621157 -0.00021450185 0.05629209 0.0053359605
0000d0 0a 6a b4 3d 8b 0b 19 3d e1 25 2f be 54 24 f1 3d
       0.08809288 0.037364524 -0.17104293 0.11774507
0000e0 23 7a 4d 3d 11 81 fb bd d6 8b 63 3d 22 cd fd bd
       0.050165307 -0.12280477 0.05555328 -0.123926416
0000f0 00 79 ee 3c 02 86 e1 bb 37 79 fb bd af 3a 4a 3c
       0.029110432 -0.00688243 -0.12278979 0.012343093
000100 85 2b 8e bd d1 7f 0c 3e ff 0e 0a 3e c2 e9 2d 3d
       -0.069418944 0.13720633 0.13482283 0.042459257
000110 f6 59 93 3d 19 6b be 3d 41 88 02 3e 4c 76 41 bd
       0.07194893 0.09297771 0.12747289 -0.047231957
000120 60 96 e7 3b d6 75 9c 3c e5 a7 30 3d 33 89 a3 3c
       0.0070674866 0.019099157 0.043128867 0.019962883
000130 96 df bb bd 32 ee d4 3c 38 1d 5e 3d e8 39 ec bd
       -0.09173505 0.025992487 0.054227084 -0.11534482
000140 47 2a e7 bd f1 b5 01 3d ca 78 15 be 6a 42 78 3c
       -0.11287361 0.031667653 -0.14596859 0.015152553
000150 da 02 2b be 9f 5a ec 3d 3a cf 91 3c b5 f7 f9 bd
       -0.16700307 0.11540722 0.017799009 -0.122054495
000160 f3 39 e0 bd 59 fe 4e bd b8 61 f5 3d 6d 7f 64 bd
       -0.10948553 -0.050535534 0.11981529 -0.055785585
000170 83 f5 f3 bc f9 b9 ac bc 61 58 55 3d da 29 a5 3c
       -0.029780155 -0.021084772 0.052086238 0.020161558
000180 64 33 91 3d b9 c8 c3 bd e3 cb 88 ba f7 05 0e 3e
       0.0708988 -0.09559769 -0.001043674 0.13869463
000190 ec 26 23 3c d4 ca e4 3d 9d 53 8a 3d f1 b0 aa bd
       0.00995801 0.11171499 0.06754229 -0.0833453
0001a0 0f 59 dd 3c a8 a0 9b bd 5c f4 49 3d 8b 13 1b 3d
       0.027020006 -0.07599002 0.049305305 0.037860435
0001b0 e7 fd f1 3d 73 c9 c0 3d a2 c2 b3 3d 98 e5 a2 3d
       0.11816006 0.094134234 0.08777358 0.07953948
0001c0 9a dc 01 be a4 43 c6 3a 2c 8b d0 bd 8f c6 18 bd
       -0.12681809 0.001512636 -0.10182795 -0.037298735
0001d0 b7 59 b8 bc 67 2f 49 bc 2d 31 35 3d f8 4c c0 bd
       -0.022503717 -0.012279368 0.04423635 -0.093896806
0001e0 2b f3 b6 bd b4 21 1e 3d ea f7 f2 bd 2a 1e 10 bc
       -0.08933099 0.03860636 -0.11863692 -0.008796254
0001f0 55 6c 17 3d 5d 32 3e bd 89 b7 78 3d dd 50 68 3d
       0.036968548 -0.04643475 0.060721908 0.056717742
000200 97 34 af bd b2 82 5f 3d 0e 5e b4 bb 68 07 01 bd
       -0.085549526 0.054568 -0.0055043763 -0.031501204
000210 41 47 cd 3c 81 b9 01 3e f3 61 fc 3d c1 63 ce bd
       0.02505839 0.1266842 0.1232337 -0.1007762
000220 2f c1 08 be 6c 57 10 3e 75 ee 4a 3d a4 e5 40 bd
       -0.13354944 0.14095849 0.049543817 -0.047094002
000230 9b 72 08 3e 0b 64 66 3d 59 a1 2f 3d a1 98 18 3e
       0.13324969 0.056247752 0.042878482 0.14901973
000240 0b 38 95 bd 12 e9 39 3d 2d 46 ec bd 8b ce 6c bd
       -0.0728608 0.04538829 -0.115368225 -0.057814162
000250 c9 34 6d 3d 26 79 99 bd aa 7b 82 bb 47 4a 6e bd
       0.057911668 -0.0749381 -0.003982027 -0.058176305
000260 e2 41 39 3d 92 fc 25 3c af 76 39 3d 7f c0 b2 bd
       0.045228846 0.010131018 0.0452792 -0.08728122
000270 99 ce a4 bc a4 a8 fb 3d 44 c2 2e 3e c3 84 0b 3e
       -0.020118045 0.12288025 0.17066294 0.13624863
000280 1f 6a db bd b5 70 4e bd 0e 12 3c bd 54 fd e1 bc
       -0.107136 -0.050400455 -0.045915656 -0.027586617
000290 be 3f 9e 3d d6 46 29 3d 15 e5 cd bc 9f b0 bc 3b
       0.077270016 0.04132732 -0.025133649 0.0057583596
0002a0 92 74 9f 3b f1 bf ed 3d 5d d8 c7 3d 13 0b ad bd
       0.004866191 0.116088755 0.09758065 -0.08449378
0002b0 51 b8 db bc 80 0c c7 3b 21 17 4b bc f8 b9 c3 bd
       -0.026821287 0.006074488 -0.012395651 -0.09556955
0002c0 37 01 f6 bd e9 51 a3 3d be 83 75 bd 12 bd d9 bd
       -0.120119505 0.079746075 -0.059940092 -0.106317654
0002d0 88 b6 b0 bb af cb fd 3d d1 d2 c8 3d e7 ed 82 bc
       -0.005392853 0.12392365 0.09805835 -0.015982581
0002e0 b2 de df bd dd 5b 00 3e 20 7c 41 3d 66 d8 4d 3d
       -0.10931148 0.12535043 0.047237515 0.0502552
0002f0 ae 40 43 3d 77 78 98 bc 36 07 b8 bd 13 0b 31 bc
       0.047669105 -0.01861213 -0.089857504 -0.010805863
000300 6c bc 8b bd 1a 08 29 bc ad 20 c0 bd dd a9 45 3d
       -0.06823048 -0.010316873 -0.093812324 0.048257697
000310 b1 73 12 be e5 16 0f be d9 8a a0 3d 4f d7 af bd
       -0.14301945 -0.13973577 0.07838983 -0.08585989
000320 79 be d1 3d 67 71 b0 3d 8f 64 dd bd 2a 7f 5a bd
       0.10241408 0.0861538 -0.10810196 -0.05334393
000330 0c ac eb bd 4b 97 62 bc 48 67 8b bc f5 77 0e be
       -0.11507425 -0.013830016 -0.017017022 -0.13912947
000340 ce f2 53 3c 60 57 60 bc af 0c 65 bd 25 f7 29 bd
       0.012936307 -0.013692707 -0.0559203 -0.04149546
000350 1e 3c 48 be 70 2c f9 bd dd 96 5f 3c 0b 3f 21 3e
       -0.19554183 -0.12166679 0.013646808 0.15746705
000360 6d 97 be bc 38 b9 04 3e a1 9d c0 bb 75 7e 6b bd
       -0.023265565 0.1296128 -0.005878166 -0.057493646
000370 af ac c1 b9 87 42 b1 3c c5 88 5e bc b7 b4 03 3e
       -0.00036940488 0.021638168 -0.013582413 0.12861906
000380 f8 b5 39 bd ca f4 8e bd e9 4c 1c 3e b2 cf 35 bc
       -0.045339555 -0.069802836 0.15263714 -0.011096882
000390 4a ca 14 3d a9 53 50 3d b4 89 98 3b a6 08 09 be
       0.03632573 0.050861035 0.0046550874 -0.13382205
0003a0 2c cc 8d bd d3 96 10 3d b8 15 50 3d eb f1 82 3d
       -0.06923708 0.035300087 0.050801963 0.063937984
0003b0 e6 bd 29 be f2 b4 f3 bc 05 dc d0 3d b5 cd 93 3d
       -0.16576347 -0.029749367 0.101982154 0.0721697
0003c0 f6 1a 8e 3d e9 fa 1f 3e 0a 8d 1f bd aa 97 dd bd
       0.06938736 0.15623058 -0.038952865 -0.10819943
0003d0 27 a0 4f bc 28 e7 7b 3d 11 5a 34 bd 08 62 82 3c
       -0.012672461 0.061499745 -0.044031207 0.015915886
0003e0 6c 86 21 3d 2e fb 92 3d 75 47 b9 3d 71 c1 1f 3e
       0.039434835 0.07176815 0.090468325 0.15601136
0003f0 28 f9 af 3c 5b 34 f0 3c 6e 4a e1 bc 40 ac 1b bd
       0.021481112 0.02932184 -0.027501311 -0.038006067

convs.2.fc_full.bias f4 [32]
000000 2f e0 09 3e c2 d4 fb bc d8 90 01 be bc 42 60 bd
       0.13464426 -0.0307411 -0.1265291 -0.054751143
000010 92 5c 5e 3d a4 1d 7d 3d 26 5a bd bd 52 11 b6 bd
       0.0542875 0.061795846 -0.0924571 -0.08890022
000020 2b a4 08 bd ee cf fa 3c 91 66 f3 bd 9e b3 8e 3d
       -0.033359688 0.030616727 -0.11884797 0.06967853
000030 44 b0 8a bd 89 75 a1 3d 85 47 14 3d 09 62 c0 bc
       -0.06771901 0.07883746 0.03620102 -0.023484247
000040 ac 64 90 bc 59 81 43 3d 59 9d 9d bd ce 50 8a bc
       -0.01762613 0.047730777 -0.07696027 -0.016884234
000050 da ea 5a 3d 3c b9 fd bd 38 9b 50 bd ba 7a e2 3c
       0.05344663 -0.12388846 -0.050929278 0.027646411
000060 4d 49 97 bd c5 9a 90 3d a6 33 3d 3d ed 60 e3 bc
       -0.07387028 0.0706077 0.046191834 -0.027756179
000070 64 e2 31 bd fa 6b 80 3d 2b 1e 5f 3c 6c 98 be bd
       -0.043428794 0.06270595 0.013618032 -0.09306416

convs.2.bn1.weight f4 [32]
000000 a8 6f 82 3f bd 18 79 3f 77 03 76 3f 36 b8 79 3f
       1.0190325 0.9730337 0.96099037 0.9754671
000010 84 76 79 3f ed 9a 92 3f 98 77 82 3f 39 f2 86 3f
       0.97446465 1.145353 1.0192747 1.054267
000020 a0 d4 80 3f cf 38 83 3f 91 c0 7e 3f 9d fe 90 3f
       1.0064888 1.0251712 0.99512583 1.1327702
000030 fc ae 8a 3f 00 1d 72 3f 73 32 8a 3f d5 93 8f 3f
       1.0834651 0.945755 1.0796646 1.121699
000040 7d 8c 82 3f 74 24 81 3f de 02 86 3f da da 83 3f
       1.0199124 1.008925 1.0469625 1.0301163
000050 29 58 83 3f e7 df 75 3f fe f0 82 3f 66 01 77 3f
       1.0261279 0.9604477 1.0229795 0.9648651
000060 ad 53 86 3f d8 6f 8c 3f b8 ac 84 3f ae a9 83 3f
       1.0494286 1.0971632 1.036521 1.0286157
000070 f3 ea 7d 3f 3d 06 88 3f 1b 27 84 3f 9d eb 81 3f
       0.9918663 1.0626904 1.0324434 1.0150028

convs.2.bn1.bias f4 [32]
000000 64 ac aa bc 44 83 33 3c 16 bf 9c 3d d2 0d 6e 3d
       -0.020834155 0.010956589 0.07653634 0.05811865
000010 d6 eb 3a 3c 57 f0 58 bc 6c 32 12 bc 9c a0 f3 3c
       0.011408767 -0.013240895 -0.008923154 0.02973967
000020 22 22 7f 3c 6f 65 09 3d 7d b0 2f 3c b3 4a 53 3d
       0.015572103 0.033544 0.01072323 0.05158491
000030 37 a0 6d 3b 99 64 5b bd ec 28 5a bd d1 9e 86 bd
       0.0036258826 -0.053562734 -0.053261682 -0.065732606
000040 11 8f 6d bc 1d 0b 00 3c cd 3d 9f bc 51 10 0c 3c
       -0.014499442 0.00781515 -0.019438649 0.008548812
000050 e3 83 51 bd 95 a4 26 3d bc f9 fd bb ed d7 85 3d
       -0.051151168 0.0406843 -0.007750718 0.06535325
000060 5d 0b 90 bc 67 b2 86 bd e9 53 90 bc d9 6e d0 bc
       -0.017583543 -0.06576996 -0.017618136 -0.025443481
000070 13 1c e6 3c db 62 03 bd dc 37 c0 bd 32 fb 60 bc
       0.028089559 -0.032076698 -0.09385654 -0.013731765

convs.2.bn1.running_mean f4 [32]
000000 e2 dc eb 3e 1f 4b ae bd f2 a5 3d be af 89 95 bf
       0.46066958 -0.08510422 -0.18520334 -1.1682643
000010 1a d0 11 3f 3d 19 c0 3e f8 3b 8a be 5a 9d a0 3e
       0.5695816 0.37519255 -0.26998878 0.3137005
000020 b3 76 40 be 20 50 a8 bf af 6f 16 bf 1b 21 04 3f
       -0.1879528 -1.3149452 -0.58764166 0.51613015
000030 aa 7d 2a 3e 69 00 24 bf 2e d6 ee 3f ee 84 5b be
       0.166495 -0.64063126 1.8659112 -0.21437427
000040 fc 18 9d 3e 75 99 58 3f e6 4a 15 c0 93 e7 5c bf
       0.30683124 0.84609157 -2.3326964 -0.86290854
000050 32 fd 6d 3f a0 d4 26 3f b8 38 03 be 78 2a 0d 3e
       0.9296447 0.6516819 -0.12814605 0.13785732
000060 10 02 8a be f2 82 9a bf d5 00 ad 3e 04 90 50 3f
       -0.269547 -1.2071211 0.33789697 0.8146975
000070 b6 db cd 3d fe 25 d0 3f 38 4d 40 bf 05 97 ab be
       0.10051672 1.6261594 -0.75117826 -0.33513656

convs.2.bn1.running_var f4 [32]
000000 3c 2c aa 3e c5 38 83 3e a3 4c a9 3e a6 ff c6 3d
       0.33236873 0.2562925 0.33066282 0.0971673
000010 2b cd 1f 3e 8d df f3 3d 86 c5 88 3e cf c7 b3 3d
       0.15605609 0.11907873 0.26713198 0.08778345
000020 19 d6 c1 3d d3 ae da 3d d5 db 0d 3e 73 16 0c 3e
       0.09464664 0.10677876 0.1385339 0.13680439
000030 b1 15 a8 3d dc e8 fb 3d f1 aa f0 3d 38 93 86 3d
       0.08207262 0.12300274 0.117513545 0.065710485
000040 3f 7f 09 3e 07 14 8f 3e c3 c3 b1 3e 64 1c 5f 3e
       0.13427447 0.27944967 0.34719667 0.21788174
000050 cf 53 ec 3d db e4 2c 3e c6 31 1d 3e 81 a4 48 3e
       0.11539423 0.16884176 0.15351018 0.19594003
000060 ab 68 03 3e d5 01 63 3e 93 30 ac 3e 71 b3 5a 3e
       0.12832896 0.22168668 0.3363081 0.21357514
000070 87 f8 22 3e 93 d2 9b 3d ac 4b 6a 3e e0 d5 f2 3d
       0.15915118 0.07608523 0.22880429 0.118572

convs.2.bn2.weight f4 [16]
000000 90 ad 86 3f 27 97 85 3f 3a 05 7c 3f 9d bd 87 3f
       1.0521717 1.0436753 0.98445475 1.060474
000010 3d 24 81 3f a0 e1 87 3f 21 8e 7e 3f c3 69 80 3f
       1.0089184 1.061573 0.9943562 1.0032276
000020 0f b2 83 3f 81 9b 86 3f b7 bb 84 3f 45 de 83 3f
       1.0288714 1.0516206 1.0369786 1.0302206
000030 6b be 87 3f d8 bc 8e 3f d7 94 8c 3f 2e d1 83 3f
       1.0604986 1.115138 1.0982922 1.0298212

convs.2.bn2.bias f4 [16]
000000 f3 d5 d5 3c 23 2d 37 3d f7 b5 ac 3d cd ee 4f 3d
       0.026102995 0.04472078 0.084331445 0.050764848
000010 ae a9 86 3b e9 cb 42 3d 6a c0 35 3d ff 31 35 3d
       0.004109583 0.047557745 0.044372953 0.044237133
000020 eb 2a 46 3d a8 d7 24 3d 4f 0d 30 3d 63 d4 32 3d
       0.048380774 0.04024473 0.042981442 0.04365958
000030 9f 05 6a 3d a2 6d 1f bd e4 6d 14 3d a2 ea 35 3d
       0.057134267 -0.038922913 0.036237612 0.044413216

convs.2.bn2.running_mean f4 [16]
000000 6e ad a4 40 d5 5f b7 40 22 37 84 40 42 d5 9f 40
       5.1461706 5.7304482 4.13173 4.9947824
000010 fd c2 a5 40 24 79 9f 40 16 9f 90 40 5e 51 ac 40
       5.1800523 4.9835377 4.5194197 5.3849325
000020 24 68 97 40 12 fd 9f 40 f4 93 87 40 01 ec 9b 40
       4.7314625 4.9996424 4.2368107 4.872559
000030 e7 cf 91 40 01 6e 9e 40 8f ba 9c 40 c9 99 9d 40
       4.5566287 4.950928 4.8977733 4.9250226

convs.2.bn2.running_var f4 [16]
000000 d8 f1 5f 41 dc 69 dc 40 f6 e2 83 40 12 83 0c 41
       13.996544 6.8879223 4.121455 8.782
000010 c9 38 f9 40 1a 4d d7 40 4c 59 fe 40 3c af 86 41
       7.788182 6.728162 7.9484005 16.835564
000020 f0 fd 29 41 20 df 96 41 2c c6 2b 40 a0 d4 18 41
       10.624496 18.858948 2.6839705 9.55191
000030 51 73 ac 40 ef 6b 6f 41 28 e9 30 41 81 ed ff 40
       5.3890767 14.963851 11.056923 7.997742
