cgcnndefect/defect_scratch_40/model_best.pth.tar (torch, 208559 bytes, 121 tensors)

embedding.weight f4 [16, 92]
0	0x3bffb29b	0.007803274
1	0x3d6514df	0.055928107
2	0xbd7bbb02	-0.06145764
3	0xbd7afd40	-0.061276674
4	0xbca2c15e	-0.019867595
5	0xbc0bd559	-0.008534753
6	0xbb076023	-0.0020656667
7	0x3d772818	0.06034097
8	0xbc651b85	-0.013983612
9	0x3cb9eb29	0.02269514
10	0xbd04d519	-0.03242979
11	0xbca7e1b0	-0.020493358
12	0xbdcbfc1d	-0.09960196
13	0xbd4926e0	-0.04910934
14	0xbd3008e4	-0.04297723
15	0x3b7d1a9a	0.0038620592
16	0x3d11ac9e	0.03556501
17	0x3d801dba	0.0625567
18	0xbd90c0cd	-0.07068024
19	0xbd39f57f	-0.04540014
20	0x3d03f56a	0.032216467
21	0x3e1952fb	0.14973061
22	0xbcd70c59	-0.026251005
23	0x3d491c01	0.049098972
24	0xbcaeae52	-0.021323357
25	0x3c34bf11	0.011031882
26	0x3dc1560e	0.09440242
27	0xbdbfb1a4	-0.09360054
28	0xbc8fb550	-0.017542511
29	0xbd3f009d	-0.046631444
30	0xbd2a3c4f	-0.04156142
31	0x3db87afa	0.09007831
32	0xbd8a6605	-0.0675774
33	0xbd449454	-0.04799302
34	0xbda0bf56	-0.078489944
35	0xbdc7f92c	-0.09764323
36	0xbd794772	-0.06085915
37	0x3dabf73a	0.08396764
38	0x3d3e8d4f	0.04652148
39	0x3d3b0ddb	0.04566751
40	0x3c863c8b	0.016386291
41	0xbd7c8a9c	-0.061655626
42	0x3d1daa49	0.038492475
43	0xbde1c10e	-0.110231504
44	0xbd9a480d	-0.07533274
45	0xbd5c2690	-0.053747714
46	0x3d86b793	0.06577983
47	0x3dac1e2f	0.084041946
48	0xbcab1972	-0.020886157
49	0x3c8760e8	0.0165257
50	0x3cf74a34	0.03018675
51	0x3dc8b106	0.097993895
52	0x3c9c17a4	0.019054241
53	0x3c193d4b	0.009352992
54	0x3d85241d	0.06501029
55	0xbd7f3798	-0.062308878
56	0x3c9f26db	0.019427707
57	0xbda58ad2	-0.080831185
58	0xbd93fca5	-0.072259225
59	0xbd7a0df8	-0.061048478
60	0x3d810525	0.06299809
61	0x3d2352bb	0.03987382
62	0xbd7cf4ed	-0.061757017
63	0x3d0102d5	0.03149684
64	0x3d53486c	0.05158274
65	0xbc579923	-0.013159069
66	0x3b82708a	0.003980701
67	0x3cc5e4a9	0.024156885
68	0x3d847648	0.06467873
69	0x3dcd04fb	0.100107156
70	0xbda48ae7	-0.08034306
71	0xbd1c7f0f	-0.03820711
72	0x3d2b2fa8	0.041793495
73	0x3dbdaeb4	0.092618376
74	0x3daeec16	0.085411236
75	0x3dbc6654	0.09199205
76	0x3ca9f92d	0.0207487
77	0xbdb9ac16	-0.09066026
78	0x3d0b065e	0.03394162
79	0xbd84870f	-0.06471073
80	0xbdea71f0	-0.11447513
81	0x3dcf4a17	0.101215534
82	0x3da259e0	0.079272985
83	0xbdf76695	-0.12080113
84	0x3d6dce23	0.058057915
85	0xbc903db5	-0.01760755
86	0xbb9884ab	-0.004654487
87	0xbd1112be	-0.035418265
88	0x3d4fb3e1	0.050708655
89	0xbd98dc5a	-0.07463904
90	0x3d1c8c5a	0.038219787
91	0x3d57f4d2	0.052723713
92	0x3d79ded2	0.061003514
93	0x3d1fac91	0.03898293
94	0xbdcca2ad	-0.099919654
95	0xbd8d75b0	-0.06907213
96	0x3d4c9553	0.049947094
97	0x3cc0a7e2	0.023517553
98	0xbda69004	-0.081329376
99	0xbd85d4ee	-0.06534754
100	0x3daf7bd6	0.08568542
101	0x3d87b7cc	0.06626853
102	0xbc6e6c3f	-0.014552175
103	0xbcd6f52b	-0.026239952
104	0xbdcb65c6	-0.09931521
105	0xba88e4ab	-0.0010444125
106	0xbda0cace	-0.07851182
107	0xbda4b2fa	-0.080419496
108	0xbae5326d	-0.0017486342
109	0x3c803c32	0.015653703
110	0xbd2ee282	-0.042696483
111	0x3d7d64fd	0.061863888
112	0xbd738066	-0.059448622
113	0x3ddb0b6b	0.10695537
114	0x3d729bb2	0.059230514
115	0xbdae25c0	-0.08503294
116	0xbd0cef68	-0.034408003
117	0x3b9a2705	0.0047043585
118	0x3c793890	0.015211239
119	0x3c5a7e9a	0.013335848
120	0x3d7972ae	0.060900383
121	0xb9ed2cd0	-0.0004523755
122	0xbca38a7d	-0.019963497
123	0x3d4a11c7	0.04933336
124	0xbdccd150	-0.10000861
125	0xbd7d1ba5	-0.061793942
126	0xbcb510d7	-0.022102756
127	0xbd500403	-0.050785076
128	0xbd156458	-0.03647265
129	0xbda6d239	-0.081455655
130	0xbcb5acb9	-0.022177087
131	0x3d0387ba	0.03211186
132	0xbdaf486a	-0.08558734
133	0x3c83a7bf	0.016071199
134	0x3d780a95	0.060556967
135	0xbca9ad0e	-0.020712402
136	0x3b3de4a2	0.0028975387
137	0xbc135c38	-0.008994155
138	0x3cacd950	0.021099716
139	0x3d88b8cb	0.066758715
140	0x3dcb3c84	0.09923652
141	0x3d834660	0.06409907
142	0x3dce310f	0.10067951
143	0xbb684523	-0.00354416
144	0xbdcab126	-0.0989707
145	0xbd7d375d	-0.061820377
146	0x3d893b32	0.06700744
147	0x3cf7a66b	0.030230721
148	0xbd5441e7	-0.051820662
149	0xbda39f37	-0.07989352
150	0xbdc7d26c	-0.09756932
151	0xbdbd7b09	-0.09251983
152	0xbcded467	-0.02720089
153	0x3d856051	0.065125115
154	0x3d66dfbf	0.056365725
155	0xbdcdec9e	-0.10054897
156	0x3d8d5f61	0.06902958
157	0xbda71498	-0.08158225
158	0xbcb48f6c	-0.022041045
159	0xbd2d26eb	-0.042273443
160	0xbca48205	-0.02008153
161	0xbca7b100	-0.020470142
162	0xbdbf99de	-0.0935552
163	0xbdb85c35	-0.09001962
164	0xbcdee345	-0.02720798
165	0xbc090155	-0.008362134
166	0xbd1170e6	-0.03550806
167	0x3d20dd5c	0.039273605
168	0xbdc02dea	-0.093837574
169	0xbbe68e81	-0.0070360308
170	0x3dc276d1	0.09495319
171	0xbd210586	-0.03931191
172	0x3dc27778	0.09495443
173	0x3cc5a354	0.024125732
174	0xbdc0b13d	-0.094088055
175	0x3d6bb623	0.057546746
176	0xbc8022f3	-0.015641665
177	0xbd3b555c	-0.045735702
178	0x3dd3c267	0.10339814
179	0xbdca6b13	-0.09883704
180	0x39463e2c	0.00018905912
181	0xbd0258b6	-0.031822883
182	0x3d9879f8	0.07445139
183	0x3cee690e	0.029102828
184	0x3d9fe64b	0.07807597
185	0x3d16cfe7	0.036819365
186	0xbd73fe51	-0.059568707
187	0x3c7877dc	0.015165295
188	0xbd6e1fdc	-0.058135852
189	0x3db41994	0.08793941
190	0x3da9877a	0.08277793
191	0x3d8602b8	0.06543487
192	0xbd9b6ce5	-0.07589129
193	0xbba586bf	-0.0050514634
194	0xbdbf1d46	-0.09331755
195	0xbd6b13d0	-0.05739194
196	0xbd78d64c	-0.060751244
197	0x3c1d0b96	0.009585282
198	0xbd7e7a2f	-0.062128242
199	0xbb151179	-0.002274601
200	0xbc26c320	-0.010178357
201	0x3d89a39d	0.0672066
202	0xbda16732	-0.07881011
203	0xbd92954f	-0.071573846
204	0xbd99cf4c	-0.07510242
205	0x3d87ac01	0.06624604
206	0xbcb08fba	-0.02155291
207	0x3d9447e3	0.07240274
208	0x3d6849b7	0.056710925
209	0x3c584bd6	0.013201674
210	0xba4b72bb	-0.00077609316
211	0xbbafe468	-0.0053678043
212	0x3d0da9a6	0.034585617
213	0xbce75a80	-0.028241396
214	0xbca864ae	-0.02055582
215	0x3c59f2b4	0.013302494
216	0xbda703f5	-0.081550516
217	0xbd5fd2e3	-0.054644477
218	0x3d8e9654	0.069622666
219	0xbdad47cb	-0.08460959
220	0xbbf54fbe	-0.0074863127
221	0x3db564b6	0.088571
222	0x3d1a4303	0.037661564
223	0xbc88a35a	-0.016679455
224	0xbdacd887	-0.08439737
225	0x3d190c3c	0.037365183
226	0xbc23cf05	-0.009998088
227	0xbd966b7b	-0.07344719
228	0xbd0f472f	-0.034979995
229	0xbc7cf499	-0.015439176
230	0x3a957950	0.0011403952
231	0x3daf9059	0.08572454
232	0x3b4b4231	0.0031014795
233	0x3df82452	0.121163025
234	0x3dc304a3	0.09522369
235	0xbda4d132	-0.08047713
236	0x3d275bf0	0.040859163
237	0xbd9bbfdb	-0.07604953
238	0xbd5cb9d9	-0.053888176
239	0x3c319f56	0.010841211
240	0x3d0d0121	0.034424905
241	0x3da03011	0.07821668
242	0xbd09785c	-0.03356205
243	0xbc8e3918	-0.017361209
244	0x3d86cf24	0.06582478
245	0xbdb3d146	-0.0878015
246	0x3d9a5eb3	0.07537594
247	0xbdb0903e	-0.08621262
248	0xbc57140a	-0.013127336
249	0xbc913503	-0.017725473
250	0xbd60e8bb	-0.05490945
251	0x3c61c499	0.013779783
252	0x3db0900a	0.08621223
253	0xbcf9a9ae	-0.030476417
254	0xbd7d8797	-0.061896887
255	0xbd1def60	-0.038558364

embedding.bias f4 [16]
0	0x3e12de61	0.14342643
1	0x3dc95325	0.09830312
2	0xbaa5edf7	-0.001265942
3	0xbd1b71d4	-0.03795035
4	0xbdec27cc	-0.11531028
5	0xbd7d7977	-0.061883416
6	0x3de4c318	0.11170024
7	0x3d2289b7	0.039682116
8	0x3e18e881	0.14932443
9	0x3dd1ee76	0.10250561
10	0x3cfbc190	0.030731946
11	0xbd1535d7	-0.0364283
12	0x3e24f6ee	0.16109821
13	0x3caa76af	0.020808546
14	0x3d9dc01e	0.07702659
15	0x3c9b57a1	0.018962683

convs.0.fc_full.weight f4 [32, 56]
0	0x3e026cc7	0.12736808
1	0x3d235195	0.039872725
2	0x3dc811f6	0.09769051
3	0x3d8ba7aa	0.06819089
4	0x3d36644c	0.044529244
5	0xbddeac30	-0.10872686
6	0xbdbf6bf5	-0.09346763
7	0x3da7a5f5	0.08185951
8	0xbcb4b114	-0.022057094
9	0xbdba47c5	-0.0909572
10	0x3e1a324e	0.15058252
11	0x3c2d006c	0.010559183
12	0x3dd5eb74	0.104453
13	0xbd9ae725	-0.075636186
14	0x3d497b1c	0.049189672
15	0xbd79add8	-0.060956806
16	0xbd83100c	-0.06399545
17	0xbcad4e10	-0.021155387
18	0xbd4c2215	-0.04983719
19	0x3d93ad18	0.072107494
20	0xbcc606b1	-0.024173113
21	0x3da315f1	0.07963169
22	0x3cc7b010	0.024375945
23	0x3c6b2cc3	0.014353934
24	0xbd5412ee	-0.051775865
25	0xbddf4831	-0.10902441
26	0xbd12eca0	-0.035870194
27	0xbe1c8811	-0.1528628
28	0xbd22b713	-0.039725374
29	0xbc4e7cfc	-0.012603041
30	0xbd55416a	-0.052064337
31	0xbd096dc9	-0.033551965
32	0x3e14740f	0.14497398
33	0x3e02baba	0.12766543
34	0xbcab5919	-0.020916509
35	0xbdaddab0	-0.08488977
36	0x3d27eec7	0.0409992
37	0x3e2bc8ea	0.16775861
38	0xbd8feabf	-0.07027196
39	0xbc8a4fa5	-0.01688368
40	0xbd39ac81	-0.04533053
41	0xbdbe6100	-0.09295845
42	0x3e28b960	0.16476965
43	0x3d032879	0.03202102
44	0x3e004563	0.12526469
45	0xbd078e8e	-0.033094935
46	0xbd77a2ca	-0.060457982
47	0xbd76159e	-0.06007921
48	0xbca41633	-0.020030117
49	0x3d6eccdb	0.058300834
50	0x3d8c9818	0.06864947
51	0xbb9be91f	-0.004758015
52	0x3e016f46	0.12640104
53	0xbe17cbec	-0.14823884
54	0x3ce7e2d5	0.028306404
55	0x3e1ccc60	0.15312338
56	0xbd27606e	-0.040863447
57	0x3dd96759	0.10615415
58	0x3ccdf88b	0.025142929
59	0xbe11eeb4	-0.14251214
60	0xbd99a323	-0.07501819
61	0x3da4fa29	0.08055527
62	0xbd955b83	-0.07292845
63	0x3d52f2b5	0.051500995
64	0x3de8393e	0.11339043
65	0x3d30fdfa	0.04321096
66	0xbd1250c7	-0.035721567
67	0xbc13e3b8	-0.00902646
68	0xbda58f05	-0.080839194
69	0xbde527b9	-0.11189217
70	0xbde89458	-0.11356419
71	0xbe09f4d3	-0.134723
72	0x3d22c350	0.039737046
73	0x3d398804	0.04529573
74	0xbd3d6080	-0.046234608
75	0xbdf996b6	-0.12186949
76	0x3d6531b3	0.0559556
77	0xbd8879e8	-0.06663877
78	0xb9360c9a	-0.00017361567
79	0xbe0e3196	-0.13886103
80	0xbd9f2226	-0.07770185
81	0x3d89b2ab	0.06723531
82	0xbdd592cc	-0.1042839
83	0xbd4f8030	-0.05065936
84	0x3df83d37	0.12121051
85	0xbd165ba9	-0.036708508
86	0xbca85ba2	-0.020551506
87	0xbd407fe3	-0.046996962
88	0x3d95e22b	0.07318529
89	0xbd983b31	-0.07433165
90	0xb9b82cee	-0.0003512869
91	0x3d0ae1fb	0.033906918
92	0xbcece5b2	-0.028918121
93	0x3d251cf8	0.04031083
94	0xbdb5f4d8	-0.08884591
95	0x3d3e4ebc	0.046461806
96	0x3cf33678	0.029689059
97	0xbd10c319	-0.03534231
98	0xbdc0ee40	-0.094204426
99	0x3d87d78c	0.06632909
100	0x3d9597fc	0.07304379
101	0xbd30f5af	-0.043203052
102	0x3d387105	0.04502966
103	0x3da0cb21	0.07851244
104	0xbd040c67	-0.03223839
105	0xbc683895	-0.014173646
106	0x3ddbc9dd	0.10731862
107	0x3a20d121	0.0006134678
108	0xbde33260	-0.11093593
109	0xbd9ae92e	-0.07564007
110	0x3c6f238f	0.01459588
111	0xbd825339	-0.0636353
112	0xbe0f2b69	-0.13981403
113	0x3de3e6c6	0.11128001
114	0x3d3e6118	0.046479315
115	0xbd0e888a	-0.034798183
116	0xbb854434	-0.0040669683
117	0x3ad1ddd4	0.0016011545
118	0xbc44e379	-0.012017124
119	0x3b79b8d4	0.003810455
120	0xbdcbdb7e	-0.09953974
121	0x3c22d09c	0.009937432
122	0xbb2f8216	-0.0026780418
123	0xbd1a0a70	-0.03760761
124	0xbd54dc77	-0.051968064
125	0x3c5df5fe	0.013547419
126	0xbdf108ec	-0.1176928
127	0x3cdd4c0f	0.027013807
128	0x3daaa376	0.08331959
129	0xb8bc2361	-8.9711284e-05
130	0xbdb6377f	-0.08897304
131	0xbd132cac	-0.035931274
132	0x3cdde0a9	0.027084665
133	0xbd9a3b9e	-0.07530902
134	0xbdac5512	-0.084146634
135	0x3dee6cb5	0.11641828
136	0x3dd0d02b	0.10195955
137	0x3dec41fa	0.115360215
138	0x3db81feb	0.08990463
139	0x3d0b9982	0.034081943
140	0x3d4fa1a5	0.050691266
141	0x3d62f2c5	0.055407304
142	0xbd131f6e	-0.035918646
143	0xbce4edc8	-0.027945414
144	0x3ded82f8	0.11597246
145	0x3a46f310	0.000758932
146	0xbe19817c	-0.149908
147	0xbe24cd05	-0.16093834
148	0x3ce5b70d	0.028041387
149	0x3e091f6e	0.13390896
150	0x3dd7e778	0.10542196
151	0xbd276eeb	-0.040877264
152	0x3d12d55f	0.035848018
153	0xbe2a7cb2	-0.1664913
154	0xbd906bef	-0.07051837
155	0xbe011ff1	-0.12609841
156	0x3d35d590	0.044393122
157	0xbd67da0c	-0.05660443
158	0xbdd1858a	-0.10230549
159	0x3dc74555	0.09730021
160	0xbcfdd577	-0.030985577
161	0xbdb2707d	-0.08712862
162	0x3d2a7678	0.041616887
163	0x3cc82686	0.024432432
164	0xbdd47a9f	-0.103749506
165	0xbe1f04f9	-0.1552924
166	0x3c0d1ff1	0.008613572
167	0x3d920dd0	0.07131541
168	0x3c151e4e	0.0091014635
169	0xbd6d8a89	-0.057993446
170	0x3d9d7937	0.076891355
171	0x3d542001	0.051788334
172	0xbe14aacc	-0.14518279
173	0xbda0963b	-0.07841154
174	0x3c864fbd	0.016395444
175	0x3db56d09	0.088586874
176	0xbd468ade	-0.048472278
177	0x3d77171b	0.06032477
178	0xbdadbe23	-0.08483531
179	0x3de47532	0.11155166
180	0x3de992b6	0.11404936
181	0x3d843615	0.06455628
182	0x3daf935a	0.08573027
183	0x3cac82e7	0.021058513
184	0xbd99c821	-0.07508875
185	0x3cace736	0.021106344
186	0x3d83d85b	0.06437751
187	0xbd658184	-0.05603172
188	0x3e052a27	0.13004361
189	0xbd217791	-0.039420668
190	0xbe0d28a5	-0.13785036
191	0xbce3f41e	-0.027826365
192	0xbde59289	-0.1120959
193	0x3e027155	0.12738545
194	0xbd64d0fc	-0.055863366
195	0xbdff4a28	-0.12465316
196	0xbb39d16e	-0.002835359
197	0xbdc088e4	-0.0940111
198	0xbdc3b113	-0.095552586
199	0x3d81677a	0.06318565
200	0xbdbd27ae	-0.09236084
201	0x3d4397e5	0.04775228
202	0x3cefaed4	0.02925817
203	0xbd3368a1	-0.043800954
204	0x3ce81f8b	0.028335353
205	0xbd83c7c2	-0.06434585
206	0x3db71ead	0.08941398
207	0x3d7cbde5	0.061704535
208	0xbc0a6b0d	-0.008448374
209	0x3dbef241	0.0932355
210	0xbdf50577	-0.11963933
211	0xbced377a	-0.028957117
212	0xbd29e44f	-0.041477498
213	0xbe1f0194	-0.15527946
214	0x3d20407b	0.039123993
215	0xbccea973	-0.025227284
216	0xbd4c6703	-0.049902927
217	0xbe044a35	-0.12918933
218	0x3c9e56d7	0.019328518
219	0xbdc72456	-0.097237274
220	0xbced2af9	-0.028951155
221	0x3d63b635	0.055593688
222	0x3df66187	0.120303206
223	0x3daa3123	0.08310153
224	0xbd23d3c7	-0.03999689
225	0xbda7bc9d	-0.08190272
226	0x3dc6b5be	0.09702633
227	0x3d5efc6b	0.054439943
228	0x3dccda1b	0.10002538
229	0x3dadaf08	0.0848065
230	0x3e07086e	0.1318681
231	0xbdf8afda	-0.12142916
232	0x3ddf7a96	0.10912053
233	0xbd65015c	-0.0559095
234	0xbcb5ecbb	-0.022207608
235	0xb8562ca5	-5.1063154e-05
236	0xbd22f64c	-0.03978567
237	0x3d204106	0.03912451
238	0x3dbe3bb3	0.092887305
239	0xbd3fa2f5	-0.046786267
240	0x3d234a56	0.039865814
241	0xbdc67438	-0.09690136
242	0xb7d5d105	-2.5488911e-05
243	0x3dccae9b	0.09994241
244	0x3df04c21	0.117332704
245	0x3d9ce0d3	0.07660069
246	0x3d8b4072	0.06799401
247	0xb8b51dd4	-8.6363085e-05
248	0x3d402419	0.046909425
249	0xbd304a52	-0.043039627
250	0x3e10ecab	0.14152782
251	0x3d6d3b74	0.057918027
252	0xbdcddac7	-0.10051494
253	0x3dfa3ca2	0.12218596
254	0xbc1366e5	-0.0089967
255	0x3c3460f1	0.011009441

convs.0.fc_full.bias f4 [32]
0	0xbccd6a3d	-0.025075072
1	0x3de72d57	0.11287945
2	0xbda70c74	-0.08156672
3	0x3e070e72	0.13189104
4	0xbdd45daa	-0.103694275
5	0xbdb2f23f	-0.08737611
6	0x3cd34b33	0.025792694
7	0xbdce8a21	-0.1008494
8	0x3d261070	0.04054302
9	0xbdad2068	-0.084534466
10	0x3ddbf003	0.10739138
11	0x3e0e0068	0.13867342
12	0x3ba104ec	0.004913917
13	0x3c91afa9	0.017783957
14	0x3dffe521	0.12494875
15	0x3d9f2ddb	0.07772418
16	0xbde803d2	-0.11328854
17	0xbc844993	-0.016148364
18	0xbdfd70de	-0.12375043
19	0x3dbaac11	0.0911485
20	0xbcc66343	-0.024217254
21	0x3bc7598f	0.0060836743
22	0xbd8f3a57	-0.06993549
23	0xbdafe621	-0.085888155
24	0x3cc06279	0.023484455
25	0x3dc2476e	0.094862804
26	0xbda4bd42	-0.080439106
27	0x3ba7491c	0.005105151
28	0x3e0430ee	0.1290929
29	0x3d98f6ec	0.074689716
30	0x3c1c0d50	0.009524658
31	0x3e18dbb7	0.14927565

convs.0.bn1.weight f4 [32]
0	0x3f7bb7ce	0.9832734
1	0x3f8425d2	1.0324042
2	0x3f82742e	1.0191705
3	0x3f76f490	0.9646692
4	0x3f839c3c	1.0282054
5	0x3f73d24e	0.95242774
6	0x3f7a0f99	0.9768005
7	0x3f86f64a	1.0543911
8	0x3f844799	1.033435
9	0x3f853e10	1.0409565
10	0x3f80ef20	1.0072975
11	0x3f85a511	1.0440999
12	0x3f775926	0.96620405
13	0x3f81f791	1.0153676
14	0x3f739b2a	0.95158637
15	0x3f8761db	1.0576738
16	0x3f82545b	1.0181993
17	0x3f81f564	1.0153012
18	0x3f83e5fe	1.0304563
19	0x3f83cbe2	1.0296595
20	0x3f7b356a	0.9812838
21	0x3f83bb77	1.0291585
22	0x3f817489	1.0113689
23	0x3f71bc62	0.94428074
24	0x3f7639b9	0.9618183
25	0x3f764801	0.9620362
26	0x3f7303ea	0.9492785
27	0x3f7afe75	0.9804452
28	0x3f8387be	1.02758
29	0x3f770023	0.96484584
30	0x3f850b4a	1.039407
31	0x3f8013b6	1.0006015

convs.0.bn1.bias f4 [32]
0	0x3c6a400a	0.014297495
1	0x3d161fdc	0.036651477
2	0xbaa50b62	-0.0012591893
3	0x3d2f593b	0.042809706
4	0x35c33720	1.4544676e-06
5	0x3c9abcc8	0.018888846
6	0x3c47786f	0.01217471
7	0xbc6f7f39	-0.014617735
8	0xbceab88a	-0.028652448
9	0x3d4c998b	0.049951117
10	0x3c3fbf5a	0.011703337
11	0xbd04e0ea	-0.032441057
12	0x3d0eb93f	0.034844633
13	0x3cb216e8	0.021739438
14	0xbce6fae7	-0.028195811
15	0xbcd8ee7b	-0.026480904
16	0x3cea8ad0	0.028630644
17	0xbc913b7a	-0.017728556
18	0xbd668831	-0.056282226
19	0xbca7ac2d	-0.020467842
20	0x3c7e361b	0.015515829
21	0xbb0e5b2b	-0.002172182
22	0xbc80028d	-0.015626216
23	0x3d1feaf0	0.039042413
24	0x3cd4fc08	0.025999084
25	0x3c29299f	0.010324865
26	0x3d97b2fe	0.07407187
27	0x3d03b69b	0.032156568
28	0xbca2bcea	-0.019865472
29	0x3c8803d6	0.016603392
30	0xbd612fd6	-0.05497726
31	0x3baf575c	0.00535099

convs.0.bn1.running_mean f4 [32]
0	0x3e66acba	0.22526827
1	0x3e591805	0.21200569
2	0xbeebc31a	-0.46047288
3	0xbde787fc	-0.11305234
4	0xbefb4ec0	-0.4908352
5	0x3ddb6800	0.10713196
6	0x3f7c842f	0.98639196
7	0x3f0f418a	0.5595938
8	0xbf0817ac	-0.5316112
9	0x3f28a33c	0.65874076
10	0xbdf36083	-0.118836425
11	0x3cb5c43f	0.022188304
12	0xbcf1c63e	-0.029513475
13	0x3eb27d80	0.34861374
14	0x3e88379b	0.26604924
15	0x3e9cf02e	0.30651993
16	0xbe9c31ac	-0.30506647
17	0xbf32d0c3	-0.69849795
18	0xbf747836	-0.9549593
19	0xbe55d9ea	-0.20883909
20	0x3e3ae59b	0.1825165
21	0x3eccb5e4	0.39982522
22	0x3e26e3ba	0.16297808
23	0xbe958ff7	-0.292114
24	0xbf4a9a2e	-0.7914151
25	0x3edd2079	0.43188837
26	0x3ed7853b	0.42093834
27	0xbe94e247	-0.29078886
28	0x3e6e1936	0.23251805
29	0xbe95f9f9	-0.29292277
30	0xbddf77b4	-0.109115034
31	0xbf04e04c	-0.5190475

convs.0.bn1.running_var f4 [32]
0	0x3c088284	0.008331899
1	0x3b67c7dd	0.003536693
2	0x3c1e758b	0.009671579
3	0x3c293976	0.010328641
4	0x3c47c9fe	0.012194155
5	0x3c3015c6	0.010747379
6	0x3c848f89	0.016181724
7	0x3c127291	0.008938448
8	0x3bbec202	0.0058214674
9	0x3c905d37	0.017622573
10	0x3c00172b	0.007818024
11	0x3c416228	0.011803187
12	0x3c4c18a5	0.012457048
13	0x3c0f79d1	0.008757071
14	0x3cd5eb4f	0.02611318
15	0x3b909c2d	0.004413149
16	0x3c2e7d9f	0.010650068
17	0x3c432129	0.0119097615
18	0x3bda7c44	0.0066676456
19	0x3ca5c267	0.0202343
20	0x3bf43240	0.0074522793
21	0x3c640ac7	0.013918585
22	0x3cafb839	0.021450149
23	0x3c682da8	0.014171042
24	0x3c696768	0.014245845
25	0x3c82fcf4	0.015989758
26	0x3cab06da	0.02087729
27	0x3c934d01	0.017981054
28	0x3c227c61	0.00991735
29	0x3c2ee581	0.010674835
30	0x3c78dfa2	0.015190037
31	0x3c6b14e9	0.014348247

convs.0.bn2.weight f4 [16]
0	0x3f84a673	1.0363296
1	0x3f79f836	0.97644365
2	0x3f86a118	1.0517912
3	0x3f8495fb	1.035827
4	0x3f76a3e1	0.9634381
5	0x3f7e4c0b	0.9933478
6	0x3f80c000	1.0058594
7	0x3f76d2a3	0.96415156
8	0x3f82dbec	1.0223365
9	0x3f81637b	1.0108484
10	0x3f7e566e	0.9935063
11	0x3f83e205	1.0303351
12	0x3f80240d	1.0011002
13	0x3f76b039	0.96362644
14	0x3f7f3c15	0.9970105
15	0x3f879813	1.0593284

convs.0.bn2.bias f4 [16]
0	0x3d2132d2	0.039355107
1	0x3b3361c2	0.00273715
2	0x3d57d2ca	0.05269126
3	0x3d4febe9	0.05076209
4	0xbcaed9f5	-0.021344164
5	0xbc3f52a1	-0.011677415
6	0x3cc4f5d3	0.024043
7	0x3b98efb2	0.004667246
8	0x3d479b4c	0.048732087
9	0x3ccea8e7	0.025227023
10	0x3cef6048	0.029220715
11	0x3ce6eaf0	0.028188199
12	0x3d72da82	0.059290417
13	0xbd80a98f	-0.06282341
14	0x3d029f4e	0.031890206
15	0x3d9b795a	0.07591505

convs.0.bn2.running_mean f4 [16]
0	0x40ac98f1	5.3936696
1	0x40a0ac7a	5.0210543
2	0x40abf876	5.3740797
3	0x409f56f5	4.979365
4	0x409cfe06	4.9060087
5	0x409a769a	4.8269777
6	0x40b093fa	5.5180635
7	0x40a71668	5.221485
8	0x4096a435	4.707545
9	0x40b94fee	5.791007
10	0x408ed038	4.4629173
11	0x40965686	4.698062
12	0x40a017be	5.002898
13	0x40b34e83	5.603334
14	0x40aace33	5.337671
15	0x40a040c4	5.007906

convs.0.bn2.running_var f4 [16]
0	0x4129a503	10.602786
1	0x41b01540	22.010376
2	0x413bb09b	11.730617
3	0x413b422b	11.703654
4	0x40d10473	6.531793
5	0x3fce2cc4	1.6107411
6	0x41bba2e7	23.454542
7	0x40a5bfd6	5.1796675
8	0x40b6fe26	5.718524
9	0x411867ca	9.525339
10	0x3fb7e7b2	1.4367583
11	0x40a9201a	5.2851686
12	0x41303040	11.01178
13	0x405d5a9e	3.4586558
14	0x40d424f0	6.629509
15	0x4080c2b2	4.0237665

convs.1.fc_full.weight f4 [32, 56]
0	0x3dc18725	0.09449605
1	0x3e01f7c8	0.12692177
2	0x3b85072d	0.0040596933
3	0xbdc7699b	-0.097369395
4	0xbcf8a059	-0.030349897
5	0x3cd889f1	0.026432963
6	0x3dc8ecaa	0.09810765
7	0xbe2b6950	-0.16739392
8	0x3da2353b	0.07920309
9	0xbe123962	-0.14279702
10	0x3d685a6e	0.056726865
11	0x3de55c2b	0.1119922
12	0xbd093f32	-0.033507533
13	0xbd84f958	-0.06492871
14	0x3d3b7321	0.045764092
15	0xbda23a1b	-0.07921239
16	0xbd65e25b	-0.056124073
17	0xbdbf80d4	-0.09350744
18	0x3d243c05	0.0400963
19	0x3de0ff3c	0.10986182
20	0x3c6ee23e	0.0145803075
21	0xbdfc372d	-0.123152114
22	0xbe0b1073	-0.13580494
23	0xbc011747	-0.007879085
24	0x3db8d582	0.090250984
25	0xbdbdb1fd	-0.09262464
26	0x3d7a74e2	0.061146624
27	0xbd5e7aad	-0.05431621
28	0x3dc80b35	0.097677626
29	0xbd24c18a	-0.040223636
30	0xbd22d211	-0.039751116
31	0xbe313aff	-0.17307661
32	0xbe092490	-0.13392854
33	0xbc99b499	-0.018762873
34	0xbd515d21	-0.051114205
35	0x3d445fc8	0.047942907
36	0xbe01c361	-0.12672187
37	0x3c4b6f18	0.0124166235
38	0xbd3a9256	-0.045549713
39	0x3bb25d43	0.0054432466
40	0xbdace9e9	-0.08443052
41	0x3d04746d	0.032337595
42	0x3d3cb2fe	0.046069138
43	0x3d2de45e	0.042454116
44	0xbdf3b29b	-0.11899301
45	0x3ca37335	0.019952396
46	0xbcff3f0e	-0.031157997
47	0x3d87a472	0.06623162
48	0xbcf8d7e5	-0.030376384
49	0xbd8ed1c1	-0.06973601
50	0xbde08734	-0.10963288
51	0xbdac0f10	-0.084013104
52	0xbd7210d2	-0.059098072
53	0xbd899c27	-0.06719237
54	0xbddad36f	-0.10684859
55	0xbe04913c	-0.12946028
56	0xbca01b69	-0.01954432
57	0xbd4f19d6	-0.05056175
58	0x3dd391d2	0.103305474
59	0xbda21f37	-0.0791611
60	0xbd1f8dbd	-0.03895353
61	0xbdf3b429	-0.11899597
62	0x3cfc9d18	0.030836627
63	0xbbcb34ae	-0.0062013483
64	0xbd2729ab	-0.040811222
65	0x3db8c80b	0.0902253
66	0xbcd3cef7	-0.025855524
67	0xbd6fbe0b	-0.05853085
68	0x3dd3086f	0.10304343
69	0x3e0dcf36	0.13848576
70	0x3d5c9eed	0.0538625
71	0x3d55a044	0.052154794
72	0xbcc1f499	-0.023676204
73	0x3d1fdde1	0.03902996
74	0x3dcbbd2b	0.0994819
75	0xbd362652	-0.04447014
76	0x3d937705	0.072004355
77	0x3d8f0433	0.06983223
78	0xbd8e6e7b	-0.06954666
79	0xbd5d584d	-0.05403929
80	0xbdce643a	-0.100777104
81	0x3d552f75	0.05204721
82	0x3df6fadd	0.12059567
83	0xbcbed219	-0.023293542
84	0x3d427276	0.04747244
85	0x3d75df25	0.06002726
86	0x3c87c2d0	0.016572386
87	0x3de7c8c0	0.11317587
88	0x3d34584a	0.04402951
89	0xbddd4063	-0.108032964
90	0xbdf4fc4f	-0.119621865
91	0xbe1df11c	-0.15424007
92	0xbc8f6611	-0.017504724
93	0x3dc5097d	0.0962095
94	0x3b9f4a23	0.0048611327
95	0x3de324b5	0.11090986
96	0xbd393118	-0.045212835
97	0x3ba12a83	0.004918398
98	0x3e137552	0.14400223
99	0x3db6f55a	0.08933516
100	0xbc5ca81a	-0.013467813
101	0x3ddd92ab	0.1081899
102	0xbdd044cf	-0.10169374
103	0x3dbc8001	0.09204102
104	0x3df5dce9	0.12005026
105	0xbda3e53f	-0.080027096
106	0xbe264919	-0.16238822
107	0x3d2f1d02	0.042752273
108	0xbd45c3b2	-0.048282333
109	0x3d064b50	0.032786667
110	0x3df15f3c	0.11785743
111	0xbce1e3ae	-0.027574386
112	0x3e234e14	0.15947753
113	0xbd1dfb51	-0.038569752
114	0xbdb79252	-0.08963455
115	0x3dffae07	0.12484365
116	0x3d0536d0	0.032522976
117	0x3b805c18	0.0039172284
118	0xbda7ee24	-0.081997186
119	0x3dcdbae8	0.10045415
120	0xbd314f22	-0.043288358
121	0x3dfa5465	0.12223128
122	0xbce21399	-0.027597236
123	0x3d931155	0.0718104
124	0x3cf78c01	0.030218126
125	0xbdd2dcd2	-0.102960244
126	0xbda65a83	-0.081227325
127	0xbe3b5046	-0.1829234
128	0x3dd6f1b8	0.10495323
129	0x3d935844	0.0719457
130	0xbd2c4923	-0.042061936
131	0xbd3ecbf2	-0.046581216
132	0x3c3f9e29	0.011695423
133	0x3cc8dfe9	0.024520831
134	0x3d13760f	0.03600126
135	0xbc06ed93	-0.008235353
136	0xbda92b91	-0.08260263
137	0x3de5540d	0.11197672
138	0xbdb51140	-0.08841181
139	0xbdfa24b5	-0.122140326
140	0xbd9877b8	-0.074447095
141	0x3d7cf80b	0.06175999
142	0x3d5c96ff	0.05385494
143	0xbc334d63	-0.010943743
144	0xbd9bb0bd	-0.076020695
145	0xbd4403a3	-0.04785503
146	0xbcc77397	-0.02434711
147	0xbd77d43e	-0.060505144
148	0xbde2ecae	-0.11080299
149	0x3ce990fc	0.028511517
150	0xbd1119bb	-0.03542493
151	0xbdbef1f4	-0.09323493
152	0xbd97f3b4	-0.074195296
153	0xbda1dd35	-0.0790352
154	0xbd68710d	-0.05674844
155	0xbda21049	-0.079132624
156	0x3c4d11c2	0.012516441
157	0x3d5258bb	0.05135415
158	0xbddc0b31	-0.10744322
159	0xbd0489fe	-0.032358162
160	0xbd37976d	-0.044822145
161	0xbd791461	-0.06081045
162	0xbb1dcf9a	-0.002408004
163	0xbd67f47d	-0.056629647
164	0x3bd1848b	0.006393974
165	0xbb950c74	-0.0045486037
166	0x3dfae00e	0.12249766
167	0x3e691bca	0.22764507
168	0x3dfd02be	0.12354039
169	0xbd0e0d82	-0.03468085
170	0x3d604253	0.05475075
171	0xbdb1d7c7	-0.086837344
172	0x3dd0533c	0.10172126
173	0xbe1d223e	-0.15345094
174	0xbe0255e7	-0.12728082
175	0xbdf2d8de	-0.118577704
176	0xbe190138	-0.14941871
177	0x3a5e820c	0.00084880064
178	0xbb13f394	-0.0022575604
179	0x3a32633b	0.00068049476
180	0xbca870cc	-0.020561598
181	0xbd43bd19	-0.04778776
182	0xbd9f5fea	-0.07781966
183	0xbe0f1db6	-0.13976178
184	0xbde95def	-0.113948695
185	0x3d0c5e83	0.03426982
186	0xbdd64043	-0.10461476
187	0x3b7e49bc	0.0038801273
188	0x3d64301f	0.055709954
189	0xbc8bea68	-0.017079547
190	0xbd889113	-0.06668296
191	0xbdf9d742	-0.1219926
192	0xbd9c5124	-0.07632664
193	0x3dcd07d2	0.10011257
194	0x3bcfd9c4	0.0063430984
195	0x3dd72ac8	0.10506207
196	0x3c9be10a	0.019028205
197	0x3c95800a	0.01824953
198	0xbdcb7f12	-0.09936346
199	0x3bc409a8	0.0059825964
200	0xbdce0d40	-0.10061121
201	0xbe280d8c	-0.16411418
202	0xbddfc037	-0.10925334
203	0x3c672d26	0.014109885
204	0xbd8bf128	-0.06833106
205	0xbd37b77f	-0.04485273
206	0x3bba407b	0.005683956
207	0xbd55543e	-0.052082293
208	0x3e0c1a82	0.13681987
209	0x3dccacf6	0.09993927
210	0xbe2cdc76	-0.16880974
211	0xbe0e9c30	-0.13926768
212	0xbde2e427	-0.11078673
213	0x3d52bf9c	0.051452264
214	0x3d1fd987	0.03902581
215	0x3df5de83	0.12005331
216	0x3cf65a2b	0.030072292
217	0xbdb545d2	-0.08851208
218	0xbdc519ae	-0.09624039
219	0xbde3b398	-0.11118239
220	0xbd1e98f8	-0.0387201
221	0x3c9c8310	0.019105464
222	0xbd0f9774	-0.035056546
223	0xbe0eb9f5	-0.13938124
224	0xbe24244d	-0.16029473
225	0x3d7e10d3	0.062027764
226	0xbda03363	-0.07822301
227	0xbd845af1	-0.06462658
228	0xbd88b3b3	-0.066749
229	0x3e0e02ca	0.13868251
230	0xbc528b00	-0.012850523
231	0xbd9a8e89	-0.07546718
232	0xbdedc491	-0.11609758
233	0x3d81d6ba	0.06339784
234	0xbcf201e2	-0.029541913
235	0xbbcc040b	-0.006226068
236	0x3ca85e56	0.020552795
237	0xbbc9c38c	-0.006157344
238	0x3d6769fe	0.056497566
239	0xbc2c1238	-0.010502391
240	0xbbca0e64	-0.0061662663
241	0x3d03f390	0.0322147
242	0xbd9d778b	-0.07688817
243	0x3c640c2a	0.013918916
244	0x3dc0b692	0.094098225
245	0xbdeaa1b7	-0.11456626
246	0xbd95cc33	-0.073143385
247	0xbe2ad9a3	-0.16684584
248	0xbc4d3c91	-0.012526647
249	0xbdf76d18	-0.12081355
250	0xbe0ce56b	-0.13759391
251	0x3dc42ced	0.095788814
252	0x3d94da09	0.072681494
253	0x3d03b413	0.032154154
254	0x3d4da42f	0.050205406
255	0xbe04fb70	-0.12986541

convs.1.fc_full.bias f4 [32]
0	0xbd7249ee	-0.059152536
1	0x3de87c5e	0.11351846
2	0x3d0646cc	0.03278236
3	0xbd85823f	-0.06518983
4	0xbdcc4396	-0.099738285
5	0x3e00f2db	0.12592642
6	0x3dbf9daa	0.09356244
7	0xbdbcb4d7	-0.0921418
8	0x3bdc260e	0.0067184037
9	0xbb2a49fe	-0.0025984044
10	0x3d29aa04	0.041421905
11	0xbdd4b6c1	-0.1038642
12	0x3ca0b2d0	0.019616514
13	0x3d260112	0.040528364
14	0x3d945390	0.07242501
15	0x3cb57ddc	0.022154741
16	0xbda5f1e9	-0.08102781
17	0xbde44b27	-0.11147147
18	0x3db4861d	0.088146426
19	0x3dd37736	0.10325472
20	0xbd84e339	-0.06488652
21	0xbde91e81	-0.11382771
22	0x3d580904	0.052742973
23	0xbde27ead	-0.11059318
24	0xbdb8ade9	-0.09017546
25	0x3cc7723b	0.024346462
26	0xbca8ceb5	-0.020606378
27	0xbd055dda	-0.032560207
28	0x3e10b74f	0.14132427
29	0xbcae499d	-0.021275336
30	0x3dcbd977	0.099535875
31	0xbd069650	-0.032858193

convs.1.bn1.weight f4 [32]
0	0x3f89e695	1.0773493
1	0x3f867762	1.0505183
2	0x3f8fa27f	1.1221465
3	0x3f7fd322	0.9993154
4	0x3f8008d8	1.0002699
5	0x3f871fee	1.0556619
6	0x3f837939	1.0271369
7	0x3f80e2c9	1.0069209
8	0x3f84f2fa	1.038665
9	0x3f7b49dd	0.9815958
10	0x3f7a59d3	0.9779331
11	0x3f825383	1.0181736
12	0x3f86a2f9	1.0518485
13	0x3f83e770	1.0305004
14	0x3f83fe75	1.0312029
15	0x3f7e0b33	0.9923584
16	0x3f81a04f	1.0127047
17	0x3f768568	0.9629731
18	0x3f7b4cc0	0.98163986
19	0x3f821877	1.0163716
20	0x3f8224a2	1.016743
21	0x3f78b815	0.97155887
22	0x3f7e048c	0.9922569
23	0x3f8101a2	1.0078623
24	0x3f8578ec	1.0427527
25	0x3f858c16	1.0433376
26	0x3f8a1007	1.0786141
27	0x3f844172	1.0332472
28	0x3f7def1a	0.99192965
29	0x3f7da5e9	0.99081284
30	0x3f71ecb2	0.94501793
31	0x3f7bd31f	0.9836902

convs.1.bn1.bias f4 [32]
0	0x3b31e14c	0.0027142344
1	0xbd01d25a	-0.031694748
2	0x3bfdd3da	0.007746202
3	0x3c6a8617	0.014314196
4	0xbd2244cf	-0.039616402
5	0x3bd73f21	0.006568805
6	0xbd06fddf	-0.032956954
7	0xbc2d6c59	-0.010584914
8	0xbcb8a54c	-0.022539757
9	0x3c9b3de5	0.018950412
10	0x3cfff4cb	0.031244656
11	0xbb26a40d	-0.0025427372
12	0x3a8c5d6e	0.0010708997
13	0xbd6ac046	-0.057312272
14	0x3cad117a	0.021126498
15	0x3b323db6	0.0027197427
16	0x3b3133fc	0.0027039042
17	0x3d47ba11	0.04876143
18	0x3d3bf936	0.045891963
19	0xbc9d241c	-0.019182257
20	0xbd131eb6	-0.03591796
21	0x3cbc1568	0.022959426
22	0x3a9bd162	0.0011887962
23	0xbbf6d1dd	-0.007532342
24	0xbcd91b1a	-0.02650218
25	0xbc81badf	-0.015836177
26	0xbd155a39	-0.036462996
27	0xbd26f8d9	-0.040764663
28	0x3ac1070a	0.0014726829
29	0xbc6bd050	-0.014392927
30	0x3d5fc6b6	0.054632865
31	0x3cc0d15b	0.023537328

convs.1.bn1.running_mean f4 [32]
0	0xbf4c4b58	-0.79802465
1	0x3eef63fc	0.4675597
2	0xbf2dd858	-0.6790824
3	0xbfc07dd6	-1.5038402
4	0xbf53ac91	-0.8268519
5	0xbf4726b9	-0.7779346
6	0x3f43950a	0.7639929
7	0x3f005e48	0.5014386
8	0xbeb179fd	-0.34663382
9	0x3cbac840	0.022800565
10	0x3edb3c21	0.42819312
11	0xbf12b694	-0.5730984
12	0x3d23389e	0.039848916
13	0x3daf44ec	0.08558068
14	0x3e296445	0.16542156
15	0xbe0fb067	-0.14032136
16	0xbf636dca	-0.888394
17	0xbebdbf21	-0.37059882
18	0x3d4ac411	0.04950339
19	0xbf90f038	-1.1323309
20	0x3f1c5f10	0.61082554
21	0x3f19a145	0.600117
22	0xbe7c3470	-0.24629378
23	0x3f88a2cd	1.0674683
24	0xbf9dd2f9	-1.2330009
25	0xbee2e629	-0.44316223
26	0x3ea890d3	0.32922992
27	0xbea082cd	-0.31349793
28	0xbf889924	-1.0671735
29	0xba9dc16f	-0.0012035797
30	0xbf3cffd3	-0.73827857
31	0x3ed6ecfc	0.4197768

convs.1.bn1.running_var f4 [32]
0	0x3d8cf0e4	0.06881884
1	0x3db6f1ad	0.08932815
2	0x3dbc2739	0.09187169
3	0x3db862a9	0.09003193
4	0x3d452ece	0.04814034
5	0x3d6c4f17	0.057692613
6	0x3daee9c5	0.08540682
7	0x3d912e70	0.070889354
8	0x3d8e5d3c	0.06951377
9	0x3da7071d	0.081556536
10	0x3dba8f5d	0.091093756
11	0x3d6f1496	0.05836924
12	0x3df5c5a6	0.12000589
13	0x3d119d8b	0.035550635
14	0x3e182f9e	0.14861915
15	0x3dcae943	0.099077724
16	0x3dd310e3	0.10305955
17	0x3e11077c	0.14163011
18	0x3e05027d	0.1298923
19	0x3e0ea412	0.13929775
20	0x3d688fbe	0.05677771
21	0x3d585827	0.052818444
22	0x3da01614	0.07816711
23	0x3e537097	0.20648418
24	0x3d3c1a38	0.04592344
25	0x3d3fbc59	0.04681048
26	0x3d4cfbdc	0.05004488
27	0x3dbb49fe	0.09144972
28	0x3dc445b8	0.0958361
29	0x3d5e8094	0.05432184
30	0x3e4a519a	0.19757691
31	0x3e134409	0.14381422

convs.1.bn2.weight f4 [16]
0	0x3f856c3f	1.0423659
1	0x3f841f3a	1.032203
2	0x3f841958	1.0320234
3	0x3f8279ea	1.0193455
4	0x3f87ef27	1.0619859
5	0x3f812ba3	1.0091442
6	0x3f79abdf	0.9752788
7	0x3f841857	1.0319928
8	0x3f850752	1.0392859
9	0x3f81b096	1.0132015
10	0x3f833990	1.0251942
11	0x3f80d437	1.0064763
12	0x3f863c42	1.0487139
13	0x3f82bb52	1.0213416
14	0x3f7eaf8a	0.994866
15	0x3f81af61	1.0131646

convs.1.bn2.bias f4 [16]
0	0x3cd8b051	0.026451262
1	0x3d15ed48	0.036603242
2	0x3d6d17e5	0.057884116
3	0x3d5d836c	0.05408041
4	0x3ca5bf72	0.02023289
5	0x3d156aa0	0.03647864
6	0x3ad4978d	0.0016219482
7	0x3d24edfd	0.040266026
8	0x3d38aa08	0.04508403
9	0x3d28834b	0.041140836
10	0x3cb62aad	0.022237146
11	0x3ce05b31	0.027387233
12	0x3d757e28	0.059934765
13	0xbd240185	-0.04004051
14	0x3d5065f6	0.050878488
15	0x3d2c1911	0.042016093

convs.1.bn2.running_mean f4 [16]
0	0x40aacdc7	5.3376193
1	0x408ca67a	4.395322
2	0x409de46e	4.9341345
3	0x40a9e2bf	5.308929
4	0x4086df0c	4.2147274
5	0x409466af	4.6375346
6	0x40b06713	5.5125823
7	0x408ea1f3	4.457269
8	0x4089fc7e	4.312072
9	0x40875836	4.229518
10	0x4092ba9b	4.585279
11	0x409c8a1d	4.8918595
12	0x409da21b	4.9260383
13	0x40a38acd	5.1106935
14	0x40ab5f53	5.3553863
15	0x408c1cf8	4.378536

convs.1.bn2.running_var f4 [16]
0	0x41710e00	15.065918
1	0x408992da	4.299176
2	0x40c049fd	6.009032
3	0x41c64fe3	24.789007
4	0x4079096e	3.8912005
5	0x40a6a8b1	5.208092
6	0x412a8df1	10.659654
7	0x400e7d92	2.2264142
8	0x407c8e2e	3.946178
9	0x404fc157	3.2461755
10	0x4060bfda	3.5117097
11	0x40805548	4.0104103
12	0x41029141	8.160462
13	0x40aa63de	5.324691
14	0x40f0b037	7.5215106
15	0x40b4a84f	5.6455455

convs.2.fc_full.weight f4 [32, 56]
0	0x3e19a15b	0.15002958
1	0x3ca7e23d	0.020493621
2	0x3dece0fe	0.11566351
3	0x3d5afe7b	0.053465348
4	0xbd8d3c62	-0.06896283
5	0x3d3c207d	0.04592942
6	0x3d9379a7	0.07200938
7	0x3c9f9baa	0.019483406
8	0x3db32a38	0.08748287
9	0xbd9f66b0	-0.07783258
10	0x3d195443	0.037433874
11	0xbdc986ee	-0.09840189
12	0x3dbd10db	0.092317306
13	0x3d10f803	0.035392772
14	0x3bc310c0	0.0059529245
15	0xbe3ad822	-0.1824651
16	0x3e159809	0.14608778
17	0x3d94e968	0.07271081
18	0x3dc20d6f	0.094752185
19	0x3d001e13	0.03127868
20	0x3c3cd307	0.011524922
21	0x3b03fc3e	0.0020139362
22	0xbdea1011	-0.11428846
23	0x3dc353cb	0.095374666
24	0x3bf10f56	0.0073565645
25	0x3d2e9111	0.042618815
26	0x3d0d9860	0.034569144
27	0x3ca6eadd	0.020375663
28	0xbe090a10	-0.13382745
29	0xbe03abd1	-0.12858512
30	0xbd1f9e4e	-0.03896933
31	0x3ddbded2	0.10735859
32	0x3d9d8aa8	0.07692462
33	0xbe202517	-0.15639149
34	0xbde896cf	-0.113568895
35	0xbd86255f	-0.06550097
36	0x3a953b8e	0.0011385547
37	0x3e00e4d9	0.12587298
38	0xbcbcd2f5	-0.02304981
39	0xbe35e2ea	-0.17762342
40	0xbd2fbf7a	-0.042907216
41	0xbdbd08a7	-0.09230166
42	0xbd789fe5	-0.060699362
43	0x3d5087e9	0.050910864
44	0xbdbbcb3b	-0.091696225
45	0x3c4a798e	0.012358082
46	0x3d8a94d5	0.06766669
47	0x3d6526a3	0.05594505
48	0x3e138806	0.14407358
49	0xbcb0cc40	-0.021581769
50	0x3d64f089	0.055893455
51	0x3baeda42	0.005336077
52	0x3db47bf7	0.08812707
53	0x3d2ddfea	0.04244987
54	0xbe2ec8a8	-0.17068732
55	0x3de382b9	0.11108918
56	0x3d210145	0.03930785
57	0xbdf0459d	-0.11732028
58	0x3d3b5965	0.04573955
59	0xbe151004	-0.1455689
60	0x3d179c55	0.037014324
61	0x3acf9956	0.0015838544
62	0xbdfbe543	-0.122995876
63	0x3c872f33	0.016501999
64	0xbd8e1ae9	-0.069387265
65	0x3e11d010	0.14239526
66	0x3e0ac678	0.13552272
67	0x3d30121e	0.042986028
68	0x3dbe6f01	0.09298516
69	0x3dcc1421	0.09964777
70	0x3df8a125	0.12140111
71	0xbd25fd03	-0.040524494
72	0xbb089cb1	-0.0020845348
73	0x3c7ea4e0	0.015542239
74	0x3d1223f8	0.035678834
75	0x3c01ab6e	0.007914407
76	0xbd8ad5a8	-0.06779033
77	0x3d01d74a	0.031699456
78	0x3d701554	0.05861409
79	0xbdd2c323	-0.102911256
80	0xbde6a113	-0.11261191
81	0x3d37080b	0.044685405
82	0xbe0effe0	-0.13964796
83	0xba3c1e7e	-0.00071761745
84	0xbe16097d	-0.14652057
85	0x3dfc4f3a	0.12319799
86	0x3d13b8e1	0.036064986
87	0xbdecc8b6	-0.1156172
88	0xbde96a90	-0.11397278
89	0xbd58f708	-0.052969962
90	0x3e0dbb98	0.13841093
91	0xbd3ebb72	-0.04656548
92	0xbcb7607a	-0.02238487
93	0xbcd49f84	-0.02595497
94	0x3d4a7ed2	0.04943735
95	0x3d1ebada	0.038752414
96	0x3da3d8b7	0.080003195
97	0xbdb5460f	-0.08851253
98	0xbbcdfa8e	-0.006285972
99	0x3e0b1837	0.13583456
100	0x3ce9c614	0.028536834
101	0x3df73304	0.12070277
102	0x3d983201	0.074314125
103	0xbdb53912	-0.08848776
104	0x3c987629	0.01861103
105	0xbdb4ff8a	-0.08837803
106	0x3d193197	0.03740081
107	0x3d1b1385	0.037860412
108	0x3df176ca	0.11790235
109	0x3d6c9bf8	0.05776593
110	0x3d50d409	0.050983462
111	0x3d2a76c0	0.041617155
112	0xbe029d21	-0.12755252
113	0x3b18f565	0.0023339626
114	0xbdc2ef5a	-0.09518309
115	0xbccd018a	-0.025025148
116	0xbc953fb5	-0.018218854
117	0xbbb83da3	-0.005622582
118	0x3d31271e	0.043250196
119	0xbdc2e860	-0.09516978
120	0xbda4deb9	-0.080502935
121	0x3c98b3ed	0.018640483
122	0xbdf13bd2	-0.11778988
123	0xbc0d588d	-0.008627069
124	0x3ce100c4	0.027466185
125	0xbd6a3597	-0.057180014
126	0x3d53a3f7	0.05167004
127	0x3d9bf899	0.076157756
128	0xbdb3424f	-0.08752882
129	0x3d4adcf0	0.04952711
130	0xbb0849e2	-0.002079599
131	0xbd1579b3	-0.036493015
132	0x3cd98f0f	0.026557473
133	0x3e0923f3	0.1339262
134	0x3dd1940f	0.10233318
135	0xbdc31673	-0.09525766
136	0xbe19c4cd	-0.1501648
137	0x3e248966	0.16068038
138	0x3d533518	0.051564306
139	0xbd1f22aa	-0.038851418
140	0x3e0536c1	0.13009168
141	0x3d788b68	0.060679823
142	0x3d3de6cb	0.04636268
143	0x3e18f6a0	0.1493783
144	0xbd694b9e	-0.05695688
145	0x3d6861a1	0.05673373
146	0xbe05a427	-0.130509
147	0xbd99d9de	-0.07512258
148	0x3d26354d	0.040578175
149	0xbd70e74b	-0.05881433
150	0x3bf8162f	0.007571004
151	0xbd9604e6	-0.07325153
152	0x3ce53f11	0.027984174
153	0xbbe863ee	-0.0070919907
154	0x3d7c3cb0	0.061581314
155	0xbd9ab12f	-0.07553326
156	0xbd0fe0d0	-0.035126507
157	0x3dd878a4	0.105698854
158	0x3e1d3f69	0.1535622
159	0x3e186c0b	0.14884965
160	0xbdcd231f	-0.100164644
161	0xbd749862	-0.059715636
162	0xbd6c9ad7	-0.057764854
163	0xbce1fd54	-0.027586617
164	0x3d9e74d6	0.077371284
165	0x3d9fff90	0.078124166
166	0x3c30410b	0.010757695
167	0x3cfdf400	0.031000137
168	0x3c18d459	0.009327971
169	0x3ddfabe0	0.109214544
170	0x3dd55bbe	0.10417889
171	0xbd99880f	-0.07496654
172	0xbd0849af	-0.033273395
173	0x3c0981ba	0.008392746
174	0xbc9c5240	-0.019082189
175	0xbdc473df	-0.09592413
176	0xbdec24e1	-0.115304716
177	0x3d9743a4	0.07385948
178	0xbd83f4df	-0.0644319
179	0xbdd3a845	-0.10334829
180	0xbc658a1b	-0.014009978
181	0x3e0498bb	0.12948887
182	0x3dd3f378	0.10349172
183	0xbbe193d6	-0.0068840785
184	0xbdde5719	-0.10856456
185	0x3e06a2fc	0.13148111
186	0x3d591508	0.052998573
187	0x3d435d01	0.047696117
188	0x3d5f42b3	0.05450697
189	0xbbbf8edf	-0.005845889
190	0xbdc08f67	-0.09402352
191	0xbc4ce149	-0.012504884
192	0xbd88ecd2	-0.06685795
193	0xbc77c0ff	-0.015121697
194	0xbdc3f9ca	-0.09569128
195	0x3d5a42a0	0.053286195
196	0xbe0c85c8	-0.13722908
197	0xbe11f065	-0.1425186
198	0x3d8f74e9	0.07004721
199	0xbdb08574	-0.08619204
200	0x3dc95467	0.098305516
201	0x3dab22d1	0.0835625
202	0xbdd894d1	-0.105752595
203	0xbd46dc76	-0.04855009
204	0xbde1587a	-0.11003204
205	0xbc94679a	-0.018115807
206	0xbca116ec	-0.01966425
207	0xbe0c12ef	-0.13679098
208	0x3c919ff2	0.017776463
209	0xbc0dc978	-0.008653991
210	0xbd774b09	-0.060374293
211	0xbd350c4c	-0.04420118
212	0xbe45d980	-0.19321251
213	0xbdef2af3	-0.11678114
214	0x3c98c348	0.018647805
215	0x3e23020a	0.15918747
216	0xbce183de	-0.0275287
217	0x3df8ccb0	0.12148416
218	0xbc257182	-0.010097863
219	0xbd6b7e77	-0.057493653
220	0xb9aef48e	-0.00033370074
221	0x3cc79187	0.024361385
222	0xbc834754	-0.016025223
223	0x3dec785b	0.115463935
224	0xbd446c29	-0.047954712
225	0xbd9896bc	-0.07450625
226	0x3e1bf32d	0.15229483
227	0xbc262bf3	-0.010142314
228	0x3d77dc9b	0.06051312
229	0x3d408e13	0.047010493
230	0x3ba0a2ed	0.0049022348
231	0xbe0edce5	-0.13951452
232	0xbdb3f849	-0.08787591
233	0x3d04c0aa	0.0324103
234	0x3d44a2ae	0.048006706
235	0x3d6e7f23	0.058226716
236	0xbe21a33a	-0.15784922
237	0xbd03203c	-0.032013163
238	0x3dc749c6	0.09730868
239	0x3d8f2d87	0.069911055
240	0x3da3f91a	0.08006497
241	0x3e159c7c	0.14610475
242	0xbd4070de	-0.04698264
243	0xbdda008c	-0.106446356
244	0xbca8ffc6	-0.020629775
245	0x3d8ba979	0.06819434
246	0xbd5b178d	-0.053489257
247	0x3c34c74c	0.011033844
248	0x3d1e40e8	0.03863612
249	0x3d6d926f	0.058000978
250	0x3db3ecb5	0.08785383
251	0x3e14ab6f	0.14518522
252	0x3d037aea	0.03209964
253	0x3c26ef1c	0.010188844
254	0xbcda1110	-0.026619464
255	0xbd2a2ab8	-0.041544646

convs.2.fc_full.bias f4 [32]
0	0x3e0bcf48	0.1365329
1	0xbd066f48	-0.03282097
2	0xbe010e36	-0.12603077
3	0xbd61c66c	-0.05512087
4	0x3d610a90	0.054941714
5	0x3d82c11c	0.06384489
6	0xbdbe976e	-0.09306227
7	0xbdb50822	-0.08839442
8	0xbd10650e	-0.035252623
9	0x3ce595b0	0.028025478
10	0xbdfa54b2	-0.122231856
11	0x3d8d688e	0.06904708
12	0xbd8f5cc8	-0.070001185
13	0x3d9f3440	0.07773638
14	0x3d14c2cf	0.036318596
15	0xbcbfb50f	-0.023401765
16	0xbc764351	-0.015030698
17	0x3d4627a8	0.048377663
18	0xbd987aae	-0.07445274
19	0xbca2d6b7	-0.019877775
20	0x3d6b139e	0.057391755
21	0xbdf9eed7	-0.12203758
22	0xbd4a2439	-0.04935095
23	0x3ce1e68b	0.027575752
24	0xbd96b4aa	-0.07358678
25	0x3d913897	0.07090872
26	0x3d2d6831	0.042335693
27	0xbcd6aede	-0.02620643
28	0xbd2d3077	-0.042282548
29	0x3d87ab9c	0.06624529
30	0x3c67009b	0.014099265
31	0xbdc5debb	-0.09661623

convs.2.bn1.weight f4 [32]
0	0x3f8281d7	1.0195874
1	0x3f7c813d	0.986347
2	0x3f77b96a	0.96767294
3	0x3f7806d3	0.9688541
4	0x3f7760a3	0.9663183
5	0x3f90aa6c	1.1302009
6	0x3f829ad5	1.0203501
7	0x3f87b72a	1.0602772
8	0x3f7c6862	0.98596776
9	0x3f8383e3	1.0274624
10	0x3f7d6b84	0.9899218
11	0x3f8d8804	1.1057134
12	0x3f89f16a	1.0776799
13	0x3f6e2bcc	0.9303558
14	0x3f852f78	1.0405111
15	0x3f89dc5b	1.0770372
16	0x3f81a9c1	1.012993
17	0x3f7d5382	0.9895555
18	0x3f84a97a	1.036422
19	0x3f86b62c	1.0524344
20	0x3f8262c7	1.0186394
21	0x3f7b1750	0.9808245
22	0x3f83b21c	1.028873
23	0x3f76666c	0.96250033
24	0x3f86c686	1.0529335
25	0x3f89140e	1.0709245
26	0x3f853da1	1.0409433
27	0x3f83293e	1.0246961
28	0x3f7edd20	0.9955616
29	0x3f851357	1.0396527
30	0x3f835bc9	1.0262386
31	0x3f80f065	1.0073363

convs.2.bn1.bias f4 [32]
0	0xbcaf5d40	-0.02140677
1	0x3bc92b36	0.0061391843
2	0x3d70dd34	0.058804706
3	0x3d5f87dd	0.05457293
4	0x3b88f47b	0.004179535
5	0xbcea4e4f	-0.028601794
6	0xbc63d036	-0.013904622
7	0x3cae7de4	0.021300264
8	0x3c9ec24c	0.019379757
9	0x3d32d468	0.043659598
10	0x3cb20ee6	0.02173562
11	0x3d569c07	0.052394893
12	0x3a6caf5e	0.00090288173
13	0xbd1dc4c4	-0.03851773
14	0xbd3e6bc0	-0.046489477
15	0xbd26db75	-0.040736634
16	0xbbb4a40a	-0.005512719
17	0x3c9fe0b1	0.01951632
18	0xbc55f4e2	-0.013058873
19	0xbc899976	-0.016796809
20	0xbd013c68	-0.03155175
21	0x3c7502d0	0.014954284
22	0xbc76f9bb	-0.015074189
23	0x3d55aaaa	0.05216471
24	0xbcec94df	-0.028879581
25	0xbd1b501f	-0.037918206
26	0xbcb319f9	-0.02186297
27	0xbcc0be54	-0.023528256
28	0x3cbfe51f	0.023424683
29	0xbb93461c	-0.0044944417
30	0xbd9638f7	-0.07335084
31	0x3ca934f1	0.020655127

convs.2.bn1.running_mean f4 [32]
0	0x3f000807	0.5001225
1	0x3dabb9b2	0.08385028
2	0xbe679ba1	-0.22617961
3	0xbf8f9ffc	-1.1220698
4	0x3ef90a53	0.4864069
5	0x3eb56233	0.35426483
6	0xbe06b58e	-0.13155195
7	0x3eadcc2b	0.3394483
8	0xbe944534	-0.28959048
9	0xbfa72e35	-1.3060976
10	0xbf27f7e5	-0.6561263
11	0x3e7e8753	0.2485631
12	0x3e8e2275	0.27760664
13	0xbf6a40ec	-0.9150531
14	0x3fed622a	1.8545582
15	0xbe90d885	-0.2829019
16	0x3e4c7bb8	0.1996907
17	0x3f3e664f	0.7437486
18	0xc0088ca5	-2.1335843
19	0xbf522c67	-0.82099
20	0x3f7604ec	0.9610126
21	0x3f4b87c5	0.7950404
22	0x3bcd0a78	0.0062573515
23	0x3e4d9e9a	0.20080033
24	0xbe8e2c28	-0.27768064
25	0xbf9828d5	-1.1887461
26	0x3ec6b9ac	0.3881353
27	0x3f5ae978	0.85512495
28	0x3e396188	0.18103611
29	0x3fb0e4a3	1.3819774
30	0xbf2e3681	-0.68051916
31	0xbe92e53a	-0.2869051

convs.2.bn1.running_var f4 [32]
0	0x3eb803c2	0.35940367
1	0x3e82d11d	0.25550166
2	0x3eb0867f	0.34477612
3	0x3de03740	0.10948038
4	0x3e28fe8c	0.16503352
5	0x3dee98ea	0.1165026
6	0x3e7413ad	0.2383563
7	0x3d83e1d8	0.06439561
8	0x3dc9bacb	0.09850081
9	0x3e0db055	0.13836797
10	0x3e224c4a	0.15849414
11	0x3e03babb	0.12864201
12	0x3d9c6fe5	0.0763853
13	0x3e1236c0	0.14278698
14	0x3df9c1d6	0.121951744
15	0x3d966226	0.07342939
16	0x3e19f586	0.15035066
17	0x3e9c11b5	0.3048226
18	0x3ea969ef	0.33088633
19	0x3e5ca533	0.21547394
20	0x3dfd4d12	0.123682156
21	0x3e20cf74	0.15704137
22	0x3dffccc3	0.12490227
23	0x3e3ba4fa	0.18324652
24	0x3e0ca854	0.13736087
25	0x3e5863af	0.21131776
26	0x3eafb843	0.34320268
27	0x3e4f842c	0.20265263
28	0x3e214203	0.15747838
29	0x3d871318	0.06595439
30	0x3e342c69	0.17595066
31	0x3e018983	0.12650113

convs.2.bn2.weight f4 [16]
0	0x3f861e82	1.047806
1	0x3f841e6b	1.0321783
2	0x3f74ab28	0.95573664
3	0x3f881360	1.0630913
4	0x3f803907	1.0017403
5	0x3f88877b	1.0666345
6	0x3f7f3792	0.9969417
7	0x3f80fd5f	1.0077323
8	0x3f824c3e	1.0179517
9	0x3f85da60	1.0457268
10	0x3f82d0a7	1.0219926
11	0x3f834d52	1.0257971
12	0x3f878987	1.0588845
13	0x3f8d46b1	1.1037198
14	0x3f8af041	1.085457
15	0x3f817030	1.0112362

convs.2.bn2.bias f4 [16]
0	0x3ce80aa0	0.028325379
1	0x3d488839	0.048958037
2	0x3d855b5d	0.06511567
3	0x3d54bebe	0.05193972
4	0xb98f5e48	-0.0002734533
5	0x3d4159fd	0.04720496
6	0x3d1a527b	0.037676316
7	0x3d40516d	0.046952654
8	0x3d48b98e	0.049005084
9	0x3d1e419b	0.038636785
10	0x3d2ab1a3	0.041673314
11	0x3d2c33d8	0.04204163
12	0x3d731873	0.05934949
13	0xbcfc2a5d	-0.03078192
14	0x3d2854d3	0.04109652
15	0x3d324500	0.043522835

convs.2.bn2.running_mean f4 [16]
0	0x40acbbcd	5.397925
1	0x40b51df3	5.659906
2	0x408daaaa	4.427083
3	0x40a0be66	5.023242
4	0x40aae8f8	5.3409386
5	0x409ac410	4.8364334
6	0x408c76d4	4.3895054
7	0x40a2c6c0	5.0867615
8	0x4096b7d4	4.70994
9	0x40a255c9	5.072972
10	0x40829638	4.0808372
11	0x409e0cf7	4.9390826
12	0x4090c2b1	4.523766
13	0x409ff880	4.9990845
14	0x409d89fb	4.9230933
15	0x40a44c84	5.1343403

convs.2.bn2.running_var f4 [16]
0	0x41976eb9	18.929064
1	0x40bc3a7a	5.8821383
2	0x411364a0	9.212067
3	0x412fd3ed	10.98924
4	0x40e23076	7.0684156
5	0x40e71798	7.22163
6	0x40bfa970	5.9894333
7	0x417731a3	15.449618
8	0x412da3c9	10.852487
9	0x418b25bb	17.393423
10	0x3fd763c5	1.6827322
11	0x411eff75	9.937367
12	0x40bc93bf	5.8930354
13	0x41841b2e	16.513271
14	0x414365bf	12.21234
15	0x4104ce2d	8.300336
