cgcnndefect/defect_transfer_10/checkpoint.pth.tar (torch, 208687 bytes, 121 tensors)

embedding.weight f4 [16, 92]
00000000: ec1d fdbe 93e9 35bd 3f4b 803e b582 debf
00000010: 4068 a0bf 6e46 69be d0c0 273f 6997 af3f
00000020: b3a2 953f 5460 023f d769 a33f 317a 67be
00000030: ca76 4dbf d654 b33e 42ea c93e 500f 353e
00000040: ec6e 98be ef5a 8c3e 3411 b9be 68a6 233f
00000050: 0f28 f6be e01c d3bd ad8b ad3e 3da6 ce3e
00000060: bfd7 143f 7434 c43e c63d c9bd 9c01 24bf
00000070: ca59 a93d 2533 eabd 6620 193f bfdf aa3f
00000080: 3dec 923f ae1d 053f 7a68 1fbf 5e83 52bd
00000090: 56b1 1f3f 2a5d dcbe 00da 923f 17ab ca3e
000000a0: d904 003f 71d4 26bd 3195 1bbf fbc1 62be
000000b0: 5051 71be 1d89 5cbe c78f 0dbd 5b40 54be
000000c0: af8e 8bbe ed98 79be 3c16 c43d 013a 11be
000000d0: 64b9 143f a304 913f 7c35 0d3f 95ec 54bf
000000e0: 1199 3ebe 9203 d63e 2fa4 87be 57e0 3dbd
000000f0: 7a05 9f3d 3587 cdbe a94f 013e 2e52 8f3f
00000100: de9b 643e 9188 073d 8a70 823b e267 a2bf
00000110: 28d8 0fbe fb04 cd3d 0b3f 603f 0f7f 1cbd
00000120: 4954 b7bc c531 adbd 3190 d53c 9ff9 6a3f
00000130: 2df9 a93c a0a1 f73d 1dc4 603c ad8b b83e
00000140: 91f0 ad3d 274a cdbe 0dc6 213f 013b a8bf
00000150: 152a 0e3d 0276 833e 8dc6 c7be 521a 2bbf
00000160: 89b6 d73e 9b68 f73e 7af0 e6be 2826 d8bd
00000170: 35b2 c53e c276 4abe 7d37 6e3d cd19 3ebe
00000180: 041b 5d3f 56f7 32bf b673 a83e f043 e1bd
00000190: 66d2 463f fae2 013f 055f dd3e 6f64 a0be
000001a0: 108e 28bf e59a 91bd 1ac7 963e 4d88 863e
000001b0: 7cc5 cb3c a87b 93bd 0bb6 23c0 556c 513f
000001c0: d9bd 813e c0ce 96be 9e13 803f b82a 2cbd
000001d0: 2598 05be adc2 ebbf 3d67 6cbe 589b 10bf
000001e0: 29e3 40be 62e9 d43e 12af 053f 72b3 483d
000001f0: 0926 963f 491e 16bf 613a 19bd 6848 5d3c
00000200: 9e3f 383f 4d16 82bd c8af bbbc 83fc 3a3f
00000210: 92cd 9ebd fdec 97be c42f b33e f835 13bf
00000220: 1e4e 75be 0279 48be ccc6 5cbe 359b de3e
00000230: 1061 8b3c 94d1 303f 5aab 033e f670 003d
00000240: 8d6f 0fbe e89d 813e 6513 023f ebac 27bf
00000250: 517d adbe f548 a13e e6f1 afbe 83de 8b3e
00000260: 7018 d53d 59b9 de3d 1374 f63e ba94 6bbc
00000270: 8c73 d2ba 79a6 8dbc 6c8f b4bc 9fdb fe3d
00000280: 49c6 6e3f 00b1 a7bc 50ba 38bc 355c b8bd
00000290: 1922 f3be c56b aabe 5e85 a03e 39bf 82be
000002a0: ea2d c0bd 97f3 c1bd a795 683d 5870 07bd
000002b0: 4acb c83e 9dd0 b23e e424 0f3e 0d61 ef3f
000002c0: 4fa9 be3e 7e72 33bf 45f1 cdbe e216 913e
000002d0: ccdd 5dbf 35b1 46bf 7b13 eebe 8572 b8be
000002e0: bea2 f23e bbc0 943e a612 9bbf 3ebb 7c3f
000002f0: 31c4 313f d751 d33f 6795 0d40 ac28 303f
00000300: 2c3c 04bf ffc1 c1bf b2ae dfbf d45e 48bf
00000310: c0b0 b1bf 0d96 ffbe 6243 5e3e 63cf 1bbe
00000320: aff3 fe3d 73c9 a2bd bf1c b8bf 1512 e2bc
00000330: 6588 acbe 2ca8 873f f968 fbbe ee1f 93bd
00000340: 8258 36be d535 f1be e59c 1e3f 5e8e 0f3e
00000350: 5657 6a3e f3e9 013f 4feb 8b3e 0fcf 2e3e
00000360: 5ff9 553e 8f1d 90bf 5c18 bdbe 1607 d0bd
00000370: 8e77 153d 5fb9 6bbe 8541 ac3e 7c0d 733f
00000380: ba9a 79bf f97e 2cbe e430 e53d 58cd 2c3e
00000390: 21fa 903e ec2a bd3e 267c 823e 0db2 b1be
000003a0: d73e 14bd 4246 5c3f c021 003f fb05 e23e
000003b0: 2811 053e 2f49 30bf 4d02 c8bf 734e 19c0
000003c0: 84dd 30bf d83a 41bf 4538 163f 5429 93be
000003d0: f2e7 0abe 9c13 d8be 95de 2a3f 599f f4bc
000003e0: dd20 3abe 1019 0ebd bbe8 60bd 6722 71bf
000003f0: ce27 54be aea9 f9bc bc1f e4be 60ef 1dbd
-0.4943689 -0.044412207 0.25057408 -1.7383639 -1.2531815 -0.22780773 0.65528584 1.3718082
1.1690277 0.50928235 1.2766675 -0.22605206 -0.8025938 0.35025662 0.39436537 0.17681623
-0.29772127 0.27413127 -0.36145937 0.6392579 -0.48077437 -0.10308242 0.33895627 0.40361205
0.581417 0.3832127 -0.098262355 -0.64064956 0.08269079 -0.11435536 0.5981506 1.3349532
1.1478344 0.5199841 -0.62268794 -0.051394813 0.6237997 -0.4303983 1.1472778 0.39583656
0.50007397 -0.040729944 -0.60774523 -0.2214431 -0.23566175 -0.2153668 -0.034560945 -0.20727675
-0.27257296 -0.24374743 0.09574553 -0.14182283 0.58095384 1.132954 0.55159736 -0.83173496
-0.18613078 0.417996 -0.2649245 -0.046356525 0.077647164 -0.40142217 0.12628044 1.1196954
0.22325084 0.033089224 0.003980701 -1.2687953 -0.14047301 0.100107156 0.87596196 -0.03820711
-0.022379057 -0.084567584 0.026069732 0.9178714 0.0207487 0.120913744 0.013718632 0.36044064
0.0849315 -0.40095636 0.63192827 -1.3143007 0.0347081 0.2567597 -0.3901867 -0.66837037
0.4213145 0.48321995 -0.45105344 -0.10554153 0.38612524 -0.19771865 0.058158386 -0.1856453
0.8636935 -0.69908655 0.3290078 -0.10999286 0.7766479 0.50736964 0.43236557 -0.31326625
-0.6584177 -0.07109622 0.29448777 0.26275864 0.024874441 -0.0720132 -2.557986 0.81805927
0.25340155 -0.29454613 1.0005987 -0.042032927 -0.1304632 -1.8418785 -0.23086257 -0.56487036
-0.18836655 0.41584307 0.5222026 0.048999257 1.1730357 -0.5863996 -0.03740919 0.0135060325
0.7197207 -0.0635191 -0.022910967 0.7304155 -0.07754053 -0.29672995 0.3499738 -0.57504225
-0.2395558 -0.19577411 -0.2156021 0.4347779 0.017014056 0.6906979 0.12858334 0.031357728
-0.14007397 0.25315785 0.50810844 -0.65498227 -0.3388467 0.31500974 -0.3436424 0.273182
0.10405052 0.10875196 0.48135433 -0.014378721 -0.0016056164 -0.017291294 -0.022041045 0.12444233
0.9327131 -0.020470142 -0.011274889 -0.09001962 -0.47486952 -0.33285347 0.3135175 -0.25536516
-0.093837574 -0.09470289 0.056783345 -0.033066124 0.39217597 0.34924784 0.13978916 1.8701493
0.37238547 -0.70096576 -0.40223137 0.2833777 -0.8666656 -0.77614146 -0.46499237 -0.3602487
0.47389787 0.29053292 -1.2115066 0.9872321 0.6943999 1.650935 2.2122438 0.6881206
-0.51654315 -1.5137328 -1.7475188 -0.78269696 -1.3882065 -0.49919167 0.21705392 -0.1521583
0.12448823 -0.0794858 -1.4383773 -0.027596513 -0.3369781 1.0598197 -0.49103525 -0.071838245
-0.178072 -0.47111383 0.6195815 0.14019153 0.22884879 0.50747603 0.27327964 0.17071174
0.20895909 -1.125902 -0.36932647 -0.101576015 0.03649097 -0.23019932 0.33643737 0.9494245
-0.9750172 -0.16845311 0.11190966 0.16875207 0.28315833 0.3694681 0.25485343 -0.34706154
-0.03619274 0.86044705 0.500515 0.44145188 0.12994826 -0.6886167 -1.5625702 -2.3954132
-0.69088006 -0.75480413 0.5867961 -0.28742468 -0.13565043 -0.4220246 0.66745883 -0.02986114
-0.18176599 -0.03469187 -0.05490945 -0.9419312 -0.2071831 -0.030476417 -0.4455546 -0.038558364

embedding.bias f4 [16]
00000000: 30b6 0c3f 574d 033f eb45 1cbf 90f7 4fbe
00000010: 80d2 353e 048e 2bbe 9084 563f 8959 0e3f
00000020: 651e 48be 3793 cf3e 5fb0 ee3e 1b59 d1be
00000030: f43b 6b3e 47b7 473c de94 f8be dd6a a43e
0.54965496 0.51289886 -0.61044186 -0.20309281 0.1775608 -0.16753393 0.83796024 0.5560537
-0.19542845 0.40542004 0.46618935 -0.40888295 0.22972089 0.012189693 -0.48551077 0.3211278

convs.0.fc_full.weight f4 [32, 56]
00000000: 243a da3c f701 bcbe dd32 913c 6f73 a93e
00000010: 1194 f23e 7af3 8bbf 2428 18bc 7f67 e73d
00000020: e46d febd c13c 73bf d587 803f cebd 0cbf
00000030: 80de c03e 89b2 73bf b63c cdbe b585 4d3f
00000040: e9fa 28bf e5bf a3be f448 9d3e 988c 123e
00000050: 9960 e4be 75b4 8c3e 9e71 273f 94a2 08bf
00000060: 3604 28be e4dd 083f a1a8 143f f751 1fbe
00000070: 8a5e 2bbf aee6 2dbf a7ad 223f 25bd 10be
00000080: 79d4 d33f 560b ef3f 3c1d 9e3f 2bec 81bf
00000090: e96e 8bbf 76d8 d63f 8353 d73f 03f8 a03f
000000a0: 691c 7ebf eafa 9fbf 1a57 d63f 36be e53f
000000b0: 29ec b43f 7b31 7fbf 8127 9fbf f6d7 c43f
000000c0: 9585 0940 29ee 3140 6bdb 3f40 c42f b9bf
000000d0: fda8 d3bf 20a5 adbf a871 b2be 201f 103f
000000e0: 3c12 a73e 7649 eebe b7a3 2fbf 4f21 81bc
000000f0: c0b5 8ebf 1026 8a3f bf3f 3dbf 1f82 373f
00000100: 56bb 2a3f 06c3 9e3f aada 21be f7d1 d43f
00000110: bdec 453f f374 c9bc f049 cbbe 86c7 b4be
00000120: 7db7 eabd abf6 f53e ee68 aa3d b1c1 47bf
00000130: 39b0 4e3f 348e 40be 3342 d53f 3f86 26bf
00000140: 5ee2 0d3f f31d 593f ed0c 88bf 6791 abbd
00000150: 5615 253e e806 94bf c948 a7be bfff 9d3e
00000160: ee0d b23e 8f53 dd3e 3c5a bf3f 6a39 0a40
00000170: a3e9 1e3f f2a5 993e d67b d63e 256b c73f
00000180: b4ab 0940 c71a 143f d22f 193e 7d1e 133f
00000190: ef96 cc3f 638e 0440 299f 1f3f 701a cdbf
000001a0: ab3f 36bf e3a6 2a3f 4703 1240 ef0d 3fc0
000001b0: 2f33 1ac0 c229 be3f 4d96 2840 1093 ff3f
000001c0: adfd 273e 2005 c43f 699f 30bf 3b7d 163e
000001d0: b086 703d 33a9 66bf ed90 033f 3455 283f
000001e0: fda5 6cbc df37 743e 8931 60bc fc88 e33e
000001f0: d0ee 813d cfd4 6abf 5324 8c3d ac16 09bf
00000200: 5c98 a53f b88c 5dbd c5fb 57bf dbf4 1c3f
00000210: 90a5 3f3d 0020 e53e b73c 4bbf e136 863f
00000220: fecd 133e cba2 a6bf f390 b63e 0eb1 4b3e
00000230: a63e 24bf bf8b a9bc 7aae 25be c6c9 003f
00000240: 0092 4b3d 0cb6 243f 3c2f 3340 20cd ca3f
00000250: 00d9 a03f 3422 003d 9bd1 3c3f 4b99 3a40
00000260: 493a e13f c63e 823f 868c 56be 2dc7 fc3e
00000270: f4d7 3f40 da6a d23f 07be 843f 53ed b13e
00000280: 85de fe3e 0543 113f c5c2 5c3f bcb3 6dc0
00000290: 1914 88c0 c35d 91c0 7bdd 73c0 d599 36c0
000002a0: c2da 68be 9061 c7be 7c7e 9b3e 6da6 493e
000002b0: 9015 593e 5565 8cbf db7c 55be 4da7 0fbf
000002c0: 01a0 72bd be3e 703e 4180 9b3e 4f89 803e
000002d0: 5d6f 3d3f 3b1e e6be ed36 023f 2bd0 b33d
000002e0: e557 83bd 0318 1c3f e4a7 b03e eb76 023e
000002f0: d9b6 78bf 1faf aa3f 5633 963f 7a0d 4c3f
00000300: 3175 b3be 7ce9 ca3e 00b9 4e3e 4355 04bf
00000310: 06a2 15bf a637 b03f 805e b0bf 271f 893e
00000320: 15e2 893f 0cad 2c3f d6dd 2ec0 4591 53c0
00000330: 2f50 1cc0 f107 953f 1dd5 413f 018a 2cc0
00000340: 9340 51c0 8fcc 16c0 7225 953f 6894 2d3f
00000350: bfa2 32c0 a154 5ac0 86da 18c0 0ce3 3240
00000360: 925c fc3f 6bb4 883f ee3a 7a3e 25b0 5a3f
00000370: bb32 aa3f 69e2 e83f eb91 0c40 e5dd 2b40
00000380: f64b bc3e 7bbb a63c 9648 cebe ee3d 02be
00000390: 1308 d6bd e10b 483e 0145 6a3e dc84 87be
000003a0: a18e be3e 7903 32bd b841 a8bd 8fdb 7fbd
000003b0: fb30 df3d 9e4b 683d c227 553f b8b1 82be
000003c0: baad 583e bbeb 9dbd 30c5 9d3d a7c7 883f
000003d0: f369 a93b 6239 953e de80 193f 5b83 923d
000003e0: 6667 59be e961 c6bb 4cc5 c73d 3d00 4b3e
000003f0: 20e9 323c 8daf 7bbe c987 debe 01cf 593e
0.026639052 -0.3672025 0.017724449 0.3309588 0.4737859 -1.0933678 -0.009286914 0.11299037
-0.12423304 -0.9501458 1.0041453 -0.5497712 0.37669754 -0.951943 -0.4008538 0.80282146
-0.6600786 -0.3198234 0.3071972 0.14311445 -0.44604948 0.27481428 0.6540774 -0.53373075
-0.16407856 0.5346358 0.5806981 -0.15558611 -0.6694113 -0.67930114 0.6354622 -0.14134653
1.6549217 1.8675334 1.2352672 -1.0150198 -1.0893222 1.6784809 1.6822361 1.2575687
-0.992621 -1.2498448 1.6745331 1.7948673 1.413457 -0.99684876 -1.2433931 1.5378406
2.1487782 2.7801611 2.9977672 -1.4467702 -1.6535946 -1.3566017 -0.34852338 0.56297493
0.326311 -0.4654042 -0.68609184 -0.015762953 -1.1149216 1.0792866 -0.73925394 0.71682924
0.666921 1.2403266 -0.1580607 1.6626576 0.7731436 -0.024591899 -0.39704847 -0.35308474
-0.11460779 0.48039755 0.08320795 -0.78029925 0.80737644 -0.18804246 1.6660827 -0.65048593
0.55423534 0.84811324 -1.0628945 -0.08377343 0.1612142 -1.1564608 -0.32672718 0.3085918
0.34776253 0.43227813 1.4949412 2.1597543 0.6207525 0.3000942 0.41891354 1.5579573
2.151105 0.5785336 0.14959648 0.57468396 1.5983561 2.0711906 0.62352234 -1.6023693
-0.711909 0.666609 2.28145 -2.9852254 -2.409374 1.4856493 2.6341736 1.9966755
0.16405363 1.5314064 -0.6899324 0.14696209 0.058722198 -0.9010193 0.51393014 0.6575501
-0.014443872 0.23849438 -0.013683685 0.44440448 0.06344378 -0.9173097 0.06842866 -0.5355022
1.2937121 -0.054089278 -0.84368545 0.6131112 0.046788752 0.44750977 -0.7938952 1.0485498
0.14434049 -1.301843 0.35657462 0.1989176 -0.64158094 -0.020696519 -0.16179839 0.5030788
0.049699783 0.6434028 2.799758 1.5843849 1.2566223 0.03128262 0.7375733 2.9156063
1.7595912 1.0175407 -0.20952043 0.4937071 2.9975557 1.6438859 1.0370492 0.34751377
0.49779144 0.5674289 0.86234695 -3.714095 -4.2524533 -4.5426955 -3.810393 -2.8531392
-0.227397 -0.38941622 0.30369937 0.19692393 0.21199632 -1.0968424 -0.2084841 -0.56114656
-0.059234623 0.23461434 0.30371287 0.25104758 0.7399805 -0.4494494 0.5086506 0.08779939
-0.06413249 0.6097414 0.3450309 0.12740676 -0.97154003 1.3334693 1.1734416 0.79708064
-0.35050347 0.3963126 0.2018776 -0.516926 -0.58450353 1.3766983 -1.3778839 0.2678158
1.077212 0.6745155 -2.7322898 -3.3057415 -2.442394 1.1643049 0.7571581 -2.695923
-3.2695663 -2.3562353 1.1652052 0.67804575 -2.7911832 -3.4114153 -2.3883376 2.7951078
1.971575 1.0680059 0.24436542 0.85425025 1.3296732 1.8194095 2.1964061 2.6854184
0.36776704 0.02035307 -0.40289754 -0.12718937 -0.10450759 0.19535781 0.22877885 -0.2646855
0.37218192 -0.043460343 -0.0821566 -0.062465247 0.10898014 0.05671274 0.8326379 -0.25526214
0.21160021 -0.07710978 0.07703626 1.0685929 0.005170101 0.29145342 0.5996226 0.0715396
-0.2123085 -0.0060541523 0.09754428 0.1982431 0.010919839 -0.24578686 -0.4346297 0.21270372

convs.0.fc_full.bias f4 [32]
00000000: 297b 3dbd 10ba a13e 0771 dabd 35d2 e2bb
00000010: 6a32 b4bb 4c8a 06bf 9503 37be 3c73 55be
00000020: c660 5f3d 3750 57bd d226 07be b499 dc3d
00000030: 4dda 703d 847a 66bd c079 1f3e e6dd 913e
00000040: a9ca 1fbe 81c9 5e3c 2860 18be 67b6 533e
00000050: d2a0 8d3d 28ce 9a3e 3c6e dfbd 36a2 7bbb
00000060: ab43 9dbc d5c3 e5bd 82ee a33d 1adf 073e
00000070: 82be 963d 7710 5a3e 2bd3 d93e c309 9e3e
-0.046260033 0.31587267 -0.106660895 -0.0069220313 -0.005499174 -0.52554774 -0.1787246 -0.2084474
0.05453565 -0.052566733 -0.13198403 0.10771504 0.058801938 -0.056269184 0.15573788 0.28489608
-0.15604652 0.013597847 -0.1488043 0.2067505 0.0691544 0.3023541 -0.109096974 -0.0038396246
-0.019197306 -0.112189926 0.08004476 0.132687 0.07360555 0.21295343 0.4254392 0.30866823

convs.0.bn1.weight f4 [32]
00000000: 3f2d 5640 38dd 7640 b980 9b40 1508 5140
00000010: 3dc1 3940 eab0 d13f 4cf6 7f40 0fe5 8b40
00000020: abf3 9740 3c8f e740 068c 3940 1a03 8740
00000030: 5cc2 ae40 8fcf 6940 5e6d 5240 5cd5 bb40
00000040: 0f29 d63f 3ce3 9b3f c425 083f 2009 1a3f
00000050: 22a4 7740 3ba2 7c3f 7c98 0240 b716 b53f
00000060: 379d 7c3f b258 6c3f 938c ec3f 8f7d 2540
00000070: d914 673f fbf2 6b3f 0c7a e83f 3afc cc3f
3.3465116 3.8572521 4.859463 3.2661183 2.9024193 1.6382115 3.9994078 4.3717113
4.7484946 7.2362347 2.8991714 4.2191286 5.4612255 3.6532934 3.2879252 5.869795
1.673128 1.2178721 0.53182626 0.60170174 3.8693929 0.98685044 2.040557 1.4147557
0.9867739 0.9232284 1.84804 2.5857885 0.90266186 0.92167634 1.8162246 1.6014473

convs.0.bn1.bias f4 [32]
00000000: bcdd 01bf 90d8 933f 78bb c13e f438 5e3e
00000010: d91b 9bbf d105 033f a016 23bf 5bc1 1cbf
00000020: 80b6 3a3f 489e df3e 642d c4be 0dc0 15bf
00000030: 70af 43bf 1089 07be c21d 8cbf 354e 6bbf
00000040: 54fa 39bf 8f9b d73e 1160 8b3f a91a 073f
00000050: be1e 16be 85cb bb3e 110f 1cc0 363b dabf
00000060: 874a 723f 17a9 a13e ad9b 27c0 b536 91c0
00000070: 3f03 4bbe 0990 e73d 06d7 10c0 8c85 183e
-0.50728965 1.1550465 0.3783834 0.21701413 -1.2117873 0.5118075 -0.637064 -0.6123254
0.7293472 0.43675447 -0.3831588 -0.5849617 -0.7643957 -0.13235879 -1.0946581 -0.9191621
-0.72647595 0.4211087 1.0888692 0.52775055 -0.14660165 0.3667871 -2.4384196 -1.704932
0.9464497 0.31574318 -2.6188767 -4.537928 -0.19825457 0.113067694 -2.263124 0.14894694

convs.0.bn1.running_mean f4 [32]
00000000: e18f 9741 cb85 3141 4238 bc41 4ea2 60c1
00000010: 560e 2fc0 dd3a 4041 9e02 84c1 2742 bac1
00000020: 8042 1540 ce84 e240 308f 8cc1 83f7 7d40
00000030: f624 5bc2 e4fb 0a41 9125 5cc1 3350 2341
00000040: 5a10 87c0 20be 1742 35b7 2ec1 a593 8940
00000050: e7e2 c5c0 0a68 8541 e487 c4c1 38e9 99c1
00000060: f6dc 9fc0 915f 46c1 9194 29c1 7703 95c1
00000070: 8e9a 8841 d36e dcc0 7d30 1ac2 f342 3cbf
18.945253 11.095164 23.52747 -14.039625 -2.73525 12.014371 -16.501278 -23.2823
2.3321838 7.0787115 -17.569916 3.968232 -54.786095 8.686497 -13.7591715 10.20708
-4.220746 37.93567 -10.919728 4.299273 -6.183948 16.6758 -24.566353 -19.238876
-4.995723 -12.398332 -10.598771 -18.626692 17.075466 -6.8885283 -38.54735 -0.73539656

convs.0.bn1.running_var f4 [32]
00000000: 2f6c 6542 d820 2c42 9980 df41 922c cc42
00000010: a37e 0f42 cd9c 1442 684a 2b42 ab63 8541
00000020: 51df 1942 aee1 0342 4704 6e42 2ca6 6241
00000030: 2bb6 0942 abcf 5142 4b87 d741 b6f4 f642
00000040: 61bf e641 dc82 4242 5f3b 2542 a1bd 8442
00000050: 6641 1343 79f9 3e42 4e96 d241 034e c841
00000060: 1a7c bc42 d8d5 2342 2eeb 3f42 6d02 9241
00000070: 5d08 4a42 a325 6a42 10ba cf41 199b 3d42
57.355648 43.032074 27.937792 102.08705 35.87367 37.153126 42.822662 16.673666
38.468082 32.97039 59.504177 14.165569 34.4279 52.4528 26.941061 123.47795
28.843447 48.627792 41.30798 66.37037 147.25546 47.743626 26.323391 25.038092
94.242386 40.95883 47.979668 18.251184 50.508167 58.536755 25.96585 47.401463

convs.0.bn2.weight f4 [16]
00000000: 2b2d 733f 9762 b53f 3ea7 e63f 3ae5 c43f
00000010: 1dc6 d93f 0635 b83f 82f4 ea3f ca23 c63f
00000020: fae6 c33f 3bbe 423f 7e1e e03f 64ce b53f
00000030: 90f8 b03f 379d 993f a432 823f a69f cb3f
0.94990796 1.4170712 1.8019788 1.5382454 1.7013584 1.4391181 1.8355868 1.5479672
1.5304863 0.7607152 1.7509305 1.420361 1.3825855 1.2001103 1.0171704 1.5908096

convs.0.bn2.bias f4 [16]
00000000: 4ae9 243f 64ed b73e 3a91 30bf 68c4 113d
00000010: 6978 eb3e efe6 d0bb 4a46 113f 3e26 4e3f
00000020: a659 6fbe daa8 f03e 26b1 743e d31a b0be
00000030: 9ccc 6c3e 920a 24be 43c2 f6be a659 793e
0.6441847 0.35923302 -0.689716 0.0355877 0.45990303 -0.0063751857 0.5674788 0.805271
-0.23374042 0.47003824 0.23895702 -0.34395465 0.23124927 -0.16019657 -0.48195085 0.24350604

convs.0.bn2.running_mean f4 [16]
00000000: 0e68 2f40 f7d9 ef40 2d8d 3341 90a7 dd40
00000010: 45c2 5a41 61ef 0f41 451d 5640 d2ff 0540
00000020: 4f25 2441 9f21 9740 5162 2140 06d6 503f
00000030: 8fa0 4540 19ba ea40 77a7 3640 0d8f d740
2.740726 7.495357 11.221967 6.9267044 13.672429 8.995942 3.3455365 2.093739
10.259109 4.722854 2.5216258 0.81576574 3.0879247 7.335217 2.8539712 6.7362123

convs.0.bn2.running_var f4 [16]
00000000: 7d68 3940 a17b 4842 c91b 3242 8d9b ac40
00000010: 87d0 fc42 afde 3041 e292 e841 9fb4 8b40
00000020: d8ff 5342 5226 1e42 4f4d e040 59f6 1f40
00000030: 7a04 b440 04e7 ce40 36a5 6041 f9b7 2542
2.8970025 50.12073 44.527134 5.393988 126.40728 11.054366 29.07172 4.3657985
52.999847 39.537422 7.009437 2.4994109 5.6255465 6.4657 14.040335 41.42966

convs.1.fc_full.weight f4 [32, 56]
00000000: d625 7b3f 737c 12be 0c90 14bf 4ffa b9bf
00000010: 47d0 27bf ae6e 98bd 51df 10bf 4163 38bf
00000020: 0061 86be b4e2 503e 5216 e5be c129 1b3e
00000030: bb3c ddbe 84c5 15bf 8021 22bc 0198 3bbf
00000040: 620a d4be 1d1a 68bd 3926 d4bc 3e29 b83e
00000050: 8e69 b43f 31ea f53d 227e a6bf 013b b03e
00000060: eb30 50bd b12e 9bbe d59a 2e3e ceee d13d
00000070: 241d 433d c055 95be 0b0a 613f 1cb4 c93e
00000080: ec76 b5c0 a29a bdc0 ecd0 bec0 beb0 d53f
00000090: 2117 6140 c0f4 aec0 08b8 bdc0 cf48 bdc0
000000a0: 5e14 c43f 2f8b 6d40 0df9 abc0 e50d bac0
000000b0: 5c5b c1c0 66a0 d03f 78b5 6b40 549a a3bf
000000c0: 6ca0 c5bf d4e3 08c0 d77e 45c0 ce0b bbbf
000000d0: 0c32 d0bf bb41 2cbf b89e 12bf 08b6 babf
000000e0: 726d c83f 6a61 89bd 318b 6840 4630 633f
000000f0: 1900 153e bf68 aa3e f563 26bf 75f5 64bf
00000100: 66a7 e8b9 b0ae 823f 36e3 d9be 91c8 abbd
00000110: 9cc9 6fbe c52f 29bf 4638 0d3e 5f47 10be
00000120: 5d66 763c 9d6e 083f ed20 a43f c908 cb3e
00000130: 00f3 0a3f 53ee c93f a553 083f d83f 6e3f
00000140: e8fe 843f ec73 413f b629 363f 7c0a 58bf
00000150: 2770 0340 36c1 633f 32e2 603d f964 a7bf
00000160: 304d 1440 9913 3a40 cb5b 2f3e d913 a7bf
00000170: 4100 b7bf 6ff6 1440 da8e 3f40 2038 ca3e
00000180: 28ac 99bf e213 b6bf 006a 1540 2f1d 4340
00000190: 9c94 873e 967e 86bf 73ab c5bf 6029 b03f
000001a0: 465d e43f 2689 fe3f cd65 fd3f 5a4c 9340
000001b0: 659b 9f40 9cf3 6a3f d1b7 45bf e76f bcbf
000001c0: 1156 913f 48c5 c83e 7d26 e3be dabd 293f
000001d0: 5dc6 93be 4a0b cd3f cc4b eb3e 26a5 e63e
000001e0: f031 0fc0 62a1 933d 056a 913e 6677 bdbe
000001f0: a0a0 873e 6551 7dbe 34cb c3be 2d33 7e3e
00000200: 3c03 c33d 0ff8 1340 7fe0 61bf c1c6 53bf
00000210: 3f51 33bd 1b9a 283f 1f5b 82be 79a4 d4bf
00000220: 6836 02c0 0c25 df3e 7351 0abe 0cfe eabe
00000230: 55ff 10be f9a6 98be 6c2f 15bf 4d1b 84bf
00000240: 1745 60bd 09e5 ab3d c652 823f aaa9 b63e
00000250: 7e7c 0a3e 6a5f 923d 6312 033e 7503 803f
00000260: bb85 a63e fbe4 0d3e b316 993b cf24 e83d
00000270: d24e 933f 55b4 dd3e c217 a83d 51c8 11bf
00000280: 8e9e 563e 2e62 8e3f e74e 0d40 3448 d2be
00000290: 4bfd 2cbd 9204 b13e ea23 c03e d8a9 11bc
000002a0: 74f0 bb3c 0246 1a3e ed78 1bbe a457 3b3f
000002b0: 166d d1bf ec96 7c3e 49b5 1abf a905 83bf
000002c0: 628c 773e d0fc 873f 48e4 373f c263 b3be
000002d0: 53f0 6f3e 80f4 91be 0c29 00c0 3ab3 6fbf
000002e0: 0627 d43d 8af1 e7bb 0d5e 0fbd 463b a8bd
000002f0: 213b 3d3f 7fdd 75bf 8d2a df3b 7b99 8bbf
00000300: 2966 0d3f 3271 05bf d999 893e 6ddc 8cbd
00000310: 9b62 8bbf c76a d03d 6f38 4bbf b1b5 cbbe
00000320: 5ee9 a5be c6d6 4bbe ede0 573f 6ebf 533f
00000330: b044 093f a9a5 83be 8546 b8ba 7b44 723f
00000340: 00d3 6d3f b33c 2a3f f347 bfbe 68c9 f6bd
00000350: 6e7d 6e3f a18b 523f 30a9 103f b4aa 323e
00000360: a275 973e e645 873e 73d3 9d3e 6246 38c0
00000370: 1a50 47c0 6571 25c0 5706 1fc0 b9ca 24c0
00000380: ac1a 183b 5416 c4be ba40 df3d dbcf 453e
00000390: 33fe 43be 360f 103e f236 2cbe ce9b f3be
000003a0: 41a9 0ebf 3cc5 ed3e 0f33 cc3f 6f95 0dc0
000003b0: 8cd3 963f cc1a 03c0 1dd2 ca3f cd84 8ebe
000003c0: 69d3 be3d 5ab0 853f d4e5 97be 3d29 3dbf
000003d0: 2a47 0abf bfde f53e 2c90 d2be 6d40 6bbf
000003e0: fb4e ee3e 9e8a ccbe ee1a e9be c570 83be
000003f0: 9b41 7cbf 8e05 04bf b14e f7be 2741 65bf
0.9810461 -0.14305286 -0.580323 -1.4529513 -0.6555218 -0.074429855 -0.56590754 -0.7202645
-0.2624588 0.2039898 -0.44743592 0.15152647 -0.43210396 -0.5850451 -0.009895682 -0.73278815
-0.4141417 -0.05666553 -0.025897132 0.35968965 1.4094713 0.12007559 -1.3007243 0.34420016
-0.0508279 -0.3030906 0.17051251 0.102506265 0.047635213 -0.29166985 0.8790595 0.39395225
-5.670767 -5.925126 -5.963003 1.6694562 3.5170367 -5.4673767 -5.9287148 -5.915138
1.5318716 3.71162 -5.3741517 -5.814196 -6.0424023 1.629895 3.682951 -1.2781472
-1.5439582 -2.1389055 -3.0858667 -1.4612978 -1.6265273 -0.67287797 -0.57273436 -1.4586802
1.56584 -0.067080334 3.6334956 0.88745534 0.14550819 0.3328304 -0.6499627 -0.8943704
-0.0004437521 1.020956 -0.4255616 -0.083878644 -0.23416752 -0.66088516 0.13790998 -0.14089726
0.015039054 0.5329378 1.2822548 0.3965514 0.5427704 1.5775856 0.5325263 0.9306617
1.0390291 0.7556751 0.71157396 -0.84391 2.0537202 0.8896669 0.054903217 -1.307769
2.3172112 2.9074461 0.1712486 -1.3052932 -1.4296952 2.327541 2.993094 0.39495945
-1.2005663 -1.4224818 2.3345947 3.0486562 0.26480567 -1.0507381 -1.5442947 1.3762627
1.7840965 1.9885604 1.9796692 4.6030703 4.987719 0.9177797 -0.77233607 -1.472165
1.135439 0.39213014 -0.44365302 0.66305315 -0.28862277 1.601907 0.45956266 0.45047873
-2.237423 0.07208516 0.284012 -0.37005156 0.26489735 -0.24738081 -0.3824097 0.2482421
0.09522101 2.3120153 -0.8823318 -0.8272515 -0.043778654 0.65860146 -0.25460145 -1.6612693
-2.0345707 0.43582952 -0.13507633 -0.45896947 -0.14159901 -0.2981489 -0.58275485 -1.0320832
-0.05475339 0.08393294 1.018151 0.35676318 0.13524053 0.07147105 0.12799983 1.0001055
0.32523903 0.1385688 0.0046718954 0.11335146 1.1508429 0.43301645 0.082076564 -0.56946284
0.20958921 1.1123712 2.2079408 -0.41070712 -0.042233746 0.345738 0.375274 -0.008890592
0.022941805 0.15065768 -0.15182848 0.73180604 -1.6361415 0.24666947 -0.6043287 -1.0236102
0.24174646 1.0624027 0.71832705 -0.35037047 0.2343152 -0.2850685 -2.0025053 -0.93632853
0.10359006 -0.0070783542 -0.035001803 -0.082144305 0.7391835 -0.960411 0.0068104924 -1.0906214
0.5523401 -0.5212585 0.2687519 -0.068779804 -1.0889467 0.10176616 -0.79382986 -0.39787057
-0.32404608 -0.19906148 0.84327585 0.82713974 0.53620434 -0.25712326 -0.0014059102 0.9463574
0.92900085 0.6649887 -0.3735958 -0.12050134 0.9316014 0.82244307 0.5650816 0.1744793
0.29581934 0.26420516 0.30825385 -2.8792958 -3.114264 -2.585046 -2.484762 -2.5748732
0.0023209257 -0.38298285 0.109010175 0.19317572 -0.19139938 0.14068303 -0.16817835 -0.47579807
-0.5572701 0.4643954 1.5953082 -2.2122457 1.1783309 -2.0485106 1.5845371 -0.27835694
0.09317667 1.0444443 -0.29667532 -0.7389105 -0.5401484 0.48021504 -0.4112562 -0.9189518
0.46544632 -0.39949507 -0.45528358 -0.25671974 -0.98537606 -0.51570976 -0.48302224 -0.8955254

convs.1.fc_full.bias f4 [32]
00000000: 1033 0cbd fdb6 803e 4f9f fdbb 8c3b e5be
00000010: 4673 8f3e 8954 713e a7e2 3e3e 328e f5bd
00000020: f108 8dbc 5c26 243e 990f 553e dfd4 bd3b
00000030: afc4 7c3e 7311 033f c444 323d 77c5 e73d
00000040: 0b35 03bf 3dc5 88be 235b e33e 982f 113e
00000050: ff87 3cbd 5f0f 64be 3e01 313e 8724 a5be
00000060: 0fe8 29bd 243d 7c3e 103c 103f f33d 933d
00000070: 9cd2 b73e 53b0 d03e da2e f8bc 00c8 d2bc
-0.034228384 0.2513961 -0.0077399383 -0.44771993 0.28017634 0.23567404 0.18641149 -0.11990012
-0.017216178 0.16030258 0.20806731 0.0057931985 0.24684404 0.511985 0.04352261 0.1131696
-0.5125281 -0.2671298 0.4440547 0.14178312 -0.046028133 -0.22271489 0.1728563 -0.3225443
-0.041481074 0.24632698 0.5634165 0.0718955 0.3590287 0.40759525 -0.030295778 -0.025730133

convs.1.bn1.weight f4 [32]
00000000: 0090 6840 ff4b e140 05e4 df3f 7ff1 af40
00000010: 6437 2640 edf2 7440 e6ab 9840 36d4 4340
00000020: 84bb ca40 a8f7 1c40 bb20 6a40 688f 6d40
00000030: c395 1f40 51f9 8e40 eb75 8b3f 889f 9540
00000040: 28f6 0840 e0d7 1640 1ed0 b23f 2243 803f
00000050: 5a9e 5c40 dc90 5d3f 0719 3a40 5389 8c40
00000060: d14f a43f 256c 1440 ccf3 f33f 49f4 2d40
00000070: 5573 c840 088f 2540 ceed d83f 61b3 1140
3.633789 7.040527 1.7491461 5.4982295 2.5971308 3.827327 4.7709837 3.0598273
6.33539 2.4526157 3.6582477 3.7118778 2.4935157 4.467934 1.0895361 4.675724
2.1400242 2.356926 1.3969762 1.0020487 3.447165 0.8654916 2.9077775 4.391763
1.2836858 2.3191006 1.9058776 2.718035 6.2640786 2.586855 1.6947572 2.2765734

convs.1.bn1.bias f4 [32]
00000000: ac83 bbbf 221a a4bf 94db 67bf 366f b73d
00000010: b308 8abf 19e6 3fbe 7907 50bf 817a 02bd
00000020: 71f2 b2be c0c0 04bf 3234 31bf 4733 cdbf
00000030: 5048 0b3f 66dc 37bf cb43 aabe 85a4 70bf
00000040: ca34 21c0 dbcb 9abf f5e2 62bf 8b26 a9bc
00000050: 3d19 16c0 a0a6 223e 5400 adbf 1b74 70bf
00000060: fc7a 3d3f 463c 94bf f545 2abf 6c76 97bf
00000070: 801e d1bf 11a7 67bf c7e6 88bf 86f8 d9be
-1.4649558 -1.2820475 -0.90569425 0.08956759 -1.0783905 -0.18740119 -0.812614 -0.03185511
-0.34950593 -0.51856613 -0.6922027 -1.6031274 0.54407215 -0.71820676 -0.33254847 -0.94001037
-2.518847 -1.2093462 -0.8862756 -0.020648262 -2.3452904 0.15883875 -1.3515725 -0.9392716
0.74015784 -1.1580894 -0.66512996 -1.1833014 -1.6337433 -0.904893 -1.0695428 -0.4257242

convs.1.bn1.running_mean f4 [32]
00000000: f1ae 31c2 ac94 b141 260f b940 c8a0 f5bf
00000010: 9c22 4440 c035 02c1 d9d7 bcc1 4df0 0ac1
00000020: 09c4 7ac1 095d 78bf 5499 8fbf e83c 97c1
00000030: 6d6b 8dbf dc6d 6fc2 1599 87c1 562c 8fc1
00000040: a550 30c2 ba01 b940 b2d6 9c40 3f1c 873e
00000050: a632 f4c0 76e1 afc1 71c8 a8c1 d240 1d40
00000060: c371 67c1 5ab4 17c1 25d5 97c1 1c28 a7c1
00000070: 4926 0041 0a4c 9bc1 9ab6 90c1 add5 eec1
-44.42084 22.197594 5.783099 -1.9189692 3.0646124 -8.138123 -23.605394 -8.683667
-15.67286 -0.9701696 -1.1218667 -18.90474 -1.1048409 -59.857285 -16.949747 -17.896648
-44.078754 5.781461 4.901208 0.26388738 -7.6311827 -21.985088 -21.097872 2.4570813
-14.465274 -9.481531 -18.979074 -20.894585 8.009347 -19.412128 -18.08916 -29.854334

convs.1.bn1.running_var f4 [32]
00000000: ac08 6942 208c 4242 c28a 8341 d457 ba41
00000010: 8807 ab41 506a 8541 da95 2142 42b3 9d42
00000020: f0dd 5c41 5e30 b742 b297 7242 9363 4842
00000030: 159f f241 37a5 ab41 d32a 9e41 750a fe40
00000040: f800 ea41 33f8 4542 b060 2642 6bf9 a242
00000050: 4a9d 8641 4928 8b42 a9c8 2f42 e03b e841
00000060: bc08 1942 a3a9 2b42 cb8c 8842 9451 eb41
00000070: 0491 ad41 754a c341 7318 9041 2757 2942
58.25847 48.63684 16.442753 23.292885 21.378677 16.67691 40.39634 78.85011
13.804184 91.59447 60.64814 50.09724 30.327677 21.455671 19.77091 7.9387765
29.250473 49.492382 41.59442 81.487144 16.826801 69.57868 43.945957 29.029236
38.25853 42.91566 68.27499 29.414833 21.695808 24.411356 18.011938 42.33511

convs.1.bn2.weight f4 [16]
00000000: 0ef5 943f bec8 0740 b380 cc3f a4fd e03f
00000010: e797 c63f 1d6b c73f d8bf 663f 8857 b93f
00000020: 84fc d43f 5949 873f 33fa e63f 804c df3f
00000030: 615a 1140 1709 c33f b05a 2d3f 6227 d33f
1.1637285 2.1216273 1.5976776 1.7577405 1.5515107 1.5579563 0.9013648 1.4479837
1.6639562 1.0569259 1.8045105 1.7445221 2.2711413 1.5237149 0.67716503 1.6496394

convs.1.bn2.bias f4 [16]
00000000: c4e2 023f 2b49 b83e a992 ebbf 1fee b33e
00000010: 334b 6ebf ac8b 0abf e81c 81bf 14d6 41bd
00000020: 27e3 4cbe f911 033f 2fa7 123d 5223 263f
00000030: 033d c13f a818 b6be 24e5 02bf 7387 0abf
0.51127267 0.35993323 -1.8404132 0.3514261 -0.93083495 -0.5411937 -1.0086946 -0.0473233
-0.20008527 0.511993 0.03580397 0.64897645 1.5096744 -0.35565686 -0.5113089 -0.5411293

convs.1.bn2.running_mean f4 [16]
00000000: 6c96 0240 a30d e040 fa81 1a40 0049 9840
00000010: fdee 3640 b39b a840 6732 cd40 ffe1 0041
00000020: 3e98 0441 2656 af40 0c28 ce40 0ac7 9b40
00000030: 11a9 8f41 924c d840 4121 8240 366b 8c40
2.040431 7.0016646 2.4141831 4.758911 2.8583367 5.2690063 6.4124026 8.055175
8.2871685 5.479266 6.4423885 4.8680468 17.957552 6.759347 4.0665593 4.3880873

convs.1.bn2.running_var f4 [16]
00000000: cc8c 8c41 1e35 0442 f3d2 8040 fa24 0241
00000010: f2ea 0e41 3318 7941 f7aa 9842 237b 3b42
00000020: a587 ec41 0f28 bf41 e917 1042 dedb 5a42
00000030: e42a a043 f97e 6242 c901 2042 60d3 4941
17.568748 33.051872 4.0257506 8.1340275 8.93236 15.568408 76.333916 46.87025
29.566233 23.89456 36.02335 54.714714 320.33508 56.623997 40.001743 12.614105

convs.2.fc_full.weight f4 [32, 56]
00000000: 97ff 8c3e cbab d23d 1bec 573f ae19 2f3f
00000010: 2f00 dcbf 19db aabf 05c4 6abf 4f06 5a3f
00000020: f8b6 8f3e e49e d5be dd7d 98be 9d17 f4bf
00000030: 8eda b8bf c35d 95be 3f0e 06bf 1f73 203e
00000040: c8e2 54bf e983 ac3e bb91 7c3f f25e ab3e
00000050: 6137 a2be 7919 9cbf 79c0 9abf 8c09 9a3e
00000060: 092d 323f 2ac7 16bf 307e 873e ce9c ccbf
00000070: 6ac6 dcbd 68ee afbd a349 60bf 36f6 403f
00000080: d5dc 0a3e b2c0 313d 53b8 7c3f 56f0 833e
00000090: 41cd 3e3e 2c5c 503e 28e7 543e 31c6 823f
000000a0: 8f39 8d3e dc01 9a3d d401 033d 23fe 9d3e
000000b0: 5856 973f 57b2 a63e 5266 5c3e 22b0 cfbd
000000c0: 56a1 493e 3653 ba3e 44ee 793f e310 43c0
000000d0: e95f cbbf 5316 6a3f 6956 8b3f 5326 a53f
000000e0: 5c63 e43e 82bf 17bf d1bf eabf e42b b2be
000000f0: 986d cb3f 04c5 1abe a1a2 b1bf 91c3 5abe
00000100: 09c6 03c0 968c 9d3f 7347 ecbe 15ce bd3f
00000110: 44a9 313f 69c2 9dbf d38e 78be ca41 56be
00000120: ddca 64be 2a67 1bbe 3afe 47bf c22d abbe
00000130: 8f94 833f 3d2e 483e 74b7 983e 4709 df3f
00000140: 86cf 353f 2609 cbbd 618d 823f 5cc3 393f
00000150: d3b8 0d3e 7181 c13e fb91 b8bd 9621 a1be
00000160: 7486 57be 2c99 9d3d 186c dc3f 7b68 673f
00000170: d77b 173f a7c5 02be 37b4 433e 5812 d93f
00000180: 88fb 833f 8b4b 013f 0424 eebd 106d 923e
00000190: eb09 df3f e8fd 883f b17a 253f a583 74bf
000001a0: 7e5a 38bf c920 1ebf 65ef dfbd e625 37bf
000001b0: eaf8 77be ca3c 9cbf 5d31 dfbf 1e41 99bf
000001c0: 2768 5bbd 3710 ebbf 025a b0be d34c 38bf
000001d0: 90d7 febf 35fd 11bf 3c78 d83d b91e 24be
000001e0: 21dc 713e 5135 f73d f9ec c9be 960e 9fbf
000001f0: 3ffb de3c 5c65 2dbe 0d81 263f a159 213e
00000200: 0f63 273e c263 29c0 b12b e8be efd2 11bf
00000210: 3f52 93bf f920 1e3f 3a71 81bf cd98 22bf
00000220: c019 313e 8918 8f3e d9e8 24bf cae9 f6bf
00000230: 1f3d 21bf 0303 72bf 0df8 923e 4aef ba3e
00000240: f4bd 29c0 3a6b 1fc0 74ea e0bf 2b91 c73f
00000250: 9e43 1540 6d59 28c0 db7c 21c0 0ecb d8bf
00000260: 0269 d23f cf4a 1140 9bed 1ec0 9959 25c0
00000270: 47c1 d2bf b631 d93f 5f70 1a40 8b55 38bf
00000280: 75eb 9cbd 7194 243f cf8b 833f 5bac 88c0
00000290: a08f 84c0 7f3c ebbf 837c 0cbf 91fb 8a3e
000002a0: c24e 623d bb7f 9ebe 887e e93d 4262 463f
000002b0: ab75 50bf 73fc 18bf ac67 2e3f d041 ea3e
000002c0: bb8f 893f 9305 f03d af7a a4bf 3572 e1bf
000002d0: 2366 283e 373a ea3e c71c 873e c770 70be
000002e0: a8f7 28bf 65ff e23e 4074 bc3e 2a3b 143f
000002f0: 5a99 f4bd e04b 67be 2b15 ff3e 45db 2d3f
00000300: da3a 7c3f 7368 f03e bd32 4cbf d214 d3bf
00000310: 7458 8e3e ccb7 833f 9b96 8cbe 3b60 533f
00000320: f614 b13f e1b0 f93f dfb3 8f40 61fd 303f
00000330: 2b2f debd 0d6d 9c3f 493a eb3f f211 9340
00000340: 74a0 433f 8155 0dbd be7d 903f 518d e53f
00000350: ae4d 9340 9cf3 213f 64f2 13bd 5d98 c7be
00000360: 041e 3dbf f632 fabe e07e 8dbb 94a2 33c0
00000370: 6a03 00c0 567c b0be cf0b 32bc bbf5 3f3e
00000380: 7c52 bbbf d63c 80bf 426b c23f b2cc 76be
00000390: 3b3e b8be fa13 d43f b8ed 0a3e 9725 fa3f
000003a0: ebac 55bf a6ad f5be d092 0bbf 35eb d53e
000003b0: 96e7 adbf a9ca 08bf a6ea 11bf 71a6 53be
000003c0: 9545 513f 4cdc 303f 6a7b 953e 3e5c 173e
000003d0: 9597 c8bf c58c ba3f 4d2f bdbe bf4a 303f
000003e0: dc23 bc3f 3d56 8e3f 6937 e13d 07a9 533f
000003f0: b0b8 043e c122 28be 049f 283f 362b 013f
0.2753875 0.10286673 0.84344643 0.6839856 -1.7187556 -1.3348113 -0.9170535 0.85165876
0.28069282 -0.41722786 -0.29783526 -1.9069706 -1.4441698 -0.29173097 -0.5236549 0.15668915
-0.8315854 0.3369439 0.9865987 0.33470875 -0.31682876 -1.2195274 -1.2089988 0.3008541
0.6959997 -0.5889765 0.2646346 -1.5985353 -0.10780032 -0.08590394 -0.8761236 0.7537569
0.13560803 0.04339666 0.98718756 0.257693 0.18632986 0.20347661 0.20791304 1.0216733
0.27582976 0.07519886 0.031984165 0.30857953 1.1823225 0.32557938 0.21523407 -0.101410165
0.19690451 0.3639161 0.9762919 -3.0479057 -1.5888644 0.91440314 1.0885745 1.2902321
0.44607055 -0.5927659 -1.8339788 -0.3479911 1.589282 -0.15114218 -1.3877755 -0.21363665
-2.058962 1.2308528 -0.4614826 1.4828516 0.69398904 -1.2324954 -0.24273233 -0.20923534
-0.22343011 -0.15176073 -0.78122294 -0.33433348 1.0279711 0.19548889 0.29827464 1.7424706
0.7101978 -0.09913854 1.0199395 0.7256372 0.13840036 0.37794068 -0.090122186 -0.31470937
-0.21047384 0.07695231 1.7220488 0.903938 0.5917334 -0.12770711 0.19111715 1.6958723
1.0311136 0.50505894 -0.11627963 0.28598833 1.7424902 1.0702486 0.6464034 -0.95513374
-0.7201308 -0.61768776 -0.10934333 -0.71542203 -0.24216047 -1.2206051 -1.743694 -1.1972997
-0.053566124 -1.8364323 -0.3444367 -0.71992224 -1.9909534 -0.5702699 0.10569808 -0.16027345
0.23619129 0.12070716 -0.39438608 -1.2426326 0.027219413 -0.16933197 0.65040666 0.15756847
0.16346382 -2.6467137 -0.45345834 -0.56962484 -1.1509475 0.6176906 -1.0112679 -0.63514405
0.17294979 0.27948406 -0.644178 -1.9290097 -0.6298389 -0.94535846 0.28704873 0.36510688
-2.6522188 -2.4909196 -1.757155 1.5591177 2.332252 -2.630458 -2.5232456 -1.6936967
1.6438296 2.270191 -2.4832523 -2.5835936 -1.6465234 1.6968296 2.4131086 -0.7200553
-0.07662097 0.64289004 1.0277041 -4.2710395 -4.1425323 -1.8377837 -0.5487749 0.27145055
0.05525089 -0.30956826 0.11401087 0.7749368 -0.8142955 -0.59760207 0.6812694 0.45753336
1.0746988 0.11719813 -1.284994 -1.7612978 0.16445212 0.4574754 0.26389143 -0.23480521
-0.66002893 0.44335476 0.36807442 0.5790278 -0.11943312 -0.22587538 0.49820837 0.67912704
0.985273 0.46954688 -0.7976492 -1.6490729 0.2780186 1.0290465 -0.27458653 0.8256871
1.3834522 1.9507104 4.490707 0.69136626 -0.1084884 1.222078 1.8377162 4.5959406
0.7641671 -0.03450537 1.1288373 1.7933751 4.6032324 0.63262343 -0.036119834 -0.3898343
-0.73873925 -0.48867005 -0.004318103 -2.806798 -2.0002084 -0.3446986 -0.010867073 0.18746082
-1.4634547 -1.0018566 1.5188982 -0.24101523 -0.35984978 1.6568596 0.13567245 1.9542722
-0.83466977 -0.47984046 -0.54520893 0.4178101 -1.35863 -0.53434235 -0.5699867 -0.20668961
0.817468 0.69086146 0.2919572 0.14781281 -1.5671259 1.457421 -0.3695015 0.68864053
1.4698443 1.1120068 0.10996897 0.8267979 0.12961078 -0.16419508 0.6586764 0.5045656

convs.2.fc_full.bias f4 [32]
00000000: 722c 083e b23b e9bd 4d69 02be 3fc0 f0bd
00000010: 4bd9 db3c 1530 3cbe 5b2b 88bd 2606 bdbd
00000020: c5fc 30bd 942a 753b 04c0 04bb a24d 103d
00000030: 5d74 d3bd 5174 223e 7c3a e93b 4f44 d7bd
00000040: 76ba b23d 060d a93d 2606 38be 55c7 d73b
00000050: 8559 853d 2fb9 c5bd 379b 7b3e a504 463d
00000060: c2b1 55be 09cf 3e3e 8e59 cc3d cfe3 b23d
00000070: a9f0 6b3d eecd 7d3c e036 513e 65bf b5bd
0.13298205 -0.11388339 -0.12735482 -0.11755418 0.026837012 -0.18377717 -0.066488944 -0.09229688
-0.04320981 0.0037409412 -0.0020256052 0.035230286 -0.10324929 0.15864684 0.0071175676 -0.10511076
0.08726971 0.08254437 -0.17971095 0.0065850415 0.06511215 -0.096544616 0.24570929 0.048344273
-0.2086859 0.18633665 0.09978019 0.08734857 0.05760256 0.015490992 0.2043109 -0.08874396

convs.2.bn1.weight f4 [32]
00000000: 844d 433f 05ba 3f40 8d42 1d40 bc5a 5e3e
00000010: 2c71 b13f 97fe 9640 2ab8 c540 83da 8940
00000020: c589 be40 84a0 0040 e538 3b40 cfdc 8640
00000030: 3e21 b53f 32ee 8040 a96f 0b3f 7978 b140
00000040: 2d51 203e c627 303f bbc9 4140 6757 fa3e
00000050: 2286 1640 2eb3 a93f 239e 3540 e8eb 973f
00000060: f0ea bf3f 2695 783f cbab 9b3f fa33 9340
00000070: b86f ef3f e227 c43f 0a74 a83f a162 4140
0.76290154 2.9957287 2.457187 0.217143 1.3862662 4.718578 6.178731 4.307924
5.9543176 2.009797 2.9253476 4.214454 1.415077 4.0290766 0.54467255 5.545956
0.15655966 0.6881069 3.0279377 0.48894808 2.3519368 1.3257806 2.837777 1.1868868
1.4993572 0.9710258 1.2161802 4.600095 1.8705969 1.5324671 1.3160412 3.0216448

convs.2.bn1.bias f4 [32]
00000000: 611f 843e 8b56 eabf 7e10 c63e e70c 003f
00000010: c38a 2bbf ef5f acba f6cc 4cbf 2b34 edbf
00000020: 6451 af3e d2ab 0fbf 2b46 ef3d 10e3 683e
00000030: 814c 06c0 71dd 86be 29e2 edbe fad7 26bf
00000040: c249 4a3f 79c3 d9be e2ca c6bf 2930 0cbe
00000050: b5f2 85bf 5d60 e63e 1113 d2be d8bc bcbf
00000060: a655 00bf eff0 e0bf 23e1 c0be 1898 8fbf
00000070: 11b2 45c0 b0a5 c6bf f13a a3bf 994e 73bf
0.2580519 -1.8307661 0.38684458 0.5001969 -0.6700861 -0.0013151149 -0.80000246 -1.8531545
0.34241784 -0.5612155 0.11683305 0.22742867 -2.0984194 -0.2634082 -0.4646161 -0.65173304
0.79018795 -0.42531946 -1.5530665 -0.13690247 -1.0464693 0.44995394 -0.41030172 -1.474513
-0.5013069 -1.7573527 -0.37671766 -1.121829 -3.0889933 -1.5519314 -1.2752362 -0.95041806

convs.2.bn1.running_mean f4 [32]
00000000: 9b29 2fc1 1d2b 9341 4a3a 28c2 e83a af41
00000010: e76c 18c1 60fe 0f40 a27f 01c2 412f f4c0
00000020: 15b5 a9c1 809e bbc1 bec3 c7c1 4236 0bc2
00000030: 587c 07c2 5fbe f0c1 1abd 86c1 7d4d 98c1
00000040: cb05 80c1 ba52 e8c0 6a22 c8c1 b4f9 9341
00000050: 2f97 a5c1 593c 0d42 8c7d 53c2 7d12 e2c1
00000060: 60f0 dfc1 1811 0dc2 707c 4cc1 622f 9ac0
00000070: 8417 88c1 741b e4c1 5370 afc1 f63b 11c2
-10.947658 18.396051 -42.056923 21.903763 -9.5265875 2.2499008 -32.37464 -7.6307683
-21.213419 -23.452393 -24.970577 -34.802986 -33.87143 -30.092955 -16.842335 -19.037836
-16.002829 -7.2600985 -25.016804 18.496925 -20.69882 35.308933 -52.872604 -28.259027
-27.99237 -35.266693 -12.78038 -4.818284 -17.011482 -28.513405 -21.929846 -36.308556

convs.2.bn1.running_var f4 [32]
00000000: 42e9 9c42 d0d8 9742 abf1 0c43 6092 ea41
00000010: 8170 8d42 c8a8 cd42 9efd 0942 9f12 8b42
00000020: ea1a 8942 a160 0043 42e8 da41 547a 8d42
00000030: 2fe9 9542 5492 1142 a89b 0f43 3ddc d541
00000040: 6324 c442 8b5b 4942 2e95 a842 4c13 1142
00000050: 6845 bc42 53cb 6542 d416 4e42 f1d2 1942
00000060: 0ba4 1342 95ee f642 d466 b142 f81e ab42
00000070: f2fc 4e42 7094 1842 6539 0f43 b245 5942
78.45558 75.92346 140.94402 29.321472 70.719734 102.82965 34.497673 69.53637
68.55257 128.37746 27.363407 70.73892 74.95544 36.3929 143.60803 26.732538
98.07107 50.339397 84.29137 36.268845 94.13556 57.44856 51.522293 38.455997
36.9102 123.46598 88.700836 85.560486 51.747017 38.14496 143.2242 54.31806

convs.2.bn2.weight f4 [16]
00000000: c46b c53f ffd9 4a40 4e0a 9e3f 1c62 ea3f
00000010: 2da2 1240 a09f 1e40 5e32 a93f b7df 1240
00000020: af8d 873f 8c92 e43f c60c a13f cefe f83f
00000030: e59f be3f 04b9 ba3f 48ea 0040 b2b4 c23f
1.5423512 3.1695554 1.2346895 1.8311191 2.2911484 2.4784927 1.3218496 2.2949045
1.0590113 1.7857223 1.2582023 1.945276 1.4892546 1.4587712 2.0142994 1.5211394

convs.2.bn2.bias f4 [16]
00000000: 5b77 323e 7a05 1d3e 062b 85bf d328 22bd
00000010: 077a 2dc0 f930 2cbf a811 6bbf ce97 c8be
00000020: 042e 0fbf e5a7 533e 06e0 41be 2cf2 18bf
00000030: 3003 44bf af5c 05bf 51ee 7bbe 73c1 f5be
0.17428343 0.1533412 -1.0403755 -0.039589714 -2.710573 -0.67262226 -0.91823816 -0.39178318
-0.5592959 0.20669515 -0.18933114 -0.59744525 -0.76567364 -0.5209455 -0.24602629 -0.47999153

convs.2.bn2.running_mean f4 [16]
00000000: 9be1 0041 171d 1940 15fa ea40 4483 a040
00000010: 48a6 9740 911b bc40 e59b be40 3a92 a43f
00000020: 4741 9540 1915 ca3f 3351 a740 20b6 1c41
00000030: 9626 4e3e a1c5 d93f 082e 0440 2f67 de40
8.055079 2.3924005 7.3430276 5.0160236 4.739048 5.878365 5.95653 1.2857125
4.6642184 1.5787688 5.228662 9.794464 0.20131907 1.7013437 2.0653095 6.9500957

convs.2.bn2.running_var f4 [16]
00000000: e97d ae40 5560 a740 9919 fc42 070f 5740
00000010: f2e1 9341 0c25 9141 9f69 7d42 b6d0 5340
00000020: 1c37 0242 4717 5340 e1ce 8d41 c003 6243
00000030: d919 4d3d 5396 0c41 c81b 0e40 016d 7742
5.45287 5.2305093 126.049995 3.3602922 18.485325 18.14309 63.353146 3.3096137
32.553818 3.2982957 17.726015 226.01465 0.05007348 8.7867 2.2204456 61.85645

convs.3.fc_full.weight f4 [32, 56]
00000000: 8b06 5d3f 7a69 d93e 42d9 ca3f 2f92 5f3f
00000010: 0567 993c bf53 8f3f f46e 86bf 92c5 afbe
00000020: 6f40 a0bf e5ff 603f fcc1 a4bf c024 033f
00000030: dbb4 77bf eddc ca3d 2f89 af3e 4138 d4bd
00000040: 614f c1be bd73 b03d 3849 e13f e69f 0b3f
00000050: 0be4 43bd a039 8c3f 42d5 533f 1c66 04be
00000060: 3bb2 ca3e 2030 c2be e4c5 12bd 34b0 353e
00000070: dd59 9d3f af8e 1d3f 9362 e4bc e4d0 933f
00000080: 7f35 883f c93b da3f ecc1 af40 4843 903f
00000090: cad5 243e 2415 8e3f fe97 df3f 6e71 bc40
000000a0: e33c 603f 5486 423e 0477 5e3f 4174 cc3f
000000b0: 9561 be40 c572 783f db4a 853e c702 40bf
000000c0: a640 39bf e6ce d0be 71e9 0b3f d66e 3dc0
000000d0: c6c0 f5bf edc5 b43e 6941 803f e15d 793f
000000e0: 02c9 f6be f9c3 a93f 144e 213f d091 19bf
000000f0: da1f e7bf 9d8f 2a3f 0ab4 95bf acc5 cfbe
00000100: 7e27 8cbf 2eff a43d 8822 c6be e12c 833f
00000110: 4f49 903e 5da3 a8bf a8f9 8bbf c632 2abe
00000120: 29d8 64bf cb64 b43e 2455 383f 889f 24bf
00000130: a2a2 4cbf 3ecb 833f 6475 5a3f 96e2 473f
00000140: fcd6 473f 2657 12bf 0960 4a3f 49a8 afbe
00000150: 1f3d ba3f 3e67 b1be 88d7 4abf 8adb e53e
00000160: f69c 8abd ae0c 163f 7ad2 ad40 91ba 4640
00000170: d3f9 0640 bf4f 7dbe 2d4e 273f d0c3 ad40
00000180: e92f 4740 c1f4 f33f 78f5 0fbe 9f9a 2d3f
00000190: 63f3 b040 7289 4440 dc85 e93f b724 c6bf
000001a0: 1a68 7cbf 910d eebe 7da4 8c3e 65ab e2bf
000001b0: 534a 6fbf 21ef 0fc0 b7b9 67c0 18dd 69c0
000001c0: 9740 9e3e 5bcb 91bd 3a56 0e40 a704 65be
000001d0: f4eb 093e 0fd1 01bf f6e6 653f 994f 0e3f
000001e0: e408 a63e 1731 023f 0aae 43be e1d3 f53d
000001f0: f502 4ebf 30fc f93d f009 d73f 892a 75bf
00000200: 56d4 103f 3067 c93e b87a fe3f 8277 13bf
00000210: 6407 223f 4074 56bf 6c1c cd3e 1af1 273f
00000220: 63c3 833e 5035 e83e bcab a13e fe10 50bf
00000230: 6a4e 82bd 6df7 dc3e 87bd 833f 0280 9e3e
00000240: 7bff 1dc0 92c4 44c0 2db8 94c0 ad00 2abf
00000250: 413c 113f 8bc6 10c0 338b 36c0 55c3 96c0
00000260: 275a 0bbf e008 2d3f 61d0 02c0 a056 32c0
00000270: d3fd 8ec0 27d7 3dbf b519 2f3f 667e 53bf
00000280: ddb6 bebe 9763 04be a94e 033f 8612 bcbf
00000290: 8e2e d5be 87d8 f83f 1041 d53f b03a 453f
000002a0: 3fcd 893e 822e 27bf c9a4 7e3f 609b b83f
000002b0: 0da0 97bf 3eb9 303f aa97 e8be 446a 7dbe
000002c0: d487 52bf a032 c83d c915 bebf 2aac 573d
000002d0: 8dcf 80be 981f e63d 15c3 ef3d eeef 273d
000002e0: f263 f5be 96db fe3e 0e59 ad3f 7e99 3c3f
000002f0: 4e5c 88bd 6c18 a8be eb77 903f 8b86 a53e
00000300: 48a1 d23e 68ef c4be 619b 7dbe 968f 67be
00000310: e078 453f ef85 7c3f 5deb 8ebe a06b 9c3f
00000320: 2619 ac3f 2226 0340 fe83 9b40 6f4c 1a3f
00000330: e0fb 43be 0291 a33f 48d8 0340 f1cd a040
00000340: a7c0 e93e d947 2fbe a76a a93f 173b fc3f
00000350: a2da a640 9a0d 163f 6ab2 47be f32d bcbe
00000360: 810c 12bf f1a7 c8be 3423 0b3e 9526 2ac0
00000370: f268 e1bf c97e 443f 85f1 963f 80d5 a83f
00000380: d432 2fbf ee2e dabd 1791 6cbf 7995 84bd
00000390: 7f15 cebd 050f be3f b769 91bf 80e7 2a3f
000003a0: 9710 6dbe 894a b53f 987b 133f 20c8 d73e
000003b0: fe3b 41bf 462f 533e a0fa 6c3f d885 05bf
000003c0: 98b3 acbe effe e6be 77fe e2be b15f 6c3d
000003d0: 7ef5 153f 84ed 713f f90a 11bf b795 a83f
000003e0: 5959 b73e 767a 8d3f 73d3 d73e 4baf 863f
000003f0: 0098 55bf 2e4d 293e a1b8 363f fa15 83be
0.8633811 0.42463285 1.5847552 0.87332433 0.018725881 1.1197432 -1.050261 -0.34330422
-1.2519664 0.87890464 -1.2871699 0.5122795 -0.9676034 0.099054195 0.3428435 -0.10362292
-0.37755874 0.08615825 1.760047 0.5454086 -0.0478249 1.0955086 0.8274728 -0.12929577
0.39589104 -0.3792734 -0.035833254 0.17742997 1.2293049 0.6154584 -0.027879035 1.1548123
1.0641326 1.7049495 5.492422 1.1270533 0.16097179 1.1100202 1.7468259 5.8888464
0.87592906 0.18996555 0.86900353 1.5972978 5.949412 0.97050124 0.26033673 -0.7500424
-0.7236427 -0.4078285 0.5465308 -2.95989 -1.9199455 0.35307255 1.0019962 0.9740887
-0.48200232 1.3262931 0.6300976 -0.5998812 -1.8056595 0.66625386 -1.1695569 -0.405805
-1.0949552 0.08056484 -0.3869822 1.0248071 0.2818093 -1.3174855 -1.0935564 -0.16620931
-0.89392334 0.3523315 0.72004914 -0.64305925 -0.7993566 1.02964 0.85335374 0.7808012
0.78062415 -0.5716423 0.7905279 -0.3430808 1.4549903 -0.3464908 -0.79235125 0.44894058
-0.06768219 0.586131 5.431943 3.105137 2.108998 -0.24737452 0.6535366 5.430153
3.1122992 1.9059068 -0.14058483 0.6781406 5.5297103 3.070889 1.8243976 -1.5479954
-0.98596346 -0.46494725 0.27469245 -1.7708555 -0.93472785 -2.2489703 -3.6207101 -3.6541195
0.30908653 -0.07118865 2.2240129 -0.22365056 0.13468915 -0.50709623 0.89805543 0.55590206
0.32428658 0.50856155 -0.1910936 0.12003303 -0.8047326 0.12206304 1.6799908 -0.9576803
0.56574 0.39336538 1.9881201 -0.5760423 0.6329253 -0.83771133 0.40060747 0.65602267
0.25735006 0.45353174 0.31576335 -0.8127593 -0.063626125 0.4315752 1.0292214 0.30957037
-2.4687183 -3.0744977 -4.6474824 -0.6640728 0.56732565 -2.262118 -2.852246 -4.7113442
-0.54434437 0.6759167 -2.0439684 -2.7865372 -4.4684844 -0.7415642 0.683986 -0.82614744
-0.3724889 -0.12928616 0.512919 -1.4693153 -0.4163708 1.9441079 1.666048 0.77042675
0.26914403 -0.6530534 0.9947019 1.4422417 -1.1845719 0.6903266 -0.4542821 -0.24747568
-0.8223851 0.09775281 -1.4850398 0.052654423 -0.2515835 0.11236495 0.11707131 0.0410003
-0.47927815 0.49776906 1.3542802 0.7367171 -0.06658231 -0.32831132 1.1286596 0.3232921
0.41138673 -0.38463902 -0.24766304 -0.22613367 0.77137566 0.98641866 -0.27913943 1.2220345
1.3445175 2.0492024 4.8598623 0.6027288 -0.19139051 1.2778628 2.0600758 5.0251393
0.45654795 -0.17117251 1.3235673 1.9705533 5.2141886 0.58614504 -0.19501653 -0.36753806
-0.5705033 -0.3919063 0.13587648 -2.6586049 -1.7610152 0.7675596 1.1792456 1.3190155
-0.6843693 -0.106534824 -0.9240889 -0.06473822 -0.10062694 1.4848334 -1.1360387 0.6675949
-0.2315086 1.4163371 0.57610464 0.4214487 -0.75482166 0.20623502 0.92569923 -0.52157354
-0.3373077 -0.45116374 -0.44334766 0.057708446 0.58577716 0.94503045 -0.5665737 1.3170689
0.35810354 1.1052997 0.4215351 1.0522245 -0.8343506 0.16533348 0.7137547 -0.25602704

convs.3.fc_full.bias f4 [32]
00000000: f63a a03d 0dd9 84bd ab38 e4bd 70e1 3f3d
00000010: 1372 cc3d 3724 88bd dfb5 41bc e7c9 403d
00000020: c2b4 b83d 50b0 073e 5c0d 853d 2997 a1bd
00000030: 2d75 dabc f261 8c3d 4dc1 f2bd abc5 3abd
00000040: f448 8abb b2eb 5e3c d07f 033e d9fd 92bd
00000050: 7346 08bd 8ab3 773d 84cf 493e fd09 e7bd
00000060: 54b0 da3d 06f2 f2bd 8d32 6ebd 39b6 dabd
00000070: 73d5 b83d ac81 4dbd cd01 abbd 45a0 013c
0.07823746 -0.06486712 -0.11143621 0.046845853 0.099826954 -0.066475324 -0.011823147 0.04706755
0.09018852 0.13250852 0.06496689 -0.0789016 -0.026667202 0.06854619 -0.118532754 -0.045598667
-0.0042201225 0.013605999 0.12841725 -0.07177324 -0.03327031 0.060473956 0.19708067 -0.11281202
0.10678163 -0.118625686 -0.058153678 -0.106792875 0.09025087 -0.050172493 -0.08349953 0.007911746

convs.3.bn1.weight f4 [32]
00000000: a8ec c73f f0f0 5340 b1e6 9a3f dbdf 613f
00000010: 223b c93f d3d1 9b40 fc34 9c40 ff7a df3f
00000020: f6fb 3b40 23f4 293f 2079 8740 16ce c33f
00000030: 64bc 1740 4dcc 4340 8fda 543f d0b1 2840
00000040: 47b1 653d 749a 913f 7faa 5b3f 5c3e ce3e
00000050: 13b1 8040 e16c e03f e5ed 4a40 3b43 6b40
00000060: 8c10 2140 2e57 db3e 36e1 a03f caa2 f03f
00000070: 5cec 3140 df5e 2240 0393 8d3f c9ea 243f
1.5619097 3.3115807 1.2101651 0.882322 1.5721171 4.8693633 4.881468 1.745941
2.9372535 0.6638815 4.233536 1.5297267 2.3708735 3.0593445 0.83145994 2.6358528
0.056077268 1.137526 0.8580703 0.4028195 4.0216155 1.7533227 3.17077 3.6759784
2.516635 0.4283995 1.2568729 1.8799679 2.7800512 2.5370405 1.106049 0.64420754

convs.3.bn1.bias f4 [32]
00000000: 7af3 623f df78 d0bf d7d4 13c0 025d f23d
00000010: f484 82bf e0e5 98bf 67b1 82bf 40ea 4dc0
00000020: c83e f9bf fd05 eabf e92a e2bd 68ed d1bf
00000030: 4a5a cabe f1d1 37bf 8caa 9fbd 44cd 2c3f
00000040: 8914 663f 4838 00bf 30c9 f43f 1f41 623e
00000050: ee28 fdbf a3ad ddbf e173 63bf e3de c73e
00000060: 14b3 f7bf 4b94 853f a0ab a2bd 1184 0ebf
00000070: 5c53 3abe ea20 a6bf f9d6 20bd 5675 263f
0.88652766 -1.6286887 -2.3098657 0.11834146 -1.0196824 -1.1945152 -1.0210389 -3.2174225
-1.9472284 -1.8283077 -0.11043341 -1.6400576 -0.3952201 -0.7180472 -0.07796201 0.6750071
0.89875084 -0.5008588 1.9123898 0.22095154 -1.9778116 -1.7318615 -0.8884869 0.39037237
-1.9351525 1.043588 -0.07942891 -0.5567027 -0.18195862 -1.2978795 -0.039267514 0.6502279

convs.3.bn1.running_mean f4 [32]
00000000: 84e5 1742 1dbf f041 be6e 84c1 d2f9 da41
00000010: 5c11 9fbf b8b6 a9c0 078a 1f41 d2ff 49c1
00000020: cadb a0c0 1a84 a541 118d 82c1 9a84 87c0
00000030: cde9 ecc1 d0ec 4141 7cc4 8640 916e d340
00000040: fab0 5641 bb09 3441 8904 15c2 65e7 6e41
00000050: 5f1f 14c2 071b 1ec1 4bce 11c2 4af0 fac1
00000060: b7eb 00c1 748c 19c1 d973 f2c1 76cd d7c1
00000070: 3c94 a640 39e2 afc0 624e c8c0 e056 07c2
37.974136 30.093317 -16.554073 27.371983 -1.2427173 -5.3035545 9.971198 -12.624956
-5.0268297 20.689503 -16.31888 -4.2349367 -29.61416 12.120316 4.211485 6.607247
13.418207 11.252376 -37.25443 14.931493 -37.030636 -9.881598 -36.451458 -31.367329
-8.057548 -9.59679 -30.306566 -26.975323 5.205595 -5.496365 -6.259568 -33.83484

convs.3.bn1.running_var f4 [32]
00000000: 5655 cc42 08df d442 b9fd a242 571d a842
00000010: 226f ae42 af99 3c43 73cb 7842 4f04 5843
00000020: 3b54 c542 595a f542 54e4 cf42 6c56 c242
00000030: 8f77 3842 2bb6 a042 e3a4 6b43 ff8f 8342
00000040: 4091 e142 c75b aa42 c223 d443 8a76 f442
00000050: f4e9 1843 5b62 9b42 d6d3 9143 acdc 8e43
00000060: 4f96 c042 85ca 4a43 4099 2143 ac73 bf42
00000070: 090e a342 bdf9 6542 de56 7643 7ac1 ab42
102.16667 106.43561 81.49555 84.057304 87.21706 188.60033 62.19868 216.01683
98.66451 122.67646 103.94595 97.16879 46.116756 80.3558 235.64409 65.78124
112.78369 85.17925 424.27936 122.23152 152.91388 77.6921 291.65497 285.724
96.29357 202.79109 161.59863 95.72592 81.52741 57.493885 246.33932 85.877884

convs.3.bn2.weight f4 [16]
00000000: 7e68 c63f 2144 4d40 0961 ec3f df7f f03f
00000010: ab99 e63f 5a95 dd3f 24be 1640 5c96 b43f
00000020: 94d3 c33f 6824 a23f 3b03 f83f c898 1f40
00000030: b20d 883f f4d6 bf3f 56e9 be3f 8280 cb3f
1.5500638 3.2072833 1.8467113 1.8789023 1.8015646 1.7311203 2.3553553 1.4108386
1.5298944 1.266736 1.9375986 2.4937 1.062918 1.4987473 1.4914958 1.5898592
