cgcnndefect/defect_transfer_10/model_best.pth.tar (torch, 208687 bytes, 121 tensors)

embedding.weight f4 [16, 92]
000000 ec 1d fd be 93 e9 35 bd 3f 4b 80 3e b5 82 de bf
       -0.4943689 -0.044412207 0.25057408 -1.7383639
000010 40 68 a0 bf 6e 46 69 be d0 c0 27 3f 69 97 af 3f
       -1.2531815 -0.22780773 0.65528584 1.3718082
000020 b3 a2 95 3f 54 60 02 3f d7 69 a3 3f 31 7a 67 be
       1.1690277 0.50928235 1.2766675 -0.22605206
000030 ca 76 4d bf d6 54 b3 3e 42 ea c9 3e 50 0f 35 3e
       -0.8025938 0.35025662 0.39436537 0.17681623
000040 ec 6e 98 be ef 5a 8c 3e 34 11 b9 be 68 a6 23 3f
       -0.29772127 0.27413127 -0.36145937 0.6392579
000050 0f 28 f6 be e0 1c d3 bd ad 8b ad 3e 3d a6 ce 3e
       -0.48077437 -0.10308242 0.33895627 0.40361205
000060 bf d7 14 3f 74 34 c4 3e c6 3d c9 bd 9c 01 24 bf
       0.581417 0.3832127 -0.098262355 -0.64064956
000070 ca 59 a9 3d 25 33 ea bd 66 20 19 3f bf df aa 3f
       0.08269079 -0.11435536 0.5981506 1.3349532
000080 3d ec 92 3f ae 1d 05 3f 7a 68 1f bf 5e 83 52 bd
       1.1478344 0.5199841 -0.62268794 -0.051394813
000090 56 b1 1f 3f 2a 5d dc be 00 da 92 3f 17 ab ca 3e
       0.6237997 -0.4303983 1.1472778 0.39583656
0000a0 d9 04 00 3f 71 d4 26 bd 31 95 1b bf fb c1 62 be
       0.50007397 -0.040729944 -0.60774523 -0.2214431
0000b0 50 51 71 be 1d 89 5c be c7 8f 0d bd 5b 40 54 be
       -0.23566175 -0.2153668 -0.034560945 -0.20727675
0000c0 af 8e 8b be ed 98 79 be 3c 16 c4 3d 01 3a 11 be
       -0.27257296 -0.24374743 0.09574553 -0.14182283
0000d0 64 b9 14 3f a3 04 91 3f 7c 35 0d 3f 95 ec 54 bf
       0.58095384 1.132954 0.55159736 -0.83173496
0000e0 11 99 3e be 92 03 d6 3e 2f a4 87 be 57 e0 3d bd
       -0.18613078 0.417996 -0.2649245 -0.046356525
0000f0 7a 05 9f 3d 35 87 cd be a9 4f 01 3e 2e 52 8f 3f
       0.077647164 -0.40142217 0.12628044 1.1196954
000100 de 9b 64 3e 91 88 07 3d 8a 70 82 3b e2 67 a2 bf
       0.22325084 0.033089224 0.003980701 -1.2687953
000110 28 d8 0f be fb 04 cd 3d 0b 3f 60 3f 0f 7f 1c bd
       -0.14047301 0.100107156 0.87596196 -0.03820711
000120 49 54 b7 bc c5 31 ad bd 31 90 d5 3c 9f f9 6a 3f
       -0.022379057 -0.084567584 0.026069732 0.9178714
000130 2d f9 a9 3c a0 a1 f7 3d 1d c4 60 3c ad 8b b8 3e
       0.0207487 0.120913744 0.013718632 0.36044064
000140 91 f0 ad 3d 27 4a cd be 0d c6 21 3f 01 3b a8 bf
       0.0849315 -0.40095636 0.63192827 -1.3143007
000150 15 2a 0e 3d 02 76 83 3e 8d c6 c7 be 52 1a 2b bf
       0.0347081 0.2567597 -0.3901867 -0.66837037
000160 89 b6 d7 3e 9b 68 f7 3e 7a f0 e6 be 28 26 d8 bd
       0.4213145 0.48321995 -0.45105344 -0.10554153
000170 35 b2 c5 3e c2 76 4a be 7d 37 6e 3d cd 19 3e be
       0.38612524 -0.19771865 0.058158386 -0.1856453
000180 04 1b 5d 3f 56 f7 32 bf b6 73 a8 3e f0 43 e1 bd
       0.8636935 -0.69908655 0.3290078 -0.10999286
000190 66 d2 46 3f fa e2 01 3f 05 5f dd 3e 6f 64 a0 be
       0.7766479 0.50736964 0.43236557 -0.31326625
0001a0 10 8e 28 bf e5 9a 91 bd 1a c7 96 3e 4d 88 86 3e
       -0.6584177 -0.07109622 0.29448777 0.26275864
0001b0 7c c5 cb 3c a8 7b 93 bd 0b b6 23 c0 55 6c 51 3f
       0.024874441 -0.0720132 -2.557986 0.81805927
0001c0 d9 bd 81 3e c0 ce 96 be 9e 13 80 3f b8 2a 2c bd
       0.25340155 -0.29454613 1.0005987 -0.042032927
0001d0 25 98 05 be ad c2 eb bf 3d 67 6c be 58 9b 10 bf
       -0.1304632 -1.8418785 -0.23086257 -0.56487036
0001e0 29 e3 40 be 62 e9 d4 3e 12 af 05 3f 72 b3 48 3d
       -0.18836655 0.41584307 0.5222026 0.048999257
0001f0 09 26 96 3f 49 1e 16 bf 61 3a 19 bd 68 48 5d 3c
       1.1730357 -0.5863996 -0.03740919 0.0135060325
000200 9e 3f 38 3f 4d 16 82 bd c8 af bb bc 83 fc 3a 3f
       0.7197207 -0.0635191 -0.022910967 0.7304155
000210 92 cd 9e bd fd ec 97 be c4 2f b3 3e f8 35 13 bf
       -0.07754053 -0.29672995 0.3499738 -0.57504225
000220 1e 4e 75 be 02 79 48 be cc c6 5c be 35 9b de 3e
       -0.2395558 -0.19577411 -0.2156021 0.4347779
000230 10 61 8b 3c 94 d1 30 3f 5a ab 03 3e f6 70 00 3d
       0.017014056 0.6906979 0.12858334 0.031357728
000240 8d 6f 0f be e8 9d 81 3e 65 13 02 3f eb ac 27 bf
       -0.14007397 0.25315785 0.50810844 -0.65498227
000250 51 7d ad be f5 48 a1 3e e6 f1 af be 83 de 8b 3e
       -0.3388467 0.31500974 -0.3436424 0.273182
000260 70 18 d5 3d 59 b9 de 3d 13 74 f6 3e ba 94 6b bc
       0.10405052 0.10875196 0.48135433 -0.014378721
000270 8c 73 d2 ba 79 a6 8d bc 6c 8f b4 bc 9f db fe 3d
       -0.0016056164 -0.017291294 -0.022041045 0.12444233
000280 49 c6 6e 3f 00 b1 a7 bc 50 ba 38 bc 35 5c b8 bd
       0.9327131 -0.020470142 -0.011274889 -0.09001962
000290 19 22 f3 be c5 6b aa be 5e 85 a0 3e 39 bf 82 be
       -0.47486952 -0.33285347 0.3135175 -0.25536516
0002a0 ea 2d c0 bd 97 f3 c1 bd a7 95 68 3d 58 70 07 bd
       -0.093837574 -0.09470289 0.056783345 -0.033066124
0002b0 4a cb c8 3e 9d d0 b2 3e e4 24 0f 3e 0d 61 ef 3f
       0.39217597 0.34924784 0.13978916 1.8701493
0002c0 4f a9 be 3e 7e 72 33 bf 45 f1 cd be e2 16 91 3e
       0.37238547 -0.70096576 -0.40223137 0.2833777
0002d0 cc dd 5d bf 35 b1 46 bf 7b 13 ee be 85 72 b8 be
       -0.8666656 -0.77614146 -0.46499237 -0.3602487
0002e0 be a2 f2 3e bb c0 94 3e a6 12 9b bf 3e bb 7c 3f
       0.47389787 0.29053292 -1.2115066 0.9872321
0002f0 31 c4 31 3f d7 51 d3 3f 67 95 0d 40 ac 28 30 3f
       0.6943999 1.650935 2.2122438 0.6881206
000300 2c 3c 04 bf ff c1 c1 bf b2 ae df bf d4 5e 48 bf
       -0.51654315 -1.5137328 -1.7475188 -0.78269696
000310 c0 b0 b1 bf 0d 96 ff be 62 43 5e 3e 63 cf 1b be
       -1.3882065 -0.49919167 0.21705392 -0.1521583
000320 af f3 fe 3d 73 c9 a2 bd bf 1c b8 bf 15 12 e2 bc
       0.12448823 -0.0794858 -1.4383773 -0.027596513
000330 65 88 ac be 2c a8 87 3f f9 68 fb be ee 1f 93 bd
       -0.3369781 1.0598197 -0.49103525 -0.071838245
000340 82 58 36 be d5 35 f1 be e5 9c 1e 3f 5e 8e 0f 3e
       -0.178072 -0.47111383 0.6195815 0.14019153
000350 56 57 6a 3e f3 e9 01 3f 4f eb 8b 3e 0f cf 2e 3e
       0.22884879 0.50747603 0.27327964 0.17071174
000360 5f f9 55 3e 8f 1d 90 bf 5c 18 bd be 16 07 d0 bd
       0.20895909 -1.125902 -0.36932647 -0.101576015
000370 8e 77 15 3d 5f b9 6b be 85 41 ac 3e 7c 0d 73 3f
       0.03649097 -0.23019932 0.33643737 0.9494245
000380 ba 9a 79 bf f9 7e 2c be e4 30 e5 3d 58 cd 2c 3e
       -0.9750172 -0.16845311 0.11190966 0.16875207
000390 21 fa 90 3e ec 2a bd 3e 26 7c 82 3e 0d b2 b1 be
       0.28315833 0.3694681 0.25485343 -0.34706154
0003a0 d7 3e 14 bd 42 46 5c 3f c0 21 00 3f fb 05 e2 3e
       -0.03619274 0.86044705 0.500515 0.44145188
0003b0 28 11 05 3e 2f 49 30 bf 4d 02 c8 bf 73 4e 19 c0
       0.12994826 -0.6886167 -1.5625702 -2.3954132
0003c0 84 dd 30 bf d8 3a 41 bf 45 38 16 3f 54 29 93 be
       -0.69088006 -0.75480413 0.5867961 -0.28742468
0003d0 f2 e7 0a be 9c 13 d8 be 95 de 2a 3f 59 9f f4 bc
       -0.13565043 -0.4220246 0.66745883 -0.02986114
0003e0 dd 20 3a be 10 19 0e bd bb e8 60 bd 67 22 71 bf
       -0.18176599 -0.03469187 -0.05490945 -0.9419312
0003f0 ce 27 54 be ae a9 f9 bc bc 1f e4 be 60 ef 1d bd
       -0.2071831 -0.030476417 -0.4455546 -0.038558364

embedding.bias f4 [16]
000000 30 b6 0c 3f 57 4d 03 3f eb 45 1c bf 90 f7 4f be
       0.54965496 0.51289886 -0.61044186 -0.20309281
000010 80 d2 35 3e 04 8e 2b be 90 84 56 3f 89 59 0e 3f
       0.1775608 -0.16753393 0.83796024 0.5560537
000020 65 1e 48 be 37 93 cf 3e 5f b0 ee 3e 1b 59 d1 be
       -0.19542845 0.40542004 0.46618935 -0.40888295
000030 f4 3b 6b 3e 47 b7 47 3c de 94 f8 be dd 6a a4 3e
       0.22972089 0.012189693 -0.48551077 0.3211278

convs.0.fc_full.weight f4 [32, 56]
000000 bb d8 31 3d bd bc b0 be 59 2d 9b 3b ea e3 a3 3e
       0.04341958 -0.34518996 0.0047356305 0.32009822
000010 5e cc fe 3e e0 c1 91 bf f6 9b f7 bc e2 61 e3 3d
       0.49765295 -1.1387291 -0.030225735 0.11102654
000020 d6 8b 12 be 07 d3 76 bf 23 0a 84 3f 06 77 0f bf
       -0.14311156 -0.9641575 1.0315593 -0.5604099
000030 86 f1 b2 3e 6c 2b 7b bf 4e 6b d2 be 02 ba 45 3f
       0.34949893 -0.9811313 -0.41097492 0.7723695
000040 73 57 2d bf e6 af 96 be e3 1a 56 3e c1 05 8a 3e
       -0.6771156 -0.29431075 0.20908694 0.26957515
000050 b9 6b e7 be 3d fc 8a 3e 65 b3 27 3f ff 0e 00 bf
       -0.45199373 0.27145568 0.6550811 -0.5002288
000060 9f fb 02 be 45 82 07 3f b3 be 0c 3f bb 3e 35 be
       -0.12791298 0.5293315 0.54978484 -0.17699711
000070 8e 54 1d bf ac 38 31 bf 58 b2 19 3f 4f 2a 0a be
       -0.61457145 -0.692271 0.60037756 -0.13492702
000080 6e 94 d1 3f 60 a1 eb 3f d2 be 9d 3f d3 e0 80 bf
       1.6373422 1.8408623 1.2323859 -1.0068611
000090 6d 0e 8a bf 80 b0 d4 3f 33 f2 d3 3f 9c 98 a0 3f
       -1.0785652 1.6616364 1.6558288 1.2546573
0000a0 87 ec 7b bf 85 7f 9e bf c6 46 d4 3f 71 65 e2 3f
       -0.9840779 -1.2382666 1.6584098 1.7687207
0000b0 f9 8b b4 3f 5b e7 7c bf 07 90 9d bf e2 e8 c5 3f
       1.4105216 -0.9879052 -1.2309579 1.5461695
0000c0 c3 25 08 40 c7 30 2e 40 21 b4 3d 40 c2 2f b9 bf
       2.1273048 2.7217271 2.9641192 -1.44677
0000d0 f9 a8 d3 bf 75 ae ad bf 30 7b b8 be f4 66 ef 3e
       -1.6535941 -1.3568865 -0.36031485 0.46758235
0000e0 4b 22 9f 3e 2a 28 e6 be 4c f5 2f bf 3f df 09 bc
       0.3108085 -0.44952518 -0.6873367 -0.008415042
0000f0 52 55 92 bf f4 c8 82 3f 67 51 33 bf 58 bf 31 3f
       -1.1432288 1.0217576 -0.70046085 0.6943259
000100 50 7e 23 3f 2c 6b a3 3f 90 d7 40 be df 43 ce 3f
       0.6386461 1.2767081 -0.1883223 1.6114463
000110 05 88 46 3f 92 c8 8f b9 25 c8 e5 be e8 cc c3 be
       0.775513 -0.00027424522 -0.4487926 -0.3824227
000120 e4 d9 3d be 10 3b f0 3e be 2d 04 3e d7 b0 42 bf
       -0.1854015 0.4692006 0.12908074 -0.76051086
000130 c6 30 61 3f 17 0c 78 be fa e2 cd 3f 6e 0f 2e bf
       0.8796505 -0.24223362 1.6084893 -0.67992294
000140 bd c3 16 3f a2 f7 4a 3f df 95 7e bf c1 ee 0b be
       0.5889242 0.7928411 -0.99447435 -0.13665296
000150 36 cf 13 3e ae 99 9a bf d4 17 9b be de 86 9e 3e
       0.14434513 -1.2078149 -0.30291617 0.3096227
000160 8d 8b b5 3e 65 5b e0 3e 1a dd be 3f b9 d3 09 40
       0.3545803 0.43819728 1.4911225 2.1535475
000170 20 3d 1d 3f 4b 32 9d 3e 70 a3 d9 3e 30 ee c6 3f
       0.61421394 0.30702433 0.42507505 1.5541439
000180 d2 43 09 40 c5 63 12 3f e7 5b 20 3e e9 c0 14 3f
       2.1447644 0.57183486 0.15660058 0.5810686
000190 32 1a cc 3f 55 24 04 40 6d de 1d 3f 1b 8d cd bf
       1.5945494 2.0647175 0.6166752 -1.6058687
0001a0 81 96 35 bf 3f db 2f 3f 91 94 13 40 ef 0d 3f c0
       -0.70932776 0.6869392 2.3059428 -2.9852254
0001b0 2f 33 1a c0 35 2f be 3f 4f 2e 29 40 cb de 02 40
       -2.409374 1.4858156 2.6434515 2.0448482
0001c0 bb fa 14 3e 19 73 c3 3f 72 aa 22 bf f7 8c ef 3d
       0.14548771 1.52695 -0.6354133 0.11696809
0001d0 62 55 95 3d 81 b0 5b bf 04 e9 00 3f 3a f5 27 3f
       0.07291676 -0.858162 0.50355554 0.6560856
0001e0 e4 e2 90 ba a9 18 6c 3e ee 0c df bb b9 b8 e5 3e
       -0.0011053947 0.23056282 -0.0068069613 0.44867495
0001f0 0f 39 92 3d 2b 85 65 bf b9 d8 a5 3d 64 cf 08 bf
       0.07139789 -0.89656323 0.08097977 -0.5344145
000200 4d e6 a4 3f 81 a3 a6 bd c7 c8 5c bf f5 b0 40 3f
       1.2882782 -0.08136655 -0.8624386 0.75270015
000210 e6 2d 7c 3d 1a f8 bb 3e 94 4c 4b bf c8 b8 90 3f
       0.06156721 0.36712724 -0.79413724 1.1306391
000220 e8 07 08 3e 21 1f a9 bf 84 69 af 3e a6 82 17 3e
       0.13284266 -1.3212625 0.3426019 0.14795932
000230 2e c2 05 bf 7d 14 2d bd 6a 89 00 be 85 90 02 3f
       -0.5224942 -0.042255867 -0.1255242 0.5100177
000240 a4 2c 0b 3d 5c 00 20 3f 2b 85 32 40 6d 2c cc 3f
       0.03397812 0.6250055 2.789378 1.5951058
000250 79 73 a2 3f bd 4a 83 3c 4a 2f 38 3f 80 eb 39 40
       1.269149 0.016026849 0.7194716 2.9049988
000260 9f 9c e2 3f 3f e3 83 3f 10 b7 65 be 75 a8 f3 3e
       1.7704047 1.0303725 -0.22433114 0.4758946
000270 5e 26 3f 40 52 d0 d3 3f 00 6d 86 3f ad f5 ae 3e
       2.9867167 1.6547949 1.0502014 0.3417181
000280 7a fb fc 3e 30 1c 10 3f 6c 37 5a 3f bc b3 6d c0
       0.4941061 0.5629301 0.8524082 -3.714095
000290 19 14 88 c0 ce 5d 91 c0 f5 c9 73 c0 09 b4 35 c0
       -4.2524533 -4.542701 -3.8092015 -2.8391135
0002a0 02 9b 69 be e8 2e d5 be fa 9b 94 3e 79 d4 2e 3e
       -0.22813037 -0.4163735 0.2902525 0.1707324
0002b0 a2 49 58 3e 5d b2 8d bf 22 5f 47 be 09 e6 16 bf
       0.21121839 -1.1070057 -0.19469884 -0.58944756
0002c0 20 17 c6 bd d4 a6 72 3e d9 5c 9c 3e 5b aa 81 3e
       -0.096723795 0.23696452 0.30539587 0.25325283
0002d0 7c c0 37 3f 58 05 e3 be 29 20 01 3f dc 05 f0 3d
       0.7177808 -0.44340014 0.504397 0.117198676
0002e0 54 36 1e be e9 13 26 3f ff 4f 61 3e c6 03 b8 3e
       -0.15450412 0.6487413 0.22003172 0.3594038
0002f0 ac d7 6e bf 92 de a0 3f 8c 33 91 3f a3 ca 54 3f
       -0.9329784 1.2567923 1.1343856 0.831217
000300 32 71 5e be 7f 41 a5 3e bb a0 1f 3e d4 0c 17 bf
       -0.21722868 0.32276532 0.15588658 -0.5900395
000310 25 37 05 bf 7e f2 9f 3f c3 00 ba bf 7c 2b 95 3e
       -0.5203727 1.2495878 -1.4531482 0.29134738
000320 63 66 8f 3f 6a e3 36 3f 45 7a 2e c0 cc e3 56 c0
       1.1203121 0.71440756 -2.7262127 -3.3576536
000330 77 67 1f c0 21 aa 9a 3f ff 31 4c 3f 44 28 2c c0
       -2.49069 1.2083169 0.7976379 -2.6899576
000340 48 96 54 c0 20 df 19 c0 41 e4 9a 3f e3 16 38 3f
       -3.3216724 -2.4042435 1.2100908 0.7190992
000350 c5 42 32 c0 b6 ac 5d c0 2d e7 1b c0 7a de 37 40
       -2.7853253 -3.4636664 -2.4359848 2.872954
000360 4b ee 03 40 c1 0e 90 3f 08 df 8d 3e 25 b0 5a 3f
       2.0614192 1.1254503 0.27709222 0.85425025
000370 bb 32 aa 3f 03 e1 e8 3f cc 60 0c 40 05 d8 27 40
       1.3296732 1.8193668 2.193408 2.6225598
000380 2b 33 bd 3e 5d 9d a6 3c a5 45 cb be e2 7e ef bd
       0.369531 0.020338709 -0.39701572 -0.11694123
000390 01 6a bf bd a4 1f 46 3e 0f f8 51 3e 38 69 66 be
       -0.093463905 0.19348007 0.20504783 -0.22501075
0003a0 b7 a5 c3 3e 30 58 4f bd 93 eb 9a bd b1 47 81 bd
       0.38212368 -0.05062121 -0.075644635 -0.06312502
0003b0 c7 6a fa 3d 9a 61 3f 3d f5 1f 57 3f 5e 59 84 be
       0.122273974 0.04672394 0.8403314 -0.25849432
0003c0 e0 08 5e 3e 11 46 a6 bd b0 63 df 3d 78 39 83 3f
       0.21683073 -0.08118833 0.10907686 1.0251913
0003d0 3d a9 38 3c 70 e4 65 3e 2e 1e 1b 3f 11 b6 93 3d
       0.011270818 0.22450423 0.60592926 0.07212461
0003e0 b2 66 81 be ea 04 20 3c 67 aa f9 3d e4 d7 2d 3e
       -0.25273663 0.009766797 0.12190705 0.16976887
0003f0 37 a9 fe 3c 27 f8 66 be d3 22 d6 be 4d 36 1a 3e
       0.031086547 -0.225556 -0.41823444 0.15059777

convs.0.fc_full.bias f4 [32]
000000 5c 4b 16 bd b1 00 a5 3e c4 d1 d3 bd cc da d6 bc
       -0.036692962 0.3222709 -0.10342744 -0.026227377
000010 23 59 3a bc f3 a8 04 bf 63 0b 3c be 31 e1 3a be
       -0.011373791 -0.51820296 -0.18363719 -0.18249966
000020 3e ef 42 3d 54 8d 51 bd f9 cd 06 be cd a3 dd 3d
       0.04759144 -0.05116017 -0.1316451 0.10822258
000030 c3 e5 09 3d 73 eb 18 bd ed ab 25 3e 5f 11 95 3e
       0.033666383 -0.037333917 0.16178866 0.29114816
000040 07 c8 18 be 79 a5 c3 3c dc 4a 12 be 03 08 68 3e
       -0.14920054 0.023882614 -0.14286369 0.22659306
000050 87 7e 9a 3d 06 34 9d 3e 17 f8 c4 bd 41 86 07 3c
       0.075436644 0.30703753 -0.09617632 0.008271755
000060 70 4d ae bc 63 5e ed bd d1 91 97 3d bf 8d 0a 3e
       -0.02127716 -0.115902685 0.07400859 0.13530634
000070 7a 1b ac 3d 3b ce 5a 3e 11 92 d7 3e ad 2b ac 3e
       0.08403678 0.21367733 0.42103627 0.33627072

convs.0.bn1.weight f4 [32]
000000 5e 0d 58 40 cb 83 76 40 07 fe 9b 40 ae 1d 51 40
       3.3758159 3.851794 4.874759 3.2674365
000010 8d 20 39 40 52 fb c8 3f 58 12 7f 40 ff 54 8b 40
       2.8926117 1.5701697 3.9854946 4.3541255
000020 fd 73 97 40 8b c1 e6 40 54 c0 39 40 36 6b 8a 40
       4.7329087 7.211126 2.9023638 4.3255873
000030 54 fb ac 40 1c f5 6f 40 d6 77 4e 40 25 e7 b9 40
       5.4056797 3.7493353 3.2260642 5.809466
000040 d7 b7 d4 3f 1f 63 9d 3f 52 45 0e 3f 8d 81 19 3f
       1.6618603 1.2295874 0.55574524 0.59963304
000050 0d 1e 80 40 61 53 88 3f bd 61 02 40 99 da b8 3f
       4.0036683 1.0650445 2.0372155 1.4441711
000060 5d 78 84 3f c3 f5 7a 3f f9 8f e5 3f cd 77 23 40
       1.0349232 0.9803125 1.7934562 2.554187
000070 1a c3 83 3f 33 f3 69 3f 07 d3 e5 3f 50 99 cf 3f
       1.0293915 0.9138672 1.7955025 1.6218662

convs.0.bn1.bias f4 [32]
000000 16 fd 08 bf 17 86 97 3f 53 35 cd 3e 44 63 a1 3d
       -0.5351118 1.1837796 0.40079746 0.078802615
000010 85 ea 99 bf 66 3f f2 3e 38 f9 25 bf db f5 0f bf
       -1.2024695 0.47313994 -0.648334 -0.5623452
000020 c9 17 3f 3f 48 4c d9 3e 00 fb c9 be bf 52 1e bf
       0.7464567 0.4244101 -0.3944931 -0.6184501
000030 61 eb 4a bf f6 25 42 bd 1a fc 8d bf ff ee 6c bf
       -0.7926541 -0.047399484 -1.109256 -0.9255218
000040 e2 b2 36 bf 81 3a ce 3e 4f df 87 3f 40 9d 08 3f
       -0.71366704 0.4027901 1.0615023 0.53364944
000050 06 dc 28 be 73 53 96 3e 71 2d 1c c0 92 b1 dd bf
       -0.16490182 0.29360542 -2.4402735 -1.7319815
000060 b7 85 66 3f f1 95 88 3e bc 10 26 c0 e2 07 91 c0
       0.9004778 0.26676896 -2.5947714 -4.5322123
000070 10 2f b3 be 0a 7e 06 3e e7 ab 12 c0 78 09 0b 3e
       -0.34996843 0.13134018 -2.291742 0.13577831

convs.0.bn1.running_mean f4 [32]
000000 cf 3d 99 41 4c 8f 39 41 d3 47 bc 41 06 e7 55 c1
       19.15518 11.597485 23.53507 -13.368902
000010 a4 47 35 c0 a2 6d 3f 41 30 f3 82 c1 3a 9d b5 c1
       -2.8324976 11.964266 -16.368744 -22.70177
000020 44 74 f6 3f aa 14 d7 40 5b f6 8b c1 51 df 77 40
       1.9254231 6.7212725 -17.49529 3.8730052
000030 97 eb 56 c2 7e 66 0a 41 cb 8e 50 c1 f9 ca 1a 41
       -53.73007 8.6500225 -13.034862 9.674554
000040 af fe 18 c0 41 2a 18 42 5f 38 25 c1 09 c8 9a 40
       -2.3905447 38.041264 -10.326262 4.8369184
000050 54 6e c6 c0 37 66 83 41 b9 2f c3 c1 b1 23 9c c1
       -6.200968 16.42491 -24.398302 -19.517427
000060 3b d8 90 c0 82 8a 3c c1 71 d8 25 c1 c2 5b 96 c1
       -4.5263953 -11.783815 -10.365342 -18.794804
000070 3a 4c 8c 41 0c f5 e3 c0 d3 15 16 c2 ac 99 83 bf
       17.53722 -7.123663 -37.521313 -1.0281272

convs.0.bn1.running_var f4 [32]
000000 17 3b 69 42 d2 09 30 42 06 65 eb 41 05 05 bc 42
       58.307705 44.00959 29.424328 94.0098
000010 66 a4 10 42 e7 b6 15 42 b3 b7 40 42 fa 9d 84 41
       36.160545 37.428616 48.179394 16.577137
000020 99 8e 2e 42 81 5f 0b 42 b2 63 75 42 75 e4 5d 41
       43.639256 34.843266 61.34736 13.868276
000030 97 46 04 42 ef fa 65 42 af 75 07 42 a8 03 f3 42
       33.068935 57.495052 33.864925 121.50714
000040 59 46 0e 42 31 32 43 42 db a3 1f 42 9c e4 92 42
       35.5687 48.799015 39.910015 73.4465
000050 91 93 06 43 f6 2f 2a 42 f6 be d1 41 1f 97 a6 41
       134.57643 42.546837 26.218243 20.82379
000060 98 f1 ad 42 90 53 08 42 a0 18 42 42 4c 1d 99 41
       86.97186 34.081604 48.524048 19.139305
000070 c4 bc 61 42 d7 1b 76 42 6f fb cd 41 a2 0a 3b 42
       56.43434 61.527187 25.74777 46.760384

convs.0.bn2.weight f4 [16]
000000 a7 e0 77 3f 80 38 ae 3f eb 58 e9 3f 0d 43 c6 3f
       0.9682717 1.3610992 1.8230261 1.5489212
000010 d3 7d e1 3f 4c 80 b9 3f 6e 5f ee 3f a7 3b c3 3f
       1.7616524 1.4492278 1.8622873 1.525258
000020 9a e2 c5 3f de 97 39 3f 56 87 e4 3f 57 94 af 3f
       1.5459778 0.72497356 1.7853801 1.3717145
000030 27 bf aa 3f 1b 5c 91 3f d7 86 83 3f a0 5c cf 3f
       1.3339585 1.1356233 1.0275525 1.6200142

convs.0.bn2.bias f4 [16]
000000 ab 72 22 3f dd 53 ab 3e 7a 77 2e bf a0 94 56 3d
       0.6345622 0.3346242 -0.68151057 0.052387834
000010 fc b5 eb 3e 66 55 05 3b 58 84 17 3f 0f 6b 4c 3f
       0.4603728 0.002034509 0.59186316 0.7985086
000020 97 1f 8a be 55 6a ec 3e 65 d9 7c 3e bd 9a cd be
       -0.26977226 0.46174875 0.24692304 -0.40157118
000030 05 a5 3a 3e 00 64 5c be 5d ab f6 be 8e 02 90 3e
       0.18227012 -0.21522522 -0.48177615 0.2812695

convs.0.bn2.running_mean f4 [16]
000000 3d bc 2f 40 73 f3 f4 40 7d cb 34 41 cd d1 d8 40
       2.7458642 7.654718 11.29968 6.7756104
000010 9e 15 61 41 c5 0d 0d 41 d8 41 58 40 27 09 17 40
       14.067778 8.815862 3.3790188 2.3599336
000020 c0 9f 27 41 b8 c4 97 40 72 d4 18 40 54 b2 01 3f
       10.476501 4.7427635 2.3879666 0.5066273
000030 97 8b 48 40 2c 5c f9 40 fe ca 2d 40 0f c8 d9 40
       3.13352 7.7925014 2.7155147 6.805671

convs.0.bn2.running_var f4 [16]
000000 e0 9c 45 40 78 61 50 42 da e5 2f 42 bc 89 ba 40
       3.0877 52.095184 43.974464 5.8293133
000010 fc 69 05 43 ab 33 40 41 6b d0 00 42 6b da 6d 40
       133.414 12.012614 32.203533 3.7164562
000020 c7 3e 5d 42 4b 09 41 42 60 a3 ce 40 85 27 41 3f
       55.311306 48.259075 6.457443 0.75450927
000030 22 92 c7 40 24 f9 dc 40 aa fa 4e 41 10 1c 35 42
       6.2365885 6.9054127 12.936197 45.277405

convs.1.fc_full.weight f4 [32, 56]
000000 86 35 7a 3f db f9 b4 bd f2 5b 12 bf 5b bc c0 bf
       0.9773792 -0.08836719 -0.5717155 -1.5057482
000010 14 06 31 bf 1f 74 9c bd 84 f6 09 bf ba 44 3a bf
       -0.691499 -0.07639336 -0.5389178 -0.7276112
000020 51 95 88 be a2 17 74 3e 15 36 ed be 2a d3 fe 3d
       -0.2667642 0.2383714 -0.46330324 0.1244262
000030 bf 34 d7 be 79 0e 04 bf bb 7d 1a bd 6a fc 37 bf
       -0.4203243 -0.51584584 -0.037717562 -0.7186953
000040 61 d1 d0 be 6b 45 58 bd 5f 9c ab bc e5 d0 be 3e
       -0.40784743 -0.052800577 -0.020948587 0.3726875
000050 b2 7b b5 3f 19 26 c1 3d 94 e9 a5 bf 71 c0 ae 3e
       1.4178374 0.09431095 -1.2961907 0.34131196
000060 30 53 10 bd bf 4e 9b be 7a 70 51 3e 81 1d ca 3d
       -0.035235584 -0.30333516 0.20453063 0.09868909
000070 00 4b b0 b9 17 95 9a be 61 0a 61 3f 1c b7 be 3e
       -0.00033625215 -0.30191872 0.8790646 0.37249076
000080 98 79 b5 c0 eb bc bd c0 fc b9 bf c0 10 94 d3 3f
       -5.671093 -5.9293113 -5.991453 1.652956
000090 57 95 60 40 34 f0 ae c0 53 d7 bd c0 26 31 be c0
       3.509115 -5.4668217 -5.9325347 -5.9434996
0000a0 70 0d c2 3f 7a 1b 6d 40 1e ed ab c0 38 2a ba c0
       1.5160351 3.704802 -5.372695 -5.8176537
0000b0 0c 43 c2 c0 c2 ae ce 3f fd 56 6b 40 7b e3 9b bf
       -6.0706844 1.6147082 3.6771843 -1.2178797
0000c0 1b ee bd bf 92 41 07 c0 fd 7b 45 c0 cb 0b bb bf
       -1.4838289 -2.113377 -3.0856926 -1.4612974
0000d0 09 32 d0 bf d0 44 2c bf ce 02 13 bf 07 e0 bc bf
       -1.626527 -0.672925 -0.57426155 -1.4755868
0000e0 3f a3 b9 3f 08 90 9d bd e1 2c 64 40 fc 84 5e 3f
       1.4502944 -0.076934874 3.5652392 0.8692167
0000f0 30 89 1a 3e 7a 90 85 3e 6f 8d 2f bf 59 a5 67 bf
       0.15091395 0.2608679 -0.68575186 -0.90486676
000100 9e f3 01 bd b1 d5 85 3f 4d dc da be 77 b0 b4 3c
       -0.031726472 1.0455838 -0.427462 0.022056801
000110 3e 3b 84 be 93 64 27 bf ce 13 1f 3e 37 bf ca bd
       -0.25826448 -0.6538784 0.15534899 -0.098997526
000120 13 1a a9 bd 49 88 0b 3f 76 27 aa 3f 0d fe b4 3e
       -0.082569264 0.5450483 1.3293293 0.35350075
000130 b2 8e 07 3f 4c a9 c9 3f 97 96 09 3f 65 9c 76 3f
       0.5295211 1.575479 0.53745407 0.9633239
000140 6d 46 84 3f 4b 43 49 3f 28 65 2e 3f 9a 5f 53 bf
       1.0333992 0.78618306 0.681231 -0.8256775
000150 8f 76 09 40 e8 34 5f 3f 2d 28 8c bc ed e8 a9 bf
       2.1478612 0.87190104 -0.017109001 -1.3274208
000160 b6 21 14 40 98 f6 39 40 b8 a1 32 3e bc ad a6 bf
       2.3145576 2.905676 0.17444503 -1.302177
000170 5d 9d b6 bf bb c8 14 40 64 6f 3f 40 68 e3 cb 3e
       -1.4266773 2.3247516 2.9911737 0.39821935
000180 e6 43 99 bf d5 af b5 bf 4e 3a 15 40 48 fb 42 40
       -1.1973846 -1.4194285 2.3316836 3.046587
000190 49 48 89 3e 64 14 86 bf 05 47 c5 bf c8 26 af 3f
       0.26812962 -1.0474973 -1.5412298 1.368371
0001a0 55 a7 e2 3f 9e 48 fd 3f ab 48 fe 3f 5a 4c 93 40
       1.7707316 1.9787786 1.9865927 4.6030703
0001b0 65 9b 9f 40 62 fb 6a 3f 7b 2d 45 bf 5c ea ba bf
       4.987719 0.9178983 -0.7702252 -1.4602771
0001c0 f5 c6 93 3f e4 7e cb 3e 63 88 de be 45 3c 39 3f
       1.1545092 0.39745247 -0.4346343 0.7235759
0001d0 0b 18 77 be b2 a1 cb 3f 86 f0 d8 3e 89 81 e3 3e
       -0.24130265 1.590872 0.42371005 0.44434765
0001e0 2f 05 09 c0 20 5f 3c 3d be b3 a7 3e 08 a0 b8 be
       -2.1409414 0.045989156 0.3275432 -0.36059594
0001f0 d2 b1 60 3e c3 4f 6e be 49 8c be be 38 26 4d 3e
       0.21942833 -0.23272614 -0.37216404 0.2003411
000200 ed 93 19 3e 48 6d 17 40 8d 8b 63 bf 15 bd 43 bf
       0.14997835 2.366045 -0.8888481 -0.7646039
000210 38 e9 05 bd 6e be 2e 3f f2 9c 79 be c4 f3 d0 bf
       -0.032693118 0.6825932 -0.24376276 -1.6324391
000220 94 69 01 c0 02 41 ec 3e b5 d1 10 be 08 f0 f9 be
       -2.022069 0.46143347 -0.14142497 -0.48815942
000230 5c cb 55 be 3f c7 7a be 68 1e 18 bf 4b eb 82 bf
       -0.20878357 -0.24490069 -0.59421396 -1.0228056
000240 8b 64 21 3c 36 dd 13 3e da dd 82 3f cd 24 92 3e
       0.0098506315 0.14439854 1.0223954 0.28543702
000250 72 7e 86 3d a9 2b 0c 3e a2 8a 41 3e c3 8f 80 3f
       0.06567086 0.1368853 0.1890054 1.0043873
000260 fa fc 81 3e 27 06 8e 3d 13 0f 91 3d b9 12 33 3e
       0.25388318 0.06934767 0.07082953 0.17487611
000270 5c dc 93 3f 6d 29 b9 3e 77 f7 58 3c 3f 9c 07 bf
       1.1551623 0.36164418 0.013242594 -0.5297279
000280 fc e0 82 3e c9 33 95 3f 1c 57 11 40 48 48 d2 be
       0.25562274 1.1656429 2.2709417 -0.4107077
000290 0e fe 2c bd 11 fc b0 3e 39 40 bf 3e 16 89 ab bc
       -0.042234473 0.3456731 0.37353685 -0.020939391
0002a0 de 47 4f 3b 1a 49 0b 3e a6 cd 31 be 50 ea 36 3f
       0.003162853 0.13602105 -0.17363605 0.7145128
0002b0 c5 dd d2 bf a7 68 7a 3e 67 27 1e bf de 8b 86 bf
       -1.6473929 0.24453984 -0.61778873 -1.0511434
0002c0 07 e5 8e 3e c4 08 84 3f 14 3e 29 3f 52 6f c6 be
       0.2790911 1.0315175 0.6611035 -0.38756806
0002d0 0c 29 86 3e 56 42 95 be bc 7c 01 c0 c4 3e 6d bf
       0.2620319 -0.29152173 -2.0232382 -0.926739
0002e0 3f fe 12 3e b1 c4 ea 3c 05 78 81 bb 9a 63 dc bd
       0.143548 0.028658243 -0.003951075 -0.10761185
0002f0 1c 63 3a 3f de 96 72 bf 01 b5 5f 3c e4 53 87 bf
       0.7280748 -0.94761455 0.013653995 -1.0572476
000300 f1 ec 21 3f bb f1 06 bf ed 66 7c 3e 10 1a 9c bc
       0.6325217 -0.527126 0.24648638 -0.019055396
000310 96 52 88 bf 54 5a 44 3d 1f 34 4e bf 17 c9 d0 be
       -1.0650203 0.047937706 -0.8054828 -0.4077842
000320 b4 2c be be ac 8c 83 be 44 c4 43 3f 6c 83 58 3f
       -0.3714348 -0.25693262 0.7647135 0.84575534
000330 b5 0a 11 3f 42 0b 9b be 84 59 70 bd c6 22 5e 3f
       0.5665696 -0.30282027 -0.05867912 0.8677181
000340 bb ee 72 3f 5d 9e 32 3f 6a cb d5 be 20 6d 35 be
       0.94895524 0.69772893 -0.41756755 -0.17717409
000350 39 57 5a 3f c9 fd 57 3f 6e a0 19 3f 7d 85 46 3e
       0.8528934 0.8437162 0.6001042 0.19386859
000360 91 83 97 3e 76 60 67 3e 4f 2c 73 3e 62 46 38 c0
       0.29592565 0.2259539 0.23747371 -2.8792958
000370 1a 50 47 c0 8c 73 25 c0 b4 15 1f c0 73 6d 24 c0
       -3.114264 -2.5851774 -2.4856997 -2.5691803
000380 3b a9 cd 3d 4d 87 cd be 51 df f9 3d 08 e8 74 3e
       0.10042044 -0.4014229 0.12200797 0.23916638
000390 41 1c 17 be 5f e6 76 3d 4f 6c 2a be 6a 7f ea be
       -0.14756872 0.060278293 -0.16642879 -0.45800334
0003a0 cd 91 0e bf c5 cf dd 3e b0 17 d3 3f 38 c0 06 c0
       -0.55691224 0.43322578 1.6491604 -2.105482
0003b0 9d 13 9a 3f 93 69 03 c0 84 a6 ca 3f a9 ce b1 be
       1.2037235 -2.0533187 1.5832067 -0.34727982
0003c0 d6 c1 41 3e 64 4c 85 3f 2f 30 b2 be b3 0e 5a bf
       0.18921599 1.0413938 -0.34802386 -0.8517868
0003d0 5e 71 1a bf c9 ac fe 3e b2 fd d1 be 18 33 64 bf
       -0.60329235 0.497412 -0.41013867 -0.8914046
0003e0 31 a6 b6 3e a2 25 c5 be c8 76 0a bf 46 5b 67 be
       0.3567367 -0.38505274 -0.54087496 -0.22593412
0003f0 8d 32 7e bf 51 46 e8 be 3a 00 f1 be 17 23 5a bf
       -0.99295884 -0.45366147 -0.47070485 -0.8520979

convs.1.fc_full.bias f4 [32]
000000 61 bd 49 bd a1 a4 7e 3e 13 18 92 bc 12 a6 d6 be
       -0.04925287 0.24867488 -0.017833745 -0.41923577
000010 b8 65 8f 3e bc 55 78 3e a1 31 37 3e 38 0f e2 bd
       0.28007293 0.24251455 0.17890026 -0.11038059
000020 12 b7 9a bc b0 ab 21 3e 0a fd 4d 3e a8 f6 c3 bc
       -0.018886123 0.1578815 0.20116058 -0.023921326
000030 e7 2f 73 3e 31 fc 01 3f b5 1e 2d 3d 18 e6 ba 3d
       0.23748742 0.5077544 0.042265613 0.09125918
000040 6f 69 06 bf d3 de 8d be 2a 03 ea 3e b6 d6 1e 3e
       -0.5250463 -0.27709064 0.4570554 0.15511593
000050 fe 98 42 bd 0b 6a 65 be da 9d 37 3e 82 69 aa be
       -0.047509186 -0.22403733 0.1793131 -0.3328362
000060 25 a7 fa bc b3 47 80 3e 7f 25 12 3f 3b 84 68 3d
       -0.030597279 0.25054702 0.57088464 0.05676673
000070 24 1c a8 3e 7b b5 d1 3e 31 84 be bc d0 6a 35 bd
       0.3283397 0.4095877 -0.023256393 -0.044291317

convs.1.bn1.weight f4 [32]
000000 98 95 68 40 37 07 df 40 d6 cd db 3f f7 54 b3 40
       3.6341305 6.9696307 1.7172191 5.6041217
000010 11 97 23 40 da 01 73 40 70 cf 97 40 4e 2c 42 40
       2.5560954 3.796988 4.744072 3.0339541
000020 a7 a9 cd 40 b8 1c 21 40 ed 3b 69 40 59 2b 6b 40
       6.4269595 2.5173779 3.6442826 3.6745207
000030 84 7b 23 40 b9 78 8e 40 b1 b3 93 3f ff 3b 93 40
       2.5544138 4.4522367 1.1539212 4.6010737
000040 57 e2 0a 40 ea 39 14 40 7a 88 ab 3f 48 1d 6b 3f
       2.1700647 2.3160348 1.3401024 0.91841555
000050 b4 9c 5f 40 e1 9d 54 3f 95 3f 41 40 9b cd 8e 40
       3.4939394 0.83053404 3.0195057 4.4625983
000060 13 46 9f 3f d5 f2 15 40 20 a9 f3 3f 9a ca 2e 40
       1.244326 2.3429463 1.9035988 2.7311158
000070 c4 53 c8 40 8c c9 29 40 5d e9 d6 3f 68 3f 0a 40
       6.2602253 2.6529264 1.6789967 2.16012

convs.1.bn1.bias f4 [32]
000000 fb 99 b6 bf 98 42 a5 bf aa 21 6d bf aa b4 d7 3d
       -1.4265741 -1.2910948 -0.9262949 0.10532506
000010 52 17 8b bf a6 34 6d be c5 c6 55 bf b7 80 90 bc
       -1.0866492 -0.23164615 -0.83506423 -0.017639501
000020 1a e1 9b be 28 94 dc be b3 6c 49 bf 1e 54 cc bf
       -0.30445176 -0.43081784 -0.78681487 -1.596317
000030 9b f7 06 3f 09 75 3f bf 5d 2d a0 be 8e d0 72 bf
       0.52721566 -0.74787956 -0.3128461 -0.9484948
000040 ae ff 21 c0 65 53 9e bf 4d 17 5d bf ec d5 aa 3d
       -2.5312304 -1.23692 -0.8636368 0.083415836
000050 1b 11 17 c0 12 d2 43 3e d2 76 a2 bf f4 5b 7d bf
       -2.360419 0.19123104 -1.2692511 -0.98968434
000060 45 b9 45 3f 09 d9 a0 bf c8 db 2a bf 9a 59 99 bf
       0.77235824 -1.2566234 -0.6674161 -1.1980469
000070 7e ba cf bf 1a 50 74 bf 79 bc 89 bf 05 fc 99 be
       -1.6228788 -0.95434725 -1.0760642 -0.30075088

convs.1.bn1.running_mean f4 [32]
000000 2d d0 31 c2 b9 92 ae 41 26 8a ce 40 5d cd 29 c0
       -44.453297 21.821642 6.454364 -2.6531594
000010 8a 3f 36 40 30 c7 fb c0 d9 8a c0 c1 f0 70 0a c1
       2.847628 -7.868065 -24.067797 -8.652573
000020 ba 6c 80 c1 1a 33 fe be 55 24 34 bf 03 bf 97 c1
       -16.05309 -0.49648362 -0.7036794 -18.968267
000030 89 9e 95 bf 1e da 6b c2 41 94 8f c1 26 ea 95 c1
       -1.1689006 -58.963005 -17.94739 -18.73933
000040 52 62 31 c2 13 cf c9 40 7e 88 ab 40 05 8b fe be
       -44.346016 6.3065276 5.3604116 -0.49715438
000050 71 bf fb c0 c6 4d ad c1 38 9a 9f c1 3a 06 24 40
       -7.8671193 -21.662975 -19.950302 2.56288
000060 5a 36 70 c1 91 dc 05 c1 e2 71 98 c1 89 9a a5 c1
       -15.013269 -8.366349 -19.055607 -20.700457
000070 fe 64 06 41 46 37 96 c1 24 16 95 c1 10 2c f5 c1
       8.399656 -18.776989 -18.63581 -30.646515

convs.1.bn1.running_var f4 [32]
000000 48 11 70 42 88 55 46 42 93 7b 71 41 d6 2e a1 41
       60.016876 49.583527 15.0926695 20.14787
000010 c5 e1 d2 41 9a e4 9b 41 dc 23 1a 42 03 9a b5 42
       26.360239 19.486622 38.53502 90.800804
000020 c8 82 7f 41 95 53 b2 42 26 b7 51 42 e8 51 43 42
       15.969429 89.163246 52.428856 48.829987
000030 21 b9 e1 41 9f d8 91 41 2f db 65 41 26 e1 1d 41
       28.215395 18.230772 14.366012 9.867468
000040 ed 1b fe 41 c6 f5 4a 42 e4 3b 3b 42 d8 62 ad 42
       31.763636 50.740013 46.808487 86.693054
000050 95 23 91 41 b2 0d 8d 42 32 3b 51 42 c2 ce 11 42
       18.142374 70.52675 52.307808 36.451912
000060 f3 e5 18 42 da 7d 04 42 86 5e 87 42 88 f3 f1 41
       38.22456 33.122902 67.684616 30.243912
000070 98 3d 8a 41 47 a3 df 41 b2 6f 67 41 fe e2 26 42
       17.280075 27.954725 14.464769 41.721672

convs.1.bn2.weight f4 [16]
000000 8a f6 98 3f 70 55 06 40 3c c9 c9 3f 73 ef e4 3f
       1.1950238 2.0989647 1.5764537 1.7885574
000010 df 9f c8 3f 48 e0 bf 3f 8b 46 65 3f 97 91 c4 3f
       1.5673789 1.499032 0.89560765 1.535693
000020 49 50 d1 3f 5c 75 89 3f 2f 20 e7 3f 25 49 dc 3f
       1.6352626 1.073894 1.8056697 1.7209822
000030 e2 bc 10 40 59 a4 c2 3f ce ff 3e 3f 8b fc cf 3f
       2.2615285 1.5206405 0.74609077 1.6248945

convs.1.bn2.bias f4 [16]
000000 fd 32 04 3f b9 ac c9 3e f9 39 eb bf b8 82 c8 3e
       0.516403 0.3938959 -1.8377067 0.3916223
000010 12 dd 71 bf a8 7b 25 bf e3 09 7e bf 51 7a 3d bd
       -0.9447795 -0.6464181 -0.99233836 -0.04625923
000020 4b 1d 68 be e6 c1 06 3f 23 3c 28 3d 14 30 25 3f
       -0.22667424 0.52639616 0.041072976 0.64526486
000030 c5 70 bc 3f 5e 43 da be 06 29 e2 be 1d a9 f3 be
       1.4721915 -0.42629522 -0.44171923 -0.4758996

convs.1.bn2.running_mean f4 [16]
000000 4e 27 0a 40 b9 f1 d1 40 6a c1 21 40 d9 2c 9f 40
       2.158649 6.560757 2.52743 4.9742246
000010 45 61 73 40 fd d1 99 40 be ac d9 40 3d b2 fa 40
       3.8028119 4.8068833 6.8023367 7.8342576
000020 94 3c 19 41 66 4c a4 40 f3 92 bf 40 09 4a 95 40
       9.57729 5.134326 5.986688 4.6652875
000030 de 7e 84 41 89 de c4 40 f6 87 65 40 0a b5 96 40
       16.561947 6.152165 3.5864234 4.7095995

convs.1.bn2.running_var f4 [16]
000000 d2 3c aa 41 be d1 e5 41 98 b9 68 40 50 7f 01 41
       21.279697 28.727413 3.6363277 8.093582
000010 54 71 6d 41 0a 64 7d 41 96 34 a4 42 ca 8e 78 42
       14.840168 15.836924 82.10271 62.139442
000020 24 3b 2d 42 2c 2f da 41 68 4e 0e 42 72 45 4c 42
       43.307755 27.273033 35.57657 51.067818
000030 c6 25 9e 43 61 f0 98 42 50 13 c4 41 43 1f 61 41
       316.2951 76.46949 24.50943 14.070132

convs.2.fc_full.weight f4 [32, 56]
000000 20 41 8b 3e 84 0c e6 3d 16 3b 4e 3f 49 fe 38 3f
       0.27198124 0.11232856 0.8055891 0.7226301
000010 e2 fb d4 bf 5b b0 aa bf e3 a8 7a bf 70 5f 5a 3f
       -1.6639369 -1.333507 -0.9791395 0.85301876
000020 b3 db 7a 3e d3 8b d3 be a0 14 98 be f1 aa f0 bf
       0.24497871 -0.41317615 -0.29703236 -1.8802167
000030 36 a2 b9 bf 73 6c 93 be 99 88 f6 be 0e 36 8b 3e
       -1.4502628 -0.28793678 -0.4815109 0.27189678
000040 41 2d 3f bf e4 a0 de 3e de b5 90 3f 2e 49 61 3e
       -0.74678427 0.43482125 1.1305501 0.22000572
000050 ea d2 9f be 20 e6 97 bf a7 ab 9c bf 1f 60 8d 3e
       -0.31215602 -1.1867104 -1.2239884 0.27612397
000060 f1 d8 28 3f 58 c6 13 bf dc 77 88 3e 35 c6 c5 bf
       0.65956026 -0.57724524 0.26653945 -1.5451113
000070 45 ca ed bd c4 33 67 be da 8d 4e bf 4a e3 5d 3f
       -0.116108455 -0.22578341 -0.806852 0.8667494
000080 83 58 2d 3e 83 d2 de 3d c7 71 8d 3f db e0 98 3e
       0.16928296 0.10879996 1.1050347 0.2985905
000090 ae 23 4e 3e a9 9f 6e 3e 7d 8e 8b 3e ad d2 91 3f
       0.20130798 0.23303093 0.27257147 1.1392418
0000a0 16 32 a0 3e 51 00 aa 3d 84 71 6a 3d 06 b3 be 3e
       0.31288213 0.083008416 0.057237163 0.3724596
0000b0 15 59 a6 3f 10 b3 b7 3e ab 41 5d 3e ae db 17 be
       1.2995936 0.358788 0.21607082 -0.14829895
0000c0 68 30 5a 3e c9 11 e2 3e 28 62 8a 3f e3 10 43 c0
       0.21307528 0.44154194 1.0811205 -3.0479057
0000d0 e9 5f cb bf 2b 05 6a 3f 5e b6 89 3f 3c 0e a0 3f
       -1.5888644 0.91414136 1.0758779 1.2504344
0000e0 b7 fd 00 3f cc de 21 bf be 6c eb bf de 15 af be
       0.5038714 -0.63230586 -1.839256 -0.3419637
0000f0 f7 cd cd 3f 01 26 bc 3c 78 b6 b3 bf 0d 4d 5e be
       1.607848 0.02296734 -1.404006 -0.2170908
000100 2f b4 05 c0 e6 de 9e 3f 0b 59 01 bf 8e db bf 3f
       -2.0891225 1.2411773 -0.50526494 1.4988878
000110 cf 4b 30 3f bc c5 95 bf 16 36 3c be 75 81 f4 bc
       0.68865675 -1.1700969 -0.18380007 -0.029846886
000120 1a b5 5a be 6d 3e 66 bd 7f f6 5d bf fa 3a e4 be
       -0.21358147 -0.056211878 -0.8670425 -0.44576246
000130 69 f3 74 3f 2b ae 57 3e 65 bc 60 3e 19 b6 df 3f
       0.95683914 0.21062534 0.21946867 1.7477447
000140 11 3e 2d 3f 9d dd 64 bd 9c 8e 83 3f c1 af 32 3f
       0.6767283 -0.05587541 1.0277896 0.6979943
000150 16 be 86 3d f3 20 bf 3e 66 3b 00 3c 59 19 52 be
       0.06579225 0.37329826 0.007826662 -0.20517482
000160 61 cd e4 bd cc fd 18 3e e3 9c c2 3f 63 5a 43 3f
       -0.111719854 0.14940566 1.5204128 0.76309794
000170 30 f0 ed 3e f7 4f ca bc 8c 2f 88 3e 68 16 bf 3f
       0.4647231 -0.024696333 0.26598775 1.4928713
000180 3b fa 63 3f 0d ca c2 3e 91 22 16 bc d9 fc b9 3e
       0.89053696 0.38044778 -0.009163515 0.3632572
000190 0d e2 c4 3f af 16 6e 3f 63 44 06 3f 0c de 3d bf
       1.5381485 0.9300336 0.524481 -0.7416694
0001a0 b4 3b f5 be f5 2b ee be 38 90 db bd df 25 37 bf
       -0.47897112 -0.46517912 -0.10720867 -0.7154216
0001b0 b5 f8 77 be 61 24 9c bf c5 6d dd bf 44 4e 9d bf
       -0.24215968 -1.2198602 -1.7299124 -1.228951
0001c0 1f 7a 65 bc cf 42 ec bf a2 0d 64 be 6e 01 3c bf
       -0.014006167 -1.8457888 -0.22270826 -0.7343968
0001d0 02 be 02 c0 e0 a2 08 bf 19 98 1b 3e d7 e2 0c be
       -2.0428472 -0.5337353 0.1519474 -0.13758408
0001e0 a0 29 6f 3e a4 91 d4 3d dc e7 e2 be 50 c5 9f bf
       0.23355722 0.10379341 -0.4431752 -1.248209
0001f0 82 ae ff bb 9b 57 51 be dc 97 25 3f db b8 39 3e
       -0.0078027854 -0.20443575 0.64684844 0.18136923
000200 10 f4 36 3e 06 9f 27 c0 17 89 b5 be 1b 84 00 bf
       0.1786654 -2.619081 -0.35456154 -0.50201577
000210 fb 95 93 bf a1 28 12 3f 68 18 7d bf 40 95 16 bf
       -1.1530145 0.57093245 -0.98865366 -0.5882149
000220 be 1f 84 3e 78 45 8b 3e 80 c1 27 bf 0e b4 f5 bf
       0.25805467 0.27201438 -0.6552963 -1.9195573
000230 df 8d 2d bf 31 3f 84 bf b0 d6 aa 3e ab 30 a1 3e
       -0.67794603 -1.0331784 0.3336692 0.31482443
000240 ec be 29 c0 2b 7a 1f c0 1f 47 e1 bf 0b 69 c7 3f
       -2.652278 -2.4918315 -1.759983 1.5578932
000250 8d 36 15 40 c2 54 28 c0 08 87 21 c0 10 2d d9 bf
       2.3314545 -2.6301732 -2.5238667 -1.6966877
000260 97 3a d2 3f 25 3c 11 40 85 e3 1e c0 ce 5e 25 c0
       1.642413 2.269296 -2.4826367 -2.5839114
000270 ea 28 d3 bf 5c fd d8 3f e6 60 1a 40 49 f3 36 bf
       -1.6496861 1.6952319 2.4121642 -0.71464974
000280 27 4f 58 bd eb 65 30 3f 10 2d 86 3f 5b ac 88 c0
       -0.05280986 0.68905514 1.0482502 -4.2710395
000290 a0 8f 84 c0 9c 5a eb bf 7c 94 0f bf a1 c5 83 3e
       -4.1425323 -1.8387027 -0.56085944 0.25736716
0002a0 d3 68 ff 3c 55 fc b4 be ce f2 ac 3d 1f 43 41 3f
       0.031177914 -0.35348764 0.08444749 0.75493044
0002b0 0b 90 43 bf 8a 39 06 bf 2c 3a 25 3f 93 e9 01 3f
       -0.7639167 -0.5243155 0.6454189 0.5074703
0002c0 98 68 85 3f 01 ab dd 3d 93 d2 a8 bf 2c 72 e7 bf
       1.0422544 0.10823632 -1.3189262 -1.8081717
0002d0 7c 3a 55 3e 5f 64 f3 3e 23 df 92 3e ac 5e 8b be
       0.20823091 0.47537515 0.28685865 -0.27220666
0002e0 2e 2a 2b bf 31 f3 ea 3e ef 1c ed 3e 30 2a 06 3f
       -0.66861236 0.45888665 0.46311137 0.52408123
0002f0 ce c2 b5 bd c7 95 e6 bd 48 55 f7 3e 61 35 42 3f
       -0.08875047 -0.112590365 0.48307252 0.758627
000300 9f 2e 74 3f c0 c1 04 3f 5a 94 4e bf 2a 4e d3 bf
       0.9538364 0.5185814 -0.80695117 -1.6508229
000310 d7 6a 54 3e f3 c2 7b 3f 16 27 66 be 71 1c 53 3f
       0.20743881 0.98344344 -0.22475848 0.82465273
000320 84 78 ad 3f 5b 93 f9 3f 54 29 92 40 09 9b 48 3f
       1.3552403 1.9498094 4.567545 0.78361565
000330 33 da 0e bd 1c 56 98 3f c0 09 eb 3f 65 84 95 40
       -0.03487606 1.1901278 1.836235 4.6724114
000340 f6 ab 5a 3f f3 47 06 3d 6c e5 8b 3f 28 49 e5 3f
       0.8541864 0.03278346 1.0929389 1.791295
000350 f7 bc 95 40 4d 62 38 3f 40 f7 ca 3c f6 62 de be
       4.679317 0.72024995 0.024776101 -0.43434876
000360 69 6f 3a bf 8f 85 e1 be 3f f1 0d 3d 94 a2 33 c0
       -0.7282625 -0.4404721 0.0346539 -2.806798
000370 6a 03 00 c0 6b 0e b1 be 31 b3 05 bd 67 2f 17 3e
       -2.0002084 -0.34581313 -0.032641593 0.14764176
000380 5c 5c bb bf a0 b5 91 bf 8b a5 ca 3f fc 6e 23 be
       -1.4637561 -1.1383553 1.583177 -0.15960306
000390 1e a5 9f be e1 98 cf 3f 46 3c 58 3d bd 5d f1 3f
       -0.31180662 1.621853 0.052791856 1.8856732
0003a0 b1 56 42 bf 6e 21 1e bf 7a 07 07 bf cf 02 8d 3e
       -0.7591353 -0.6176976 -0.52745783 0.27541205
0003b0 67 d6 ab bf 04 a3 04 bf 4f 8b 01 bf bc 0f 85 be
       -1.3424805 -0.5181124 -0.50603193 -0.25988567
0003c0 d6 82 5d 3f 2a 9c 07 3f ef 0c d2 3e 13 9f ce 3d
       0.86527765 0.5297266 0.41025493 0.10088935
0003d0 d5 95 cc bf 1a 41 bd 3f d4 43 ad be f8 84 32 3f
       -1.5983225 1.4785492 -0.3384081 0.69734144
0003e0 3c aa bd 3f 0d 45 80 3f bc 95 98 3d 3b 94 4e 3f
       1.4817576 1.0021073 0.074504346 0.8069493
0003f0 33 51 35 3e aa 10 1d be 03 17 21 3f 76 11 f6 3e
       0.17706756 -0.15338388 0.6292574 0.48060197

convs.2.fc_full.bias f4 [32]
000000 9b ba 06 3e 82 27 f6 bd b2 8a ff bd d6 60 d6 bd
       0.13157122 -0.12019254 -0.12477626 -0.10467689
000010 6a 5f 96 3c d6 dc 2e be e2 0f 92 bd 1d a3 c5 bd
       0.018356044 -0.1707643 -0.07131936 -0.09650252
000020 90 26 26 bd 9d 8c e6 3a 54 d2 83 3b 1f 90 e4 3c
       -0.04056412 0.0017589513 0.004022876 0.027900754
000030 42 30 95 bd a4 58 2d 3e 25 fa bc 3b 18 66 e3 bd
       -0.07284595 0.16928345 0.0057671242 -0.11103457
000040 e7 2e af 3d 9c 1b c0 3d 5d 2b 30 be 38 2b ce bb
       0.08553868 0.09380266 -0.17204042 -0.006291773
000050 4e a6 5e 3d 06 39 d0 bd bd 24 63 3e e5 16 37 3d
       0.05435782 -0.10167126 0.22181983 0.04469957
000060 3a 6a 54 be 4c 3d 3e 3e 86 1d d4 3d c8 36 a9 3d
       -0.20743647 0.1857807 0.10357194 0.08262402
000070 2b f8 29 3d 87 5f 11 3d 32 76 5e 3e 94 2f cf bd
       0.041496437 0.035491493 0.21724775 -0.10116497

convs.2.bn1.weight f4 [32]
000000 bd dd 21 3f 4a 81 42 40 20 40 15 40 85 df 8a 3e
       0.6322897 3.0391412 2.3320389 0.27123657
000010 fa 96 9c 3f 4e e6 95 40 1f 62 c5 40 a3 dc 8a 40
       1.2233574 4.6843634 6.1682277 4.339433
000020 23 b5 be 40 75 cd f5 3f 74 0f 2e 40 db 46 86 40
       5.9596114 1.9203326 2.7196932 4.1961493
000030 ff 3d ab 3f f2 fd 80 40 07 13 0d 3f 86 c9 ae 40
       1.3378295 4.030999 0.5510716 5.4621
000040 2e 25 8f 3e 1c 57 f3 3e b7 54 40 40 ad 49 e7 3e
       0.27958053 0.47527397 3.0051706 0.45173398
000050 1c d1 1a 40 74 d0 ad 3f da 5f 39 40 01 2b 97 3f
       2.419013 1.357924 2.8964753 1.1809999
000060 81 fb cf 3f ba 2b 82 3f 4e aa aa 3f 4f 2f 93 40
       1.6248628 1.0169594 1.3333223 4.599525
000070 0a 84 f3 3f d6 b5 c8 3f 96 e9 a9 3f c7 fa 3f 40
       1.902467 1.5680492 1.327441 2.9996812

convs.2.bn1.bias f4 [32]
000000 eb 62 87 3e 0c 0a dd bf ef 0d f9 3e 04 a0 ee 3e
       0.26442656 -1.7268691 0.48643443 0.46606457
000010 37 cd 2f bf 18 3a 0a bd 46 fc 46 bf a8 91 e9 bf
       -0.6867251 -0.03374681 -0.7772869 -1.8247576
000020 a4 38 76 3e 63 f3 f7 be 46 de fe 3d 02 a8 7b 3e
       0.24045044 -0.48427877 0.12444739 0.24575809
000030 d0 32 04 c0 12 d3 9c be a5 f3 ed be 4e 46 35 bf
       -2.0656013 -0.30629784 -0.4647495 -0.708104
000040 53 c7 39 3f 6b 64 3f be 1d db c9 bf 87 db ea bd
       0.7256977 -0.1869065 -1.5769993 -0.11467653
000050 5a 37 8a bf 87 66 d1 3e ae 6e ea be 03 1d bb bf
       -1.0798142 0.40898535 -0.45787567 -1.4618229
000060 02 27 0f bf 9a 9a e5 bf f7 b5 ff be 3a 2c 91 bf
       -0.55918896 -1.7937806 -0.49943516 -1.1341622
000070 e9 82 46 c0 1e 8d cc bf b6 41 a3 bf 8c f7 5f bf
       -3.1017401 -1.5980566 -1.2754428 -0.874871

convs.2.bn1.running_mean f4 [32]
000000 62 23 13 c1 f6 31 8f 41 ea 97 28 c2 cd 8d b5 41
       -9.196138 17.899395 -42.148354 22.694239
000010 ef 13 26 c1 0b 38 12 40 7d 4f 01 c2 f7 05 ff c0
       -10.379867 2.2846706 -32.327625 -7.969478
000020 ef 0f a2 c1 e6 93 bb c1 76 42 d9 c1 70 70 06 c2
       -20.25778 -23.447216 -27.157452 -33.609802
000030 f2 20 02 c2 47 d2 eb c1 87 44 85 c1 99 36 92 c1
       -32.532173 -29.477674 -16.65846 -18.276659
000040 d5 9f 6a c1 17 24 0f c1 22 f2 c1 c1 f9 37 99 41
       -14.6640215 -8.946311 -24.243229 19.15233
000050 65 60 a2 c1 21 8c 0d 42 cc 07 57 c2 e8 e1 db c1
       -20.297068 35.386845 -53.757614 -27.485306
000060 9a 86 e8 c1 c0 65 0e c2 a9 83 53 c1 c8 69 7d c0
       -29.065723 -35.599365 -13.219644 -3.9595814
000070 a5 c2 82 c1 f1 81 e3 c1 a1 fc ac c1 66 99 0d c2
       -16.345041 -28.438448 -21.623354 -35.399803

convs.2.bn1.running_var f4 [32]
000000 32 60 a1 42 94 1d 9c 42 2a 2f 00 43 3f 17 d4 41
       80.68788 78.05777 128.18423 26.51135
000010 69 c7 89 42 84 44 e2 42 a8 b7 10 42 aa cf 93 42
       68.88947 113.13382 36.17935 73.905594
000020 25 68 90 42 34 57 09 43 c0 ec 0b 42 f1 25 8d 42
       72.20341 137.34064 34.9812 70.574104
000030 f8 62 a4 42 73 e2 4d 42 27 69 1d 43 66 97 d0 41
       82.1933 51.47114 157.41075 26.073925
000040 11 3a d0 42 db 32 66 42 42 51 a7 42 f9 50 06 42
       104.11341 57.549664 83.65871 33.579075
000050 07 30 b6 42 47 cc 72 42 f4 38 51 42 b0 78 20 42
       91.0938 60.69949 52.30562 40.11786
000060 86 ec 26 42 20 9e d3 42 05 28 aa 42 e8 2f a8 42
       41.73098 105.80884 85.07816 84.09357
000070 45 1a 60 42 f9 3d 20 42 33 fb 1d 43 3a 2a 4c 42
       56.025654 40.06052 157.98125 51.041237

convs.2.bn2.weight f4 [16]
000000 84 17 c6 3f 68 32 49 40 9f 12 9d 3f 6f 18 e7 3f
       1.5475926 3.1437016 1.2271308 1.8054332
000010 8f 78 12 40 0a 25 18 40 f4 fb a5 3f 23 1d 10 40
       2.2886083 2.3772607 1.2967515 2.2517784
000020 9f 67 96 3f 7f 41 e4 3f d4 e5 a1 3f c4 b9 f7 3f
       1.1750373 1.7832488 1.2648263 1.9353566
000030 7e 3c b3 3f 9e 74 bb 3f 38 51 05 40 82 57 b7 3f
       1.4002836 1.4644964 2.0830822 1.432358

convs.2.bn2.bias f4 [16]
000000 63 06 31 3e ad 1d 0e 3e 74 85 86 bf 8a 67 fc bc
       0.17287593 0.13878508 -1.0509477 -0.03081109
000010 e7 4b 2c c0 fd ff 4c bf f6 65 5f bf 5a 2d c8 be
       -2.6921327 -0.8007811 -0.87264955 -0.390971
000020 61 0c 0d bf 81 45 62 3e 8b 6f 3f be 07 63 20 bf
       -0.55097014 0.22096826 -0.18694894 -0.62651104
000030 c2 7b 4f bf 5a b1 12 bf 36 76 2d be 72 d0 ed be
       -0.81048214 -0.57301867 -0.16939625 -0.46448094

convs.2.bn2.running_mean f4 [16]
000000 30 e9 fa 40 c6 3d 2b 40 cf dd cf 40 b9 3a a1 40
       7.8409653 2.6756454 6.4958262 5.0384183
000010 c2 b5 92 40 6d 7e ab 40 0a 25 e5 40 80 f3 b4 3f
       4.584687 5.359183 7.1607714 1.413681
000020 ba 3b b0 40 c4 66 cb 3f 58 e4 a8 40 ae 36 30 41
       5.507291 1.5890737 5.277874 11.01335
000030 45 00 23 3e b4 d7 cc 3f 68 3e ff 3f 15 37 d4 40
       0.15918072 1.6003327 1.994092 6.631724

convs.2.bn2.running_var f4 [16]
000000 cb 34 b3 40 92 7e b2 40 62 f9 cb 42 51 d4 3a 40
       5.6001945 5.5779505 101.987076 2.9192088
000010 b5 05 5e 41 48 a0 4a 41 70 27 ec 42 51 a9 7a 40
       13.876393 12.664131 118.07703 3.9165843
000020 29 cf 5b 42 a1 52 5b 40 3e 54 b4 41 39 1e 82 43
       54.952305 3.4269183 22.541134 260.2361
000030 bb 31 1f 3d 25 b8 0f 41 8b a9 ec 3f b5 4e 5f 42
       0.038865786 8.982457 1.848924 55.826862
