cgcnndefect/pretrain_formation_max/checkpoint.pth.tar (torch, 208623 bytes, 121 tensors)

embedding.weight f4 [16, 92]
00000000: fcb5 31bf d681 0bbe 05e4 813e 4eed 4bbf
00000010: 9f07 9ebf 35c4 39bf bd3f 903e c804 453f
00000020: 024c 9ebe 1dcc b43d d960 993f 16ef a23d
00000030: f698 43bf 92c2 583c d6fc debc 214d a73e
00000040: bf24 8a3e b13a 2d3d 3ba7 1840 370d 15be
00000050: 9f15 383e 66d2 a2be 1029 ad3e 3992 343e
00000060: 7608 80be 6914 03bf 1194 b1bf eee7 8dbf
00000070: 8fb3 7fbe 6515 35be c5ea 523e dad2 353f
00000080: cc45 2f3f 7489 b13f 2755 2cbe be49 fdbe
00000090: 9de1 24be a2b6 d4be e230 9f3f 8fa0 27bd
000000a0: 4b7a 873f 6d6a 1fbf 882a 59bf 609e 3ebf
000000b0: 6793 52bf daf9 5bbf 426b 01be 22cf febe
000000c0: 8775 8abe 6a19 13bf 002d b63a 5fa9 bf3e
000000d0: 4216 253e e8e8 b43e abba 053e 9cc8 55bf
000000e0: 9eb1 f43d e78b 603f 3de9 c6bf c56a d5be
000000f0: d3ee 20bf 34f3 39bd 4dd0 40be e92a 4b3f
00000100: 30c0 ea3e 2208 d2be 8a70 823b 20b7 3abf
00000110: c9b7 9d3e fb04 cd3d c568 893f 0f7f 1cbd
00000120: 0e71 38be 6a0f d3be 16c4 13be 9e27 fe3e
00000130: 2df9 a93c 642c e3bd a49f 9cbd 4c84 063f
00000140: 60bb 23bf 0ccc 19bf ccde 313f 8e02 7cbf
00000150: 036b 3a3c 8e96 a1be 6330 ae3e ac81 9bbe
00000160: d1b0 ae3c e049 d5be 3fcc 353d 203c 67bf
00000170: 5478 c23e 0aff 073d 9389 be3d 594d 6b3e
00000180: 5862 433f 351e b03f 5c6f fe3e 84cc a63c
00000190: 03c6 11bf 5db0 2abf 1ea1 7ebf d731 bebf
000001a0: 3e9f d8be e738 b83b b145 083e 3fc8 193e
000001b0: 4791 c4bc d7f3 33bf 0f16 8fbf 5982 06bc
000001c0: c3cf 3dbe 9b05 bf3e 9da7 c8bb 9ee1 0c3f
000001d0: 694c cdbe 9763 873f 7092 bfbd 25e5 183e
000001e0: 11f9 5d3e 783f 10be 4680 9b3d 536a 6e3e
000001f0: 0281 313f 6f9e 4ebe 5835 f4be 56a2 b8be
00000200: 2335 dabd 5d7f 4ebf f539 59bd aa37 a13e
00000210: fd50 123f 701c 5b3e ce9b e63e 4bd8 f7be
00000220: febc 67bf 8159 54be cefc 7a3c 3f96 0e3f
00000230: 22d3 a43e 9741 1f3f d4bb 5b3f 6780 b43d
00000240: 7406 20bf 3449 80bf ef7f 2abf 9222 a2bf
00000250: 0f78 c1bf 7f31 85be f245 53be c571 003f
00000260: ff32 123f 540b 393e 3ac9 76be 5ddf 673e
00000270: 930e adbe 0867 c8be 6c8f b4bc ca4a 593f
00000280: 52f8 073f 00b1 a7bc 9be2 7e3f 355c b8bd
00000290: 5c1a 2c3e 4ec3 c9bd 2a81 98be 79fe 253f
000002a0: ea2d c0bd d5c2 39bf 4c30 853e 7e80 b2be
000002b0: 7f28 ca3e be96 af3e c506 1cbf 0cee 1f3e
000002c0: 5f6f fa3e 3a72 683f 8cd1 533e a285 a0be
000002d0: 2b6c 31bf 5284 fbbd c41f 4f3d 5cb0 49bf
000002e0: 9d7b 553e 7573 eebe 27c8 ddbc f9e9 ff3e
000002f0: 7479 743f 1d73 6a3f bcee b93f 83ef 153f
00000300: c6f0 33bf dae0 78bf 03cd 0bc0 aa22 fcbf
00000310: 4178 93be ab9b fabd d496 3b3e 634c cabd
00000320: d3a8 90be 4422 d23b 6be8 d3bf a06c 7bbe
00000330: c214 433d a6f2 553f 3b27 24bf 6353 3abe
00000340: ed77 36be 1164 92bd 0c37 793f 3d04 773e
00000350: 97ec 533f 3a24 9d3e a569 013f 71dd acbf
00000360: ee82 55be 5848 ffbe fb55 b2bc 5eeb e4be
00000370: 0ccd 39be 1741 f7bd a9de 20bd 5416 2e3f
00000380: cb0a cbbe 12ea a6bd 9552 83bc 0663 993d
00000390: b86d a33e 9472 0cbf b95b 00bf 3918 8a3e
000003a0: de86 033e 30af 5f3f b298 c23e 0e4d c23c
000003b0: a2d2 ba3e bf38 75bf e6b0 82bf 7d5f 6abf
000003c0: 0062 f0bf 0587 a6bf 5cd2 703f 7557 0b3f
000003d0: c1ef 863e 9040 7fbe 16c4 273f 6c00 18bf
000003e0: a659 b4be baac c2be bbe8 60bd dd8e 173f
000003f0: 5eb4 b63e aea9 f9bc 6aec 84bf 60ef 1dbd
-0.6941831 -0.13623747 0.25369278 -0.79658973 -1.2346076 -0.72565013 0.28173628 0.7696042
-0.30917364 0.08827994 1.198268 0.07955758 -0.76405275 0.013229983 -0.027220171 0.32676032
0.2698116 0.0422923 2.385207 -0.14555822 0.17976998 -0.31801146 0.3382039 0.17633905
-0.25006455 -0.5120302 -1.3873311 -1.1086404 -0.2497084 -0.17683943 0.2059737 0.7102486
0.68465877 1.3870072 -0.16829358 -0.49470323 -0.1610169 -0.41545588 1.2436793 -0.040924605
1.0584196 -0.6227177 -0.8483052 -0.7446041 -0.8225617 -0.8592812 -0.12638572 -0.49767405
-0.2704279 -0.57460654 0.0013898909 0.37433907 0.16121772 0.35333943 0.1305949 -0.8350923
0.1194794 0.87713474 -1.5539929 -0.4168302 -0.62864417 -0.045397952 -0.1882946 0.7936235
0.45849752 -0.4102183 0.003980701 -0.72935677 0.3080428 0.100107156 1.0735098 -0.03820711
-0.18011877 -0.41222697 -0.1443027 0.496396 0.0207487 -0.11092451 -0.076476365 0.5254562
-0.63957787 -0.60076976 0.69480586 -0.984414 0.011378053 -0.31560177 0.3402129 -0.3037237
0.021324547 -0.41657925 0.044384237 -0.9032612 0.37982428 0.03320221 0.09303584 0.22978725
0.76321936 1.3759218 0.49694335 0.020361193 -0.56942767 -0.6667536 -0.99464595 -1.485896
-0.42308992 0.0056220177 0.13307835 0.15017794 -0.023995055 -0.70293945 -1.1178607 -0.008209788
-0.18536286 0.37308964 -0.0061234967 0.55031765 -0.4009736 1.0577267 -0.093541026 0.14931162
0.21677043 -0.14086711 0.075928256 0.23282747 0.69337475 -0.20177625 -0.47696948 -0.36061352
-0.10654666 -0.8066309 -0.053033788 0.3148778 0.5715483 0.21397567 0.45040745 -0.48407206
-0.90522754 -0.20737268 0.015319062 0.5569801 0.32192332 0.6220946 0.8583348 0.08813553
-0.62509847 -1.002234 -0.6660146 -1.26668 -1.5114764 -0.26014325 -0.20632151 0.501736
0.57109064 0.18070728 -0.241002 0.226438 -0.33800182 -0.39141107 -0.022041045 0.84879744
0.5311328 -0.020470142 0.9956452 -0.09001962 0.1680693 -0.098517045 -0.29786044 0.6484142
-0.093837574 -0.72562915 0.2601341 -0.34863657 0.3948402 0.34294695 -0.6094783 0.15618151
0.48913094 0.90799296 0.20685405 -0.31351954 -0.69305676 -0.122810975 0.050567403 -0.7878473
0.20847936 -0.46572462 -0.02707298 0.49983194 0.9549782 0.915819 1.4525981 0.5856859
-0.70289266 -0.97218096 -2.184388 -1.9698079 -0.28802684 -0.122367226 0.18319255 -0.09877851
-0.28253803 0.006412776 -1.6555303 -0.24553156 0.047627218 0.8357338 -0.6412236 -0.18195872
-0.17819186 -0.071479924 0.9734962 0.2412271 0.8278288 0.306917 0.50551826 -1.3505079
-0.20850727 -0.4985988 -0.021769514 -0.4471082 -0.18144625 -0.12072962 -0.039274845 0.6800282
-0.39656672 -0.08150114 -0.01603059 0.0748959 0.31919646 -0.5486233 -0.5013996 0.26971605
0.12844416 0.8737669 0.38007122 0.023718383 0.36488825 -0.9578971 -1.0210235 -0.91551954
-1.8779907 -1.3009955 0.9407098 0.54430324 0.26354793 -0.24926972 0.6553358 -0.59375644
-0.35224646 -0.38022405 -0.05490945 0.5920237 0.35684484 -0.030476417 -1.0384648 -0.038558364

embedding.bias f4 [16]
00000000: b1ee 5e3d 62ab 093f 38f7 a3bd b025 5ebd
00000010: b2e6 b9be ed4f ea3d e1c5 af3e 7381 623d
00000020: 436b 00bf 73d6 ad3d 7653 8f3e e8a6 303e
00000030: 5701 9bbe 91e9 bf3e 23d4 cc3e 2351 583e
0.054426853 0.53777134 -0.080061376 -0.05423516 -0.3630882 0.11441026 0.34330657 0.055299234
-0.5016367 0.084881686 0.27993363 0.1725117 -0.3027446 0.37482885 0.40005597 0.21124701

convs.0.fc_full.weight f4 [32, 56]
00000000: 341b 173f 1717 483e c79e 003e 75a3 30bf
00000010: f60d 1cbf 4dff aebf 92e1 303f a6fb 5a3f
00000020: c495 91bd 33c3 54bd d212 943f 80db 9ebe
00000030: 5b96 eab9 4258 91bf 3149 f8be e10c f3bd
00000040: e0cf 613e 94a0 5abf a2e8 82bf 94e0 043f
00000050: a236 343f 558d 663d 2174 adbd 7860 d5bb
00000060: 4b8a 01bf 6170 f63d c36b c13e e567 55bf
00000070: 7ff7 0b3f 7646 96bd 9d33 a73e 9e07 023f
00000080: 5a3c 483f 589e 9e3f ddcf 1040 fdce cf3e
00000090: 4457 4f3e b224 4a3f 9865 853f 658f 1140
000000a0: 8b49 d93e e95d 0d3d e537 453f 7243 923f
000000b0: a39c 1a40 e2c8 d43e c7f1 093d 06c1 8c3f
000000c0: 0e0c d23f 57c3 0340 2f19 0040 b60f 22c0
000000d0: 190d 2bc0 160c 37c0 2e26 03c0 9f88 70bf
000000e0: 5b21 01be 19e5 953d 9c42 52be 0eb6 16bf
000000f0: d5d7 9b3e 9fb4 b73e b651 4e3c 031f 0ebf
00000100: 7b73 d73e 21fd 11be d2a7 1ebf 0d36 003f
00000110: 19dc a3be 1ad0 04be 4ec3 dc3e 480c 84bd
00000120: f9a3 713d 80a3 5fbd ac08 d83e 8a5d 09bf
00000130: 0b5b 2fbf db82 37be 5e94 033e 5bcd dbbd
00000140: 226c ad3e 12d9 94be 070f be3e e49a 9e3e
00000150: e337 883e 8006 acbe 63ae 1dbf eac0 b63e
00000160: 1214 2c40 7450 ec3f 8325 d3bf 5cb9 83c0
00000170: ede4 6ac0 fcde 2c40 3f4b ed3f 607f cfbf
00000180: 0c33 84c0 fc90 6ac0 4118 2740 28f6 0140
00000190: 7c2f cebf 1ad4 86c0 0795 64c0 955c 5240
000001a0: df7c 1040 5de9 573f e54e 44bf c1a9 3b3f
000001b0: 51f7 1d40 7413 7a40 8b1d 3140 59dc a73f
000001c0: acb4 65be 4015 1d3d b2b5 423f caa9 5fbe
000001d0: 84f4 ad3e 54da 6ebd ea11 e3be 9d8c 883f
000001e0: 93dd 87bf f38c 993f e48d b63e aa76 b2be
000001f0: 0939 1cbf 68d9 d4be 4ce0 8fbf 3102 2c3f
00000200: a8f0 81bf 51c1 52bf affc 383e 6ce8 28bf
00000210: ed29 42be 0659 633f 5cb2 693e d6a3 fdbe
00000220: 2d77 36be bead 73be e2b9 b2be 5fe2 913f
00000230: 043a 4bbe 12c8 373f cc06 a2bf 8250 d0be
00000240: 3def 7440 6998 8c40 e10c c240 ce21 0e3f
00000250: c115 a8bf 744f 7440 4bf2 9040 71e5 c840
00000260: 6701 3e3f d984 ccbf 3fd8 6440 4e4d 8a40
00000270: 28a1 ce40 448a 233f bad5 cfbf c8d6 a2bf
00000280: a67a 50bf 8279 b43e 33c0 1b40 1bfd 09c0
00000290: 35fd 23c0 312a c0bf 029d 08bf d325 c03c
000002a0: d95f 413e 93e1 82bf 3bba 68bf f3eb b53c
000002b0: 0b04 ed3e 8f33 b3be b642 d0be d703 3b3f
000002c0: ddca 6cbd a1e1 433d 6f4b 29bf 301f ac3e
000002d0: a3d2 31be afdf d8be 627e 4aba cf0b f8be
000002e0: 77ac babf fca1 7f3f 7874 fd3d 2ca6 82bd
000002f0: 5c42 703d d179 713f f6d4 a03f 0d8f 26bf
00000300: 547c b5bf 1cd5 abbd 47cd 49bf 0666 923e
00000310: a381 943f 0335 ae3f 26bf f1be 1a24 703e
00000320: 796f 6ebe 2dbd a3be ef02 abbf af74 71bf
00000330: 1f6c ecbe 0b43 08be d1ec 50be 3b41 9dbf
00000340: abfc 6abf d61a d4be 0e42 ffbd dbb5 81be
00000350: 77e4 a0bf a323 89bf 6968 f8be 0a6c 553f
00000360: 0781 6a3d 81f2 42bf 7a10 8cbf 2e59 cdc0
00000370: 85b2 a6c0 7072 26bf d339 823f 36c3 a33f
00000380: 4251 8bbd 9ce9 a5bf ebe6 403f 1ef6 d9bf
00000390: 37c8 2d3e 7394 31bf fc06 bd3e b31d 0bbe
000003a0: 263d 2e40 f9c3 3ebe a76f c93e f24f ddbe
000003b0: 84b0 e9be d159 113e f714 303f 00f5 23bf
000003c0: 04d5 e63d 07d0 a1be 1c90 b73f d1e1 3a3f
000003d0: cc28 663e 7c5f 08bd 76c3 2b3f f051 55bf
000003e0: eee5 dbbb 4139 5bbe 0a27 d23e 9a1e 503d
000003f0: 1a1c e73e 56a1 00bf 7a6c 3fbf a1c9 0a3d
0.59025884 0.19540058 0.12560569 -0.68999416 -0.609588 -1.3671662 0.69094193 0.85540235
-0.07108644 -0.05194397 1.1568244 -0.3102684 -0.00044743982 -1.1355059 -0.4849334 -0.11867691
0.22051954 -0.8540127 -1.0227244 0.5190518 0.70395863 0.05628713 -0.084694155 -0.006511744
-0.50601643 0.12033153 0.37777528 -0.83361655 0.54674524 -0.07337658 0.32656565 0.5079287
0.7821709 1.2392073 2.262687 0.40587607 0.20248133 0.7896224 1.0421629 2.274377
0.4243892 0.034513388 0.77038413 1.1426833 2.4158103 0.4155951 0.033677842 1.0996406
1.6409929 2.0587976 2.001537 -2.532209 -2.6726744 -2.8601127 -2.0492053 -0.9395847
-0.1261038 0.073190875 -0.20533222 -0.58871543 0.30438104 0.3587999 0.012592724 -0.5551607
0.42080292 -0.14256717 -0.61974823 0.50082475 -0.3200386 -0.1297001 0.43117756 -0.06447655
0.058994267 -0.054599285 0.42194116 -0.53658354 -0.68498296 -0.17921011 0.12849566 -0.10732528
0.3387156 -0.29071862 0.3712084 0.30977547 0.26605138 -0.3359871 -0.6159422 0.35694057
2.688725 1.8462052 -1.6495823 -4.116377 -3.6702225 2.70111 1.8538588 -1.6210747
-4.1312313 -3.6650991 2.6108553 2.0306492 -1.6108241 -4.2133913 -3.571596 3.2869008
2.2576215 0.8434046 -0.76682884 0.733059 2.46822 3.9074373 2.7674282 1.311412
-0.22432202 0.038350344 0.76058495 -0.21842113 0.33975613 -0.058313683 -0.44349605 1.0667912
-1.0614494 1.1996139 0.3565513 -0.34856158 -0.6102453 -0.41572118 -1.1240325 0.67190844
-1.0151567 -0.8232623 0.18065141 -0.6597965 -0.18961306 0.88807714 0.22821945 -0.4953906
-0.178189 -0.23796746 -0.34907442 1.1397208 -0.1984635 0.7178966 -1.2658324 -0.40686423
3.827102 4.3936048 6.064072 0.5552033 -1.3131639 3.8173494 4.529577 6.278008
0.7422089 -1.5978042 3.5756986 4.3219366 6.4571724 0.6388285 -1.6237099 -1.2721796
-0.81437147 0.35248953 2.433606 -2.1560733 -2.5623295 -1.5012876 -0.53364575 0.023455536
0.18884219 -1.022509 -0.90909165 0.022207236 0.46292147 -0.35000274 -0.40675896 0.73052734
-0.057810653 0.0478226 -0.6613073 0.33617544 -0.17365508 -0.42358157 -0.0007724521 -0.4844651
-1.4583882 0.99856544 0.1237573 -0.06379351 0.058657035 0.943265 1.256499 -0.6506203
-1.4178567 -0.08390257 -0.78828853 0.28593463 1.1602062 1.3609928 -0.47216147 0.23451272
-0.23284711 -0.31980267 -1.336027 -0.9431867 -0.4617624 -0.13306825 -0.20402838 -1.2285532
-0.9179179 -0.41426724 -0.12463771 -0.25334057 -1.2569722 -1.0714 -0.4851716 0.8336798
0.057251956 -0.7615128 -1.0942528 -6.417136 -5.209292 -0.6501837 1.0173897 1.2793949
-0.06802608 -1.2961917 0.7535235 -1.7028234 0.16970907 -0.6936714 0.3691939 -0.13585548
2.7224822 -0.18629445 0.39342996 -0.43225056 -0.45642483 0.14194418 0.6878199 -0.64045715
0.11271098 -0.31604025 1.4340854 0.7300082 0.224765 -0.033294186 0.67095125 -0.8332815
-0.0067107594 -0.2140856 0.4104541 0.050810434 0.45138627 -0.5024618 -0.747749 0.033883695

convs.0.fc_full.bias f4 [32]
00000000: 147b f33c 5e56 723e 052d 3cbe 22c4 3a3e
00000010: a6e8 123e 9db7 37be 8c75 543e d429 583e
00000020: 342e 843d 0c5c 20be f9ca 5c3d 194a 4c3e
00000030: 8129 4d3e 56d7 1b3d 6c90 5b3e f1f4 493d
00000040: ab63 acbe a5ed 8d3e 7053 d03d c5cf 2f3e
00000050: ccfd 26be db16 c23c f53d 9fbe 3c09 80bc
00000060: ae19 523a 7976 3bbe 25cc 2bbe a267 673d
00000070: 5955 a63d 8892 603e 01cb 523d 8fab 2bbe
0.029721774 0.23665759 -0.18376549 0.18238881 0.14346561 -0.17941137 0.20747966 0.21109706
0.06454125 -0.15660113 0.053904507 0.19950141 0.20035364 0.038047157 0.21441811 0.04930586
-0.3366979 0.2772037 0.101721644 0.17169102 -0.16307753 0.023692539 -0.31101957 -0.015629403
0.0008014691 -0.18306912 -0.16777094 0.056495316 0.081217475 0.21930897 0.05146313 -0.16764663

convs.0.bn1.weight f4 [32]
00000000: 4285 8240 33e3 8840 0df9 7740 0093 4940
00000010: 2654 0a40 fe26 9b40 9962 7c40 b65c b740
00000020: 7444 b03f ad19 e440 d5de 1540 64fd 6540
00000030: 99e0 8040 72d6 db40 cfcc 5040 b34f b840
00000040: 5b2f 0140 0b16 6e40 bdb6 b73f 0bf5 c03e
00000050: d8e4 2a40 a496 e03f afe6 643f a193 5540
00000060: bae8 0940 7fed e33f 23f5 5b3f 79ba 0540
00000070: 6fdb 663f 7c36 503f a386 fd3f 149f 7e3f
4.078767 4.2777343 3.8745759 3.1495972 2.161386 4.84851 3.943518 5.7300673
1.377089 7.1281343 2.3417256 3.5935907 4.0274167 6.8699274 3.2625005 5.759729
2.0185153 3.7200954 1.4352642 0.37686953 2.6702175 1.7545972 0.89414495 3.3371356
2.1548295 1.7806853 0.85920924 2.0895064 0.9017858 0.81333137 1.9806713 0.99461484

convs.0.bn1.bias f4 [32]
00000000: f041 5ebf 739c 13bf 0535 ee3e c28e b13f
00000010: e90d 013e fc20 fcbd c1a5 83be 33a4 27bf
00000020: d453 243e 173d ee3e a9ea 1d3f 982e 5bbf
00000030: 5f64 823f 20d7 7ebf 7736 4bbf f5aa 833e
00000040: e8d0 f4bf 0565 0dc0 3db1 8c3f d94b af3f
00000050: 5993 ed3d 7e0b a2be 7414 733f e330 90bf
00000060: d7bd 80bf 8554 363f faf1 53bd 9022 62c0
00000070: ba44 a9be 96bc 313f c023 18bf 3906 86bf
-0.8681936 -0.576606 0.46524826 1.3871691 0.12602963 -0.12310979 -0.25712398 -0.65484923
0.16047603 0.46530983 0.6168619 -0.8561797 1.0186881 -0.99547005 -0.7937998 0.25716367
-1.9126253 -2.2092907 1.0991589 1.3695022 0.1160037 -0.31649393 0.94953084 -1.1264919
-1.0057935 0.71222717 -0.05174444 -3.5333595 -0.33060247 0.69428384 -0.5942955 -1.0470649

convs.0.bn1.running_mean f4 [32]
00000000: 333b 9d41 cc8f 38c1 a838 1b42 e989 32c1
00000010: 9bb3 0fbf 298f 87c1 ac4d f6c0 6a7a 92c1
00000020: fd73 afbf b6db ddc0 b585 bec0 1ed1 b6c0
00000030: cbf9 13c1 cbce 82bf bee6 463f 28a8 5241
00000040: 4224 1540 b72c fec1 6128 a7c1 d8aa 3b40
00000050: a839 7a41 8dc1 9cbf 0253 0cc1 727f 2ac1
00000060: ffe2 06c1 a58c 21c2 04f6 04c1 67c2 cbc1
00000070: 84c4 8dbf c000 36c1 7d32 2bc1 b082 03c1
19.653906 -11.535107 38.80533 -11.158669 -0.5613343 -16.944902 -7.6969814 -18.309772
-1.3707272 -6.93307 -5.9538217 -5.713027 -9.248485 -1.0219358 0.77695835 13.166054
2.330338 -31.771833 -20.894716 2.9323025 15.639076 -1.2246567 -8.770266 -10.656115
-8.430419 -40.38735 -8.310062 -25.469923 -1.1075597 -11.375183 -10.699826 -8.219406

convs.0.bn1.running_var f4 [32]
00000000: 73ac 8542 1898 a541 2fe6 2a42 2e29 b742
00000010: fe11 5842 6533 8842 2922 7d42 7e42 d941
00000020: 0084 7a42 8328 7e42 d7ae 5242 0a53 9c42
00000030: 371f 8e42 b5f1 6b42 ae5c f841 3dda 2742
00000040: 0a8e ec41 8b71 af41 79da e841 b901 3042
00000050: 54ae 9142 a1b5 8142 8a7f 3e42 c7b1 1842
00000060: 0042 5a42 d1d2 8e42 f326 6a42 535f 9441
00000070: 56b5 2542 1054 9f42 10c7 9d42 afe6 b442
66.836815 20.699265 42.72479 91.58043 54.01757 68.10038 63.28336 27.157467
62.628906 63.539562 52.670742 78.162186 71.06097 58.986042 31.045254 41.963123
29.569355 21.93044 29.106676 44.001682 72.840485 64.854744 47.62455 38.17361
54.564453 71.41175 58.538036 18.546545 41.427086 79.664185 78.888794 90.450554

convs.0.bn2.weight f4 [16]
00000000: 0aa1 633f 1043 9d3f 9188 5e3f 12e3 d13f
00000010: fdaa 903f 9fac 903f 15f1 883f a059 a33f
00000020: a12a 8b3f 61c2 b23f 3c2f 4a3f 9fcb cf3f
00000030: 5cde 693f 0512 b83f 7d02 9a3f af0f b13f
0.889176 1.2286091 0.86927134 1.6397421 1.1302181 1.130268 1.0698572 1.2761726
1.0872384 1.396557 0.78978324 1.6234015 0.9135492 1.4380499 1.2032009 1.3832911

convs.0.bn2.bias f4 [16]
00000000: c453 4bbd 6a68 e23e acdf d5bc b13e 0d3d
00000010: 3ac9 89be cb8e 283e 77e4 823e b626 a63c
00000020: 112c 1abf 2e66 f93b ac8d 8e3e eed0 723e
00000030: ca20 cfbe dd16 953e 84b8 b53e 3651 893e
-0.049640432 0.44220287 -0.026107632 0.034483615 -0.26911336 0.16460721 0.2556493 0.02028213
-0.6022349 0.0076110577 0.27842462 0.23712513 -0.40454704 0.29119006 0.35492337 0.26819772

convs.0.bn2.running_mean f4 [16]
00000000: 3ad1 0b40 40c3 aa40 c772 1541 a0f2 4a41
00000010: e864 2d41 da45 be40 3832 1141 dd94 ca40
00000020: 7911 ac40 9d72 5441 80e2 b740 9384 343f
00000030: a71e b040 e515 0941 1683 b740 8934 1740
2.1846452 5.336334 9.340522 12.684235 10.837135 5.946027 9.07476 6.330672
5.377133 13.277982 5.746399 0.7051479 5.5037417 8.567845 5.7347517 2.3625815

convs.0.bn2.running_var f4 [16]
00000000: 0b09 8640 7b7f 0142 6238 1f42 2a6a 9d41
00000010: 2ef1 f042 0b1b 4642 0fd8 2742 ed81 7a42
00000020: 63fa 8d41 9ae3 f942 1d42 0141 6d0c 693f
00000030: 88ac 4441 f7e8 7942 83e5 ca41 ebfd 8740
4.188604 32.374493 39.80506 19.676838 120.471054 49.52641 41.960995 62.62688
17.74726 124.944534 8.078641 0.91034585 12.292122 62.477505 25.362066 4.249746

convs.1.fc_full.weight f4 [32, 56]
00000000: 0113 81be e024 523f 9b31 16be 9d13 b03e
00000010: e183 233f 3e5e 223f 9e58 2e3f d97c 53bf
00000020: e23a ab3f 8ec7 8f3e 6d62 b63f 7302 49bc
00000030: dd65 843e 6578 b73e 323e 31be 86f1 243f
00000040: a239 6b3e 74ba b33e 15aa 243f 208c f13d
00000050: 43eb c83d de39 273f d77e 03bf ed34 a2bf
00000060: d45f 24bf bdf1 ebbe dced b6bd 5b3c 7cbf
00000070: a92e 3a3f 4354 f1bd 7e9e f03e 0d14 a2bf
00000080: 84c4 c7be 1ffb 0d3f a2e7 aa40 ad4d 3240
00000090: 6781 de3f beba 93be befa 043f a274 ae40
000000a0: e4c1 2840 d7fe eb3f 6f3a 9abe e6e7 183f
000000b0: fedb ab40 fe44 2e40 3eee dc3f 9d44 92bf
000000c0: faba 02bf 4af2 5a3e 4e0c 923f c8d7 06c0
000000d0: 580f 2bbf 8e48 9a3f 44b0 03bf 9822 3dc0
000000e0: cf5a b23e fa7b a1be 54c4 873f 6cbd 7dbf
000000f0: 2701 a7bf 7ba0 a23f 0f69 e7bd cadc bebf
00000100: aaa1 56be 2e54 07be f81e 59be 3762 883e
00000110: c850 4ebe a0e5 353f 1d68 bbbd bac4 ebbf
00000120: a841 fb3e 3d3d c43d d75f f0bd 59fb f63e
00000130: df43 a53f 6c4e 793d 2255 17be d969 d0be
00000140: 0482 b43f 9a39 3f3f b315 383f f521 e13f
00000150: af8a b13f 1883 813f 6336 d63e 292d 51be
00000160: a52e 88c0 4cbe 98c0 e29f a1c0 817b 933f
00000170: d2e5 3140 e619 83c0 3c3f 92c0 9812 98c0
00000180: c6f5 9f3f 2a23 3340 61a8 7cc0 5ab2 8cc0
00000190: e7b6 99c0 5bf3 b13f c807 2c40 b476 f1bf
000001a0: 2772 87bf 0a98 26bf 5035 d7be e902 433f
000001b0: 3bcf 823f e87b c73e fc9f 43bf 9d66 24c0
000001c0: fe13 123f 6aa8 263f 50dc 19bf f2c5 183f
000001d0: 2fde e73d 56f1 9b3f 02c7 b63e b2af fd3f
000001e0: 6d76 e1be 05f3 2fbe 2dfd 88be df4a 413d
000001f0: 2a6f 313f a9dd 9a3d b2c0 5fbf 6ce5 8cbe
00000200: 9893 0e3f b159 2bbf 9076 b63a 503a babe
00000210: 7b4f dc3e f0ec b1be 14fc 923e 9707 083f
00000220: 6ed5 29bf 51a1 df3e 9579 3c3e b945 353f
00000230: 255a 4d3f 56d4 fa3e 999b 883f f367 06bf
00000240: 7f5e d63f 2f6f 8f3f 3515 c5bf 8ede 3cc0
00000250: 49f0 34c0 1d67 e53f 5fd6 8f3f 8905 d0bf
00000260: 299d 3cc0 d038 30c0 0e2e dc3f 22fd 883f
00000270: 5b17 c4bf c532 33c0 5836 2fc0 46ff b33f
00000280: d6de 92bd 8acd a8bf 2406 febf 3818 e93e
00000290: be43 ccbe 2750 08c0 9844 30bf 21c0 9d3f
000002a0: 632a e13e aeb4 453f 5be2 cd3e 1457 063e
000002b0: dcf3 3fbf fd0d ffbe 2f8a 84bf 1651 f9bd
000002c0: 6c32 a43d 5311 cbbe 8eec 093f d273 b8bf
000002d0: 8a3e 42bf 2a8e 52bf fc3f 393f b1f4 82bf
000002e0: 656e eebe 8c23 693e 4d70 093f 8e37 903e
000002f0: 1fa4 4bbf 10bb 2e3f 921b 273e 6e26 eabf
00000300: 3122 ee3f 1cad fa3d 4467 95be 5aba 6bbf
00000310: e1e2 15bf 527a dabe a4b7 cd3e 9147 553e
00000320: 8236 e33e 09c2 1b3f 0d8b d03f 591e 053f
00000330: 49c8 efbb a024 0c3f 0fd0 5b3f 031d ea3f
00000340: e2ba 203f 3626 c93d 9e64 eb3e 1a40 493f
00000350: b0ef f33f e821 073f 7a3b cdbc baf2 54bf
00000360: 5778 0dbf 5317 a8bd 3753 693f b86b d4c0
00000370: 9041 bdc0 e5c4 d3bd d9ff e63f d21b af3f
00000380: 4d0d 73be 4a2b 003e 42b9 3c3e 8efc 0f3d
00000390: 9f8d d4be 97e8 95bf 5eca b5be d800 843e
000003a0: 6594 2cbe 395b e83d 2542 19be 0878 c6bf
000003b0: 2c26 2abf cb9b eb3f 6fc0 ff3e f731 30bf
000003c0: 7117 233f cf6e a0bf 5e17 82bf acd6 efbf
000003d0: 62e3 cb3e 0395 bfbf 96b5 2a3f f7ea f9be
000003e0: 815d 9ebf 2168 133f fa97 4b3f 8f9b 173f
000003f0: 2d84 9bbe ae09 ec3e 7705 153f 6496 2bbe
-0.2520981 0.82087517 -0.1466736 0.34389964 0.63873106 0.6342505 0.6810397 -0.8261238
1.3377345 0.28081936 1.4248787 -0.01226865 0.25858966 0.3583404 -0.17308882 0.64431036
0.22971204 0.3510319 0.64322025 0.11794305 0.098104976 0.65322673 -0.5136542 -1.2672402
-0.6420872 -0.4608287 -0.08932087 -0.98529595 0.7272745 -0.1178365 0.4699592 -1.2662369
-0.39017117 0.55461305 5.3407755 2.785991 1.738324 -0.2885341 0.519451 5.4517374
2.6368341 1.8437146 -0.30122706 0.5972885 5.3706045 2.722961 1.7260206 -1.1427189
-0.51066554 0.21381488 1.1410005 -2.1069202 -0.6682029 1.2053392 -0.51440835 -2.9552364
0.34834906 -0.315399 1.060679 -0.9911716 -1.3047227 1.2705225 -0.11299335 -1.491113
-0.20960107 -0.13215706 -0.2120322 0.26637432 -0.20148003 0.71053505 -0.091507174 -1.8419411
0.4907353 0.09581993 -0.1173703 0.48238638 1.2911338 0.060865805 -0.1477857 -0.40705755
1.4102178 0.7469727 0.7190811 1.7588488 1.3870448 1.0118132 0.4183837 -0.20427383
-4.255694 -4.7732296 -5.050767 1.1522065 2.779652 -4.0969114 -4.570219 -4.7522697
1.2496879 2.7990212 -3.947777 -4.3967714 -4.803577 1.3902391 2.687975 -1.886435
-1.0581712 -0.65075743 -0.42032862 0.76176316 1.0219492 0.3896172 -0.7641599 -2.568763
0.57061756 0.6510073 -0.60101795 0.5967704 0.11321675 1.2183025 0.35698706 1.9819243
-0.44035664 -0.17182548 -0.26755658 0.047190543 0.6931025 0.075618096 -0.87403405 -0.27518785
0.5569396 -0.66933733 0.0013920832 -0.36372614 0.4302939 -0.3475108 0.28707945 0.5313658
-0.6634129 0.43677762 0.18405755 0.70809513 0.80215675 0.48990124 1.0672485 -0.52502364
1.6747588 1.1205806 -1.5397097 -2.9510837 -2.8271658 1.7922093 1.1237296 -1.6251689
-2.9470923 -2.7534676 1.7201555 1.070225 -1.5319628 -2.7999737 -2.7376919 1.4062278
-0.07171409 -1.3187726 -1.9845624 0.4552629 -0.39895433 -2.129892 -0.68854666 1.2324258
0.4397765 0.7722882 0.40211758 0.13119155 -0.74981475 -0.4981536 -1.035467 -0.12173669
0.0801743 -0.39661655 0.5387658 -1.4410346 -0.7587668 -0.82248175 0.7236326 -1.0230924
-0.465686 0.22767466 0.5368698 0.28167385 -0.79547304 0.68254185 0.16319111 -1.8292978
1.8604184 0.12240049 -0.29180348 -0.92081225 -0.58549315 -0.42671448 0.4017917 0.20828082
0.44377524 0.6084295 1.6292435 0.5199943 -0.007317577 0.54743385 0.8586435 1.8290104
0.6278516 0.09821741 0.45975202 0.78613436 1.9057522 0.5278611 -0.025052775 -0.8318287
-0.5526175 -0.08207574 0.911426 -6.6381493 -5.914253 -0.10340289 1.8046829 1.3680365
-0.23735543 0.12516513 0.18430045 0.035152964 -0.41514298 -1.1711606 -0.35505956 0.25781894
-0.16853483 0.11345524 -0.14966638 -1.5505381 -0.66464496 1.8406919 0.49951503 -0.6882624
0.63707644 -1.2533816 -1.0163381 -1.8737388 0.39821917 -1.496735 0.6668333 -0.48812076
-1.2372285 0.57580763 0.7952877 0.5922174 -0.3037428 0.46101135 0.58211464 -0.16756588

convs.1.fc_full.bias f4 [32]
00000000: b18d 16be 628f 79bd c5c7 9c3d 6be3 b3bd
00000010: 20b0 123a b120 623d 8e6d 283d d07b f23c
00000020: d6be c5bc 92f2 4ebd e228 a1bd c1b1 5abd
00000030: f230 d83d a953 cfbd 2c94 2ebd cc06 853d
00000040: 05d8 033f a635 84be 5796 ad3e 6e47 84bd
00000050: c6e7 203e ce9c 3bbe c6d7 a9bd eb4e a13e
00000060: 84c2 5c3e bdf5 e8bb e0ee dcbd 84dc 18be
00000070: 22b8 183f 1d1f 11bf 09fa 083f 16d6 41bd
-0.14702488 -0.060927756 0.076552905 -0.08783611 0.00055957027 0.05520696 0.041120104 0.029600054
-0.02413885 -0.0505243 -0.07869126 -0.053392176 0.105562106 -0.10123379 -0.042621776 0.06495437
0.51501495 -0.2582218 0.33903763 -0.06458937 0.15713415 -0.18321535 -0.08293109 0.31505522
0.21558577 -0.0071093724 -0.10787749 -0.1492787 0.59655964 -0.566881 0.53506523 -0.04732331

convs.1.bn1.weight f4 [32]
00000000: 8abf 8840 91bc 9d40 cec1 a540 9cdb 8040
00000010: 0a23 9440 6764 4840 5811 8640 e041 a340
00000020: a7c3 3640 b9c6 9640 5523 5140 d3d4 3240
00000030: ece6 5540 3c01 8f40 a98f 6a40 4ce9 8940
00000040: acc6 b03f 54fe 953f 7da6 ce3f 78f8 9c3f
00000050: eae3 0240 f610 833f f490 6d3f 78d9 0240
00000060: 86a2 7c40 e14e 6b3f ce51 533f 036f 0b40
00000070: 65fd ec3f 0d9b 0d40 ab57 923f 7df5 f73f
4.273381 4.9292684 5.179908 4.026808 4.629277 3.131128 4.189617 5.1017914
2.8556917 4.711758 3.2677815 2.7942398 3.3422194 4.4689007 3.6650183 4.3097286
1.381063 1.171824 1.6144558 1.2263327 2.0451608 1.0239551 0.92799306 2.0445232
3.9474196 0.91917235 0.825467 2.1786506 1.851483 2.2125885 1.1433004 1.9371792

convs.1.bn1.bias f4 [32]
00000000: 870d e73c bf70 223f 2253 28bf fe9e 70be
00000010: 327b 13bf c518 82be 1c77 113f df51 733e
00000020: 93ff 86bf 61ce a43e 363d 373f b18d f63e
00000030: 2255 e8be 33f3 3b3f 46a0 913e 1c46 85bf
00000040: 4bdf 64be 6037 d83e 2df4 03bf 376d 0abf
00000050: d28c 85bf 77c5 803f cc6b 483e af59 4a3e
00000060: 4f9f d7bf b68d 9c3d 99c3 24bf f9ea ed3d
00000070: 8f97 8ebf a8a8 cbbf 8f1d 6abe 0151 2bbf
0.028204693 0.63453287 -0.6575185 -0.2349815 -0.57609856 -0.25409523 0.5682237 0.237617
-1.0546745 0.32188705 0.71577775 0.48154977 -0.4537745 0.7341797 0.2844259 -1.0412021
-0.22350805 0.42229748 -0.5154446 -0.540729 -1.04336 1.0060261 0.19572371 0.19760774
-1.6845492 0.07644217 -0.6436096 0.11617083 -1.1140002 -1.5910845 -0.22862838 -0.6692048

convs.1.bn1.running_mean f4 [32]
00000000: 34ce 0942 5fa7 b5c1 f42b d2c0 bc13 9340
00000010: 73f3 8741 e84a 0342 349e d1c1 3c73 c4c1
00000020: 5387 7541 9a52 873e 5923 0141 4200 b7c1
00000030: d7af 3141 e097 6741 da52 b3c1 63cf e141
00000040: 2a7c 7c40 13f9 94c1 7f42 0dc1 44e8 8cc0
00000050: a358 2ec1 e717 9941 4469 1fc0 a835 1bc1
00000060: 3189 0c42 d65a 2441 80bc a9c1 25e7 d1c1
00000070: 3525 fec0 e540 96c1 c9db 39c1 fbdc 00c1
34.45137 -22.706724 -6.5678654 4.596159 16.993872 32.82315 -26.202248 -24.556267
15.345538 0.26430207 8.07113 -22.875126 11.10543 14.474579 -22.415455 28.226263
3.9450784 -18.621618 -8.828734 -4.4033527 -10.89664 19.136671 -2.4908 -9.7006
35.133976 10.272177 -21.217041 -26.237864 -7.942042 -18.781687 -11.6161585 -8.05395

convs.1.bn1.running_var f4 [32]
00000000: b663 9d41 a836 cf41 14ef 6041 fa23 bf41
00000010: ee4e 3942 99fe e341 d8cc fa41 34fe fc41
00000020: abfd 1f42 b275 b841 92f5 fa41 5887 9241
00000030: b1f7 2b42 d2ff aa41 be97 cd41 e965 c941
00000040: 0ce2 4a41 76bf f941 3e11 6441 b6cf f441
00000050: cd75 2442 0fdd 0942 b68a 8c41 db01 0f42
00000060: 210a d441 2aff da41 648b 9041 598e 5141
00000070: d292 f441 f03a 2442 50e6 0642 3cec bd41
19.673687 25.901688 14.058369 23.892567 46.32708 28.499315 31.350021 31.624123
39.997723 23.057468 31.369907 18.316086 42.991886 21.374912 25.699093 25.17476
12.680187 31.218487 14.2542095 30.601421 41.11504 34.465878 17.56773 35.751812
26.504946 27.374592 18.068062 13.097253 30.57169 41.057556 33.724915 23.740349

convs.1.bn2.weight f4 [16]
00000000: 56a7 5c3f 6ff2 d23f 5858 793f b36b 7d3f
00000010: 2ec1 573f aa34 ba3f 9a2a 903f 171d c63f
00000020: 7500 533f 0940 873f ee33 4d3f f8cb 813f
00000030: 0e7b b13f 93fd c03f efea 933f 9ef9 9f3f
0.86192834 1.6480235 0.97400427 0.9899246 0.84279144 1.4547322 1.1263001 1.5477628
0.8242257 1.0566417 0.80157363 1.0140371 1.3865678 1.5077385 1.1556071 1.2498052

convs.1.bn2.bias f4 [16]
00000000: b3ca 2e3f 650d e3bd 5155 ffbd 1aab 593e
00000010: 52b6 b0bf ce47 4ebe 6257 3c3d 2511 e4bf
00000020: e711 7bbf cae3 0d3e 3112 b23e ce53 24be
00000030: acc7 98bf 9222 673e a03c 14bf f3b3 30be
0.68278044 -0.11086539 -0.12467445 0.21256676 -1.380564 -0.20144579 0.045981772 -1.7817732
-0.9807419 0.13856426 0.34779504 -0.16047594 -1.1935935 0.22571781 -0.57905006 -0.17256145

convs.1.bn2.running_mean f4 [16]
00000000: d703 a740 fe88 f540 3655 9040 2383 9140
00000010: cdb5 d03f 36bb 1d41 8e15 d540 fc60 ec40
00000020: 878c 0640 c809 a040 1a80 8240 c150 f140
00000030: c48a 7840 2af9 7340 3d41 6d40 8d24 7a40
5.2192187 7.6729727 4.5104017 4.547258 1.6305481 9.858206 6.658881 7.386839
2.102327 5.001194 4.0781374 7.5411077 3.8834696 3.8120828 3.7071068 3.908481

convs.1.bn2.running_var f4 [16]
00000000: e579 9e41 ad91 0142 740e b941 8f78 eb41
00000010: 52b1 8940 0ece 7142 799e 2942 9446 1c42
00000020: d891 0b41 ce3f 6941 721e d540 23ac 1e42
00000030: fc93 4c41 1ff8 1d41 3298 ea40 ac91 e541
19.809519 32.39226 23.132057 29.433867 4.3028955 60.451225 42.40476 39.068924
8.723106 14.578077 6.6599665 39.668102 12.786129 9.873076 7.3310785 28.696129

convs.2.fc_full.weight f4 [32, 56]
00000000: 665c 433f 0cb1 c83f 919c 51bf ef67 1dbe
00000010: edaf 28bf 5ae6 a53e 6066 3b3f e94f a3bf
00000020: 470d 833e a050 953f af31 87bd 8cd2 ddbe
00000030: 461a 26bf 370c 22bf 3a25 30bf efed 1f3f
00000040: 2ca7 a5be c40e 71bf 77a4 a53e c338 363f
00000050: 8c18 323e 0288 f13e 1afa 3cbe ebd9 c83e
00000060: 8a58 4540 b7d2 cb3f 94fd 4fbf 88b6 cdbd
00000070: bfe7 5dbe a0ee ab3e 55a8 46be 3c28 8f3f
00000080: ac25 873e 1664 293f db46 7740 87dd 1240
00000090: 602f ac3f 8787 653e d862 3c3f 5f38 7540
000000a0: 9ed6 1540 19ff 9e3f f802 47bd d1ed 3f3f
000000b0: 0a0d 7b40 8058 1a40 d391 b13f 4a1b a3bf
000000c0: 7387 a7bf 035c d2bf 6dd0 d6bf 3b79 8f3e
000000d0: df7b f73e 1b59 773f 5001 c03e 5ac5 d7be
000000e0: 58b0 993e 6ff7 143d c7da 183e 1c4c 433d
000000f0: a9b2 0abe 1cd8 31be 9962 f1be 81ae d93f
00000100: 1151 1ebf bfff 2bbe 8692 53be 3edd 02bf
00000110: 24c6 0cbf 7dab c13f 5568 fb3e dfb8 6cbf
00000120: 17ae 5b3f 1d6e bb3f cfa8 383e e006 85bd
00000130: 45d0 fb3d 69c7 c63f 8a1e 40bf 7b82 c23f
00000140: f22b 4f3f 32b0 a03f 0e5c 813e 6f0e 0d3d
00000150: 2663 90be 655c 4a3f b123 e53e 05bd 4dbf
00000160: 558a e6bd 44a8 b5be 4c52 a9bf e479 acbf
00000170: 190a 58bf 2f7e 553d 611e 38be a0ef acbf
00000180: 1e15 9dbf 1dc8 6abf b9cc 0f3e bac1 d7bc
00000190: c227 a5bf a408 98bf ef69 42bf 25a3 34be
000001a0: 42db 4dbc 12c8 2d3e e055 473f d3d1 86bf
000001b0: 9e4a b53e f0f3 5540 db2f 6540 0f1e 3740
000001c0: e1d1 8ebf 7785 0abf 3418 15bf 5736 c63e
000001d0: 77f2 2b3f 63de 20bd 620b 213f 4a14 0d3f
000001e0: bc18 af3e 1a10 7dbf d02d 9bbf 34a8 7abe
000001f0: 3e44 bdbe dce2 69be f84f 033f d8ac 553c
00000200: fa06 233f 2872 773f 532a 8f3f ecc4 abbe
00000210: 6c76 9cbc 872d 39bf 820f 4cbe 956e 6bbe
00000220: fd22 27bf 3bf8 0140 d0b9 963f 3dca 8e3f
00000230: 9e52 883d fd7d e9be 45cb 9b3f 0930 ae3d
00000240: 9a06 18bf 298a 60bf 1976 11c0 f261 57bf
00000250: 6c77 94be 9ea9 16bf 475e 71bf 7b68 10c0
00000260: 064a 3cbf 6158 9ebe 1ef4 e9be f0e2 84bf
00000270: 26f1 0fc0 7769 27bf 745b f5bd 8339 6c3e
00000280: eacf 51bf 0298 9ebf 8857 9dbf 3d28 483f
00000290: 3216 223f 8774 b73d bea7 32be 6037 dcbd
000002a0: c8e1 2e3e 6a30 11bf c351 f83d 5a67 15bf
000002b0: de78 7bbf a519 ec3e 1cfa 8bbe 166a 5e3f
000002c0: 5c5e 4e3d 7bf9 8b3f 3901 9bbe 9044 43be
000002d0: 64fb 343f 366e 9ebe 8f9b 18bf 7fde cebf
000002e0: 9b7e c3be 46cf 923e 2d88 803f 9eca 75bf
000002f0: bf60 023f 9970 093e 0523 07c0 d34d 9d3e
00000300: 29b6 733f 2351 b03f 0ccb 8abe e553 b6bd
00000310: c50d 313f 725d 123f 14a7 d23e 7465 42bf
00000320: 7165 84bd 0caa 803d 3159 293f f6bf 2f3f
00000330: e609 cb3e a645 15be e308 6b3c be83 383f
00000340: 6cd2 3c3f e30c e83e 960f 26be bd80 233d
00000350: 0abc 3f3f 6620 163f 231b df3e d212 73bd
00000360: 7ee0 78bc 5403 a33e e926 d33e 3c1f 7cc0
00000370: 548c 5dc0 0188 c7bf 2907 8fbf e530 78bf
00000380: 451a ff3e e869 8c3d 684a 2bbf cf5f 91be
00000390: 32ae a4bd b7cb cabe ed53 713e b379 03bf
000003a0: 0b8e 4b3f e1e4 21bc 37ed 02bf 9d0f 08bf
000003b0: 1f0a 863e 0804 34bf 1e73 5bbe fc13 303f
000003c0: 7d85 123d 39d8 c2be d41f 703e 7f2b ac3d
000003d0: e80b 5cbf c07e aabe 8323 a53f 703a 883e
000003e0: f232 663e 2fa2 dfbf 2479 053f 4f1c 0f40
000003f0: d36b 88be 7f0b 953f 9210 5cbf 399c 95be
0.76312864 1.567903 -0.81879526 -0.15371679 -0.6589344 0.32402307 0.73203087 -1.2758762
0.25596067 1.166523 -0.06601273 -0.43324697 -0.6488384 -0.6329989 -0.68806803 0.6247243
-0.32354105 -0.94163156 0.3235204 0.7118036 0.17392176 0.47174078 -0.18454781 0.39228758
3.083529 1.592368 -0.81246305 -0.10044581 -0.21670435 0.33580494 -0.19400151 1.1184154
0.2639593 0.66168344 3.8636997 2.294771 1.3451958 0.22414981 0.73588324 3.8315656
2.3412242 1.24216 -0.048586816 0.74972254 3.9226708 2.4116516 1.3872627 -1.2742703
-1.3088211 -1.643433 -1.6782357 0.2802218 0.48336694 0.9662034 0.37501 -0.42142755
0.30017352 0.036368784 0.14927207 0.047680005 -0.13544716 -0.17367595 -0.47145537 1.7006379
-0.6184245 -0.16796778 -0.20661363 -0.5111884 -0.5498984 1.5130459 0.49103037 -0.9246959
0.85812515 1.4642979 0.18033145 -0.06495452 0.12295584 1.5529605 -0.750466 1.519607
0.8092643 1.255377 0.25265545 0.034437593 -0.28200644 0.7904723 0.44753793 -0.80366546
-0.112568535 -0.3547994 -1.322824 -1.3474698 -0.8439041 0.05212229 -0.17980339 -1.3510628
-1.227207 -0.917116 0.14042939 -0.026337493 -1.2902758 -1.1877637 -0.7594289 -0.1764036
-0.012564482 0.16970852 0.7786541 -1.0532783 0.3540849 3.3430138 3.5810459 2.8612096
-1.11578 -0.541099 -0.58240056 0.38713333 0.67166847 -0.039274585 0.62907994 0.55109084
0.34198558 -0.98852694 -1.2123356 -0.24478227 -0.36966127 -0.22840446 0.512939 0.013041697
0.6368252 0.96658564 1.1184791 -0.33548677 -0.019099437 -0.72335094 -0.19927791 -0.22991402
-0.6528776 2.0307758 1.1775455 1.1155468 0.06656383 -0.45603934 1.2171408 0.08505256
-0.59385073 -0.87710816 -2.272833 -0.8413383 -0.28997362 -0.58852565 -0.9428448 -2.256377
-0.7355045 -0.30926803 -0.4569406 -1.0381756 -2.2490935 -0.653953 -0.11980334 0.23068814
-0.81957877 -1.2390139 -1.2292337 0.781864 0.6331512 0.08957773 -0.17446801 -0.107527494
0.17078316 -0.567145 0.1212497 -0.58360827 -0.98231304 0.46113315 -0.27339256 0.86880624
0.050382957 1.093551 -0.3027437 -0.19069123 0.7069609 -0.3094346 -0.59612364 -1.616165
-0.3818253 0.28673762 1.0041558 -0.96012294 0.5092887 0.13421859 -2.1115124 0.30723438
0.9519983 1.3774761 -0.27108037 -0.0890272 0.69161636 0.57173836 0.41143095 -0.75936055
-0.06464661 0.06282434 0.6615172 0.68652284 0.3965599 -0.1457735 0.0143453805 0.7207602
0.7375858 0.45322332 -0.16216883 0.039917696 0.748963 0.58643186 0.4357539 -0.05934412
-0.015190242 0.31838477 0.41240624 -3.9394064 -3.46169 -1.558838 -1.117406 -0.9694961
0.4982473 0.068561375 -0.6691041 -0.2839341 -0.080410376 -0.39608547 0.23567171 -0.51357573
0.79513615 -0.009881229 -0.5114321 -0.53148824 0.26179597 -0.7031865 -0.21430632 0.68780494
0.035771836 -0.3805559 0.23449641 0.08406734 -0.8595567 -0.33299828 1.2901462 0.26607084
0.22480372 -1.747137 0.5213797 2.2361028 -0.26644763 1.1644133 -0.85962784 -0.2922075

convs.2.fc_full.bias f4 [32]
00000000: bb0e aa3d 5874 07bd 12c1 25bd 5b5a 03bd
00000010: b800 263d c565 853d 4ab6 72bd 6d4c 4bbd
00000020: b3ef b9bd a26c 7f3d 449b 8fbd 22b3 873d
00000030: 5972 42bd 77c2 9bbe dff5 0dbb 3b2a 5c3c
00000040: 495f 81bd 5534 793d fe35 033d 83cb debd
00000050: c786 6abe a7ca cfbd 6613 123b f38d 82bc
00000060: eca0 2ebe 2af3 18bd 2daf 393d 1868 f13d
00000070: 9c1e 243d afd9 7cbc bddc d93c 94c7 24be
0.08303591 -0.03306994 -0.04046733 -0.03206859 0.04052803 0.065135516 -0.059255876 -0.049633432
-0.09078922 0.06235946 -0.070120364 0.06625964 -0.04747233 -0.30421802 -0.0021661443 0.013437803
-0.06317002 0.060840923 0.032033913 -0.108786605 -0.22902976 -0.10146075 0.0022289394 -0.015936827
-0.17053574 -0.037341274 0.045333076 0.117874324 0.040068254 -0.015432759 0.026594514 -0.16091758

convs.2.bn1.weight f4 [32]
00000000: d94c 2740 3e17 673f 542c ba40 ef4a 893f
00000010: 209f 9d40 f6b2 4c40 3fd5 9740 c528 6b40
00000020: 86c1 7a40 2fe5 4c40 f2f3 5040 472d 5940
00000030: ef9c b640 85db 7440 8688 a23f 6db0 0840
00000040: 2bac 4a40 e6e4 b23f e44d 263f 488f 513f
00000050: cf8b 1440 a517 ac3f 8809 c13f 44f4 1440
00000060: 4cd9 ee3f e5a1 983f f29c 803f 3cf1 1140
00000070: 0b6f 993f de37 d33f 5053 c03f 3998 bf3f
2.6140654 0.9026984 5.817911 1.0725993 4.9256744 3.198423 4.744781 3.6743634
3.9180617 3.2014883 3.2648892 3.3933885 5.706657 3.8258984 1.2697914 2.1357682
3.1667583 1.3976104 0.649626 0.81859255 2.3210332 1.3444716 1.5081034 2.3274088
1.8660064 1.1924406 1.0047896 2.2803488 1.1987013 1.6501424 1.5025425 1.496833

convs.2.bn1.bias f4 [32]
00000000: 81a1 0dc0 6a56 243e 026c b03e 164c 093e
00000010: 62d7 bbbf 88c8 933f d568 203f 03d5 4abe
00000020: 39a2 2cbf 02a8 31bf c571 a03e 92a9 a0bf
00000030: 3241 83bf 5bd1 22bf 0fdc 9cbf 470f 01bf
00000040: 4ea8 17bf 4949 10bf 099e fbbe 0a58 b7be
00000050: 87b0 28c0 c82b 453e 0af1 353f 53e1 6fbf
00000060: bed9 1bbc 424f 82bf 159f 35bf bfa4 a4bf
00000070: 94b7 86bf bba4 21bf 62cb 25c0 16d3 47bf
-2.2129824 0.1604859 0.34457403 0.1340793 -1.4675105 1.1545572 0.6265996 -0.1980782
-0.6743503 -0.69396985 0.313368 -1.2551749 -1.0254271 -0.636007 -1.2254657 -0.50413936
-0.5924119 -0.56361824 -0.4914401 -0.35809356 -2.6357744 0.19254982 0.7107092 -0.9370319
-0.009512363 -1.0180438 -0.70945865 -1.2862777 -1.0524774 -0.63141984 -2.5905385 -0.78056467

convs.2.bn1.running_mean f4 [32]
00000000: 0d11 df41 f2a6 8d3f 199e 30c1 712a 173f
00000010: 8ef2 f840 f75f 0b42 2c13 fcc0 2ec6 46c2
00000020: fae7 bf41 8ae0 01c2 1a00 2341 63d8 a841
00000030: 0cf0 8041 1eb4 dbc0 f6f1 d0c0 86f6 a6c1
00000040: c36d 6e42 9283 9fc1 826d a7c1 1657 fac0
00000050: b1a4 85c1 41dc d140 c13f c4c1 2588 65c2
00000060: ffc4 0e41 99b1 09c2 618a 47c0 f53b a8c0
00000070: d1f9 f940 1079 afc1 c17c f9c1 8382 9bc1
27.883326 1.1066573 -11.038598 0.59049135 7.7796087 34.843716 -7.8773403 -49.693535
23.98827 -32.469276 10.187525 21.105658 16.11721 -6.865737 -6.5295362 -20.870373
59.60719 -19.939243 -20.92847 -7.8231306 -16.705416 6.5581365 -24.53113 -57.382954
8.923095 -34.423435 -3.117821 -5.257319 7.811745 -21.934113 -31.185915 -19.438726

convs.2.bn1.running_var f4 [32]
00000000: 62e0 5042 45f6 5142 4593 2942 7055 3d42
00000010: f781 c941 952c 4842 9917 d841 47cb 3d42
00000020: 162d 1742 45d0 0a42 10e0 b941 8cf4 d241
00000030: 48e7 c742 a548 b141 6e74 a541 18c4 2842
00000040: ef39 0442 faad b542 bf4a bd41 9ad1 2b42
00000050: c372 0d42 3271 f041 b07c 0d42 f524 df41
00000060: 5283 9942 c41e be41 b276 3942 c25d 1242
00000070: a921 3a42 1e0c 2742 59f4 f041 07f5 2442
52.219124 52.490498 42.393818 47.333435 25.18846 50.043537 27.011522 47.448513
37.79403 34.70339 23.234406 26.369408 99.95172 22.160471 20.68185 42.191498
33.056576 90.8398 23.661497 42.95469 35.362072 30.055271 35.371765 27.893045
76.756485 23.765022 46.365913 36.59156 46.53287 41.761833 30.11931 41.239285

convs.2.bn2.weight f4 [16]
00000000: 06de c93f f449 973f 4adc 9c3f faa8 ad3f
00000010: 4816 e73f e431 aa3f 207d 613f ba66 813f
00000020: c361 e43f e0f0 a83f 04ed 8b3f 12d1 bd3f
00000030: c2b8 893f 8d66 ab3f 2256 743f 39d6 903f
1.5770881 1.1819444 1.2254727 1.3567193 1.8053675 1.3296475 0.8808155 1.0109475
1.7842335 1.3198509 1.0931706 1.4829428 1.0759509 1.3390671 0.9544393 1.1315376

convs.2.bn2.bias f4 [16]
00000000: 33bb a93e 9136 513d 2b30 73be 2cf8 c63e
00000010: fc85 9cbf 5637 5ebe 71b2 50be 85d6 acbf
00000020: 8f30 21bf 283b c6be 000e 583d 86a2 f4bc
00000030: cae5 84bf 6091 6abe 6561 82be 5547 58be
0.33150634 0.05107743 -0.23748843 0.38861215 -1.2228389 -0.21700796 -0.2038057 -1.3502966
-0.6296472 -0.38717008 0.052747726 -0.029862653 -1.0382626 -0.22907019 -0.2546493 -0.21120961

convs.2.bn2.running_mean f4 [16]
00000000: e64d da40 bb8c 5940 31a2 7a40 a6d8 8040
00000010: 9a7e 0a40 3a96 d840 9c5a 1341 9411 2f40
00000020: 3372 b540 3a81 0440 f611 5c40 0653 7740
00000030: 97b6 e73f 87ec 8b40 9d80 ee3e 5341 8140
6.822009 3.3992145 3.9161494 4.0264463 2.1639771 6.768338 9.209621 2.735448
5.6701903 2.0703874 3.4385962 3.8644423 1.8102597 4.372623 0.465825 4.039224

convs.2.bn2.running_var f4 [16]
00000000: 36cd 6443 edad b640 5a24 4c41 8f62 e140
00000010: 4889 0041 bd9e b041 cf5b 8542 8826 1041
00000020: 53e3 d941 5bd3 7840 e7e0 9440 2bee e041
00000030: c65e 4a40 5f6b 8441 7c66 2f3f ce9b cb41
228.8016 5.708731 12.758875 7.043281 8.033516 22.077509 66.67931 9.009407
27.235998 3.8879 4.652454 28.116293 3.1620345 16.552427 0.68515754 25.451077

convs.3.fc_full.weight f4 [32, 56]
00000000: af0f 33be 4690 95be 01f3 05bf 02f1 4cbf
00000010: df0b f0be 98b9 243f 5d59 e73d 5f38 a2bf
00000020: 5e3f 91bf a5ff 47bf 7b51 043e 8859 e7ba
00000030: 26ac 2e3d 26e8 1cbf 2205 b5be d86e 9dbd
00000040: 0f4e 1b3f 4f27 08bf c3bd 7dbf 25a2 1e3f
00000050: a63b 653e 454b 33bf 4f33 28bf b47f a1bf
00000060: db7a ff3d c993 143f 7ee0 5abf bbf1 a0be
00000070: 0d0a 6a3f a756 86bf ea8d a6be bb5c 8ebd
00000080: 94f3 25bf df8b cc3b 2579 4a40 db8f 3940
00000090: bd3e fc3f 8cb5 29bf 5f16 cbbc 2459 5b40
000000a0: fd73 2d40 4610 0340 b40e 73bf ab8f 69be
000000b0: 9de3 5940 80a3 3540 66a7 0940 93fc 2dc0
000000c0: 1ca8 32c0 40b9 25c0 bb4f efbf 23ef 65bf
000000d0: b00f 89bf c6ee ecbe f778 21be 4a97 86be
000000e0: 3d15 b2be 3702 48bf 5323 61be 6834 d93c
000000f0: 6aec cbbf ea3a 253c cd8c 703f 877d c63e
00000100: 1392 bb3e 2934 af3b ae39 a8be 76b3 80bf
00000110: 2172 c8be 370a 77be d82f 35bf 50d8 4dbf
00000120: 1306 7cbf 4efa 293f c02c c43f 14bc aa3e
00000130: f811 44bf 7707 aebf 3592 15bf 7669 9e3e
00000140: f678 ae3f 3e7d d73e a767 13be 473f 0e3f
00000150: 01e6 853d 1b71 ffbd 1d62 8abe 5408 ebbf
00000160: 5ea6 b5bf cc06 d1bf 1095 b0bf 883e 5f3f
00000170: 8012 a53f e4c4 bfbf 5446 c0bf f919 bfbf
00000180: e135 5d3f c9b1 8f3f a383 a5bf af55 b4bf
00000190: 87bc b3bf 816f 533f d863 8a3f b022 babf
000001a0: eba7 89bf dd43 ffbe b2d9 803e 54a3 b9bf
000001b0: 6954 923f ccb4 9340 eae8 3d40 d1bb 123f
000001c0: c897 0d3f 7f41 0940 b6dc 3a3e ad48 ba3e
000001d0: 8c3a 92be fab3 28bf 6bca ffbe 22b3 67bf
000001e0: 09e5 1e3f fd43 bc3f e1b3 c4be 09c9 e13e
000001f0: a0b1 60be a019 563e 7f67 803d 6e91 963e
00000200: 9405 55bd 478e 60bf c505 8f3f 3c7b d43f
00000210: bd73 8d3f cd12 e7be 9b15 b93b f695 f7be
00000220: b5c0 bdbd 868c 5fbf 6312 8a3e aa71 213f
00000230: a9ef 693c bc1e a73f 34c9 cebe 0f6c 023e
00000240: 40aa ba3e 98c4 9e3e d6d7 823e b8c0 12bf
00000250: 1270 19bf 22b2 d13e a929 cc3e 5999 283e
00000260: 41ab d5be b150 efbe f041 f13e 71e1 a43e
00000270: f174 9f3e bf62 15bf 4573 debe 0162 cabe
00000280: 7afa 84bf e8ea acbf 765b a0bf d6c4 dcbf
00000290: b56e e1bf 42cc 66bd aef4 5b3f 611f d23f
000002a0: b876 cf3c fbf4 5ebf 9f82 47bf 6c8f 2a3e
000002b0: 3ed3 a3bc ee31 a3be 4160 72bf e039 b93d
000002c0: 73d6 e03e bdea 6e3f de9f 58be 9cb1 8ebf
000002d0: ed7f f4bd 9c16 6d3f f179 72bf 0b34 05bf
000002e0: 85e0 783f 86d8 04be 8f05 4abe 8e6c d13e
000002f0: 4320 823f a30c 82be 077e 083f e079 f63e
00000300: 1ca5 8e3f 5065 6f3f a217 85bf 069d 67bf
00000310: 5373 b63f 24b4 1bbf 1f4a 073f 5bd3 afbe
00000320: 0b4f efbf afa7 04c0 f5dc 4dc0 c7cc 1bbe
00000330: b525 2b3f 5bc6 e5bf 8e28 fcbf 17d7 4dc0
00000340: 5f49 aabe b609 313f d9d8 cdbf 59b4 f9bf
00000350: d27a 42c0 a44d 68be 20f7 2b3f ce5a 24bf
00000360: 57d2 26bf 6282 b4be 3474 0cbe b5fd a7c0
00000370: 0bc5 adc0 1aaa ebbf d438 923e 80a9 0c40
00000380: 876b 613f acb9 00bf 0b24 a5be 1cf5 863f
00000390: 8544 c4be 7b1a dbbf d0b0 133f 3770 813f
000003a0: 28df e6be 3585 3a3f 6956 39b9 0e90 863f
000003b0: 62c9 94bf 6f49 ffbd dd0f 49be e6dc a8bf
000003c0: d49d 2b3f 84a2 8b3c 796d 1cbf e9fb 9cbe
000003d0: e4e3 eb3d 9ba4 db3f 2f5a 923e a738 84bf
000003e0: 48f1 24bf 3797 1a3f ff5b 0cbf 268b 173f
000003f0: f55e 7cbf aace 813e a678 f13f 8f1a 3c3f
-0.17486452 -0.29211634 -0.5232392 -0.8005525 -0.46884057 0.64345694 0.112963416 -1.2673453
-1.1347463 -0.7812446 0.12921707 -0.0017650584 0.042644642 -0.6129173 -0.3535548 -0.076871574
0.6066598 -0.5318498 -0.9911768 0.6196616 0.22386035 -0.7003673 -0.6570329 -1.2617097
0.12474605 0.58038 -0.854988 -0.31434426 0.91421586 -1.0495194 -0.32530147 -0.06951281
-0.64824796 0.00624226 3.163644 2.8994052 1.9706646 -0.66292644 -0.02479094 3.4273157
2.7102044 2.0478683 -0.9494431 -0.22808711 3.4045174 2.8381042 2.1508422 -2.718541
-2.7915106 -2.5894318 -1.8696207 -0.8981802 -1.0707912 -0.4627592 -0.157688 -0.262873
-0.3478183 -0.7812838 -0.21986131 0.026514247 -1.5931523 0.010084847 0.93964845 0.38767645
0.36634883 0.005346794 -0.32856506 -1.0054767 -0.39149573 -0.2412499 -0.7077613 -0.8040819
-0.9844677 0.6639756 1.5326157 0.33346617 -0.7658992 -1.3596028 -0.5842622 0.30939835
1.3630664 0.4208774 -0.14395009 0.55565304 0.065380104 -0.12472745 -0.2702798 -1.8361917
-1.4191396 -1.6330199 -1.379549 0.8720479 1.2896271 -1.4981961 -1.5021462 -1.4929801
0.8641034 1.1226131 -1.2930797 -1.4088649 -1.4041909 0.82592016 1.081172 -1.4541836
-1.075437 -0.49856463 0.25166088 -1.4502969 1.143201 4.61582 2.967341 0.57317835
0.55309725 2.1446226 0.18248257 0.36383572 -0.28560293 -0.6589962 -0.4995912 -0.9050771
0.6206823 1.4708248 -0.38418487 0.4409869 -0.21942759 0.20908213 0.0626974 0.2940783
-0.052007273 -0.877171 1.1173636 1.6600108 1.1050946 -0.4513153 0.0056483275 -0.483566
-0.092652716 -0.87323797 0.26967153 0.6306406 0.014278331 1.3056254 -0.4038788 0.12736534
0.36458015 0.31009364 0.25555295 -0.57325315 -0.5993663 0.40956217 0.39875534 0.16464747
-0.4173222 -0.4674125 0.4712062 0.32203248 0.31143907 -0.583538 -0.4344732 -0.39527896
-1.0388939 -1.3509188 -1.2527912 -1.724757 -1.761191 -0.05634714 0.85920227 1.6415826
0.025325164 -0.8709256 -0.77933687 0.16656274 -0.019998189 -0.3187403 -0.9467812 0.09044242
0.43913612 0.9332693 -0.21154734 -1.1147952 -0.119384624 0.92612624 -0.9471732 -0.52032536
0.9721759 -0.12973222 -0.19728683 0.40903133 1.0166095 -0.25400266 0.533173 0.48139858
1.1144137 0.93513966 -1.0397837 -0.90473974 1.4253944 -0.6082175 0.52847475 -0.3434094
-1.8695997 -2.0727346 -3.2166111 -0.15214835 0.6685441 -1.7951158 -1.9699876 -3.216253
-0.33259103 0.6915544 -1.6081802 -1.9508163 -3.0387464 -0.22685868 0.6717396 -0.64201057
-0.65164703 -0.35255724 -0.13716203 -5.24972 -5.430303 -1.8411286 0.2855898 2.1978455
0.880547 -0.5028331 -0.3225406 1.0543551 -0.38333526 -1.7117456 0.5769167 1.011237
-0.4509213 0.7285951 -0.00017675165 1.0512712 -1.1623957 -0.12465178 -0.19634958 -1.3192413
0.670377 0.017045267 -0.6110454 -0.30660942 0.11518076 1.7159609 0.2858443 -1.0329789
-0.64430666 0.60386986 -0.54827875 0.591967 -0.9858239 0.25352985 1.8864944 0.73478025

convs.3.fc_full.bias f4 [32]
00000000: 9219 943d a450 3ebd 81ef 1abe e409 b03d
00000010: e55b b93d 7597 25be 579c 5dbd 625d 933d
00000020: d8f5 b13c 5ef6 0c3e f101 cd3d bc1c a1bd
00000030: e1a6 c53c 6a9a ca3d 4b96 c9bd edc2 903d
00000040: 2609 033e 31c3 21bc dc90 063e 5cd9 6cbd
00000050: e6f4 97ba 400d c5bd 49f6 37bd 9b7b e2bd
00000060: 5797 903d 69ec b2bd ab8c 563d 3388 26bd
00000070: 2e3a 5b3d 427d d7bd 022f 94bd ec66 90bd
0.0723144 -0.046463624 -0.15130426 0.085956365 0.090507306 -0.16171058 -0.054104175 0.07195546
0.021723673 0.13765857 0.10010136 -0.07866809 0.024127426 0.098927334 -0.09843119 0.07068429
0.12796459 -0.009873197 0.13141197 -0.057824478 -0.0011593371 -0.09621668 -0.04491261 -0.11058732
0.07060116 -0.08736498 0.052380245 -0.040657233 0.05352228 -0.10521938 -0.072355285 -0.07050881

convs.3.bn1.weight f4 [32]
00000000: cd31 59bd 140a 3b3f e7a2 7340 e45f 2940
00000010: a0c4 ba3f 2c89 4140 4ba4 3d40 b7d6 6940
00000020: de47 0d40 ec82 4b40 608e 4a40 ba76 9940
00000030: dcc2 8340 947c 0d40 1952 9d3f 83ce e53f
00000040: 4181 9a3e 8a7f 823e caac b43f e45a 7c3f
00000050: 6d4a 5d40 adbd cc3f dba7 8a3f 0d14 a540
00000060: 06f2 1e3f 9d93 763f a618 a43f a89e 663f
00000070: aa73 813f 4e64 8c3f cc04 c43f 979a 1b3f
-0.05302601 0.73062253 3.8068178 2.6464777 1.4591255 3.0239973 2.9631526 3.6537302
2.2075114 3.1798658 3.1649399 4.795743 4.1175365 2.2107286 1.2290679 1.7953647
0.30176738 0.2548793 1.4115231 0.9857619 3.4576676 1.5995384 1.0832475 5.1586976
0.6208805 0.9631899 1.2820022 0.9008584 1.0113423 1.096811 1.5313964 0.6078276

convs.3.bn1.bias f4 [32]
00000000: 2f29 1640 ed77 0940 0ca2 fbbf 154f 46bf
00000010: a93f 8cbf a324 8abf 5bb5 7fbf 2450 10bf
00000020: 400d 1ebf e081 833f 02ad c93d ba11 253f
00000030: ffe4 18bf 7fb6 0d3f 2d8f efbf 684e a93e
00000040: 6b8e 623f 75e4 ee3f 8ed0 153e 8bdb 733e
00000050: e8d7 2ebf b518 c63e 7ebb bdbf e52f 1b3e
00000060: 2855 d6be 5766 3abf ddca 4abd 95c0 093e
00000070: f927 5f3f 9c2b 37bf 1616 e3bf 5358 273f
2.3462636 2.1479447 -1.9658828 -0.7746442 -1.0956928 -1.0792431 -0.998861 -0.56372285
-0.6173897 1.027401 0.09847452 0.64480174 -0.5972442 0.5535659 -1.8715569 0.33067632
0.8849856 1.866347 0.14630339 0.23814218 -0.68298197 0.38690725 -1.4822843 0.15154989
-0.41861844 -0.7281241 -0.04950987 0.1345237 0.8717037 -0.7155092 -1.7741115 0.6536915

convs.3.bn1.running_mean f4 [32]
00000000: 6034 1140 81a2 9dc1 82f6 4441 3a94 c2c1
00000010: 7359 60c1 ad51 f740 409d 98c1 c99e a5bf
00000020: 9f78 3940 989d efc1 a2a0 8ac1 59d8 8bc1
00000030: 6e60 2141 481f 22c0 0059 61c2 29e2 d3c1
00000040: d6a9 f240 8a99 35c1 e4e3 a641 0e2c 86c1
00000050: 38c1 f3c1 2e36 a6c1 fe95 0740 d967 ae40
00000060: cf16 8fc1 c86e 4dc2 f767 19c1 be80 26c0
00000070: 3175 6cc0 c718 2bc1 3a64 e9c1 4ce1 14c2
2.2688217 -19.704348 12.310183 -24.322376 -14.021838 7.72872 -19.076782 -1.2939082
2.8979871 -29.95195 -17.328434 -17.480639 10.086042 -2.5331593 -56.336914 -26.48543
7.583232 -11.349985 20.861275 -16.771511 -30.469345 -20.776455 2.1185298 5.4501767
-17.886137 -51.358185 -9.587882 -2.6016078 -3.6946528 -10.693549 -29.173939 -37.220016

convs.3.bn1.running_var f4 [32]
00000000: 661b 3542 cf65 2242 9c77 ff41 d963 7c42
00000010: 691b 2542 406c e841 f706 3342 bd58 7642
00000020: a755 9042 dd49 7642 9800 2642 1fa8 d741
00000030: bc2c d942 d36f c842 9fe0 1143 3703 9642
00000040: b120 3e42 4360 3542 c1a9 6a42 7f25 a042
00000050: 2517 5442 a1ca 0742 e13e f341 d11e d941
00000060: 74ce 4742 0eab 2342 3cee 3942 c2eb 5442
00000070: 841c 3442 d280 7042 8711 8442 d857 c241
45.276756 40.599422 31.933403 63.097507 41.276768 29.052856 44.7568 61.58666
72.16729 61.572132 41.50058 26.95709 108.58737 100.21841 145.87743 75.00628
47.531925 45.344006 58.665775 80.073235 53.022602 33.94788 30.405703 27.140047
49.951614 40.917046 46.48265 53.230232 45.027847 60.1258 66.03423 24.292892

convs.3.bn2.weight f4 [16]
00000000: 27d6 ff3f 6739 bd3f c135 a03f 69c6 853f
00000010: f9b9 813f af55 2640 c31e 823f e1ad 903f
00000020: 7138 8e3f 3e6f fd3f 06b8 ae3f 4bb7 b73f
00000030: 488e c73f 9488 b53f f773 c93f 99d9 a63f
1.9987229 1.4783143 1.2516404 1.0451175 1.0134879 2.5989797 1.0165638 1.1303064
1.1110975 1.9799573 1.364991 1.4352812 1.5590296 1.4182305 1.5738515 1.3035156
