cgcnndefect/pretrain_formation_max/model_best.pth.tar (torch, 208623 bytes, 121 tensors)

embedding.weight f4 [16, 92]
000000 c3 4c 30 bf da 2d 13 be 0c 5b 7c 3e e9 13 4b bf
       -0.6886713 -0.1437296 0.24644107 -0.79327255
000010 63 cf 9c bf 3d 39 38 bf d6 30 8f 3e 51 dc 41 3f
       -1.2250789 -0.7196234 0.27966946 0.757268
000020 21 1d 9e be 86 2b d5 3d db 4c 9a 3f 4a 48 be 3d
       -0.308816 0.10408692 1.2054704 0.09291132
000030 72 45 47 bf 57 87 44 3c c9 a5 fe bc 9d 20 ab 3e
       -0.7784034 0.011995158 -0.031084912 0.3342332
000040 d4 ed 88 3e 2e 65 2d 3d 51 d2 18 40 e2 68 1e be
       0.26743948 0.04233282 2.3878367 -0.15469697
000050 ec 77 36 3e 64 be a3 be a0 df a7 3e 47 95 3a 3e
       0.17819184 -0.31981194 0.327878 0.18221007
000060 ad 11 75 be e8 a7 01 bf ab e3 b1 bf 49 f4 8d bf
       -0.23932524 -0.5064683 -1.3897604 -1.1090175
000070 ac d4 83 be 10 2c 40 be a5 e9 54 3e e3 62 37 3f
       -0.25748193 -0.18766809 0.20792253 0.71635264
000080 7a bb 2d 3f 9d 06 b2 3f a8 12 2c be 65 87 fe be
       0.6786419 1.3908268 -0.16803992 -0.49712673
000090 48 3d 2e be ed 68 d5 be 4e 1c 9f 3f 19 06 de bc
       -0.17015564 -0.41681615 1.2430513 -0.027102517
0000a0 90 55 85 3f df d5 1d bf fd 39 57 bf 5a 51 3d bf
       1.0416737 -0.61654466 -0.8407286 -0.7395226
0000b0 8e 0b 53 bf 2b 06 61 bf 46 17 09 be da 71 fe be
       -0.82439506 -0.87900037 -0.13387784 -0.49696237
0000c0 11 a1 8a be ff 57 13 bf 8d 05 1e 3c 52 4e be 3e
       -0.2707601 -0.57556146 0.009644878 0.3716913
0000d0 4a 7c 21 3e 4d 61 b5 3e 5d ea 15 3e 9a 60 53 bf
       0.15770069 0.35425797 0.14640184 -0.8256928
0000e0 66 05 08 3e 57 b4 5d 3f d7 38 c7 bf aa 90 d0 be
       0.1328331 0.866033 -1.5564221 -0.4073537
0000f0 09 86 21 bf b4 ac 44 bd b5 f7 40 be 9e 26 4c 3f
       -0.63095146 -0.048016265 -0.18844493 0.79746425
000100 e6 8d ea 3e c9 45 d3 be 8a 70 82 3b f5 dd 3f bf
       0.45811385 -0.4126418 0.003980701 -0.74948055
000110 d4 4e a0 3e fb 04 cd 3d c7 d6 88 3f 0f 7f 1c bd
       0.3131014 0.100107156 1.0690545 -0.03820711
000120 2d be 2e be 04 4a d3 be fa 93 0e be 24 1c f9 3e
       -0.17064734 -0.41267407 -0.13923636 0.48654282
000130 2d f9 a9 3c 25 17 e3 bd cc 2f b1 bd 05 40 06 3f
       0.0207487 -0.11088399 -0.08651695 0.52441436
000140 fb 60 22 bf d3 62 18 bf 41 73 32 3f c9 41 7e bf
       -0.6342923 -0.59525794 0.69707114 -0.9931913
000150 e3 9f 58 3c f7 6f a5 be 67 8d ad 3e 19 07 97 be
       0.013221714 -0.32311985 0.33896944 -0.29497603
000160 76 d0 a5 3c f1 b0 d1 be 1c de 6b 3d 2c 94 6a bf
       0.020241003 -0.40955308 0.057584867 -0.9163234
000170 09 d8 bf 3e 78 ab 01 3d 11 2f 9d 3d 1b 55 73 3e
       0.3746951 0.031657666 0.07674993 0.23762934
000180 62 40 44 3f 10 58 b0 3f 52 16 00 3f 36 46 8b 3c
       0.7666074 1.3776875 0.5003406 0.017001253
000190 05 99 0f bf ab 16 2a bf a9 82 80 bf a3 7a be bf
       -0.56092864 -0.6644084 -1.0039874 -1.4881176
0001a0 67 f3 d9 be e5 82 cb bb 2c 57 01 3e c2 00 2d 3e
       -0.42568514 -0.006210672 0.1263091 0.1689482
0001b0 b8 89 06 bd 70 52 36 bf 63 3d 8e bf 31 83 2c bc
       -0.032846183 -0.7121954 -1.1112484 -0.010529325
0001c0 e4 1b 45 be ab 8e b6 3e 09 1c 51 3b 58 e1 0f 3f
       -0.1924892 0.35655722 0.003190758 0.5620322
0001d0 f4 f0 cc be cd 88 88 3f 9d 38 a9 bd 7d 80 19 3e
       -0.40027583 1.0666748 -0.08262751 0.1499042
0001e0 3a 1b 54 3e 33 5f 13 be 4e 8e a9 3d cd 77 77 3e
       0.20713511 -0.14391784 0.082790956 0.24166794
0001f0 76 18 33 3f 63 82 5d be 49 28 f7 be c3 ce b9 be
       0.699592 -0.2163177 -0.48272923 -0.3629056
000200 3d f5 de bd 15 05 50 bf b2 70 6f bd 1b 22 9e 3e
       -0.10886619 -0.81257755 -0.058457084 0.30885395
000210 37 b3 0f 3f b5 0a 6b 3e 34 e3 e5 3e 06 b9 f7 be
       0.56132835 0.22953303 0.44899905 -0.4838335
000220 92 81 65 bf 79 d8 47 be 8b ae 61 3c ff 6b 0b 3f
       -0.89650834 -0.19516172 0.013774524 0.54461664
000230 17 8d 9f 3e 1e 9c 1d 3f 8f 9c 60 3f 83 73 a4 3d
       0.3116233 0.6156634 0.8773889 0.080298446
000240 3d 90 22 bf a8 5c 7e bf 3d e6 29 bf 36 60 a2 bf
       -0.6350134 -0.9936013 -0.6636694 -1.2685611
000250 db c0 c1 bf 95 8d 88 be 08 19 48 be 8c 41 ff 3e
       -1.513698 -0.2667052 -0.19540799 0.49854696
000260 dc 55 0e 3f 03 1f 31 3e 68 cd 65 be 95 f9 67 3e
       0.5559976 0.17296986 -0.22441638 0.22653802
000270 6b f2 b1 be 75 93 c9 be 6c 8f b4 bc 41 f7 58 3f
       -0.34755263 -0.39370313 -0.022041045 0.8475228
000280 2d 1c 0b 3f 00 b1 a7 bc b8 53 7c 3f 35 5c b8 bd
       0.5433987 -0.020470142 0.98565245 -0.09001962
000290 ff 53 3a 3e 37 17 d8 bd c2 33 94 be 27 6f 24 3f
       0.18196104 -0.10551303 -0.28945738 0.64232105
0002a0 ea 2d c0 bd 6e 21 3c bf ef 3a 7f 3e d1 17 b5 be
       -0.093837574 -0.7348851 0.24924825 -0.35369733
0002b0 79 e6 cc 3e 73 f6 ac 3e 40 b8 1b bf ff 75 20 3e
       0.40019587 0.33781776 -0.6082802 0.15670012
0002c0 15 c1 f4 3e e6 f8 69 3f 0c 1e 47 3e 1c 9f 9c be
       0.4780356 0.91395414 0.19445056 -0.3059014
0002d0 ff 42 31 bf 77 96 fb bd c8 83 56 3d e6 38 46 bf
       -0.6924285 -0.12284558 0.05237177 -0.7743057
0002e0 f4 1d 49 3e f9 ed f0 be da ff 66 bc 0f 8a fb 3e
       0.19640332 -0.4705656 -0.014099086 0.49128768
0002f0 11 b0 73 3f d5 d3 67 3f a2 8f ba 3f 7f 2a 11 3f
       0.9519053 0.90557605 1.4575083 0.5670547
000300 41 dc 30 bf 94 f8 79 bf fd 5f 0b c0 96 ca fc bf
       -0.6908608 -0.97644925 -2.1777337 -1.9749324
000310 50 b0 97 be 06 eb f4 bd 0b 40 39 3e 29 7d af bd
       -0.29626703 -0.1195889 0.18090837 -0.08568794
000320 92 34 8b be 75 38 f5 bb a4 21 d4 bf 1e f5 81 be
       -0.27188545 -0.007483537 -1.6572766 -0.25382322
000330 7a 01 46 3d f2 18 59 3f d6 13 28 bf 5b 67 39 be
       0.048341252 0.8480369 -0.6565527 -0.18105833
000340 1b 9f 35 be 3d 0b a3 bd df 92 7a 3f 53 b5 6e 3e
       -0.17736475 -0.07961128 0.9788036 0.23311357
000350 3d 2c 54 3f b8 ff 9e 3e 92 f2 00 3f 30 03 ad bf
       0.8288 0.31054473 0.5037013 -1.3516598
000360 12 76 49 be 3b 60 01 bf 16 44 3a bc f1 44 ea be
       -0.19673946 -0.5053746 -0.011368772 -0.45755723
000370 a3 4a 42 be 3e 27 e7 bd 9c 27 48 bd d4 99 2c 3f
       -0.18973784 -0.11286782 -0.0488659 0.67422223
000380 14 79 c8 be 29 1e 97 bd 30 af e0 bc be 3b a0 3d
       -0.39154875 -0.073787995 -0.027427286 0.07823895
000390 81 dc a9 3e b6 ee 0b bf fd 98 01 bf 9e f4 87 3e
       0.33176044 -0.5466112 -0.50624067 0.26553816
0003a0 40 89 03 3e d9 f1 5e 3f d4 18 c7 3e 7e 95 12 3d
       0.12845325 0.8708778 0.3888613 0.035787098
0003b0 d8 cd ae 3e 91 26 72 bf bd 3c 83 bf c4 68 68 bf
       0.3414142 -0.945901 -1.0252911 -0.9078486
0003c0 ec 09 f1 bf c1 83 a7 bf 2f 2e 72 3f e4 c2 08 3f
       -1.8831153 -1.3087083 0.9460172 0.5342238
0003d0 fa ea 83 3e e0 3d 7d be a9 6b 27 3f 0f 59 17 bf
       0.2576521 -0.24730635 0.6539865 -0.5912027
0003e0 61 0f b1 be 4d 06 c8 be bb e8 60 bd 5d ed 18 3f
       -0.34582046 -0.39067307 -0.05490945 0.5973719
0003f0 fa ec ac 3e ae a9 f9 bc 82 bc 83 bf 60 ef 1d bd
       0.3377455 -0.030476417 -1.0291903 -0.038558364

embedding.bias f4 [16]
000000 c6 2e 5d 3d b2 bf 07 3f 6c cd a3 bd 6e 09 6e bd
       0.053999685 0.5302688 -0.079981655 -0.05811446
000010 ad fc b7 be 45 90 ea 3d 83 47 b0 3e f2 17 5f 3d
       -0.35934964 0.114532985 0.3442956 0.054466195
000020 04 47 01 bf af 6e a4 3d ff b1 8f 3e 6d 56 2f 3e
       -0.50498986 0.08028924 0.28065488 0.17122813
000030 83 fb 9b be 5d 7e c0 3e 56 b2 cb 3e 53 6a 60 3e
       -0.30465326 0.37596408 0.39784497 0.2191556

convs.0.fc_full.weight f4 [32, 56]
000000 3b eb 15 3f b1 33 4d 3e 8d 79 0f 3e ca 4e 31 bf
       0.5856206 0.2003925 0.14011212 -0.6926085
000010 06 22 1b bf c1 26 ad bf b8 d7 2c 3f 7a 39 5a 3f
       -0.6059879 -1.3527452 0.6751666 0.8524395
000020 af 97 9d bd bc 55 3e bd 6c e2 93 3f 90 ac 9e be
       -0.07694947 -0.04646848 1.1553473 -0.3099103
000030 15 f2 2c bc 3a 2a 91 bf c7 bf fa be c8 f5 e7 bd
       -0.010555764 -1.1341012 -0.4897444 -0.11326176
000040 aa 12 6c 3e 70 71 5a bf 49 6f 83 bf 85 9d 02 3f
       0.23053995 -0.8532934 -1.0268337 0.51021606
000050 d5 5d 36 3f 28 32 7a 3d 21 fa be bd ba 1e 5f bb
       0.71236926 0.06108299 -0.09325052 -0.0034045414
000060 07 fa 02 bf f6 55 ff 3d 9a 85 c2 3e e9 4e 57 bf
       -0.5116276 0.124675676 0.37992555 -0.8410478
000070 8f 1d 08 3f 23 4a 9b bd a6 dd a7 3e 83 57 06 3f
       0.531701 -0.075825 0.32786292 0.5247728
000080 c4 e9 47 3f 8e 5f 9e 3f 85 a0 10 40 66 b4 cf 3e
       0.78091073 1.2372911 2.2597973 0.4056732
000090 8f 94 4f 3e a8 d8 49 3f 5b 29 85 3f 0b 5f 11 40
       0.20271514 0.78846216 1.0403246 2.271426
0000a0 b3 28 d9 3e 09 33 0e 3d 3c f2 44 3f 0f 0a 92 3f
       0.42413864 0.03471664 0.7693212 1.140932
0000b0 f6 6b 1a 40 45 a2 d4 3e d0 aa 0a 3d 97 ef 8c 3f
       2.4128394 0.41530052 0.033854306 1.1010617
0000c0 bd 56 d2 3f 86 fa 03 40 4f 5c 00 40 9a 2f 23 c0
       1.643272 2.0621657 2.005634 -2.5497804
0000d0 a1 04 2c c0 c0 46 37 c0 41 42 03 c0 43 e7 70 bf
       -2.6877825 -2.8636932 -2.0509188 -0.9410288
0000e0 93 15 07 be 2c 3c a4 3d 3f 10 4a be 5d 2c 19 bf
       -0.13191824 0.080192894 -0.1973276 -0.5983332
0000f0 7a 47 99 3e fc 89 c0 3e ab 80 8d 3b 1b 30 0b bf
       0.29937345 0.37605274 0.004318317 -0.5437028
000100 fe c8 d2 3e 1d e1 07 be 0c b6 21 bf ba 7c fd 3e
       0.4116897 -0.13269468 -0.63168406 0.4950922
000110 e4 a8 a6 be d6 9e 03 be 01 da da 3e b1 9e 99 bd
       -0.32550728 -0.1285356 0.4274445 -0.07500971
000120 5a a3 6a 3d 23 78 5b bd 59 9e d3 3e f4 29 05 bf
       0.05728469 -0.05358137 0.41331747 -0.5201714
000130 0d 9a 2b bf 53 96 3f be 17 bd 03 3e 70 f0 ef bd
       -0.6703194 -0.18709688 0.12865101 -0.11715782
000140 b4 b4 b0 3e e8 55 96 be 76 61 c3 3e 0c bc 93 3e
       0.34512866 -0.29362416 0.38160294 0.28854406
000150 e9 12 8f 3e 71 a4 b2 be f3 e9 1d bf f4 9c bc 3e
       0.27944115 -0.34891084 -0.61685103 0.36838496
000160 d8 8e 2b 40 24 6d eb 3f 09 c1 d1 bf c4 6a 83 c0
       2.6805935 1.8392682 -1.6387035 -4.106783
000170 33 4d 6a c0 ee 58 2c 40 d1 66 ec 3f 94 18 ce bf
       -3.6609619 2.6929278 1.8468877 -1.6101251
000180 5b e4 83 c0 93 f9 69 c0 75 91 26 40 80 83 01 40
       -4.1216254 -3.6558578 2.602628 2.0236511
000190 78 c7 cc bf 71 85 86 c0 f4 fd 63 c0 24 b7 51 40
       -1.5998373 -4.203789 -3.562375 3.276803
0001a0 58 f2 0f 40 46 f0 56 3f 38 dc 41 bf cb f9 37 3f
       2.2491665 0.8396038 -0.7572665 0.7186553
0001b0 b9 22 1d 40 e8 c8 7a 40 49 74 32 40 d7 7f aa 3f
       2.4552443 3.9185123 2.7883475 1.3320264
0001c0 5c 40 61 be c1 c5 2a 3d 1c a5 45 3f c7 98 60 be
       -0.21997207 0.0416925 0.7720506 -0.2193328
0001d0 a2 02 a7 3e cc 76 75 bd ec b7 e5 be 24 52 87 3f
       0.32619196 -0.059927747 -0.44866884 1.0571942
0001e0 b7 25 87 bf 95 fe 98 3f ed b9 b3 3e 82 65 a9 be
       -1.0558385 1.1952692 0.35102788 -0.33085257
0001f0 30 99 1b bf 16 97 da be 86 eb 8e bf d9 cf 2c 3f
       -0.6078062 -0.42693394 -1.1165626 0.6750465
000200 3d 24 82 bf 31 6b 57 bf 3b ba 44 3e f4 42 27 bf
       -1.0167309 -0.84147936 0.19211666 -0.6533654
000210 a9 8d 4b be 5c d6 63 3f 11 93 61 3e 34 62 00 bf
       -0.19878258 0.8899896 0.22028758 -0.50149846
000220 6f ba 32 be 64 b6 6b be af e9 af be bd ee 91 3f
       -0.17453931 -0.23018795 -0.34357974 1.1400982
000230 ad 0f 41 be b3 cd 35 3f af cd a2 bf 9c cc cf be
       -0.18853636 0.71017 -1.271902 -0.40585792
000240 e7 ec 74 40 61 a4 8c 40 b7 52 c2 40 3d a2 0f 3f
       3.8269594 4.395066 6.072597 0.5610693
000250 68 98 a7 bf b8 4b 74 40 3c fe 90 40 79 2c c9 40
       -1.3093386 3.8171215 4.5310345 6.286679
000260 01 81 3f 3f 34 0b cc bf fc d2 64 40 38 59 8a 40
       0.7480622 -1.5940919 3.5753775 4.323391
000270 0e e9 ce 40 69 08 25 3f 01 60 cf bf f3 f9 a3 bf
       6.465949 0.6446596 -1.6201173 -1.2810653
000280 e6 e8 51 bf 0c 25 b4 3e 32 16 1c 40 50 0c 0a c0
       -0.81996 0.35184515 2.4388547 -2.1570015
000290 a1 9e 23 c0 15 ab bf bf 39 bf 08 bf 62 14 9a 3c
       -2.556557 -1.4974085 -0.5341678 0.018808547
0002a0 e7 04 3f 3e 1c 42 83 bf d9 4c 67 bf b0 05 91 3c
       0.18654214 -1.025455 -0.90351635 0.017702907
0002b0 24 71 f0 3e 46 8f b1 be 34 06 c7 be 55 19 3d 3f
       0.4696132 -0.3467962 -0.3887192 0.7386678
0002c0 cf db 9b bd a3 29 5e 3d c5 d7 28 bf ea fd 9f 3e
       -0.076102845 0.054238927 -0.6595424 0.3124841
0002d0 64 33 1c be 42 bb db be 32 38 03 3c 46 49 f4 be
       -0.15253979 -0.42916304 0.0080090035 -0.47712153
0002e0 d5 37 ba bf a7 3a 7f 3f eb 8c 05 3e 73 d0 80 bd
       -1.4548289 0.9969887 0.13042037 -0.062897585
0002f0 67 9a 6a 3d 6d ce 70 3f 7e 7d a1 3f f0 ce 28 bf
       0.057276156 0.9406498 1.2616422 -0.6594076
000300 1c 0f b7 bf cd 27 a1 bd 15 37 4a bf 89 ab 8e 3e
       -1.4301486 -0.078689195 -0.789903 0.27865246
000310 4e fe 94 3f a7 9e ad 3f 91 ed f1 be 92 c6 79 3e
       1.1640108 1.3564042 -0.4725156 0.24392155
000320 01 3e 6b be 81 e9 a2 be b0 ed ab bf f5 6c 73 bf
       -0.22972871 -0.31818774 -1.3431911 -0.9508813
000330 4a 96 ef be 04 24 05 be b3 6e 4f be 27 35 9e bf
       -0.4679435 -0.1300202 -0.20257072 -1.2359971
000340 b5 ed 6c bf 24 28 d7 be d9 1f f9 bd 8a 09 81 be
       -0.9255021 -0.42022812 -0.121642776 -0.2520259
000350 97 df a1 bf e3 17 8a bf 49 58 fb be d1 2b 55 3f
       -1.2646359 -1.078854 -0.49090794 0.83269984
000360 41 d0 64 3d 72 0f 43 bf 60 fc 8b bf 97 b4 cc c0
       0.05586267 -0.7619544 -1.0936394 -6.3970447
000370 16 fc a5 c0 d5 30 23 bf a4 44 83 3f fc 02 a5 3f
       -5.187022 -0.63746387 1.0255322 1.2891536
000380 18 64 5d bd 8d d8 a7 bf 01 70 40 3f e0 a4 db bf
       -0.054050535 -1.3112961 0.75170904 -1.7159691
000390 92 a5 2c 3e 58 84 31 bf 22 d3 b9 3e ad d4 0b be
       0.16860035 -0.69342566 0.36293894 -0.13655348
0003a0 16 53 2e 40 5b 50 41 be bb ba d0 3e 10 bf df be
       2.7238212 -0.1887831 0.40767464 -0.43700457
0003b0 f8 2b e6 be d3 6d 10 3e 92 d0 2f 3f 26 2e 21 bf
       -0.4495542 0.14104395 0.6867763 -0.6296104
0003c0 6f bd ef 3d 3e 68 9b be cd ab b5 3f 27 58 37 3f
       0.117060535 -0.30352968 1.4193054 0.71618885
0003d0 17 eb 6c 3e 16 28 42 bc 27 26 27 3f 9a 5a 5a bf
       0.23136555 -0.011850378 0.6529259 -0.85294497
0003e0 57 58 f6 bb ca 5d 51 be 7b 9e cc 3e d9 7a 13 3d
       -0.007517855 -0.20445934 0.3996466 0.03600583
0003f0 67 86 e4 3e 2f 3c f9 be c3 88 3b bf 87 fa 2a 3d
       0.4463379 -0.4867873 -0.73255557 0.041742828

convs.0.fc_full.bias f4 [32]
000000 c9 db fd 3c 76 50 70 3e cd 37 3b be cc a4 3d 3e
       0.03098859 0.23468193 -0.18283005 0.18519896
000010 c4 4d 12 3e ac 86 36 be 8f e4 56 3e f6 28 53 3e
       0.14287478 -0.1782481 0.20985626 0.20621094
000020 5c dc 84 3d 59 c6 20 be 88 4d 5a 3d bf 95 4c 3e
       0.06487343 -0.15700664 0.053296596 0.19978999
000030 9e ac 4d 3e c5 48 1a 3d 9d 9f 5a 3e 4a d6 45 3d
       0.2008538 0.037667055 0.2134995 0.048300065
000040 40 b4 ab be 42 e8 8d 3e 07 26 d0 3d 76 4d 2e 3e
       -0.33535957 0.2771626 0.10163503 0.17021737
000050 36 f3 29 be 38 d5 c0 3c bf 48 9f be 34 c3 86 bc
       -0.16596684 0.02353917 -0.31110188 -0.016450502
000060 bd d8 f0 39 12 ac 3a be 1a 81 2b be ed 70 84 3d
       0.0004593785 -0.18229702 -0.16748467 0.064668514
000070 3f 8f a2 3d c1 ce 60 3e d9 43 54 3d 9b 54 26 be
       0.07937478 0.2195387 0.051822517 -0.16243212

convs.0.bn1.weight f4 [32]
000000 8d e5 82 40 ce d5 88 40 db 35 76 40 b2 cb 48 40
       4.0905213 4.276099 3.847037 3.1374326
000010 11 47 0a 40 5b d2 9a 40 1e 7d 7c 40 56 e9 b6 40
       2.1605875 4.838178 3.9451365 5.7159834
000020 0b ba af 3f 88 0f e3 40 5b 67 15 40 f6 a1 65 40
       1.3728651 7.095646 2.3344333 3.5880103
000030 c4 53 80 40 2f 80 db 40 f7 da 50 40 4d 90 b7 40
       4.0102253 6.8593974 3.2633646 5.736365
000040 f2 98 00 40 6a 38 6e 40 08 fe b8 3f d3 08 c1 3e
       2.009335 3.7221932 1.4452524 0.37702045
000050 11 09 2a 40 1d 99 de 3f b9 8b 64 3f 6a aa 55 40
       2.6568034 1.7390476 0.892757 3.3385262
000060 5a eb 09 40 2f 48 e4 3f 4b ed 5b 3f 26 56 06 40
       2.1549897 1.7834529 0.85908955 2.099008
000070 f0 7c 69 3f 62 92 50 3f f4 5e fc 3f a4 00 7d 3f
       0.91206264 0.8147336 1.9716477 0.988291

convs.0.bn1.bias f4 [32]
000000 52 f2 5c bf b2 8c 15 bf d0 e3 f1 3e c2 a7 b1 3f
       -0.8630725 -0.5841781 0.4724412 1.3879321
000010 67 39 09 3e 16 52 02 be 3a 2c 81 be 0f e9 27 bf
       0.13400804 -0.12726626 -0.25229055 -0.65589994
000020 ca e8 1e 3e ec a5 e5 3e 0a c3 1c 3f 97 7e 5a bf
       0.1551849 0.4485315 0.61235106 -0.8534941
000030 b4 17 82 3f ba d1 7f bf 6d d6 4b bf 47 d6 82 3e
       1.0163484 -0.9992939 -0.7962406 0.25554106
000040 fc 04 f4 bf f7 09 0d c0 73 e5 8b 3f ad 24 af 3f
       -1.9064021 -2.2037332 1.0929397 1.3683068
000050 d6 b6 0b 3e fa 7f 97 be 83 b5 73 3f 77 ce 90 bf
       0.13643965 -0.29589826 0.9519884 -1.1313008
000060 37 ea 82 bf 70 25 35 3f bf 4d 52 bd dd 4b 61 c0
       -1.0227727 0.7076025 -0.051343676 -3.5202553
000070 c1 b6 aa be e7 43 32 3f 23 f8 18 bf be c0 85 bf
       -0.33342555 0.6963486 -0.59753627 -1.0449445

convs.0.bn1.running_mean f4 [32]
000000 6d 62 9d 41 8b a0 38 c1 f4 47 1b 42 9c 61 34 c1
       19.67306 -11.539195 38.820267 -11.27383
000010 3e 90 a2 be 50 e0 86 c1 a6 e6 f7 c0 3a 03 93 c1
       -0.31750673 -16.859528 -7.7469053 -18.376575
000020 8c cb 80 bf 9b 1f df c0 05 25 be c0 b1 94 b8 c0
       -1.0062118 -6.972608 -5.942019 -5.768151
000030 2c 34 16 c1 ac 96 67 bf f0 bf 33 3f c2 ff 50 41
       -9.387737 -0.9046428 0.7021475 13.062441
000040 7a 82 0e 40 62 6a fd c1 46 29 a5 c1 68 4b 45 40
       2.2267137 -31.676945 -20.645153 3.0827274
000050 9d b5 78 41 e9 51 a1 bf f4 61 0c c1 96 e5 2e c1
       15.544339 -1.2603122 -8.773914 -10.931051
000060 87 ee 07 c1 94 24 21 c2 f5 d2 04 c1 04 fc cb c1
       -8.495734 -40.28572 -8.301503 -25.498055
000070 01 50 a7 bf d3 78 32 c1 7c 32 2c c1 40 fc 01 c1
       -1.307129 -11.154498 -10.762325 -8.124084

convs.0.bn1.running_var f4 [32]
000000 e2 ab 84 42 71 0b ac 41 a9 4e 30 42 05 91 b7 42
       66.33571 21.505587 44.076817 91.78324
000010 2f 41 5d 42 0a f3 87 42 df 35 77 42 8f 6e de 41
       55.313656 67.974686 61.80261 27.803984
000020 bb 2d 7d 42 6f 86 7a 42 3b 9b 4f 42 31 65 9a 42
       63.29466 62.631283 51.901592 77.19764
000030 99 62 8e 42 5a 34 6c 42 58 35 f7 41 93 ba 29 42
       71.19257 59.051125 30.901047 42.4322
000040 a1 fc ee 41 c8 a3 b4 41 80 1e e6 41 e7 cc 2d 42
       29.873354 22.579971 28.764893 43.4501
000050 2e f8 91 42 4b 75 7c 42 14 8c 43 42 d5 cb 1b 42
       72.984726 63.114544 48.886795 38.949055
000060 13 36 5d 42 63 fb 8f 42 da 33 6c 42 00 b2 98 41
       55.302807 71.99099 59.050636 19.086914
000070 f0 ff 22 42 1c 06 a0 42 ca c7 a0 42 15 d3 b6 42
       40.74994 80.01193 80.39021 91.41227

convs.0.bn2.weight f4 [16]
000000 46 cc 63 3f 73 25 9d 3f d4 64 5f 3f 14 07 d1 3f
       0.8898357 1.2277054 0.87263227 1.6330285
000010 ab be 8f 3f 64 cd 8f 3f 5b 91 88 3f 9f dd a2 3f
       1.1230062 1.1234555 1.0669359 1.2723883
000020 4f 2a 8c 3f 6c f1 b1 3f 69 a5 4c 3f 0a c4 d0 3f
       1.0950412 1.3901801 0.79939896 1.6309826
000030 cb e6 64 3f a2 f7 b8 3f bd 43 9b 3f 03 4c b2 3f
       0.8941466 1.4450572 1.2130047 1.3929447

convs.0.bn2.bias f4 [16]
000000 c3 13 4d bd 00 91 de 3e 91 38 d5 bc d4 b5 fa 3c
       -0.050067674 0.4347 -0.02602795 0.03060428
000010 3d df 87 be fc ae 28 3e 1e 66 83 3e 6a 53 9f 3c
       -0.26537505 0.16473001 0.25663847 0.019448955
000020 c9 07 1b bf 72 d1 45 3b 30 ec 8e 3e 7c 80 71 3e
       -0.60558754 0.0030184654 0.27914572 0.23584169
000030 f6 1a d0 be a9 ab 95 3e bb 96 b4 3e ca 5d 8d 3e
       -0.4064557 0.2923253 0.35271248 0.27610618

convs.0.bn2.running_mean f4 [16]
000000 59 c1 0a 40 c4 84 a9 40 0f a4 15 41 a1 d0 4a 41
       2.168051 5.2974567 9.352553 12.675935
000010 b4 bb 2f 41 7f 21 bf 40 bc 96 10 41 bd c2 cb 40
       10.983326 5.972839 9.0368 6.367522
000020 58 80 aa 40 cf 21 52 41 51 a9 b7 40 e8 cd 34 3f
       5.328167 13.133254 5.7394185 0.7062669
000030 d6 55 af 40 c4 ee 09 41 77 3b b5 40 6d ed 16 40
       5.479228 8.620792 5.663509 2.3582413

convs.0.bn2.running_var f4 [16]
000000 90 f2 86 40 6d 73 f9 41 33 78 1d 42 a1 af 9b 41
       4.2171097 31.18136 39.367382 19.460756
000010 14 ca f4 42 fc b1 40 42 21 d9 28 42 b2 bc 80 42
       122.394684 48.173813 42.21204 64.368546
000020 23 5e 8c 41 81 d5 f7 42 15 0b fd 40 5a 40 64 3f
       17.545965 123.917 7.907603 0.8916069
000030 20 15 45 41 9f 7e 79 42 99 89 c9 41 c3 9d 83 40
       12.317657 62.373653 25.192186 4.113008

convs.1.fc_full.weight f4 [32, 56]
000000 b9 80 89 be 79 78 56 3f f1 93 01 be 62 1b b1 3e
       -0.2685602 0.83777577 -0.12654091 0.34591204
000010 f0 5d 20 3f e8 54 25 3f 86 f6 30 3f de 51 50 bf
       0.6264334 0.6458268 0.69126165 -0.8137492
000020 ff 3b ac 3f 98 56 97 3e 15 9f b4 3f f2 cf 16 bc
       1.3455809 0.29558253 1.4111048 -0.009204851
000030 98 00 76 3e 77 22 b1 3e 90 ad 2c be fe 5d 27 3f
       0.24023664 0.34596607 -0.16863084 0.65377796
000040 25 72 6b 3e 27 a2 b6 3e 4e 9a 26 3f 34 61 ec 3d
       0.22992761 0.35670587 0.650792 0.115419775
000050 80 18 d1 3d e3 a4 2a 3f b3 b0 02 bf b4 fb a3 bf
       0.10209751 0.6665785 -0.5105087 -1.2811189
000060 a7 2e 21 bf 5b 6a e7 be 8d 71 af bd 8b 60 7d bf
       -0.6296181 -0.4519833 -0.0856658 -0.9897544
000070 e2 3a 36 3f 7a 73 03 be 68 07 ec 3e b9 86 a1 bf
       0.711836 -0.1283702 0.460994 -1.2619239
000080 88 5f cb be 98 c4 0b 3f fe ad aa 40 21 69 32 40
       -0.39721322 0.54596853 5.3337393 2.7876666
000090 04 f2 de 3f 23 43 97 be 17 c8 02 3f 66 3a ae 40
       1.7417607 -0.2954341 0.5108656 5.4446287
0000a0 85 dd 28 40 21 72 ec 3f 38 af 9d be 55 ba 16 3f
       2.6385205 1.8472329 -0.30797744 0.5887807
0000b0 94 a1 ab 40 e9 60 2e 40 43 64 dd 3f ba 88 92 bf
       5.363474 2.724665 1.7296222 -1.1447976
0000c0 b5 8b 03 bf 78 aa 56 3e ca 67 91 3f 06 f6 06 c0
       -0.5138505 0.20963466 1.1359799 -2.108766
0000d0 dd 7c 2b bf 3c d8 99 3f 98 8b 04 bf 8a 3a 3d c0
       -0.669874 1.2019114 -0.51775503 -2.956698
0000e0 de f6 b2 3e 08 8c a3 be 4b 34 87 3f 6c 74 7e bf
       0.3495397 -0.31942773 1.0562834 -0.99396396
0000f0 2a cf a8 bf 04 35 a3 3f bb 1a f8 bd 44 ec bf bf
       -1.3188221 1.2750554 -0.121144734 -1.4993978
000100 83 39 4c be 08 42 04 be a5 27 5a be e9 54 88 3e
       -0.19943814 -0.12915814 -0.21304186 0.2662728
000110 d8 95 43 be 81 28 34 3f 5b b4 a8 bd e4 cd eb bf
       -0.1910013 0.70374304 -0.08237525 -1.8422208
000120 3b 38 f7 3e 84 40 c4 3d 91 1f 02 be 32 22 f5 3e
       0.48285088 0.09582618 -0.12707354 0.4787765
000130 73 75 a3 3f 20 d5 67 3d 56 e9 1c be a1 cc d4 be
       1.2770218 0.056599736 -0.15323386 -0.4156237
000140 23 89 b5 3f 86 c5 41 3f 11 4d 38 3f 8d a7 e1 3f
       1.4182476 0.7569202 0.71992594 1.7629257
000150 22 0f b1 3f 80 b7 81 3f bd 9e db 3e 36 14 47 be
       1.3832743 1.0134125 0.42894545 -0.19441304
000160 26 a7 87 c0 7f 31 98 c0 e4 48 a1 c0 45 1d 92 3f
       -4.239154 -4.756042 -5.040148 1.1415182
000170 05 0b 31 40 92 94 82 c0 96 b4 91 c0 83 be 97 c0
       2.7662976 -4.080636 -4.553294 -4.742006
000180 66 94 9e 3f 9a 47 32 40 b0 a1 7b c0 e4 29 8c c0
       1.2389038 2.7856202 -3.9317436 -4.3801136
000190 16 66 99 c0 86 8f b0 3f df 2b 2b 40 46 47 ef bf
       -4.7937117 1.37938 2.6745527 -1.8693626
0001a0 b3 79 85 bf 3b 62 23 bf e8 28 d3 be 66 91 40 3f
       -1.0427765 -0.6382176 -0.41242146 0.7522186
0001b0 e4 58 82 3f ad 51 d0 3e 0d 68 3d bf ac 2a 23 c0
       1.0183377 0.40687314 -0.73986894 -2.5494795
0001c0 ab 85 13 3f 5b 84 26 3f 71 e6 17 bf c4 df 16 3f
       0.57625836 0.6504571 -0.59336 0.5893519
0001d0 d6 0e da 3d 40 67 9b 3f 6e 29 b0 3e 8b 2f fd 3f
       0.10647361 1.2140884 0.34406608 1.9780134
0001e0 23 ea dc be 69 df 2c be 60 c5 87 be 34 36 55 3d
       -0.43147382 -0.16882099 -0.26517773 0.052053645
0001f0 e0 9a 30 3f 42 c5 90 3d 70 00 5d bf 38 d7 8f be
       0.6898632 0.07068874 -0.8632879 -0.28093886
000200 ab 09 12 3f b6 86 25 bf 83 72 bc bc 68 53 b8 be
       0.57046 -0.6465868 -0.023003822 -0.36001134
000210 4d f1 d9 3e 7c a7 b6 be 4e d1 8f 3e f6 15 0a 3f
       0.4256691 -0.35674655 0.28089374 0.5393976
000220 a6 67 28 bf d0 f6 e5 3e 96 58 42 3e 89 65 33 3f
       -0.65783155 0.44914865 0.18979105 0.70076805
000230 bf 84 4d 3f 25 0e fc 3e 08 a7 8b 3f 86 25 04 bf
       0.8028068 0.4922954 1.0910349 -0.51619756
000240 bc b9 d7 3f 2f 97 90 3f 20 c2 c5 bf 21 b4 3d c0
       1.6853557 1.1296138 -1.5449867 -2.9641192
000250 0b bf 35 c0 da c5 e6 3f 5a 00 91 3f cc b6 d0 bf
       -2.8397853 1.802913 1.1328232 -1.6305785
000260 6e 74 3d c0 cc 07 31 c0 e1 8f dd 3f 62 28 8a 3f
       -2.9602313 -2.766101 1.7309533 1.0793574
000270 10 cc c4 bf 3c 0b 34 c0 45 05 30 c0 8f 47 b6 3f
       -1.5374775 -2.8131857 -2.7503216 1.4240588
000280 66 18 6a bd 88 81 a7 bf ae 73 fd bf 42 e1 e4 3e
       -0.057152174 -1.3086405 -1.9800928 0.44703108
000290 4d cb d0 be b8 43 08 c0 55 d8 2e bf d5 98 9e 3f
       -0.40780106 -2.1291332 -0.68298846 1.2390391
0002a0 a9 36 e2 3e eb ca 45 3f d5 e2 d3 3e 2f 13 03 3e
       0.44182327 0.77262753 0.41383997 0.12800287
0002b0 90 ab 3f bf 12 29 fc be 7d e5 83 bf b5 ee 11 be
       -0.7487116 -0.49250084 -1.0304409 -0.14251216
0002c0 7a 3e 66 3d b2 c3 cc be d9 7b 0b 3f 9d 4c b8 bf
       0.056211926 -0.39993054 0.5448585 -1.439838
0002d0 75 06 3c bf e2 f4 54 bf cc 56 38 3f 8d 20 83 bf
       -0.7344735 -0.8318616 0.7200744 -1.0244309
0002e0 c4 3b f0 be 39 88 6d 3e d3 f7 07 3f ed 18 91 3e
       -0.46920598 0.23196496 0.53112525 0.2833933
0002f0 61 7b 4a bf cc 21 30 3f 6a eb 2b 3e c0 d2 ec bf
       -0.7909451 0.6880157 0.16789022 -1.8501816
000300 97 94 ee 3f 37 61 00 3e 93 51 93 be 6a d4 6a bf
       1.8639096 0.12537085 -0.28773174 -0.9173037
000310 25 f2 12 bf 8f a6 d6 be ce 11 c8 3e 42 4e 52 3e
       -0.57400733 -0.4192395 0.39076084 0.20537665
000320 75 ea de 3e ef 9d 19 3f 1c e6 cf 3f bd dc 06 3f
       0.43538252 0.6000661 1.6242099 0.5268057
000330 81 86 df 39 04 f5 09 3f 37 9f 59 3f 8e 70 e9 3f
       0.00042634088 0.5388949 0.8500857 1.8237474
000340 63 81 22 3f 30 52 d9 3d 6e f6 e6 3e e8 04 47 3f
       0.6347868 0.10611379 0.45109886 0.7774186
000350 5b 3d f3 3f ca ee 08 3f c6 72 8b bc 6b 6f 58 bf
       1.9003099 0.53489363 -0.017022502 -0.8454501
000360 03 49 10 bf 1a 17 b7 bd 9b 66 68 3f c3 4b d3 c0
       -0.5636141 -0.08939953 0.90781564 -6.6029983
000370 dd 0e bc c0 73 33 a9 bd a7 99 e7 3f 64 87 ae 3f
       -5.8768144 -0.08261766 1.8093766 1.3635068
000380 58 20 69 be 33 98 db 3d f7 f5 3d 3e 59 1c 8b 3c
       -0.22766244 0.10722389 0.1855086 0.01698129
000390 58 cd ce be 6b 11 96 bf e3 38 b4 be 9e 71 81 3e
       -0.4039104 -1.1724066 -0.3519965 0.25281996
0003a0 35 b9 20 be f0 b0 dc 3d 0c 71 02 be 83 65 c6 bf
       -0.15695651 0.10775936 -0.12738436 -1.5499729
0003b0 35 13 2b bf 0a 44 ed 3f fc 30 f9 3e b4 35 31 bf
       -0.6682618 1.8536389 0.48670185 -0.6922257
0003c0 23 52 26 3f 2e 79 a1 bf b6 c9 7f bf f2 01 f3 bf
       0.6496908 -1.2615106 -0.9991716 -1.8984969
0003d0 6b c8 ce 3e 02 db bf bf 5f 76 2a 3f 47 4d f6 be
       0.40387282 -1.4988711 0.6658687 -0.48105833
0003e0 b7 9f 9d bf 8d 34 10 3f ef 1e 4d 3f 7b 80 16 3f
       -1.2314366 0.56330186 0.80125326 0.58789796
0003f0 b8 91 95 be 2c 58 e3 3e ed 98 0e 3f fa 01 36 be
       -0.29212737 0.44403207 0.55702096 -0.17774191

convs.1.fc_full.bias f4 [32]
000000 6d 0f 15 be 37 63 7a bd 7c ff 9b 3d 26 17 b3 bd
       -0.14556666 -0.061129775 0.07617089 -0.087446496
000010 95 79 1e 3b 5f 3a 65 3d 19 82 24 3d fe 65 f9 3c
       0.0024181355 0.05596387 0.040163133 0.030444141
000020 01 68 aa bc c0 c0 56 bd 30 da 9f bd 55 c7 5d bd
       -0.020801546 -0.052429914 -0.07805288 -0.054145176
000030 87 38 d9 3d aa 10 d2 bd 5e bd 21 bd 21 51 86 3d
       0.10606485 -0.10257085 -0.039487235 0.06558443
000040 17 a4 03 3f 43 92 82 be f7 af ad 3e 97 5d 83 bd
       0.51422256 -0.25502214 0.33923313 -0.06414335
000050 46 72 1f 3e 79 bd 3a be d9 74 a9 bd 73 49 a2 3e
       0.15570936 -0.1823634 -0.0827424 0.31696662
000060 1e 98 50 3e 34 3d d1 bb 38 67 db bd 2f f9 16 be
       0.20370528 -0.00638547 -0.10713047 -0.14743493
000070 0f 90 17 3f 51 b5 10 bf 2a 20 09 3f 7d a6 43 bd
       0.5920419 -0.56526667 0.53564703 -0.047766197

convs.1.bn1.weight f4 [32]
000000 c9 c7 88 40 f5 5d 9d 40 12 de a5 40 18 02 80 40
       4.274388 4.9177194 5.183358 4.0002556
000010 52 a0 93 40 ed 3f 48 40 f2 ac 85 40 f0 e0 a2 40
       4.6133204 3.1289017 4.1773615 5.089958
000020 ab e0 36 40 5a f3 96 40 a9 d5 50 40 91 27 33 40
       2.8574626 4.717206 3.2630408 2.79929
000030 a1 bc 54 40 46 5b 8e 40 fb 92 6b 40 ba 74 89 40
       3.324013 4.448642 3.680846 4.295499
000040 98 8c b1 3f 11 d5 96 3f 04 55 ce 3f 0e 08 9d 3f
       1.3871031 1.1783773 1.6119695 1.2268083
000050 a7 b0 02 40 cf e8 83 3f 47 68 6f 3f 3e c2 02 40
       2.042032 1.0305423 0.9351849 2.0431056
000060 9a 25 7d 40 2d ca 6a 3f ff 20 54 3f a7 60 0b 40
       3.95542 0.91714746 0.8286285 2.1777742
000070 ac 69 ec 3f 63 72 0d 40 ec 45 92 3f a4 58 f7 3f
       1.8469748 2.2101066 1.1427588 1.9323926

convs.1.bn1.bias f4 [32]
000000 7d 4f e0 3c 31 44 1f 3f 3f 30 26 bf 85 d0 71 be
       0.027381653 0.62213427 -0.6491737 -0.236147
000010 82 72 16 bf 01 64 82 be ee eb 0f 3f 45 20 6f 3e
       -0.58768475 -0.25466922 0.56219375 0.23352154
000020 49 e2 86 bf 09 49 a0 3e 5a 68 36 3f f8 0b f7 3e
       -1.0537807 0.3130572 0.7125298 0.4825132
000030 8e e3 ee be ca ab 3b 3f 8c 2a 8f 3e 3c 35 86 bf
       -0.46657985 0.73309004 0.27962148 -1.0484996
000040 c1 d9 72 be 94 36 d7 3e 59 b7 02 bf 6c 51 09 bf
       -0.23715879 0.42033827 -0.51061016 -0.53639865
000050 40 7d 84 bf 73 44 80 3f 9d e4 43 3e f6 20 4d 3e
       -1.0350723 1.0020889 0.19130178 0.20032105
000060 ee 88 d5 bf 2e 35 97 3d 8c ab 25 bf 90 74 e7 3d
       -1.6682413 0.0738319 -0.64714885 0.113015294
000070 45 72 8e bf 71 fd cb bf 5f fc 69 be 2c fd 29 bf
       -1.1128622 -1.5936719 -0.22850178 -0.66401935

convs.1.bn1.running_mean f4 [32]
000000 be 4f 09 42 fb 2c b5 c1 73 41 ce c0 3f 61 8f 40
       34.327873 -22.646963 -6.4454894 4.480621
000010 43 b4 87 41 33 e1 03 42 cc 1f d2 c1 44 82 c6 c1
       16.963018 32.96992 -26.265526 -24.813606
000020 94 12 77 41 d6 0c ae 3e 62 be 01 41 60 35 b6 c1
       15.442036 0.33994168 8.10898 -22.776062
000030 97 07 34 41 1e 45 64 41 c9 16 b4 c1 cd 28 e0 41
       11.251853 14.266874 -22.511126 28.019922
000040 23 cc 71 40 64 ce 92 c1 28 21 0c c1 ec 03 8e c0
       3.7780845 -18.350777 -8.758095 -4.4379787
000050 5c 85 30 c1 99 7b 99 41 8f c8 1a c0 82 68 17 c1
       -11.032558 19.18535 -2.4184911 -9.463015
000060 02 cf 0b 42 36 f4 26 41 97 3e a9 c1 cc 1b d1 c1
       34.952156 10.434622 -21.155561 -26.138573
000070 b4 43 f6 c0 ba 98 96 c1 6a 82 37 c1 57 8f 01 c1
       -7.6957645 -18.824574 -11.469339 -8.097495

convs.1.bn1.running_var f4 [32]
000000 2e 01 9d 41 70 7b ce 41 2a 78 65 41 61 3b bc 41
       19.625576 25.810272 14.341837 23.528994
000010 1b e5 3d 42 12 b7 e6 41 25 77 fa 41 5d b4 fc 41
       47.473736 28.83939 31.308176 31.588068
000020 de 4a 1f 42 0b d2 bc 41 69 95 fa 41 73 b1 93 41
       39.823112 23.60256 31.322954 18.461645
000030 74 67 2b 42 87 94 aa 41 5f 51 cf 41 cb 7e c8 41
       42.85103 21.322523 25.914732 25.06191
000040 4b f1 4a 41 eb 8e ff 41 3d ba 65 41 07 76 f1 41
       12.683909 31.944784 14.357968 30.18263
000050 46 4c 24 42 32 f5 09 42 ee 26 8b 41 c6 72 10 42
       41.074486 34.48945 17.394009 36.112083
000060 94 35 cf 41 72 2b dc 41 b7 d4 8e 41 a3 2d 50 41
       25.901161 27.521214 17.853865 13.011142
000070 cf e5 e4 41 b3 0f 20 42 69 59 06 42 12 fb bb 41
       28.612211 40.01533 33.587315 23.497593

convs.1.bn2.weight f4 [16]
000000 27 5a 5b 3f c7 c6 d3 3f a2 60 7a 3f 83 07 7e 3f
       0.85684437 1.6545037 0.978037 0.9923021
000010 b7 3c 57 3f f0 dc ba 3f 6f 4f 90 3f 56 de c5 3f
       0.8407702 1.4598675 1.1274241 1.5458477
000020 9d 27 4f 3f e9 ec 86 3f 6f b4 4d 3f b0 93 82 3f
       0.8091982 1.0541049 0.80353445 1.0201321
000030 18 5c b1 3f 94 19 c1 3f b9 dd 93 3f b4 18 a0 3f
       1.385623 1.5085931 1.1552039 1.2507539

convs.1.bn2.bias f4 [16]
000000 a5 f5 2d 3f ea cf e5 bd f7 85 fd bd cf c2 55 3e
       0.6795295 -0.11221297 -0.123790674 0.20875095
000010 93 6a af bf 05 ed 46 be 3c 60 3e 3d b5 45 e3 bf
       -1.3704399 -0.19426353 0.046478495 -1.7755648
000020 ef 1a 7d bf 0f cd 06 3e 42 4c b3 3e 7d c8 20 be
       -0.9886922 0.13164161 0.35019118 -0.1570148
000030 aa bf 98 bf 26 9b 5f 3e bd ae 14 bf 35 26 2c be
       -1.1933491 0.21836528 -0.5807913 -0.1681145

convs.1.bn2.running_mean f4 [16]
000000 87 b8 a5 40 48 55 f5 40 ea 58 91 40 38 6d 92 40
       5.1787753 7.6666603 4.542104 4.5758324
000010 83 0f c9 3f bf c9 1e 41 14 26 d4 40 64 4d eb 40
       1.5707859 9.924254 6.629648 7.353197
000020 04 73 13 40 f4 df a0 40 68 03 82 40 78 16 ee 40
       2.303895 5.027338 4.062916 7.440243
000030 70 14 77 40 10 2d 74 40 5e 5a 6b 40 60 34 7d 40
       3.8606224 3.8152504 3.6773906 3.9563217

convs.1.bn2.running_var f4 [16]
000000 9e 60 9d 41 3d 73 01 42 03 ab bd 41 d1 20 e6 41
       19.672176 32.362537 23.708502 28.766024
000010 3b 3a 79 40 e7 72 70 42 09 c2 2a 42 9a 32 18 42
       3.894179 60.11221 42.689487 38.049416
000020 01 58 27 41 72 96 6a 41 35 51 d7 40 b2 3f 1a 42
       10.458985 14.66173 6.728663 38.562202
000030 02 b2 4e 41 5c bf 1d 41 1c 09 e9 40 28 98 ed 41
       12.918459 9.859219 7.282362 29.699295

convs.2.fc_full.weight f4 [32, 56]
000000 e2 4a 45 3f 2e 3d ca 3f 2d 63 4f bf b9 1d 23 be
       0.7706739 1.579992 -0.81010705 -0.15929307
000010 48 f1 29 bf eb 2f ac 3e da 45 3c 3f 4f d4 a1 bf
       -0.6638379 0.33630309 0.73544085 -1.2642916
000020 38 4d 77 3e 4d df 96 3f 2f 4f 6b bd 13 b5 e0 be
       0.2415055 1.1786896 -0.057448562 -0.4388815
000030 a1 d1 24 bf fe a2 21 bf 7f 1b 33 bf bc 2a 1f 3f
       -0.6438237 -0.6313933 -0.6996383 0.6217458
000040 a9 ea a1 be 16 f3 71 bf 69 1c a3 3e e7 1c 35 3f
       -0.31624344 -0.94511545 0.31857613 0.70747226
000050 77 66 34 3e e1 09 f7 3e 96 9b 34 be 45 fa c2 3e
       0.17617212 0.48249725 -0.17637476 0.38081565
000060 4f 33 43 40 41 13 cc 3f 5b 88 50 bf f4 97 db bd
       3.0500066 1.5943376 -0.8145806 -0.10722342
000070 79 a5 59 be da f3 a8 3e 5c b1 4d be 04 b5 90 3f
       -0.21254529 0.32998544 -0.20087188 1.1305242
000080 c7 8e 83 3e ad da 26 3f 9a f9 75 40 3c 74 12 40
       0.25694868 0.6517742 3.8433595 2.2883444
000090 e3 0d ac 3f 94 9e 5e 3e 31 df 39 3f c1 e5 73 40
       1.3441738 0.2174018 0.7260619 3.810898
0000a0 de 6d 15 40 fc e4 9e 3f 7a 83 61 bd 7b 72 3d 3f
       2.3348308 1.241363 -0.055057026 0.7400281
0000b0 cd b8 79 40 e5 f0 19 40 04 7f b1 3f fd ed a2 bf
       3.9019043 2.405328 1.3866887 -1.2728878
0000c0 0c a7 a7 bf aa c2 d2 bf 7e 87 d7 bf 20 f6 96 3e
       -1.3097854 -1.6465657 -1.6838224 0.29484653
0000d0 cc 42 fe 3e 44 88 79 3f 19 bd c5 3e 9d 51 d0 be
       0.49660337 0.9747355 0.38620833 -0.40687266
0000e0 db 36 9a 3e c0 40 ed 3c dd ca 17 3e 36 6d 4d 3d
       0.30119976 0.02896154 0.1482348 0.05015298
0000f0 ed 36 17 be a0 6c 37 be 32 e4 f0 be 89 3e da 3f
       -0.14767046 -0.17912531 -0.470491 1.7050334
000100 45 b4 1a bf 38 8b 1a be d0 28 63 be a8 3c 03 bf
       -0.6043132 -0.1509217 -0.22183537 -0.5126443
000110 9d fc 0a bf 96 56 c1 3f 60 d1 fa 3e fa 2c 6f bf
       -0.5429171 1.5104549 0.48987865 -0.93428004
000120 9d b4 59 3f 9b 26 b9 3f 96 8c 3b 3e 4d 4e 6f bd
       0.8504122 1.4464906 0.18315348 -0.058424283
000130 67 f7 08 3e 79 e2 c6 3f 37 0a 41 bf 6d 48 c4 3f
       0.13375627 1.5537864 -0.7540621 1.5334603
000140 35 8f 53 3f 26 fe a0 3f 4f 42 7b 3e 02 f2 98 3c
       0.8264039 1.257756 0.24537013 0.018670086
000150 cb 04 8b be ad d3 4a 3f 94 cf e6 3e 8a 1b 4a bf
       -0.27152094 0.7922924 0.45080245 -0.7894827
000160 05 7c ec bd 8e 06 b6 be 2f fa a7 bf 2a 11 ab bf
       -0.11547092 -0.35551876 -1.3123225 -1.3364613
000170 f6 f9 55 bf 66 80 48 3d 6b 09 39 be 89 94 ab bf
       -0.83584535 0.048950575 -0.18069999 -1.3404704
000180 84 a9 9b bf c8 ba 68 bf f6 4a 0c 3e 3b 7f e0 bc
       -1.2161107 -0.90910006 0.1370047 -0.027404418
000190 3d cd a3 bf fa 9b 96 bf cd 60 40 bf eb 3c 3f be
       -1.2797009 -1.176635 -0.75147706 -0.18675582
0001a0 52 06 ad bc 0e 5f 28 3e cb 0f 47 3f c9 28 87 bf
       -0.021121178 0.1644251 0.77758473 -1.0559322
0001b0 c7 7d b8 3e ff 5e 56 40 ff f0 64 40 b0 5a 36 40
       0.3603346 3.349548 3.5772092 2.8492851
0001c0 b7 9e 8c bf df 4a 0b bf bc c1 15 bf 47 f6 c9 3e
       -1.0985936 -0.5441112 -0.5849874 0.39445707
0001d0 a4 52 2c 3f d4 52 2c bd c8 4e 1e 3f 37 95 0e 3f
       0.673136 -0.04207118 0.6183896 0.55696434
0001e0 34 d4 a7 3e da 7c 80 bf 5c de 99 bf 72 6d 79 be
       0.32779086 -1.0038102 -1.2020984 -0.24358156
0001f0 eb 8f bd be 25 93 61 be 77 94 05 3f 04 7d fb 3b
       -0.37023863 -0.22028787 0.52179664 0.007674815
000200 bd 4a 24 3f aa 38 78 3f a0 a0 8f 3f 55 ef aa be
       0.6417654 0.9696146 1.1220894 -0.3338572
000210 8e 1b 1b bd 91 c1 37 bf 1f 64 50 be 47 3a 77 be
       -0.037868075 -0.71779734 -0.20350693 -0.24143325
000220 a6 71 28 bf 3b 01 01 40 40 8d 97 3f 5d 1a 90 3f
       -0.65798414 2.0157 1.1839981 1.1258045
000230 68 f4 85 3d bf c0 df be de 82 9c 3f ce 0c 9a 3d
       0.065407574 -0.4370174 1.2227437 0.075219736
000240 7f 63 16 bf f5 79 5f bf d5 d5 11 c0 ec 46 59 bf
       -0.5874557 -0.87295467 -2.2786763 -0.84873843
000250 40 4b 98 be 5b 07 15 bf a4 51 70 bf 94 c9 10 c0
       -0.2974491 -0.5821435 -0.93874574 -2.2623034
000260 b7 2d 3e bf f8 24 a2 be a5 b2 e6 be 35 5f 84 bf
       -0.74288505 -0.3166883 -0.4505817 -1.0341555
000270 0c 53 10 c0 9a 4a 29 bf 17 35 02 be ba d3 70 3e
       -2.2550688 -0.6612946 -0.12715565 0.23518267
000280 4c e3 50 bf 69 8e 9e bf 2c c9 9d bf 92 bb 4b 3f
       -0.8159683 -1.238721 -1.2327018 0.79583085
000290 41 c6 25 3f 11 27 d8 3d 4c b9 21 be 9f 17 bc bd
       0.64755636 0.10554326 -0.15793341 -0.09184193
0002a0 77 e3 21 3e ce 25 13 bf e7 87 fb 3d 12 1b 16 bf
       0.15809427 -0.5747956 0.12281781 -0.58635056
0002b0 ab c3 7e bf 34 e8 f2 3e 41 99 90 be da 36 5a 3f
       -0.99517316 0.47442782 -0.28241923 0.85239947
0002c0 32 f4 55 3d ec 16 8b 3f fc 82 9f be 87 09 43 be
       0.052234836 1.086637 -0.3115462 -0.19046603
0002d0 a0 34 36 3f 3d ef 9f be c0 3c 17 bf 91 8b cd bf
       0.7117405 -0.31237212 -0.5907707 -1.6058217
0002e0 9f 95 c3 be 7e b8 8e 3e f7 99 7f 3f 9b 2e 78 bf
       -0.3820009 0.2787513 0.99844307 -0.96946114
0002f0 f7 ca 04 3f ec dc 16 3e bf 45 07 c0 c1 ce 9c 3e
       0.518722 0.14732713 -2.113632 0.3062649
000300 d7 d3 70 3f df 64 af 3f 11 fc 86 be 79 30 b0 bd
       0.9407324 1.3702658 -0.26364186 -0.086029954
000310 a9 f4 33 3f 92 a7 11 3f 5e 4c d4 3e 3f 10 43 bf
       0.70295197 0.56896317 0.41464514 -0.76196665
000320 0a 17 86 bd a9 b4 72 3d 70 f5 24 3f 99 32 2d 3f
       -0.06547363 0.059254322 0.6443701 0.6765533
000330 75 0a c8 3e 72 d8 15 be 3c 77 32 3c c5 01 34 3f
       0.39070478 -0.14633349 0.0108926855 0.703152
000340 9d 3d 3a 3f 16 1b e5 3e 12 5c 26 be 50 ee 15 3d
       0.72750264 0.44747227 -0.1624606 0.036604226
000350 8d 2f 3b 3f 30 89 13 3f fd 39 dc 3e d6 65 5a bd
       0.7311943 0.57631207 0.43012992 -0.053319775
000360 db b6 3d bc be c7 a3 3e 92 ec d2 3e 1d 18 7c c0
       -0.011579241 0.3198833 0.41196114 -3.9389718
000370 81 c7 5d c0 49 c9 c7 bf c7 88 8e bf 93 b5 75 bf
       -3.4653018 -1.5608302 -1.1135491 -0.95980185
000380 e5 11 00 3f b6 31 66 3d 85 b5 26 bf d6 a2 94 be
       0.50027305 0.05619975 -0.65120727 -0.29030484
000390 2c e0 b2 bd ca ad bc be 24 96 5e 3e b0 57 05 bf
       -0.08734164 -0.3685134 0.21736962 -0.52086926
0003a0 d1 78 4b 3f d7 fb 60 3b 38 61 02 bf d2 09 0b bf
       0.79481226 0.0034329796 -0.50929594 -0.5431186
0003b0 c7 41 79 3e 46 2a 31 bf 4a 7e 5d be 7a f9 32 3f
       0.24341498 -0.6920513 -0.21630207 0.6991192
0003c0 e6 44 46 3d 93 7a ce be 9a 9e 72 3e 25 6a 90 3d
       0.04840555 -0.40327892 0.23693314 0.070514955
0003d0 77 f0 5a bf 25 c3 a8 be 12 3d a5 3f 9a ed 87 3e
       -0.8552317 -0.32961383 1.2909262 0.26548463
0003e0 9d 8b 60 3e be 96 e2 bf c4 64 08 3f f8 4a 0f 40
       0.21928258 -1.7702253 0.53278756 2.2389507
0003f0 48 88 80 be 36 81 93 3f 72 cc 5c bf df 8d 93 be
       -0.25103974 1.1523807 -0.8624946 -0.28819177

convs.2.fc_full.bias f4 [32]
000000 f2 a7 a9 3d e7 4a 08 bd 7a 70 26 bd 5c 6d 03 bd
       0.08283986 -0.033274557 -0.04063461 -0.032086715
000010 7e 17 23 3d e9 fa 8b 3d d4 37 74 bd 36 37 57 bd
       0.039817326 0.06834967 -0.059623554 -0.052542888
000020 ef 56 b7 bd ef 2e 7e 3d d1 01 91 bd d9 e9 86 3d
       -0.08952128 0.062056478 -0.070804246 0.06587572
000030 cc 41 34 bd e7 99 9b be bc bf d4 ba c4 9f 5e 3c
       -0.04400806 -0.30390856 -0.0016231458 0.013587896
000040 21 f6 7d bd de 29 74 3d 03 d0 03 3d 15 c4 de bd
       -0.062002305 0.05961024 0.032180797 -0.108772434
000050 e6 32 6b be 6e c6 d0 bd c8 6b 08 3b 89 f5 64 bc
       -0.22968635 -0.101940975 0.0020816196 -0.013974556
000060 5e ff 2b be 54 af 15 bd c7 72 38 3d c6 b1 ed 3d
       -0.16796634 -0.03654416 0.045031335 0.11606173
000070 93 f1 1a 3d 89 e5 88 bc b8 0e e3 3c 58 c0 24 be
       0.03782804 -0.016711013 0.02771698 -0.16088998

convs.2.bn1.weight f4 [32]
000000 3e c1 26 40 13 ec 68 3f 1a bf b9 40 b1 f1 89 3f
       2.6055446 0.9098522 5.804578 1.0776883
000010 7d 59 9d 40 70 60 4c 40 6a 69 97 40 6e f3 69 40
       4.917174 3.193386 4.731618 3.6554828
000020 07 fd 7b 40 83 44 4e 40 b6 1b 50 40 1f c9 59 40
       3.9373186 3.2229316 3.2516913 3.4029005
000030 f1 6a b6 40 17 5f 74 40 c5 ab a2 3f 5c 41 09 40
       5.7005544 3.8183038 1.270867 2.1446142
000040 57 7c 4a 40 13 c6 b1 3f 3f 70 25 3f 81 f2 4f 3f
       3.163839 1.3888572 0.646244 0.81229407
000050 5e 01 15 40 24 23 ac 3f ce 81 c1 3f 53 02 14 40
       2.3282084 1.3448224 1.5117738 2.3126419
000060 93 89 ee 3f 91 5d 97 3f a8 00 81 3f e3 79 12 40
       1.8635734 1.1825429 1.0078325 2.2886894
000070 ec 12 9a 3f 01 41 d3 3f 90 ec c0 3f 54 0e bf 3f
       1.2037024 1.6504213 1.5072193 1.4926248

convs.2.bn1.bias f4 [32]
000000 9c 9f 0d c0 aa 9d 1f 3e 67 81 ac 3e c0 85 0b 3e
       -2.2128668 0.15587488 0.33692476 0.1362524
000010 bc 62 bb bf 0c 56 92 3f fc db 1c 3f ca 0e 49 be
       -1.4639506 1.143251 0.6127317 -0.19634548
000020 72 ff 29 bf a9 22 34 bf 0a 67 9b 3e f3 89 9f bf
       -0.66405404 -0.7036539 0.3035205 -1.2463974
000030 90 71 83 bf ce 69 24 bf 80 ca 9c bf 4c e4 ff be
       -1.0269032 -0.64223945 -1.2249298 -0.49978864
000040 62 ad 17 bf a2 87 0e bf 67 8a f8 be 1d 96 b6 be
       -0.59248936 -0.5567571 -0.48543093 -0.35661402
000050 65 bc 28 c0 54 65 3f 3e 05 50 32 3f 0a 3a 6c bf
       -2.6364987 0.18690997 0.6965335 -0.9227606
000060 99 85 23 bc 3a 41 81 bf 77 71 35 bf 8a 4a a4 bf
       -0.009980583 -1.009803 -0.7087626 -1.2835248
000070 b1 ad 87 bf 3c 7f 20 bf ba b8 24 c0 ac e6 44 bf
       -1.0599881 -0.62694144 -2.5737748 -0.7691448

convs.2.bn1.running_mean f4 [32]
000000 a2 14 de 41 1f e0 8a 3f 3c de 2e c1 aa e7 af 3e
       27.760075 1.0849646 -10.929256 0.34356433
000010 23 8c f9 40 10 00 0a 42 55 fa f9 c0 a5 44 46 c2
       7.7983565 34.50006 -7.811808 -49.567036
000020 3c 73 c0 41 b7 0d 02 c2 1a b2 23 41 68 b0 a7 41
       24.056267 -32.513393 10.230982 20.961136
000030 00 ff 81 41 11 39 d8 c0 32 c1 d4 c0 e4 ac a7 c1
       16.249512 -6.756966 -6.6485834 -20.95942
000040 e5 fa 6d 42 87 0d 9f c1 5c f4 a6 c1 44 5e 01 c1
       59.495014 -19.881605 -20.869316 -8.085514
000050 ce 12 86 c1 06 76 d3 40 86 9c c4 c1 fc 60 66 c2
       -16.759182 6.608157 -24.576427 -57.59471
000060 48 e9 11 41 3e 3a 09 c2 ac 53 37 c0 bd 7f a9 c0
       9.119453 -34.306877 -2.864482 -5.296843
000070 ec de f9 40 e0 5f af c1 68 aa f7 c1 9b 4c 9c c1
       7.808462 -21.921814 -30.958206 -19.537405

convs.2.bn1.running_var f4 [32]
000000 5a dc 4f 42 71 6f 54 42 64 c8 27 42 61 07 41 42
       51.965187 53.10883 41.945694 48.257206
000010 64 f7 c4 41 42 02 48 42 6a 03 d7 41 f3 8b 38 42
       24.620796 50.002205 26.876667 46.13667
000020 46 08 14 42 d7 75 08 42 45 5e b8 41 d9 ec d6 41
       37.00808 34.115078 23.04603 26.865648
000030 15 a2 c9 42 72 67 b0 41 dc 14 a2 41 a6 cc 2c 42
       100.81657 22.05051 20.260185 43.199852
000040 e4 0d 08 42 df 98 b9 42 0b 71 be 41 df 64 2a 42
       34.013565 92.79858 23.805197 42.598507
000050 00 ac 0f 42 d9 0b f4 41 63 92 0e 42 b6 32 ec 41
       35.91797 30.505785 35.642956 29.524761
000060 91 66 9e 42 8f d2 c2 41 db 1a 39 42 11 0f 13 42
       79.200325 24.352812 46.276226 36.764713
000070 7d 1a 39 42 cd 83 2a 42 10 e0 ec 41 09 97 23 42
       46.275867 42.62871 29.609406 40.897495

convs.2.bn2.weight f4 [16]
000000 6f fc ca 3f 28 41 97 3f 7e 62 9c 3f 81 09 ac 3f
       1.5858287 1.1816759 1.2217557 1.34404
000010 05 59 e7 3f 07 46 ac 3f d1 76 61 3f c2 d7 7f 3f
       1.8074042 1.3458871 0.88071924 0.99938595
000020 90 0c e6 3f 06 d6 a9 3f 3d 43 8c 3f c7 ad bd 3f
       1.7972584 1.326844 1.095802 1.4818658
000030 d1 68 8a 3f ba 32 ac 3f e1 39 77 3f 76 aa 90 3f
       1.0813237 1.345298 0.9657269 1.130202

convs.2.bn2.bias f4 [16]
000000 b7 c7 a8 3e 5c 16 4d 3d 36 9b 72 be 21 c0 c5 3e
       0.3296487 0.05007015 -0.23692021 0.38623145
000010 95 1e 9c bf f5 40 55 be ae 77 4f be 5b e3 ac bf
       -1.2196833 -0.2082556 -0.20260498 -1.3506883
000020 bd fe 1e bf c3 47 c7 be dc 1b 64 3d ac 6a e1 bc
       -0.6210745 -0.38921937 0.05569063 -0.027516685
000030 0d 4f 84 bf fd 9b 6c be bf 1d 82 be 74 95 56 be
       -1.0336624 -0.2310638 -0.2541332 -0.2095545

convs.2.bn2.running_mean f4 [16]
000000 7f ea dc 40 29 6f 59 40 a8 c0 79 40 01 49 81 40
       6.903625 3.3974097 3.9023838 4.0401616
000010 fc 7b 09 40 4e 51 d8 40 87 5c 12 41 31 7f 32 40
       2.1481924 6.759925 9.14759 2.7890131
000020 1d 4a b7 40 ad 67 02 40 4e 27 5c 40 b9 db 7f 40
       5.727797 2.0375779 3.439899 3.9977858
000030 ae 20 e6 3f 11 de 8b 40 57 5b f8 3e 67 be 82 40
       1.7978723 4.3708577 0.48507187 4.0857425

convs.2.bn2.running_var f4 [16]
000000 d9 34 6f 43 65 1e b5 40 cb fb 49 41 d4 3e dd 40
       239.20644 5.6599603 12.623973 6.9139194
000010 6e 37 01 41 83 eb b4 41 07 bb 86 42 97 2e 06 41
       8.076033 22.614996 67.36529 8.386374
000020 9d 1c d3 41 bf 93 6c 40 d0 b0 95 40 c2 3f eb 41
       26.388971 3.6965177 4.6778336 29.406132
000030 fe 87 4d 40 b4 2f 82 41 88 d4 49 3f 06 e6 ce 41
       3.2114253 16.273293 0.7883992 25.862316
