cgcnndefect/defect_transfer_40/checkpoint.pth.tar (torch, 208687 bytes, 121 tensors)

embedding.weight f4 [16, 92]
0	0xbefd1dec	-0.4943689
1	0xbd35e993	-0.044412207
2	0x3e804b3f	0.25057408
3	0xbfde82b5	-1.7383639
4	0xbfa06840	-1.2531815
5	0xbe69466e	-0.22780773
6	0x3f27c0d0	0.65528584
7	0x3faf9769	1.3718082
8	0x3f95a2b3	1.1690277
9	0x3f026054	0.50928235
10	0x3fa369d7	1.2766675
11	0xbe677a31	-0.22605206
12	0xbf4d76ca	-0.8025938
13	0x3eb354d6	0.35025662
14	0x3ec9ea42	0.39436537
15	0x3e350f50	0.17681623
16	0xbe986eec	-0.29772127
17	0x3e8c5aef	0.27413127
18	0xbeb91134	-0.36145937
19	0x3f23a668	0.6392579
20	0xbef6280f	-0.48077437
21	0xbdd31ce0	-0.10308242
22	0x3ead8bad	0.33895627
23	0x3ecea63d	0.40361205
24	0x3f14d7bf	0.581417
25	0x3ec43474	0.3832127
26	0xbdc93dc6	-0.098262355
27	0xbf24019c	-0.64064956
28	0x3da959ca	0.08269079
29	0xbdea3325	-0.11435536
30	0x3f192066	0.5981506
31	0x3faadfbf	1.3349532
32	0x3f92ec3d	1.1478344
33	0x3f051dae	0.5199841
34	0xbf1f687a	-0.62268794
35	0xbd52835e	-0.051394813
36	0x3f1fb156	0.6237997
37	0xbedc5d2a	-0.4303983
38	0x3f92da00	1.1472778
39	0x3ecaab17	0.39583656
40	0x3f0004d9	0.50007397
41	0xbd26d471	-0.040729944
42	0xbf1b9531	-0.60774523
43	0xbe62c1fb	-0.2214431
44	0xbe715150	-0.23566175
45	0xbe5c891d	-0.2153668
46	0xbd0d8fc7	-0.034560945
47	0xbe54405b	-0.20727675
48	0xbe8b8eaf	-0.27257296
49	0xbe7998ed	-0.24374743
50	0x3dc4163c	0.09574553
51	0xbe113a01	-0.14182283
52	0x3f14b964	0.58095384
53	0x3f9104a3	1.132954
54	0x3f0d357c	0.55159736
55	0xbf54ec95	-0.83173496
56	0xbe3e9911	-0.18613078
57	0x3ed60392	0.417996
58	0xbe87a42f	-0.2649245
59	0xbd3de057	-0.046356525
60	0x3d9f057a	0.077647164
61	0xbecd8735	-0.40142217
62	0x3e014fa9	0.12628044
63	0x3f8f522e	1.1196954
64	0x3e649bde	0.22325084
65	0x3d078891	0.033089224
66	0x3b82708a	0.003980701
67	0xbfa267e2	-1.2687953
68	0xbe0fd828	-0.14047301
69	0x3dcd04fb	0.100107156
70	0x3f603f0b	0.87596196
71	0xbd1c7f0f	-0.03820711
72	0xbcb75449	-0.022379057
73	0xbdad31c5	-0.084567584
74	0x3cd59031	0.026069732
75	0x3f6af99f	0.9178714
76	0x3ca9f92d	0.0207487
77	0x3df7a1a0	0.120913744
78	0x3c60c41d	0.013718632
79	0x3eb88bad	0.36044064
80	0x3dadf091	0.0849315
81	0xbecd4a27	-0.40095636
82	0x3f21c60d	0.63192827
83	0xbfa83b01	-1.3143007
84	0x3d0e2a15	0.0347081
85	0x3e837602	0.2567597
86	0xbec7c68d	-0.3901867
87	0xbf2b1a52	-0.66837037
88	0x3ed7b689	0.4213145
89	0x3ef7689b	0.48321995
90	0xbee6f07a	-0.45105344
91	0xbdd82628	-0.10554153
92	0x3ec5b235	0.38612524
93	0xbe4a76c2	-0.19771865
94	0x3d6e377d	0.058158386
95	0xbe3e19cd	-0.1856453
96	0x3f5d1b04	0.8636935
97	0xbf32f756	-0.69908655
98	0x3ea873b6	0.3290078
99	0xbde143f0	-0.10999286
100	0x3f46d266	0.7766479
101	0x3f01e2fa	0.50736964
102	0x3edd5f05	0.43236557
103	0xbea0646f	-0.31326625
104	0xbf288e10	-0.6584177
105	0xbd919ae5	-0.07109622
106	0x3e96c71a	0.29448777
107	0x3e86884d	0.26275864
108	0x3ccbc57c	0.024874441
109	0xbd937ba8	-0.0720132
110	0xc023b60b	-2.557986
111	0x3f516c55	0.81805927
112	0x3e81bdd9	0.25340155
113	0xbe96cec0	-0.29454613
114	0x3f80139e	1.0005987
115	0xbd2c2ab8	-0.042032927
116	0xbe059825	-0.1304632
117	0xbfebc2ad	-1.8418785
118	0xbe6c673d	-0.23086257
119	0xbf109b58	-0.56487036
120	0xbe40e329	-0.18836655
121	0x3ed4e962	0.41584307
122	0x3f05af12	0.5222026
123	0x3d48b372	0.048999257
124	0x3f962609	1.1730357
125	0xbf161e49	-0.5863996
126	0xbd193a61	-0.03740919
127	0x3c5d4868	0.0135060325
128	0x3f383f9e	0.7197207
129	0xbd82164d	-0.0635191
130	0xbcbbafc8	-0.022910967
131	0x3f3afc83	0.7304155
132	0xbd9ecd92	-0.07754053
133	0xbe97ecfd	-0.29672995
134	0x3eb32fc4	0.3499738
135	0xbf1335f8	-0.57504225
136	0xbe754e1e	-0.2395558
137	0xbe487902	-0.19577411
138	0xbe5cc6cc	-0.2156021
139	0x3ede9b35	0.4347779
140	0x3c8b6110	0.017014056
141	0x3f30d194	0.6906979
142	0x3e03ab5a	0.12858334
143	0x3d0070f6	0.031357728
144	0xbe0f6f8d	-0.14007397
145	0x3e819de8	0.25315785
146	0x3f021365	0.50810844
147	0xbf27aceb	-0.65498227
148	0xbead7d51	-0.3388467
149	0x3ea148f5	0.31500974
150	0xbeaff1e6	-0.3436424
151	0x3e8bde83	0.273182
152	0x3dd51870	0.10405052
153	0x3ddeb959	0.10875196
154	0x3ef67413	0.48135433
155	0xbc6b94ba	-0.014378721
156	0xbad2738c	-0.0016056164
157	0xbc8da679	-0.017291294
158	0xbcb48f6c	-0.022041045
159	0x3dfedb9f	0.12444233
160	0x3f6ec649	0.9327131
161	0xbca7b100	-0.020470142
162	0xbc38ba50	-0.011274889
163	0xbdb85c35	-0.09001962
164	0xbef32219	-0.47486952
165	0xbeaa6bc5	-0.33285347
166	0x3ea0855e	0.3135175
167	0xbe82bf39	-0.25536516
168	0xbdc02dea	-0.093837574
169	0xbdc1f397	-0.09470289
170	0x3d6895a7	0.056783345
171	0xbd077058	-0.033066124
172	0x3ec8cb4a	0.39217597
173	0x3eb2d09d	0.34924784
174	0x3e0f24e4	0.13978916
175	0x3fef610d	1.8701493
176	0x3ebea94f	0.37238547
177	0xbf33727e	-0.70096576
178	0xbecdf145	-0.40223137
179	0x3e9116e2	0.2833777
180	0xbf5dddcc	-0.8666656
181	0xbf46b135	-0.77614146
182	0xbeee137b	-0.46499237
183	0xbeb87285	-0.3602487
184	0x3ef2a2be	0.47389787
185	0x3e94c0bb	0.29053292
186	0xbf9b12a6	-1.2115066
187	0x3f7cbb3e	0.9872321
188	0x3f31c431	0.6943999
189	0x3fd351d7	1.650935
190	0x400d9567	2.2122438
191	0x3f3028ac	0.6881206
192	0xbf043c2c	-0.51654315
193	0xbfc1c1ff	-1.5137328
194	0xbfdfaeb2	-1.7475188
195	0xbf485ed4	-0.78269696
196	0xbfb1b0c0	-1.3882065
197	0xbeff960d	-0.49919167
198	0x3e5e4362	0.21705392
199	0xbe1bcf63	-0.1521583
200	0x3dfef3af	0.12448823
201	0xbda2c973	-0.0794858
202	0xbfb81cbf	-1.4383773
203	0xbce21215	-0.027596513
204	0xbeac8865	-0.3369781
205	0x3f87a82c	1.0598197
206	0xbefb68f9	-0.49103525
207	0xbd931fee	-0.071838245
208	0xbe365882	-0.178072
209	0xbef135d5	-0.47111383
210	0x3f1e9ce5	0.6195815
211	0x3e0f8e5e	0.14019153
212	0x3e6a5756	0.22884879
213	0x3f01e9f3	0.50747603
214	0x3e8beb4f	0.27327964
215	0x3e2ecf0f	0.17071174
216	0x3e55f95f	0.20895909
217	0xbf901d8f	-1.125902
218	0xbebd185c	-0.36932647
219	0xbdd00716	-0.101576015
220	0x3d15778e	0.03649097
221	0xbe6bb95f	-0.23019932
222	0x3eac4185	0.33643737
223	0x3f730d7c	0.9494245
224	0xbf799aba	-0.9750172
225	0xbe2c7ef9	-0.16845311
226	0x3de530e4	0.11190966
227	0x3e2ccd58	0.16875207
228	0x3e90fa21	0.28315833
229	0x3ebd2aec	0.3694681
230	0x3e827c26	0.25485343
231	0xbeb1b20d	-0.34706154
232	0xbd143ed7	-0.03619274
233	0x3f5c4642	0.86044705
234	0x3f0021c0	0.500515
235	0x3ee205fb	0.44145188
236	0x3e051128	0.12994826
237	0xbf30492f	-0.6886167
238	0xbfc8024d	-1.5625702
239	0xc0194e73	-2.3954132
240	0xbf30dd84	-0.69088006
241	0xbf413ad8	-0.75480413
242	0x3f163845	0.5867961
243	0xbe932954	-0.28742468
244	0xbe0ae7f2	-0.13565043
245	0xbed8139c	-0.4220246
246	0x3f2ade95	0.66745883
247	0xbcf49f59	-0.02986114
248	0xbe3a20dd	-0.18176599
249	0xbd0e1910	-0.03469187
250	0xbd60e8bb	-0.05490945
251	0xbf712267	-0.9419312
252	0xbe5427ce	-0.2071831
253	0xbcf9a9ae	-0.030476417
254	0xbee41fbc	-0.4455546
255	0xbd1def60	-0.038558364

embedding.bias f4 [16]
0	0x3f0cb630	0.54965496
1	0x3f034d57	0.51289886
2	0xbf1c45eb	-0.61044186
3	0xbe4ff790	-0.20309281
4	0x3e35d280	0.1775608
5	0xbe2b8e04	-0.16753393
6	0x3f568490	0.83796024
7	0x3f0e5989	0.5560537
8	0xbe481e65	-0.19542845
9	0x3ecf9337	0.40542004
10	0x3eeeb05f	0.46618935
11	0xbed1591b	-0.40888295
12	0x3e6b3bf4	0.22972089
13	0x3c47b747	0.012189693
14	0xbef894de	-0.48551077
15	0x3ea46add	0.3211278

convs.0.fc_full.weight f4 [32, 56]
0	0xbe6a9bd0	-0.22911
1	0xbeabfc6f	-0.3359103
2	0x3d9c2392	0.07623972
3	0x3eaf6643	0.34257707
4	0x3f048376	0.51763093
5	0xbf809a93	-1.0047172
6	0xbd3c78fe	-0.046013825
7	0x3c1bd7fb	0.009511943
8	0xbdb031f3	-0.08603277
9	0xbf9b86c2	-1.21505
10	0x3f865017	1.0493191
11	0xbef1f2d3	-0.47255573
12	0x3ee1f8f6	0.44135255
13	0xbf5be851	-0.8590136
14	0xbeb50751	-0.35357144
15	0x3f3cfc86	0.7382282
16	0xbf2316f7	-0.63706917
17	0xbe99f24d	-0.30067673
18	0x3e68dd71	0.22740723
19	0x3e550a0e	0.20804617
20	0xbf0d6913	-0.55238456
21	0x3ecb4d79	0.39707544
22	0x3f4ddf57	0.80418915
23	0xbecac702	-0.39604956
24	0xbe5f1bce	-0.2178795
25	0x3f26a82d	0.65100366
26	0x3ed70077	0.41992542
27	0xbe01c672	-0.12673357
28	0xbedaf51d	-0.42765132
29	0xbf0b5a2b	-0.5443446
30	0x3ee6fd63	0.45115194
31	0xbe22b02f	-0.15887521
32	0x3fca8617	1.5822171
33	0x3fe58f0f	1.7934283
34	0x3fa68263	1.3008541
35	0xbf6d901b	-0.9279801
36	0xbf80b7e7	-1.0056123
37	0x3fcd7cf4	1.6053758
38	0x3fcdf103	1.6089176
39	0x3fa96003	1.3232425
40	0xbf680f18	-0.9064803
41	0xbf957e59	-1.1679183
42	0x3fccea85	1.600907
43	0x3fdc749b	1.7223085
44	0x3fbd5718	1.4792204
45	0xbf6961a9	-0.9116464
46	0xbf94e546	-1.1632469
47	0x3fbfc3ef	1.4981669
48	0x400713bb	2.1105793
49	0x402bafbc	2.682601
50	0x4038841a	2.8830628
51	0xbfb92fc4	-1.4467702
52	0xbfd3a908	-1.6535959
53	0xbfae30bf	-1.3608626
54	0xbed1c938	-0.4097383
55	0x3eab588f	0.33466002
56	0x3f1ababc	0.60441184
57	0xbeb7eaa1	-0.35921195
58	0xbf3d0da1	-0.7384892
59	0xbe07c52c	-0.13258809
60	0xbf800c97	-1.0003842
61	0x3fc5d389	1.545518
62	0xbf6f460d	-0.93466264
63	0x3f722ae2	0.94596684
64	0x3f0eddb2	0.5580703
65	0x3f97c032	1.1855528
66	0x3cbccd9a	0.023047257
67	0x4009b67b	2.1517627
68	0x3f5978b8	0.8494983
69	0xbca16ed4	-0.019706167
70	0xbe4186bd	-0.18899055
71	0xbf018e72	-0.5060798
72	0xbe572a28	-0.21012175
73	0x3f28d2b4	0.6594651
74	0x3e69bbba	0.22825518
75	0xbf6b1a29	-0.9183679
76	0x3f71a97d	0.94399244
77	0xbe919d0d	-0.28440133
78	0x3fb46150	1.4092197
79	0xbeea7c39	-0.457979
80	0x3f45057f	0.7696151
81	0x3f56a6f7	0.8384852
82	0xbf6d7398	-0.9275451
83	0xbe7cba60	-0.24680471
84	0xbd0fef17	-0.035140123
85	0xbf9a1d91	-1.2040273
86	0xbe5c2daa	-0.21501794
87	0x3e3a7b12	0.1821101
88	0x3f184baf	0.59490484
89	0x3f25ac3a	0.6471592
90	0x3fa4dbf5	1.2879626
91	0x3ff6c5d1	1.9279119
92	0x3ec41068	0.38293767
93	0x3f0bd8a2	0.5462743
94	0x3f225c56	0.63422143
95	0x3fad07ae	1.3517969
96	0x3ff5bc67	1.9198121
97	0x3eadfc5a	0.3398159
98	0x3eca07d5	0.394591
99	0x3f4a4f6f	0.79027456
100	0x3fb24ee4	1.3930326
101	0x3feb925b	1.8404039
102	0x3ec42e75	0.38316694
103	0xbfba0f95	-1.4536005
104	0xbf350fad	-0.70727044
105	0x3f0e04b6	0.5547594
106	0x40057004	2.084962
107	0xc03f0def	-2.9852254
108	0xc01a332f	-2.409374
109	0x3fbf92cc	1.4966674
110	0x4030c5e4	2.7620783
111	0x40060fae	2.094707
112	0x3e033a35	0.12815173
113	0x3fbf64bb	1.4952615
114	0xbf1d6178	-0.6147685
115	0x3dd7c1c2	0.10535003
116	0xbc31acc7	-0.010844416
117	0xbf7e9415	-0.99444705
118	0x3f436570	0.76326656
119	0x3f11e066	0.5698303
120	0xbe3aee6f	-0.18255018
121	0x3e9c76b7	0.30559322
122	0xbd326cda	-0.04356084
123	0x3eb440af	0.352056
124	0x3b0f6443	0.002187983
125	0xbf479872	-0.7796699
126	0x3d5f5c5f	0.05453145
127	0xbf02143f	-0.50812143
128	0x3fa63144	1.2983785
129	0xbe027e23	-0.1274343
130	0xbf298f29	-0.6623407
131	0x3f5a8738	0.8536258
132	0x3dfb09f5	0.122577585
133	0x3e95f685	0.29289642
134	0xbf586387	-0.84526867
135	0x3fae1c44	1.3602376
136	0x3df0fd79	0.11767096
137	0xbf9de10b	-1.2334303
138	0x3ebe132f	0.3712401
139	0xbc83d318	-0.016091868
140	0xbe8a48b6	-0.270086
141	0x3d945ada	0.07243891
142	0xbe452bbf	-0.19254969
143	0x3ee30f89	0.4434779
144	0x3d629a2e	0.05532282
145	0x3f1f884a	0.62317336
146	0x40268f58	2.602499
147	0x3fc4169b	1.5319399
148	0x3f9c40d9	1.220729
149	0x3d24e419	0.040256593
150	0x3f37ff87	0.7187428
151	0x402de424	2.7170496
152	0x3fdac1a6	1.7090347
153	0x3f7c49cc	0.98550105
154	0xbe49eb48	-0.19718659
155	0x3ef3dbdd	0.4762868
156	0x40330dd8	2.79772
157	0x3fcc3072	1.5952284
158	0x3f812311	1.0088826
159	0x3ee496da	0.4464634
160	0x3f1bf1f9	0.60916096
161	0x3f277730	0.6541624
162	0x3f59c08e	0.8505944
163	0xc06db3bc	-3.714095
164	0xc088141a	-4.252454
165	0xc0919666	-4.549609
166	0xc0766f0f	-3.8505285
167	0xc03778d5	-2.86675
168	0xbf04550a	-0.5169226
169	0xbf032443	-0.51227206
170	0x3f0edd38	0.55806303
171	0xbdb8e659	-0.0902831
172	0x3e4765c3	0.19472413
173	0xbf9dd703	-1.2331241
174	0xbdccaa52	-0.099934235
175	0xbf3dc442	-0.7412759
176	0x3cce89bd	0.025212163
177	0x3eb3395c	0.350047
178	0x3e7057b6	0.23470959
179	0x3d1e7cfc	0.038693413
180	0x3f39d345	0.72587997
181	0xbe6f668f	-0.23378967
182	0x3f138e97	0.5763945
183	0x3e82bd0e	0.25534862
184	0xbe884067	-0.26611635
185	0x3f212d33	0.62959594
186	0x3eff2e60	0.4984007
187	0x3e7ec50d	0.24879856
188	0xbf415218	-0.7551589
189	0x3fa66121	1.2998391
190	0x3f7c1aa0	0.98478127
191	0x3f600653	0.8750965
192	0xbda455c1	-0.08024169
193	0x3df60f6b	0.120146595
194	0x3ecce93b	0.4002169
195	0xbf117626	-0.56820905
196	0xbf0ea861	-0.55725676
197	0x3f8d9866	1.1062133
198	0xbfa431da	-1.2827713
199	0x3e3d7779	0.18502606
200	0x3f99bb77	1.2010335
201	0x3f4550d0	0.77076435
202	0xc0372219	-2.8614562
203	0xc0610994	-3.5162096
204	0xc0275a02	-2.6148686
205	0x3fa59f51	1.2939245
206	0x3f5b224f	0.85599226
207	0xc034def2	-2.8261075
208	0xc05e93d4	-3.4777727
209	0xc02178d4	-2.5229998
210	0x3fa67d05	1.3006903
211	0x3f478c48	0.7794843
212	0xc03b078d	-2.9223359
213	0xc0678113	-3.617253
214	0xc023294d	-2.5493958
215	0x404b9db4	3.1815004
216	0x4014549b	2.317664
217	0x3f9ec2ee	1.2403238
218	0x3e95ae4d	0.29234543
219	0x3f5ab025	0.85425025
220	0x3faa32bb	1.3296732
221	0x3fe8ddb3	1.8192657
222	0x400bed4d	2.1863587
223	0x402423dd	2.564689
224	0x3e88673d	0.26641265
225	0xbcf12b56	-0.02943961
226	0xbeadd079	-0.33948115
227	0x3d10fb55	0.03539594
228	0x3c37ecdf	0.011225908
229	0x3db40580	0.087901115
230	0x3d995058	0.074860275
231	0xbe8e6c99	-0.27817228
232	0x3f02a04c	0.51025844
233	0xbe1bfa9f	-0.15232323
234	0x3caec280	0.02133298
235	0xbe4e536e	-0.20149013
236	0x3caeb1a9	0.02132495
237	0xbd8160fb	-0.06317326
238	0x3f6e31e6	0.9304489
239	0xbe37cb81	-0.17948724
240	0x3e4146d4	0.18874675
241	0xbcb459ad	-0.022015417
242	0x3e2ea4ab	0.17055003
243	0x3f82e8ee	1.0227334
244	0xbe1dccbe	-0.15410134
245	0x3e8e9c99	0.2785385
246	0x3f2a09b0	0.6642103
247	0x3d9a9aac	0.075490326
248	0xbe3ae6c5	-0.18252094
249	0x3e3fe3cb	0.1873924
250	0x3bf6a000	0.0075263977
251	0x3dc03591	0.09385217
252	0x3c98f552	0.018671665
253	0xbdca537d	-0.098792054
254	0xbed45d74	-0.4147755
255	0x3da9abd5	0.082847275

convs.0.fc_full.bias f4 [32]
0	0xbd2572e6	-0.04039278
1	0x3e9eda09	0.31025723
2	0xbdf249a4	-0.11830452
3	0xbcc86845	-0.024463782
4	0xbe0f2b3f	-0.13981341
5	0xbefb487e	-0.49078745
6	0xbe40a3d9	-0.18812503
7	0xbe26fa23	-0.16306357
8	0x3c8f3e95	0.017485896
9	0xbcd57881	-0.026058437
10	0xbe01ebb1	-0.12687565
11	0xbcf21ac7	-0.029553784
12	0x3c95c400	0.018281937
13	0x3b0df903	0.0021663315
14	0x3e335706	0.17513666
15	0x3e9eec7c	0.31039798
16	0xbdba59f1	-0.09099186
17	0x3cf145e9	0.029452281
18	0xbe010be4	-0.12602192
19	0x3e7623f1	0.24037148
20	0x3bbb6f30	0.0057200417
21	0x3e8bacbe	0.2728023
22	0xbcd5191f	-0.026012955
23	0x3c5060ea	0.012718419
24	0xbd1c5a87	-0.03817227
25	0xbe0efa70	-0.13962722
26	0x3df01d69	0.117243595
27	0xbc19bec1	-0.009383858
28	0x3e13d92d	0.14438315
29	0x3e65c92c	0.22440022
30	0x3eee471b	0.46538624
31	0x3ed388f3	0.4131542

convs.0.bn1.weight f4 [32]
0	0x4055faa2	3.3434224
1	0x407cce9f	3.9501112
2	0x409db22e	4.9280005
3	0x404bc0e7	3.1836488
4	0x4036a29d	2.8536751
5	0x3fe074ec	1.7535682
6	0x4088629d	4.2620378
7	0x40852174	4.1603336
8	0x409aa27d	4.832335
9	0x40e8583e	7.2607718
10	0x403a34b1	2.909466
11	0x4093fb10	4.6243973
12	0x40a4091c	5.126112
13	0x408111ef	4.033439
14	0x404e4c6e	3.223415
15	0x40ba9b03	5.8314223
16	0x3fcc02ff	1.5938414
17	0x3f95e215	1.170962
18	0x3f5a7f49	0.8535047
19	0x3f1d5d70	0.614707
20	0x40822d51	4.068032
21	0x3f850067	1.0390748
22	0x3ff5bcdb	1.9198259
23	0x3fab686d	1.3391243
24	0x3f3ff3a3	0.74981135
25	0x3f5444e4	0.8291762
26	0x3fd6f0ca	1.6792233
27	0x40239769	2.5561163
28	0x3f946aec	1.159513
29	0x3f525825	0.8216575
30	0x3ff593ab	1.918569
31	0x3fd0b040	1.6303787

convs.0.bn1.bias f4 [32]
0	0xbf22b797	-0.63561386
1	0x3f839ffc	1.0283198
2	0x3e4e40ab	0.20141856
3	0x3db19193	0.08670344
4	0xbf90cab9	-1.1311866
5	0x3f1ccf12	0.61253464
6	0xbecd9e2b	-0.40159735
7	0xbf186bb5	-0.5953935
8	0x3f4fd377	0.81182045
9	0x3eed9710	0.46404314
10	0xbeffbe55	-0.499499
11	0xbf1dae31	-0.6159392
12	0xbf556936	-0.83363664
13	0xba16d984	-0.0005754458
14	0xbf982d47	-1.1888818
15	0xbf74211c	-0.9536302
16	0xbf17ad85	-0.59249145
17	0x3ec909ba	0.39265233
18	0x3f291577	0.6604838
19	0x3efd5e4c	0.49486005
20	0xbe8ea387	-0.27859136
21	0x3eb3048f	0.34964415
22	0xc020bb81	-2.5114443
23	0xbfd561a0	-1.6670418
24	0x3f91b15c	1.1382251
25	0x3ef8e302	0.48610693
26	0xc032c815	-2.793462
27	0xc090644a	-4.5122423
28	0xbeeadfda	-0.4587391
29	0x3ea17f29	0.31542328
30	0xc01cfbd9	-2.4528716
31	0x3e86f06c	0.26355302

convs.0.bn1.running_mean f4 [32]
0	0x41910abf	18.130247
1	0x41174846	9.455145
2	0x41bc0f18	23.50737
3	0xc1662b06	-14.385504
4	0xc035f4fc	-2.8430777
5	0x41210e61	10.06601
6	0xc16950a4	-14.582188
7	0xc1a5aa80	-20.708252
8	0x403bba78	2.9332561
9	0x408e7877	4.452205
10	0xc181af34	-16.210548
11	0x4063ed8f	3.5613744
12	0xc25141f9	-52.314426
13	0x412854d3	10.520709
14	0xc16daa92	-14.854143
15	0x40f4f4aa	7.654866
16	0xc09fe00f	-4.996101
17	0x421032fd	36.049793
18	0xc11ed6d8	-9.927452
19	0x4080869a	4.016431
20	0xc0c5dc65	-6.1831536
21	0x41731a98	15.193993
22	0xc1cf5547	-25.91664
23	0xc1a0dd95	-20.108194
24	0xc0984c70	-4.7593307
25	0xc14fbb7b	-12.983272
26	0xc1362fda	-11.3866825
27	0xc18f33eb	-17.90035
28	0x41947236	18.555767
29	0xc0d3babe	-6.6165457
30	0xc21595d9	-37.396336
31	0xbf647773	-0.89244765

convs.0.bn1.running_var f4 [32]
0	0x427fb4a6	63.926414
1	0x4208726c	34.11174
2	0x41da7fc0	27.312378
3	0x4281120a	64.53523
4	0x4229ab96	42.417564
5	0x4256fbe7	53.746
6	0x424402d6	49.00277
7	0x41a62329	20.767168
8	0x426dea5a	59.47886
9	0x42313558	44.302094
10	0x423be9da	46.97837
11	0x4170f16e	15.058943
12	0x41ed0871	29.629122
13	0x428c94c4	70.29056
14	0x41c8ba13	25.090857
15	0x42e9d329	116.91242
16	0x41dc5f9b	27.546682
17	0x42177c92	37.87165
18	0x420bf9c0	34.993896
19	0x42818530	64.76013
20	0x4301fb78	129.9823
21	0x426867b8	58.101288
22	0x420a95d6	34.646324
23	0x41c340bd	24.40661
24	0x42e4346d	114.102394
25	0x424174ce	48.364067
26	0x424682dd	49.627796
27	0x41aed14d	21.852198
28	0x424bb7c0	50.929443
29	0x42ee5164	119.158966
30	0x41ab55be	21.416866
31	0x4257cdfd	53.95116

convs.0.bn2.weight f4 [16]
0	0x3f8c6fad	1.0971581
1	0x3fb3f951	1.406046
2	0x3ff4a932	1.9114134
3	0x3fb5bd24	1.4198346
4	0x3fd21fcb	1.6415952
5	0x3fc20456	1.5157573
6	0x3fe18417	1.7618436
7	0x3fcc8cee	1.5980508
8	0x3fbefcfa	1.4920952
9	0x3f3d07f2	0.7384025
10	0x3fcdfbc4	1.6092458
11	0x3f9e3ddf	1.2362632
12	0x3fb378fa	1.4021294
13	0x3f7c4947	0.9854931
14	0x3f95bcbc	1.1698222
15	0x3fbaf7f4	1.4606919

convs.0.bn2.bias f4 [16]
0	0x3f033fe2	0.5126935
1	0x3e9f3c94	0.31100905
2	0xbf158ff5	-0.58422786
3	0xbcb77b82	-0.02239776
4	0x3ef0ad9c	0.47007453
5	0xbcd19c5b	-0.025587251
6	0x3f1f9c1d	0.62347585
7	0x3f70b14b	0.9402053
8	0xbe748858	-0.23880136
9	0x3f108b2a	0.5646235
10	0x3e7e7750	0.24850202
11	0xbeded5d0	-0.435225
12	0x3ebbe8bb	0.36700997
13	0xbe77bd7d	-0.24193378
14	0xbea7d0bf	-0.32776448
15	0x3e79e868	0.24405062

convs.0.bn2.running_mean f4 [16]
0	0x40482a2f	3.1275747
1	0x40e65fd2	7.199197
2	0x4108d618	8.552269
3	0x40d01141	6.502106
4	0x4172f544	15.184879
5	0x41151a5a	9.3189335
6	0x4013781f	2.3042066
7	0x401da0d3	2.462941
8	0x412f281f	10.947295
9	0x40a4f254	5.154581
10	0x3ff595f1	1.9186383
11	0x3f9abac4	1.2088246
12	0x40273aef	2.612972
13	0x410c8e62	8.784761
14	0x4022944a	2.5403008
15	0x40efbcdb	7.4918036

convs.0.bn2.running_var f4 [16]
0	0x40d42d26	6.6305113
1	0x42316122	44.344856
2	0x425a01bb	54.50169
3	0x410b3e0b	8.702647
4	0x43278bae	167.54562
5	0x414b3150	12.699539
6	0x414a16f2	12.630602
7	0x405367c3	3.303208
8	0x4228675c	42.100937
9	0x425a9af6	54.65133
10	0x3fa94c2f	1.3226374
11	0x40c99935	6.299952
12	0x40a776cb	5.233251
13	0x40fd7220	7.9201813
14	0x40f28375	7.578547
15	0x4280f8a9	64.485664

convs.1.fc_full.weight f4 [32, 56]
0	0x3f201f62	0.62547886
1	0xbe68f8c4	-0.22751147
2	0xbf3bfa98	-0.7342925
3	0xbfbdde2e	-1.4833429
4	0xbf44624a	-0.7671248
5	0xbd7cf131	-0.061753456
6	0xbeeec14c	-0.4663185
7	0xbf5871fa	-0.84548914
8	0xbe5a1491	-0.21296908
9	0x3e96983e	0.29413027
10	0xbf026476	-0.5093454
11	0xbe046d75	-0.1293238
12	0xbe6696d2	-0.22518471
13	0xbe994311	-0.2993398
14	0xbded191e	-0.11577056
15	0xbf15814a	-0.58400404
16	0xbf1be8e4	-0.6090224
17	0xbcd2d367	-0.02573557
18	0xbe7ac97f	-0.24490927
19	0x3e934c89	0.2876933
20	0x3fb02f25	1.3764387
21	0x3e8f59d4	0.2799822
22	0xbfa223dd	-1.2667195
23	0x3eb69133	0.35657653
24	0x3cd10587	0.025515331
25	0xbe45f8d6	-0.19333205
26	0x3ecd17e0	0.40057278
27	0x3e8de787	0.27715704
28	0x3d655e0c	0.055997893
29	0xbe5ea90e	-0.21744177
30	0x3f665d54	0.8998616
31	0x3f01a694	0.50644803
32	0xc0b97188	-5.795109
33	0xc0c1663a	-6.043729
34	0xc0c071b4	-6.01388
35	0x3fe48abd	1.785484
36	0x4068be11	3.6366007
37	0xc0b2efad	-5.5917573
38	0xc0c18533	-6.0475097
39	0xc0beedec	-5.966543
40	0x3fd2f438	1.648078
41	0x407539e3	3.8316581
42	0xc0aff0a5	-5.4981256
43	0xc0bddcab	-5.933187
44	0xc0c30509	-6.0943646
45	0x3fdf85af	1.7462672
46	0x40736cd1	3.8035166
47	0xbf9efdd8	-1.2421217
48	0xbfc606b6	-1.5470798
49	0xc00d400d	-2.2070343
50	0xc04bb240	-3.1827545
51	0xbfbb0bce	-1.4612978
52	0xbfd03216	-1.6265285
53	0xbf2da7c6	-0.67834127
54	0xbf23cd9c	-0.6398561
55	0xbfd516a0	-1.664753
56	0x3fb41185	1.4067847
57	0xbdd6ca2e	-0.104877815
58	0x407634f2	3.8469815
59	0x3f4b2eea	0.7936846
60	0x3db2bc04	0.087272674
61	0x3e7cdbcd	0.24693222
62	0xbeea7b51	-0.45797208
63	0xbf53077b	-0.8243329
64	0x3c9f774e	0.019466069
65	0x3f8c0947	1.0940331
66	0xbefb30ec	-0.49060762
67	0x3df588bc	0.11988971
68	0xbe6c2487	-0.23060809
69	0xbf077282	-0.529091
70	0x3cb0298b	0.021504184
71	0xbce0ba27	-0.027432514
72	0xbe70ca33	-0.23514633
73	0x3ede66c0	0.43437767
74	0x3fa3c8a8	1.279561
75	0x3e08c5ec	0.13356751
76	0x3f0bdeb1	0.54636675
77	0x3fcd0b2b	1.6019033
78	0x3f002e96	0.50071084
79	0x3f779ab7	0.9672045
80	0x3f5d2b00	0.8639374
81	0x3f388d23	0.7209036
82	0x3f46c863	0.77649516
83	0xbf849e92	-1.0360892
84	0x4011d0de	2.2783732
85	0x3f5b5529	0.8567682
86	0x3e1d0740	0.15334797
87	0xbfa5f9a0	-1.2966805
88	0x4015dd73	2.3416412
89	0x403b41e0	2.9258957
90	0x3e20ceb5	0.15703852
91	0xbfa9fc32	-1.3280089
92	0xbfba3553	-1.4547523
93	0x40168e5f	2.3524396
94	0x4040c514	3.0120287
95	0x3ec2b631	0.38029626
96	0xbf9cc029	-1.2246143
97	0xbfb955cc	-1.4479308
98	0x401708f1	2.3599207
99	0x40445ae9	3.0680487
100	0x3e7faf8e	0.24969313
101	0xbf89b15f	-1.0757254
102	0xbfc8f435	-1.5699526
103	0x3fb40e25	1.4066817
104	0x3fea428a	1.8301556
105	0x3ffba434	1.9659486
106	0x3ffe2b03	1.9856876
107	0x40934c5a	4.6030703
108	0x409f9b66	4.9877195
109	0x3f6ac252	0.9170276
110	0xbf48d5d7	-0.78451294
111	0xbfc0a869	-1.5051395
112	0x3f8e87ad	1.1135155
113	0x3edce7ca	0.4314559
114	0xbf0862d1	-0.5327578
115	0x3f31230f	0.6919412
116	0xbe94feb1	-0.29100564
117	0x3fd3394b	1.650186
118	0x3ee0786f	0.43841884
119	0x3f0238e9	0.5086809
120	0xc0063f09	-2.0975974
121	0x3ca62bf9	0.02028464
122	0x3e9328fb	0.28742203
123	0xbeec7477	-0.46182606
124	0x3eb4fe73	0.3535038
125	0xbcf194ab	-0.029489836
126	0xbe903f5b	-0.28173336
127	0x3e90b59a	0.2826355
128	0x3d6be8b9	0.05759499
129	0x400dd411	2.2160685
130	0xbf5c36c9	-0.86021096
131	0xbf4cb0e1	-0.79957396
132	0x3cec6ff2	0.028861973
133	0x3f39c839	0.7257114
134	0xbe9f8990	-0.3115964
135	0xbfd9ca70	-1.7014904
136	0xc002b65f	-2.042381
137	0x3eac4d8f	0.33652923
138	0x3c2fe162	0.010734888
139	0xbf0f60a4	-0.56006837
140	0xbe3719de	-0.17880961
141	0xbe870f37	-0.26378796
142	0xbed00ff4	-0.4063717
143	0xbf832950	-1.0246983
144	0x3e6a7af9	0.22898473
145	0x3ec15fa0	0.3776827
146	0x3f89021e	1.0703771
147	0x3dbc0e39	0.091824
148	0xbe0a54cf	-0.13508914
149	0x3eb54103	0.35401163
150	0x3ed7d92f	0.42157885
151	0x3f86883e	1.0510328
152	0x3d74ddce	0.059781842
153	0xbe08a22e	-0.13343117
154	0x3e926c66	0.28598326
155	0x3ed03db2	0.4067207
156	0x3f99a9da	1.200496
157	0x3e2b0370	0.1670053
158	0xbe443b5e	-0.19163272
159	0xbe691c48	-0.22764695
160	0x3f16a7fe	0.58850086
161	0x3fb56a42	1.4173052
162	0x4018411a	2.3789735
163	0xbed24834	-0.41070712
164	0xbd2cfd9e	-0.042234056
165	0x3eb10e96	0.3458144
166	0x3eb42530	0.35184622
167	0xbdc6cbea	-0.09706862
168	0xbe620ec0	-0.22075939
169	0xbc4d5cc1	-0.012534321
170	0xbedd8519	-0.43265608
171	0x3f484737	0.78233665
172	0xbfc64b9d	-1.5491825
173	0x3e5f7551	0.21822096
174	0xbf2acd56	-0.6671957
175	0xbf8cdf1e	-1.100559
176	0xbb863954	-0.0040961895
177	0x3f802476	1.0011127
178	0x3f612b25	0.8795646
179	0xbf03d3b0	-0.51494884
180	0x3ebeae74	0.37242472
181	0xbe605508	-0.21907437
182	0xc009b174	-2.1514559
183	0xbf715755	-0.94273883
184	0xbd7f15f5	-0.0622768
185	0x3e650aaf	0.22367357
186	0xbe1590c5	-0.14606006
187	0xbeaee288	-0.34157205
188	0x3ee53dfa	0.44773847
189	0xbf47a4f1	-0.77986056
190	0x3e8312a3	0.25600156
191	0xbf55ddda	-0.83541644
192	0x3f2fea46	0.6871685
193	0xbec4042b	-0.3828443
194	0x3eb73542	0.3578282
195	0x3e4f2020	0.20227098
196	0xbf505a6a	-0.8138796
197	0x3e35628b	0.17713372
198	0xbf901f86	-1.125962
199	0xbeb00713	-0.34380397
200	0xbeb8cba2	-0.3609286
201	0xbe7f1bad	-0.24912901
202	0x3f3d6ff7	0.7399897
203	0x3f5615ec	0.836272
204	0x3f0e988a	0.55701506
205	0xbe959571	-0.29215577
206	0xbd4ceeed	-0.050032545
207	0x3f57e446	0.8433269
208	0x3f709a1d	0.9398516
209	0x3f302a00	0.68814087
210	0xbed050c6	-0.40686625
211	0xbe2bc809	-0.16775526
212	0x3f542ea2	0.82883656
213	0x3f55be20	0.8349323
214	0x3f172299	0.59037167
215	0x3e8924b7	0.26785824
216	0x3eab9111	0.33509114
217	0x3e57631b	0.210339
218	0x3dea8e64	0.1145294
219	0xc0384662	-2.8792958
220	0xc0475011	-3.1142619
221	0xc02504f2	-2.5784268
222	0xc01b7e4b	-2.4295833
223	0xc020db90	-2.513401
224	0xbe058ce3	-0.13042025
225	0x3d300f1b	0.042983156
226	0x3eae59cc	0.34052885
227	0x3e11ce1a	0.14238778
228	0xbee14fa7	-0.44006082
229	0x3e012137	0.12610327
230	0xbe8f8eda	-0.28038675
231	0xbefc5130	-0.4928069
232	0xbea5faaf	-0.3241782
233	0x3f31c1e9	0.6943651
234	0x3fa08c07	1.2542733
235	0xc00234bf	-2.0344694
236	0x3fc8b966	1.5681579
237	0xc011ed97	-2.2801263
238	0x3fc001c6	1.5000541
239	0xbf151d6e	-0.5824803
240	0x3e36cc4b	0.17851369
241	0x3f81616a	1.0107853
242	0xbe7742b9	-0.24146546
243	0xbf85cef9	-1.0453788
244	0xbf3cadad	-0.7370251
245	0x3f4ac045	0.7919963
246	0xbe41a950	-0.18912244
247	0xbf7895cc	-0.9710357
248	0x3eab81d5	0.3349749
249	0xbf05ff82	-0.52343
250	0xbf35b872	-0.70984566
251	0xbe945f5f	-0.28979012
252	0xbf7c27f1	-0.98498446
253	0xbeb8e020	-0.36108494
254	0xbf0f2860	-0.5592098
255	0xbf3e42df	-0.7432079

convs.1.fc_full.bias f4 [32]
0	0xbe488746	-0.19582853
1	0x3eb57d4a	0.3544715
2	0xbcc9c2d0	-0.024629027
3	0xbed09878	-0.40741324
4	0x3e801fba	0.25024205
5	0x3e84a1e3	0.2590476
6	0x3e2ec2f4	0.17066556
7	0xbe2a922a	-0.1665732
8	0xbdcf61c9	-0.10126073
9	0x3e193a94	0.14963752
10	0x3e4f042b	0.20216434
11	0xbdaf1a35	-0.085499205
12	0x3ea06991	0.3133054
13	0x3efd02ae	0.49416107
14	0x3cdb0c04	0.026739128
15	0x3d35f248	0.04442051
16	0xbf1bb1f5	-0.60818416
17	0xbe8c3df3	-0.27391014
18	0x3eedaf62	0.4642287
19	0x3e03cc66	0.1287094
20	0xbdfa9aaa	-0.12236531
21	0xbe3ebad9	-0.18625964
22	0x3e1a89c7	0.1509162
23	0xbee704d6	-0.45120877
24	0xbe2a752c	-0.1664626
25	0x3e163557	0.14668785
26	0x3f13ed91	0.5778437
27	0x3bb88a8b	0.00563175
28	0x3edaeafe	0.4275741
29	0x3efb481c	0.49078453
30	0xbcd54dd1	-0.026038082
31	0xbbda20b0	-0.0066567287

convs.1.bn1.weight f4 [32]
0	0x404febd7	3.2487695
1	0x40e1daa2	7.0579386
2	0x3fe380d5	1.7773691
3	0x40b5cd72	5.681329
4	0x4024f310	2.5773354
5	0x406c7556	3.6946616
6	0x409f8b6e	4.98577
7	0x405813ea	3.3762155
8	0x40cb2158	6.3478203
9	0x4030dab6	2.763349
10	0x40733e64	3.800683
11	0x406acd1f	3.6687696
12	0x40328169	2.7891486
13	0x408e7cbd	4.452727
14	0x3fa49ee8	1.2860994
15	0x40a027a0	5.004837
16	0x400521be	2.0801845
17	0x401426d7	2.3148706
18	0x3fa16f1f	1.2612036
19	0x3f494858	0.7862601
20	0x4067465b	3.6136692
21	0x3f72a0c0	0.94776535
22	0x4053ab66	3.3073363
23	0x4091af71	4.552666
24	0x3f82857b	1.0196985
25	0x4016993b	2.3531024
26	0x3fefaee0	1.8725243
27	0x4029f03e	2.6552882
28	0x40c7f10c	6.2481747
29	0x4022e1f9	2.5450423
30	0x3fe3486a	1.7756474
31	0x4002cac7	2.0436265

convs.1.bn1.bias f4 [32]
0	0xbfad86f3	-1.3556808
1	0xbf9fe822	-1.2492716
2	0xbf6407af	-0.89074224
3	0x3d9d1c4f	0.07671415
4	0xbf5d26ce	-0.86387336
5	0xbe113398	-0.14179838
6	0xbf234b5f	-0.6378688
7	0xbd953d85	-0.072871245
8	0xbe9d404c	-0.30713117
9	0xbeae7766	-0.3407547
10	0xbee384ad	-0.4443716
11	0xc000b15c	-2.0108252
12	0x3ea7aa68	0.32747197
13	0xbf82a90f	-1.0207843
14	0xbed794e7	-0.4210579
15	0xbf6662b2	-0.8999435
16	0xc0303821	-2.7534258
17	0xbfa4f916	-1.2888515
18	0xbf4ea7c4	-0.8072474
19	0x3e1cd3b7	0.15315138
20	0xc012a076	-2.2910438
21	0x3da08f50	0.07839835
22	0xbf85dbd3	-1.045771
23	0xbf704e2d	-0.93869287
24	0x3f8464cb	1.034326
25	0xbfa1b094	-1.2632012
26	0xbf22c57f	-0.63582605
27	0xbfc9f406	-1.5777595
28	0xbfd8c287	-1.6934365
29	0xbf63943f	-0.8889808
30	0xbf8dff3c	-1.1093516
31	0xbe74a0e4	-0.238895

convs.1.bn1.running_mean f4 [32]
0	0xc22fb084	-43.92238
1	0x41b1e696	22.23759
2	0x40e6b871	7.210015
3	0xbfd62f00	-1.6733093
4	0x3ea9bb34	0.33150637
5	0xc106adf3	-8.417468
6	0xc1bd4d84	-23.66285
7	0xc13360d3	-11.211139
8	0xc17ae7b7	-15.681571
9	0xbe3d15be	-0.18465325
10	0xc0879a84	-4.237612
11	0xc1938d22	-18.443913
12	0xc0478bb9	-3.117903
13	0xc2634d45	-56.82546
14	0xc178a431	-15.540086
15	0xc19ab8b3	-19.340185
16	0xc22a7309	-42.61234
17	0x40cc5fdc	6.3867016
18	0x40a98b34	5.2982426
19	0xbf815a31	-1.0105649
20	0xc10dd812	-8.865252
21	0xc1a9e729	-21.237871
22	0xc19f9ae5	-19.950632
23	0xbeade18d	-0.33961144
24	0xc184f905	-16.621592
25	0xc101094a	-8.064768
26	0xc1a30122	-20.375553
27	0xc1a52012	-20.64066
28	0x40d44acc	6.6341305
29	0xc181eb4c	-16.239891
30	0xc176d292	-15.426409
31	0xc1f9ddcd	-31.233301

convs.1.bn1.running_var f4 [32]
0	0x424db31c	51.42491
1	0x4211879a	36.382423
2	0x414e135d	12.879727
3	0x414e4567	12.891944
4	0x41da6fdd	27.30462
5	0x41f2c6ca	30.347065
6	0x420ecc93	35.69978
7	0x4281510f	64.65832
8	0x41d436bc	26.526726
9	0x4292ca9d	73.39573
10	0x42b9f11a	92.9709
11	0x427c2699	63.037693
12	0x41a80a9c	21.00518
13	0x41d08525	26.065012
14	0x41c31d46	24.389294
15	0x40c08464	6.016161
16	0x419e4b36	19.786724
17	0x423e02dc	47.502792
18	0x4238f276	46.23678
19	0x42c2840b	97.2579
20	0x419e1486	19.760021
21	0x42323abe	44.557365
22	0x42803407	64.101616
23	0x421598e6	37.399315
24	0x426c2fa1	59.046513
25	0x421d4c0c	39.324265
26	0x426b52fd	58.831043
27	0x41e64787	28.784925
28	0x4228cf0f	42.202206
29	0x41b62875	22.769754
30	0x41a96b8a	21.17751
31	0x42223689	40.553257

convs.1.bn2.weight f4 [16]
0	0x3f9af0f7	1.2104787
1	0x400966d6	2.1469016
2	0x3fa3cb42	1.2796404
3	0x3fff0747	1.9924096
4	0x3fb717aa	1.4304097
5	0x3fea82a6	1.8321121
6	0x3f5b9f01	0.85789496
7	0x3f9fea36	1.249335
8	0x3fc5b1e8	1.5444918
9	0x3f48746e	0.7830266
10	0x3ff4867e	1.9103544
11	0x3fc494d3	1.5357918
12	0x4019b5c6	2.4017196
13	0x3fb9dc16	1.452029
14	0x3f2faef0	0.6862631
15	0x3fce4530	1.6114864

convs.1.bn2.bias f4 [16]
0	0x3f095d97	0.5365843
1	0x3e6ef4c2	0.23335555
2	0xc00235bd	-2.03453
3	0x3f0bb9e9	0.5458055
4	0xbf5ddb59	-0.8666282
5	0xbebe2459	-0.37137106
6	0xbf750279	-0.957069
7	0x3de060c7	0.10955959
8	0xbddb2f64	-0.107023984
9	0x3f09c216	0.53811777
10	0x3970b40d	0.00022955258
11	0x3eb95bd4	0.36202872
12	0x3fc8fd3f	1.5702285
13	0xbf050db6	-0.51974046
14	0xbeeea694	-0.46611464
15	0xbebde114	-0.37085783

convs.1.bn2.running_mean f4 [16]
0	0x3fe6656e	1.7999704
1	0x40dd09be	6.907439
2	0x40199648	2.3997974
3	0x409ccbd5	4.899882
4	0x4093a809	4.614262
5	0x4084b933	4.1476073
6	0x4118fd4c	9.56184
7	0x40f738fa	7.725705
8	0x412305ca	10.188913
9	0x40a998a6	5.299884
10	0x40ecc54b	7.3990836
11	0x3fc0173f	1.5007094
12	0x4181268a	16.143818
13	0x40b17ca0	5.546463
14	0x40810c70	4.0327682
15	0x4096d960	4.714035

convs.1.bn2.running_var f4 [16]
0	0x4159a103	13.6018095
1	0x42349044	45.140884
2	0x411fbd2f	9.983687
3	0x41784b3d	15.518369
4	0x42159e2c	37.404465
5	0x4117b376	9.481314
6	0x431469da	148.41348
7	0x42c02ce3	96.08767
8	0x42262f10	41.54596
9	0x41f372e1	30.431093
10	0x4244f7b0	49.241882
11	0x4085cc6e	4.181205
12	0x43277050	167.43872
13	0x41b862a0	23.048157
14	0x4239341a	46.30088
15	0x421a7b1e	38.62023

convs.2.fc_full.weight f4 [32, 56]
0	0x3e579fcd	0.21057053
1	0x3eab57c7	0.33465406
2	0x3f2bda0e	0.671296
3	0x3ef92f72	0.4866901
4	0xbff3883c	-1.902595
5	0xbfa01bf9	-1.2508537
6	0xbf231ecf	-0.63718885
7	0x3f836e46	1.0268028
8	0x3e294a1b	0.16532175
9	0xbec8ab55	-0.39193216
10	0xbeda1b6d	-0.4259905
11	0xbff53a6e	-1.9158456
12	0xbfb673f2	-1.4254134
13	0xbe3e60fe	-0.18591687
14	0xbedf0bf8	-0.4356382
15	0x3e8ebb79	0.27877405
16	0xbf8287dc	-1.0197711
17	0x3f1bde35	0.60885936
18	0x3f61a351	0.88139826
19	0x3e55b4cd	0.20869751
20	0xbecb1a32	-0.39668423
21	0xbfb5a3ac	-1.4190574
22	0xbf988873	-1.1916641
23	0x3e86e8d2	0.26349503
24	0x3f24347e	0.64142597
25	0xbe44ee39	-0.192315
26	0x3ea32efe	0.3187179
27	0xbfb17a4c	-1.3865447
28	0xbeaaeaf0	-0.33382368
29	0xbe8eb2c8	-0.27870774
30	0xbf4ad446	-0.79230154
31	0x3f48cd07	0.78437847
32	0x3e8a4f4a	0.27013618
33	0x3e099635	0.13436206
34	0x3f53b625	0.82699805
35	0x3cee88b3	0.029117918
36	0xbcc8eece	-0.024527933
37	0x3eb1c9ec	0.34724367
38	0x3e9ae24c	0.30250776
39	0x3f5c77d5	0.8612035
40	0x3d3b27b3	0.045692157
41	0xbe04a402	-0.12953189
42	0x3e3df8db	0.18551962
43	0x3ed053a3	0.4068881
44	0x3f82c242	1.0215533
45	0x3dc16509	0.09443099
46	0x3c963001	0.018333437
47	0x3df02a1c	0.11726782
48	0x3ee35c72	0.44406468
49	0x3edfa54a	0.43680793
50	0x3f5c9129	0.86158997
51	0xc04310e3	-3.0479057
52	0xbfcb6051	-1.5888768
53	0x3f59b38c	0.8503959
54	0x3f3d3aec	0.7391803
55	0x3f73ee3a	0.9528538
56	0x3e937475	0.28799787
57	0xbf39b904	-0.72547936
58	0xbfe6551f	-1.7994727
59	0xbde8692f	-0.11348187
60	0x3fc4694d	1.5344635
61	0x3e1ab210	0.15106988
62	0xbfc0622c	-1.502996
63	0xbea18b2e	-0.31551498
64	0xc00e3eec	-2.2225904
65	0x3facaafb	1.3489679
66	0xbf1618ab	-0.5863139
67	0x3fbb8f0f	1.4653033
68	0x3f17b408	0.5925908
69	0xbf99ef8f	-1.2026232
70	0xbd8d69e4	-0.06904963
71	0x3d1056e0	0.0352391
72	0xbeddd08b	-0.43323168
73	0xbe8b45ad	-0.27201596
74	0xbf6aa89e	-0.9166354
75	0xbe816e61	-0.25279525
76	0x3f13ad01	0.5768586
77	0x3ede4b7a	0.4341696
78	0x3e80d2eb	0.25160918
79	0x3fe4d39d	1.7877079
80	0x3f2e7311	0.6814433
81	0xbb90d65f	-0.0044200863
82	0x3f416a13	0.7555248
83	0x3f31ecf2	0.69502175
84	0xbd0eb780	-0.034842968
85	0x3ef7c6c9	0.4839385
86	0xbe2f22dc	-0.17103142
87	0xbe8ea69f	-0.27861497
88	0x3e837805	0.25677505
89	0x3efbb081	0.491581
90	0x3faa5fc9	1.3310481
91	0x3ed0cb1a	0.40779954
92	0x3dc420ec	0.09576592
93	0x3eb03e3b	0.34422478
94	0x3f1bc940	0.6085396
95	0x3fa6f732	1.3044188
96	0x3f089f18	0.5336776
97	0x3c2ede47	0.010673112
98	0x3eb84984	0.35993588
99	0x3f34c5b6	0.7061418
100	0x3face106	1.3506172
101	0x3f127a73	0.5721809
102	0x3e1e09f3	0.15433483
103	0xbef86eef	-0.48522136
104	0xbe6be07b	-0.23034851
105	0xbea857d8	-0.3287952
106	0xbd52449b	-0.05133496
107	0xbf3725e6	-0.71542203
108	0xbe77f77f	-0.24215506
109	0xbf98b50f	-1.1930255
110	0xbfcbedb1	-1.5931913
111	0xbf7fe7a0	-0.99962807
112	0x3dee70f5	0.116426386
113	0xbfcb74c6	-1.5895011
114	0xbee9e88c	-0.45685232
115	0xbf53900c	-0.82641673
116	0xc0101828	-2.2514744
117	0xbea2c426	-0.31790274
118	0x3e99ea4d	0.3006157
119	0xbe126d62	-0.14299539
120	0x3e675fcd	0.22595139
121	0x3e88bab8	0.26704955
122	0xbf3864e4	-0.72028947
123	0xbf92c6b9	-1.1466895
124	0xbe1b0b40	-0.1514101
125	0x3d7c2d9c	0.061566934
126	0x3ee9e280	0.45680618
127	0x3e9dede5	0.30845562
128	0x3e654c88	0.22392476
129	0xc02d0e2c	-2.70399
130	0xbecdaa31	-0.40168908
131	0xbe827c34	-0.25485384
132	0xbf94abc9	-1.1614925
133	0x3eb822e4	0.3596412
134	0xbf90c0f9	-1.130889
135	0xbf359876	-0.7093576
136	0x3e92c477	0.28665516
137	0x3e5bcd24	0.21464974
138	0xbf086cab	-0.53290814
139	0xbfe707d8	-1.8049269
140	0xbf35e873	-0.71057814
141	0xbf870567	-1.0548524
142	0x3eb93615	0.36174074
143	0x3d984ced	0.074365474
144	0xc026b8c0	-2.6050262
145	0xc022a4b7	-2.5413034
146	0xbff7d7ee	-1.9362772
147	0x3fb21feb	1.391599
148	0x400bfadf	2.187187
149	0xc0244c01	-2.567139
150	0xc024474f	-2.5668523
151	0xbfefced9	-1.8735
152	0x3fbceef8	1.4760427
153	0x400864dc	2.131156
154	0xc019e49d	-2.4045784
155	0xc027b210	-2.620243
156	0xbfe9dafe	-1.8269956
157	0x3fc3b552	1.528971
158	0x401207c7	2.2817247
159	0xbf0373de	-0.51348674
160	0x3e4bef59	0.19915523
161	0x3f437028	0.7634301
162	0x3f6f37ca	0.934445
163	0xc088ac5c	-4.27104
164	0xc0848fae	-4.142539
165	0xbfeb8241	-1.8399125
166	0xbf14d69e	-0.5813998
167	0x3e9297e4	0.28631508
168	0xba03be60	-0.00050256215
169	0xbeac68b3	-0.3367363
170	0xbe399eb4	-0.18126947
171	0x3f264684	0.6495135
172	0xbf6317f0	-0.887084
173	0xbf035989	-0.51308495
174	0x3f75f886	0.9608234
175	0x3eecc1dc	0.46241653
176	0x3f8f3282	1.1187289
177	0x3d0d29f6	0.034463845
178	0xbf958bcb	-1.1683286
179	0xbfe4297a	-1.7825158
180	0x3ef4b8ae	0.4779715
181	0x3f4d4f61	0.8019925
182	0x3e76edf8	0.24114215
183	0xbea5fe43	-0.3242055
184	0xbf3d2e8f	-0.7389917
185	0x3f0def53	0.55443305
186	0x3ecccdf1	0.4000087
187	0x3f309153	0.6897175
188	0xbe0b15c0	-0.13582516
189	0xbf06a8b1	-0.5260115
190	0x3e74f28f	0.23920654
191	0x3f20420f	0.626008
192	0x3f6d2858	0.92639685
193	0x3f34562d	0.70443994
194	0xbf291dee	-0.66061294
195	0xbfb7fa25	-1.4373213
196	0x3df6f286	0.120579764
197	0x3f5883c6	0.8457607
198	0xbde7334f	-0.11289083
199	0x3f1b5e18	0.6069045
200	0x3fd06e03	1.6283573
201	0x40086ca9	2.131632
202	0x408b3f41	4.3514714
203	0x3ed40175	0.41407362
204	0xbeccbffc	-0.39990222
205	0x3fbcd196	1.475146
206	0x400158d2	2.0210462
207	0x408e9d1b	4.456678
208	0x3ef5cbcb	0.48007044
209	0xbea755b5	-0.32682577
210	0x3fb1dbe8	1.3895235
211	0x3ffd6126	1.9795272
212	0x408ed887	4.4639316
213	0x3eaf2b38	0.3421266
214	0xbea6f7a1	-0.326108
215	0xbdd6b498	-0.10483664
216	0xbee43972	-0.44575077
217	0xbedec893	-0.435124
218	0xbe10d4b5	-0.14143641
219	0xc033a294	-2.806798
220	0xc00003a0	-2.0002213
221	0xbec33c77	-0.3813207
222	0xbe6846d7	-0.22683273
223	0x3d9f3047	0.0777288
224	0xbf990782	-1.1955416
225	0xbf94ab02	-1.1614687
226	0x3fcb8fe4	1.5903287
227	0xbe7e3956	-0.2482656
228	0xbf05673f	-0.52110666
229	0x3ff06484	1.8780675
230	0x3dc1c042	0.094604984
231	0x3fc66fbf	1.5502852
232	0xbf710165	-0.9414275
233	0xbf1ef25c	-0.6208856
234	0xbf30c36e	-0.690482
235	0x3de573f3	0.11203756
236	0xbfb00bc5	-1.3753592
237	0xbeb1f513	-0.3475729
238	0xbebdd23a	-0.37074453
239	0xbeb0fb51	-0.3456674
240	0x3f636568	0.8882661
241	0x3f20f467	0.6287293
242	0x3edad1d5	0.42738214
243	0x3e7c5e93	0.24645452
244	0xbfc3515f	-1.5259207
245	0x3fb1ff6f	1.3906077
246	0xbeca94ed	-0.39566746
247	0x3f4803b3	0.78130645
248	0x3fca6aaa	1.5813801
249	0x3f6b59a1	0.9193364
250	0x3e158456	0.14601263
251	0x3f3f2395	0.7466367
252	0xbdf03629	-0.1172908
253	0xbe8c91f1	-0.27455094
254	0x3f257883	0.6463701
255	0x3eb29607	0.34880087

convs.2.fc_full.bias f4 [32]
0	0x3e0b9a4a	0.13633075
1	0xbe064796	-0.13113245
2	0xbdf02ace	-0.11726914
3	0xbe0831cb	-0.13300245
4	0xbc044a1e	-0.008074312
5	0xbe359da8	-0.17735922
6	0xbd5f3bcd	-0.05450039
7	0xbe1d9e50	-0.15392423
8	0xbca644e6	-0.020296525
9	0x3c978c0b	0.018499395
10	0x3c82edaf	0.015982477
11	0x3dcc68c6	0.099809214
12	0xbd40481c	-0.04694377
13	0x3e505146	0.20343503
14	0x3d0e64d1	0.034764115
15	0xbde25fcd	-0.11053429
16	0x3dded730	0.108808875
17	0x3e046101	0.12927629
18	0xbe67d763	-0.22640757
19	0x3d8b4f96	0.06802289
20	0x3dc4c555	0.096079506
21	0xbdc3c7d3	-0.09559598
22	0x3e91ff70	0.28515196
23	0xba9c24ba	-0.0011912801
24	0xbe2b7338	-0.16743171
25	0x3e4ce10e	0.20007727
26	0x3e04fde0	0.1298747
27	0x3dc40490	0.09571183
28	0xbbc27b7d	-0.005935131
29	0x3d911320	0.07083726
30	0x3e460039	0.19336022
31	0xbdad4abe	-0.084615216

convs.2.bn1.weight f4 [32]
0	0x3f72892c	0.9474056
1	0x404ee14b	3.2325008
2	0x4016e5fb	2.357787
3	0x3ee088e4	0.4385444
4	0x3f91423f	1.1348342
5	0x40944523	4.6334395
6	0x40c6fa44	6.21805
7	0x4094e934	4.653467
8	0x40b30efd	5.5955796
9	0x40027bca	2.0388055
10	0x403e94be	2.9778285
11	0x4078044b	3.875262
12	0x3f9a371f	1.2048072
13	0x40865791	4.1981893
14	0x3f1db8d7	0.6161017
15	0x40b219e6	5.5656614
16	0x3e868aa5	0.26277652
17	0x3f2bb1d8	0.67068243
18	0x40425588	3.0364704
19	0x3ec9bd42	0.39402205
20	0x40150d6b	2.328944
21	0x3fcb6ae1	1.5891992
22	0x404da1ea	3.2130075
23	0x3f8cd9d3	1.1003975
24	0x3fd07c63	1.628796
25	0x3f560bae	0.8361157
26	0x3f9855eb	1.190122
27	0x409fa823	4.9892745
28	0x3fd30c02	1.648804
29	0x3fcf35d4	1.6188302
30	0x3fb1a318	1.3877897
31	0x404e3384	3.2218943

convs.2.bn1.bias f4 [32]
0	0x3ed6f13d	0.41980925
1	0xbfbda4f7	-1.4815968
2	0x3f28ef44	0.6599009
3	0x3eabeb2a	0.33577853
4	0xbf20d00f	-0.6281747
5	0x3cc7576d	0.02433368
6	0xbf3dba87	-0.74112743
7	0xbfbeff01	-1.4921571
8	0x3e86d480	0.26334
9	0xbf40b16d	-0.7527073
10	0xbdd65bd3	-0.10466733
11	0x3e1131f6	0.14179215
12	0xbfff76e0	-1.9958153
13	0xbe2db3c8	-0.16963112
14	0xbf0eacab	-0.5573222
15	0xbf3aeb6c	-0.73015475
16	0x3f41ec98	0.7575164
17	0xbea6ac03	-0.3255311
18	0xbfcb1b0c	-1.5867629
19	0xbd648efc	-0.055800423
20	0xbf606abc	-0.87662864
21	0x3e15e83a	0.14639369
22	0xbf204b6c	-0.62615085
23	0xbfa3050c	-1.2735915
24	0xbee41c59	-0.44552878
25	0xbfd45e87	-1.6591347
26	0xbecf33a4	-0.40469086
27	0xbf8fb824	-1.122807
28	0xc037db9e	-2.8727794
29	0xbfd0de05	-1.6317755
30	0xbfadae0a	-1.3568738
31	0xbf675e01	-0.90377814

convs.2.bn1.running_mean f4 [32]
0	0xc12af915	-10.685811
1	0x417062cc	15.02412
2	0xc2298e2f	-42.38885
3	0x41b64cf8	22.787582
4	0xc13dd3ab	-11.864177
5	0xbfd48c20	-1.6605263
6	0xc20055fc	-32.08397
7	0xc1298c2b	-10.596721
8	0xc1c893e6	-25.072216
9	0xc1ae985a	-21.82439
10	0xc1b80b51	-23.005526
11	0xc1f12d32	-30.147068
12	0xc205e216	-33.470787
13	0xc1e3d9a2	-28.481266
14	0xc18ace34	-17.350685
15	0xc1866c40	-16.802856
16	0xc17b78e0	-15.7170105
17	0xc140d938	-12.053032
18	0xc1c88a6a	-25.067585
19	0x419792dc	18.946709
20	0xc1b2219c	-22.26641
21	0x420c50f2	35.07905
22	0xc254a390	-53.15973
23	0xc1d9cf35	-27.226175
24	0xc201f85c	-32.49254
25	0xc2113719	-36.303806
26	0xc14486a8	-12.282875
27	0xc0153b61	-2.3317492
28	0xc18604d6	-16.752361
29	0xc1dfaa25	-27.958078
30	0xc1b22aaa	-22.270832
31	0xc20d21c1	-35.282963

convs.2.bn1.running_var f4 [32]
0	0x428a232e	69.06871
1	0x422ad922	42.712044
2	0x434b2b06	203.16806
3	0x421f73f6	39.863243
4	0x42ce36cb	103.10702
5	0x42542ea3	53.045544
6	0x424f635b	51.847027
7	0x4237d196	45.954674
8	0x42bbb6a9	93.85676
9	0x4321956a	161.58365
10	0x41f77ed6	30.936932
11	0x42aa3262	85.098404
12	0x42aa54af	85.1654
13	0x42097afa	34.370094
14	0x429475c2	74.229996
15	0x41f69d18	30.826706
16	0x42a7bfa6	83.87431
17	0x41a19915	20.199747
18	0x42ed55f5	118.667885
19	0x42368429	45.629063
20	0x42c4632f	98.19372
21	0x420ef004	35.73439
22	0x426ee2db	59.72154
23	0x42537e2e	52.873222
24	0x425b836e	54.87835
25	0x43638702	227.52737
26	0x42cbd5c6	101.91753
27	0x4266561b	57.584087
28	0x42599312	54.393623
29	0x4224c8a3	41.195934
30	0x42a29a09	81.30085
31	0x427fff98	63.999603

convs.2.bn2.weight f4 [16]
0	0x3fcfef7b	1.6244959
1	0x4043adb3	3.0574768
2	0x3f986d7d	1.1908413
3	0x3feefb46	1.8670433
4	0x40056bbf	2.0847013
5	0x4025e179	2.5918868
6	0x3fcea4b9	1.6144019
7	0x40125b4b	2.286822
8	0x3fb70e9c	1.4301333
9	0x3fda78d1	1.706812
10	0x3fc53426	1.540654
11	0x3fda5891	1.7058278
12	0x3fa417cd	1.2819763
13	0x3fc9afc2	1.5756762
14	0x40084949	2.129473
15	0x3fd04343	1.6270527

convs.2.bn2.bias f4 [16]
0	0x3e6c7626	0.23091945
1	0xbb8562f4	-0.004070634
2	0xbf71a502	-0.94392407
3	0xbc24272f	-0.010019108
4	0xc033cfd0	-2.8095589
5	0xbef68a2e	-0.48152298
6	0xbf66e16f	-0.90187734
7	0xbe9e468d	-0.309132
8	0xbee3d156	-0.44495648
9	0x3e7b48ee	0.24539539
10	0xbe31ba10	-0.17356133
11	0xbf4fe4fc	-0.8120878
12	0xbf42650c	-0.75935435
13	0xbf1d734c	-0.61504054
14	0xbd6dfe17	-0.058103647
15	0xbeb4c667	-0.3530762

convs.2.bn2.running_mean f4 [16]
0	0x4108e560	8.556
1	0x4013b19d	2.3077157
2	0x40f61f31	7.6913075
3	0x409f26c4	4.973482
4	0x40a67c23	5.2026534
5	0x40878b0b	4.235723
6	0x40f79956	7.737468
7	0x3fda1258	1.7036848
8	0x40af2c24	5.4741383
9	0x3fc8aa6c	1.5677009
10	0x4097f133	4.7481933
11	0x411c05f2	9.7514515
12	0x3e37ab9d	0.17936559
13	0x4035de8c	2.8417082
14	0x4010a3a3	2.2599876
15	0x40b9a682	5.8015757

convs.2.bn2.running_var f4 [16]
0	0x413d7cb6	11.842947
1	0x40af9bf6	5.487788
2	0x4302f455	130.95442
3	0x40550480	3.3283997
4	0x42527eac	52.623703
5	0x416a3794	14.638569
6	0x42eb537b	117.66305
7	0x40710431	3.7658808
8	0x41d34b16	26.411663
9	0x403c2439	2.9397109
10	0x41a4572c	20.542564
11	0x438a2081	276.25394
12	0x3ce3dae5	0.027814338
13	0x414290f4	12.160389
14	0x40b5d21f	5.6818995
15	0x42911036	72.53166

convs.3.fc_full.weight f4 [32, 56]
0	0x3f509d0b	0.8148963
1	0x3ec63a01	0.38716128
2	0x3fca2e08	1.5795298
3	0x3f2ed02e	0.68286407
4	0xbd560bb5	-0.05225726
5	0x3f825b9d	1.0184208
6	0xbf5f7057	-0.8728079
7	0xbd9c399d	-0.07628176
8	0xbfc8ed5c	-1.5697436
9	0x3f5bd201	0.85867316
10	0xbfc7d051	-1.5610448
11	0x3f4975d3	0.7869541
12	0xbf743c76	-0.95404756
13	0x3e37cc86	0.17949113
14	0x3dc0562a	0.093914345
15	0xbe6d7651	-0.23189665
16	0xbf2fb7c4	-0.6863978
17	0x3ead4aed	0.33846226
18	0x3fd5ea97	1.6712216
19	0x3e4e8243	0.20166878
20	0xbe1cf2b2	-0.15326956
21	0x3f390abb	0.72282
22	0x3f563dbe	0.8368796
23	0xbefb4f5b	-0.4908398
24	0x3e8be534	0.27323306
25	0xbea7451f	-0.32669923
26	0x3d3575ed	0.044301916
27	0x3ecb56fd	0.39714804
28	0x3f919f23	1.137669
29	0x3f5d4e8c	0.8644798
30	0xbe7917c7	-0.24325477
31	0x3f8cc44c	1.0997405
32	0x3f93a554	1.1534829
33	0x3fd874d8	1.6910658
34	0x40ade349	5.433995
35	0x3f85fb0d	1.046724
36	0x3d8dfd52	0.06933083
37	0x3f9a8225	1.2070967
38	0x3fde72e4	1.7378812
39	0x40ba8c86	5.8296537
40	0x3f4ac578	0.79207563
41	0x3dbf5832	0.09342994
42	0x3f78d996	0.9720701
43	0x3fcbf6bc	1.5934672
44	0x40bc7629	5.889424
45	0x3f621055	0.8830617
46	0x3e234f09	0.15948118
47	0xbf2390a5	-0.63892585
48	0xbf07908f	-0.52954954
49	0xbea92394	-0.33034956
50	0x3eeb01cc	0.45899808
51	0xc03d6ed6	-2.95989
52	0xbff5c0f7	-1.9199513
53	0x3ea4e9a1	0.32209495
54	0x3f485da4	0.78267884
55	0x3f3f2eec	0.7468097
56	0xbea3f65e	-0.320239
57	0x3f90f98c	1.1326156
58	0x3f204d3f	0.6261787
59	0xbd4bf33a	-0.049792506
60	0xbfe64615	-1.7990137
61	0x3f6ac0c6	0.917004
62	0xbf9f52bc	-1.2447124
63	0xbeb1edf8	-0.34751868
64	0xbf95dac6	-1.1707389
65	0x3dd9f308	0.10642058
66	0xbee3cd94	-0.4449278
67	0x3f2d27c6	0.67638814
68	0x3e3c4eb7	0.18389402
69	0xbf9a243e	-1.204231
70	0xbf917a5e	-1.1365469
71	0xbe0335d8	-0.12813509
72	0xbf7f18e0	-0.9964733
73	0x3dd513fa	0.10404201
74	0x3ef7289d	0.48273173
75	0xbedcfebe	-0.43163103
76	0xbf832908	-1.0246897
77	0x3fa08f8d	1.2543808
78	0x3f2f29ba	0.68423045
79	0x3f9472a5	1.1597487
80	0x3f49713b	0.786884
81	0xbf30acf0	-0.6901388
82	0x3f72da67	0.94864506
83	0xbece5f6b	-0.40307173
84	0x3fb4b7d9	1.4118606
85	0xbe8477c0	-0.25872612
86	0xbf543c70	-0.8290472
87	0x3e4cbcc6	0.19993886
88	0x3d9b797f	0.07591533
89	0x3f3d448d	0.73932725
90	0x40b13bb9	5.5385404
91	0x404151e5	3.0206234
92	0x3fff2545	1.9933249
93	0xbdd51182	-0.1040373
94	0x3f4ed2ca	0.8079039
95	0x40b12527	5.535785
96	0x40416359	3.0216887
97	0x3fe444ad	1.7833458
98	0x3b0d1df8	0.0021532755
99	0x3f556a50	0.83365345
100	0x40b44d5a	5.6344423
101	0x403e5cda	2.9744172
102	0x3fd9192f	1.696081
103	0xbfbd3bea	-1.4783909
104	0xbf43e35c	-0.765188
105	0xbe30662a	-0.17226472
106	0x3ef22e0c	0.47300756
107	0xbfe2ab66	-1.7708557
108	0xbf6f4a4c	-0.93472743
109	0xc01003e9	-2.2502387
110	0xc06684d3	-3.601857
111	0xc0713027	-3.768564
112	0x3e8ccd46	0.2750036
113	0xbce48371	-0.027894707
114	0x400041cb	2.0040157
115	0xbdbc0d8d	-0.09182272
116	0x3df8c5e9	0.12147123
117	0xbf0f30f1	-0.55934054
118	0x3f50dd72	0.815879
119	0x3f1ea3d8	0.61968756
120	0x3c9b8952	0.018986378
121	0x3f1d83dc	0.61529326
122	0xbea65acb	-0.32491145
123	0x3d86d153	0.06582894
124	0xbf77d143	-0.96803683
125	0x3e604a29	0.2190329
126	0x3fe3c072	1.7793105
127	0xbf62271c	-0.88340926
128	0x3f243e04	0.6415713
129	0x3e92b509	0.28653744
130	0x400902d8	2.1407986
131	0xbed0793f	-0.40717503
132	0x3f384156	0.71974695
133	0xbf5ff6ef	-0.87486166
134	0x3e6f9e5e	0.23400256
135	0x3ef0cda1	0.47031882
136	0x3ea13d25	0.31491962
137	0x3efba154	0.4914652
138	0x3dce3b07	0.10069852
139	0xbf586337	-0.8452639
140	0xbe229133	-0.15875702
141	0x3ec1ec0a	0.37875396
142	0x3f845c5b	1.0340685
143	0x3efdff6f	0.49608943
144	0xc0104a83	-2.2545478
145	0xc03c71fe	-2.9444575
146	0xc09a32b7	-4.818691
147	0xbf7e9a92	-0.99454606
148	0x3e820c13	0.25399837
149	0xc0023a64	-2.034814
150	0xc02e0937	-2.7193124
151	0xc09c3e14	-4.882578
152	0xbf60be7f	-0.87790674
153	0x3ebc7d6c	0.3681444
154	0xbfe6cd93	-1.8031486
155	0xc029a3f6	-2.6506324
156	0xc09478cc	-4.6397457
157	0xbf89e171	-1.0771924
158	0x3ec4e56b	0.38456282
159	0xbf0c4b2b	-0.548022
160	0xbbe4c764	-0.006981777
161	0x3dbf92c0	0.09354162
162	0x3f0524ac	0.5200908
163	0xbfbc1286	-1.4693153
164	0xbed53280	-0.4164009
165	0x3ff0f976	1.882613
166	0x3fb9898b	1.44951
167	0x3f240da3	0.6408331
168	0x3c6ef51e	0.014584808
169	0xbf538adb	-0.8263375
170	0x3f5d535d	0.8645533
171	0x3f9d5585	1.2291723
172	0xbf9f3b4b	-1.243997
173	0x3f2a6cb2	0.66572106
174	0xbec07e92	-0.37596565
175	0xbdf1fbce	-0.11815606
176	0xbf830f85	-1.0239111
177	0x3d0ad51e	0.03389465
178	0xbfc3b946	-1.5290916
179	0x3ccfe6fa	0.025378693
180	0x3d76d60e	0.060262732
181	0x3e864439	0.26223925
182	0xbd4b9fe1	-0.04971302
183	0xbe1b263b	-0.15151303
184	0xbf0efb4a	-0.55852187
185	0x3f2e0409	0.6797491
186	0x3fb52fb4	1.4155183
187	0x3f152617	0.58261245
188	0xbd1014dc	-0.035176143
189	0xbf26b6d9	-0.65122753
190	0x3f629be3	0.88519114
191	0xbd721180	-0.05909872
192	0x3e7f4ca1	0.24931575
193	0xbe2df99a	-0.16989747
194	0xbe9702fc	-0.29494464
195	0xbeaed70c	-0.34148443
196	0x3f17e276	0.59329927
197	0x3f617a1f	0.88076967
198	0xbee10077	-0.43945667
199	0x3f8ffc05	1.1248785
200	0x3fb7e3bf	1.4366378
201	0x40062124	2.0957727
202	0x409a9669	4.8308606
203	0x3eff13d3	0.49819812
204	0xbe9f7a61	-0.31148055
205	0x3fafeed7	1.3744763
206	0x4006cc6a	2.1062264
207	0x409fddcc	4.995825
208	0x3eb2e75f	0.34942147
209	0xbe958ffb	-0.2921141
210	0x3fb65cf8	1.4247122
211	0x40010b6a	2.0163217
212	0x40a5e80b	5.1845756
213	0x3ef405ae	0.47660583
214	0xbea15846	-0.3151266
215	0xbe90288f	-0.28155944
216	0xbedcc7b1	-0.43121102
217	0xbea717e1	-0.32635406
218	0x3d5b008e	0.053467326
219	0xc02a2695	-2.6586049
220	0xbfe16927	-1.7610215
221	0x3f3e1f13	0.74266165
222	0x3f852d31	1.0404416
223	0x3f9ef07d	1.2417141
224	0xbf32c3d5	-0.69830066
225	0xbed3ff8c	-0.41405904
226	0xbf326a26	-0.6969322
227	0xbe2c2dae	-0.168143
228	0x3bba5453	0.0056863218
229	0x3fdca210	1.7236958
230	0xbf55677b	-0.83361024
231	0x3f3c2e89	0.73508507
232	0xbe460a15	-0.19339783
233	0x3fc0ca7c	1.5061793
234	0x3e605b7e	0.21909901
235	0x3efe0b57	0.49618027
236	0xbf23d9d7	-0.6400427
237	0x3e9272c5	0.28603187
238	0x3f3ae7c4	0.73009896
239	0xbf0943ab	-0.5361888
240	0xbf00e787	-0.5035328
241	0xbe84fac8	-0.2597258
242	0xbef75b28	-0.48311734
243	0xbdd1e7e7	-0.1024931
244	0x3efbe3bd	0.49197188
245	0x3f9353b8	1.1509924
246	0xbf2a503b	-0.6652867
247	0x3f83ca7f	1.0296172
248	0x3dfcdcf7	0.12346833
249	0x3f853259	1.040599
250	0x3ed18940	0.40925026
251	0x3f83997c	1.0281215
252	0xbf7f6769	-0.99767166
253	0x3ec8f3fc	0.39248645
254	0x3f266e11	0.650117
255	0xbe59bbe7	-0.21263085
