cgcnndefect/defect_transfer_40/model_best.pth.tar (torch, 208687 bytes, 121 tensors)

embedding.weight f4 [16, 92]
00000000: ec1d fdbe 93e9 35bd 3f4b 803e b582 debf
00000010: 4068 a0bf 6e46 69be d0c0 273f 6997 af3f
00000020: b3a2 953f 5460 023f d769 a33f 317a 67be
00000030: ca76 4dbf d654 b33e 42ea c93e 500f 353e
00000040: ec6e 98be ef5a 8c3e 3411 b9be 68a6 233f
00000050: 0f28 f6be e01c d3bd ad8b ad3e 3da6 ce3e
00000060: bfd7 143f 7434 c43e c63d c9bd 9c01 24bf
00000070: ca59 a93d 2533 eabd 6620 193f bfdf aa3f
00000080: 3dec 923f ae1d 053f 7a68 1fbf 5e83 52bd
00000090: 56b1 1f3f 2a5d dcbe 00da 923f 17ab ca3e
000000a0: d904 003f 71d4 26bd 3195 1bbf fbc1 62be
000000b0: 5051 71be 1d89 5cbe c78f 0dbd 5b40 54be
000000c0: af8e 8bbe ed98 79be 3c16 c43d 013a 11be
000000d0: 64b9 143f a304 913f 7c35 0d3f 95ec 54bf
000000e0: 1199 3ebe 9203 d63e 2fa4 87be 57e0 3dbd
000000f0: 7a05 9f3d 3587 cdbe a94f 013e 2e52 8f3f
00000100: de9b 643e 9188 073d 8a70 823b e267 a2bf
00000110: 28d8 0fbe fb04 cd3d 0b3f 603f 0f7f 1cbd
00000120: 4954 b7bc c531 adbd 3190 d53c 9ff9 6a3f
00000130: 2df9 a93c a0a1 f73d 1dc4 603c ad8b b83e
00000140: 91f0 ad3d 274a cdbe 0dc6 213f 013b a8bf
00000150: 152a 0e3d 0276 833e 8dc6 c7be 521a 2bbf
00000160: 89b6 d73e 9b68 f73e 7af0 e6be 2826 d8bd
00000170: 35b2 c53e c276 4abe 7d37 6e3d cd19 3ebe
00000180: 041b 5d3f 56f7 32bf b673 a83e f043 e1bd
00000190: 66d2 463f fae2 013f 055f dd3e 6f64 a0be
000001a0: 108e 28bf e59a 91bd 1ac7 963e 4d88 863e
000001b0: 7cc5 cb3c a87b 93bd 0bb6 23c0 556c 513f
000001c0: d9bd 813e c0ce 96be 9e13 803f b82a 2cbd
000001d0: 2598 05be adc2 ebbf 3d67 6cbe 589b 10bf
000001e0: 29e3 40be 62e9 d43e 12af 053f 72b3 483d
000001f0: 0926 963f 491e 16bf 613a 19bd 6848 5d3c
00000200: 9e3f 383f 4d16 82bd c8af bbbc 83fc 3a3f
00000210: 92cd 9ebd fdec 97be c42f b33e f835 13bf
00000220: 1e4e 75be 0279 48be ccc6 5cbe 359b de3e
00000230: 1061 8b3c 94d1 303f 5aab 033e f670 003d
00000240: 8d6f 0fbe e89d 813e 6513 023f ebac 27bf
00000250: 517d adbe f548 a13e e6f1 afbe 83de 8b3e
00000260: 7018 d53d 59b9 de3d 1374 f63e ba94 6bbc
00000270: 8c73 d2ba 79a6 8dbc 6c8f b4bc 9fdb fe3d
00000280: 49c6 6e3f 00b1 a7bc 50ba 38bc 355c b8bd
00000290: 1922 f3be c56b aabe 5e85 a03e 39bf 82be
000002a0: ea2d c0bd 97f3 c1bd a795 683d 5870 07bd
000002b0: 4acb c83e 9dd0 b23e e424 0f3e 0d61 ef3f
000002c0: 4fa9 be3e 7e72 33bf 45f1 cdbe e216 913e
000002d0: ccdd 5dbf 35b1 46bf 7b13 eebe 8572 b8be
000002e0: bea2 f23e bbc0 943e a612 9bbf 3ebb 7c3f
000002f0: 31c4 313f d751 d33f 6795 0d40 ac28 303f
00000300: 2c3c 04bf ffc1 c1bf b2ae dfbf d45e 48bf
00000310: c0b0 b1bf 0d96 ffbe 6243 5e3e 63cf 1bbe
00000320: aff3 fe3d 73c9 a2bd bf1c b8bf 1512 e2bc
00000330: 6588 acbe 2ca8 873f f968 fbbe ee1f 93bd
00000340: 8258 36be d535 f1be e59c 1e3f 5e8e 0f3e
00000350: 5657 6a3e f3e9 013f 4feb 8b3e 0fcf 2e3e
00000360: 5ff9 553e 8f1d 90bf 5c18 bdbe 1607 d0bd
00000370: 8e77 153d 5fb9 6bbe 8541 ac3e 7c0d 733f
00000380: ba9a 79bf f97e 2cbe e430 e53d 58cd 2c3e
00000390: 21fa 903e ec2a bd3e 267c 823e 0db2 b1be
000003a0: d73e 14bd 4246 5c3f c021 003f fb05 e23e
000003b0: 2811 053e 2f49 30bf 4d02 c8bf 734e 19c0
000003c0: 84dd 30bf d83a 41bf 4538 163f 5429 93be
000003d0: f2e7 0abe 9c13 d8be 95de 2a3f 599f f4bc
000003e0: dd20 3abe 1019 0ebd bbe8 60bd 6722 71bf
000003f0: ce27 54be aea9 f9bc bc1f e4be 60ef 1dbd
-0.4943689 -0.044412207 0.25057408 -1.7383639 -1.2531815 -0.22780773 0.65528584 1.3718082
1.1690277 0.50928235 1.2766675 -0.22605206 -0.8025938 0.35025662 0.39436537 0.17681623
-0.29772127 0.27413127 -0.36145937 0.6392579 -0.48077437 -0.10308242 0.33895627 0.40361205
0.581417 0.3832127 -0.098262355 -0.64064956 0.08269079 -0.11435536 0.5981506 1.3349532
1.1478344 0.5199841 -0.62268794 -0.051394813 0.6237997 -0.4303983 1.1472778 0.39583656
0.50007397 -0.040729944 -0.60774523 -0.2214431 -0.23566175 -0.2153668 -0.034560945 -0.20727675
-0.27257296 -0.24374743 0.09574553 -0.14182283 0.58095384 1.132954 0.55159736 -0.83173496
-0.18613078 0.417996 -0.2649245 -0.046356525 0.077647164 -0.40142217 0.12628044 1.1196954
0.22325084 0.033089224 0.003980701 -1.2687953 -0.14047301 0.100107156 0.87596196 -0.03820711
-0.022379057 -0.084567584 0.026069732 0.9178714 0.0207487 0.120913744 0.013718632 0.36044064
0.0849315 -0.40095636 0.63192827 -1.3143007 0.0347081 0.2567597 -0.3901867 -0.66837037
0.4213145 0.48321995 -0.45105344 -0.10554153 0.38612524 -0.19771865 0.058158386 -0.1856453
0.8636935 -0.69908655 0.3290078 -0.10999286 0.7766479 0.50736964 0.43236557 -0.31326625
-0.6584177 -0.07109622 0.29448777 0.26275864 0.024874441 -0.0720132 -2.557986 0.81805927
0.25340155 -0.29454613 1.0005987 -0.042032927 -0.1304632 -1.8418785 -0.23086257 -0.56487036
-0.18836655 0.41584307 0.5222026 0.048999257 1.1730357 -0.5863996 -0.03740919 0.0135060325
0.7197207 -0.0635191 -0.022910967 0.7304155 -0.07754053 -0.29672995 0.3499738 -0.57504225
-0.2395558 -0.19577411 -0.2156021 0.4347779 0.017014056 0.6906979 0.12858334 0.031357728
-0.14007397 0.25315785 0.50810844 -0.65498227 -0.3388467 0.31500974 -0.3436424 0.273182
0.10405052 0.10875196 0.48135433 -0.014378721 -0.0016056164 -0.017291294 -0.022041045 0.12444233
0.9327131 -0.020470142 -0.011274889 -0.09001962 -0.47486952 -0.33285347 0.3135175 -0.25536516
-0.093837574 -0.09470289 0.056783345 -0.033066124 0.39217597 0.34924784 0.13978916 1.8701493
0.37238547 -0.70096576 -0.40223137 0.2833777 -0.8666656 -0.77614146 -0.46499237 -0.3602487
0.47389787 0.29053292 -1.2115066 0.9872321 0.6943999 1.650935 2.2122438 0.6881206
-0.51654315 -1.5137328 -1.7475188 -0.78269696 -1.3882065 -0.49919167 0.21705392 -0.1521583
0.12448823 -0.0794858 -1.4383773 -0.027596513 -0.3369781 1.0598197 -0.49103525 -0.071838245
-0.178072 -0.47111383 0.6195815 0.14019153 0.22884879 0.50747603 0.27327964 0.17071174
0.20895909 -1.125902 -0.36932647 -0.101576015 0.03649097 -0.23019932 0.33643737 0.9494245
-0.9750172 -0.16845311 0.11190966 0.16875207 0.28315833 0.3694681 0.25485343 -0.34706154
-0.03619274 0.86044705 0.500515 0.44145188 0.12994826 -0.6886167 -1.5625702 -2.3954132
-0.69088006 -0.75480413 0.5867961 -0.28742468 -0.13565043 -0.4220246 0.66745883 -0.02986114
-0.18176599 -0.03469187 -0.05490945 -0.9419312 -0.2071831 -0.030476417 -0.4455546 -0.038558364

embedding.bias f4 [16]
00000000: 30b6 0c3f 574d 033f eb45 1cbf 90f7 4fbe
00000010: 80d2 353e 048e 2bbe 9084 563f 8959 0e3f
00000020: 651e 48be 3793 cf3e 5fb0 ee3e 1b59 d1be
00000030: f43b 6b3e 47b7 473c de94 f8be dd6a a43e
0.54965496 0.51289886 -0.61044186 -0.20309281 0.1775608 -0.16753393 0.83796024 0.5560537
-0.19542845 0.40542004 0.46618935 -0.40888295 0.22972089 0.012189693 -0.48551077 0.3211278

convs.0.fc_full.weight f4 [32, 56]
00000000: 8950 69be fc45 acbe 7829 9a3d d49f af3e
00000010: e1fc 033f 47b9 80bf 4700 38bd 172c 263c
00000020: 5413 b0bd 4a52 9bbf 4b13 863f 9f50 f2be
00000030: d5fd e13e e8a7 5bbf 9bb6 b5be dd33 3d3f
00000040: 944a 23bf bf4f 9abe 567f 683e b3f1 543e
00000050: 6303 0dbf 48f0 c93e 13d8 4d3f 98f8 cbbe
00000060: c677 5fbe 8707 263f a332 d83e 5a43 02be
00000070: 66cc dcbe 5a05 0cbf c28e e83e f297 21be
00000080: 85b4 ca3f 9dc2 e53f e977 a63f 82d7 6dbf
00000090: 54df 80bf fbaa cd3f ad24 ce3f 3d55 a93f
000000a0: 3158 68bf 0da7 95bf 1418 cd3f 5ea8 dc3f
000000b0: 074c bd3f 78ac 69bf 140f 95bf 16d9 bf3f
000000c0: 452e 0740 a4d5 2b40 cfa0 3840 c42f b9bf
000000d0: 08a9 d3bf 372e aebf 2b82 d1be 591d ac3e
000000e0: 1f8c 1a3f 1fa5 b8be 9ca5 3cbf 84fe 07be
000000f0: 7f1b 80bf fab3 c53f aa2f 6fbf 88bb 713f
00000100: b3ef 0e3f c6ca 973f 4bd5 be3c 4196 0940
00000110: 7b39 593f c823 9fbc 7a95 41be 9271 01bf
00000120: 7539 57be e21f 283f d0b6 693e 4500 6bbf
00000130: 888b 713f 1855 91be 1d8c b43f f3dd ebbe
00000140: cca3 443f 39a7 563f cc92 6dbf e3ce 7bbe
00000150: 0a8d 0bbd 6707 9abf 6442 5cbe fdce 3c3e
00000160: 6828 183f dea1 253f e3f6 a43f 31dd f63f
00000170: 0e69 c43e 42b4 0b3f 7f51 223f ae22 ad3f
00000180: 99d3 f53f 3153 ae3e ffbc c93e 1c44 4a3f
00000190: f769 b23f 61a9 eb3f 4983 c43e c633 babf
000001a0: 803b 35bf 314a 0e3f a086 0540 ef0d 3fc0
000001b0: 2f33 1ac0 7f7a bf3f f4b8 3040 a507 0640
000001c0: a324 033e 0067 bf3f 4148 1dbf 47a7 d83d
000001d0: 2929 2bbc ca70 7ebf 493d 433f dffd 113f
000001e0: 40b0 39be 5f4c 9c3e 23c5 31bd 7265 b43e
000001f0: 2733 303b 49b4 47bf 44e4 5f3d de21 02bf
00000200: 0331 a63f b33c 02be c275 29bf 092b 5a3f
00000210: fc5b fb3d 8407 963e 0d73 58bf 4c20 ae3f
00000220: 0e23 f13d 0de3 9dbf 9931 be3e 9c15 82bc
00000230: f591 8abe 4e6b 943d 300c 45be abe9 e23e
00000240: 4980 5f3d 4e55 1f3f 8797 2640 e42d c43f
00000250: b958 9c3f 3acf 213d c6cc 373f 51ec 2d40
00000260: f4d8 da3f ae79 7c3f 58af 4abe d176 f33e
00000270: ff15 3340 be47 cc3f 183b 813f 7036 e43e
00000280: 22bb 1b3f 1f42 273f b99a 593f bcb3 6dc0
00000290: 1a14 88c0 2796 91c0 596e 76c0 fe7a 37c0
000002a0: 5c71 04bf 5330 03bf 5a3e 0f3f 1179 b7bd
000002b0: 3121 483e 31c3 9dbf f941 cebd 9aef 3dbf
000002c0: 8b0b d93c 6fad b23e 0277 723e 1c5d 1f3d
000002d0: 036e 393f cae9 6fbe 2aae 133f 3aaf 823e
000002e0: 68b2 88be 5f0c 213f ffce fe3e 981f 7f3e
000002f0: aa18 41bf 1b05 a63f 3f03 7c3f 7957 603f
00000300: 8ed5 a3bd 2a02 f83d 5a70 cc3e c01b 12bf
00000310: 955c 0ebf adb1 8d3f 7712 a4bf a878 3e3e
00000320: 04da 993f dc99 453f 9006 37c0 590e 61c0
00000330: 8863 27c0 3bbc a53f 8769 5b3f 63c3 34c0
00000340: c498 5ec0 e482 21c0 5398 a63f add1 473f
00000350: 0cec 3ac0 2886 67c0 ee33 23c0 6290 4b40
00000360: 5f4d 1440 0dc6 9e3f 45ed 953e 25b0 5a3f
00000370: bb32 aa3f 88dd e83f 98ef 0b40 9d2e 2440
00000380: 4c3d 883e ec95 f6bc 0d7c adbe 10b9 0f3d
00000390: 362e 3b3c 0d48 b43d 738a 993d eab5 8ebe
000003a0: 47a9 023f 7927 1cbe d3bb b03c 6f7f 4ebe
000003b0: 5591 ae3c fc90 81bd 8f47 6e3f cf35 37be
000003c0: f89c 413e eafb babc 01e8 2d3e 58f0 823f
000003d0: fcba 1dbe 4f95 8e3e 9120 2a3f 8a45 9a3d
000003e0: eaac 3bbe 4b51 3f3e f77e e73b f992 c13d
000003f0: ae22 9f3c f3d4 cabd 9485 d4be da23 ab3d
-0.22784628 -0.33647144 0.07527441 0.34301627 0.5155774 -1.0056542 -0.04492214 0.010142348
-0.085974365 -1.2134488 1.0474638 -0.47327134 0.4413897 -0.8580308 -0.3549088 0.7390726
-0.6378567 -0.30138966 0.22704825 0.20795326 -0.5508329 0.39441133 0.8040783 -0.398381
-0.21823034 0.64855236 0.42226133 -0.12721005 -0.43124694 -0.54695666 0.45421416 -0.15780619
1.583634 1.7950016 1.3005344 -0.92906964 -1.0068154 1.6067804 1.6104943 1.3229138
-0.9075957 -1.1691605 1.6022973 1.7238882 1.4788827 -0.9127879 -1.1645226 1.4988124
2.112199 2.6849146 2.884815 -1.4467702 -1.6535959 -1.3607854 -0.40919623 0.3361614
0.6037006 -0.36063477 -0.736902 -0.13280684 -1.0008391 1.544555 -0.93432105 0.94426775
0.558345 1.1858757 0.023295065 2.1497958 0.84853333 -0.019426242 -0.18904677 -0.5056392
-0.21018012 0.6567365 0.22823644 -0.91797286 0.9435353 -0.28385234 1.4105259 -0.4606777
0.76812434 0.8384891 -0.9280212 -0.2459064 -0.034070052 -1.2033509 -0.21509701 0.18438335
0.59436655 0.64700115 1.2887844 1.9286252 0.383614 0.54571927 0.63405603 1.3526208
1.92052 0.34047845 0.39402005 0.79010177 1.3938588 1.8411065 0.38381413 -1.454705
-0.70793915 0.5558196 2.0863419 -2.9852254 -2.409374 1.4959258 2.7612886 2.0942166
0.12806945 1.4953308 -0.61438376 0.105787806 -0.010446825 -0.9939085 0.7626539 0.57028
-0.1813364 0.30527017 -0.043400895 0.35233647 0.0026885958 -0.7800947 0.05466105 -0.5083293
1.2983707 -0.12718467 -0.6619531 0.85221916 0.12273404 0.2930261 -0.84550554 1.3603606
0.11774264 -1.2334915 0.37147215 -0.015879445 -0.2706448 0.07247029 -0.1924293 0.443189
0.0545657 0.6223954 2.6029985 1.5326505 1.2214576 0.039504267 0.71796834 2.7175486
1.7097459 0.9862317 -0.19793451 0.47551587 2.7982175 1.5959394 1.0096159 0.44572783
0.60832417 0.6533527 0.85001713 -3.714095 -4.252454 -4.549579 -3.850485 -2.8668818
-0.5173547 -0.5124561 0.55954516 -0.089586385 0.19543912 -1.2325193 -0.10071177 -0.7419373
0.026494762 0.34897944 0.2367821 0.038907155 0.7243349 -0.23429027 0.5768763 0.25524312
-0.26698613 0.629095 0.497673 0.24914396 -0.7542826 1.2970308 0.98442453 0.8763347
-0.07999717 0.12109788 0.39929467 -0.57073593 -0.5561002 1.1069847 -1.2818135 0.18600714
1.2019658 0.77187896 -2.8597755 -3.5165007 -2.61545 1.2948068 0.85707897 -2.8244255
-3.478074 -2.523614 1.3015236 0.78054315 -2.9206572 -3.6175632 -2.5500445 3.1806874
2.3172224 1.240419 0.29282585 0.85425025 1.3296732 1.8192606 2.1864986 2.565345
0.26609266 -0.030100785 -0.33883706 0.0350886 0.011424592 0.08802805 0.0749711 -0.27873164
0.51039547 -0.15249433 0.021573937 -0.201658 0.021309534 -0.06326482 0.9307794 -0.1789162
0.18907535 -0.0228252 0.16983034 1.0229597 -0.1540336 0.27848288 0.6645594 0.07532795
-0.1832768 0.18683355 0.007064696 0.09451861 0.019425716 -0.09903898 -0.41508162 0.083564475

convs.0.fc_full.bias f4 [32]
00000000: 5fab 27bd f181 9e3e cfae f2bd 97a9 c5bc
00000010: ba74 0fbe 6259 fbbe f394 40be 1d60 27be
00000020: 8dc6 8d3c eaf5 d3bc 1a09 03be 543d e1bc
00000030: cf42 943c 2b15 063b 6a81 333e 632e 9f3e
00000040: 06c4 b9bd 7004 f13c c840 01be 5fd7 753e
00000050: 25ad c13b 5398 8b3e 443a debc 4171 453c
00000060: 6bd9 1abd 6414 0fbe dae8 ef3d 23d7 07bc
00000070: bffa 133e ada5 653e e0d0 ed3e fd02 d33e
-0.040934917 0.30958512 -0.11849748 -0.024128718 -0.14009371 -0.4909163 -0.1880682 -0.16345258
0.01730659 -0.025874097 -0.1279644 -0.027495064 0.018098263 0.0020459394 0.17529836 0.31090078
-0.09070592 0.029421061 -0.12622368 0.24007939 0.005910533 0.27264652 -0.027127393 0.012050928
-0.037805002 -0.13972622 0.11714335 -0.008291039 0.14451121 0.22426482 0.4644842 0.41213217

convs.0.bn1.weight f4 [32]
00000000: fadb 5540 f2b5 7c40 6ea4 9d40 45c1 4b40
00000010: 48ab 3640 ca84 e03f 2051 8840 0227 8540
00000020: 7e84 9a40 094c e840 cb28 3a40 cbfa 9340
00000030: 7212 a440 ec16 8140 3c55 4e40 04a5 ba40
00000040: 2523 cc3f 93f5 953f 4f3e 5a3f 0295 1d3f
00000050: 432f 8240 b9f0 843f eace f53f b385 ab3f
00000060: 4852 403f 7488 543f 4102 d73f f390 2340
00000070: 2256 943f cd3c 523f 3c97 f53f 37bf d03f
3.3415513 3.948605 4.926322 3.1836712 2.8542042 1.7540524 4.259903 4.1610117
4.8286734 7.2592816 2.9087398 4.6243644 5.1272516 4.034048 3.2239523 5.8326435
1.5948225 1.1715568 0.85251325 0.6155549 4.0682693 1.0385963 1.920377 1.3400177
0.7512555 0.8302071 1.6797563 2.555722 1.1588786 0.82124025 1.9186778 1.6308354

convs.0.bn1.bias f4 [32]
00000000: 8576 22bf 1ae9 833f 31d0 4e3e e18f b03d
00000010: 50be 90bf 09c7 1c3f 8344 cdbe f050 18bf
00000020: fd79 4f3f b6f4 ec3e 2318 00bf b0b0 1dbf
00000030: cfa2 55bf efa0 47b9 7f0d 98bf 180d 74bf
00000040: 59f1 17bf d5ec c83e 5380 293f d7fe fc3e
00000050: 3e49 8ebe b02b b33e 1fac 20c0 1572 d5bf
00000060: 0d7c 913f 6207 f83e e6c8 32c0 8566 90c0
00000070: 01a7 eabe babf a13e 35f7 1cc0 2275 863e
-0.63462096 1.0305512 0.20196606 0.08621193 -1.1308079 0.61241204 -0.40091333 -0.594985
0.81045514 0.4628045 -0.5003683 -0.6159773 -0.8345155 -0.00019038071 -1.1879119 -0.9533248
-0.5935264 0.39243189 0.6621143 0.49413177 -0.27790254 0.34994268 -2.5105054 -1.667544
1.1365982 0.48443133 -2.7935119 -4.5125146 -0.4583054 0.31591588 -2.4525883 0.2626124

convs.0.bn1.running_mean f4 [32]
00000000: 363c 9141 2268 1741 1000 bc41 c38d 65c1
00000010: 9793 34c0 ae1a 2141 9c72 69c1 3cd9 a5c1
00000020: ce2b 3c40 acb5 8e40 f98a 81c1 ccda 6340
00000030: 4058 51c2 c175 2841 76dc 6dc1 f282 f540
00000040: d863 9fc0 0535 1042 9dec 1ec1 bbd0 8040
00000050: 39be c5c0 2917 7341 763e cfc1 6bf4 a0c1
00000060: aed0 97c0 5b82 4fc1 94cb 35c1 592c 8fc1
00000070: 387d 9441 6a7d d3c0 789a 15c2 2ade 5ebf
18.1544 9.462923 23.50003 -14.34711 -2.8215082 10.069014 -14.590481 -20.731071
2.9401736 4.4596767 -16.192858 3.5602293 -52.33618 10.5287485 -14.866323 7.6722345
-4.980938 36.051777 -9.932767 4.02548 -6.1794705 15.193154 -25.905499 -20.119345
-4.7442236 -12.969325 -11.362202 -17.896654 18.561142 -6.6090593 -37.40085 -0.87057745

convs.0.bn1.running_var f4 [32]
00000000: 358b 7f42 5a10 0942 f0ca db41 4972 8142
00000010: b088 2942 f2bd 5642 b6c2 4342 d32f a641
00000020: d95c 6d42 09b2 3142 0ca7 3c42 0dce 7141
00000030: 465a ed41 9c77 8c42 7c83 c841 f1dd e942
00000040: cca6 dc41 3287 1742 c50c 0c42 b596 8142
00000050: 0e28 0243 219c 6842 e185 0a42 c131 c341
00000060: 35a2 e442 7dba 4142 e65d 4642 4b28 af41
00000070: 9dc6 4b42 0c42 ee42 a187 ac41 41b3 5742
63.885944 34.26597 27.47409 64.72321 42.383484 53.685493 48.940147 20.773352
59.34067 44.423862 47.16313 15.112805 29.669079 70.23361 25.064201 116.93348
27.581444 37.882027 35.01247 64.79435 130.15646 58.15247 34.63074 24.399294
114.31681 48.432117 49.591698 21.894674 50.94396 119.129 21.566225 53.925053

convs.0.bn2.weight f4 [16]
00000000: ca83 8c3f 4ef6 b33f b3b3 f43f cac8 b53f
00000010: 233a d23f aff8 c13f 9c8e e13f 2787 cc3f
00000020: ae0a bf3f 0508 3d3f 010e ce3f 1233 9e3f
00000030: 7680 b33f 5428 7c3f 37a9 953f c400 bb3f
1.0977719 1.4059541 1.911734 1.4201901 1.6423992 1.5154017 1.7621646 1.5978745
1.4925134 0.7384036 1.6098024 1.2359335 1.4023578 0.98499036 1.1692265 1.4609609

convs.0.bn2.bias f4 [16]
00000000: 5966 033f 76eb 9e3e a875 15bf c5fe b6bc
00000010: 45c7 f03e d90f d4bc a371 1f3f 2aa8 703f
00000020: d0eb 74be de8e 103f 88bc 7e3e ba28 dfbe
00000030: d06b bb3e 063e 79be e915 a8be 51e7 793e
0.51328045 0.31039017 -0.58382654 -0.02233828 0.4702703 -0.025886463 0.6228277 0.940066
-0.2391808 0.56468 0.24876606 -0.4358576 0.36605692 -0.24340066 -0.32829216 0.24404646

convs.0.bn2.running_mean f4 [16]
00000000: 3cbc 4740 0c6e e640 3a74 0941 f2fc cf40
00000010: 0223 7341 3c16 1541 0df2 1340 c7b6 1d40
00000020: b83c 2f41 bd2e a540 4d1d f53f f188 9a3f
00000030: e642 2740 1e8f 0c41 a20f 2340 9eb2 ef40
3.120864 7.2009335 8.590876 6.499627 15.196047 9.317928 2.3116486 2.4642808
10.952324 5.1619554 1.9149567 1.2073041 2.6134582 8.784941 2.5478292 7.490554

convs.0.bn2.running_var f4 [16]
00000000: 0950 d140 5990 3042 78a2 5942 505b 0c41
00000010: 9ead 2743 d7b1 4a41 4511 4a41 c547 5340
00000020: 5ac5 2742 fa03 5b42 40ff a83f becd c940
00000030: 34df a740 1459 fc40 4cbc f240 5bc9 8042
6.54102 44.140965 54.40866 8.772293 167.67819 12.668418 12.629216 3.3012555
41.942726 54.753883 1.3202896 6.306365 5.2459965 7.885874 7.5854855 64.39327

convs.1.fc_full.weight f4 [32, 56]
00000000: c47d 203f 6c85 68be a841 3cbf 60f7 bdbf
00000010: 8d15 44bf e1bc 7bbd 2f50 efbe df35 58bf
00000020: e56b 5bbe fac8 953e 963c 02bf 15b4 03be
00000030: c83b 66be 9d64 99be 0d60 ecbd 7c40 15bf
00000040: d2d4 1bbf 81ad cfbc cc19 7bbe 28ef 933e
00000050: d840 b03f 2bfe 8e3e 732c a2bf 9ac0 b63e
00000060: 0f2d d53c 43a3 46be 302f cd3e fa49 8d3e
00000070: 2702 613d 1cad 5ebe e5fb 653f 69ad 013f
00000080: b771 b9c0 3d65 c1c0 f268 c0c0 ea9e e43f
00000090: 72c3 6840 25f0 b2c0 4884 c1c0 23e5 bec0
000000a0: 8507 d33f 8d3e 7540 5af1 afc0 cbdb bdc0
000000b0: 39fc c2c0 2598 df3f cd70 7340 8849 9fbf
000000c0: 5141 c6bf 184b 0dc0 7daa 4bc0 ce0b bbbf
000000d0: 1632 d0bf c0a3 2dbf 51a0 23bf f9f1 d4bf
000000e0: 8e15 b43f 1f13 d6bd 2b2c 7640 fc30 4b3f
000000f0: 6f8f b23d 6862 7d3e 53d7 eabe eae5 52bf
00000100: 9ab1 a03c bd17 8c3f 916c fbbe 85ee f33d
00000110: 8da1 6dbe 9539 07bf 26d4 ba3c ab83 d9bc
00000120: ae36 70be d76d de3e 27d8 a33f 24aa 0a3e
00000130: 69f8 0b3f 7d08 cd3f 761c 003f 6377 773f
00000140: 0c5d 5d3f 9185 383f 7fbd 463f c68f 84bf
00000150: 32c5 1140 053d 5b3f 6ca6 1c3e 510d a6bf
00000160: 6ade 1540 e446 3b40 6b44 213e 9cf6 a9bf
00000170: c631 babf 148f 1640 00ca 4040 68f0 c23e
00000180: 08bb 9cbf fa52 b9bf 6e09 1740 c45f 4440
00000190: 4b11 803e afac 89bf 21f2 c8bf 0111 b43f
000001a0: 4253 ea3f 5ae2 fb3f 5346 fe3f 5a4c 9340
000001b0: 669b 9f40 bbc0 6a3f 90e2 48bf 2ab3 c0bf
000001c0: 86b6 8e3f fd56 de3e e9da 07bf 0f75 303f
000001d0: 145d 94be 7a41 d33f 3386 df3e 22f4 023f
000001e0: b837 06c0 0fd7 a63c b118 943e 904b ebbe
000001f0: 4661 b63e 84cf 04bd d6eb 8fbe 6bec 8f3e
00000200: b580 6a3d 1d0c 0e40 30b3 5bbf 60b8 4cbf
00000210: 5172 dd3c 0fdb 393f 7aa2 9ebe 527c d9bf
00000220: ab98 02c0 117d ad3e 90a1 1e3c c8bc 0ebf
00000230: e582 37be 1015 87be 48a4 d0be 4c20 83bf
00000240: d6f5 673e b305 c03e 7fd5 883f dba2 bf3d
00000250: 4037 08be 9bff b33e af7d d63e 9b5c 863f
00000260: 465a 7c3d 346d 06be 9d2c 913e abe0 ce3e
00000270: 367f 993f 05f6 2c3e 42f2 41be 3650 6abe
00000280: e8b7 153f a0f8 b43f 7715 1840 3448 d2be
00000290: a9fd 2cbd d406 b13e 2c25 b43e 61ff c4bd
000002a0: e1d4 61be c841 41bc dc79 ddbe 3d2b 483f
000002b0: 1e59 c6bf 6ae5 5f3e 60b0 2abf dddd 8cbf
000002c0: 6c1b 90bb d730 803f 9143 613f b6ac 03bf
000002d0: 5621 be3e 0ff6 5fbe eba7 09c0 aa37 71bf
000002e0: 7766 79bd 922a 653e 5dfa 15be 0cea aebe
000002f0: f5d2 e53e 134f 47bf c8a4 823e 53e0 55bf
00000300: 56dc 2f3f 6957 c4be 3982 b73e 3124 4e3e
00000310: 7ba0 50bf 443b 343e f2fc 8fbf acaf afbe
00000320: 530c b9be 6e99 7fbe 1487 3d3f fd34 563f
00000330: 4eb8 0e3f 1ed5 95be 33db 4ebd 5efb 573f
00000340: dcb8 703f 7f49 303f 9f8f d0be 9140 2cbe
00000350: b945 543f 89dc 553f d041 173f bcec 883e
00000360: 8a65 ab3e 295d 573e 5660 eb3d 6246 38c0
00000370: 1150 47c0 4b0f 25c0 9a93 1bc0 dae8 20c0
00000380: 4c67 05be 236c 2b3d 222a ae3e 10aa 123e
00000390: 1cc7 e0be 5fbe 013e 1869 8fbe 2b1f fcbe
000003a0: 588d a6be b39d 313f b7b9 a03f d537 02c0
000003b0: f1a3 c83f 5ff4 11c0 531f c03f 8913 15bf
000003c0: f4bd 343e 975a 813f bc0b 78be 79ab 85bf
000003d0: 4d8c 3cbf e444 4a3f 10cd 42be be90 78bf
000003e0: 2c7e ab3e 5fdc 05bf 60e8 35bf 43c4 93be
000003f0: ed2e 7cbf 700e b9be b7e4 0ebf 3954 3ebf
0.62691903 -0.22707146 -0.73537683 -1.4841118 -0.76595384 -0.061459426 -0.46740863 -0.844572
-0.21427877 0.29254895 -0.50873697 -0.12861665 -0.22483742 -0.29959574 -0.11541758 -0.5830152
-0.60871613 -0.025351288 -0.2452156 0.288934 1.3769789 0.2792829 -1.2669815 0.35693818
0.026022462 -0.19398217 0.40075064 0.27595502 0.054933693 -0.21745723 0.89837486 0.5065523
-5.795131 -6.043608 -6.0128107 1.7860997 3.636929 -5.5918145 -6.0473976 -5.965471
1.648667 3.8319428 -5.498212 -5.93308 -6.093289 1.7468306 3.8037598 -1.2444315
-1.5488683 -2.2077084 -3.1822808 -1.4612978 -1.6265285 -0.6782799 -0.639165 -1.6636344
1.4069078 -0.10452866 3.8464458 0.7937162 0.08718764 0.2474457 -0.45867404 -0.8238207
0.019615937 1.0944744 -0.49106267 0.11910728 -0.23206158 -0.5282224 0.022806238 -0.026552042
-0.23458359 0.43443176 1.280034 0.13541466 0.5467592 1.6018215 0.5004343 0.96666545
0.86470103 0.72078806 0.776329 -1.0356376 2.2776608 0.85639983 0.1529786 -1.2972814
2.3417 2.9262018 0.15748756 -1.3278384 -1.454644 2.3524828 3.012329 0.3807404
-1.2244577 -1.4478447 2.3599505 3.068345 0.25013193 -1.0755824 -1.5698892 1.4067689
1.8306658 1.9678452 1.9865211 4.6030703 4.9877195 0.91700333 -0.78470707 -1.5054677
1.1149452 0.43425742 -0.53068405 0.6892862 -0.28977263 1.6504357 0.43657073 0.5115377
-2.0971508 0.02036622 0.28925088 -0.45956087 0.3562109 -0.032424465 -0.28109616 0.2811006
0.05725165 2.2194893 -0.85820293 -0.79968834 0.02703205 0.7259988 -0.30983335 -1.6991065
-2.040568 0.3388448 0.009682074 -0.5575681 -0.17921026 -0.26383257 -0.40750337 -1.0244231
0.22652373 0.37504348 1.0690154 0.09357234 -0.13302326 0.3515595 0.41892764 1.0497011
0.06160953 -0.13127595 0.2835435 0.40405783 1.1991947 0.16890724 -0.1894007 -0.2288216
0.58483744 1.4138374 2.37631 -0.41070712 -0.042234097 0.34575522 0.3518461 -0.09619022
-0.22053863 -0.011795469 -0.43257034 0.78190976 -1.5495946 0.21864858 -0.66675377 -1.1005207
-0.0043978 1.0014905 0.87993723 -0.5143541 0.37134808 -0.21871208 -2.150874 -0.9422556
-0.060888734 0.2237952 -0.14646287 -0.3416294 0.4488751 -0.7785503 0.25516343 -0.83545417
0.6869558 -0.3834794 0.3584154 0.20130993 -0.81494874 0.17600733 -1.1249068 -0.34313715
-0.36142215 -0.24960873 0.7403424 0.83674604 0.55749977 -0.29264158 -0.050502013 0.8436793
0.94032073 0.68862146 -0.40734574 -0.16821505 0.8291889 0.83539635 0.59084797 0.26743114
0.33475906 0.21031632 0.11492984 -2.8792958 -3.1142619 -2.5790584 -2.430884 -2.5142121
-0.13027686 0.041851174 0.3401652 0.14322686 -0.43901908 0.12670277 -0.28009868 -0.4924253
-0.32529712 0.69381255 1.2556676 -2.0346577 1.5675031 -2.2805402 1.5009559 -0.58232933
0.17650586 1.0105771 -0.24223226 -1.0442954 -0.7365158 0.7901137 -0.19023538 -0.9709586
0.334947 -0.52289385 -0.710577 -0.28860673 -0.98509103 -0.36143827 -0.5581774 -0.74347264

convs.1.fc_full.bias f4 [32]
00000000: 43a4 47be 9161 b53e ec86 cdbc 4e1f d1be
00000010: 6048 803e 18d3 843e f0be 2e3e 5fbc 2abe
00000020: 8018 d0bd 55df 183e 7d37 4f3e c28e b0bd
00000030: 37aa a03e e5fc fc3e 4c7f dc3c 8f61 2e3d
00000040: 68ad 1bbf 3d6f 8cbe 88b9 ed3e 1420 043e
00000050: c7f2 f8bd f1e1 3ebe a01a 1b3e 0239 e6be
00000060: 8cd7 2bbe 0f6b 163e 4404 143f b8cc b63b
00000070: 8b48 db3e 0027 fc3e 42a1 d7bc f65d 06bc
-0.19496255 0.35426 -0.02508875 -0.40844196 0.25055218 0.25942302 0.17065024 -0.1667342
-0.10160923 0.14928944 0.20236011 -0.08620979 0.31379864 0.49411693 0.026916169 0.042573508
-0.6081147 -0.27428618 0.46430612 0.12902862 -0.12155681 -0.18640877 0.15146875 -0.44965369
-0.16781443 0.14689277 0.5781901 0.0055786036 0.42828783 0.49248505 -0.02632201 -0.008201113

convs.1.bn1.weight f4 [32]
00000000: f9f1 4f40 24ce e140 501d e33f 66c4 b540
00000010: 21eb 2440 4e5e 6c40 8e86 9f40 5500 5840
00000020: b824 cb40 bfaf 3040 3216 7340 19b2 6a40
00000030: 7189 3240 596c 8e40 549f a43f 330c a040
00000040: d31f 0540 3123 1440 3e82 a13f 0f8b 493f
00000050: 2022 6740 f805 733f b6a5 5340 6fb1 9140
00000060: 176b 823f 4ba8 1640 df9c ef3f e0da 2940
00000070: 71f0 c740 09c0 2240 a2e7 e23f 4dc2 0240
3.2491438 7.0564137 1.774332 5.6802244 2.5768511 3.693256 4.985175 3.3750203
6.3482323 2.7607267 3.7982297 3.6671202 2.7896388 4.450726 1.2861123 5.001489
2.0800674 2.314648 1.2617872 0.7872781 3.6114578 0.9493098 3.3069892 4.5529094
1.0188931 2.3540218 1.8719748 2.653984 6.2481008 2.542971 1.7726939 2.0431092

convs.1.bn1.bias f4 [32]
00000000: 55ac adbf b5db 9fbf 93bc 64bf 5364 9c3d
00000010: 9935 5dbf aad3 11be 33db 22bf d6db 93bd
00000020: 3507 9dbe 96a6 aebe 88bb e4be 0ba1 00c0
00000030: 9f49 a83e 3ee1 82bf 3f87 d7be 7d7a 66bf
00000040: 4c3f 30c0 22f4 a4bf f3dc 4ebf 2138 1c3e
00000050: 56b1 12c0 dd68 9c3d dfda 85bf 13c9 70bf
00000060: 9669 843f 7bb5 a1bf ee96 22bf aae5 c9bf
00000070: f3bb d8bf 4cad 63bf b1f5 8dbf 8014 73be
-1.3568217 -1.2488924 -0.8935024 0.07636323 -0.8640991 -0.142409 -0.6361572 -0.07219665
-0.3066956 -0.3411147 -0.44674325 -2.0098293 0.32868668 -1.0224988 -0.42095372 -0.9003065
-2.7538633 -1.2887003 -0.8080589 0.15255786 -2.2920737 0.076371886 -1.0457419 -0.94056815
1.0344722 -1.2633508 -0.6351155 -1.5773213 -1.6932358 -0.88936305 -1.1090604 -0.23738289

convs.1.bn1.running_mean f4 [32]
00000000: 22b8 2fc2 101e b241 9aa1 e740 204a d5bf
00000010: f6c6 af3e 12c9 06c1 3965 bdc1 6aa0 33c1
00000020: f113 7bc1 e7e0 4fbe bcf8 86c0 3f9c 93c1
00000030: 123b 46c0 6b5c 63c2 edf7 78c1 59b0 9ac1
00000040: f07a 2ac2 e346 cd40 6420 aa40 29a9 80bf
00000050: f3b4 0dc1 3bf1 a9c1 18ce 9fc1 9052 9ebe
00000060: 8dc9 84c1 e2e6 00c1 df0a a3c1 dc1b a5c1
00000070: 321f d540 4810 82c1 4e29 77c1 16e4 f9c1
-43.929817 22.264679 7.2384768 -1.6663246 0.34331483 -8.424089 -23.674425 -11.226664
-15.6923685 -0.20300637 -4.217863 -18.451292 -3.0973554 -56.840252 -15.560529 -19.336107
-42.620056 6.414903 5.316454 -1.0051624 -8.856677 -21.242788 -19.975632 -0.30922365
-16.598413 -8.056368 -20.380308 -20.638603 6.660058 -16.25795 -15.447584 -31.23637

convs.1.bn1.running_var f4 [32]
00000000: 9893 4d42 761d 1242 9e8b 4d41 dc93 4d41
00000010: 91b6 d841 6218 f241 0150 0f42 32b2 8142
00000020: 12bb d441 b329 9342 675d b942 8ecd 7b42
00000030: 5186 a841 8a22 d141 049d c241 bd4a bf40
00000040: 4dbe 9e41 c6c8 3d42 806f 3942 2967 c242
00000050: 7669 9d41 2cf8 3142 c844 8042 ef2b 1642
00000060: cee5 6c42 7456 1d42 f757 6c42 815a e541
00000070: d301 2842 94ab b541 8281 a941 99da 2242
51.394135 36.52877 12.846586 12.8485985 27.089144 30.261906 35.82813 64.84804
26.591343 73.58144 92.68243 62.950737 21.065584 26.141865 24.326668 5.9778733
19.84292 47.446068 46.358887 97.201485 19.676495 44.492355 64.13434 37.542904
59.22442 39.334427 59.085903 28.669191 42.00178 22.708778 21.188236 40.713474

convs.1.bn2.weight f4 [16]
00000000: abf6 9a3f 935a 0940 85f8 a33f 70f2 fe3f
00000010: f635 b73f 2469 ea3f 53a7 5b3f f4d4 9f3f
00000020: 129c c53f 368b 483f 6483 f43f 0592 c43f
00000030: 13ca 1940 41f2 b93f 6890 2f3f 5225 ce3f
1.2106527 2.1461532 1.2810217 1.9917736 1.4313343 1.8313336 0.8580219 1.2486863
1.5438254 0.7833742 1.9102597 1.5357062 2.4029586 1.4527055 0.6857972 1.6105139

convs.1.bn2.bias f4 [16]
00000000: a762 093f c59d 6e3e 842d 02c0 0a9a 0b3f
00000010: 43d9 5dbf 08d5 bebe d713 75bf 397f df3d
00000020: 7bb2 dabd 45d3 093f 1abf 5a39 3168 b93e
00000030: bbe7 c83f 470a 05bf 5501 efbe ea8c bebe
0.53666157 0.23302372 -2.034028 0.5453192 -0.8665964 -0.37271905 -0.957334 0.10912938
-0.10678574 0.53837997 0.00020861291 0.36212304 1.5695719 -0.51968807 -0.46680704 -0.37216884

convs.1.bn2.running_mean f4 [16]
00000000: 407a e63f f5f8 dc40 b75d 1940 7eee 9c40
00000010: 2845 9340 3ac6 8440 c6f3 1841 6029 f740
00000020: 5429 2341 6dc6 a940 708a ec40 95fb be3f
00000030: 7b39 8141 f639 b140 03ed 8040 5c4e 9840
1.8006058 6.9053903 2.396345 4.904113 4.602192 4.1491976 9.559515 7.7238007
10.19759 5.305472 7.391899 1.4920527 16.153067 5.5383253 4.028932 4.7595654

convs.1.bn2.running_var f4 [16]
00000000: 5665 5b41 20a7 3342 a230 1f41 8dbb 7541
00000010: f55e 1542 15b3 1741 9c8e 1543 2735 c042
00000020: eba7 2542 8ba6 f241 7a23 4442 d179 8140
00000030: 03b1 2743 3a0d ba41 9f1f 3842 c70e 1c42
13.71224 44.913208 9.949373 15.358289 37.34273 9.481221 149.55707 96.10381
41.413982 30.33132 49.034645 4.04612 167.69145 23.256458 46.03088 39.01443

convs.2.fc_full.weight f4 [32, 56]
00000000: b9e0 563e 341e ab3e 1ff6 2b3f b11b fa3e
00000010: 227c f3bf 7a53 a0bf 8868 23bf a342 833f
00000020: be3d 293e af6c c8be 698f d9be 4b1b f5bf
00000030: 846d b6bf cad0 3dbe c4eb dfbe 420a 8f3e
00000040: ef42 82bf 34b9 1b3f 0008 623f 717a 573e
00000050: 8b75 ccbe 94b8 b5bf 2687 98bf 72a0 863e
00000060: 467f 243f 1337 45be efec a23e 415b b1bf
00000070: a880 abbe f5c1 8dbe 9678 4bbf 3404 493f
00000080: d76f 8b3e a6c5 0b3e 92b3 533f a608 df3c
00000090: baef d9bc d8ea b23e f4fa 9b3e 7575 5c3f
000000a0: 4c46 333d bacd 06be aa3a 403e 256d d13e
000000b0: 2bc1 823f 5c64 bd3d a8a2 843c 094e f23d
000000c0: 041a e43e 226b e03e 89dc 5c3f e310 43c0
000000d0: 5160 cbbf 8b98 593f dc08 3d3f 63af 733f
000000e0: cb1b 943e aa7b 39bf 9667 e6bf a23e e9bd
000000f0: 0578 c43f 0af3 1a3e 4131 c0bf e3a5 a1be
00000100: 7846 0ec0 aab1 ac3f a6fc 15bf f5a5 bb3f
00000110: 9bd9 173f b0ef 99bf 113b 8dbd ff8e 153d
00000120: 481b ddbe 5a19 8bbe 950a 6bbf 0d21 81be
00000130: df17 143f 9309 de3e 5a2d 803e 93ce e43f
00000140: dc8f 2e3f d796 27bb 8099 413f a3fa 313f
00000150: 0b90 0abd 463a f73e 5b11 30be 761c 8ebe
00000160: 1132 833e 3b9e fb3e f889 aa3f 6d4f d13e
00000170: adf0 c53d d7f5 af3e bbc0 1b3f e320 a73f
00000180: c8de 083f 5969 3c3c 73fe b73e c8bd 343f
00000190: 400a ad3f b0b7 123f e9d3 1e3e 0487 f8be
000001a0: f31f 6bbe ba91 a7be 27c4 4ebd e625 37bf
000001b0: 92f7 77be 23c3 98bf 7dfe cbbf 1420 80bf
000001c0: c629 f13d e874 cbbf dcb1 e8be 3ec7 53bf
000001d0: c725 10c0 baa3 a2be 092a 9a3e 174d 13be
000001e0: 2cca 653e 9a77 883e a68a 38bf 59a1 92bf
000001f0: 5e6b 1bbe e02d 7b3d ab97 e93e 0dbd 9f3e
00000200: 5c58 673e f3fb 2cc0 e094 ccbe a451 83be
00000210: 06b8 94bf 858e b83e 0996 90bf 6c99 35bf
00000220: dbdf 913e b63a 5c3e 9333 08bf 4cd5 e6bf
00000230: fd3c 36bf b2ee 86bf 8fcf b93e f5a0 9d3d
00000240: 10c0 26c0 ea9d 22c0 a799 f7bf 6c4c b23f
00000250: 790d 0c40 f054 24c0 4b41 24c0 9190 efbf
00000260: f71a bd3f 8176 0840 14ef 19c0 ddac 27c0
00000270: b89c e9bf c1e0 c33f 5618 1240 16c0 03bf
00000280: a406 4b3e af8a 433f bb7b 6f3f 5cac 88c0
00000290: ae8f 84c0 1392 ebbf 5339 15bf 53c2 913e
000002a0: 8217 28ba 682e acbe e869 38be 3231 263f
000002b0: a88d 63bf 4736 03bf 420a 763f abaa ec3e
000002c0: eb0a 8f3f 68c7 103d 8a9a 95bf b71d e4bf
000002d0: 71e2 f33e f738 4d3f b415 763e 72e6 a4be
000002e0: 0a0e 3dbf 4640 0e3f 0e77 cc3e e9a3 303f
000002f0: 7195 0abe 98d3 06bf ec17 763e f6cc 203f
00000300: d48d 6d3f 4163 343f 88a6 28bf 3ede b7bf
00000310: e44e f53d a30f 593f bc51 e6bd 038f 1b3f
00000320: 3e96 d03f 7786 0840 9748 8b40 a90d d43e
00000330: e9ec ccbe c9f7 bc3f aa72 0140 6ca6 8e40
00000340: acd0 f53e c693 a7be d1ff b13f f094 fd3f
00000350: cde1 8e40 6d28 af3e 0447 a7be 1c51 d7bd
00000360: 0332 e4be 2058 debe 7791 0fbe 94a2 33c0
00000370: a003 00c0 99a7 c3be 9b93 69be 6f82 9b3d
00000380: 6cf9 98bf c1bc 94bf 3185 cb3f b46f 7ebe
00000390: 4477 05bf 8b4d f03f 349b c43d 707b c63f
000003a0: 4913 71bf ce19 1fbf b0cc 30bf 2aed e23d
000003b0: 872a b0bf 4578 b2be ccec bebe 2f1b b0be
000003c0: ea3d 633f 75c6 203f 3fc3 da3e 5415 7d3e
000003d0: 2f78 c3bf 20b4 b13f e3e4 cabe 41cf 473f
000003e0: 36c5 ca3f 7365 6b3f 492f 163e cde3 3e3f
000003f0: fb0d f0bd d68c 8cbe d950 253f 49cb b13e
0.20984162 0.3342148 0.67172426 0.48849252 -1.9022257 -1.2525475 -0.6383138 1.0254711
0.16527459 -0.3914542 -0.42492226 -1.9148954 -1.4252172 -0.18536678 -0.43734562 0.27937514
-1.0176677 0.6082947 0.8829346 0.21042801 -0.39933428 -1.4196954 -1.1916244 0.26294285
0.64256704 -0.1925929 0.3182139 -1.3855973 -0.33496594 -0.2768704 -0.79480875 0.7852204
0.27233765 0.13649616 0.8269588 0.027225804 -0.026603568 0.34944797 0.304649 0.86116725
0.043768212 -0.13164416 0.18772379 0.40903583 1.02152 0.09247658 0.016190842 0.1183129
0.44551098 0.43831736 0.8627401 -3.0479057 -1.5888768 0.8499839 0.73841643 0.95189494
0.28927454 -0.7245432 -1.8000362 -0.113888994 1.5349127 0.15131775 -1.5015031 -0.31571874
-2.223051 1.3491719 -0.58588636 1.4660021 0.59316415 -1.2026272 -0.06896032 0.036513325
-0.43184876 -0.2716778 -0.9181302 -0.25220528 0.57848924 0.4336668 0.250346 1.7875541
0.6818826 -0.0025572085 0.7562485 0.69523066 -0.033828776 0.48286647 -0.1719412 -0.2775609
0.25624135 0.49144158 1.3323355 0.4088091 0.09665046 0.34367248 0.6084096 1.3056911
0.5346494 0.011499726 0.35936317 0.70602083 1.3518753 0.57311535 0.15510525 -0.4854051
-0.22961406 -0.32728368 -0.050480034 -0.71542203 -0.24215534 -1.1934551 -1.5937039 -1.000979
0.11775546 -1.5895052 -0.45448196 -0.82725894 -2.2523057 -0.31765538 0.30110195 -0.14384876
0.22440404 0.2665375 -0.7208656 -1.1455489 -0.15177676 0.061323047 0.45623526 0.31198922
0.225923 -2.7028778 -0.39957333 -0.25648224 -1.161866 0.36046234 -1.1295787 -0.7093723
0.284911 0.21506771 -0.53203696 -1.8033843 -0.7118681 -1.0541594 0.36291167 0.07696716
-2.6054726 -2.5408883 -1.9343766 1.3929572 2.1883223 -2.5676842 -2.5664852 -1.8715993
1.4773854 2.132233 -2.4052172 -2.6199257 -1.8250952 1.5302964 2.2827353 -0.51464975
0.19826752 0.7638349 0.9354817 -4.27104 -4.142539 -1.8403953 -0.58290595 0.2846857
-0.00064121943 -0.33629155 -0.1800915 0.64918816 -0.88888025 -0.51254696 0.961094 0.4622396
1.1175207 0.03534642 -1.1687787 -1.7821568 0.476337 0.80165046 0.24031717 -0.32207066
-0.73849547 0.55566823 0.39934582 0.6900011 -0.1353357 -0.52666616 0.24032563 0.62812746
0.9279454 0.7046395 -0.65879107 -1.4364698 0.11977938 0.84789485 -0.11246058 0.60765094
1.629585 2.133207 4.352611 0.41416672 -0.40024498 1.4763118 2.0226235 4.457815
0.48010767 -0.3272993 1.3906194 1.9811077 4.4650636 0.3421053 -0.32671368 -0.10513517
-0.44569406 -0.4342661 -0.14020334 -2.806798 -2.0002213 -0.38213804 -0.22810213 0.075932376
-1.1951118 -1.1620103 1.5900022 -0.24847299 -0.5213511 1.8773664 0.09599915 1.550642
-0.9417005 -0.6214875 -0.6906233 0.11080392 -1.3762978 -0.34857383 -0.37290037 -0.3439574
0.8876635 0.6280282 0.42727086 0.24715167 -1.5271052 1.3883095 -0.39627752 0.7805062
1.5841434 0.91951674 0.14666475 0.74566346 -0.117214166 -0.274512 0.6457649 0.34725407

convs.2.fc_full.bias f4 [32]
00000000: 34b1 0b3e 7ab2 07be 6c35 f0bd b056 08be
00000010: b46c 00bc 335c 35be 7e4b 5ebd e427 1fbe
00000020: 98b7 a5bc 6c5f 953c 281e 833c 61aa cb3d
00000030: 40c5 3dbd 9816 503e 2fde 0f3d 284a e2bd
00000040: 2c25 de3d 4078 033e 8a0d 69be 1cbe 8a3d
00000050: be4d c33d a890 c4bd cd25 923e ae4b c3ba
00000060: 08a3 2bbe 9edc 4c3e 0087 053e a8a5 c33d
00000070: 67a8 a7bb 70ac 913d 25b6 453e dbd4 adbd
0.13641816 -0.13251677 -0.117289394 -0.13314319 -0.007838417 -0.17710952 -0.054271214 -0.15542561
-0.020229146 0.018233977 0.01600559 0.099446066 -0.04633069 0.20321119 0.035124 -0.110493004
0.10846934 0.1283884 -0.22759071 0.06774542 0.095363125 -0.095979035 0.28544465 -0.0014899874
-0.1676141 0.20006034 0.1303978 0.09553081 -0.0051165107 0.07112968 0.19307764 -0.084878646

convs.2.bn1.weight f4 [32]
00000000: 9d6d 723f d2d7 4e40 e3e4 1640 423b e03e
00000010: 9e66 913f f24b 9440 44ef c640 2fe2 9440
00000020: 9a07 b340 5c73 0240 004a 3e40 461a 7840
00000030: 8d36 9a3f fc39 8640 c64b 1d3f 3d16 b240
00000040: 62b9 863e 4787 2b3f 935e 4240 6f57 c93e
00000050: fdf4 1440 2d43 cb3f 8fa4 4d40 3dbe 8c3f
00000060: 33ac d03f f5f8 553f c729 983f 5b95 9f40
00000070: ed1b d33f 1448 cf3f 4b85 b13f 5906 4e40
0.94698507 3.2319226 2.3577201 0.4379521 1.1359441 4.6342707 6.216707 4.6526103
5.594678 2.038291 2.9732666 3.8766036 1.2047898 4.194578 0.61443746 5.5652146
0.2631331 0.6700329 3.0370224 0.3932452 2.327453 1.5879875 3.2131689 1.0995556
1.6302551 0.83583003 1.188775 4.986982 1.6492897 1.6193871 1.3868803 3.2191374

convs.2.bn1.bias f4 [32]
00000000: 35f9 d63e 75ab bdbf 8923 293f 930e ac3e
00000010: 8055 20bf 52a9 c93c 177d 3dbf 610e bfbf
00000020: 8b76 863e fe81 40bf 00f8 d4bd 153a 113e
00000030: bc82 ffbf 5b73 2dbe 0346 0ebf 99fd 3abf
00000040: 88d7 413f 5577 a6be 8c17 cbbf 1492 61bd
00000050: d0b0 60bf 8b53 163e 6a53 20bf 59e6 a2bf
00000060: 4ade e4be 7455 d4bf bc80 cebe dbb0 8fbf
00000070: 57e3 37c0 bff1 d0bf 8482 adbf ff29 67bf
0.41987005 -1.481795 0.6606985 0.3360487 -0.6263046 0.024616871 -0.74018997 -1.4926263
0.26262316 -0.7519835 -0.10398865 0.14182313 -1.9961772 -0.16938536 -0.5557558 -0.7304321
0.757195 -0.32512918 -1.5866561 -0.05507095 -0.87769794 0.14680307 -0.6262728 -1.2726547
-0.44700843 -1.6588578 -0.40332592 -1.1225847 -2.8732507 -1.6323775 -1.3555455 -0.90298456

convs.2.bn1.running_mean f4 [32]
00000000: fdac 2ac1 c5da 7041 2a87 29c2 0589 b641
00000010: d2d7 3dc1 97fa d3bf 3570 00c2 9a66 29c1
00000020: ef64 c8c1 f3aa aec1 2f58 b8c1 2c2c f1c1
00000030: f4dc 05c2 5ef0 e3c1 129f 8ac1 7ca4 86c1
00000040: 1c0b 7bc1 5aba 40c1 6357 c8c1 89ce 9741
00000050: 8bee b1c1 976b 0c42 79b4 54c2 11ec d9c1
00000060: d9d1 01c2 4a38 11c2 5867 44c1 47e9 15c0
00000070: defd 85c1 1e9d dfc1 3af7 b1c1 5833 0dc2
-10.667233 15.053411 -42.381996 22.816904 -11.8651905 -1.6560849 -32.109577 -10.587549
-25.049284 -21.833471 -23.043058 -30.146568 -33.465775 -28.492367 -17.327671 -16.830315
-15.690212 -12.045496 -25.04267 18.975847 -22.241476 35.10507 -53.176243 -27.240267
-32.45493 -36.30497 -12.27523 -2.342363 -16.748959 -27.951717 -22.245716 -35.30014

convs.2.bn1.running_var f4 [32]
00000000: 8b36 8a42 6fd8 2c42 f34a 4a43 9faf 1f42
00000010: 647a ce42 442d 5442 7af6 4c42 fee7 3742
00000020: 4b8f bc42 5e1c 2243 4d00 f541 8e98 a942
00000030: 5f45 aa42 cd55 0942 6192 9242 bfdc f541
00000040: e63f a742 cf4c a241 5ad6 ec42 4c36 3642
00000050: d9c0 c442 0fd7 0e42 4c21 6e42 da02 5042
00000060: e895 5a42 a88b 6443 d8ec ca42 6a4e 6942
00000070: e7f8 5942 9ce3 2542 5b34 a042 0fd8 7f42
69.10653 43.21136 202.29277 39.921505 103.239044 53.044205 51.2407 45.976555
94.27987 162.11081 30.625147 84.79796 85.13549 34.33379 73.2859 30.732786
83.6248 20.287504 118.418655 45.553024 98.376656 35.71002 59.532516 52.002785
54.646393 228.54553 101.462585 58.326576 54.49307 41.472275 80.10226 63.960995

convs.2.bn2.weight f4 [16]
00000000: 55f7 cf3f 2ca0 4340 746d 983f c8fe ee3f
00000010: fd70 0540 70db 2540 fea4 ce3f 4754 1240
00000020: 5402 b73f 4380 da3f f13f c53f 073b da3f
00000030: 2220 a43f 6ea2 c93f 3445 0840 1056 d03f
1.6247355 3.056651 1.1908402 1.8671503 2.0850213 2.5915184 1.6144102 2.286394
1.4297585 1.7070392 1.5410138 1.7049264 1.2822306 1.5752695 2.1292238 1.6276264

convs.2.bn2.bias f4 [16]
00000000: 94a2 6c3e ca0f 76bb 7fa4 71bf ce75 21bc
00000010: c4d4 33c0 669f f6be c6ca 66bf 2168 9ebe
00000020: c825 e4be 7a88 7b3e ac7b 32be 201b 50bf
00000030: e794 42bf 5502 1dbf 8af0 6dbd 0f92 b5be
0.23108894 -0.0037546032 -0.94391626 -0.009854747 -2.8098612 -0.48168486 -0.9015316 -0.3093882
-0.44560075 0.2456378 -0.1742999 -0.8129139 -0.76008457 -0.61331683 -0.058090724 -0.35462996

convs.2.bn2.running_mean f4 [16]
00000000: 3edc 0841 a7e3 1340 e386 f640 c433 9f40
00000010: ef9b a640 a4d4 8740 85bf f540 1307 d93f
00000020: 8957 af40 85e3 c83f cf66 9740 0a3a 1a41
00000030: a7e7 363e e020 3640 2762 1040 2d3f bb40
8.55377 2.3107698 7.7039657 4.975069 5.206535 4.244707 7.679629 1.6955284
5.4794354 1.5694433 4.7313 9.63917 0.17861806 2.8457565 2.2559907 5.851462

convs.2.bn2.running_var f4 [16]
00000000: 490c 3e41 3045 af40 4a3e 0443 3036 5440
00000010: d823 5342 ee12 6441 9ac1 eb42 bf7e 6c40
00000020: e7ff d341 949a 3c40 2d17 a141 c512 8643
00000030: 5b36 df3c d315 4441 b037 b640 cb41 9442
11.877999 5.4771957 132.24332 3.3158073 52.785004 14.2546215 117.87813 3.695236
26.499952 2.9469347 20.136316 268.14664 0.027247598 12.255328 5.694298 74.1285

convs.3.fc_full.weight f4 [32, 56]
00000000: 8de2 503f 2266 c63e d74a ca3f 31d8 2e3f
00000010: 2b6c 56bd 2466 823f d098 5fbf 54e0 9cbd
00000020: eebc c8bf 58e5 5b3f a69b c7bf 1864 493f
00000030: ef21 74bf 0a43 363e 4f71 c33d 42f9 6abe
00000040: 4806 2fbf 364b ac3e 6d14 d63f 002a 4f3e
00000050: f79d 1cbe e5cc 393f fb1d 563f ce9a fabe
00000060: b568 8c3e 23e7 a7be fcd2 343d 39f9 ca3e
00000070: 92cf 913f 690b 5d3f 95cb 77be 4ad7 8c3f
00000080: 03b1 933f 488f d83f 81ef ad40 bc09 863f
00000090: 1f5f 8e3d b88b 9a3f 6a8c de3f bb98 ba40
000000a0: 52e1 4a3f 3c9a bf3d 92e8 783f 560f cc3f
000000b0: 6382 bc40 a52a 623f c35f 233e 0ca7 23bf
000000c0: 9a97 07bf 5a09 a9be 7836 eb3e d66e 3dc0
000000d0: f7c0 f5bf eafb a43e 4b4f 483f d0de 3e3f
000000e0: 6ee7 a3be 0133 913f 7a54 203f a7cc 5bbd
000000f0: 7d61 e6bf 9e89 6a3f 4439 9fbf 36cd b1be
00000100: 221c 96bf 7b48 dc3d 3d0f e4be 56d7 2d3f
00000110: 7e26 3c3e 372b 9abf a36f 91bf 723b 02be
00000120: 6170 7ebf 0587 d73d ef2e f83e fafd ddbe
00000130: 4396 82bf b889 a03f 9c69 2f3f cd81 943f
00000140: 2335 493f c1ad 2fbf 4047 723f 20d3 cdbe
00000150: 7174 b43f a908 86be 46e8 53bf ef85 4f3e
00000160: 1207 943d ad62 3c3f 4446 b140 138a 4140
00000170: c79a ff3f 078a dcbd bdef 4d3f 972f b140
00000180: e49b 4140 f8ba e43f c6c2 c4ba 1c86 543f
00000190: 9f57 b440 b095 3e40 2490 d93f 957d bdbf
000001a0: bc59 44bf 408d 32be bf27 f13e 66ab e2bf
000001b0: 4c4a 6fbf 59f3 0fc0 c366 66c0 c613 71c0
000001c0: b40b 8d3e b531 e2bc 2849 0040 4954 c1bd
000001d0: 9a1b f83d 2134 0fbf c120 513f 448a 1e3f
000001e0: 3bf5 8e3c 8d6b 1d3f 5601 a7be afe9 873d
000001f0: ed53 78bf 8eba 5e3e f08d e33f 5fe6 61bf
00000200: 0da1 243f 5629 933e e3ff 0840 2287 d1be
00000210: d361 383f 6aa7 5fbf df71 713e 2cba f13e
00000220: d474 a03e 4dd6 fb3e fe06 d03d 1d44 58bf
00000230: b711 23be 0578 c23e c13e 843f 1ca0 fd3e
00000240: b45c 10c0 5d7c 3cc0 df25 9ac0 1127 7ebf
00000250: b8dd 823e d04d 02c0 1c14 2ec0 2f31 9cc0
00000260: 504a 60bf f74a bd3e c9f6 e6bf 63af 29c0
00000270: d56b 94c0 1ba7 89bf a9ad c53e c9b0 0cbf
00000280: b837 15bc 0d9e bd3d ed2f 053f 8612 bcbf
00000290: 5a32 d5be 9610 f13f 9c94 b93f 2af1 233f
000002a0: 169b 823c 7d6c 53bf cc9b 5d3f 154f 9d3f
000002b0: af4f 9fbf d974 2a3f 86a6 c0be 576a f2bd
000002c0: 5b09 83bf d9cf 0b3d 76bf c3bf 203c d43c
000002d0: 51c7 743d adc7 853e bd33 49bd 30e4 19be
000002e0: f2d8 0ebf 10ed 2d3f 741c b53f bb1e 153f
000002f0: ce41 12bd ea3a 26bf b69b 623f f23f 6cbd
00000300: 9715 803e 3d76 2fbe 8e46 96be 3055 aebe
00000310: b372 183f ca88 613f 51c5 e0be 8c11 903f
00000320: cd0e b83f 4d3b 0640 0d9f 9a40 f100 ff3e
00000330: 8ac4 9fbe 2918 b03f 99e6 0640 72e6 9f40
00000340: fdcd b23e ede8 95be 4984 b63f 9625 0140
00000350: aef0 a540 91e5 f33e f0bf a1be ad67 90be
00000360: 8fc9 dcbe b663 a6be a4f2 603d 9526 2ac0
00000370: 2769 e1bf ca16 3e3f 980c 853f 09c7 9e3f
00000380: 42aa 32bf af81 d3be 92e0 32bf 87b4 2dbe
00000390: e026 8a3b 3480 dc3f 7abd 55bf a690 3c3f
000003a0: 8bed 46be 5614 c13f 1b1e 5f3e 5e0c fe3e
000003b0: ae6b 24bf 3e3c 923e 8ef5 3a3f 9c4a 09bf
000003c0: 99ed 00bf e275 85be a5df f7be dc50 d3bd
000003d0: 0b5a fc3e 0752 933f 5f80 2abf 4685 833f
000003e0: 0711 003e 4503 853f 64ac d13e 746d 833f
000003f0: d365 7fbf d718 c83e 237b 263f 8029 5bbe
0.8159569 0.38749796 1.5804089 0.6829863 -0.05234925 1.0187421 -0.8734255 -0.07659975
-1.5682657 0.85896826 -1.5594375 0.78668356 -0.9536428 0.17799011 0.09543096 -0.22946647
-0.6836896 0.3365113 1.6724983 0.20230865 -0.15294634 0.7257827 0.83639497 -0.48946232
0.27423635 -0.3279353 0.044146523 0.39643267 1.139147 0.86345536 -0.24198754 1.1003201
1.1538395 1.6918726 5.4354863 1.0471721 0.06951737 1.2073889 1.7386601 5.831144
0.7925006 0.0935559 0.97229874 1.594218 5.8909163 0.8834632 0.15954499 -0.6392677
-0.529657 -0.33014947 0.45939994 -2.95989 -1.9199513 0.32223445 0.7824599 0.74558735
-0.32012504 1.134369 0.626289 -0.05366197 -1.7998501 0.9161624 -1.2439351 -0.34726876
-1.1727335 0.10756012 -0.44542876 0.679067 0.18374059 -1.2044438 -1.1362194 -0.12717989
-0.99390227 0.105238 0.48473307 -0.4335783 -1.0202106 1.2542028 0.6852052 1.1602112
0.78596705 -0.686245 0.9463997 -0.40200138 1.4098035 -0.26178482 -0.82776296 0.20265935
0.07227911 0.7358807 5.5398273 3.0240524 1.9969109 -0.10768514 0.80443937 5.5370593
3.0251398 1.7869558 -0.001501166 0.83017135 5.635696 2.9778862 1.6997113 -1.480395
-0.76699424 -0.17436695 0.47100636 -1.7708557 -0.93472743 -2.2492278 -3.600022 -3.7668319
0.2754799 -0.027611593 2.004465 -0.09439904 0.121146396 -0.5593892 0.81690603 0.61929727
0.01745092 0.61492234 -0.32618207 0.066363685 -0.9700306 0.21750852 1.7777691 -0.88242143
0.64308244 0.28742474 2.140618 -0.4092341 0.7202427 -0.8736483 0.23578595 0.4721235
0.31339133 0.49186936 0.10157584 -0.8447893 -0.15924726 0.37982193 1.0331651 0.49536216
-2.2556581 -2.9450905 -4.817123 -0.9927836 0.25559783 -2.0359993 -2.7199774 -4.881004
-0.8761339 0.36971256 -1.8044063 -2.6513298 -4.638163 -1.0754122 0.38609055 -0.5495725
-0.009107523 0.092586614 0.52026254 -1.4693153 -0.41639978 1.8833187 1.4498477 0.6403986
0.015943091 -0.82587415 0.8656585 1.2289759 -1.2446193 0.66584545 -0.37627047 -0.11836689
-1.023723 0.034133766 -1.5292804 0.025907576 0.059760395 0.26128903 -0.049121607 -0.15028453
-0.5579978 0.67939854 1.4149308 0.58250016 -0.035707287 -0.64933646 0.88518846 -0.05767817
0.25016472 -0.17134948 -0.29350704 -0.34049368 0.5955002 0.8809935 -0.4390054 1.1255355
1.4379517 2.0973694 4.8319154 0.49805406 -0.31204635 1.3757373 2.1078246 4.9968805
0.34922782 -0.2927927 1.425912 2.017919 5.18563 0.47636083 -0.3159175 -0.28204098
-0.43122527 -0.32497948 0.0549189 -2.6586049 -1.7610215 0.74253523 1.0394468 1.2404491
-0.6979104 -0.41309878 -0.6987392 -0.16963397 0.00421606 1.7226624 -0.83492243 0.73658216
-0.19426553 1.5084331 0.21788828 0.4961881 -0.64226806 0.28561586 0.73030937 -0.5362947
-0.50362545 -0.260665 -0.48412815 -0.10318157 0.49287447 1.1509408 -0.6660213 1.0275047
0.12506495 1.0391623 0.40951836 1.0267777 -0.99764746 0.3908145 0.6503164 -0.2140255

convs.3.fc_full.bias f4 [32]
00000000: 26c1 693d 069f 46bd aa54 f2bd cbed 213d
00000010: b176 213e 5884 58bd 5817 223e 387b b9bc
00000020: c68e af3d 402b 123e cbd2 a63d 3880 58bd
00000030: 100a 763c baca c13d f43e ffbd 91a0 60bd
00000040: c28f f6bb 0815 1cbb 30de d33d 76ab 7cbd
00000050: 165d c33d b485 d23d 3817 853e 8fdc debd
00000060: 4751 f53d cd98 0fbe 5ee9 493b 9fb4 c6bd
00000070: 4022 163e 8f7c 463c 69ba bcbd 1d42 c33c
0.057068966 -0.0484915 -0.11832555 0.039533418 0.15767933 -0.052860588 0.15829217 -0.022641763
0.08572154 0.14274311 0.08145674 -0.052856654 0.0150170475 0.09462495 -0.12463179 -0.054840628
-0.0075244615 -0.0023816247 0.10345113 -0.061686955 0.09539239 0.10279408 0.25994277 -0.10881912
0.11978393 -0.14023133 0.0030809264 -0.097024195 0.14661503 0.012114658 -0.092152424 0.023835236

convs.3.bn1.weight f4 [32]
00000000: d4d4 ce3f 551c 6a40 6f87 ab3f b941 783f
00000010: dbb6 0240 b6ef 9c40 e6ff a640 6d5e 0a40
00000020: 636d 2540 5351 793f 1420 8240 f85b ec3f
00000030: e7b1 0d40 4033 4940 3c5b a53f 1895 2640
00000040: 9fe0 143e d770 9a3f 16ba 833f 345a d13e
00000050: 6fb2 7940 2f7c eb3f e56c 4440 f9e6 6b40
00000060: 7098 1a40 40b1 143f 9a07 a63f bca2 f43f
00000070: e8e4 2d40 1f9b 2440 41df 1f3f 96f6 493f
1.61587 3.6579792 1.3400706 0.96975285 2.0424106 4.9042616 5.2187376 2.1620133
2.5848014 0.97389716 4.066416 1.8465567 2.2139833 3.143753 1.2918468 2.60285
0.14538811 1.2065686 1.0291164 0.40889132 3.9015157 1.8397273 3.0691464 3.6859725
2.415554 0.5808296 1.297107 1.9112163 2.7170963 2.5719678 0.62450033 0.78891885

convs.3.bn1.bias f4 [32]
00000000: 2adb 723f f535 b4bf ca5f 0dc0 7292 933d
00000010: f507 6bbf 2948 82bf 1a67 62bf 1df6 3cc0
00000020: f552 12c0 3c6b f1bf af18 8d3e d9f9 bbbf
00000030: 1b20 13bf 4a28 13bf 8122 a63e cf20 3d3f
00000040: 8b91 523f 0cce 12bf 3d98 e03f d4c2 473e
00000050: 0489 f2bf 78eb d6bf 35c8 54bf c7d5 dd3e
00000060: bd4e ebbf 3900 693f cd11 04be bf9f 3dbf
00000070: 87ff 94be 2c19 bfbf e919 bb3e 56d4 023f
0.9486567 -1.4078966 -2.2089715 0.072056666 -0.91809016 -1.0178272 -0.8843857 -2.9525216
-2.2863133 -1.886085 0.27557895 -1.4685622 -0.57470864 -0.5748335 0.324482 0.73878187
0.8225333 -0.5734565 1.754646 0.19507915 -1.8948064 -1.6790609 -0.8311799 0.43327162
-1.8383404 0.91015965 -0.12897415 -0.7407188 -0.29101202 -1.4929557 0.36543205 0.5110525

convs.3.bn1.running_mean f4 [32]
00000000: 46e7 0742 e092 0642 19ad 9bc1 a638 b841
00000010: a5d7 1bc0 a094 b3c0 438f d640 e7f2 69c1
00000020: bd56 93bf 95ad 8741 2868 8ec1 57d0 1cc1
00000030: 1bfb e0c1 9c59 3f41 89cd f53f 2ec2 fc40
00000040: ec00 3f41 cc11 8a41 7066 12c2 9126 6e41
00000050: bafe 12c2 7ec8 70c1 8a43 09c2 cac5 ffc1
00000060: ee01 6ac1 d294 2bc1 0a6d f5c1 48a2 edc1
00000070: d744 7d40 a8a7 81c0 d41a ebc0 b48e 11c2
33.975853 33.643433 -19.45952 23.02766 -2.435037 -5.6118927 6.704988 -14.621802
-1.1510845 16.959757 -17.800858 -9.800864 -28.12261 11.959377 1.9203349 7.8987036
11.937725 17.25869 -36.600037 14.884416 -36.748756 -15.048948 -34.315956 -31.971577
-14.625471 -10.723833 -30.678242 -29.704239 3.9573267 -4.051716 -7.347025 -36.38936

convs.3.bn1.running_var f4 [32]
00000000: e4ff 3943 c04b c742 1ff4 a842 c339 9a42
00000010: fec5 0b43 0e36 df42 cecd a642 749b 4143
00000020: 41e6 0243 6c89 1843 da3c d242 8976 7f42
00000030: 5502 4742 bf47 d542 b1f9 6143 bb97 7442
00000040: 2125 4443 b55d d542 11de 9f43 052b 0243
00000050: 70c2 9642 e919 9c42 c49e 3043 f690 e342
00000060: aeb6 7342 d3b3 2943 ce84 2243 7f4e bf42
00000070: 47ce b342 696e df42 14de 7e43 bbab 0543
185.99957 99.64795 84.4768 77.112816 139.7734 111.605576 83.40196 193.60724
130.89943 152.5368 105.11885 63.865757 49.752277 106.64013 225.97536 61.148174
196.14503 106.68302 319.7349 130.16805 75.37976 78.050606 176.62018 113.78313
60.9284 169.70244 162.51877 95.65331 89.902885 111.715645 254.8675 133.67082

convs.3.bn2.weight f4 [16]
00000000: 1721 c53f b21e 3f40 95cd ef3f f50b f13f
00000010: cd5f 0940 6aaa f13f 7c9c 1540 ed93 b63f
00000020: 9c78 ba3f d28b 9f3f 7a25 0840 c8e1 2740
00000030: a51e 9a3f e3e2 c33f 7fe6 cd3f 040c d83f
1.5400723 2.9862485 1.8734614 1.8831774 2.1464722 1.8880131 2.337676 1.4263893
1.4568057 1.2464545 2.1272874 2.6231556 1.2040602 1.5303615 1.6085967 1.6878667
