cgcnndefect/examples/OxideMLpaper1/cgcnn/model-1.00k0_ve_vg_vs/model_best.pth.tar (torch, 62006 bytes, 65 tensors)

embedding.weight f4 [8, 102]
0	0xbd6755c4	-0.056478277
1	0x3cb839b1	0.022488447
2	0xbe36b918	-0.17844045
3	0xbe86cacc	-0.26326597
4	0xbee13182	-0.43983084
5	0xbef0f91b	-0.47065052
6	0xbc3f6d5f	-0.011683791
7	0x3f364167	0.71193546
8	0x3f04a590	0.5181513
9	0x3f46e3df	0.77691454
10	0x3d1c2aa3	0.0381266
11	0xbb7aaba9	-0.003824929
12	0xbc7e29c3	-0.015512886
13	0xbe38a079	-0.18029965
14	0x3d137325	0.035998482
15	0xbdb39b83	-0.08769896
16	0xbb53f38e	-0.0032341215
17	0xbdb79b1f	-0.08965134
18	0xbb3a8ef9	-0.0028466566
19	0xbdc039a5	-0.09385995
20	0xbe0aecba	-0.13566867
21	0xbf4a653c	-0.7906072
22	0x3e8976bd	0.26848403
23	0xbd6985ac	-0.057012245
24	0x3dc16369	0.09442789
25	0xbc38dcfe	-0.011283157
26	0x3cffc863	0.031223482
27	0xbd37de1f	-0.044889566
28	0xbee2a2b1	-0.4426475
29	0x3eb84dcc	0.35996854
30	0x3e037a9e	0.12839743
31	0xbd5c1d58	-0.053738922
32	0x3ced60de	0.028976854
33	0x3dc25285	0.094883956
34	0x3d110620	0.035406232
35	0x3dc7d448	0.09757286
36	0xbcce7aed	-0.0252051
37	0xbc9efbc4	-0.01940716
38	0xbcf2cff3	-0.029640174
39	0x3efebccf	0.49753425
40	0x3acd737c	0.0015674676
41	0xbe4bfe0a	-0.19921127
42	0xbeeb2e3d	-0.45933715
43	0x3e90b8c8	0.28265977
44	0x3db56338	0.08856815
45	0x3cc607d3	0.024173653
46	0x3da70f91	0.08157266
47	0xbe3e7987	-0.18601047
48	0xbe14b58f	-0.14522384
49	0xbed6ce16	-0.41954106
50	0xbecc5f36	-0.3991639
51	0x3c88c7a9	0.016696768
52	0x3f511b05	0.81681854
53	0x3f183775	0.5945962
54	0x3f35a41d	0.7095354
55	0xbab9cfe4	-0.0014176336
56	0xbdc4c2dc	-0.09607479
57	0x3cff2509	0.03114559
58	0x3d8c75f9	0.06858439
59	0x3e0ee25d	0.13953538
60	0xbe4756ea	-0.19466749
61	0x3da0214f	0.07818853
62	0xbba4e2e1	-0.005031929
63	0xbdc1830f	-0.094488256
64	0xbbc414c5	-0.0059839212
65	0x3c3371fe	0.010952471
66	0xbda7b0f4	-0.08188048
67	0xbc70a08b	-0.014686714
68	0x3ccae7f5	0.024768809
69	0x3b5a3cad	0.0033300326
70	0xbd97ac8c	-0.074059576
71	0xbc359cd2	-0.011084752
72	0x3e35e9f7	0.17765032
73	0xbf66260a	-0.89901793
74	0x3d3ac083	0.04559375
75	0x3d7c4bee	0.06159585
76	0xbdaaa0ec	-0.08331475
77	0x3cc48fd7	0.02399437
78	0xbe4bc861	-0.19900657
79	0xbd5c3185	-0.053758163
80	0x3dc007eb	0.0937651
81	0xbdb8127d	-0.08987901
82	0x3ceaad46	0.028647076
83	0x3f6dbc29	0.92865235
84	0xbf573610	-0.8406687
85	0xbf415ee9	-0.75535446
86	0x3e2a5de0	0.16637373
87	0xbcd073c7	-0.025445832
88	0xbf89823b	-1.0742868
89	0x3e3a783e	0.18209931
90	0xbd80dab5	-0.06291715
91	0xbdc68ef8	-0.09695238
92	0xbd59da77	-0.05318686
93	0xbcc7ca05	-0.024388323
94	0x3d319d97	0.04336318
95	0xbdc6748d	-0.09690199
96	0x3fc73654	1.5563455
97	0xbde5ceea	-0.11221106
98	0xbf8c52db	-1.0962785
99	0xbf1ac94c	-0.60463405
100	0xbe807e2b	-0.2509626
101	0x40018590	2.023777
102	0xbebac445	-0.36477867
103	0x3d4197f7	0.047264066
104	0x3e88b3b7	0.26699612
105	0x3e339a98	0.17539442
106	0x3edea8ee	0.43488258
107	0x3ee587f9	0.448303
108	0xbdc332c1	-0.09531165
109	0x3e84558d	0.2584652
110	0xbf04a867	-0.5181946
111	0xbf0bc7b8	-0.5460162
112	0xbf2578fb	-0.64637727
113	0x3d74dedf	0.05978286
114	0xbd67adaa	-0.056562103
115	0x3e1f9a96	0.15586314
116	0x3d078126	0.03308215
117	0x3d4b9fd0	0.049712956
118	0xbec1c9b4	-0.378492
119	0xbc8e6fea	-0.01738735
120	0x3ace825a	0.00157554
121	0xbcf12468	-0.029436305
122	0xbe6f28dc	-0.2335543
123	0x3e99afe0	0.30016994
124	0xbe8c341d	-0.2738351
125	0x3ea00ce5	0.31259838
126	0x3e47476f	0.19460844
127	0xbcf7aa2a	-0.030232508
128	0xbd7ef595	-0.062245924
129	0x3e5b3e54	0.21410495
130	0x3ecfbf34	0.40575564
131	0x3b236bce	0.0024936083
132	0xbf477abc	-0.7792165
133	0xbc3d383f	-0.011549055
134	0x3bb8b9d7	0.005637388
135	0xbc9ad680	-0.01890111
136	0xbe693716	-0.2277492
137	0xbd232c3f	-0.03983712
138	0x3ca429d9	0.020039486
139	0xbe78c7ea	-0.24295011
140	0x3dc1c613	0.09461608
141	0xbf6676e3	-0.90025157
142	0x3eb64355	0.35598245
143	0x3e44597d	0.19174762
144	0xbcc8fdd0	-0.02453509
145	0x3eaca757	0.3372142
146	0x3d5cd0b6	0.05390998
147	0xbce4a70c	-0.027911685
148	0xbd5db3b0	-0.05412644
149	0x3e2fd8d3	0.17172556
150	0x3e930988	0.2871821
151	0x3efa9c26	0.48947257
152	0x3eee6aff	0.46566007
153	0xbeb03d74	-0.34421885
154	0x3eac946a	0.3370698
155	0xbf0b7797	-0.54479355
156	0xbf1340da	-0.5752083
157	0xbf230dcb	-0.6369292
158	0x3d8d4510	0.06897938
159	0xbdb777f0	-0.08958423
160	0xbda1ac52	-0.078941956
161	0x3e1ddc62	0.154161
162	0x3e585c13	0.21128874
163	0x3dd606f2	0.104505435
164	0x3dbedcf2	0.09319486
165	0x3d2f4b7e	0.042796604
166	0xbec7352b	-0.3890775
167	0x3c79de99	0.015250825
168	0x3da613bd	0.081092335
169	0x3c141b13	0.009039658
170	0x3d3e9091	0.046524588
171	0x3da478b6	0.08030836
172	0xbda46d15	-0.08028618
173	0x3c1fdae5	0.009756778
174	0x3e421b02	0.18955615
175	0x3ed5085e	0.41607946
176	0xbe9456fb	-0.2897261
177	0xbd7e29c3	-0.062051546
178	0x3d444974	0.047921613
179	0xbce56a54	-0.028004803
180	0x3e59cb55	0.21268971
181	0xbe835c22	-0.2565623
182	0x3eeff01e	0.46862882
183	0xbed059af	-0.40693423
184	0xbd9ee09e	-0.07757686
185	0xbf0c17e3	-0.5472395
186	0x3ef207c7	0.4727156
187	0x3eed934b	0.46401438
188	0xbeadc31d	-0.33937922
189	0xbe654c73	-0.22392444
190	0x3ecaf6e1	0.3964148
191	0x3eb2e4d1	0.34940198
192	0xbd0a2d2b	-0.03373448
193	0xbd050537	-0.032475676
194	0xbe7f46fd	-0.24929424
195	0x3da2166c	0.07914433
196	0x3d974aef	0.07387339
197	0x3d8e2cbd	0.06942127
198	0xbdc938b7	-0.098252706
199	0xbf50789c	-0.81434035
200	0x3f8b5925	1.088658
201	0x3f29874e	0.66222084
202	0x3f3337c8	0.7000699
203	0x3f9d6ab9	1.2298194
204	0xbed9f53c	-0.4256991
205	0xbd37644a	-0.044773377
206	0x3d2f26e1	0.042761687
207	0xbf459636	-0.7718233
208	0xbe873a7f	-0.26411816
209	0xbed9cce5	-0.42539135
210	0xbd18e5c5	-0.0373285
211	0xbefe594d	-0.49677506
212	0x3e962589	0.29325512
213	0x3d9955e1	0.07487083
214	0x3dedafdf	0.116058104
215	0x3d637348	0.055529863
216	0xbd645906	-0.055748962
217	0x3ef5f88d	0.48041192
218	0x3d24d39b	0.040240865
219	0xbb1f8312	-0.0024339599
220	0x3e6de298	0.2323097
221	0xbd853db4	-0.065059096
222	0x3c07122e	0.0082440805
223	0x3c1ff095	0.009761949
224	0x3e9c7033	0.3055435
225	0xbe3f3976	-0.18674263
226	0xbe17845c	-0.14796585
227	0xbeecfd7b	-0.4628714
228	0xbe8d2902	-0.2757035
229	0xbd3d1cf1	-0.04617018
230	0xbd57c640	-0.0526793
231	0xbe8084cb	-0.25101313
232	0xbee63970	-0.44965696
233	0xbd827b03	-0.06371119
234	0x3e6a1926	0.22861156
235	0xbd1bf18c	-0.038072154
236	0xbd33dffc	-0.04391478
237	0x3c088f63	0.008334967
238	0x3ded4318	0.11585063
239	0xbd90fdc7	-0.07079654
240	0xbcc82e2d	-0.02443608
241	0x3e46ceec	0.19414872
242	0x3d1e4a75	0.038645227
243	0x3da05833	0.07829323
244	0xbe9efb3a	-0.31051046
245	0xbe7a2c37	-0.24430929
246	0xbee78558	-0.4521892
247	0xbd76d455	-0.06026109
248	0x3cce1433	0.025156116
249	0xbd904707	-0.070447974
250	0xbdba91f0	-0.091098666
251	0xbe9b6070	-0.30347013
252	0xbe4d5542	-0.20052055
253	0xbe894321	-0.26809028
254	0xbedf1672	-0.43571812
255	0x3e9e811e	0.30957884

embedding.bias f4 [8]
0	0xbf1630ff	-0.5866851
1	0xbea21bac	-0.31661737
2	0xbf60df9c	-0.878412
3	0xbeade287	-0.3396189
4	0x3f067832	0.52527153
5	0xbe7a0cbf	-0.24418925
6	0x3e6f465e	0.23366687
7	0xbe6ab900	-0.22922134

convs.0.fc_full.weight f4 [16, 40]
0	0xbe9806a9	-0.2969258
1	0x3e495678	0.19661891
2	0xbea25b76	-0.31710404
3	0x3ed60359	0.4179943
4	0x3eae3a27	0.34028742
5	0x3e96a19c	0.29420173
6	0xbe3042d9	-0.17213
7	0xbe748a57	-0.23880897
8	0x3e47c770	0.19509673
9	0x3f49e176	0.7885965
10	0xbeb65b6a	-0.35616618
11	0xbc38ad8e	-0.011271847
12	0x3ea7ad84	0.3274957
13	0xbdd27f3c	-0.10278174
14	0x3ed09dd2	0.40745407
15	0xbeab6094	-0.3347212
16	0xbe94707e	-0.28992075
17	0xbe2125e1	-0.15737106
18	0x3e586c7a	0.2113513
19	0x3ec02a08	0.37532067
20	0x3e2b3258	0.16718423
21	0xbe45e80d	-0.19326802
22	0xbe426b80	-0.1898632
23	0x3ea7e0d0	0.32788706
24	0x3e50dc34	0.20396501
25	0x3deb2a06	0.11482625
26	0xbe951d4f	-0.29123923
27	0xbd79425d	-0.060854305
28	0x3f030e62	0.5119382
29	0x3e3dec5b	0.18547194
30	0x3eab7aa6	0.3349201
31	0xbe170d1c	-0.14751095
32	0xbeace9f6	-0.33772248
33	0xbec6c7cf	-0.38824317
34	0xbe347da4	-0.17626053
35	0x3dbee9a7	0.093219094
36	0x3d03d2ba	0.032183386
37	0x3da605b4	0.081065565
38	0x3e837753	0.25676975
39	0xbe1eb4dd	-0.15498681
40	0x3dcd515e	0.10025285
41	0x3de97852	0.113999024
42	0x3f12dd34	0.5736878
43	0xbe40ed6f	-0.18840574
44	0x3c1919f2	0.009344565
45	0x3d729428	0.059223324
46	0x3e200bd7	0.15629517
47	0x3f045db1	0.5170546
48	0x3e8fa283	0.28053674
49	0xbe89d2e6	-0.26918715
50	0x3e6b7713	0.22994642
51	0x3e228881	0.15872385
52	0xbcef90fc	-0.029243939
53	0xbe383ace	-0.17991182
54	0xbf1f8c52	-0.62323487
55	0x3ea935e3	0.33048925
56	0x3eb85657	0.36003372
57	0x3ebe3e02	0.37156683
58	0x3f550259	0.8320671
59	0xbe86322e	-0.2621016
60	0xbea360e7	-0.31909868
61	0x3f07e923	0.53090113
62	0x3f1ce2f0	0.6128378
63	0x3f555c07	0.8334355
64	0xbed5adcd	-0.41734162
65	0xbef93882	-0.48675925
66	0x3ebe310e	0.371468
67	0x3ee23547	0.44181272
68	0x3f5de0db	0.8667123
69	0xbf01dfdf	-0.50732225
70	0xbea93ca0	-0.33054066
71	0x3e973285	0.2953073
72	0x3ee3c4b6	0.44486016
73	0x3efde739	0.4959047
74	0x3f0864e3	0.5327894
75	0xb8a76749	-7.982419e-05
76	0x3c7a5b86	0.01528061
77	0x3f6c6539	0.92341954
78	0x3f32d187	0.69850963
79	0x3e7116a0	0.23543787
80	0xbeb54740	-0.35405922
81	0xbe54f3af	-0.20796083
82	0xbeb3668e	-0.3503918
83	0x3e41bd82	0.18919948
84	0xbe1d0d48	-0.15337098
85	0x3ec732d0	0.38905954
86	0xbe5ce048	-0.21569932
87	0xbdb1cd80	-0.08681774
88	0xbe13e1ec	-0.14441651
89	0x3f01c450	0.50690174
90	0x3f20eb42	0.62858975
91	0xbc0ceb1f	-0.008600979
92	0xbf4fc455	-0.81158954
93	0x3afe4880	0.0019400269
94	0x3f2b9707	0.67027324
95	0x3f13753f	0.5760078
96	0x3e2a2d8d	0.16618939
97	0x3dd2e464	0.10297468
98	0xbebf3529	-0.37345245
99	0xbed7a12b	-0.4211515
100	0xbea4989e	-0.32147688
101	0x3e778201	0.24170686
102	0x3dcca2ae	0.09991966
103	0xbe875b62	-0.26436907
104	0xbea40fdc	-0.3204335
105	0xbe73e4d0	-0.23817754
106	0x3e542527	0.20717297
107	0x3d036a4e	0.032083802
108	0xbf0986bb	-0.5372121
109	0xbee7326b	-0.45155653
110	0xbe32e5fb	-0.17470543
111	0x3e983bba	0.29733068
112	0x3e8fd2db	0.28090557
113	0x3ee01a48	0.4377005
114	0xbcd33ad2	-0.025784884
115	0xbe088507	-0.13331996
116	0x3b3bc9bb	0.0028654176
117	0xbeed73ea	-0.46377498
118	0xbe5348e3	-0.20633273
119	0xbe5674ee	-0.20943043
120	0xbecaf495	-0.39639726
121	0xbd601c04	-0.054714218
122	0xbedb2530	-0.4280181
123	0x3ead6964	0.3386947
124	0x3e785875	0.24252494
125	0x3ea5c567	0.3237717
126	0xbe099c94	-0.13438636
127	0xbf04f389	-0.51934105
128	0xbf2ab183	-0.6667711
129	0x3d64350e	0.05571466
130	0xbf08fc19	-0.5350967
131	0x3f0ceef6	0.55052125
132	0x3d4a2096	0.049347483
133	0xbdd0836e	-0.10181318
134	0xbe2e20e1	-0.1700473
135	0xbee06613	-0.43827876
136	0x3d5d9088	0.054092914
137	0x3dfeee19	0.12447757
138	0xbf0f5947	-0.559956
139	0xbec0f6cb	-0.37688288
140	0xbe2a8939	-0.16653909
141	0xbd1ae2bc	-0.037813887
142	0xbde735b8	-0.11289543
143	0xbf12b105	-0.5730136
144	0xbe0d6057	-0.13806282
145	0xbe0c02e3	-0.13672976
146	0x3ddf4876	0.10902493
147	0x3d5f1e04	0.054471985
148	0xbf1edd00	-0.6205597
149	0xbe7fce8f	-0.2498114
150	0xbe988548	-0.29789186
151	0xbd72b8af	-0.05925816
152	0xbd327e5a	-0.04357753
153	0x3e62d128	0.221501
154	0x3e854379	0.2602804
155	0xbe0652e4	-0.13117558
156	0x3daf34df	0.08555006
157	0x3e48bc19	0.19603004
158	0x3e93450c	0.28763616
159	0x3e928636	0.2861802
160	0xbed38b60	-0.41317272
161	0x3ea664e0	0.32498837
162	0xbea898b1	-0.32928994
163	0xbe280200	-0.16407013
164	0xbe76856e	-0.24074337
165	0x3ef42852	0.47687012
166	0x3f0462fc	0.5171354
167	0xbeb7441b	-0.35794148
168	0xbdcce167	-0.100039296
169	0x3ed89ec2	0.42308623
170	0x3ec3a186	0.3820917
171	0xbe39d491	-0.18147494
172	0xbd781d05	-0.06057455
173	0x3eb79c76	0.35861558
174	0xbe3b31bc	-0.18280691
175	0x3ebd706f	0.36999843
176	0x3e05213f	0.13000964
177	0x3cd109e6	0.025517415
178	0xbf17567b	-0.59116334
179	0xbef87f78	-0.4853475
180	0xbee90156	-0.45508832
181	0x3ea5b4c9	0.3236449
182	0x3e1ff5a2	0.15621045
183	0xbf30dec0	-0.6908989
184	0xbee1cb1c	-0.44100273
185	0xbec803c0	-0.3906536
186	0x3ebcf01d	0.36901942
187	0x3d20f62e	0.039297275
188	0xbf3c5e24	-0.7358115
189	0xbf0cd252	-0.55008423
190	0xbef81d15	-0.48459688
191	0x3eada213	0.33912715
192	0x3e029666	0.12752685
193	0xbcc31181	-0.023812057
194	0xbe397145	-0.18109615
195	0x3df5ea51	0.12007583
196	0xbaf6fe63	-0.0018844124
197	0xbeab235d	-0.33425418
198	0x3e916622	0.28398234
199	0x3f7dbae8	0.9911332
200	0x3c449d62	0.012000414
201	0xbf28ee5b	-0.659887
202	0xbbbc0f4e	-0.005739129
203	0x3da1814e	0.07885991
204	0xbd67e412	-0.05661399
205	0xbd311843	-0.04323603
206	0xbeef897c	-0.4678458
207	0xbe7cc106	-0.24683008
208	0x3f65310b	0.8952796
209	0xbf0aa067	-0.54151005
210	0x3dc32c60	0.09529948
211	0xbf0f87f2	-0.5606681
212	0x3e526840	0.2054758
213	0xbf594c96	-0.84882486
214	0xbdeb2d0c	-0.114832014
215	0x3f2a7ff0	0.6660147
216	0xbed689c0	-0.4190197
217	0xbe93c6b3	-0.28862533
218	0x3ef0a02c	0.469972
219	0x3f12fbe8	0.5741563
220	0x3f0a3631	0.5398894
221	0xbf0cc92f	-0.5499448
222	0xbe8acec8	-0.27110887
223	0x3f1c9478	0.61164045
224	0x3f0fb1af	0.561305
225	0x3e960168	0.29297948
226	0xbeecce58	-0.46251178
227	0xbe866d72	-0.26255375
228	0x3ee6e236	0.4509446
229	0x3ee0a838	0.4387834
230	0x3ede676d	0.43438283
231	0xbef9cd9b	-0.48789677
232	0xbea0cf7b	-0.31408295
233	0xbe17ee7f	-0.14837073
234	0xbe11c42c	-0.1423499
235	0xbdb0537f	-0.086096756
236	0x3cf3ba74	0.029751994
237	0x3f6b337e	0.91875446
238	0x3f8acfea	1.08447
239	0x3de90805	0.11378483
240	0x3e527b24	0.20554787
241	0x3ea56d3c	0.32309902
242	0x3e5a0276	0.21290001
243	0xbeca1b3f	-0.39473912
244	0x3ec71210	0.38880968
245	0xbebaf054	-0.3651148
246	0x3de94fed	0.11392198
247	0x3e93720c	0.28797948
248	0x3f28672c	0.6578243
249	0x3f56a08b	0.8383872
250	0xbe365395	-0.17805322
251	0xbdc2951b	-0.09501096
252	0x3f3e2194	0.74269986
253	0xbf240a8b	-0.6407859
254	0x3dc38129	0.0954612
255	0xbdda18e5	-0.106492795

convs.0.fc_full.bias f4 [16]
0	0x3e09a21e	0.13440749
1	0xbec1267e	-0.3772468
2	0xbd8b1f85	-0.06793121
3	0x3eca2184	0.39478695
4	0xbecb580e	-0.39715618
5	0xbed9f3df	-0.4256887
6	0xbd3c58fd	-0.045983303
7	0xbe9ca8eb	-0.30597624
8	0x3e7fb9d9	0.24973239
9	0x3e6ae176	0.22937569
10	0xbe9accba	-0.3023432
11	0x3e23c309	0.15992369
12	0xbdde3dad	-0.108516075
13	0xbdc0d962	-0.094164625
14	0x3eec5ac3	0.46162996
15	0x3e55bbad	0.20872374

convs.0.bn1.weight f4 [16]
0	0x3f8b1320	1.0865211
1	0x3f64eca5	0.8942359
2	0x3fb7376d	1.431379
3	0x3f28fc89	0.6601034
4	0x3fce3872	1.6110976
5	0x3ffe877c	1.9885097
6	0x3f19da12	0.60098374
7	0x3f0e0a86	0.5548481
8	0x3f86d649	1.0534145
9	0x3f8288d0	1.0198002
10	0x3f2c81f5	0.673858
11	0x3f8ac3bb	1.0840982
12	0x3f9a67e6	1.2062957
13	0x3f5b6a95	0.85709506
14	0x3fefde5d	1.8739735
15	0x3fa51bba	1.2899086

convs.0.bn1.bias f4 [16]
0	0xbd94347f	-0.07236575
1	0x3ef4c00b	0.47802767
2	0xbe3a3faf	-0.18188356
3	0x3eba4888	0.36383462
4	0x3e30afb3	0.17254524
5	0x3fc4329e	1.5327947
6	0x3ef3b8e7	0.47602007
7	0x3e211d64	0.15733868
8	0x3e4957e2	0.19662431
9	0x3eb104d7	0.34574005
10	0x3e5601b5	0.20899089
11	0x3e52e5c6	0.20595464
12	0x3d0b6571	0.03403229
13	0x3f1a9d54	0.60396314
14	0xbe8245bf	-0.25443837
15	0xbea62467	-0.32449648

convs.0.bn1.running_mean f4 [16]
0	0x3d3db63a	0.046316363
1	0x400e3f4e	2.2226138
2	0xc0865e23	-4.1989913
3	0xc01243a5	-2.2853787
4	0xc0a546f8	-5.164913
5	0x40808218	4.0158806
6	0x403352d4	2.8019304
7	0xbf86f9ed	-1.0545021
8	0x3f8254fa	1.0182183
9	0x403756cb	2.8646724
10	0xbfa1e21f	-1.2647132
11	0xc09e8e1b	-4.954847
12	0xc0f33a8c	-7.600897
13	0x3eec9232	0.46205288
14	0x3f56fc9b	0.83979195
15	0xc0311afa	-2.7672715

convs.0.bn1.running_var f4 [16]
0	0x415ce659	13.806237
1	0x40cfd3f5	6.4946237
2	0x41150a1d	9.314969
3	0x4112ba13	9.170428
4	0x40b64ea5	5.6971
5	0x414c8dca	12.784616
6	0x419645bc	18.78405
7	0x418d869d	17.69073
8	0x4197bf62	18.968449
9	0x4111982a	9.099649
10	0x41895907	17.16847
11	0x414c2adb	12.760463
12	0x40fb4c28	7.8530464
13	0x42057cdd	33.371937
14	0x4184ad9c	16.58477
15	0x417492b5	15.285817

convs.0.bn2.weight f4 [8]
0	0x3f0137dc	0.5047586
1	0x3fd4160d	1.6569229
2	0x3f47d953	0.78065985
3	0x3f60ac95	0.8776334
4	0x3fc2fc3d	1.5233227
5	0x3f9a5301	1.2056581
6	0x3f9678b4	1.1755586
7	0x3f3bf776	0.7342447

convs.0.bn2.bias f4 [8]
0	0xbf0b0b73	-0.54314345
1	0xbebb2911	-0.3655477
2	0xbf4808fa	-0.781387
3	0xbec6ca02	-0.38825995
4	0x3f14dc34	0.58148503
5	0xbe33607c	-0.17517275
6	0x3e7a6b6d	0.24455042
7	0xbea71624	-0.3263408

convs.0.bn2.running_mean f4 [8]
0	0x40da94bc	6.830656
1	0x40f71e04	7.722414
2	0x40c121e7	6.0353885
3	0x40eda946	7.4269133
4	0x40c34c62	6.103074
5	0x4118aab0	9.541672
6	0x40e3c610	7.1179276
7	0x40b485b7	5.6413226

convs.0.bn2.running_var f4 [8]
0	0x41c6af62	24.835636
1	0x417c42ea	15.766336
2	0x3fd42b46	1.6575706
3	0x421c003a	39.00022
4	0x424704dd	49.75475
5	0x41ae36d3	21.77677
6	0x413b9879	11.724725
7	0x423f9faa	47.905922

convs.1.fc_full.weight f4 [16, 40]
0	0x3d9793d5	0.074012436
1	0x3e2129af	0.15738557
2	0xbeb88bbc	-0.3604411
3	0xbe07bb3a	-0.13255015
4	0xbefa1ae4	-0.4884864
5	0x3d0a10a7	0.033707287
6	0xbd745b91	-0.059657637
7	0xbe97ef63	-0.29674825
8	0x3e196d44	0.14983088
9	0xbea9f18f	-0.33192107
10	0xbf0ca752	-0.5494281
11	0xbf86095d	-1.0471607
12	0xbf2736c7	-0.6531796
13	0x3d78cc63	0.060741793
14	0x3e17ba7c	0.14817232
15	0xbe31420a	-0.17310348
16	0x3f0766f1	0.5289145
17	0x3ed20169	0.410167
18	0x3e979995	0.2960936
19	0xbec71559	-0.38883474
20	0xbe574bc3	-0.21024995
21	0x3eef5a4f	0.46748587
22	0x3ee9b364	0.45644677
23	0x3e82d296	0.2555129
24	0xbdbf59c8	-0.09343296
25	0xbe95573d	-0.2916812
26	0x3ec82d11	0.39096883
27	0x3eb0959d	0.34489146
28	0x3e9d3e02	0.3071137
29	0xbde531e7	-0.11191159
30	0xbe4e1dc8	-0.20128548
31	0x3e594af3	0.21219997
32	0x3ee02bbc	0.43783367
33	0x3e0c8d71	0.1372583
34	0x3d50da93	0.0509897
35	0xbdc3bd64	-0.09557608
36	0xbe1189aa	-0.14212671
37	0x3d9fbc68	0.077996075
38	0xbdba30d5	-0.09091345
39	0xbef4cf46	-0.47814387
40	0x3f81ea8b	1.0149702
41	0xbecca347	-0.3996832
42	0x3c723cdb	0.014785017
43	0x3d1ddd8c	0.03854136
44	0x3e155f69	0.14587177
45	0xbe43824c	-0.19092673
46	0xbed95b75	-0.4245259
47	0xbe1642d2	-0.14673927
48	0xbe9165a8	-0.2839787
49	0xbec9ee60	-0.39439678
50	0xbeff4ef5	-0.49864927
51	0xbf340aa2	-0.70328724
52	0xbe3f0675	-0.18654807
53	0x3ebd55bf	0.36979482
54	0xbea7d10d	-0.3277668
55	0xbed7e8b0	-0.42169714
56	0x3ed571c5	0.41688362
57	0x3ee5dfd1	0.4489732
58	0x3d012e07	0.031538036
59	0xbec2ab34	-0.38021243
60	0xbee67b85	-0.45016113
61	0x3edb7250	0.4286065
62	0x3f1100ba	0.56641734
63	0xbba3773f	-0.0049885805
64	0xbeb5c400	-0.355011
65	0xbe3ef3eb	-0.18647735
66	0x3e9dcb5e	0.3081922
67	0x3f12c540	0.5733223
68	0xbd9ec10c	-0.077516645
69	0xbece30df	-0.4027166
70	0xbe82c6f7	-0.25542423
71	0x3e08a0fc	0.1334266
72	0xbce9b643	-0.028529292
73	0xbe06dee3	-0.13170962
74	0x3dbb5e03	0.09148791
75	0xbd19c46e	-0.037540846
76	0xbdba8486	-0.09107308
77	0x3e91313f	0.28357884
78	0x3ea86a9f	0.32893845
79	0x3c936f84	0.01799751
80	0xbe106ea8	-0.14104712
81	0x3df1b410	0.11801922
82	0xbe0669f4	-0.13126355
83	0xbf1da82d	-0.6158474
84	0xbdbaa840	-0.091141224
85	0x3e765e20	0.24059343
86	0x3f23032c	0.63676715
87	0x3ede3256	0.43397778
88	0x3f70918c	0.93972087
89	0x3e1a68d4	0.15079051
90	0xbef14f30	-0.47130728
91	0xbf072a95	-0.5279935
92	0xbed90769	-0.42388466
93	0xbe0c7cee	-0.13719532
94	0x3ee8f5c1	0.45499995
95	0xbeb389d8	-0.35066104
96	0x3deb6fc6	0.114959285
97	0x3e5e696c	0.21719903
98	0x3e77b2f6	0.24189362
99	0xbd96d152	-0.073641434
100	0x3d8cd749	0.06877
101	0x3ea04a9e	0.31306928
102	0x3ed3698a	0.41291457
103	0x3dcbe123	0.09955051
104	0x3da40880	0.08009434
105	0xbe5106ed	-0.20412798
106	0x3ea3e354	0.32009375
107	0x3e5b6fe4	0.21429402
108	0x3e001c3f	0.12510775
109	0xbdf66a33	-0.12031975
110	0xbda5db61	-0.08098484
111	0xbe36bac1	-0.17844678
112	0xbdfe743a	-0.12424512
113	0x3ea755b7	0.32682583
114	0x3edf9ce7	0.43674394
115	0xbe207f8b	-0.15673654
116	0x3d1d92ca	0.038470067
117	0x3f227d38	0.6347232
118	0x3f55b978	0.8348613
119	0x3e9f8551	0.311564
120	0xbe3a01c2	-0.18164733
121	0xbf14e894	-0.58167386
122	0xbe8d146b	-0.2755464
123	0xbe84f34d	-0.25966874
124	0xbdf6df67	-0.12054329
125	0xbe2d782c	-0.16940373
126	0xbe80b1cb	-0.25135645
127	0xbefbe170	-0.49195433
128	0x3d8956e9	0.0670603
129	0xbef2a2db	-0.47389874
130	0xbeb23bf9	-0.3481138
131	0x3e3a3c49	0.1818706
132	0x3ed4f06b	0.41589674
133	0x3e76dea0	0.24108362
134	0xbed83cf6	-0.4223401
135	0xbc2aa8bf	-0.010416209
136	0x3e3e1bfc	0.18565363
137	0xbdd3aebd	-0.10336063
138	0xbe9c9ac0	-0.30586815
139	0xbeaff3fc	-0.34365833
140	0xbe412b99	-0.18864287
141	0x3e2ef519	0.17085685
142	0xbe086333	-0.13319091
143	0xbed23b07	-0.4106066
144	0xbe3708cf	-0.17874454
145	0xbea93b58	-0.33053088
146	0x3e2fbb01	0.1716118
147	0xbdf387f5	-0.11891166
148	0xbebbc833	-0.36676177
149	0xbe23254e	-0.159322
150	0xbe0d3f0a	-0.13793579
151	0x3ed6c431	0.41946557
152	0x3ecc2971	0.39875367
153	0xbee7ed01	-0.45298007
154	0xbf0de90b	-0.5543372
155	0x3d79faec	0.061030313
156	0xbde6a00f	-0.112609975
157	0xbe1a43f9	-0.15064992
158	0xbe5c8df2	-0.21538523
159	0xbed02046	-0.40649623
160	0xbf011692	-0.50425065
161	0xbcf5a223	-0.02998454
162	0x3ebeab36	0.3724
163	0xbe80b96c	-0.25141466
164	0x3e3bbaa2	0.18332914
165	0xbf40549e	-0.75129116
166	0xbeae583f	-0.340517
167	0x3d6b034a	0.057376184
168	0xbfa3c716	-1.2795131
169	0xbf126312	-0.5718242
170	0x3f9ab17c	1.2085414
171	0xbe9a0473	-0.3008152
172	0x3b5728ab	0.0032830636
173	0xbd7114a8	-0.05885759
174	0xbfcbc14d	-1.5918366
175	0x3edd0b75	0.43172804
176	0xbec5bc3e	-0.3862018
177	0xbf4d55e8	-0.8020921
178	0xbf9ff757	-1.2497357
179	0xbed8c917	-0.4234092
180	0xbc586ff5	-0.013210286
181	0xbecbb8cf	-0.39789435
182	0xbf3f9be7	-0.74847263
183	0xbf907e95	-1.128863
184	0xbf11833b	-0.56840867
185	0xbd41b5de	-0.047292583
186	0xbe8bbfec	-0.27294862
187	0xbf33ed78	-0.70284224
188	0xbf95b3a9	-1.1695453
189	0xbf04ae6a	-0.51828635
190	0xbdad936f	-0.08475386
191	0x3d8e789b	0.069565974
192	0xbef28d9e	-0.4737367
193	0xbe87c569	-0.265178
194	0xbd873a52	-0.066029206
195	0xbdcae584	-0.09907058
196	0xbdf25db7	-0.11834281
197	0xbf8669df	-1.0501059
198	0xbe9cc2dd	-0.3061742
199	0x3f88ab66	1.0677307
200	0xbe9cf7b3	-0.3065773
201	0xbeb2943e	-0.34878725
202	0x3dd5fa0b	0.104480825
203	0xbed5de11	-0.41770986
204	0xbe302da5	-0.17204912
205	0xbe12c71d	-0.14333768
206	0x3ee302d0	0.44338083
207	0x3e851ebd	0.26000014
208	0xbf3ef318	-0.7458968
209	0xbd98f807	-0.074691825
210	0x3eed2710	0.46318865
211	0xbf400050	-0.75000477
212	0xbf245163	-0.64186686
213	0xbe9443f4	-0.28958094
214	0x3f3a089d	0.7266939
215	0x3f19f26b	0.60135525
216	0xbeb10de6	-0.34580916
217	0xbe86b3bb	-0.26308998
218	0x3e882fea	0.26599056
219	0x3eebc9fd	0.46052542
220	0x3e28f9d8	0.16501558
221	0xbe1dfc17	-0.15428196
222	0xbd0134bc	-0.031544432
223	0x3e667628	0.2250601
224	0x3ea947ec	0.33062685
225	0x3ec5361b	0.38517842
226	0xbe991740	-0.2990055
227	0xbe096d10	-0.1342051
228	0x3e42fc54	0.19041568
229	0x3f011aa7	0.50431293
230	0x3ebff494	0.37491286
231	0xbef99857	-0.4874904
232	0xbe856a94	-0.26057875
233	0xbed70978	-0.41999412
234	0xbe499490	-0.19685578
235	0xbca4f63e	-0.020136949
236	0xbe18e16f	-0.14929746
237	0xbc9e3a08	-0.01931478
238	0x3e07ea42	0.13272956
239	0x3e7aeaa6	0.24503574
240	0x3b2bbe36	0.0026205904
241	0x3d76f7b3	0.060294818
242	0x3f93a280	1.1533966
243	0xbe2927c1	-0.16519071
244	0xbea7a0d1	-0.3273988
245	0x3f62360f	0.88363737
246	0xbea04458	-0.31302142
247	0x3ea73fa8	0.32665753
248	0xbfe6cc34	-1.8031068
249	0x3f1c08d9	0.60951
250	0x3e0ea707	0.13930903
251	0xbd62a532	-0.055333324
252	0x3edf9093	0.4366499
253	0xbd55ace6	-0.052166842
254	0x3ea24abe	0.3169765
255	0x3e9e942d	0.30972424

convs.1.fc_full.bias f4 [16]
0	0x3d7a7aa8	0.06115213
1	0xbd654b25	-0.055979867
2	0x3cc9c44e	0.024629738
3	0x3c3b74e9	0.011441448
4	0xbe393d09	-0.1808969
5	0xbdf5e6a5	-0.120068826
6	0x3ebac7ab	0.3648046
7	0xbc140cfe	-0.009036301
8	0x3dfdc024	0.123901635
9	0x3dcc73fa	0.09983058
10	0xbe20d760	-0.15707159
11	0x3e949807	0.29022238
12	0xbd00ae0e	-0.03141599
13	0xbe1b8089	-0.15185751
14	0xbe72469a	-0.23659745
15	0x3d5f6ac1	0.054545168

convs.1.bn1.weight f4 [16]
0	0x3fa07c08	1.2537851
1	0x3fbcc477	1.4747456
2	0x3fa50725	1.2892805
3	0x3f00bb95	0.5028623
4	0x3fd5a733	1.669165
5	0x3e8ad38d	0.27114525
6	0x40023293	2.0343368
7	0x3fb75a91	1.4324514
8	0x3f952ce2	1.1654322
9	0x3fa4e372	1.2881911
10	0xbe408687	-0.18801318
11	0x3f9635fe	1.1735227
12	0x3eaa24e7	0.3323128
13	0x3fc38a65	1.527661
14	0x401f1533	2.485669
15	0x3fc7d1c0	1.5610886

convs.1.bn1.bias f4 [16]
0	0x3daeefcd	0.08541832
1	0x3d684ff0	0.05671686
2	0x3e147fae	0.14501831
3	0x3f0fd047	0.5617718
4	0x3e9d7376	0.30752152
5	0x3ed6deb9	0.419668
6	0xbf553170	-0.8327856
7	0xbeb98186	-0.3623163
8	0x3effd73d	0.499689
9	0xbe5b7eae	-0.21435043
10	0x3f0d70cd	0.55250245
11	0xbde28c0c	-0.11061868
12	0x3f3c5444	0.7356608
13	0xbe75bbde	-0.23997447
14	0xbe4b96f6	-0.19881806
15	0xbed6b940	-0.4193821

convs.1.bn1.running_mean f4 [16]
0	0xbf72c3b7	-0.9482989
1	0xbfa01e70	-1.2509289
2	0x4003c902	2.0591435
3	0xc06835d1	-3.6282847
4	0xc131b806	-11.107428
5	0x3e0e7b3d	0.13914199
6	0x4026b130	2.6045647
7	0xc0817f34	-4.0467777
8	0x3f0fd744	0.56187844
9	0x40d14fc3	6.5409865
10	0x4081d14f	4.0568004
11	0xc00dd400	-2.2160645
12	0xc0b43a93	-5.63215
13	0x3ff6c6d6	1.927943
14	0xbfab5206	-1.3384407
15	0xc0fb8fa3	-7.861284

convs.1.bn1.running_var f4 [16]
0	0x40e22e66	7.068164
1	0x400f8d73	2.2430084
2	0x4095a3d6	4.6762495
3	0x402ce257	2.7013147
4	0x40a52a39	5.161404
5	0x411938ad	9.576337
6	0x40e13b5f	7.0384974
7	0x409e9cff	4.9566646
8	0x40877d95	4.23408
9	0x40431f50	3.0487862
10	0x3fc82caf	1.5638636
11	0x3fab59a6	1.3386734
12	0x412483b4	10.282154
13	0x40fda587	7.926456
14	0x40d3f58f	6.6237254
15	0x407e1290	3.969883

convs.1.bn2.weight f4 [8]
0	0x3ef50f9f	0.4786348
1	0x3fa1707f	1.2612456
2	0x3f38af95	0.72142917
3	0x3f490005	0.78515655
4	0x3fae6f34	1.3627687
5	0x3de965e4	0.11396387
6	0x40064b7d	2.0983574
7	0x3faadc13	1.3348411

convs.1.bn2.bias f4 [8]
0	0xbf0e2239	-0.5552097
1	0xbee02422	-0.43777567
2	0xbf50b6e3	-0.81529063
3	0xbed89912	-0.42304283
4	0x3e9f209b	0.31079563
5	0xbf994525	-1.1974226
6	0xbddc1353	-0.10745873
7	0xbe5f90fd	-0.21832652

convs.1.bn2.running_mean f4 [8]
0	0x40df140a	6.971196
1	0x40671fe3	3.6113212
2	0x40c679a6	6.2023497
3	0x40c453b0	6.1352158
4	0x40f809af	7.751182
5	0x40c53ebd	6.1639085
6	0x40a122e0	5.035507
7	0x40c12d4a	6.0367785

convs.1.bn2.running_var f4 [8]
0	0x414c604f	12.773513
1	0x4064f3bd	3.5773766
2	0x40c30751	6.094643
3	0x40de62f6	6.94958
4	0x41aa403a	21.28136
5	0x415a1a1e	13.631376
6	0x417223ed	15.133771
7	0x42ca4b68	101.14728

conv_to_fc.weight f4 [16, 11]
0	0x3e0a7e9f	0.13524865
1	0x3e1299e9	0.14316525
2	0xbdeba476	-0.11505978
3	0xbd36b2e5	-0.0446042
4	0xbef3905b	-0.47571072
5	0xbeacb093	-0.33728465
6	0x3d1d007e	0.038330548
7	0xbdd14112	-0.10217489
8	0xbe25c1a4	-0.1618715
9	0x3e41447d	0.18873782
10	0xbe10fba2	-0.1415849
11	0xbd28489b	-0.041084867
12	0xbe7e8af3	-0.24857692
13	0xbee42504	-0.4455949
14	0xbc957f5b	-0.018249204
15	0x3f3bf14a	0.7341505
16	0xbe5790ac	-0.21051282
17	0xbef714aa	-0.48257953
18	0x3e23d611	0.15999629
19	0x3e0de11e	0.13855407
20	0xbef8cf3c	-0.48595607
21	0xbe2ccb00	-0.16874313
22	0xbf1cc423	-0.6123678
23	0xbed875f5	-0.42277494
24	0xbf4d0efe	-0.80101
25	0xbef8687e	-0.4851722
26	0x3ddfb7ab	0.10923704
27	0xbea41ce2	-0.32053286
28	0xbeb8653e	-0.36014742
29	0xbe93a2fc	-0.28835285
30	0xbec50c23	-0.38485822
31	0xbeff40fb	-0.49854264
32	0xbf00f4f8	-0.5037379
33	0xbe94d3e6	-0.29067916
34	0xbe88d4ce	-0.26724857
35	0xbe992b3f	-0.29915807
36	0xbc8b1362	-0.016977016
37	0x3f2061e1	0.6264935
38	0x3cad2dcd	0.021140004
39	0xbee57be5	-0.44821087
40	0x3ec482a0	0.3838091
41	0x3ebfb759	0.3744457
42	0xbf377070	-0.7165594
43	0xbed4a8ec	-0.41535127
44	0xbc4461fc	-0.011986252
45	0xbe85046f	-0.25979945
46	0xbe209540	-0.15681934
47	0x3ebcabd6	0.3684985
48	0x3f1d81a0	0.6152592
49	0xbe89bce5	-0.26901928
50	0xbeed77da	-0.46380502
51	0xbc8fa744	-0.017535813
52	0x3e80eeca	0.25182182
53	0xbe0fdaac	-0.1404826
54	0xbd2ed53e	-0.042683832
55	0xbeea5b27	-0.4577267
56	0xbe1e815e	-0.15479037
57	0xbd8c2ed0	-0.06844866
58	0xbea6de02	-0.32591254
59	0xbebec250	-0.37257624
60	0xbeb4f9da	-0.35346872
61	0xbee2a92f	-0.44269702
62	0xbed1672c	-0.40899026
63	0xbe6bdc7c	-0.23033327
64	0xbeed6b8d	-0.46371117
65	0xbf0fb1f6	-0.5613092
66	0xbe741c5e	-0.23838946
67	0xbe5426cf	-0.2071793
68	0x3c352d13	0.01105811
69	0xbeba15c0	-0.3634472
70	0xbee11654	-0.43962348
71	0xbd1930f4	-0.0374002
72	0xbe6679f9	-0.22507466
73	0xbd45b4ca	-0.048268117
74	0xbe978e12	-0.2960058
75	0xbed28e7d	-0.41124335
76	0xbe713b2a	-0.23557726
77	0xbdf83a02	-0.12120439
78	0xbe1aa089	-0.15100302
79	0xbe5ae655	-0.21376927
80	0xbf0aaecf	-0.54172987
81	0xbf0ef4b0	-0.55842113
82	0xbe6f38ae	-0.23361465
83	0xbe6f299e	-0.2335572
84	0xbe7be290	-0.24598145
85	0x3eb093c7	0.34487745
86	0x3df5cd18	0.12002009
87	0xbeafe19c	-0.34351814
88	0xbee40a2c	-0.4453901
89	0x3cbbddd5	0.022932926
90	0x3d6b2548	0.0574086
91	0xbeb0fab1	-0.34566262
92	0xbe84f2a1	-0.2596636
93	0x3dd83e8f	0.10558807
94	0xbef8d7d9	-0.4860218
95	0xbeac3270	-0.3363223
96	0xbe1d54f1	-0.15364434
97	0xbe22bf5a	-0.15893307
98	0xbe7a4320	-0.24439669
99	0xbeede90c	-0.46466863
100	0xbea73ad7	-0.3266208
101	0xbe01fb1c	-0.12693447
102	0xbf147a9a	-0.57999575
103	0xbea55c22	-0.32296854
104	0xbc8555ce	-0.016276266
105	0xbe265633	-0.1624382
106	0xbe3a970a	-0.1822168
107	0x3d80d209	0.06290061
108	0xbdf63578	-0.12021917
109	0xbf028c0e	-0.50994956
110	0xbec3f814	-0.38275206
111	0xbf252bbf	-0.64519876
112	0xbda59127	-0.08084326
113	0xbbc975f4	-0.0061480943
114	0x3ed92623	0.42411909
115	0xbd000b87	-0.031260993
116	0xbec4c2e9	-0.38429955
117	0x3e89b25f	0.268939
118	0x3fb72a4e	1.4309785
119	0xbe90efae	-0.2830786
120	0x3e801f58	0.25023913
121	0xbe72b564	-0.23702008
122	0xbdf804aa	-0.121102646
123	0xbde5fa26	-0.11229353
124	0xbea54916	-0.32282323
125	0xbec180cc	-0.37793577
126	0xbce57416	-0.028009456
127	0xbeb1cdc7	-0.34727308
128	0xbe7a41ad	-0.24439116
129	0x3dbf2811	0.09333814
130	0xbe251ce8	-0.16124308
131	0xbe440ddd	-0.19145913
132	0xbdee9ed3	-0.11651387
133	0x3d4c3ed7	0.049864616
134	0x3e3c1d61	0.18370582
135	0x3ded9a8f	0.11601745
136	0xbe9e5967	-0.30927584
137	0xbd5472c3	-0.051867258
138	0xbebb84d9	-0.36624792
139	0xbce06941	-0.027393939
140	0x3e4ff6fd	0.20309062
141	0xbec6fd90	-0.38865328
142	0x3cd52912	0.02602056
143	0xbdc40d78	-0.095728815
144	0xbec10ef0	-0.3770671
145	0xbef5b044	-0.47986042
146	0xbe949fe2	-0.2902823
147	0xbe82be0a	-0.25535613
148	0xbe4e0296	-0.20118174
149	0xbf272ba3	-0.6530096
150	0xbe541d73	-0.20714359
151	0xbee6a6fa	-0.45049268
152	0xbf08e102	-0.53468335
153	0xbf14f572	-0.5818702
154	0xbed41829	-0.41424683
155	0xbe224051	-0.15844847
156	0xbee8e18c	-0.4548458
157	0xbf056aee	-0.52116287
158	0xbe1e8ce1	-0.15483429
159	0xbf25e56d	-0.648032
160	0xbf132769	-0.5748201
161	0xbeb3c847	-0.35113737
162	0xbed7bf1d	-0.42137995
163	0xbe339462	-0.17537072
164	0xbee4b66f	-0.44670436
165	0xbf0bc827	-0.54602283
166	0xbe9f30fa	-0.31092054
167	0xbd4ed6d0	-0.05049783
168	0x3b6f3eaf	0.0036505868
169	0x3f39debf	0.7260551
170	0x3e38d19d	0.18048711
171	0xbf090ca1	-0.53534895
172	0x3e9dc2c8	0.3081267
173	0x3f011a0a	0.5043036
174	0xbe627400	-0.22114563
175	0x3d6a8a9b	0.05726109

conv_to_fc.bias f4 [16]
0	0xbe9d7c6a	-0.30758983
1	0x3d95e01f	0.07318138
2	0xbf16c4f5	-0.5889428
3	0xbe8401f6	-0.25782746
4	0xbe9d0f11	-0.30675557
5	0xbee33a3d	-0.4438037
6	0xbea5f3d2	-0.32412583
7	0xbe819ac1	-0.2531338
8	0xbe97b748	-0.2963202
9	0x3a987878	0.0011632582
10	0x3e926680	0.28593826
11	0xbe9b72ff	-0.30361173
12	0x3cbca58d	0.02302816
13	0xbf0f96e3	-0.5608961
14	0xbf07b31b	-0.5300767
15	0xbe1e0709	-0.15432371

fcs.0.weight f4 [16, 16]
0	0xbe90166e	-0.28142112
1	0x3dbec484	0.09314826
2	0x3ee579d7	0.4481952
3	0xbdb6c499	-0.08924217
4	0xbe7c4963	-0.2463737
5	0xbe47b388	-0.1950208
6	0xbec88b1f	-0.3916864
7	0xbf1bc529	-0.6084772
8	0xbe0d5084	-0.13800246
9	0xbe9ee640	-0.31035042
10	0xbdf37364	-0.118872434
11	0xbe1e15ba	-0.15437976
12	0xbede7be1	-0.43453887
13	0xbee8a3e2	-0.45437533
14	0xbe87cdee	-0.265243
15	0x3e4eecb9	0.2020749
16	0xbc1233d2	-0.008923488
17	0xbe45b0d0	-0.1930573
18	0xbee75635	-0.45182958
19	0xbe4043af	-0.18775819
20	0xbe8016e2	-0.25017458
21	0xbe3c9b8d	-0.18418713
22	0x3e0cb5a3	0.13741164
23	0x3ebbde98	0.36693263
24	0xbeb710aa	-0.357549
25	0xbe3d773a	-0.18502513
26	0xbed8c6e2	-0.42339236
27	0xbc898f4d	-0.016791964
28	0xbea76d21	-0.32700446
29	0xbe7f19ec	-0.24912232
30	0xbe7728d3	-0.24136667
31	0xbe57c8aa	-0.21072641
32	0xbef9b1d0	-0.48768473
33	0x3e7c9be6	0.24668846
34	0x3e6104a7	0.21974431
35	0x3eca9a33	0.3957077
36	0x3e25205c	0.16125625
37	0xbd8fe254	-0.070255905
38	0xbeb33ab7	-0.35005733
39	0xbec29cf1	-0.38010362
40	0xbdb66338	-0.08905643
41	0xbe924e7b	-0.285755
42	0x3ea53775	0.32268873
43	0xbe1a1e5f	-0.15050648
44	0xbe1004ac	-0.14064282
45	0xbea74727	-0.32671472
46	0x3e1b2e6a	0.15154424
47	0x3eaa4771	0.3325763
48	0xbe481fe4	-0.19543415
49	0xbf2c1b74	-0.6722939
50	0xbd37e255	-0.04489358
51	0xbf182fea	-0.5944811
52	0xbecba54a	-0.39774543
53	0xbf0f0f9c	-0.55883193
54	0xbe886bcb	-0.2664474
55	0x3db4d48a	0.08829601
56	0xbebdae49	-0.37047032
57	0xbe9bf25f	-0.30458352
58	0xbf3d0ae3	-0.73844737
59	0xbe9bf119	-0.3045738
60	0xbf1d40de	-0.61427104
61	0xbeb3e8aa	-0.35138446
62	0xbe40dd0f	-0.18834327
63	0xbf36004b	-0.710942
64	0xbee99c3b	-0.45627007
65	0xbf1383f4	-0.5762322
66	0xbebd6201	-0.36988834
67	0xbea11d09	-0.31467465
68	0xbe71734b	-0.23579137
69	0xbee72633	-0.4514633
70	0xbf2a8ac8	-0.66618013
71	0xbefec68e	-0.4976086
72	0xbeae19fd	-0.34004202
73	0xbf2ade12	-0.667451
74	0xbf63e251	-0.89017206
75	0xbf191708	-0.5980077
76	0xbefdcc0b	-0.49569735
77	0xbede1e5f	-0.43382546
78	0xbf00dadf	-0.5033397
79	0xbed091cd	-0.40736237
80	0xbdf3adf4	-0.11898413
81	0xbf00cb4c	-0.50310206
82	0x3eb8a98d	0.36066857
83	0xbf030be7	-0.51190037
84	0xbeeae304	-0.45876324
85	0xbea9e0f9	-0.33179453
86	0x3d9f168d	0.07767973
87	0x3e88b5ae	0.2670111
88	0xbe947a3c	-0.28999507
89	0xbed3c7f1	-0.4136348
90	0xbf6adca0	-0.917429
91	0xbed8ae4d	-0.4232048
92	0xbea44ef2	-0.3209148
93	0xbd3eb1dd	-0.046556342
94	0xbe08a5e6	-0.13344535
95	0xbf231a59	-0.6371208
96	0x3e1faa03	0.15592198
97	0xbe7c6667	-0.24648438
98	0xbe3b2b92	-0.1827834
99	0xbe814cdf	-0.2525396
100	0x3e0ab1ab	0.13544337
101	0x3e4f22d3	0.20228128
102	0x3cff0bf1	0.031133624
103	0x3cb1c002	0.021698002
104	0xbe050191	-0.12988879
105	0x3e353646	0.17696485
106	0xbf51c3e2	-0.8193952
107	0xbe88d8f9	-0.26728037
108	0xbdc374f5	-0.09543792
109	0x3e10ff2e	0.14159843
110	0x3ccc4500	0.024935246
111	0xbe0fdee9	-0.14049877
112	0x3d8606ca	0.06544264
113	0xbe395b39	-0.18101205
114	0xbef799ba	-0.48359472
115	0xbea3db17	-0.3200309
116	0xbe9210d0	-0.28528452
117	0x3be0b339	0.0068573025
118	0xbe88c0be	-0.2670955
119	0xbe644f9d	-0.22295995
120	0xbe6e694a	-0.23282352
121	0x3d92feb6	0.071774885
122	0xbe7a2173	-0.24426822
123	0xbecacefd	-0.39611045
124	0x3d73ba15	0.059503634
125	0xbd39903f	-0.04530358
126	0x3d60fa61	0.05492628
127	0xbd7d0891	-0.061775748
128	0xbe2f0268	-0.17090762
129	0xbe90d478	-0.282871
130	0x3df26221	0.11835123
131	0x3d4fd0ab	0.05073611
132	0xbea5a378	-0.3235128
133	0xbdd43c5a	-0.10363074
134	0xbe4cc202	-0.19995883
135	0xbee3f0ce	-0.44519657
136	0xbda88180	-0.08227825
137	0xbe9bf9d2	-0.30464035
138	0xbdb6bf88	-0.089232504
139	0xbe941bcf	-0.28927466
140	0xbf231da2	-0.6371709
141	0xbe93e75c	-0.2888745
142	0xbdda2ff1	-0.10653675
143	0xbefa2bc7	-0.48861524
144	0x3dd57938	0.10423511
145	0xbe09d7e2	-0.13461259
146	0xbe84b92b	-0.25922522
147	0xbec59d2e	-0.3859648
148	0xbea0f834	-0.31439364
149	0x3d66bd14	0.056332663
150	0xbe0f9fce	-0.14025804
151	0x3e3458aa	0.17611948
152	0xbe6e2bce	-0.23258898
153	0xbe377d54	-0.17918903
154	0xbf10c60f	-0.56552213
155	0xbdc3f42a	-0.09568055
156	0xbebd6c19	-0.36996534
157	0xbbce74b8	-0.006300535
158	0xbe70f054	-0.23529178
159	0xbdc30daf	-0.09524094
160	0xbeb73679	-0.35783747
161	0xbf126865	-0.57190543
162	0x3e6586f8	0.22414768
163	0xbe7d0abe	-0.24711129
164	0xbf24bb52	-0.6434833
165	0xbe849ab1	-0.2589927
166	0xbe92ac88	-0.28647256
167	0xbe8801df	-0.26563928
168	0xbf06c0c5	-0.5263789
169	0xbf291489	-0.6604696
170	0xbf875bbf	-1.0574874
171	0xbe978a55	-0.29597726
172	0xbe8aa9e2	-0.27082735
173	0xbe9a92e0	-0.30190182
174	0xbf020785	-0.50792724
175	0xbf4dfd35	-0.8046449
176	0x3d6853c8	0.056720525
177	0xbdb892a4	-0.090123445
178	0xbe2fda6f	-0.1717317
179	0xbe17a789	-0.14810003
180	0xbe112ff6	-0.14178452
181	0xbe36918d	-0.1782896
182	0x3e821608	0.25407434
183	0x3c437619	0.011930012
184	0xbd291226	-0.041277073
185	0xbdf46384	-0.119330436
186	0xbf11ec70	-0.570014
187	0xbe9b8159	-0.30372122
188	0x3cf84101	0.030304434
189	0xbe7c6824	-0.24649101
190	0xbe959640	-0.29216194
191	0xbea9b817	-0.33148262
192	0xbce006ab	-0.02734693
193	0xbe4e8067	-0.20166169
194	0xbe4003cd	-0.1875145
195	0xbec0fd2c	-0.37693155
196	0xbe9f6414	-0.3113104
197	0xbe285ca1	-0.16441585
198	0xbe5f9ac0	-0.21836376
199	0x3d7da0e0	0.061921
200	0xbe8c846d	-0.27444783
201	0xbea1c179	-0.3159292
202	0xbf271b09	-0.6527563
203	0x3d0bf2e8	0.0341672
204	0x3d616f6a	0.055037893
205	0xbd94cdc4	-0.07265809
206	0x3d85bffc	0.06530759
207	0xbe553c43	-0.2082377
208	0xbefca8f1	-0.49347642
209	0xbec232fc	-0.37929523
210	0xbe80e21d	-0.2517251
211	0xbed3f175	-0.41395155
212	0xbe8cef5e	-0.27526373
213	0xbe671fb0	-0.22570682
214	0xbe06ed21	-0.13176395
215	0xbe061fe8	-0.13098109
216	0xbed76099	-0.42065886
217	0xbf14e554	-0.58162427
218	0xbf70eaee	-0.94108474
219	0xbe52ac89	-0.2057363
220	0xbf18c818	-0.5968032
221	0xbeaaf280	-0.33388138
222	0xbed86e2a	-0.42271549
223	0xbedbf547	-0.4296057
224	0xbda9d125	-0.08291844
225	0x3dc3243c	0.095283955
226	0x3e322009	0.17395033
227	0x3d0260dd	0.031830657
228	0xbe916eb3	-0.2840477
229	0xbdc2feba	-0.095212415
230	0xbf127172	-0.57204354
231	0xbf05b8eb	-0.5223529
232	0x3c3376b7	0.010953597
233	0xbe085a00	-0.13315582
234	0xbe4e1a8b	-0.20127313
235	0xbd26f80f	-0.04076391
236	0xbd4376fa	-0.047720887
237	0xbe014959	-0.12625636
238	0x3de45011	0.11148084
239	0x3ccbc9f7	0.024876578
240	0xbeb2c98a	-0.34919387
241	0xbeb18e05	-0.34678665
242	0xbe8c0a64	-0.27351677
243	0x3add283f	0.0016872956
244	0xbec1b11a	-0.3783043
245	0xbcfd0189	-0.030884521
246	0xbe817b3f	-0.25289342
247	0x3d082058	0.03323397
248	0xbec05e4d	-0.37571946
249	0xbd561930	-0.052270114
250	0xbeeb58f2	-0.45966297
251	0xbeae224b	-0.34010538
252	0xbd522cf1	-0.05131239
253	0xbd57684a	-0.052589692
254	0xbe840ebf	-0.257925
255	0xbebbbe86	-0.36668795

fcs.0.bias f4 [16]
0	0xbe202468	-0.15638888
1	0xbe3d38d4	-0.1847871
2	0xbe92b88c	-0.28656423
3	0xbf037b8e	-0.51360404
4	0xbec3f62c	-0.38273752
5	0xbf0783a4	-0.5293524
6	0xbd6c8be2	-0.05775059
7	0xbe575632	-0.21028975
8	0xbf0750fe	-0.5285796
9	0xbd12e6a3	-0.035864484
10	0xbeb0ec58	-0.34555316
11	0x3e548622	0.20754293
12	0x3e00053c	0.12501997
13	0xbe90eb45	-0.28304496
14	0xbed248c9	-0.41071156
15	0x3c9a7912	0.018856559

fc_out.weight f4 [1, 16]
0	0x3cbe0c21	0.023199143
1	0xbdddb697	-0.10825842
2	0x3e36b01e	0.17840621
3	0xbea4ea17	-0.32209846
4	0xbdfdeeaa	-0.12399037
5	0xbeaac64b	-0.3335441
6	0xbe9c9813	-0.30584773
7	0xbd3c0389	-0.04590181
8	0xbe3b2fa3	-0.1827989
9	0xbe332a2e	-0.17496559
10	0xbe65d5a3	-0.22444777
11	0xbe3029bb	-0.17203419
12	0xbe1858a5	-0.14877565
13	0xbe017afa	-0.12644568
14	0x3ca01162	0.019539539
15	0xbd89e4ad	-0.067330696

exp_avg f4 [8, 102]
0	0x3984cca3	0.00025329468
1	0x00000000	0.0
2	0xb898a49d	-7.2785864e-05
3	0xb94a5707	-0.00019296641
4	0x38a18818	7.702428e-05
5	0x38d7bc16	0.00010287033
6	0x00000000	0.0
7	0xb8c8787e	-9.5591866e-05
8	0xba15ed12	-0.0005719225
9	0x39a068fc	0.00030595798
10	0x386efe47	5.6980436e-05
11	0x00000000	0.0
12	0x00000000	0.0
13	0xb9831d2c	-0.00025008002
14	0x00000000	0.0
15	0x00000000	0.0
16	0x39d580b5	0.0004072242
17	0x00000000	0.0
18	0x00000000	0.0
19	0x00000000	0.0
20	0x39d580b5	0.0004072242
21	0xb9a925a4	-0.00032262236
22	0xb9988c81	-0.00029096383
23	0x36d0825d	6.2140593e-06
24	0x3966d8d5	0.00022015286
25	0x00000000	0.0
26	0x00000000	0.0
27	0x399540b2	0.00028467696
28	0xb966cd6d	-0.00022011036
29	0xba055eb9	-0.0005087662
30	0x386efe47	5.6980436e-05
31	0x00000000	0.0
32	0x00000000	0.0
33	0x00000000	0.0
34	0x39d580b5	0.0004072242
35	0x00000000	0.0
36	0x00000000	0.0
37	0x39d580b5	0.0004072242
38	0x00000000	0.0
39	0x39be48c6	0.00036293844
40	0xba540f56	-0.00080894434
41	0xb80a177b	-3.292363e-05
42	0xb64ef085	-3.0836393e-06
43	0x38c6cc4b	9.479428e-05
44	0x00000000	0.0
45	0x00000000	0.0
46	0x00000000	0.0
47	0x393d46fa	0.00018050885
48	0xb9e848b1	-0.00044304648
49	0x38a18818	7.702428e-05
50	0x38d7bc16	0.00010287033
51	0x39d580b5	0.0004072242
52	0xb8c8787e	-9.5591866e-05
53	0xba15ed12	-0.0005719225
54	0x39a068fc	0.00030595798
55	0x386efe47	5.6980436e-05
56	0x00000000	0.0
57	0x00000000	0.0
58	0x00000000	0.0
59	0xb80b01c9	-3.3141845e-05
60	0xb9034f8b	-0.00012522766
61	0xb96ff759	-0.0002288496
62	0x00000000	0.0
63	0x00000000	0.0
64	0x39d580b5	0.0004072242
65	0x00000000	0.0
66	0x00000000	0.0
67	0x00000000	0.0
68	0x00000000	0.0
69	0x00000000	0.0
70	0x00000000	0.0
71	0x00000000	0.0
72	0xba34622b	-0.0006881083
73	0x39e89c34	0.0004436687
74	0x39f3607a	0.00046420452
75	0x00000000	0.0
76	0x00000000	0.0
77	0x00000000	0.0
78	0xb898a49d	-7.2785864e-05
79	0x3924c733	0.00015714466
80	0xb9a68a01	-0.00031764808
81	0x3984cca3	0.00025329468
82	0x00000000	0.0
83	0xb99faf81	-0.00030457604
84	0xb96510d9	-0.00021845418
85	0x393ca217	0.0001798946
86	0x398e4ec6	0.0002714304
87	0x387d08f2	6.032823e-05
88	0xb884fc00	-6.341189e-05
89	0x38c6cc4b	9.479428e-05
90	0x00000000	0.0
91	0x00000000	0.0
92	0x3994e1cb	0.0002839699
93	0x00000000	0.0
94	0x00000000	0.0
95	0x00000000	0.0
96	0xba05acfa	-0.0005099323
97	0xb9709e91	-0.00022947254
98	0x39807d34	0.00024507346
99	0x39375693	0.00017484491
100	0x36a1b82b	4.819614e-06
101	0x3854a8e1	5.070202e-05
102	0xb95adf58	-0.00020873302
103	0x00000000	0.0
104	0x371fb1d5	9.518543e-06
105	0x391fd6fc	0.0001524351
106	0xb95952d8	-0.00020725594
107	0xb7edacf8	-2.8333146e-05
108	0x00000000	0.0
109	0x391251be	0.00013954096
110	0xb7cd8a94	-2.4502435e-05
111	0xb8aa16dd	-8.11049e-05
112	0x370a6cf3	8.250808e-06
113	0x00000000	0.0
114	0x00000000	0.0
115	0x39a8d6be	0.00032203452
116	0x00000000	0.0
117	0x00000000	0.0
118	0xb6ef6ac9	-7.1351865e-06
119	0x00000000	0.0
120	0x00000000	0.0
121	0x00000000	0.0
122	0xb6ef6ac9	-7.1351865e-06
123	0x39ddaf9d	0.00042283247
124	0xb8939952	-7.038064e-05
125	0x38992981	7.303339e-05
126	0xb9b429dd	-0.00034363466
127	0x00000000	0.0
128	0x00000000	0.0
129	0xb9991adc	-0.00029202446
130	0x381f56ac	3.7989274e-05
131	0x39abc66e	0.00032763503
132	0x370a6cf3	8.250808e-06
133	0x00000000	0.0
134	0x00000000	0.0
135	0x00000000	0.0
136	0xb6ef6ac9	-7.1351865e-06
137	0x00000000	0.0
138	0x00000000	0.0
139	0xb6ef6ac9	-7.1351865e-06
140	0x00000000	0.0
141	0xb898c93e	-7.285409e-05
142	0x39795b51	0.00023780508
143	0x386ceead	5.648907e-05
144	0x38210811	3.8392904e-05
145	0xb93aa0c3	-0.0001779823
146	0x00000000	0.0
147	0x00000000	0.0
148	0x00000000	0.0
149	0xb950e438	-0.00019921444
150	0x39f8c23d	0.00047446965
151	0xb95952d8	-0.00020725594
152	0xb7edacf8	-2.8333146e-05
153	0xb6ef6ac9	-7.1351865e-06
154	0x391251be	0.00013954096
155	0xb7cd8a94	-2.4502435e-05
156	0xb8aa16dd	-8.11049e-05
157	0x370a6cf3	8.250808e-06
158	0x00000000	0.0
159	0x00000000	0.0
160	0x00000000	0.0
161	0xb90d7461	-0.00013490162
162	0x39a6618f	0.00031734674
163	0xb8d2f63d	-0.00010059446
164	0x00000000	0.0
165	0x00000000	0.0
166	0xb6ef6ac9	-7.1351865e-06
167	0x00000000	0.0
168	0x00000000	0.0
169	0x00000000	0.0
170	0x00000000	0.0
171	0x00000000	0.0
172	0x00000000	0.0
173	0x00000000	0.0
174	0xb932e3c9	-0.0001706026
175	0x3746d598	1.1851451e-05
176	0x3595bb74	1.1155921e-06
177	0x00000000	0.0
178	0x00000000	0.0
179	0x00000000	0.0
180	0x371fb1d5	9.518543e-06
181	0x39a51909	0.00031489905
182	0xb82bd6a9	-4.0969495e-05
183	0xb95adf58	-0.00020873302
184	0x00000000	0.0
185	0x3830ef34	4.2184445e-05
186	0x39ad06dd	0.00033002245
187	0xb9770873	-0.00023558903
188	0x38a2ebdc	7.768694e-05
189	0xb86c2170	-5.6297926e-05
190	0x38c694bd	9.4690804e-05
191	0xb93aa0c3	-0.0001779823
192	0x00000000	0.0
193	0x00000000	0.0
194	0xb792d82f	-1.7505225e-05
195	0x00000000	0.0
196	0x00000000	0.0
197	0x00000000	0.0
198	0x39457b1a	0.00018833243
199	0x3971f43f	0.0002307454
200	0xb90ecb0f	-0.0001361782
201	0xb90a8a85	-0.00013212308
202	0xb753afe5	-1.2617534e-05
203	0xb840adef	-4.5938355e-05
204	0x38e01689	0.0001068535
205	0x00000000	0.0
206	0xb9442c84	-0.000187086
207	0x38c732ec	9.4985444e-05
208	0xb7cab266	-2.416335e-05
209	0xb764dc0f	-1.3641095e-05
210	0x00000000	0.0
211	0xb8ce5fc3	-9.8406825e-05
212	0xb99c2321	-0.00029780812
213	0x3780eeea	1.5370042e-05
214	0xb6a08c1a	-4.7846816e-06
215	0x00000000	0.0
216	0x00000000	0.0
217	0xb8a6c55d	-7.9522586e-05
218	0x00000000	0.0
219	0x00000000	0.0
220	0x3a3f155b	0.0007289254
221	0x00000000	0.0
222	0x00000000	0.0
223	0x00000000	0.0
224	0x3a3f155b	0.0007289254
225	0xb9082cb9	-0.00012986631
226	0xb9f64a1e	-0.00046975998
227	0x35461eb2	7.3805415e-07
228	0x38e81f45	0.000110684465
229	0x00000000	0.0
230	0x00000000	0.0
231	0xb7460f35	-1.180526e-05
232	0x3620b6c5	2.3948244e-06
233	0xb9f8845a	-0.00047400856
234	0xb6a08c1a	-4.7846816e-06
235	0x00000000	0.0
236	0x00000000	0.0
237	0x00000000	0.0
238	0x3a3f155b	0.0007289254
239	0x00000000	0.0
240	0x00000000	0.0
241	0x3a3f155b	0.0007289254
242	0x00000000	0.0
243	0x373197c4	1.0585358e-05
244	0xb9fc9c6e	-0.00048181735
245	0xb8d2089c	-0.00010015184
246	0x3914c370	0.00014187186
247	0xb8762bc5	-5.8691734e-05
248	0x00000000	0.0
249	0x00000000	0.0
250	0x00000000	0.0
251	0xb8a8427c	-8.023248e-05
252	0x3781b62a	1.5462825e-05
253	0xb7cab266	-2.416335e-05
254	0xb764dc0f	-1.3641095e-05
255	0x3a3f155b	0.0007289254
