cgcnndefect/test/checkpoint.pth.tar (torch, 179989 bytes, 109 tensors)

embedding.weight f4 [16, 92]
-0.029234217 -0.061768655 -0.032389335 -0.16935971 -0.12593299 -0.0779429 0.1727443 0.18666852
-0.0031125348 0.07093656 -0.023010377 -0.03883307 0.027245633 -0.08587401 -0.15472816 0.07065028
-0.045785163 0.02153839 -0.07652617 0.087710604 -0.031354785 0.08862538 -0.078189425 -0.113528036
0.16515952 0.055867147 0.042431973 -0.021090424 -0.011348699 0.18537197 -0.16231543 -0.14735287
-0.03957742 -0.10052045 -0.03570505 -0.06855205 0.050444003 -0.07305413 0.006630106 -0.11816175
0.030210003 -0.06330663 -0.0873952 0.08880138 0.0148157105 -0.033022705 0.019393153 0.11932189
-0.13974093 -0.06432268 0.0031689166 0.02971466 0.12848116 0.032132022 -0.11231208 0.0052483366
0.076468065 -0.08694364 -0.017334426 0.07205462 -0.06272908 0.04593408 -0.09893446 -0.0075123007
-0.053146977 -0.084816754 -0.03062792 0.08285078 -0.13831872 -0.100742035 -0.05836863 -0.016104296
0.08807481 -0.019584117 -0.13330622 -0.09464906 -0.05591998 0.010322517 0.12813434 -0.051042926
-0.10411933 -0.042192407 0.05987341 -0.11072895 -0.12645683 -0.12509896 -0.101995 -0.048800215
0.11487668 0.032027222 -0.019714307 0.08238786 -0.009958556 0.06157258 -0.05115924 -0.023357002
0.034558393 0.07843695 -0.013405679 0.1958734 -0.09456201 -0.010489426 0.09324866 0.011283009
0.031428106 0.12087004 -0.07500677 0.1680462 -0.034794126 0.062357247 0.02855287 -0.0078945495
-0.03060394 0.121213056 0.084889404 -0.04737615 -0.13718867 0.027493969 -0.07956207 0.04965701
-0.08069352 0.06257631 0.022993749 0.035831705 0.042135775 0.08216162 -0.097626224 0.024601065
-0.07686248 -0.111466065 -0.107199565 0.046855286 0.07988029 0.010715928 0.029916126 0.037119467
-0.037532363 0.035001203 -0.052677155 0.10238686 0.105952084 -0.103719726 0.12260607 0.03983735
0.05319983 -0.07727727 0.10883405 -0.104752906 -0.06333143 -0.04465 0.060676534 -0.08425823
-0.075599544 0.0618332 0.06256682 0.002844956 -0.121951655 -0.07206256 -0.07657872 -0.05551494
-0.012131448 -0.017576195 0.1000769 -0.008126986 -0.055187393 -0.0519657 -0.0580878 -0.04330979
0.02706971 0.03247512 -0.0033670058 0.032162122 -0.06553889 -0.053500235 -0.115359254 0.059972245
0.024687197 0.04469923 0.060112327 -0.028734267 -0.14575014 -0.12323611 -0.065833524 0.10322953
-0.08453879 0.07946341 0.009605043 0.024117237 -0.03574966 -0.099886246 -0.052538697 0.1439627
0.038361628 -0.007925714 0.2890842 0.057298463 -0.071809344 -0.014856078 -0.039161015 0.1837457
0.119993865 0.08923394 -0.034915514 0.03387533 0.11185291 -0.08133363 -0.14237781 -0.018808397
0.14678437 0.04939779 0.08138464 -0.054896977 0.04032914 0.04247865 0.02926043 -0.115180396
-0.097818285 -0.08816963 -0.08354324 -0.030063769 0.07761585 0.021793505 0.016951779 -0.05425647
0.046146803 -0.044185597 -0.054217428 0.03230207 0.029988669 -0.043324035 -0.100496545 -0.05280451
0.025112707 0.023445789 -0.07393098 -0.08236351 0.065857336 0.003504207 0.058974672 0.012803652
0.13981119 0.006443696 -0.0192505 0.046070743 -0.1101675 0.0671405 0.00713184 0.17421491
0.08508769 0.055434093 -0.021328771 -0.015263003 -0.057126347 0.08190427 -0.0997223 0.030162115
00000000: 997c efbc 2101 7dbd aeaa 04bd a26c 2dbe
00000010: 94f4 00be 87a0 9fbd e2e3 303e 0826 3f3e
00000020: abfb 4bbb 3047 913d 4280 bcbc 6d0f 1fbd
00000030: 3c32 df3c b7de afbd 0f71 1ebe 18b1 903d
00000040: 3989 3bbd 4771 b03c c1b9 9cbd 9ea1 b33d
00000050: e06d 00bd 3981 b53d c721 a0bd 6381 e8bd
00000060: 941f 293e f3d4 643d 26cd 2d3d d3c5 acbc
00000070: e5ef 39bc 26d2 3d3e 0436 26be ace3 16be
00000080: ef1b 22bd aadd cdbd 753f 12bd 0465 8cbd
00000090: 5f9e 4e3d 679d 95bd 5c41 d93b cafe f1bd
000000a0: f87a f73c e8a6 81bd 41fc b2bd 7fdd b53d
000000b0: 98bd 723c d142 07bd 64de 9e3c 095f f43d
000000c0: 3f18 0fbe 9cbb 83bd 99ad 4f3b 296c f33c
000000d0: 9190 033e de9c 033d e003 e6bd 3dfa ab3b
000000e0: 4a9b 9c3d 820f b2bd ed00 8ebc 5f91 933d
000000f0: 1b78 80bd 6025 3c3d 269e cabd bf29 f6bb
00000100: a5b0 59bd 68b4 adbd 67e7 fabc abad a93d
00000110: 6ca3 0dbe d751 cebd f213 6fbd 28ed 83bc
00000120: 9160 b43d df6e a0bc 6d81 08be 5ed7 c1bd
00000130: 590c 65bd c61f 293c a635 033e 6312 51bd
00000140: 843c d5bd f2d1 2cbd d23d 753d dcc5 e2bd
00000150: e67d 01be f119 00be c1e2 d0bd bce2 47bd
00000160: 7744 eb3d fa2e 033d e67f a1bc f7ba a83d
00000170: 3629 23bc 8833 7c3d 5a8c 51bd 2f57 bfbc
00000180: 1a8d 0d3d 8da3 a03d 7ea3 5bbc 0993 483e
00000190: baa9 c1bd d7db 2bbc 27f9 be3d 5fdc 383c
000001a0: c2ba 003d b68a f73d 269d 99bd 4e14 2c3e
000001b0: 4984 0ebd 506a 7f3d b5e7 e93c 2458 01bc
000001c0: 1db5 fabc 8d3e f83d 7fda ad3d 7e0d 42bd
000001d0: 307b 0cbe 083b e13c 70f1 a2bd 2665 4b3d
000001e0: a542 a5bd 0228 803d 635d bc3c 44c4 123d
000001f0: 9096 2c3d 5a44 a83d 42f0 c7bd 2c88 c93c
00000200: 136a 9dbd 5248 e4bd 728b dbbd 54eb 3f3d
00000210: 4798 a33d dc91 2f3c aa12 f53c 950a 183d
00000220: 89bb 19bd 6c5d 0f3d 00c4 57bd 34b0 d13d
00000230: 68fd d83d 026b d4bd e418 fb3d 7d2c 233d
00000240: 11e8 593d 8c43 9ebd 63e4 de3d b188 d6bd
00000250: e9b3 81bd ebe2 36bd f587 783d 948f acbd
00000260: efd3 9abd cf44 7d3d 0823 803d 7172 3a3b
00000270: cac1 f9bd 8995 93bd 4ed5 9cbd a263 63bd
00000280: fbc2 46bc f4fb 8fbc 1ef5 cc3d 0d27 05bc
00000290: 2d0c 62bd fcd9 54bd 79ed 6dbd 9b65 31bd
000002a0: 4cc1 dd3c a204 053d fca8 5cbb 6ebc 033d
000002b0: 4139 86bd 1023 5bbd 7941 ecbd 75a5 753d
000002c0: ce3c ca3c 8a16 373d 5838 763d 2064 ebbc
000002d0: 863f 15be 3763 fcbd bad3 86bd 016a d33d
000002e0: ac22 adbd b6bd a23d 785e 1d3c 8391 c53c
000002f0: 3c6e 12bd 2991 ccbd d132 57bd f56a 133e
00000300: 1521 1d3d dbda 01bc d802 943e cbb1 6a3d
00000310: c710 93bd e866 73bc 4d67 20bd d527 3c3e
00000320: 58bf f53d 49c0 b63d 9203 0fbd dcc0 0a3d
00000330: 2313 e53d 3f92 a6bd 7dcb 11be 1114 9abc
00000340: a44e 163e 5655 4a3d fdac a63d a7db 60bd
00000350: 2b30 253d 18fe 2d3d 92b3 ef3c b3e3 ebbd
00000360: f454 c8bd 4792 b4bd b818 abbd 4b48 f6bc
00000370: 0ff5 9e3d 4b88 b23c 75de 8a3c 083c 5ebd
00000380: 6e04 3d3d f5fb 34bd 1813 5ebd 2d4f 043d
00000390: ccaa f53c 8b74 31bd 22d1 cdbd 8b49 58bd
000003a0: 2ab9 cd3c 6211 c03c 2069 97bd 33ae a8bd
000003b0: 36e0 863d d6a6 653b 6d8f 713d 69c6 513c
000003c0: aa2a 0f3e a425 d33b 39b3 9dbc adb4 3c3d
000003d0: 809f e1bd f580 893d 36b2 e93b 6565 323e
000003e0: 7442 ae3d dc0e 633d adb9 aebc ad11 7abc
000003f0: 51fd 69bd 6dbd a73d 353b ccbd 8a16 f73c

embedding.bias f4 [16]
-0.09188707 -0.0424189 0.07454099 -0.025802705 -0.08308982 -0.18570629 -0.04824725 0.058847193
-0.04415425 -0.06943509 -0.04342109 -0.058020197 0.03254271 -0.026142294 -0.1453155 -0.0463959
00000000: 4a2f bcbd 71bf 2dbd f2a8 983d 3260 d3bc
00000010: ff2a aabd ca29 3ebe e99e 45bd c109 713d
00000020: 16db 34bd fc33 8ebd 50da 31bd 96a6 6dbd
00000030: 814b 053d 5d28 d6bc 96cd 14be a109 3ebd

convs.0.fc_full.weight f4 [32, 56]
-0.09773526 -0.13193296 0.026731534 0.030486483 -0.00091032597 0.12035735 -0.10503772 0.083921015
0.006033463 -0.08658098 -0.012653601 -0.10856069 -0.08547886 -0.032070007 0.025094882 0.040189862
0.0556391 -0.014650876 0.15973487 -0.090875044 -0.11074951 0.07463605 0.012211713 0.03095283
0.02881313 -0.095112994 0.17000778 0.066786595 -0.13195327 -0.097290896 0.044628676 -0.12347285
0.3373449 0.27708814 -0.16815391 -0.34365752 -0.31793278 0.13709147 0.04317154 -0.2855772
-0.278909 -0.3209817 0.25618804 0.16581012 -0.38439175 -0.2191725 -0.21331292 0.09793346
-0.04820698 -0.05431961 -0.26568785 -0.16031198 -0.38138595 -0.46041122 -0.08632357 0.21264765
0.015592361 -0.036040675 0.047265287 -0.044298872 -0.04095825 0.14589411 0.08349005 -0.02808576
-0.08396277 -0.054736596 -0.05062907 0.07907135 0.04355004 0.07643043 -0.075114004 -0.08985821
-0.1176021 -0.21278822 -0.019674452 -0.061122745 -0.045797043 -0.026071234 0.022169588 0.18912415
0.07550203 0.06742431 0.024333764 0.04094141 -0.021564486 -0.07110163 0.17037252 0.12064204
-0.011932052 -0.03751119 -0.3183206 -0.20973758 -0.21708493 0.09132451 0.018265313 -0.3748817
-0.15718718 -0.18888758 0.14521727 0.025011072 -0.2783234 -0.14652605 -0.14454006 0.22584625
0.27232176 0.022106102 -0.06815782 0.03292076 0.119966485 0.08429763 -0.038741946 0.1281927
0.023609951 0.06774785 -0.05139832 0.11562772 0.041769102 -0.060353667 0.13714042 -0.08920224
0.010234191 0.058686778 0.06654863 -0.048454735 -0.021661328 0.09633862 -0.09499549 -0.058333177
-0.083421625 0.08776041 -0.06950137 -0.05777434 -0.20415238 0.07063483 -0.037072174 0.19569576
0.0759315 -0.212342 -0.14391886 -0.044836115 -0.14579217 -0.16497742 -0.16280156 -0.016621416
-0.041219994 0.020739544 -0.092326656 -0.057618994 0.090868466 -0.11824923 -0.14442801 0.13695274
-0.011379808 0.10648231 0.056834802 -0.0185667 0.12931462 -0.013755082 -0.016513756 0.046692677
-0.05705874 0.026145097 -0.14088617 0.0070576277 0.11689941 -0.15652874 0.05773476 0.0037790723
0.028915621 -0.028171318 -0.05246209 0.1145172 -0.06600578 -0.14653334 -0.008876654 -0.08218894
-0.054203026 -0.071806416 0.15176988 0.0877244 -0.11141213 -0.0512247 0.017689096 -0.16185142
0.10722273 0.034879368 0.10363084 0.049702752 0.12056587 0.014136354 -0.05467541 0.10933031
-0.11411064 0.13410111 0.03535233 0.09057356 -0.104692765 0.10353006 -0.1429185 0.00499133
0.1866462 0.12411072 -0.05582253 -0.24387614 -0.087224 0.29189405 0.25876474 0.109039284
-0.1636162 -0.23938024 0.29198268 0.0678023 0.089289516 -0.23456039 -0.122482665 0.2305254
0.23542385 0.016656594 -0.058882687 -0.027578373 0.04900316 0.09655834 0.043602906 0.010732868
-0.042663284 -0.022891484 -0.031500056 -0.16191553 0.05349844 -0.17038861 0.03150075 0.060016014
0.0592486 -0.008503808 -0.048783254 -0.10904067 -0.099578045 -0.056474064 0.15094835 -0.12714157
-0.08759282 0.059512842 0.1324748 0.10141228 -0.16759568 0.42425004 -0.07917532 0.07695373
-0.32420683 -0.22678894 0.2738723 0.07721444 0.027257847 0.06113121 0.057454467 0.098316856
00000000: 6d29 c8bd 6f19 07be 17fc da3c cabe f93c
00000010: f1a2 6eba ea7d f63d 041e d7bd c8de ab3d
00000020: 5bb4 c53b 5e51 b1bd 0d51 4fbc 1155 debd
00000030: 8a0f afbd d75b 03bd c893 cd3c 209e 243d
00000040: d3e5 633d 3a0a 70bc 8a91 233e b21c babd
00000050: a4d0 e2bd c9da 983d a313 483c ca90 fd3c
00000060: 8309 ec3c 9aca c2bd 8516 2e3e 69c7 883d
00000070: c21e 07be 7340 c7bd 8fcc 363d 55df fcbd
00000080: 79b8 ac3e 7fde 8d3e 8a30 2cbe e1f3 afbe
00000090: 16c8 a2be b561 0c3e a4d4 303d 2d37 92be
000000a0: 29cd 8ebe b757 a4be 142b 833e 21ca 293e
000000b0: ffce c4be c16e 60be b46e 5abe 5691 c83d
000000c0: af74 45bd 3d7e 5ebd 3d08 88be d328 24be
000000d0: 0545 c3be 05bb ebbe 69ca b0bd 4ec0 593e
000000e0: 1a77 7f3c 639f 13bd 3f99 413d bc72 35bd
000000f0: d7c3 27bd 4465 153e d5fc aa3d 1c14 e6bc
00000100: acf4 abbd 7b33 60bd 6d60 4fbd 29f0 a13d
00000110: 8761 323d 8f87 9c3d 5fd5 99bd 9507 b8bd
00000120: 5fd9 f0bd 28e5 59be 512c a1bc d85b 7abd
00000130: ae95 3bbd 5793 d5bc ff9c b53c c3a9 413e
00000140: cfa0 9a3d c215 8a3d 9a57 c73c 2eb2 273d
00000150: 01a8 b0bc bb9d 91bd 2276 2e3e 2d13 f73d
00000160: a77e 43bc 55a5 19bd ebfa a2be 73c5 56be
00000170: 834b 5ebe 5808 bb3d 23a1 953c 7ff0 bfbe
00000180: adf5 20be bf6b 41be d6b3 143e 05e4 cc3c
00000190: 6880 8ebe ed0a 16be 4f02 14be 3d44 673e
000001a0: c26d 8b3e db17 b53c 5496 8bbd ebd7 063d
000001b0: fdb0 f53d 3ca4 ac3d e0af 1ebd f244 033e
000001c0: a869 c13c 63bf 8a3d 0b87 52bd 3ace ec3d
000001d0: 1416 2b3d 6835 77bd 8a6e 0c3e aaaf b6bd
000001e0: 4fad 273c 8c61 703d a64a 883d 7978 46bd
000001f0: 1973 b1bc 2f4d c53d ff8c c2bd c5ee 6ebd
00000200: f5d8 aabd bbbb b33d bc56 8ebd c9a4 6cbd
00000210: 520d 51be fea8 903d fed8 17bd 7864 483e
00000220: f981 9b3d 2e70 59be 775f 13be 13a6 37bd
00000230: 8b4a 15be d7ef 28be 74b5 26be a329 88bc
00000240: 4cd6 28bd fae5 a93c c215 bdbd e501 6cbd
00000250: 3f19 ba3d a72c f2bd f0e4 13be 573d 0c3e
00000260: 6072 3abc 6613 da3d 9ccb 683d 3119 98bc
00000270: 0d6b 043e ff5c 61bc db47 87bc d240 3f3d
00000280: 6db6 69bd 3e2e d63c 7744 10be ac43 e73b
00000290: f568 ef3d 1249 20be 497b 6c3d 50aa 773b
000002a0: 74e0 ec3c 89c7 e6bc 7de2 56bd fe87 ea3d
000002b0: 0a2e 87bd d60c 16be 636f 11bc ad52 a8bd
000002c0: fe03 5ebd 3e0f 93bd 9069 1b3e daa8 b33d
000002d0: 0b2c e4bd fed0 51bd b9e8 903c 61bc 25be
000002e0: 9797 db3d abdd 0e3d 683c d43d 1d95 4b3d
000002f0: 3deb f63d 2b9c 673c 53f3 5fbd 92e8 df3d
00000300: d7b2 e9bd cd51 093e 9bcd 103d a17e b93d
00000310: 2969 d6bd 9107 d43d 3a59 12be 508e a33b
00000320: 2e20 3f3e c32d fe3d 2aa6 64bd abba 79be
00000330: 7fa2 b2bd 2373 953e d07c 843e fd4f df3d
00000340: 018b 27be 1820 75be c17e 953e efdb 8a3d
00000350: 6cdd b63d 9930 70be 31d8 fabd da0e 6c3e
00000360: f312 713e 6973 883c f92e 71bd 0aec e1bc
00000370: 8ab7 483d 61c0 c53d f698 323d e9d8 2f3c
00000380: b2bf 2ebd ec86 bbbc 3406 01bd 2fcd 25be
00000390: 2e21 5b3d 5a7a 2ebe ee06 013d 5ad3 753d
000003a0: a9ae 723d 8e53 0bbc f3d0 47bd b750 dfbd
000003b0: 93ef cbbd 5951 67bd 3492 1a3e 6631 02be
000003c0: dd63 b3bd bdc3 733d 79a7 073e 3eb1 cf3d
000003d0: 349e 2bbe 4d37 d93e ac26 a2bd eb99 9d3d
000003e0: 70fe a5be 5c3b 68be fd38 8c3e 9b22 9e3d
000003f0: d94b df3c b864 7a3d 6055 6b3d 595a c93d

convs.0.fc_full.bias f4 [32]
-0.018342054 0.07730413 -0.014473819 0.18076757 -0.18104061 -0.09146574 0.011643992 0.10699399
-0.003652225 -0.104277305 0.08696782 0.11959513 -0.055437744 0.042214397 0.0045163226 0.071568936
-0.17037152 -0.06407436 -0.019288324 0.05397742 -0.0752285 -0.25041208 0.071942836 0.06435586
0.025475224 0.018294938 0.13849679 0.112494454 0.11768391 -0.07625203 0.061741423 0.15161794
00000000: 1342 96bc a151 9e3d 9923 6dbc 221b 393e
00000010: b662 39be 6452 bbbd 71c6 3e3c aa1f db3d
00000020: 2b5a 6fbb 578f d5bd 2f1c b23d 4bee f43d
00000030: b012 63bd 01e9 2c3d a9fd 933b bc92 923d
00000040: df75 2ebe 6b39 83bd 8c02 9ebc 6d17 5d3d
00000050: 6611 9abd 0336 80be c456 933d 01cd 833d
00000060: 6bb1 d03c 44df 953c 1ad2 0d3e 7e63 e63d
00000070: 4304 f13d 062a 9cbd 93e4 7c3d bc41 1b3e

convs.0.bn1.weight f4 [32]
1.3650621 1.202062 1.0923296 1.2166834 1.3463734 1.1535375 0.9874089 0.94783854
1.2572278 0.9591444 1.0187131 1.2195884 1.158986 1.3763278 1.2353951 1.238827
0.95184827 1.2050635 0.995914 1.0826907 1.1080486 1.0611473 1.0798419 0.88773715
0.9353537 0.98143303 0.996128 0.9429795 1.0633385 1.0744581 1.1339401 1.1358687
00000000: 5bba ae3f 2bdd 993f 75d1 8b3f 48bc 9b3f
00000010: f755 ac3f 1ea7 933f d4c6 7c3f 8ca5 723f
00000020: d7ec a03f 7d8a 753f 3165 823f 791b 9c3f
00000030: a759 943f 822b b03f 6d21 9e3f e291 9e3f
00000040: 54ac 733f 853f 9a3f 38f4 7e3f 9c95 8a3f
00000050: 89d4 8d3f add3 873f 4238 8a3f be42 633f
00000060: 5773 6f3f 323f 7b3f 3f02 7f3f 1b67 713f
00000070: 7a1b 883f d887 893f f324 913f 2564 913f

convs.0.bn1.bias f4 [32]
-0.04196774 -0.011438886 -0.0033428331 -0.020474635 -0.19664806 0.092028014 0.07000797 0.11258237
-0.029635414 0.10383489 -0.019860176 0.06778897 -0.059812218 0.03414976 -0.3685578 -0.09789972
0.024905942 -0.14326836 0.04866325 0.031492885 -0.27001268 -0.011557612 0.010853267 0.17615283
0.1252731 0.067314886 0.034421638 0.16797166 -0.038407233 -0.08470668 -0.2946898 -0.27571532
00000000: 5de6 2bbd 2a6a 3bbc 6f13 5bbb 6cba a7bc
00000010: 1c5e 49be 2f79 bc3d 5760 8f3d 9691 e63d
00000020: f8c5 f2bc 63a7 d43d cfb1 a2bc f2d4 8a3d
00000030: a8fd 74bd 9ee0 0b3d 9cb3 bcbe a67f c8bd
00000040: 8c07 cc3c f1b4 12be 1e53 473d affe 003d
00000050: 1a3f 8abe 235c 3dbc e7d1 313c 6861 343e
00000060: 9747 003e 63dc 893d b4fd 0c3d c300 2c3e
00000070: e750 1dbd b27a adbd 95e1 96be 8f2a 8dbe

convs.0.bn1.running_mean f4 [32]
-1.3929049 -1.4395138 0.033011004 0.7662025 -1.5156863 4.0605397 -0.46150863 0.2693033
-0.04817906 -1.4232813 -1.1181452 0.9332731 0.15872139 -0.9364667 -0.014383693 0.06376732
-1.5602357 -1.9671447 -0.3929619 -0.23156717 -1.3225398 0.6176358 -1.5990909 1.0092385
-0.4591157 -1.7153751 -1.8552035 -0.17019984 1.3888946 -0.29120323 -0.569338 -0.22102693
00000000: b54a b2bf fd41 b8bf 8c36 073d d925 443f
00000010: 0202 c2bf f1ef 8140 dc4a ecbe 1fe2 893e
00000020: 6857 45bd 152e b6bf 621f 8fbf fcea 6e3f
00000030: dc87 223e 48bc 6fbf 95a9 6bbc 7198 823d
00000040: ceb5 c7bf 66cb fbbf 4d32 c9be f21f 6dbe
00000050: fc48 a9bf 611d 1e3f 03af ccbf ba2e 813f
00000060: 3711 ebbe 6991 dbbf 4f77 edbf de48 2ebe
00000070: 4cc7 b13f 9718 95be 23c0 11bf e254 62be

convs.0.bn1.running_var f4 [32]
0.015131924 0.04855415 0.031326003 0.042582013 0.027045164 0.044273622 0.027103528 0.043494023
0.03357975 0.03031327 0.035703495 0.025594536 0.053784784 0.054022077 0.029110707 0.047960192
0.06276821 0.016882734 0.04983638 0.047579877 0.065487064 0.0671184 0.033923805 0.035303775
0.09381633 0.03150701 0.035561085 0.034851763 0.05308707 0.04922616 0.052350864 0.08234669
00000000: e4eb 773c b7e0 463d b24f 003d 7a6a 2e3d
00000010: d28d dd3c 4258 353d 3808 de3c ca26 323d
00000020: ec8a 093d 8953 f83c d43d 123d a2ab d13c
00000030: 6f4d 5c3d 4146 5d3d 9479 ee3c e871 443d
00000040: 9f8c 803d a94d 8a3c 3b21 4c3d 1ee3 423d
00000050: 151e 863d 5f75 893d b0f3 0a3d b19a 103d
00000060: c722 c03d 7f0d 013d 80a8 113d b9c0 0e3d
00000070: d471 593d 5fa1 493d dc6d 563d 62a5 a83d

convs.0.bn2.weight f4 [16]
1.0537431 1.0023863 1.0296233 1.0721989 1.0299144 1.0182613 1.0238128 0.8780095
1.0995741 0.99874985 0.8835628 1.0192038 1.1165016 1.0589482 1.1168169 1.1848156
00000000: 0ee1 863f 324e 803f b2ca 833f d03d 893f
00000010: 3cd4 833f 6356 823f 4c0c 833f 3bc5 603f
00000020: d8be 8c3f 12ae 7f3f 2c31 623f 4575 823f
00000030: 86e9 8e3f 9d8b 873f dbf3 8e3f 0aa8 973f

convs.0.bn2.bias f4 [16]
-0.014423752 -0.024795573 -0.021412062 -0.02589436 -0.07195873 -0.3948017 0.11316101 0.031282164
-0.05620454 0.042107098 -0.08457519 -0.0016781287 0.05733452 0.052511502 0.004511882 0.086597264
00000000: 9a51 6cbc 1620 cbbc 5968 afbc 6920 d4bc
00000010: 195f 93bd 7323 cabe f6c0 e73d ba21 003d
00000020: bb36 66bd 7e78 2c3d c235 adbd a8f4 dbba
00000030: 9ad7 6a3d 4d16 573d 69d8 933b e859 b13d

convs.0.bn2.running_mean f4 [16]
5.128576 5.1204567 4.5741515 4.9095635 4.1576014 4.601037 5.654655 5.562055
4.8652296 6.0151534 5.044753 5.848073 4.644421 5.562184 4.5654902 4.580505
00000000: 4b1d a440 c8da a340 735f 9240 251b 9d40
00000010: 120b 8540 b23b 9340 eff2 b440 5bfc b140
00000020: f6af 9b40 237c c040 9e6e a140 6a23 bb40
00000030: 199f 9440 69fd b140 7f18 9240 7f93 9240

convs.0.bn2.running_var f4 [16]
12.162776 4.425815 6.8352485 4.738808 4.389248 2.1898532 7.2704725 4.384747
1.6013924 16.058205 16.876148 19.151035 4.5132146 9.628458 7.655838 2.3309238
00000000: bb9a 4241 47a0 8d40 5bba da40 51a4 9740
00000010: b874 8c40 8e26 0c40 b6a7 e840 d94f 8c40
00000020: 6dfa cc3f 3477 8041 5a02 8741 5235 9941
00000030: 416c 9040 2a0e 1a41 a0fc f440 db2d 1540

convs.1.fc_full.weight f4 [32, 56]
-0.01797379 -0.14140974 -0.016142664 0.024795052 0.11657207 0.06877515 -0.052660525 -0.029928274
-0.0969908 0.18167749 0.12550627 0.067858554 -0.069258556 0.036155622 -0.22476643 0.07469915
0.054769736 -0.09626978 -0.11714082 0.0024637487 -0.13334544 0.14529224 -0.054861896 -0.20501162
0.05064756 -0.06876668 -0.06491336 0.10030319 -0.14352149 -0.05994701 0.09668062 0.049781363
0.1557497 0.27866605 -0.15559977 -0.16613324 -0.32230002 0.27663368 0.11304947 -0.19286409
-0.3254917 -0.09357175 0.07845098 0.081563614 -0.25004694 -0.17138931 -0.27251795 0.042813852
0.102621645 -0.03890386 -0.008965236 -0.10995193 -0.043348722 -0.21397305 -0.036062684 -0.06043246
0.11771153 -0.15457967 -0.24462692 -0.09521712 -0.016466392 0.04873569 -0.017410098 0.090534024
0.0021416298 0.088072516 0.030360201 0.019045888 -0.038253427 -0.042287294 -0.06767279 -0.049460795
0.0733967 -0.050510857 0.0018203984 0.075731814 0.1357416 0.20217238 0.047247075 -0.026618248
-0.05628536 0.05030689 -0.024552787 -0.0680644 -0.12467326 0.05227211 0.068439186 -0.04027068
-0.033125028 0.1758611 0.18656704 0.0864172 0.18412907 0.06964765 0.027185231 0.17819329
0.14505997 -0.08250521 0.005858976 0.037589286 0.3288811 0.022845732 -0.027758084 -0.16080795
-0.11399844 0.19798467 0.1669714 0.06376073 0.12165027 -0.055394113 -0.06419923 0.091211155
-0.061208244 0.013814159 -0.054379478 0.16894512 -0.10347331 -0.0056931055 -0.20105305 0.00077514537
0.0974405 0.07096374 -0.063760445 -0.116602495 -0.18870766 -0.0953963 0.03982847 -0.04548001
0.08676682 -0.0014021887 -0.11974027 0.09357689 -0.12224643 0.080274165 -0.09215438 0.044160273
-0.024596158 -0.048938524 0.034065273 -0.10632053 -0.14281574 -0.09552886 0.0909115 -0.20886497
-0.011491282 0.08969217 -0.06917605 -0.23439029 0.019515527 0.059439167 0.06299017 -0.019128121
-0.06152964 -0.18987967 0.14881246 0.13121954 0.05327577 -0.058838304 -0.206089 -0.055833407
0.012493132 0.0385585 0.06020136 -0.070314676 -0.03220423 -0.005038394 -0.15092935 -0.2058725
0.11415002 0.048655014 -0.056159884 -0.14404076 -0.020146532 0.11804798 0.120016284 0.05060485
-0.036588896 0.10379252 -0.07388939 0.06274703 0.057831332 0.07441218 0.07487782 -0.12032769
-0.06163039 0.0513983 0.2935759 0.19124506 -0.019824363 -0.07226854 0.14476575 0.009897663
-0.016769389 -0.05310449 -0.08617048 0.20617716 0.06996266 0.17518145 -0.1608079 -0.026996884
-0.03329349 -0.09284318 -0.108044654 -0.13811871 0.007603482 -0.062494293 -0.024572011 -0.06406386
-0.02451814 0.058130678 0.028308619 0.07406316 0.053953234 -0.104480065 0.1148139 -0.017160567
0.048064385 -0.105345234 -0.19022971 0.11437975 0.10547916 -0.06596969 -0.21242794 -0.007984861
0.04248769 0.040308155 -0.1226842 -0.0044699013 -0.0861177 0.018890407 -0.0016723576 -0.10698619
-0.14310466 0.11848699 -0.17964652 -0.14346007 0.07921144 -0.02324306 0.048204653 0.07672337
-0.13546155 0.11197905 -0.21666054 0.04189865 -0.17571148 0.008824733 0.16506812 0.030093754
0.12765208 0.08412205 -0.12370856 0.021040563 0.015267548 -0.04639259 -0.07423624 0.07613013
00000000: c53d 93bc b7cd 10be 9f3d 84bc fe1e cb3c
00000010: 56bd ee3d fcd9 8c3d 90b2 57bd 242c f5bc
00000020: 1da3 c6bd aa09 3a3e b784 003e 6df9 8a3d
00000030: 6ed7 8dbd eb17 143d 2c29 66be defb 983d
00000040: 3b56 603d 1729 c5bd 87e7 efbd d876 213b
00000050: b58b 08be 7dc7 143e deb6 60bd 91ee 51be
00000060: d173 4f3d 8cd5 8cbd 4cf1 84bd c26b cd3d
00000070: 4cf7 12be ff8a 75bd 7d00 c63d 8be7 4b3d
00000080: d97c 1f3e 51ad 8e3e 8c55 1fbe d51e 2abe
00000090: 8204 a5be eea2 8d3e 7b86 e73d 2a7e 45be
000000a0: d9a6 a6be 8ca2 bfbd e8aa a03d d30a a73d
000000b0: 2706 80be ae80 2fbe 7987 8bbe 945d 2f3d
000000c0: 4c2b d23d a759 1fbd ede2 12bc 7a2e e1bd
000000d0: 6e8e 31bd c01b 5bbe 77b6 13bd 0788 77bd
000000e0: be12 f13d 224a 1ebe 7b7f 7abe 3201 c3bd
000000f0: 87e4 86bc 139f 473d 9f9f 8ebc e769 b93d
00000100: 965a 0c3b 5d5f b43d f5b5 f83c 1f06 9c3c
00000110: a0af 1cbd 7135 2dbd 0898 8abd 6797 4abd
00000120: 0251 963d 79e4 4ebd 6f9a ee3a 4819 9b3d
00000130: d9ff 0a3e 4706 4f3e 2686 413d 830e dabc
00000140: 7a8b 66bd 990e 4e3d ed22 c9bc 5965 8bbd
00000150: b254 ffbd 481b 563d d829 8c3d def2 24bd
00000160: 1cae 07bd ef14 343e 6e0b 3f3e 80fb b03d
00000170: 558c 3c3e 6da3 8e3d 90b3 de3c 4d78 363e
00000180: 9a8a 143e 7ef8 a8bd a7fc bf3b 39f7 193d
00000190: 1b63 a83e f926 bb3c ec64 e3bc d7aa 24be
000001a0: 0478 e9bd 7ebc 4a3e 8dfa 2a3e fc94 823d
000001b0: c723 f93d f0e4 62bd e37a 83bd eacc ba3d
000001c0: 7fb5 7abd c854 623c 04bd 5ebd f3ff 2c3e
000001d0: d1e9 d3bd 3b8d babb dae0 4dbe 2033 4b3a
000001e0: e38e c73d 7055 913d d694 82bd 4acd eebd
000001f0: 953c 41be 235f c3bd 2e23 233d 3f49 3abd
00000200: cdb2 b13d a5c9 b7ba 633a f5bd 3ea5 bf3d
00000210: 565c fabd c866 a43d 70bb bcbd 67e1 343d
00000220: e27d c9bc c373 48bd 0788 0b3d 94be d9bd
00000230: 4a3e 12be a3a4 c3bd cf2f ba3d b3e0 55be
00000240: ee45 3cbc 87b0 b73d 2cac 8dbd 0204 70be
00000250: 07df 9f3c 7c76 733d fe00 813d 94b2 9cbc
00000260: 8106 7cbd d16f 42be 4b62 183e 6a5e 063e
00000270: b237 5a3d 6f00 71bd ff08 53be 92b1 64bd
00000280: feaf 4c3c 85ef 1d3d b495 763d 2401 90bd
00000290: 95e8 03bd 1d19 a5bb 398d 1abe 3ed0 52be
000002a0: 7cc7 e93d 7b4a 473d e807 66bd 6c7f 13be
000002b0: 570a a5bc 24c3 f13d 19cb f53d 0847 4f3d
000002c0: 3dde 15bd 2c91 d43d 5253 97bd 8481 803d
000002d0: 8ce0 6c3d 6a65 983d 8b59 993d 5d6e f6bd
000002e0: 2670 7cbd 0687 523d 954f 963e bfd5 433e
000002f0: b466 a2bc 8701 94bd 793d 143e cf29 223c
00000300: f55f 89bc 1884 59bd 267a b0bd 1b20 533e
00000310: 9548 8f3d c462 333e d3aa 24be 9228 ddbc
00000320: c15e 08bd 9124 bebd 8446 ddbd fe6e 0dbe
00000330: a126 f93b 04fa 7fbd 3e4b c9bc ea33 83bd
00000340: 44da c8bc 6f1a 6e3d 7ae7 e73c 6dae 973d
00000350: 11fe 5c3d a5f9 d5bd 8d23 eb3d 5194 8cbc
00000360: 29df 443d 3ebf d7bd 94cb 42be ee3f ea3d
00000370: 7505 d83d 1e1b 87bd b686 59be efd2 02bc
00000380: 9207 2e3d 2a1a 253d db41 fbbd 4078 92bb
00000390: 7a5e b0bd 0ec0 9a3c 0233 dbba 931b dbbd
000003a0: 078a 12be 4fa9 f23d 42f5 37be 32e7 12be
000003b0: 9c39 a23d 3b68 bebc 3e72 453d 2421 9d3d
000003c0: 6fb6 0abe 4655 e53d 43dc 5dbe eb9d 2b3d
000003d0: b6ed 33be 9d95 103c 9e07 293e 2d87 f63c
000003e0: 3ab7 023e 2e48 ac3d ea5a fdbd 425d ac3c
000003f0: bd24 7a3c 2806 3ebd 2b09 98bd 1dea 9b3d

convs.1.fc_full.bias f4 [32]
0.07851875 -0.12846409 -0.06696117 0.08202476 0.05194188 0.18606415 0.030188663 0.12543221
0.06914953 -0.18548568 0.10893257 -0.09642209 0.023472011 -0.049396362 -0.026652126 -0.091610305
-0.011390526 -0.10150336 -0.01625601 0.19654424 -0.03159593 0.13304172 0.025896827 -0.11209144
0.025552753 0.017726548 -0.057950165 0.04625675 -0.021909758 0.12777148 -0.0018542004 -0.0788801
00000000: 70ce a03d 178c 03be f022 89bd 99fc a73d
00000010: 02c1 543d 9a87 3e3e 374e f73c 4d71 003e
00000020: 459e 8d3d f5ef 3dbe 0a18 df3d f278 c5bd
00000030: 6048 c03c d753 4abd 8f55 dabc 2f9e bbbd
00000040: 549f 3abc fee0 cfbd 532b 85bc e542 493e
00000050: bc6a 01bd 173c 083e 9525 d43c 3290 e5bd
00000060: 0254 d13c 4437 913c 275d 6dbd b877 3d3d
00000070: 187c b3bc 87d6 023e a408 f3ba e48b a1bd

convs.1.bn1.weight f4 [32]
1.1549491 1.7216892 1.208942 1.5005047 1.3203547 1.5106609 1.8424189 1.3145944
1.6391166 1.3954699 1.3347974 1.3032961 1.2449558 1.3017341 1.6276017 1.190854
1.2308221 1.1441761 1.1390033 1.1733996 0.9952289 1.2596271 1.0437138 0.97389764
0.956047 0.9534767 1.1048985 1.0923905 1.0966796 1.130091 1.2512021 1.3426769
00000000: 5fd5 933f 5060 dc3f 9dbe 9a3f 8a10 c03f
00000010: 6201 a93f 565d c13f 62d4 eb3f a144 a83f
00000020: 93ce d13f c29e b23f a4da aa3f 68d2 a63f
00000030: b65a 9f3f 399f a63f 4155 d03f e76d 983f
00000040: 948b 9d3f 5d74 923f dcca 913f f531 963f
00000050: 52c7 7e3f 763b a13f 6a98 853f 5b51 793f
00000060: 7fbf 743f 0d17 743f 506d 8d3f 74d3 8b3f
00000070: ff5f 8c3f d2a6 903f 6427 a03f d6dc ab3f

convs.1.bn1.bias f4 [32]
-0.028066166 -0.025546877 0.061394546 -0.21430299 -0.032131854 -0.16796778 -0.14453126 0.037171893
-0.087274365 0.10785132 -0.054113995 -0.023138594 0.045540374 -0.25545946 -0.08061256 -0.017585197
-0.049146835 -0.035307236 -0.043897677 -0.20663384 0.014377177 -0.14967993 -0.09365185 0.017499521
0.06281032 0.13237323 -0.00247839 -0.03017755 -0.05083473 -0.35763758 -0.2428591 -0.09569343
00000000: 04eb e5bc af47 d1bc d978 7b3d 3e72 5bbe
00000010: b19c 03bd bfff 2bbe 0100 14be 8e41 183d
00000020: e7bc b2bd 27e1 dc3d a3a6 5dbd 268d bdbc
00000030: 8b88 3a3d 95cb 82be 3318 a5bd d50e 90bc
00000040: 314e 49bd 529e 10bd 0dce 33bd d297 53be
00000050: 408e 6b3c b245 19be 8bcc bfbd 285b 8f3c
00000060: b2a2 803d d98c 073e 7c6c 22bb e936 f7bc
00000070: 1438 50bd 461c b7be 0eb0 78be ebfa c3bd

convs.1.bn1.running_mean f4 [32]
-1.221265 1.1593174 -1.2689945 0.51839477 -1.5870686 0.92229724 0.3616565 1.2258592
-0.2275506 -0.96678865 -1.7932382 -0.4214554 -2.8663068 0.21774337 -1.3152168 -0.37025505
-1.340253 -1.5016751 0.086166464 0.39123803 -0.6262065 -0.33907643 -0.35151887 -0.5338946
-0.93827313 -3.0891163 -0.64320433 -2.9886255 -0.6830828 -0.4516384 0.7856299 -0.2270707
00000000: 6952 9cbf 8364 943f 696e a2bf 85b5 043f
00000010: 1025 cbbf ac1b 6c3f 0a2b b93e f4e8 9c3f
00000020: 0603 69be 767f 77bf d488 e5bf 01c9 d7be
00000030: 9271 37c0 1ef8 5e3e 0659 a8bf 1292 bdbe
00000040: 698d abbf e436 c0bf 0b78 b03d 5a50 c83e
00000050: 124f 20bf 6d9b adbe 48fa b3be 51ad 08bf
00000060: ab32 70bf 15b4 45c0 0aa9 24bf a445 3fc0
00000070: 84de 2ebf 263d e7be 0b1f 493f 3985 68be

convs.1.bn1.running_var f4 [32]
0.12020356 0.10112739 0.06955239 0.14438929 0.13463663 0.13268794 0.10453346 0.10110093
0.10133451 0.15942037 0.20149738 0.21121709 0.08470845 0.17335801 0.16523975 0.23922625
0.14328803 0.09198658 0.08378536 0.15934627 0.2687849 0.32441002 0.29773667 0.064617515
0.15432417 0.2821397 0.26867554 0.33177796 0.16118686 0.1587951 0.16064303 0.14241743
00000000: 492d f63d e11b cf3d 7c71 8e3d c9da 133e
00000010: 2fde 093e 59df 073e a415 d63d 010e cf3d
00000020: 7888 cf3d 183f 233e 5455 4e3e 4b49 583e
00000030: a07b ad3d c384 313e 9c34 293e baf7 743e
00000040: 19ba 123e 7663 bc3d a997 ab3d ab2b 233e
00000050: 2d9e 893e 1219 a63e f170 983e 3056 843d
00000060: 2807 1e3e 9d74 903e d78f 893e cdde a93e
00000070: 2b0e 253e 2f9b 223e 9b7f 243e e0d5 113e

convs.1.bn2.weight f4 [16]
1.1731776 0.94737417 1.1399016 1.0372597 1.0370295 1.1010433 1.0721232 1.023388
1.1470002 0.9112777 1.0245141 1.0107695 0.9321617 1.026073 1.1114669 1.1315192
00000000: af2a 963f 1d87 723f 4ce8 913f edc4 843f
00000010: 62bd 843f fdee 8c3f 553b 893f 61fe 823f
00000020: e7d0 923f 7f49 693f 4723 833f e560 813f
00000030: 26a2 6e3f 5c56 833f 8c44 8e3f 9fd5 903f

convs.1.bn2.bias f4 [16]
0.022758303 0.01617736 0.004313585 -0.08517333 -0.010872537 -0.0961401 0.059270583 -0.09006736
0.029423771 -1.852649e-05 -0.0063943993 -0.07795031 -0.010557301 0.02569774 0.01438782 0.0055695963
00000000: 9f6f ba3c 6286 843c f958 8d3b 5b6f aebd
00000010: ba22 32bc 1ae5 c4bd b6c5 723d 3c75 b8bd
00000020: 1f0a f13c 5669 9bb7 1c88 d1bb 6aa4 9fbd
00000030: 88f8 2cbc 1184 d23c e4ba 6b3c 2981 b63b

convs.1.bn2.running_mean f4 [16]
6.123694 5.099875 4.306749 4.5727854 4.9951797 4.7366486 4.1965613 4.7301903
4.9348907 6.296129 4.531022 4.71451 4.1977773 4.218684 4.0648813 5.320163
00000000: 4df5 c340 2d32 a340 e3d0 8940 4254 9240
00000010: 83d8 9f40 a092 9740 3b4a 8640 b85d 9740
00000020: a0ea 9d40 e479 c940 22fe 9040 44dd 9640
00000030: 3154 8640 76ff 8640 8213 8240 c63e aa40

convs.1.bn2.running_var f4 [16]
51.20511 28.977324 4.669453 8.770493 7.1521153 11.8744 7.745567 5.4761176
14.859707 16.972496 4.1736364 8.275868 6.1815314 6.9142933 6.0776 14.962218
00000000: 08d2 4c42 8fd1 e741 296c 9540 f053 0c41
00000010: 21de e440 8bfd 3d41 afdb f740 5b3c af40
00000020: 5cc1 6d41 acc7 8741 6e8e 8540 f569 0441
00000030: 1bcf c540 e441 dd40 b37b c240 3f65 6f41

convs.2.fc_full.weight f4 [32, 56]
0.026992397 -0.069900006 -0.005806036 -0.091882646 -0.081930675 -0.056284297 -0.23685713 0.111364685
0.015471946 0.10008922 0.053399313 -0.00071091705 0.09126721 -0.04176364 0.0825021 0.16984692
0.068661556 -0.121930405 0.10974345 -0.024933185 0.20916799 0.05176595 -0.24167413 0.036655396
0.062537 -0.13069709 0.1612368 -0.12330082 -0.03349542 -0.054067444 -0.10136963 0.027725467
0.24305178 -0.0018342563 -0.33880353 -0.2538441 -0.22184022 0.1660074 0.010683319 -0.28548297
-0.123670615 -0.12553093 0.030599372 -0.036463343 -0.32587925 -0.19651498 -0.2847041 0.24946927
0.15778029 0.2273934 0.062156633 0.12611079 0.06363764 -0.028481668 -0.047517575 0.19317555
-0.06997271 0.0012527298 -0.027072161 -0.12427082 0.023593657 -0.12526873 0.037403133 -0.15781596
0.082514256 -0.22253588 0.09382525 -0.1135473 -0.08282202 0.02263625 0.054912984 -0.06806989
-0.19166717 0.07116031 -0.057400577 0.09516091 -0.20727015 -0.0046114614 -0.1590881 0.007107423
-0.09320208 -0.072715744 -0.01131573 -0.028153863 -0.048769858 -0.29709408 -0.19417486 -0.11704846
-0.16692655 -0.12875271 -0.385889 0.012959186 -0.19010995 -0.12003064 -0.010312765 -0.32724273
-0.10710986 -0.1837782 -0.10650091 -0.07462163 -0.43761572 -0.21872073 -0.12293085 -0.026499411
-0.14579235 -0.07128456 -0.0911013 -0.090942554 0.0737146 0.13578607 0.055231772 0.040566538
0.16204493 0.010645592 -0.018603833 -0.09524485 0.051613625 -0.05966048 0.02768149 -0.19292451
0.057299424 0.008728406 0.0345731 0.04170001 -0.2395178 -0.07274099 -0.20507106 -0.105155535
-0.08980531 -0.0018997975 0.06503269 -0.03997503 -0.2015365 0.1583611 -0.008712265 0.14105617
-0.022620928 0.09112369 -0.016457833 -0.0977623 -0.11806061 -0.123783134 -0.19856133 0.13669772
0.15939884 -0.048447575 -0.11928709 -0.068754554 -0.22269659 0.21420877 0.16053401 -0.19685765
-0.14417832 -0.08836096 0.13922292 0.08723685 -0.23178776 -0.04799999 -0.08726792 0.069043234
0.025535513 0.007764192 0.03866626 0.077749684 0.08036209 -0.04572 -0.0265001 0.20397855
-0.03201856 0.1363128 0.084131025 0.07102584 0.014958855 0.22032157 0.06981526 -0.26586676
-0.06189399 -0.15466793 -0.028579414 0.092219025 0.07764554 -0.035335176 0.010980475 -0.06707109
0.079367 0.27101213 -0.0927177 0.16320315 -0.052066423 0.2756345 -0.077240445 0.016418042
-0.0166111 -0.17253608 0.045471568 -0.09451111 -0.045993477 -0.14350024 0.00087084976 0.0137381675
-0.2968766 -0.18574472 -0.104050554 0.036726993 0.26559445 -0.23082092 -0.15754902 -0.054579537
0.15015608 0.024613606 -0.19628511 -0.08043469 -0.054884277 0.11508523 0.16133559 -0.057550155
-0.09909041 -0.17754689 -0.07039638 -0.14806779 -0.12699762 -0.0650389 -0.022310104 -0.016103279
0.041452356 0.001441936 -0.06753826 -0.12044121 0.13983762 -0.09489473 -0.11696204 -0.17008242
-0.021046434 -0.095932394 -0.23160288 0.185053 0.10103917 -0.006771224 -0.0887251 -0.008819698
-0.25328985 -0.049617402 -0.18763955 0.043272633 -0.2230288 0.086992554 -0.061000742 -0.11138734
0.009181085 0.049030032 -0.109458044 -0.06427711 -0.08316256 -0.16815862 0.03963869 -0.18664682
00000000: 291f dd3c bc27 8fbd 8f40 bebb f82c bcbd
00000010: 45cb a7bd 5d8a 66bd ad8a 72be 2b13 e43d
00000020: 0c7e 7d3c 94fb cc3d 3db9 5a3d d65c 3aba
00000030: 4eea ba3d 5a10 2bbd dcf6 a83d 5aec 2d3e
00000040: 6e9e 8c3d a6b6 f9bd 2dc1 e03d ae40 ccbc
00000050: 2230 563e 8808 543d 6c79 77be f823 163d
00000060: 6613 803d 75d5 05be 421b 253e 2485 fcbd
00000070: 7e32 09bd d375 5dbd e19a cfbd 8520 e33c
00000080: 91e2 783e 6e6b f0ba a877 adbe dbf7 81be
00000090: 152a 63be d8fd 293e 1609 2f3c d32a 92be
000000a0: 0547 fdbd 2e8b 00be 89ab fa3c 965a 15bd
000000b0: a5d9 a6be 393b 49be bcc4 91be df74 7f3e
000000c0: 2891 213e d1d9 683e f497 7e3d 3023 013e
000000d0: 7354 823d 6352 e9bc caa1 42bd d0cf 453e
000000e0: da4d 8fbd a332 a43a 70c6 ddbc b381 febd
000000f0: 7c47 c13c 7246 00be 0734 193d 829a 21be
00000100: 3cfd a83d 72e0 63be 7427 c03d 7d8b e8bd
00000110: 979e a9bd a86f b93c 70ec 603d 3a68 8bbd
00000120: 6644 44be 7fbc 913d de1c 6bbd b9e3 c23d
00000130: a03e 54be be1b 97bb fee7 22be 63e5 e83b
00000140: bbe0 bebd feeb 94bd 9d65 39bc eea2 e6bc
00000150: e7c2 47bd b71c 98be c6d5 46be 1ab7 efbd
00000160: cbee 2abe c0d7 03be 3e93 c5be c452 543c
00000170: 2fac 42be a0d2 f5bd dff6 28bc 5c8c a7be
00000180: 6a5c dbbd 5a30 3cbe 261d dabd 3ad3 98bd
00000190: 2b0f e0be 54f8 5fbe 2bc3 fbbd 4b15 d9bc
000001a0: 974a 15be a4fd 91bd 5293 babd 1740 babd
000001b0: aef7 963d 810b 0b3e b63a 623d 1929 263d
000001c0: 1bef 253e d96a 2e3c 1167 98bc bb0f c3bd
000001d0: cf68 533d 8c5e 74bd 4bc4 e23c 018e 45be
000001e0: cdb2 6a3d 9701 0f3c 869c 0d3d a1cd 2a3d
000001f0: 2744 75be 3af9 94bd 26fe 51be c95b d7bd
00000200: d9eb b7bd a002 f9ba dc2f 853d dbbc 23bd
00000210: 965f 4ebe 6a29 223e e3bd 0ebc 0771 103e
00000220: 864f b9bc 0f9f ba3d 94d2 86bc 9a37 c8bd
00000230: c3c9 f1bd 0382 fdbd a953 4bbe 7dfa 0b3e
00000240: 7339 233e f770 46bd ca4c f4bd 30cf 8cbd
00000250: 930a 64be 8b59 5b3e 0763 243e 0d95 49be
00000260: 7ba3 13be 97f6 b4bd 7490 0e3e 3ca9 b23d
00000270: c559 6dbe a39b 44bd 86b9 b2bd 8a66 8d3d
00000280: da2f d13c c36a fe3b 8360 1e3d 3a3b 9f3d
00000290: e194 a43d e544 3bbd bd16 d9bc c1df 503e
000002a0: e525 03bd 9595 0b3e e34c ac3d ff75 913d
000002b0: fc15 753c fa9b 613e 4efb 8e3d b01f 88be
000002c0: 8d84 7dbd 4561 1ebe 601f eabc 54dd bc3d
000002d0: a004 9f3d 9ebb 10bd 73e7 333c 915c 89bd
000002e0: 2a8b a23d 1ac2 8a3e c7e2 bdbd ba1e 273e
000002f0: 9a43 55bd f71f 8d3e 3d30 9ebd 217f 863c
00000300: 0014 88bc 4cad 30be 6540 3a3d 0a8f c1bd
00000310: a863 3cbd baf1 12be bd49 643a 0d16 613c
00000320: 3600 98be dd33 3ebe 7518 d5bd 0b6f 163d
00000330: fffb 873e 525c 6cbe 8854 21be cb8e 5fbd
00000340: 84c2 193e 79a2 c93c f7fe 48be f1ba a4bd
00000350: 56ce 60bd ceb1 eb3d 2835 253e b6b9 6bbd
00000360: eaef cabd dace 35be fa2b 90bd 159f 17be
00000370: aa0b 02be 1d33 85bd aec3 b6bc 06eb 83bc
00000380: f2c9 293d 58ff bc3a 8051 8abd e2a9 f6bd
00000390: 9831 0f3e 2b58 c2bd cb89 efbd 162a 2ebe
000003a0: 9269 acbc 3478 c4bd 4e29 6dbe 897e 3d3e
000003b0: a0ed ce3d 25e1 ddbb 81b5 b5bd 7f80 10bc
000003c0: 35af 81be 9e3b 4bbd 9524 40be a53e 313d
000003d0: a961 64be 2729 b23d eadb 79bd 0c1f e4bd
000003e0: 436c 163c b7d3 483d 8a2b e0bd b8a3 83bd
000003f0: 2251 aabd c631 2cbe 2e5c 223d 5820 3fbe

convs.2.fc_full.bias f4 [32]
0.001587791 0.16148363 -0.07953762 -0.09471126 0.019114865 0.0791904 0.038536668 0.10617207
-0.1424955 -0.04974711 -0.03234432 -0.040412772 -0.055055458 -0.07365926 -0.09430819 0.07435603
0.00046908975 -0.0073602223 0.0717214 0.025188314 -0.10444557 -0.100266136 0.011572123 -0.05589733
0.060817238 -0.14187549 0.12572083 -0.076759115 0.15825354 -0.040204484 -0.11788415 0.05531979
00000000: 6d1d d03a f75b 253e 9fe4 a2bd faf7 c1bd
00000010: c796 9c3c 942e a23d a0d8 1d3d be70 d93d
00000020: 57ea 11be a0c3 4bbd 7a7b 04bd dd87 25bd
00000030: d581 61bd abda 96bd a724 c1bd f947 983d
00000040: 29f0 f539 052e f1bb abe2 923d b957 ce3c
00000050: 8fe7 d5bd 5558 cdbd 0099 3d3c 99f4 64bd
00000060: 7f1b 793d cf47 11be f6bc 003e e233 9dbd
00000070: 370d 223e 75ad 24bd 3f6d f1bd 0197 623d

convs.2.bn1.weight f4 [32]
1.3882856 1.2380439 1.4442402 1.8710716 1.3349007 1.3112236 1.3227743 1.2295611
1.6263248 1.4696846 1.6811843 1.4351789 1.4062878 1.7651942 1.4792658 1.4289881
1.0968977 1.2313284 1.075426 1.2254047 1.0550548 1.0864048 1.2914617 1.4024186
1.1518939 0.9405129 0.8377888 1.1138096 1.1881614 0.8395884 0.9476404 1.1375309
00000000: 58b3 b13f 3978 9e3f dddc b83f 467f ef3f
00000010: 07de aa3f 2dd6 a73f ab50 a93f 4262 9d3f
00000020: 692b d03f a01e bc3f 0c31 d73f f1b3 b73f
00000030: 3d01 b43f e2f1 e13f 9558 bd3f 15e9 b63f
00000040: 2567 8c3f 2b9c 9d3f 8fa7 893f 10da 9c3f
00000050: 090c 873f 500f 8b3f 9e4e a53f 7482 b33f
00000060: 4271 933f 74c5 703f 5479 563f 5091 8e3f
00000070: ac15 983f 44ef 563f 9098 723f 9d9a 913f

convs.2.bn1.bias f4 [32]
0.060480233 0.06766027 -0.13592416 -0.20723623 -0.051022165 0.0977951 -0.0646423 0.09419063
-0.14822343 0.035772245 -0.057673056 -0.13439348 -0.058790717 0.27317992 -0.17095311 0.034441486
-0.004236328 -0.20406751 -0.13182281 -0.27457166 0.0347191 -0.020008676 -0.070777364 -0.19915105
-0.12535413 0.23690079 0.16121311 -0.127701 -0.03735319 0.2758315 0.005467135 -0.06360032
00000000: 1fba 773d 7891 8a3d b42f 0bbe bc35 54be
00000010: 9efc 50bd cc48 c83d 2f63 84bd 04e7 c03d
00000020: e2c7 17be eb85 123d 953a 6cbd 729e 09be
00000030: 89ce 70bd 3dde 8b3e 550e 2fbe 8412 0d3d
00000040: e5d0 8abb 13f7 50be 8ffc 06be a894 8cbe
00000050: 9d35 0e3d 3ce9 a3bc b9f3 90bd 41ee 4bbe
00000060: d55c 00be 1f96 723e 0d15 253e 0dc4 02be
00000070: a9ff 18bd c939 8d3e a725 b33b e240 82bd

convs.2.bn1.running_mean f4 [32]
-1.46386 -5.0919 -1.7133055 -0.6338655 -3.2237208 -4.563424 -1.0070482 -2.0232437
-2.4441397 -0.7344345 -1.8498206 -1.3983331 0.039560504 0.7001049 -1.3752311 -2.302775
-2.058233 0.035874452 -2.1177273 -1.9780091 -1.4947186 -2.1626313 -0.5896288 -4.0542364
-2.5112805 -3.74455 -0.41265947 -1.8911171 -1.6852194 0.62757707 -0.7316939 -1.044282
00000000: c45f bbbf d8f0 a2c0 984d dbbf 0245 22bf
00000010: 7151 4ec0 9207 92c0 f5e6 80bf d37c 01c0
00000020: c96c 1cc0 e603 3cbf ecc6 ecbf 94fc b2bf
00000030: 320a 223d 133a 333f 9307 b0bf aa60 13c0
00000040: 17ba 03c0 17f1 123d d888 07c0 672f fdbf
00000050: f052 bfbf 8d68 0ac0 eaf1 16bf 4ebc 81c0
00000060: d2b8 20c0 b5a6 6fc0 1a48 d3be 2010 f2bf
00000070: 45b5 d7bf e4a8 203f 4b50 3bbf 08ab 85bf

convs.2.bn1.running_var f4 [32]
0.3590828 0.18317425 0.5554475 0.16556379 0.65773183 0.33707413 0.20045224 0.3690663
0.26270556 0.73679936 0.109416276 0.27320623 0.33844623 0.3898938 0.29833323 0.1380937
0.6437365 0.30893466 0.19090554 0.65112627 0.17029381 0.59374917 0.33187437 0.22857374
0.684719 0.3196601 0.63774353 0.39609024 0.44794482 0.4644091 0.36687797 0.24779133
00000000: b3d9 b73e 0892 3b3e cf31 0e3f 8e89 293e
00000010: 1d61 283f fb94 ac3e 5a43 4d3e 42f6 bc3e
00000020: 5881 863e e29e 3c3f a415 e03d b0e1 8b3e
00000030: d348 ad3e 29a0 c73e 22bf 983e 6f68 0d3e
00000040: eacb 243f af2c 9e3e be7c 433e 36b0 263f
00000050: 8061 2e3e f2ff 173f 70eb a93e 3c0f 6a3e
00000060: bf49 2f3f 7daa a33e 2943 233f 57cc ca3e
00000070: 0659 e53e 08c7 ed3e 6ed7 bb3e 03bd 7d3e

convs.2.bn2.weight f4 [16]
1.0236534 1.1265703 1.2787205 1.4697689 1.1205605 1.1956112 1.3425463 1.1162955
1.2077918 1.1055869 1.1181631 1.0916027 1.1094404 1.2632915 1.2074193 1.3391075
00000000: 1307 833f 7533 903f 1dad a33f 6321 bc3f
00000010: 876e 8f3f ca09 993f 8fd8 ab3f c5e2 8e3f
00000020: ec98 9a3f df83 8d3f f81f 8f3f a3b9 8b3f
00000030: 2502 8e3f 89b3 a13f b78c 9a3f e067 ab3f

convs.2.bn2.bias f4 [16]
0.045666948 0.015159045 0.08503638 -0.017506318 0.009472557 -0.03534843 0.041101564 -0.043645915
0.03964459 0.08610521 0.052152198 0.039577715 -0.020299774 0.057137944 0.060295396 0.009682751
00000000: 440d 3b3d a55d 783c 8e27 ae3d 6969 8fbc
00000010: c932 1b3c 84c9 10bd 1d5a 283d 0fc6 32bd
00000020: 5e62 223d ee57 b03d 8b9d 553d 3e1c 223d
00000030: b64b a6bc 7a09 6a3d 4ef8 763d 67a4 1e3c

convs.2.bn2.running_mean f4 [16]
5.8699207 4.171397 4.092842 3.6118891 4.5576434 4.5718346 4.0944324 4.0662637
4.7176723 5.366297 5.037607 5.246263 4.7660313 5.702737 5.0837126 4.633434
00000000: 64d6 bb40 167c 8540 90f8 8240 3129 6740
00000010: 37d8 9140 784c 9240 9705 8340 d51e 8240
00000020: 2cf7 9640 b4b8 ab40 1434 a140 63e1 a740
00000030: 5483 9840 d27c b640 c6ad a240 1745 9440

convs.2.bn2.running_var f4 [16]
38.782764 11.039847 10.793015 4.873186 12.6451235 5.938537 4.733792 13.392003
12.38899 11.674733 23.464144 26.319082 12.122224 6.2030926 14.244611 10.545935
00000000: 8d21 1b42 37a3 3041 30b0 2c41 24f1 9b40
00000010: 6d52 4a41 7f08 be40 397b 9740 a545 5641
00000020: 4e39 4641 b5cb 3a41 91b6 bb41 7b8d d241
00000030: a1f4 4141 bc7f c640 ede9 6341 26bc 2841

convs.3.fc_full.weight f4 [32, 56]
-0.03710249 0.0013439216 0.15894076 -0.012690543 -0.03903265 0.20364891 0.10317138 0.24791072
0.081708826 0.062112987 0.30732533 -0.021234944 -0.08119591 -0.0013688665 -0.055296995 0.07558612
-0.12346207 -0.12350078 0.19499247 0.03240656 0.10623402 0.076643094 -0.102528155 -0.056356523
0.06999422 0.08868255 0.036618445 -0.0139599135 0.10909558 0.006236526 0.049700197 -0.0048446604
-0.22096254 -0.08896578 -0.3443212 0.035910062 0.103077196 -0.12361725 -0.05288895 -0.20913649
-0.010331202 0.035580274 -0.25841594 -0.26788554 -0.15429908 0.07399175 0.17162889 0.105261356
-0.14324704 0.033463467 -0.05074169 0.24551085 0.12749274 0.040260386 -0.036862347 0.11061295
-0.002768737 0.14879464 0.17014065 -0.068813086 0.08618527 0.075534016 0.16743992 0.15704763
0.0829164 0.1679061 0.01651984 -0.061161593 0.102706775 0.20916219 -0.05106967 0.24055728
-0.0024343946 0.053785946 0.047063034 -0.15289907 0.046471834 -0.08045645 0.024774363 -0.014136612
-0.06271623 0.03233558 0.09746242 -0.084454425 -0.04182253 -0.010975735 -0.09666154 -0.036889132
0.03870637 -0.1827591 0.08609634 0.0662847 0.030282749 -0.10478238 -0.13620426 -0.079757825
-0.06750652 0.02926784 -0.0006880816 -0.14964274 0.11713766 -0.059855383 -0.075165465 -0.003324633
-0.12979597 0.17991234 0.13942507 0.2930803 0.26073697 0.20994824 -0.086694464 -0.0518249
0.1373427 -0.10069906 0.0021116126 -0.092443086 0.06287752 0.09657318 -0.21587358 -0.12283872
-0.10610929 -0.069095895 -0.00010738135 -0.013325864 -0.01192222 -0.12338429 -0.07708122 -0.033052772
0.04899029 -0.13442485 -0.161294 -0.12502311 -0.08715654 0.16581574 0.15157345 -0.07826784
-0.16438599 -0.05253265 -0.13286605 0.022905413 -0.03560899 -0.22899523 -0.098150454 -0.24467596
-0.20332047 -0.1488199 -0.05169018 -0.0031127313 0.07005001 0.019330416 -0.18960883 -0.07475077
0.010452786 0.1482793 -0.12378884 -0.21761869 -0.06596965 0.093473144 0.030735938 -0.08657446
-0.1022631 -0.07740598 -0.12486909 0.15489773 0.049749594 0.015515232 0.05881928 0.20505631
0.11540906 0.028727232 0.23083742 0.092060074 0.086826816 0.01662563 0.03331789 -0.020558987
0.031781416 -0.02461013 -0.110415876 -0.043177996 0.11969577 0.087380774 -0.027063005 -0.037272617
0.17326355 0.091664076 -0.11963845 0.05614165 -0.09288132 0.13265388 -0.018807461 -0.119254105
-0.28804612 -0.1539788 0.16686648 -0.2897427 -0.10304407 0.0039965096 -0.15634957 -0.09971648
0.26640534 0.21613647 0.058541197 -0.20224269 -0.30459034 0.26619792 0.03738188 -0.17804313
-0.24266523 -0.29454815 0.18943895 0.08061581 0.045941252 -0.087416865 -0.20728858 0.000716422
0.041405108 0.21930143 0.07520451 0.2694076 0.14767441 0.1414189 0.038582344 0.13144664
0.18081304 0.050557427 -0.16611463 0.011885319 0.09339205 -0.2955997 0.12671706 0.13270812
-0.027361011 0.008021056 -0.037048128 -0.0021016311 -0.18285896 -0.047065534 -0.02535946 -0.031110127
0.06970051 -0.18741658 0.056766856 0.1880852 0.011993042 0.15360245 0.12937504 -0.049367193
0.0008924643 -0.038146134 0.010732378 -0.07310972 -0.11781151 0.01673265 0.032410923 0.06704119
00000000: c8f8 17bd 8726 b03a 5ec1 223e ffeb 4fbc
00000010: b3e0 1fbd 5789 503e 844b d33d 4fdc 7d3e
00000020: f556 a73d 306a 7e3d bf59 9d3e e8f4 adbc
00000030: 0b4a a6bd 8a6b b3ba 1a7f 62bd e5cc 9a3d
00000040: afd9 fcbd faed fcbd 1bac 473e bebc 043d
00000050: 3991 d93d 0ef7 9c3d 48fa d1bd 19d6 66bd
00000060: 2159 8f3d 329f b53d 39fd 153d 1fb8 64bc
00000070: 816d df3d c65b cc3b 6f92 4b3d f5bf 9ebb
00000080: 0144 62be b133 b6bd de4a b0be 6e16 133d
00000090: 231a d33d 0a2b fdbd 15a2 58bd e027 56be
000000a0: 3444 29bc 9fbc 113d 184f 84be 4b28 89be
000000b0: 9400 1ebe fd88 973d 7cbf 2f3e 4493 d73d
000000c0: 5aaf 12be fd10 093d 85d6 4fbd 3267 7b3e
000000d0: 758d 023e 13e8 243d f9fc 16bd 0b89 e23d
000000e0: b373 35bb 9f5d 183e 5a39 2e3e e0ed 8cbd
000000f0: e781 b03d 94b1 9a3d 5f75 2b3e 18d1 203e
00000100: 13d0 a93d 94ef 2b3e 9e54 873c 9484 7abd
00000110: ee57 d23d 9d2e 563e 6e2e 51bd a654 763e
00000120: 5d8a 1fbb a74e 5c3d 2bc5 403d 9391 1cbe
00000130: 4059 3e3d 5ac6 a4bd 9bf3 ca3c 409d 67bc
00000140: 5e71 80bd 5072 043d 619a c73d 71f6 acbd
00000150: 1a4e 2bbd 92d3 33bc 7cf6 c5bd 0f19 17bd
00000160: 928a 1e3d 3425 3bbe 4753 b03d 46c0 873d
00000170: 8713 f83c 2598 d6bd 2179 0bbe 1258 a3bd
00000180: dc40 8abd 1cc3 ef3c 6060 34ba f23b 19be
00000190: dfe5 ef3d eb2a 75bd 5af0 99bd 16e2 59bb
000001a0: 3ce9 04be f13a 383e 72c5 0e3e 9f0e 963e
000001b0: 517f 853e acfc 563e de8c b1bd 5946 54bd
000001c0: 91a3 0c3e 4f3b cebd fb62 0a3b cd52 bdbd
000001d0: eec5 803d 29c8 c53d f70d 5dbe de92 fbbd
000001e0: d44f d9bd 2682 8dbd ec31 e1b8 ba54 5abc
000001f0: 6a55 43bc e7b0 fcbd c2dc 9dbd 5862 07bd
00000200: 0baa 483d aba6 09be 412a 25be 0f06 00be
00000210: 217f b2bd 9acb 293e 1236 1b3e e44a a0bd
00000220: cd54 28be 7a2c 57bd 0a0e 08be 22a4 bb3c
00000230: bbda 11bd ba7d 6abe 1b03 c9bd 568c 7abe
00000240: 3e33 50be 3e64 18be 15b9 53bd f7fe 4bbb
00000250: 6176 8f3d d25a 9e3c d128 42be ef16 99bd
00000260: 2a42 2b3c 87d6 173e 0185 fdbd 6fd7 5ebe
00000270: 191b 87bd d96e bf3d efc9 fb3c f34d b1bd
00000280: 516f d1bd 0787 9ebd 5ebb ffbd 839d 1e3e
00000290: 3bc6 4b3d 9a33 7e3c 7cec 703d 48fa 513e
000002a0: 965b ec3d 5f55 eb3c a560 6c3e fe89 bc3d
000002b0: 42d2 b13d 7932 883c 5778 083d 526b a8bc
000002c0: 3b2d 023d 2f9b c9bc b821 e2bd 69db 30bd
000002d0: 0e23 f53d b1f4 b23d 3cb3 ddbc 2cab 18bd
000002e0: 006c 313e 60ba bb3d 0105 f5bd c9f4 653d
000002f0: 9038 bebd 6bd6 073e 1b12 9abc 7f3b f4bd
00000300: c87a 93be 9eac 1dbe 0cdf 2a3e 2859 94be
00000310: c508 d3bd 27f5 823b 1a1a 20be 2738 ccbd
00000320: 4866 883e e152 5d3e e5c8 6f3d b518 4fbe
00000330: 44f3 9bbe 184b 883e be1d 193d f050 36be
00000340: 3c7d 78be 04cf 96be 49fc 413e e719 a53d
00000350: e52c 3c3d 9d07 b3bd 7543 54be 44ce 3b3a
00000360: 6798 293d 8e90 603e d204 9a3d cbef 893e
00000370: f637 173e 1ed0 103e 8508 1e3d f399 063e
00000380: 0e27 393e 4e15 4f3d f419 2abe a4ba 423c
00000390: 5544 bf3d d858 97be 1ec2 013e a3e4 073e
000003a0: 3324 e0bc bf6a 033c c7bf 17bd 85bb 09bb
000003b0: 613f 3bbe cac7 40bd a4be cfbc aada febc
000003c0: 24bf 8e3d 22ea 3fbe 5d84 683d 6899 403e
000003d0: 777e 443c f649 1d3e e47a 043e 4135 4abd
000003e0: 44f4 693a 1f3f 1cbd dbd6 2f3c 8dba 95bd
000003f0: 2947 f1bd e912 893c 51c1 043d e44c 893d

convs.3.fc_full.bias f4 [32]
0.11385055 -0.019067457 0.088808686 -0.08906636 -0.14409034 -0.05025033 -0.17354414 -0.017674347
-0.057587676 -0.052493557 0.08848595 0.11079642 0.0037237597 -0.011245968 0.05474391 0.17492035
0.03194521 0.06783027 -0.009102851 0.09959149 0.16644834 -0.03814323 -0.04432137 -0.053935844
-0.13826045 -0.024966395 0.12791212 -0.014279803 0.083186574 -0.17335573 -0.12472931 -0.16284445
00000000: 7a2a e93d 5b33 9cbc 54e1 b53d 6c68 b6bd
00000010: 6b8c 13be 4ad3 4dbd 8eb5 31be cbc9 90bc
00000020: 0ee1 6bbd 7c03 57bd 1f38 b53d 3ce9 e23d
00000030: 520a 743b 0241 38bc 263b 603d 521e 333e
00000040: fbd8 023d 99ea 8a3d 2024 15bc a0f6 cb3d
00000050: 6f71 2a3e 133c 1cbd 538a 35bd d5eb 5cbd
00000060: 2694 0dbe 5386 ccbc 65fb 023e d6f5 69bc
00000070: b95d aa3d 2a84 31be 1572 ffbd b2c0 26be

convs.3.bn1.weight f4 [32]
1.2332971 1.8975922 1.3452859 1.8065213 1.8783516 1.8164982 1.6893007 1.2849549
1.1914697 2.1087496 1.2756863 1.3449457 1.3723499 1.4788886 1.9519765 2.311453
0.8825729 0.82732975 1.3623782 0.9120609 0.9947734 0.88580835 1.2169487 0.98321915
1.2289143 1.0583909 1.0966171 1.0836694 0.9432644 1.0044636 1.1313195 1.0027231
00000000: aedc 9d3f 4de4 f23f 5432 ac3f 173c e73f
00000010: d36d f03f 0383 e83f 013b d83f 6779 a43f
00000020: 1482 983f c1f5 0640 b049 a33f 2e27 ac3f
00000030: 29a9 af3f 394c bd3f 5eda f93f d9ee 1340
00000040: 4cf0 613f e2cb 533f 6962 ae3f d37c 693f
00000050: 78a9 7e3f 56c4 623f fac4 9b3f 40b4 7b3f
00000060: 104d 9d3f 5a79 873f f35d 8c3f aeb5 8a3f
00000070: c779 713f 4392 803f 14cf 903f 3b59 803f

convs.3.bn1.bias f4 [32]
0.06220822 0.021695087 -0.03567011 -0.25690046 -0.27447176 -0.2635214 0.044338826 0.12880585
0.10521182 0.029474117 0.044161543 -0.03147322 0.24589488 0.050664414 -0.47876835 0.15503526
0.15904377 0.14240918 -0.128772 -0.021036174 -0.051703505 0.07606442 -0.08266633 0.1489995
-0.08277154 0.086843826 -0.045996077 -0.030118754 0.16553709 0.09708792 -0.19418764 0.14245969
00000000: 0cce 7e3d e5b9 b13c d21a 12bd 7588 83be
00000010: 9087 8cbe 47ec 86be a19c 353d aee5 033e
00000020: 4b79 d73d b473 f13c bce2 343d 10ea 00bd
00000030: decb 7b3e 7d85 4f3d 2021 f5be 90c1 1e3e
00000040: 5fdc 223e b6d3 113e cfdc 03be 0e54 acbc
00000050: 0ec7 53bd aac7 9b3d f74c a9bd 5393 183e
00000060: 2084 a9bd 2ddb b13d 6266 3cbd 9bbb f6bc
00000070: 8e82 293e 08d6 c63d 20d9 46be f4e0 113e
