cgcnndefect/test/model_best.pth.tar (torch, 179989 bytes, 109 tensors)

embedding.weight f4 [16, 92]
000000 24 89 ef bc 21 01 7d bd 46 75 ec bc 56 aa 2e be
       -0.029240198 -0.061768655 -0.028864514 -0.17057166
000010 c8 6a fe bd 65 67 a0 bd e2 e3 30 3e 26 52 40 3e
       -0.12422711 -0.07832221 0.1727443 0.18781337
000020 78 27 f0 bb 29 f1 99 3d 90 86 b4 bc 6d 0f 1f bd
       -0.007328924 0.07516701 -0.02203682 -0.03883307
000030 3c 32 df 3c 05 71 b3 bd 0f 71 1e be 18 b1 90 3d
       0.027245633 -0.08761791 -0.15472816 0.07065028
000040 57 26 3b bd 47 71 b0 3c c1 b9 9c bd 9e a1 b3 3d
       -0.04569086 0.02153839 -0.07652617 0.087710604
000050 08 0b 00 bd 59 af c1 3d 6e 77 9c bd 5c a6 ec bd
       -0.03126052 0.09457273 -0.07639967 -0.11555168
000060 4e b7 28 3e f3 d4 64 3d 26 cd 2d 3d b7 9b a8 bc
       0.16476175 0.055867147 0.042431973 -0.020582063
000070 ce 71 a7 bb 59 bf 3b 3e 90 9d 25 be ac e3 16 be
       -0.005110002 0.18334712 -0.16173387 -0.14735287
000080 ef 1b 22 bd aa dd cd bd 93 dc 11 bd 04 65 8c bd
       -0.03957742 -0.10052045 -0.035610747 -0.06855205
000090 5f 9e 4e 3d f2 6b 95 bd 5c 41 d9 3b da 16 e9 bd
       0.050444003 -0.072959796 0.006630106 -0.11381312
0000a0 a6 6a e9 3c b5 a1 68 bd 82 39 b1 bd 2d 7b b2 3d
       0.028493237 -0.05679484 -0.08653547 0.087149
0000b0 98 bd 72 3c d1 42 07 bd 64 de 9e 3c 1f b6 f7 3d
       0.0148157105 -0.033022705 0.019393153 0.12095284
0000c0 24 f5 10 be 92 7e 80 bd c7 45 36 3b e8 31 f4 3c
       -0.14156014 -0.06274141 0.0027812587 0.029808953
0000d0 af bc 04 3e 52 af e4 3c e7 59 dd bd b9 b7 cf 3b
       0.12962602 0.02791563 -0.10808163 0.00633904
0000e0 4a 9b 9c 3d 82 0f b2 bd ed 00 8e bc 96 47 91 3d
       0.076468065 -0.08694364 -0.017334426 0.07093732
0000f0 a7 fb 7e bd 8e 80 41 3d 26 9e ca bd bf 29 f6 bb
       -0.062251713 0.04724174 -0.09893446 -0.0075123007
000100 c3 4d 59 bd 68 b4 ad bd 67 e7 fa bc ab ad a9 3d
       -0.053052675 -0.084816754 -0.03062792 0.08285078
000110 6c a3 0d be d7 51 ce bd f2 13 6f bd 28 ed 83 bc
       -0.13831872 -0.100742035 -0.05836863 -0.016104296
000120 fa 23 b2 3d 23 9e 9f bc 40 58 08 be 5e d7 c1 bd
       0.08698268 -0.019484585 -0.13314915 -0.09464906
000130 59 0c 65 bd c6 1f 29 3c 32 ce 06 3e 8f b3 52 bd
       -0.05591998 0.010322517 0.13164595 -0.05144077
000140 8c d7 d7 bd 47 d8 2c bd d2 3d 75 3d 79 de e6 bd
       -0.10539159 -0.042198446 0.05987341 -0.11272902
000150 3b 18 02 be ed c9 fe bd 91 f0 cc bd f1 51 48 bd
       -0.12704556 -0.12440858 -0.10006822 -0.04890627
000160 20 86 05 3e 8a cf f8 3c e6 7f a1 bc f7 ba a8 3d
       0.13039446 0.0303724 -0.019714307 0.08238786
000170 89 52 21 bc 88 33 7c 3d 98 a3 4c bd 80 c5 13 bc
       -0.009846338 0.06157258 -0.049960703 -0.009019256
000180 ed 42 d2 3c 52 30 af 3d 7e a3 5b bc b9 c7 46 3e
       0.025666678 0.08554138 -0.013405679 0.19412126
000190 1e fe bc bd b0 9e a1 bc 37 3c c1 3d 5f dc 38 3c
       -0.092281565 -0.019728988 0.09435313 0.011283009
0001a0 c2 ba 00 3d af 58 d8 3d 26 9d 99 bd 4e 14 2c 3e
       0.031428106 0.1056379 -0.07500677 0.1680462
0001b0 9b 84 08 bd 50 6a 7f 3d b5 e7 e9 3c 24 58 01 bc
       -0.033329587 0.062357247 0.02855287 -0.0078945495
0001c0 1c a1 ee bc 40 14 e6 3d c1 ef ac 3d 8c e1 2e bd
       -0.029129557 0.11234331 0.08444167 -0.042695567
0001d0 9a b1 0c be 08 3b e1 3c 70 f1 a2 bd 36 1f 50 3d
       -0.13739625 0.027493969 -0.07956207 0.050811015
0001e0 7b 94 aa bd 8b 20 7a 3d 6f f3 c1 3c 44 c4 12 3d
       -0.08329102 0.06106619 0.023675648 0.035831705
0001f0 90 96 2c 3d 5a 44 a8 3d 69 f0 c4 bd 2c 88 c9 3c
       0.042135775 0.08216162 -0.09616167 0.024601065
000200 13 6a 9d bd 79 48 e1 bd 72 8b db bd cb 87 20 3d
       -0.07686248 -0.11000151 -0.107199565 0.039192002
000210 63 55 a1 3d 7d ea c7 3b 32 a8 04 3d 1b a2 1e 3d
       0.07877614 0.006100951 0.032386966 0.038728815
000220 89 bb 19 bd 6c 5d 0f 3d 00 c4 57 bd 2f c1 d2 3d
       -0.037532363 0.035001203 -0.052677155 0.10290753
000230 45 7a cb 3d 98 77 e5 bd 71 63 04 3e 26 2c 29 3d
       0.099354304 -0.11204451 0.12928559 0.04130187
000240 f0 ba 52 3d f0 97 99 bd 36 f8 cb 3d ad 46 d4 bd
       0.05144781 -0.07499683 0.09959452 -0.10365043
000250 e9 b3 81 bd eb e2 36 bd f5 87 78 3d 69 e3 ad bd
       -0.06333143 -0.04465 0.060676534 -0.08490641
000260 55 5f 9b bd c9 75 7d 3d 08 23 80 3d 71 72 3a 3b
       -0.075865425 0.061879907 0.06256682 0.002844956
000270 f1 c1 f6 bd 89 95 93 bd 4e d5 9c bd a2 63 63 bd
       -0.1204871 -0.07206256 -0.07657872 -0.05551494
000280 fb c2 46 bc f4 fb 8f bc 1e f5 cc 3d 0d 27 05 bc
       -0.012131448 -0.017576195 0.1000769 -0.008126986
000290 ca b5 5d bd 8f 89 55 bd 56 9e 67 bd 9b 65 31 bd
       -0.054128446 -0.05213314 -0.056547485 -0.04330979
0002a0 4c c1 dd 3c a2 04 05 3d 4e 2f 0f bb 45 6e e6 3c
       0.02706971 0.03247512 -0.0021848264 0.028128752
0002b0 3e d3 80 bd 5e ad 5a bd 79 41 ec bd 24 64 77 3d
       -0.06290291 -0.053387992 -0.115359254 0.060398236
0002c0 e8 5a 9e 3c 0f 59 3c 3d 6c a6 66 3d 2c fd db bc
       0.019330457 0.04598337 0.056311056 -0.02685412
0002d0 db 22 10 be 59 16 f9 bd ba d3 86 bd 01 6a d3 3d
       -0.14075796 -0.121624656 -0.065833524 0.10322953
0002e0 67 b8 b0 bd b6 bd a2 3d b9 69 2d 3c d3 9e d5 3c
       -0.08628922 0.07946341 0.010584288 0.02607671
0002f0 aa b8 03 bd 9a c9 d0 bd d1 32 57 bd 20 d5 0c 3e
       -0.03215853 -0.101947024 -0.052538697 0.13753176
000300 91 64 2a 3d f8 6e da bb 8c 24 94 3e cb b1 6a 3d
       0.041599814 -0.0066660605 0.28934133 0.057298463
000310 c7 10 93 bd b5 77 50 bc 4d 67 20 bd d5 27 3c 3e
       -0.071809344 -0.012723853 -0.039161015 0.1837457
000320 5a 87 f2 3d 49 c0 b6 3d 92 03 0f bd dc c0 0a 3d
       0.118422225 0.08923394 -0.034915514 0.03387533
000330 ba d9 e1 3d 33 8a aa bd 1b f0 0e be 05 a0 8c bc
       0.11027856 -0.08327141 -0.1395878 -0.017166147
000340 f0 49 15 3e 56 55 4a 3d fd ac a6 3d f9 bc 60 bd
       0.14578986 0.04939779 0.08138464 -0.05486772
000350 53 84 32 3d 05 76 2e 3d de e8 f0 3c b3 e3 eb bd
       0.043583225 0.04259302 0.029407915 -0.115180396
000360 f4 54 c8 bd 47 92 b4 bd b6 50 ae bd 4b 48 f6 bc
       -0.097818285 -0.08816963 -0.08511488 -0.030063769
000370 0f f5 9e 3d 4a a8 a5 3c 75 de 8a 3c cb 1c 59 bd
       0.07761585 0.020221848 0.016951779 -0.053005975
000380 cf 97 42 3d ec ac 38 bd 81 a9 5f bd a7 b4 08 3d
       0.047508057 -0.045086786 -0.05460501 0.03337541
000390 cc aa f5 3c 8b 74 31 bd 22 d1 cd bd bf 8b 59 bd
       0.029988669 -0.043324035 -0.100496545 -0.053111788
0003a0 20 13 e6 3c 17 39 dd 3c 53 9f 9b bd c5 e3 ab bd
       0.028085291 0.027004762 -0.07598748 -0.08393053
0003b0 10 69 73 3d 31 ef dc 3b 4c b8 76 3d 50 01 56 3c
       0.059426367 0.006742381 0.060234353 0.013061836
0003c0 aa 2a 0f 3e a4 25 d3 3b 39 b3 9d bc 50 64 3f 3d
       0.13981119 0.006443696 -0.0192505 0.046726525
0003d0 64 8c df bd e2 96 8a 3d 36 b2 e9 3b 65 65 32 3e
       -0.10915449 0.0676706 0.00713184 0.17421491
0003e0 76 0a ab 3d dc 0e 63 3d ad b9 ae bc ad 11 7a bc
       0.08351605 0.055434093 -0.021328771 -0.015263003
0003f0 51 fd 69 bd 6d bd a7 3d 35 3b cc bd 8a 16 f7 3c
       -0.057126347 0.08190427 -0.0997223 0.030162115

embedding.bias f4 [16]
000000 b9 99 ab bd c9 de 24 bd c9 29 9a 3d e2 c7 a6 bc
       -0.0837893 -0.040251527 0.07527501 -0.020358983
000010 3c d8 a8 bd 28 14 34 be d4 5f 3f bd 29 c0 57 3d
       -0.082443684 -0.17585814 -0.04672225 0.052673493
000020 d1 86 33 bd 76 df 81 bd 05 a3 06 bd 84 3f 5c bd
       -0.043829743 -0.0634145 -0.03287031 -0.05377151
000030 c3 35 13 3d 3c 6f e6 bc 4d 77 0e be 02 39 39 bd
       0.035939943 -0.028129213 -0.13912697 -0.045220383

convs.0.fc_full.weight f4 [32, 56]
000000 f3 37 ca bd 20 4d 05 be 25 1e d1 3c 64 ba b8 3c
       -0.09873953 -0.13017702 0.02552707 0.022549815
000010 d5 4c 0b 39 9d 5e 00 3e 1e 1f d4 bd ed 49 a6 3d
       0.00013284695 0.12536092 -0.10357498 0.08119569
000020 09 35 2f 3b be db ad bd 99 e4 90 bc 32 67 de bd
       0.0026734492 -0.08489178 -0.017687129 -0.10859527
000030 46 7f b4 bd 46 ba 0f bd 3d 4a bf 3c ff 85 20 3d
       -0.08813338 -0.035089754 0.02335083 0.03919029
000040 17 61 6f 3d fc 32 66 bc 17 d2 23 3e a5 ee c3 bd
       0.0584422 -0.014050242 0.15998112 -0.09567002
000050 36 e5 e7 bd b7 cc 89 3d 7e a9 18 3c 88 d2 0a 3d
       -0.113230154 0.067284994 0.009317754 0.033892184
000060 6b de fe 3c 92 5a c0 bd a5 be 28 3e 4a 79 95 3d
       0.031111917 -0.09392275 0.16478975 0.07298525
000070 33 4f 09 be a6 f1 d6 bd 75 69 2c 3d 78 b0 00 be
       -0.13409118 -0.104953095 0.04209276 -0.12567317
000080 79 35 ab 3e 50 ba 8c 3e f7 67 27 be e7 01 ae be
       0.33439234 0.27485895 -0.16348253 -0.33985826
000090 76 ef a0 be 75 5a 09 3e 57 bc 27 3d 4b d4 8f be
       -0.31432694 0.13413413 0.0409511 -0.28091654
0000a0 61 de 8c be bc 83 a2 be e1 a6 81 3e 41 86 27 3e
       -0.27513412 -0.3174113 0.2532263 0.16359808
0000b0 c4 6d c2 be bc 97 5c be b7 cf 56 be 3b a9 c4 3d
       -0.3797437 -0.21542257 -0.20977674 0.09602591
0000c0 d1 98 48 bd 3f 7f 57 bd c6 92 85 be 49 fa 1a be
       -0.048973862 -0.052611586 -0.26088542 -0.15134539
0000d0 5f b0 bf be 28 51 ef be cb 48 d0 bd ad da 45 3e
       -0.37439248 -0.46741605 -0.10170134 0.193217
0000e0 3b b6 b8 3c ad 32 0c bd b8 dc 24 3d 4d 59 30 bd
       0.022547832 -0.034228016 0.040249556 -0.043053914
0000f0 52 04 33 bd c3 73 18 3e 54 97 a1 3d 60 83 e4 bc
       -0.043705292 0.1488791 0.07890192 -0.027894676
000100 c0 c0 ad bd 8d c2 4c bd 31 a4 73 bd 9a d9 a0 3d
       -0.0848403 -0.049990226 -0.059482757 0.07854004
000110 6f 79 36 3d ee 14 92 3d d6 d6 9c bd 86 b1 ab bd
       0.0445494 0.07132898 -0.07658164 -0.08383469
000120 3a d6 f3 bd 9a 66 57 be 76 45 34 bd 84 11 50 bd
       -0.11906095 -0.21035233 -0.044011556 -0.050797954
000130 7d 98 52 bd 37 21 f9 bb 5c c4 a2 3c a8 3d 3b 3e
       -0.051414955 -0.0076028365 0.019869022 0.18285239
000140 22 42 b3 3d d4 b6 86 3d ae dd 08 3d 40 19 17 3d
       0.08752848 0.065778404 0.033414535 0.036889315
000150 ae 08 14 bc 63 60 82 bd 8e 7e 38 3e 5a 0f 0c 3e
       -0.0090352725 -0.063660406 0.18017027 0.13677731
000160 dd 3d db bc ed 0e 61 bd 07 55 ab be 3a 70 4f be
       -0.026762897 -0.054945875 -0.33463308 -0.20257655
000170 26 44 54 be c5 0b 9d 3d 8d d6 74 3a 04 4a c8 be
       -0.20729122 0.076682605 0.0009339832 -0.3911897
000180 27 97 19 be 79 42 37 be f3 e6 05 3e 67 30 ff 3b
       -0.14999066 -0.17896451 0.13076381 0.0077877524
000190 8c d9 96 be 05 a3 0e be aa b6 09 be ed 19 5b 3e
       -0.2946285 -0.13929375 -0.13448587 0.21396609
0001a0 f1 2a 87 3e 50 62 a3 3c 7f 60 88 bd 56 8b 14 3d
       0.2639995 0.01994434 -0.0665903 0.036265694
0001b0 b7 0d 01 3e e7 7c cb 3d 4f fd c4 bc 81 d4 0a 3e
       0.12602888 0.099359326 -0.024046568 0.13557626
0001c0 7a ed 9c 3c f7 5c 8c 3d d7 a8 44 bd 4f 45 ec 3d
       0.019156206 0.06853669 -0.04801258 0.11536657
0001d0 52 90 23 3d 73 4b 8d bd 91 2f 0c 3e af 94 b0 bd
       0.039932556 -0.068991564 0.1369002 -0.08622109
0001e0 c2 bb 84 3c 6f b9 69 3d fd 61 8b 3d 89 25 36 bd
       0.016202811 0.05706161 0.06805799 -0.04446939
0001f0 c0 72 bb bc 92 27 b9 3d 8c 5b c4 bd 52 b8 77 bd
       -0.022881866 0.090407506 -0.09587774 -0.060478516
000200 ba d4 ae bd 86 c6 ba 3d dc 8c 82 bd 5d af 6b bd
       -0.08536668 0.091198966 -0.06374523 -0.057540286
000210 87 f3 4b be d1 79 99 3d 20 18 11 bd 95 36 4a 3e
       -0.19917117 0.07493938 -0.035423398 0.19747384
000220 62 d1 90 3d 5a be 58 be 86 cd 11 be 4e b2 36 bd
       0.070711866 -0.21166363 -0.14238557 -0.04460364
000230 f4 55 1b be 88 f8 28 be 5f 72 25 be 74 9c 4d bc
       -0.15169507 -0.16501057 -0.1615691 -0.012549508
000240 1f 05 2a bd 48 90 9a 3c 22 d0 c2 bd 21 9f 71 bd
       -0.04150879 0.018867627 -0.095123544 -0.058989648
000250 4d 03 b8 3d 9e a1 f2 bd a6 c1 15 be 43 61 09 3e
       0.089850046 -0.11847232 -0.14624652 0.13416009
000260 0b d7 50 bc 7d 09 d8 3d a0 26 68 3d 26 8a a6 bc
       -0.012746583 0.10548685 0.05667746 -0.020329546
000270 a5 90 01 3e 26 a9 77 bc d9 3d 8f bc 58 b0 3e 3d
       0.12652834 -0.015116012 -0.017485546 0.046554893
000280 84 a9 69 bd e5 a0 dd 3c df 45 0f be fe 42 9b 3b
       -0.05704643 0.02705426 -0.13991497 0.0047382107
000290 0b d6 e9 3d b3 d6 1f be f2 c4 72 3d 60 ad bf 3b
       0.114177786 -0.15609245 0.059269853 0.0058495253
0002a0 49 fd de 3c 96 a9 d9 bc 82 f2 52 bd d8 d8 ec 3d
       0.027220385 -0.026570123 -0.051500805 0.11564797
0002b0 fa 9f 8b bd 13 51 16 be 3a a4 38 bc 7c e4 a7 bd
       -0.068176225 -0.14679365 -0.011269623 -0.08197877
0002c0 6c c8 46 bd f4 21 7f bd 3b 30 16 3e e7 e8 a5 3d
       -0.04853098 -0.06228824 0.14666836 0.08101063
0002d0 19 c7 e1 bd 8c 07 4e bd c4 e5 23 3c 4e 2e 28 be
       -0.11024303 -0.050300166 0.010003511 -0.16423914
0002e0 59 e6 de 3d c4 f3 fe 3c f6 98 d0 3d 24 21 53 3d
       0.10883779 0.031122096 0.10185425 0.051545277
0002f0 93 34 f2 3d c6 e8 ae 3c 3c 0f 6e bd 5f ae e6 3d
       0.11826434 0.02135123 -0.058119997 0.112637274
000300 a3 68 ed bd 56 e1 06 3e 98 5c 0a 3d b6 eb b7 3d
       -0.115922235 0.13171896 0.03377971 0.08980505
000310 0e 4f db bd be e3 d7 3d f5 cf 13 be 1a 0c 08 3c
       -0.10708438 0.10541485 -0.14434798 0.0083036665
000320 a7 2c 36 3e 03 99 e8 3d fe fa 71 bd fe 42 74 be
       0.17790471 0.1135731 -0.059077255 -0.2385368
000330 8e ae a5 bd ac 0e 91 3e e7 53 7e 3e 1f b5 d8 3d
       -0.08089934 0.28331506 0.24836694 0.10581421
000340 b8 18 22 be b1 a1 6e be 8d 2e 91 3e 3d b3 6b 3d
       -0.15829742 -0.23303868 0.28355828 0.05754398
000350 d8 51 b0 3d a9 c2 6a be d0 d1 ed bd 9a 18 68 3e
       0.086093605 -0.2292582 -0.11612284 0.22665635
000360 37 6d 6e 3e cd 70 7b 3c 76 8d 70 bd ae bd e2 bc
       0.2328385 0.015346718 -0.058728658 -0.027678337
000370 d3 60 48 3d 2e 94 c8 3d d4 6b 3b 3d 08 ea 59 3c
       0.048920464 0.09793888 0.04575713 0.013300426
000380 5c 2b 2c bd bc 72 9b bc de 64 11 bd 26 ce 24 be
       -0.04203354 -0.018975608 -0.035496585 -0.16094264
000390 c4 7a 5a 3d 10 39 2a be 0b 37 fc 3c b2 35 69 3d
       0.053339735 -0.1662333 0.030787965 0.056935973
0003a0 43 6d 62 3d 7c 21 34 bc b0 f0 41 bd ac c3 e9 bd
       0.05527998 -0.010994311 -0.047348678 -0.114142746
0003b0 47 04 c9 bd 59 5b 52 bd e2 ef 25 3e a4 0d 02 be
       -0.09815269 -0.051356647 0.1620479 -0.12700516
0003c0 c9 47 a3 bd b2 77 76 3d 2b 22 04 3e e2 c8 cd 3d
       -0.07972676 0.060172744 0.12903659 0.10048081
0003d0 4a 71 2e be 41 7b d5 3e 5b 04 ad bd ff 43 9a 3d
       -0.17035404 0.41695598 -0.08448096 0.075325005
0003e0 ad 33 a6 be a4 0f 66 be 9a 12 89 3e c1 26 91 3d
       -0.324613 -0.22466904 0.26772004 0.0708747
0003f0 68 b0 d7 3c 94 c3 7d 3d 34 05 5f 3d 67 4b c2 3d
       0.026329234 0.061954096 0.05444832 0.09487038

convs.0.fc_full.bias f4 [32]
000000 ef e4 02 bc 31 03 ee 3d 40 e4 d3 bc 27 5c 0c 3e
       -0.007989152 0.116217025 -0.025865674 0.13707028
000010 74 2e 17 be 80 0e 01 be ef c3 a5 3c 51 d3 dd 3d
       -0.14763814 -0.12603188 0.02023503 0.10831321
000020 94 93 09 bc 0c 37 cf bd de bb b6 3d f1 ad 1d 3e
       -0.008397002 -0.10117921 0.089225516 0.15398385
000030 aa 1e 9e bd e6 79 28 3d b7 55 02 3b 99 28 83 3d
       -0.077206925 0.041131876 0.0019887516 0.06404228
000040 01 a1 39 be b0 ab 5b bd 01 07 2f 3b 54 c7 1a 3d
       -0.18127824 -0.05363053 0.0026707056 0.03778775
000050 82 8b 31 bd 10 d8 6a be 91 d0 51 3d 92 cb 8d 3d
       -0.043345936 -0.22933984 0.051224295 0.069235936
000060 4b 88 e9 3c 2e 44 9e 3b e7 2c 10 3e 67 e7 d2 3d
       0.028507372 0.004829905 0.14079629 0.10298043
000070 de ed 13 3e f2 e5 9e bd ff fa 80 3d d1 04 ff 3d
       0.14446208 -0.07758702 0.06297874 0.124520905

convs.0.bn1.weight f4 [32]
000000 cc 5f ad 3f b7 6c 99 3f d5 b0 8b 3f cd 0b 9b 3f
       1.354486 1.1986302 1.091334 1.2112976
000010 e1 6c ac 3f dc 22 93 3f 0e e0 7b 3f b4 7d 72 3f
       1.3470727 1.1495013 0.98388755 0.9472306
000020 bb 21 a0 3f 1e 17 75 3f 13 91 82 3f 86 b9 9c 3f
       1.2510294 0.957384 1.0200523 1.2244117
000030 bc 94 94 3f 9c b9 ad 3f a4 d3 9c 3f 2f b5 9f 3f
       1.160789 1.3572268 1.2252088 1.2477168
000040 8d ae 73 3f 76 c5 98 3f cc df 7c 3f 5c 76 8a 3f
       0.9518822 1.193526 0.98778987 1.081737
000050 bb 52 8f 3f 1c 08 87 3f c8 94 8a 3f f5 ec 63 3f
       1.1197122 1.054935 1.0826654 0.8903344
000060 c8 b3 6f 3f 6e 92 7c 3f 54 0b 7e 3f 27 54 73 3f
       0.936337 0.98660934 0.99236035 0.9505028
000070 a8 1d 88 3f fb 3a 8a 3f 88 7f 91 3f 1f 11 90 3f
       1.063405 1.079925 1.1367044 1.1255225

convs.0.bn1.bias f4 [32]
000000 07 e8 35 bd d8 67 ef bb 22 04 35 bc 73 f2 bc bc
       -0.04441073 -0.0073060803 -0.011048349 -0.023064828
000010 da 9c 4a be 6b d3 bb 3d 29 cf 8c 3d 6a 3b dd 3d
       -0.19786397 0.09171184 0.0687545 0.10802348
000020 c6 0f 12 bd 63 4b d6 3d a7 2e 93 bc 3a c9 7d 3d
       -0.035659574 0.104635976 -0.017966582 0.061959483
000030 c7 a6 7e bd 48 a8 06 3d 8c 65 be be be 9b c2 bd
       -0.06217077 0.03287533 -0.3718685 -0.09502362
000040 1f 7c ba 3c 25 fc 11 be 20 58 64 3d 23 63 f8 3c
       0.022764264 -0.14256342 0.055748105 0.03032071
000050 0d 65 88 be c7 8a 1c bc 7d cd 14 3c f3 27 2f 3e
       -0.26639596 -0.0095545715 0.009082195 0.17105083
000060 77 ef fa 3d 75 12 81 3d 3d 5d 21 3d 12 75 15 3e
       0.122527055 0.063023485 0.03939556 0.1459544
000070 68 80 57 bd af 89 b4 bd 38 fb 98 be 84 a4 87 be
       -0.052612692 -0.088153236 -0.29879165 -0.26492703

convs.0.bn1.running_mean f4 [32]
000000 ff 0d ae bf 05 22 c4 bf a3 aa 06 3b a1 2b 30 3f
       -1.3598021 -1.5322882 0.0020548485 0.6881657
000010 7a 91 ae bf 34 ea 7a 40 d2 77 e5 be 33 c6 61 3e
       -1.3638146 3.9205446 -0.44817978 0.22048263
000020 6c 91 31 be 78 4f b3 bf e0 81 8e bf 02 a3 6e 3f
       -0.1734063 -1.4008627 -1.1133385 0.9321748
000030 e0 d7 02 3e 5b f3 6f bf ad a0 68 3b 65 08 b5 bb
       0.12777662 -0.93730706 0.003549616 -0.0055246823
000040 96 0d c8 bf 67 74 f9 bf 05 7e da be 78 d6 7d be
       -1.5629146 -1.9488648 -0.4267427 -0.24788845
000050 60 e5 97 bf 2c 07 17 3f 3c b9 d2 bf a5 5f 83 3f
       -1.1866875 0.5899532 -1.6462779 1.0263563
000060 e9 98 fe be b3 9b db bf 20 f5 e8 bf 88 5d 81 be
       -0.49726036 -1.7156891 -1.8199806 -0.2526667
000070 32 a2 a9 3f 56 3c ba be e2 f2 14 bf 3e 3e 7a be
       1.3252623 -0.36374158 -0.5818311 -0.24437806

convs.0.bn1.running_var f4 [32]
000000 11 7a 6b 3c 2c 68 35 3d 4d 69 e4 3c 45 79 26 3d
       0.014372365 0.0442888 0.027882243 0.040642995
000010 5a f4 b7 3c df 40 2c 3d 76 8e d2 3c 03 1c 17 3d
       0.022455383 0.042054053 0.025702696 0.03689195
000020 7d 75 ff 3c b2 27 ec 3c 58 43 0a 3d 15 9e c7 3c
       0.031183952 0.028827522 0.03375563 0.024367372
000030 57 79 46 3d 36 7e 49 3d 6d 62 e9 3c 59 02 1f 3d
       0.048455562 0.04919263 0.028489316 0.0388206
000040 44 88 65 3d 38 04 81 3c 07 87 3b 3d 70 05 35 3d
       0.056038156 0.015749082 0.04578307 0.04419464
000050 10 d1 7d 3d 51 a7 81 3d 95 cc fe 3c fb 26 0a 3d
       0.061966956 0.06330741 0.031103412 0.03372858
000060 c8 de aa 3d 39 b7 e2 3c 09 9b 07 3d 08 df 07 3d
       0.083432734 0.027675258 0.033106837 0.033171684
000070 ec 73 54 3d ed ff 2f 3d 63 41 42 3d d5 73 98 3d
       0.051868364 0.04296868 0.04742564 0.07443968

convs.0.bn2.weight f4 [16]
000000 10 3f 87 3f c1 5f 7f 3f 4f aa 83 3f f9 50 89 3f
       1.056612 0.99755484 1.0286349 1.0727836
000010 e4 9d 83 3f 7c f4 81 3f 31 21 83 3f f6 31 60 3f
       1.0282559 1.0152736 1.0244504 0.87576234
000020 c9 6b 8b 3f f3 a7 7f 3f e6 b8 62 3f 40 17 83 3f
       1.0892268 0.99865645 0.8856338 1.024147
000030 cd bb 8e 3f f8 9c 87 3f 7e 42 8f 3f c7 20 98 3f
       1.1151062 1.0594778 1.1192167 1.1885003

convs.0.bn2.bias f4 [16]
000000 e7 8f 15 bc 15 86 be bc 82 54 ab bc 33 08 b4 bc
       -0.009128547 -0.023257295 -0.02091432 -0.021976566
000010 34 f1 91 bd 6f b5 c6 be a2 b9 e9 3d 4b bc df 3c
       -0.07126084 -0.38810298 0.1141236 0.027311465
000020 81 7e 64 bd 33 93 3f 3d da b0 9d bd 88 0c e9 3a
       -0.055784706 0.04677124 -0.076997474 0.0017780224
000030 4e 89 74 3d 66 a9 51 3d 8f 94 10 3c a5 f1 b2 3d
       0.059701256 0.05118694 0.008824482 0.08737496

convs.0.bn2.running_mean f4 [16]
000000 b6 9a a4 40 53 65 a2 40 f9 4b 93 40 ac bc 9c 40
       5.1438856 5.0748687 4.603024 4.898031
000010 8d e8 85 40 f0 ef 93 40 3b 4f b1 40 b1 a0 ae 40
       4.1846375 4.6230392 5.5409217 5.4571157
000020 75 92 9a 40 78 6c bf 40 24 50 a0 40 e7 26 b8 40
       4.830378 5.981991 5.009783 5.754749
000030 6f 40 92 40 92 c3 b1 40 5a 9e 92 40 aa 40 93 40
       4.5703654 5.5551233 4.58183 4.6016436

convs.0.bn2.running_var f4 [16]
000000 64 02 4c 41 35 f9 8e 40 7f 24 db 40 87 ac 99 40
       12.750584 4.467921 6.848205 4.8023105
000010 ec 67 90 40 ad fc 12 40 01 ac da 40 20 e4 89 40
       4.512686 2.296672 6.8334966 4.3090973
000020 cb 69 e0 3f 54 6f 80 41 c1 c8 84 41 ef 58 94 41
       1.7532285 16.05436 16.598024 18.543425
000030 12 e0 91 40 ce 14 21 41 11 2a ee 40 bc 45 1e 40
       4.5586023 10.067579 7.442635 2.4730062

convs.1.fc_full.weight f4 [32, 56]
000000 e2 58 78 bc 86 6a 0f be bb 43 a7 bc 47 18 f8 3c
       -0.01515791 -0.14005479 -0.020418039 0.030285014
000010 25 41 eb 3d 32 e6 79 3d fa 46 3d bd 88 45 0c bd
       0.11487035 0.061010547 -0.046210267 -0.034245998
000020 d4 d4 bd bd 11 27 3a 3e 66 d4 04 3e d1 65 8e 3d
       -0.09269109 0.18178965 0.12971649 0.06953014
000030 dd 47 80 bd ee 07 14 3d 5c 80 60 be 24 6e 9a 3d
       -0.06263707 0.036140375 -0.21923965 0.07540539
000040 fa 46 83 3d 17 42 e1 bd 0c fe 02 be 3e 23 8a ba
       0.06410022 -0.10998934 -0.12792224 -0.0010539067
000050 2b 92 05 be 7d e7 14 3e e4 3b 4b bd db e3 4d be
       -0.1304404 0.14541431 -0.049617663 -0.20106451
000060 9a e4 7e 3d eb 6e 8a bd 30 4d 6a bd d8 98 b1 3d
       0.06222973 -0.06759437 -0.057202518 0.08671731
000070 c4 4d 0e be b1 f7 63 bd a9 95 c4 3d 80 3f 36 3d
       -0.13896853 -0.05565614 0.09598858 0.044494152
000080 0d 06 1c 3e 47 0f 8d 3e 5b 94 1e be 9c 59 27 be
       0.15236683 0.27550718 -0.1548628 -0.16342777
000090 f9 78 a3 be 4d f0 8b 3e 3c 32 e1 3d ef be 44 be
       -0.31928232 0.27331772 0.109959096 -0.1921346
0000a0 f0 48 a5 be 15 85 b9 bd 42 02 9a 3d 47 d9 a0 3d
       -0.3228221 -0.090585865 0.07519962 0.07853942
0000b0 48 4e 7f be 50 ce 2c be 16 04 8a be 06 34 30 3d
       -0.24932206 -0.16875577 -0.26956242 0.043018363
0000c0 d2 fa da 3d b5 c4 05 bd a6 43 80 bb d3 61 de bd
       0.106923714 -0.032658298 -0.0039143143 -0.10858502
0000d0 df 2d 27 bd 27 51 55 be a2 09 03 bd 93 9e 74 bd
       -0.04081523 -0.20831738 -0.03199161 -0.05972154
0000e0 a2 1c f4 3d 79 46 1e be de 54 77 be 73 f9 c9 bd
       0.11919524 -0.1545657 -0.24153468 -0.09862032
0000f0 1b c0 94 bc 88 24 4a 3d 62 19 b0 bc c0 22 b2 3d
       -0.01815801 0.049351245 -0.021496478 0.08698034
000100 ce 2d 23 bb ea 97 b8 3d f2 ea 10 3d 47 20 a9 3c
       -0.0024899128 0.0901335 0.03538031 0.020645274
000110 6d 0f 46 bd 59 b6 39 bd 81 bb 8f bd 9d 6c 22 bd
       -0.048354555 -0.045339916 -0.070181854 -0.039654363
000120 6b ba 88 3d 33 12 3f bd aa 9c 32 3a 81 35 a4 3d
       0.066761814 -0.046648216 0.0006813506 0.080180176
000130 96 88 13 3e b2 57 47 3e 8c 2a 33 3d 99 8d ff bc
       0.14407572 0.19467047 0.043741748 -0.031195449
000140 4f 0c 93 bd 89 0c 65 3d 6e c1 57 bc b9 67 93 bd
       -0.07180082 0.055920158 -0.013168676 -0.07197518
000150 4a 0b f0 bd ed 29 29 3d b6 bc 7a 3d 67 e3 18 bd
       -0.11720903 0.04129975 0.061215125 -0.037326243
000160 08 42 26 bd 0f 11 24 3e 9b dc 2a 3e b4 c5 a0 3d
       -0.040590316 0.16022132 0.16685717 0.07850209
000170 48 2f 38 3e 11 39 80 3d 27 d9 3f 3c e0 3d 22 3e
       0.17986786 0.062608846 0.011709488 0.15843916
000180 74 82 0c 3e 3e 1e b1 bd a4 bc 45 ba d4 82 b6 3c
       0.13721639 -0.08648346 -0.0007543063 0.02227918
000190 64 40 9e 3e 08 03 77 3c 0b ca 00 bd b0 b1 15 be
       0.309085 0.015076406 -0.031442683 -0.14618564
0001a0 33 d9 da bd d2 82 41 3e 9f ba 16 3e f2 1c 84 3d
       -0.10685959 0.1889756 0.14719628 0.064508334
0001b0 fb ea fc 3d 29 c0 31 bd 8d cf 3b bd 8f 26 de 3d
       0.123495065 -0.04339615 -0.045852233 0.10847198
0001c0 f2 c4 73 bd 3c b3 28 3c 1c e9 72 bd 2b d0 2f 3e
       -0.059513994 0.010296639 -0.05930434 0.17169254
0001d0 71 ad d4 bd 1c 74 34 bc 83 90 4a be 4b f1 90 bb
       -0.10384644 -0.011014011 -0.1978169 -0.0044232956
0001e0 86 7b c0 3d 85 76 6c 3d 9d 23 87 bd 83 43 f4 bd
       0.0939856 0.057730217 -0.065985896 -0.11926939
0001f0 5a 6c 45 be 48 0f b3 bd 30 5b 10 3d c0 fd 41 bd
       -0.19279614 -0.08743149 0.035243213 -0.047361135
000200 23 12 ad 3d 74 33 87 ba 27 da e6 bd 56 71 c0 3d
       0.08450725 -0.0010315017 -0.11272078 0.09396617
000210 24 e9 f3 bd f5 10 a5 3d 48 7b b7 bd bb 90 3a 3d
       -0.119097024 0.08059875 -0.08959061 0.045548182
000220 54 9a 72 bc 26 41 1d bd b3 83 eb 3c 41 37 d7 bd
       -0.0148073025 -0.03839221 0.028749323 -0.10508586
000230 52 6b 0d be fb 62 c1 bd c2 a4 ad 3d db b8 56 be
       -0.1381047 -0.09442707 0.08478691 -0.20968954
000240 35 28 a8 bc a0 4a a8 3d 54 67 82 bd 9b 9a 65 be
       -0.020526985 0.082173586 -0.063673645 -0.22422259
000250 7e 8b f3 3c 6b 39 4e 3d 70 16 63 3d 91 81 5f bc
       0.029729601 0.050347727 0.05544132 -0.013641731
000260 d9 5d 52 bd 51 fe 37 be 63 05 0f 3e 84 3c fd 3d
       -0.05135903 -0.17968108 0.13966899 0.12365058
000270 05 a9 70 3d b9 52 47 bd 8a 9b 48 be 4e 7c 86 bd
       0.05875494 -0.048662875 -0.19590583 -0.06566678
000280 7c eb 01 3c 42 4a 20 3d 53 ba 80 3d 4b f6 90 bd
       0.007929679 0.039133318 0.062855385 -0.07078227
000290 e9 5d 08 bd ce b1 91 bb 7b cf 0f be 6e b5 3b be
       -0.033292685 -0.004446245 -0.14043991 -0.18330929
0002a0 9c cb f5 3d 2e f1 43 3d bd 5a 60 bd 9e d0 16 be
       0.12001726 0.04783743 -0.054774035 -0.14728019
0002b0 25 e4 b0 bc 29 d6 ec 3d 3d ea f6 3d 1e 5c 5a 3d
       -0.021593163 0.11564285 0.12056396 0.053310506
0002c0 fd 32 02 bd 98 bb d8 3d 4a b7 92 bd 2c 0a 85 3d
       -0.031786907 0.10582656 -0.07163866 0.06496081
0002d0 42 4c 7b 3d 45 0b 97 3d 33 5d a4 3d b0 c9 f6 bd
       0.061352022 0.07375196 0.08025589 -0.120501876
0002e0 63 e5 82 bd 09 e1 4b 3d 28 19 93 3e ad cf 3f 3e
       -0.06391408 0.049775157 0.2873013 0.18731566
0002f0 d4 12 86 bc b0 71 91 bd 06 b4 0f 3e ec 54 27 3c
       -0.0163664 -0.07101762 0.14033517 0.010213118
000300 9c a5 73 bc 40 4d 5d bd 11 4f a7 bd 6a 9a 53 3e
       -0.014871027 -0.05402875 -0.081693776 0.20664373
000310 4e b6 85 3d c4 80 2b 3e d6 02 24 be b3 f6 05 bd
       0.065289125 0.16748339 -0.16016707 -0.032705974
000320 c2 e8 3c bd e8 40 d8 bd 77 4f e4 bd 8e 9c 02 be
       -0.046120413 -0.10559255 -0.11147969 -0.12755033
000330 83 84 9e 3c 16 11 9a bd 6a 81 18 bd 11 1f 8a bd
       0.019350296 -0.0752279 -0.037232794 -0.06744207
000340 3d 33 65 bc 05 12 8f 3d 2e 56 80 3c 60 da 7b 3d
       -0.013989267 0.06985859 0.015666094 0.061487556
000350 73 6d 4f 3d 42 81 c0 bd e9 8d 01 3e 68 d9 e1 bc
       0.05064149 -0.09399654 0.1265179 -0.027569488
000360 af 61 29 3d be c9 dc bd d8 fe 3f be 53 b9 ea 3d
       0.041352924 -0.10780667 -0.18749559 0.11461129
000370 b2 9a d9 3d 7a 1e 74 bd ed 50 50 be 8c ef eb b9
       0.10625209 -0.059599377 -0.2034337 -0.0004500117
000380 f3 9d 46 3d 6f 68 18 3d 80 8d ff bd 63 76 88 3b
       0.048490476 0.03720897 -0.12478161 0.0041645034
000390 f9 79 b1 bd 09 b8 ab 3c c3 8a 3a bc df 72 c5 bd
       -0.086658426 0.020961778 -0.011385622 -0.096410505
0003a0 d9 56 11 be 52 e0 f0 3d 56 e1 35 be 9a 40 1b be
       -0.14193286 0.11761536 -0.1776174 -0.15161362
0003b0 ee 7c a1 3d d0 29 c7 bc 93 6c 2b 3d 6e 8f 85 3d
       0.078851566 -0.02431193 0.04185159 0.06521498
0003c0 f0 94 0c be 57 8b 01 3e 42 a0 53 be 1d a1 40 3d
       -0.1372869 0.1265081 -0.20666602 0.04702865
0003d0 b1 91 27 be 30 69 e2 3a 6d 40 2b 3e 4d 82 12 3d
       -0.1636417 0.001727378 0.16723795 0.035768796
0003e0 70 a9 eb 3d 79 72 b5 3d bf 1b 03 be 99 10 1c 3c
       0.11506927 0.088597246 -0.12803553 0.009525442
0003f0 49 5a ba 3c 4c ad 09 bd b1 da 77 bd a8 fe 86 3d
       0.02274813 -0.033612534 -0.060511295 0.065915406

convs.1.fc_full.bias f4 [32]
000000 4d 40 a6 3d eb 6a f3 bd a4 0e d7 bc 49 bb 88 3d
       0.08117733 -0.11885627 -0.026252098 0.06676347
000010 d5 2c 94 3d 4f 8a 3f 3e c2 f2 2c 3d ac 95 cd 3d
       0.072351135 0.18705104 0.0422237 0.10038313
000020 34 22 97 3d 24 ee 42 be 43 03 17 3e a6 06 cb bd
       0.073795706 -0.19036156 0.14747338 -0.099133775
000030 44 65 15 3d b5 62 3c bd f3 f5 59 bd dd 71 cc bd
       0.036473528 -0.04599257 -0.05321307 -0.09982655
000040 eb c8 0f bc 5a bd 93 bd 29 05 64 bc 5a 3c 50 3e
       -0.00877593 -0.0721385 -0.013917246 0.20335522
000050 bb a7 1a bd e2 0b 07 3e 09 ab 0e 3d a4 04 00 be
       -0.037757616 0.13188127 0.03483108 -0.1250177
000060 31 0a ff 3c 39 57 2c 3d 5b b6 a5 bd 4b e1 07 3d
       0.03113279 0.04207537 -0.08091422 0.03317384
000070 6f fb d5 bc 0e 2e f9 3d 10 0c 18 bd f2 a9 b8 bd
       -0.02612087 0.12166987 -0.03712088 -0.090167895

convs.1.bn1.weight f4 [32]
000000 b5 52 92 3f b0 6a da 3f 34 04 99 3f 45 40 bf 3f
       1.143149 1.7063808 1.1954408 1.4941489
000010 69 9e a6 3f 92 c1 c0 3f e4 f2 e7 3f e3 60 a6 3f
       1.3017093 1.5059073 1.8120999 1.2998317
000020 d8 8a cc 3f c0 e0 b0 3f 3b ba aa 3f b2 89 a6 3f
       1.5979872 1.3818588 1.3338083 1.3010771
000030 0b 5b 9e 3f 62 49 a3 3f 06 36 cf 3f 60 bf 97 3f
       1.2371534 1.275677 1.6188362 1.1855278
000040 83 b2 9b 3f 1d 87 90 3f 00 b0 91 3f f6 c7 96 3f
       1.2163852 1.1291233 1.1381836 1.1779773
000050 4c 91 80 3f cf c7 9f 3f ca ea 85 3f a5 b5 77 3f
       1.0044341 1.2482852 1.0462277 0.9676154
000060 80 79 74 3f 95 68 73 3f 9d 67 8d 3f aa 6e 8b 3f
       0.95497894 0.95081455 1.1047245 1.0893147
000070 4b cb 8b 3f 3f d5 8f 3f 42 45 a0 3f 9f 5f ab 3f
       1.0921415 1.1236953 1.2521136 1.3388556

convs.1.bn1.bias f4 [32]
000000 19 b3 d4 bc 6b 59 57 bc f0 c3 77 3d b7 6e 5b be
       -0.025964307 -0.0131438775 0.060489595 -0.21428953
000010 ca f2 cf bc 77 87 2a be 17 cc 0a be 1f 3f 49 3d
       -0.025384326 -0.16653238 -0.13554417 0.049132463
000020 2b 35 ab bd 19 51 d6 3d a9 06 54 bd b5 e4 b9 bc
       -0.0835975 0.10464687 -0.051764164 -0.022692064
000030 12 36 1e 3d 46 15 78 be f6 4b a0 bd 0d 5f 45 bb
       0.038625784 -0.24226865 -0.078269884 -0.003011647
000040 64 d6 29 bd f8 bc c4 bc 6b ca 35 bd 04 61 53 be
       -0.041464224 -0.024015889 -0.044382494 -0.20642477
000050 60 68 46 3b f4 24 15 be 7f d1 c6 bd d2 2e d4 3c
       0.0030274615 -0.14564878 -0.09707927 0.025901232
000060 72 95 8b 3d 50 ea 0d 3e 17 10 da bb 3b 8d f4 bc
       0.06815614 0.13858914 -0.00665475 -0.0298525
000070 46 be 44 bd a7 61 b3 be 0e f1 7f be ee a4 c6 bd
       -0.04803302 -0.3503544 -0.24994299 -0.096994266

convs.1.bn1.running_mean f4 [32]
000000 5b c0 97 bf 57 71 7a 3f 87 21 9b bf af 38 ef 3e
       -1.1855577 0.9782919 -1.2119607 0.46722934
000010 9e 5e bc bf f9 46 5f 3f 84 d8 4b 3e 17 1e 9d 3f
       -1.4716375 0.8721767 0.19906813 1.2274808
000020 98 91 24 be 27 fb 5e bf 88 7f da bf ee f4 cb be
       -0.16071165 -0.8710198 -1.707017 -0.39835304
000030 d2 7f 36 c0 ec b2 26 3e 2d 36 b1 bf d7 f8 b8 be
       -2.8515515 0.16279191 -1.3844658 -0.3612735
000040 b4 31 b0 bf 9c 50 bf bf 22 da 81 3d 45 2d d0 3e
       -1.3765168 -1.4946475 0.06340434 0.40659538
000050 86 12 13 bf ee e5 de be b7 95 dd be ee 0e 05 bf
       -0.5745014 -0.43534797 -0.43278286 -0.51975906
000060 9e ab 5c bf d2 ae 38 c0 a6 59 3e bf ae ea 38 c0
       -0.8619937 -2.8856702 -0.7435554 -2.8893237
000070 f6 9a 31 bf 94 f1 d8 be e6 44 36 3f 4e 3c 7c be
       -0.69377077 -0.4237181 0.7119888 -0.2463238

convs.1.bn1.running_var f4 [32]
000000 01 a5 ea 3d 91 c5 d8 3d dd 13 96 3d dd 49 13 3e
       0.11457253 0.10584558 0.07328007 0.14383645
000010 ac 2d 07 3e 54 1e 0e 3e 1f 86 e1 3d 03 9b dd 3d
       0.13201016 0.13878757 0.1101191 0.10820582
000020 03 85 c6 3d 45 8c 2a 3e c7 e9 4d 3e 3e cc 58 3e
       0.09693339 0.16655071 0.2010871 0.21171662
000030 61 28 b5 3d 13 ce 2d 3e 80 ca 1f 3e 77 dc 6c 3e
       0.08845592 0.16973142 0.15604591 0.23130976
000040 ae 37 13 3e d6 43 ba 3d 6a b6 ab 3d ef 6f 1b 3e
       0.14376709 0.0909497 0.08384402 0.15179418
000050 67 cc 8c 3e b2 b5 a8 3e 43 9d 93 3e 92 34 89 3d
       0.27499697 0.32951123 0.2883092 0.0669948
000060 a1 bb 1f 3e eb 8a 95 3e 51 d0 87 3e 1f 82 a4 3e
       0.15598918 0.29207548 0.2652612 0.32130525
000070 64 fb 22 3e 7a 9a 27 3e f5 ae 29 3e a4 03 12 3e
       0.1591621 0.16367522 0.16570647 0.14259201

convs.1.bn2.weight f4 [16]
000000 ad 1e 96 3f 1e 1e 71 3f 77 2c 91 3f a5 e4 84 3f
       1.1728112 0.9418658 1.1341695 1.0382277
000010 a1 70 84 3f ae d7 8c 3f c8 8f 88 3f 61 8c 82 3f
       1.0346872 1.100332 1.0668879 1.019909
000020 69 e8 91 3f 82 32 69 3f a4 8f 83 3f c7 4b 81 3f
       1.1399051 0.91092694 1.0278211 1.010125
000030 59 39 6e 3f 57 b5 82 3f c2 01 8f 3f 9b 3a 90 3f
       0.93056256 1.021159 1.1172411 1.1267885

convs.1.bn2.bias f4 [16]
000000 12 2a d5 3c c1 70 78 3c f7 81 f7 3b e7 7e a1 bd
       0.026021037 0.015163601 0.007553335 -0.07885533
000010 93 78 29 bc 63 af bf bd 79 fc 74 3d 18 bf a5 bd
       -0.010343689 -0.09359624 0.05981109 -0.08093089
000020 8d f9 fa 3c 6c cb 37 bb 3d 54 b0 b9 1e 0b 9e bd
       0.030636573 -0.0028044833 -0.00033632098 -0.07716964
000030 e6 93 4b bc e0 c3 e6 3c 3d f6 87 3c d2 2c 44 3c
       -0.012425398 0.028169572 0.016596908 0.011973577

convs.1.bn2.running_mean f4 [16]
000000 aa 03 c3 40 eb bb a2 40 c0 ed 88 40 14 d0 90 40
       6.0941973 5.085439 4.279022 4.5254
000010 15 d6 9f 40 b6 f1 97 40 71 e4 86 40 02 e7 97 40
       4.994883 4.7482557 4.215386 4.746949
000020 5e af 9e 40 8e 40 cb 40 84 f7 8f 40 31 3d 95 40
       4.958907 6.35163 4.4989643 4.6637197
000030 2e 0f 86 40 02 7e 87 40 be bd 7c 40 b2 81 ac 40
       4.189353 4.234132 3.949081 5.390832

convs.1.bn2.running_var f4 [16]
000000 e5 1b 4f 42 43 f7 de 41 5e 6f 92 40 6b 94 0b 41
       51.77724 27.870733 4.5760946 8.723735
000010 f6 4c f7 40 fb bf 3f 41 0d 58 fa 40 fa 77 a9 40
       7.7281446 11.98437 7.8232484 5.2958956
000020 fc 2f 62 41 d5 10 90 41 f6 ea 92 40 ec ab fb 40
       14.136715 18.008219 4.5911818 7.8647366
000030 69 7e c4 40 10 fa e1 40 79 ff b2 40 0a a1 73 41
       6.140431 7.061775 5.5936856 15.226816

convs.2.fc_full.weight f4 [32, 56]
000000 be 2c bb 3c 2a b9 83 bd d9 3f 64 bc 39 a8 ad bd
       0.022848483 -0.064318016 -0.013931238 -0.084793516
000010 ee fb 9e bd 4b 5c 52 bd 75 50 78 be 3a 19 f1 3d
       -0.077628955 -0.05135755 -0.24249442 0.1177239
000020 e4 34 1f 3c ec 5a c8 3d 72 49 33 3d ec e8 fd 3b
       0.0097172 0.09782967 0.043771215 0.0077487137
000030 17 f9 d1 3d ef fa 38 bd 5a f2 a9 3d 11 64 25 3e
       0.10252588 -0.045161184 0.08298178 0.16151454
000040 95 93 7d 3d 73 87 ec bd 6d 8b f4 3d f6 c9 f1 bc
       0.061908323 -0.115492724 0.11940656 -0.029515248
000050 9a 23 4e 3e b3 b9 4e 3d 62 97 75 be 78 49 27 3d
       0.20130768 0.050470065 -0.23983529 0.04084155
000060 c3 67 7f 3d ee ce 0a be 49 54 26 3e 29 50 ef bd
       0.062354814 -0.135555 0.1624309 -0.11685211
000070 ea fe fc bc 74 6d 60 bd 96 d8 c8 bd da 54 21 3d
       -0.030883271 -0.054791883 -0.098069355 0.03938756
000080 40 5e 7b 3e ad fe 82 3b b9 b1 a6 be 6c 43 7e be
       0.24547672 0.003997645 -0.32557467 -0.24830407
000090 a5 c9 5f be 4d 52 2c 3e e8 1b 87 3c 33 62 8b be
       -0.21854265 0.1682827 0.016492799 -0.27223358
0000a0 fb 10 f2 bd d8 b5 fa bd 2c 07 06 3d 22 4b fb bc
       -0.11819645 -0.12241715 0.032721683 -0.030675475
0000b0 e5 0d a0 be 4b b2 43 be 20 45 90 be 84 77 77 3e
       -0.312606 -0.19110982 -0.28177738 0.24166685
0000c0 0f 57 21 3e 75 74 74 3e ff 13 a1 3d 37 34 03 3e
       0.15755866 0.2387255 0.07865142 0.12812887
0000d0 53 aa 89 3d bd 6c be bc bc 9c 36 bd de bf 47 3e
       0.0672194 -0.02324521 -0.044583067 0.19506785
0000e0 63 17 8b bd c6 14 1b bb c6 7e ce bc 08 f5 05 be
       -0.0679157 -0.0023663505 -0.025206935 -0.13081753
0000f0 d3 2c c3 3c df 90 f4 bd 20 57 1b 3d b4 bf 25 be
       0.023825085 -0.119416945 0.037924886 -0.1618641
000100 e6 2c 9f 3d ed 2f 65 be f8 17 cb 3d d0 33 f7 bd
       0.077722356 -0.22381563 0.09916681 -0.12070429
000110 e9 f4 82 bd d0 f0 e3 3c aa 7f 4a 3d 77 76 8e bd
       -0.06394369 0.02782479 0.049438156 -0.06956189
000120 31 8c 42 be 95 3d 8a 3d 0b 4c 81 bd 2d f4 bb 3d
       -0.18998791 0.06750027 -0.06313332 0.09177432
000130 3c 7f 4b be dc 18 08 bc 64 e2 20 be e8 64 09 3c
       -0.19872755 -0.008306708 -0.15711361 0.008385874
000140 be 5f bf bd 43 22 82 bd a4 2b 13 bc 34 dc f2 bc
       -0.09344433 -0.06354191 -0.008982573 -0.029646017
000150 a5 f1 56 bd 7c cd 97 be a7 38 46 be 0d 99 e8 bd
       -0.052476544 -0.2964896 -0.19357549 -0.11357317
000160 05 34 2b be cd 78 05 be fa d1 c9 be 28 0e 1d 3c
       -0.16719063 -0.13034363 -0.39418012 0.009585895
000170 15 e9 44 be 23 0c f6 bd ac 43 41 bc 29 d2 ab be
       -0.19229539 -0.12014034 -0.011795919 -0.33558777
000180 ee 60 e2 bd 71 6d 3e be 27 08 da bd 8a a8 9b bd
       -0.11053644 -0.18596436 -0.10646086 -0.07600506
000190 7c 5d e4 be 3c 89 63 be 14 1e 00 be 77 9e 77 bc
       -0.44602573 -0.2222032 -0.12511474 -0.015113465
0001a0 6c 21 0a be 57 b1 81 bd 2a a7 b5 bd 7d 5c b9 bd
       -0.13489312 -0.06332653 -0.08869775 -0.09050844
0001b0 13 74 98 3d 10 50 0a 3e 36 b6 4b 3d 48 bd f3 3c
       0.074440144 0.13507104 0.049734317 0.029753342
0001c0 e5 fe 22 3e 45 e8 4a 3c 15 de 56 bc 65 d6 c8 bd
       0.15917547 0.012384479 -0.013114472 -0.098065175
0001d0 11 35 48 3d fe 7b 61 bd 5f e0 04 3d 66 d3 4b be
       0.048878733 -0.05504989 0.03244054 -0.19904861
0001e0 30 28 68 3d 22 e5 1a 3c 5b 0b 12 3d b5 0e 4d 3d
       0.05667895 0.009454044 0.03565536 0.050062854
0001f0 44 76 6e be ca 27 8a bd 9f 09 54 be bf e0 cf bd
       -0.23287302 -0.067458704 -0.20706795 -0.10150289
000200 fe d8 af bd b4 78 21 3b 76 45 8a 3d 22 66 2a bd
       -0.0858631 0.0024638595 0.0675153 -0.041601308
000210 47 48 43 be 99 c8 23 3e 10 28 35 bc a9 7c 0e 3e
       -0.1907054 0.1599449 -0.011056915 0.13914742
000220 1c 2d ba bc 59 3e c8 3d 38 b2 82 bc ff a5 cb bd
       -0.022726588 0.09777517 -0.015954122 -0.099437706
000230 6f 98 ff bd 2f f0 fe bd 88 c8 43 be e5 9d 06 3e
       -0.12480246 -0.12448155 -0.19119465 0.1314617
000240 55 b0 27 3e 49 57 34 bd ec 0d f9 bd b0 04 95 bd
       0.16375859 -0.044028554 -0.121608585 -0.07276285
000250 b4 47 68 be ce d3 5f 3e 11 ee 28 3e f8 f8 4b be
       -0.22683603 0.21858141 0.16497065 -0.19919193
000260 9b c4 17 be fe 7e bd bd ca 0d 13 3e e2 c7 bb 3d
       -0.14821093 -0.092527375 0.14360729 0.09168984
000270 3a c1 6f be 0d 38 55 bd 4b 4f bb bd 35 5d 99 3d
       -0.23413554 -0.052055407 -0.09145983 0.07488481
000280 fc 22 03 3d 13 77 66 3c 50 96 2e 3d 7f 19 9f 3d
       0.032015786 0.014066475 0.042623818 0.07768535
000290 9e 13 a4 3d 39 6e 48 bd 42 34 15 bd d5 57 41 3e
       0.08011554 -0.04893324 -0.03642679 0.18881162
0002a0 b7 4f ff bc 8f 83 0f 3e c9 06 b0 3d a1 0e 8c 3d
       -0.03116594 0.1401503 0.08595044 0.06838728
0002b0 61 4b 6e 3c 1f b7 62 3e 42 13 8b 3d ee 1d 85 be
       0.014544339 0.22140168 0.067907825 -0.25999397
0002c0 7e b8 6a bd 40 88 21 be 0a 4a 0f bd 5f bd b0 3d
       -0.05730485 -0.15774632 -0.03498272 0.0862987
0002d0 3f 85 99 3d 97 cc 00 bd 36 fb 5e 3c ed 66 84 bd
       0.07496118 -0.031445112 0.013609698 -0.06464944
0002e0 4c 69 a9 3d 7b e7 87 3e ff 62 af bd 86 76 29 3e
       0.08272037 0.26543793 -0.08563804 0.1654912
0002f0 70 29 64 bd 88 33 8d 3e b7 06 a9 bd 99 60 2d 3c
       -0.05570358 0.27578378 -0.08253234 0.010582113
000300 00 4b f4 bc be e8 2b be d4 8b 78 3d c7 53 ad bd
       -0.029820919 -0.16788003 0.060680225 -0.08463245
000310 3e b8 2f bd 79 51 0c be 0d 14 3a 3b 2e 0b 78 3c
       -0.042900316 -0.13702954 0.00283933 0.015139384
000320 b7 8c 95 be 6a 5b 3a be 06 79 e6 bd 6c 97 f5 3c
       -0.2920892 -0.18198934 -0.11253552 0.02997943
000330 3f cf 84 3e 2f 66 67 be dc 72 1d be c0 21 81 bd
       0.25939366 -0.22597574 -0.15375847 -0.063052654
000340 20 dd 12 3e 8b 24 97 3c e0 f9 43 be 6b e4 9c bd
       0.14342165 0.018450042 -0.19138288 -0.07660755
000350 ca b8 81 bd ec ed dd 3d f3 ee 1e 3e c1 74 51 bd
       -0.06334074 0.108363956 0.1552084 -0.051136736
000360 af 88 be bd eb 9a 30 be 15 da 89 bd c9 54 f6 bd
       -0.09303414 -0.17246597 -0.06731049 -0.1202789
000370 6a 61 c1 bd 44 3b f5 bc 26 f6 29 3c f8 fa 0b 3c
       -0.094424084 -0.029935487 0.010373628 0.008543722
000380 81 a1 25 3d 94 be 8b 3b 31 19 76 bd 52 38 fb bd
       0.040437225 0.004264662 -0.06008262 -0.122666016
000390 8b c6 0a 3e 9b 3f c0 bd 0e f8 eb bd bd 2c 31 be
       0.135523 -0.09387132 -0.11521922 -0.17302223
0003a0 05 6e 5a bc 8d 60 c7 bd f5 3f 6e be ba 59 3c 3e
       -0.013331895 -0.097352125 -0.23266585 0.18393603
0003b0 49 99 d5 3d d8 86 2c bc 82 a2 b9 bd e5 45 8f bc
       0.104296274 -0.010530196 -0.09064199 -0.017489383
0003c0 a9 07 7f be aa a1 4c bd 4b 0b 3c be b1 50 37 3d
       -0.24905266 -0.049958862 -0.18363683 0.044754688
0003d0 3a fa 61 be 2f 76 bc 3d 19 a0 78 bd 12 3a d7 bd
       -0.2206811 0.09202229 -0.060699556 -0.10509123
0003e0 ff 06 52 3b a9 ff 3d 3d 8f f5 bd bd 44 f3 81 bd
       0.0032047627 0.046386395 -0.09275352 -0.06345227
0003f0 4b 8c 9f bd 67 f3 28 be 80 d1 07 3d c1 d7 45 be
       -0.07790431 -0.164991 0.03315878 -0.19320585

convs.2.fc_full.bias f4 [32]
000000 5d 7d 88 ba 8e a1 03 3e 5d ac 9c bd 80 22 ce bd
       -0.0010413338 0.12854597 -0.07650063 -0.10065174
000010 c2 62 06 bc d1 d9 60 3d b8 e8 83 3d d0 fb 05 3e
       -0.008202257 0.054895226 0.06440872 0.1308434
000020 79 16 22 be 0b f9 55 bd 9d ed 07 bd 65 13 38 bd
       -0.15828885 -0.05223946 -0.03318559 -0.04494037
000030 6f f8 62 bd 14 1c 9c bd 97 e2 bc bd 2b d3 03 3e
       -0.055412706 -0.07622543 -0.09222906 0.12873523
000040 54 1e e4 bb 63 5f 09 bc 95 26 8b 3d 31 cb 04 3d
       -0.006961623 -0.008384558 0.06794468 0.03242034
000050 5c af 85 bd 9b cc b9 bd 22 b5 84 3c 41 f5 c2 bd
       -0.06527588 -0.090722285 0.016199652 -0.09519435
000060 fc e8 9f 3d 6c 5b 1a be ab e5 fe 3d fa 05 b0 bd
       0.0780811 -0.15073937 0.124461494 -0.0859489
000070 69 0f 0b 3e f6 8b 1e bd c8 9c fa bd f5 fd 18 3d
       0.13580097 -0.038707696 -0.12236935 0.037351567

convs.2.bn1.weight f4 [32]
000000 73 4b ad 3f ed a3 9e 3f 38 5b b7 3f f4 48 ec 3f
       1.353865 1.2393776 1.4324713 1.8459764
000010 19 3d aa 3f d7 27 a7 3f 7a 8c a7 3f bf 49 9c 3f
       1.3299896 1.3059033 1.3089745 1.2210006
000020 73 98 cf 3f 7d cc b8 3f 66 72 d3 3f 57 ed b3 3f
       1.6218399 1.4437405 1.6519287 1.4056805
000030 05 12 b4 3f 4e 56 dd 3f 92 99 b9 3f 18 fd b4 3f
       1.4067999 1.7291963 1.4499991 1.4139738
000040 af 09 8c 3f 56 98 9c 3f fc 67 89 3f a5 9b 9c 3f
       1.0940455 1.2233989 1.0734859 1.2234999
000050 68 f3 86 3f fa 99 89 3f 6c fa a3 3f c0 f2 b1 3f
       1.0543032 1.0750115 1.2810798 1.3902206
000060 b6 22 93 3f 0f f1 72 3f 5c 18 57 3f 10 9f 8e 3f
       1.1494968 0.94899076 0.84021544 1.1142292
000070 fb 2f 98 3f 28 24 58 3f 82 15 74 3f c3 7b 90 3f
       1.1889642 0.8443017 0.9534532 1.1287769

convs.2.bn1.bias f4 [32]
000000 99 46 8e 3d 14 db 5e 3d 44 9e 08 be 8d 11 5f be
       0.06947059 0.054408148 -0.13341624 -0.21784039
000010 8f d0 3c bd a4 73 b0 3d b1 df 89 bd 13 84 c6 3d
       -0.046097334 0.08615807 -0.06732119 0.0969316
000020 05 a7 0d be cd 7e 0b 3d 81 46 32 bd 80 51 14 be
       -0.13833244 0.034056474 -0.04352427 -0.14484215
000030 ff cb 8a bd 95 c7 86 3e bd e6 2f be 64 14 fa 3c
       -0.067771904 0.26324144 -0.17177863 0.030527301
000040 53 ba 35 bc f9 bd 4e be d0 97 01 be 85 ae 90 be
       -0.011091786 -0.20189656 -0.12655568 -0.28258148
000050 04 de 0e 3d 96 1d 81 bc d3 34 8b bd 9d 6b 46 be
       0.0348797 -0.015761178 -0.06797185 -0.19376989
000060 85 d4 ea bd 52 cc 65 3e f4 17 2a 3e 95 94 01 be
       -0.11466316 0.22441223 0.166107 -0.12654336
000070 c5 97 2c bd 5d ab 8b 3e 6b b5 a3 3b 10 6f 62 bd
       -0.042136926 0.27279177 0.004995992 -0.0552817

convs.2.bn1.running_mean f4 [32]
000000 98 cc ab bf 55 97 a4 c0 1c fb d2 bf 34 4c 20 bf
       -1.3421812 -5.143473 -1.6482882 -0.62616277
000010 25 21 4d c0 83 9a 8a c0 f7 62 7b bf 4a bc 07 c0
       -3.205148 -4.3313613 -0.98197883 -2.1208673
000020 76 eb 15 c0 61 29 38 bf 38 99 f3 bf bd dd b3 bf
       -2.3424964 -0.7193814 -1.9031134 -1.4052044
000030 18 ed 0b 3e 84 1c 11 3f 3d 1a a9 bf e2 e0 0c c0
       0.13664663 0.56684136 -1.3211132 -2.2012258
000040 9e df f8 bf 59 b3 23 3c 04 b4 07 c0 d8 97 ff bf
       -1.9443243 0.00999149 -2.1203623 -1.9968214
000050 c6 63 bd bf e5 c1 00 c0 bd f6 22 bf d8 bb 7d c0
       -1.4796073 -2.0118344 -0.6365774 -3.96459
000060 26 d2 1e c0 c8 15 6c c0 ef b3 af be ed 3a f9 bf
       -2.4815764 -3.6888294 -0.34316966 -1.9471108
000070 97 d3 cf bf 10 a7 f5 3e 5b 57 31 bf ae e5 83 bf
       -1.6236447 0.4797902 -0.6927392 -1.0304468

convs.2.bn1.running_var f4 [32]
000000 b5 ca ba 3e 7a 3a 36 3e c6 3f 0b 3f e5 88 27 3e
       0.36482778 0.17795745 0.54394186 0.16360815
000010 3f 5f 22 3f fc 83 ad 3e 0c ba 4e 3e 84 fa b6 3e
       0.63426584 0.3388976 0.20188159 0.35738003
000020 35 64 8f 3e b9 ee 38 3f a3 48 e2 3d 43 8f 90 3e
       0.2800614 0.7223926 0.110490106 0.282343
000030 b4 da b5 3e 63 70 c7 3e 53 3d 8c 3e 5c b5 0b 3e
       0.3551842 0.38952932 0.27390537 0.13643402
000040 ac 8d 2a 3f 03 6c 9f 3e 66 4c 46 3e 65 be 2a 3f
       0.66622424 0.31137094 0.19365081 0.6669677
000050 fb 8a 28 3e 31 cf 19 3f 32 50 a5 3e 15 ba 6b 3e
       0.16459267 0.60081774 0.32287747 0.23020203
000060 4b 2b 32 3f 2e fd 9e 3e 0e 52 2c 3f 93 92 c2 3e
       0.6959731 0.31052536 0.67312706 0.38002452
000070 4a 2e e6 3e 0c de f4 3e 5d 1b bd 3e bd 94 76 3e
       0.4495719 0.47825658 0.3693494 0.24080177

convs.2.bn2.weight f4 [16]
000000 46 9f 82 3f 62 0c 90 3f 35 8d a3 3f 0c 4d bb 3f
       1.0204856 1.1253779 1.2777468 1.4632888
000010 7e 89 8f 3f d6 b0 97 3f e2 9e ab 3f 8b 9d 8d 3f
       1.1213834 1.1850841 1.3407862 1.1063703
000020 49 40 9a 3f ef ea 8c 3f 67 d4 8e 3f 14 c6 8c 3f
       1.2050868 1.1009196 1.115857 1.0997949
000030 aa 37 8e 3f 73 b7 9f 3f 6d d9 99 3f 4a 62 aa 3f
       1.1110737 1.2477859 1.2019478 1.3311245

convs.2.bn2.bias f4 [16]
000000 fd 53 43 3d ac 18 84 3c 16 99 a9 3d 50 54 83 bc
       0.04768752 0.016125046 0.08281152 -0.016031414
000010 a3 12 38 3c 1e f3 20 bd 7c a9 2f 3d ea 74 23 bd
       0.011234912 -0.039294355 0.042886242 -0.03990642
000020 a8 37 40 3d 01 35 a0 3d 1d 0d 61 3d e4 d4 0c 3d
       0.046928078 0.0782261 0.054944146 0.034382716
000030 4f 26 92 bc 1f 2e 68 3d 04 b7 80 3d b9 87 5c 3c
       -0.017840533 0.05668461 0.062849075 0.013460093

convs.2.bn2.running_mean f4 [16]
000000 cc 70 bc 40 cf 23 84 40 87 3f 82 40 3e f9 62 40
       5.888769 4.129371 4.070255 3.5464625
000010 47 73 92 40 e3 c8 91 40 fe 2f 82 40 24 41 84 40
       4.576572 4.5557723 4.0683584 4.1329517
000020 ed e2 97 40 68 b2 ab 40 9f 8a a5 40 a2 ab a8 40
       4.746451 5.365528 5.1731715 5.2709513
000030 15 2e 97 40 63 93 b7 40 ab ab a3 40 1e 8d 95 40
       4.7243752 5.7367415 5.1147056 4.673476

convs.2.bn2.running_var f4 [16]
000000 cd e9 19 42 80 59 2c 41 3a 61 27 41 b1 04 96 40
       38.47832 10.771851 10.461237 4.6880727
000010 0d 52 4b 41 6b e2 ba 40 6d fe 91 40 41 7f 71 41
       12.707532 5.840139 4.562308 15.093568
000020 95 63 3e 41 fd ad 42 41 cd 4a cf 41 c5 32 de 41
       11.899312 12.167478 25.911524 27.77479
000030 a1 11 3f 41 d9 bf d1 40 7d 7c 66 41 e1 3f 26 41
       11.941804 6.554669 14.405393 10.390595
