cgcnndefect/pretrain_average_new/checkpoint.pth.tar (torch, 208623 bytes, 121 tensors)

embedding.weight f4 [16, 92]
00000000: 6507 92bd a0c4 a33d 6464 e6be e94f 6abf
00000010: a711 5abe efb3 13bf 09c2 5ebe 5f61 1e3f
00000020: 22be 8d3e bc20 cd3e edd4 8e3f dd3a dfbe
00000030: e33b cabf 9b82 32be f0ba 31be 280c af3e
00000040: bdd5 953e 1fc1 473e ce6f b43f 6559 b8bb
00000050: 10cf 40be 11c8 94be c57e 933f 444a e63e
00000060: e622 203f 8024 703f 9c42 ae3e 120f 013f
00000070: f244 fcbe edcf 01bf b49f e1be e571 1b3f
00000080: 9018 e53f 4ed6 863f 1b82 4ebe 1937 96be
00000090: 0cba acbc a527 83be a657 983f 5f68 5bbe
000000a0: 015b 833f c07e 293f 2e09 23bf e34c 41bf
000000b0: 0325 c53e 29f3 373e 6af1 b73d 2a48 bebd
000000c0: a1b7 cfbe 8503 35be 7910 763e 4cae a13e
000000d0: 62e6 7b3e 655f 4a3f 0ecb e23e 128c 98be
000000e0: 47ca cabe 0bc0 d9bd c1db 313e b7d7 933e
000000f0: f048 5f3e 5e2a 89be a592 0d3e 2fc6 0f3f
00000100: 1498 8d3e 76eb 55be 8a70 823b f98b 54bf
00000110: 8a40 81bf fb04 cd3d 58aa ba3f 0f7f 1cbd
00000120: 54e7 c7bb 4b04 8f3c 1594 653e 3713 af3e
00000130: 2df9 a93c 0771 2b3d e181 97bd cd0c b83e
00000140: 784d aabe 591f b53c 4334 82be 11d1 02be
00000150: 07be 91bf 7e86 7ebe c06a babd ed8b 0e3f
00000160: 1a44 c5bc 193f 4b3f 66a4 423f e870 133f
00000170: c8bf 8d3e 4758 bfbd b77c 04bf aa70 debf
00000180: f176 f53e 71a7 053f 9b6b 093f ae8b b13f
00000190: 5461 ca3f c2ad 673f 39a6 663f 4551 7ebe
000001a0: 2000 78bf 49eb 043e dd74 1cbf b067 dfbe
000001b0: fd05 c6be 48e8 e2be 5118 443f 24ec 77bf
000001c0: cb51 563f f783 9abe 5084 b13d 9f76 153d
000001d0: 82d1 d7be c8c6 d3bf 2af5 d03d d201 bf3e
000001e0: e63b b63c d11a 9dbe b017 d7be 4c87 03bf
000001f0: 4084 ebbd 59c3 cbbe 1d00 903e 204f d93d
00000200: fc8b 88bf d069 a33e fe99 743f c44e c93d
00000210: c941 32bf 51d8 c8be ab8d 7fbe 85f1 89be
00000220: b529 4c3e 1313 b2bd 9df8 e3bd 5d73 e63b
00000230: 71d2 30be 9f74 91be 3cb3 c6bd 1ca0 93be
00000240: 5d9d da3d 3a1d bf3f 2ede 673f 2834 15be
00000250: 8d41 8cbe d38f 8b3e b622 30bc 082d b63e
00000260: cb5b 78be ad7c 7b3d 384f 3e3d b84c 23be
00000270: 2d9f e9bd 743c 9a3d 6c8f b4bc 1346 283f
00000280: da85 7abf 00b1 a7bc a580 d83e 355c b8bd
00000290: e727 4a3e 472a dd3d 4ef0 1e3e 3c87 433e
000002a0: ea2d c0bd 4c86 eebe f7d7 36be 8410 c3bf
000002b0: cfa5 c63f 81bc 753e 7af7 9d3e 869a 973f
000002c0: 0026 00be 4c91 1bbe 607a 863d e008 2bbc
000002d0: f339 a83e 300d d7be e060 9c3e 5fdd dd3d
000002e0: c148 c73e ffe5 38be 7711 7bbd 311f 383f
000002f0: 9da6 1e3f 3007 5b3f 70d5 0340 59ab 883f
00000300: 5f06 94bd a517 40bf 860f 96bf e726 b6bf
00000310: c2b2 61bf 2599 3ebf a9ab b23e af4e 41be
00000320: d5a1 193d 2ee6 733e af16 04c0 5a21 93bb
00000330: ccef 06be a931 483f d73e 8a3e 2cfc 8b3d
00000340: dfc3 1fbf 24c3 b13e 19ac d13d a20f 563f
00000350: e2a5 623e e1c8 da3e fb42 30be 9c09 f83e
00000360: 90e5 cc3f ed1b 40bf edcd 3cbe 1210 2d3e
00000370: 6f1c 743d 0b4e 14bd 6a47 213f 5e1c 453f
00000380: f06c fdbe 628a 3dbe cc16 bd3e 6c8a e4be
00000390: cd4b acbe 6584 30be f16e 5dbe cda8 b53e
000003a0: 7c42 cbbe 4858 5f3f f4e4 823e d0c4 d03e
000003b0: f56d 1a3f b0ae dbbe 4398 4cbf fd46 3ebf
000003c0: 2b66 aabf 5695 8fbf c186 8e3d 43fd 65bc
000003d0: 5dcc 9c3d 9f65 30be f532 4d3f 5151 273e
000003e0: 9b65 b4be 428d 713e bbe8 60bd 69e2 70be
000003f0: d483 60bd aea9 f9bc 5a96 533e 60ef 1dbd
-0.07130317 0.079964876 -0.44998467 -0.91528183 -0.21295796 -0.5769643 -0.21753706 0.61867326
0.27684122 0.40064037 1.115873 -0.43599597 -1.5799526 -0.17432635 -0.17356467 0.34188962
0.29264632 0.19507264 1.409662 -0.005625891 -0.18828988 -0.2905889 1.1523062 0.44978535
0.6255325 0.93805695 0.34035194 0.5041362 -0.4927135 -0.50707895 -0.44067156 0.60720664
1.7898121 1.0534151 -0.20166819 -0.2933891 -0.021084808 -0.25616184 1.1901748 -0.21426533
1.0262147 0.6620903 -0.6368588 -0.75507945 0.385048 0.17963852 0.08981593 -0.09291108
-0.40569785 -0.17677124 0.24029721 0.3157829 0.24599603 0.7905181 0.44295543 -0.29794365
-0.3960745 -0.106323324 0.17368986 0.28875515 0.21805167 -0.26790136 0.13825472 0.5616178
0.2765509 -0.20890602 0.003980701 -0.8302608 -1.0097821 0.100107156 1.4583235 -0.03820711
-0.0061005745 0.017458102 0.2241977 0.34194347 0.0207487 0.04185584 -0.07397819 0.35947266
-0.3326223 0.022109674 -0.25430498 -0.12775065 -1.1386117 -0.24855992 -0.09102392 0.5568226
-0.024080325 0.79393154 0.760321 0.57594156 0.2768538 -0.093430094 -0.517528 -1.7378132
0.47942308 0.5220862 0.5367982 1.3870752 1.5810952 0.9049951 0.90097386 -0.2483569
-0.9687519 0.12980379 -0.6111582 -0.43633795 -0.38676444 -0.44317842 0.76599604 -0.96844697
0.83718556 -0.30178806 0.08667815 0.03649008 -0.4215203 -1.6545038 0.10203011 0.37306076
0.022245359 -0.30684522 -0.4201026 -0.5137832 -0.11499834 -0.39797476 0.28125086 0.10610795
-1.066772 0.31916666 0.95547473 0.098294765 -0.6963163 -0.39227536 -0.24956386 -0.26942077
0.19937785 -0.08695044 -0.111314036 0.0070327953 -0.17267777 -0.28409287 -0.09702155 -0.2883309
0.10674546 1.4930794 0.90573394 -0.14570677 -0.2739376 0.27258167 -0.010750463 0.3558123
-0.24253766 0.061398197 0.046462268 -0.15947235 -0.114073135 0.07531062 -0.022041045 0.65731925
-0.9786049 -0.020470142 0.42285648 -0.09001962 0.19741784 0.107990794 0.15521356 0.19094557
-0.093837574 -0.46586835 -0.17855822 -1.5239415 1.5519351 0.2399769 0.30852872 1.1844032
-0.12514496 -0.15192145 0.0656631 -0.010439128 0.32856712 -0.4200225 0.3054266 0.10833239
0.38922694 -0.18056487 -0.061295953 0.71922594 0.6197298 0.8555784 2.0599022 1.0677291
-0.07227778 -0.7503608 -1.1723487 -1.4230622 -0.8816339 -0.7445243 0.3489659 -0.18877672
0.03750785 0.23818275 -2.0638845 -0.00449006 -0.13177413 0.78200775 0.27001068 0.06835207
-0.6240825 0.34719193 0.10237903 0.83617604 0.22133592 0.42731383 -0.17213051 0.4844483
1.6007557 -0.7504261 -0.1843793 0.16900662 0.05959743 -0.03620724 0.62999594 0.7699641
-0.49497175 -0.1850982 0.36931455 -0.44636858 -0.3365158 -0.17238005 -0.21624352 0.35480347
-0.3969916 0.8724408 0.25565302 0.40775156 0.6032403 -0.42906713 -0.7991983 -0.7432707
-1.3312429 -1.1217449 0.06959296 -0.014037433 0.07656167 -0.17226265 0.8015588 0.16339613
-0.3523377 0.23589042 -0.05490945 -0.23523869 -0.05481322 -0.030476417 0.20662823 -0.038558364

embedding.bias f4 [16]
00000000: 1c8a fb3e 989f f1be f73d 933e 3e4e 273d
00000010: c951 87bd f606 d6be ce99 543f 7415 cd3e
00000020: a1e5 3d3e 9b91 973e 01fd eb3e 6df3 2fbe
00000030: e703 763e 39aa 8cbd d86a dfbe c9f6 c13e
0.49128807 -0.47192073 0.28758213 0.040846102 -0.06607396 -0.41802186 0.8304719 0.4005543
0.18544628 0.29603276 0.46091464 -0.17182703 0.24024926 -0.06868405 -0.43636203 0.37883595

convs.0.fc_full.weight f4 [32, 56]
00000000: 381d 2c3f ace3 85be f21d 79bc 48e6 d43e
00000010: 8f23 493e 4845 30bf 33e9 0bbf fb84 343f
00000020: acd2 1ebe 36dc 5a3e 6798 383f 7649 d93d
00000030: a633 263f 8bb0 efbe 2492 bbbc 29c6 eb3e
00000040: a1bf c4be d610 8dbf 40e0 9cbe 645d 0f3f
00000050: 44b4 de3e 5145 303f 8b71 9b3e dc36 efbe
00000060: c741 bbbe ae64 6c3f fce6 1b3e 7006 84be
00000070: bb14 a5be 9a6c c83e bb07 423f 4f6a c43e
00000080: de29 0840 2aeb 0b40 a786 293f 877a d9bf
00000090: b06c dcbf 17a2 0940 d442 ff3f 47e0 2a3f
000000a0: 227c d5bf 6c0c efbf 325f 0940 7d6b 0640
000000b0: bf19 4f3f 8dd8 d4bf 5544 ecbf aa73 0340
000000c0: 93fe 0940 a64e 0440 109a b33f 25c7 27bf
000000d0: c334 40bf 580f 99bf 6f39 d0be a162 f13e
000000e0: a901 223f 7edb 063f a067 39bf 2fc1 87bf
000000f0: 552d a8be 7acc 8b3e 6745 70bf 7ba8 ab3d
00000100: 849f 873f 5eac 0a3f e57c 1dbe 5016 01be
00000110: 667a 5abf 65f4 483f b60e a4bf 47a6 cebc
00000120: 413c 00bf c6fb 9cbe 9aa7 923f 9463 073f
00000130: 78f1 0b3f 75b9 95be c641 a43e 4f3d 09bf
00000140: 6f95 c53d fe08 0140 0017 7dbe b4af 53bf
00000150: 250b 063f 4b8a 13bf ea93 a2be 1e1c e9be
00000160: e251 fe3d 358a 183e 1b06 5c3f 01b6 d93e
00000170: 0e65 6c3e 28a1 ec3d 765b 2d3e 62c0 6f3f
00000180: d1ec c63e e893 3a3e 33bf 0d3b 52d2 b63e
00000190: b0cc 7d3f 2ae0 913e 8d1c 633e e049 1b3f
000001a0: 10b7 e53f 2238 3440 a021 5b40 3f12 3b3f
000001b0: c4f9 b73e d5da 02bf 6b61 8bbf d8fc 16c0
000001c0: a6e2 d33d 8f69 803f f43c 133f f133 49be
000001d0: 04d0 16bf e05d 89be da46 993e c07e f2be
000001e0: 045d 13bf b63a b4bc b72c 3bbf cd7c 833d
000001f0: bd8c 23bf e408 c63e aa07 cebd c8c7 073f
00000200: 1069 ef3e 77ab 703d 030a abbe ebd5 223f
00000210: f7d8 783f 838e 03be f507 b7be dbb3 753f
00000220: 4410 d6be c7e1 433f 9e3e 843d 256f 513f
00000230: 2c00 1bbe 2fbe 3f3f 9474 b33d 2af7 fa3d
00000240: dbb9 6740 e612 6b40 e936 5840 e32a 17c0
00000250: a418 35c0 6a86 6840 3975 7240 751a 6140
00000260: 86b7 0bc0 a8bb 43c0 68e7 5a40 171f 6440
00000270: 28f8 6740 faa8 12c0 92b5 41c0 7a3d 1240
00000280: 4212 1a40 0c88 2f40 1aa6 5c40 9608 05c0
00000290: 2ec5 2ac0 0521 3bbf 3327 2a3f f82f d33f
000002a0: 68fb 72bf 1691 90bf 0f6f 0abf 712b 7fbe
000002b0: 4745 be3c 8d89 ba3f 5e9b 433e 0c8d af3f
000002c0: 9c91 f63d b780 2f3f 636a 5bbe d2d6 013f
000002d0: ae1b 153f 0312 12be 9f96 233e f3a1 91bd
000002e0: 3263 68bf f961 523f 0bf2 fb3d 15a0 093d
000002f0: cf72 883e bf95 473f 4ef9 823f 6a4e d0be
00000300: 273c c2be 3d59 61be 0d34 adbf 214f 44bf
00000310: 8f45 ae3e ab49 24bf 4f3e b2bf 6cca 963f
00000320: 291d 973f fed5 d13f 50c9 0d40 5c23 85be
00000330: 7662 14bf e309 973f ac73 d53f b986 1040
00000340: 579a 6bbe 03fc 07bf 0738 8c3f 1359 c43f
00000350: 2155 0a40 172c c2be 37f7 19bf f428 883e
00000360: 007c 51be d4aa 27bf c521 04bf 8850 9bbf
00000370: 2811 8dbf da8a 0e3f b1c7 7b3f 8e5c 743e
00000380: 29ae 063d f7a7 fdbd 3cf8 4e3e cec6 1c3e
00000390: 0a64 ec3d a90a 1fbe 7fc1 9b3e e010 32be
000003a0: 631b 123c 3100 49be 3a23 fdbe 298a a1be
000003b0: f62a 4abe ba00 713d cca5 b13e 28ec 4abd
000003c0: cd59 2e3e 45a7 7d3e b2e2 05bf 16da b53e
000003d0: 4b3e 4ebc a6cf 123e fec7 163f a0f4 8ebe
000003e0: 03bc 25be 6ef4 b33d 0b4c aabe a77d 84be
000003f0: f123 bb3d 45dc 5b3e 5c67 a4be 21bb 033e
0.67232084 -0.26150262 -0.015204893 0.4158194 0.19642471 -0.68855715 -0.5465271 0.7051541
-0.15510052 0.21373066 0.7210755 0.10609715 0.6492256 -0.4681438 -0.022896834 0.46049622
-0.3842745 -1.1020763 -0.3063984 0.5600188 0.43496907 0.6885577 0.30360064 -0.46721542
-0.36573622 0.92341125 0.15224832 -0.2578616 -0.3224238 0.39145356 0.75793046 0.38362357
2.1275554 2.1862283 0.6622109 -1.6990517 -1.7220669 2.1505182 1.9942269 0.6674847
-1.6678507 -1.8675666 2.1464353 2.1003106 0.8089866 -1.6628586 -1.8458353 2.0539346
2.156163 2.0673003 1.4031391 -0.65538245 -0.7508051 -1.1957808 -0.40668818 0.4714556
0.63283783 0.5267867 -0.72423744 -1.060583 -0.32847086 0.2730444 -0.938559 0.083817445
1.0595555 0.5416926 -0.15379675 -0.12606168 -0.85343015 0.78497916 -1.281699 -0.025225772
-0.5009194 -0.30660838 1.1457398 0.5288632 0.5466533 -0.29243055 0.3208143 -0.53609174
0.09647643 2.0161738 -0.24715805 -0.82689977 0.52360755 -0.57632893 -0.31753474 -0.45529264
0.12417962 0.14896472 0.85946816 0.4252167 0.23085424 0.115541756 0.16929421 0.9365293
0.38852552 0.18220484 0.0021628856 0.35707337 0.99140453 0.28491336 0.2217886 0.606596
1.7946491 2.815926 3.4239273 0.73074716 0.35932744 -0.5111516 -1.0889105 -2.3591824
0.10345964 1.0032214 0.5751488 -0.1964872 -0.58911157 -0.26829433 0.29936868 -0.47362328
-0.57563806 -0.022000652 -0.73115104 0.06420288 -0.63886625 0.38678658 -0.100600556 0.53039217
0.46759844 0.05875727 -0.33406076 0.6360766 0.9720606 -0.12847333 -0.35748258 0.9597756
-0.41809285 0.76516384 0.06457256 0.8181022 -0.15136784 0.7489957 0.0876247 0.12254174
3.6207187 3.6730285 3.3783514 -2.3619926 -2.829629 3.633204 3.7884047 3.5172398
-2.1830764 -3.0583286 3.420374 3.5643976 3.6245213 -2.2915635 -3.0267072 2.2850022
2.4073644 2.7426786 3.447638 -2.078649 -2.668285 -0.7309726 0.66466063 1.6499014
-0.94914865 -1.1294277 -0.5407571 -0.24918915 0.023226393 1.4573227 0.19102237 1.3714919
0.120394915 0.6855578 -0.21427302 0.50718415 0.5824536 -0.14264683 0.15975426 -0.071109675
-0.9077636 0.82180744 0.123020254 0.03359993 0.26650092 0.7796287 1.0232332 -0.40684825
-0.37936518 -0.22006698 -1.353151 -0.7668324 0.34037444 -0.6417491 -1.3925265 1.1780524
1.1805774 1.639343 2.2154121 -0.2600354 -0.5796274 1.1799892 1.6675925 2.2582228
-0.23008095 -0.53118914 1.0954598 1.5339683 2.1614459 -0.37924263 -0.60142845 0.26593745
-0.20457458 -0.6549504 -0.5161403 -1.2133951 -1.1020861 0.5568062 0.9835158 0.23863432
0.032880936 -0.123855524 0.20211881 0.15310213 0.115425184 -0.1553141 0.30421063 -0.1738925
0.008917662 -0.1962898 -0.49440938 -0.3155072 -0.19742951 0.058838584 0.34696805 -0.049541622
0.17026444 0.2477084 -0.52299035 0.3551795 -0.012588094 0.14337024 0.58898914 -0.2792101
-0.16185002 0.08786856 -0.3326114 -0.25877115 0.09137715 0.21470745 -0.32110107 0.12864353

convs.0.fc_full.bias f4 [32]
00000000: 339e c03c 0493 e63d b086 a63d 3471 723e
00000010: cfa0 883f 2383 a3be 8e0a 90bd 9dab a4be
00000020: 87ae c1bd 835c d13b f0bd 5a3e b5ab 52be
00000030: 9254 c3bd 18b2 6a3e 04ae 6b3e 6018 463e
00000040: b13d 28be 64a8 653e f567 73be e7e9 123e
00000050: 9740 e83e 6d67 b03e 0a4d 64be 5558 9cbe
00000060: 3d37 ddbd 7ce7 b7bd e5c6 ae3c 982d 973e
00000070: 79e3 493e 48cf 183e ee39 db3e 2443 84bd
0.023512935 0.1125851 0.08131158 0.23675996 1.0674075 -0.31935987 -0.07033263 -0.3216218
-0.094571166 0.006389202 0.21361518 -0.20573314 -0.09537615 0.229195 0.230156 0.19345236
-0.16429783 0.22427517 -0.23770125 0.14347039 0.45361778 0.34453908 -0.22295013 -0.30536142
-0.108015515 -0.08979699 0.021335075 0.29526973 0.1971568 0.14922822 0.42817634 -0.064581186

convs.0.bn1.weight f4 [32]
00000000: 9fca 4340 ba6c 8f40 2e85 1e40 8ab4 1b40
00000010: 0522 5e40 ffee 9b40 1727 6c40 5dd4 8f40
00000020: 1b41 b840 7589 d340 06d4 a040 5bd4 7040
00000030: 2a19 ac40 b4e8 f840 1d50 9440 c91e 7040
00000040: 3bed 2040 f732 3540 b871 d83f bea2 133f
00000050: 2ba3 2340 72b0 d53f 5bf0 3b40 2905 973f
00000060: 325c 0540 b213 0240 bffa 2a3f b8a1 0840
00000070: 460c 9b3f 1135 6d3f fbf7 8040 b2d2 0e40
3.059242 4.4820223 2.4768786 2.4328942 3.4708264 4.8729243 3.6898859 4.4946733
5.7579474 6.6105294 5.025882 3.7629611 5.378072 7.778406 4.6347795 3.751879
2.5144794 2.8312356 1.6909704 0.576702 2.556834 1.6694472 2.9365451 1.179845
2.0837522 2.032452 0.6678886 2.1348705 1.211312 0.926591 4.030271 2.2316098

convs.0.bn1.bias f4 [32]
00000000: 4f26 80bf 7c76 48be cc77 983d 9450 443f
00000010: c6e7 9fbf cdb1 9fbe 1e1f 16bf 5ad1 8dbf
00000020: 3c03 983e 754f 90bf 22fb a83e 502c c5bf
00000030: 272c 1bbf 5c00 b1bf a952 47bf c0e8 babe
00000040: 22cd bfbf 5769 3dbf d2b2 483f 20f7 ccbc
00000050: bdf1 56be 3ffa 1bc0 4c7e 10c0 7f94 b63e
00000060: 9756 c4be e8e8 d93f b948 923f 20bb 4bc0
00000070: c9b7 8abf b595 babd 91a3 2dbf a915 dbbf
-1.0011691 -0.19576448 0.074447244 0.7668545 -1.2492607 -0.3119034 -0.5864123 -1.1079514
0.29689968 -1.1274248 0.330041 -1.5404148 -0.60614246 -1.3828235 -0.77860504 -0.365057
-1.4984477 -0.7398886 0.7839786 -0.025020182 -0.20990653 -2.4371488 -2.2577085 0.3566017
-0.38347313 1.7024202 1.1428443 -3.1832962 -1.0837337 -0.091105856 -0.6782771 -1.7115985

convs.0.bn1.running_mean f4 [32]
00000000: 0f73 6741 c33e 1e41 776b a841 0321 0041
00000010: 1df8 8dc0 0f12 5640 552a 82c1 cc02 7dc1
00000020: d3c0 6741 96a3 b0c0 1bd3 4f41 26db 8540
00000030: e729 8741 8cda d9c1 ac5c cc40 2d25 8bc1
00000040: 39ba 4c41 b899 b741 5c52 b541 fcee a241
00000050: cea5 c0c0 76c9 c4c1 7ea9 77c0 41ee dd3f
00000060: 2f56 51c0 0c9a 2dc1 ccb2 33c1 c6b3 10c2
00000070: f14f 1d40 6493 f6c0 c165 88c1 3cc3 d9c0
14.4655905 9.890323 21.052473 8.0080595 -4.4365373 3.3448522 -16.27067 -15.813183
14.484576 -5.519969 12.989039 4.1830015 16.89546 -27.231712 6.3863125 -17.393152
12.7954645 22.950058 22.665215 20.366692 -6.02024 -24.59837 -3.86972 1.7338334
-3.2708852 -10.850109 -11.231152 -36.17556 2.4580042 -7.705492 -17.049685 -6.8050823

convs.0.bn1.running_var f4 [32]
00000000: ed1c d341 db39 1d42 d9cc 3542 47d7 4942
00000010: 42c3 9a41 1c5d 0442 53b4 6c42 8788 dc41
00000020: 1ae9 e541 2379 8342 d67e 6442 83e6 8442
00000030: 7add 7942 46e0 1042 f809 2642 f42b 2242
00000040: 3374 a441 b2ed 8342 c9bc 8042 9f39 d941
00000050: 32c0 3042 9c0e bd41 9cd5 6d41 db19 3042
00000060: e4ec 4c42 078b 7a42 8eb6 2e42 191f a041
00000070: ca97 9242 f664 5942 05c0 2a42 45a2 e241
26.389124 39.3065 45.450047 50.46023 19.34534 33.090927 59.176098 27.566664
28.73882 65.736595 57.123863 66.45022 62.466286 36.219017 41.509735 40.542923
20.556738 65.96425 64.36872 27.153135 44.18769 23.632133 14.864651 44.02525
51.23134 62.63577 43.678276 20.015184 73.29646 54.348595 42.68752 28.329233

convs.0.bn2.weight f4 [16]
00000000: d98c 663f 81a5 7c3f 9ac5 653f 2eef b03f
00000010: fb6f e03f 709c ca3f 7e2e 723f b354 0a40
00000020: 804d a53f 33c3 d43f d2b1 983f 6b78 b83f
00000030: 6e70 933f 470e e03f 0259 ba3f 6d5a e13f
0.90058666 0.9869004 0.8975464 1.3822992 1.7534174 1.5828991 0.9460219 2.1614196
1.2914276 1.662207 1.1929266 1.4411749 1.1518686 1.7504357 1.4558413 1.7605721

convs.0.bn2.bias f4 [16]
00000000: fa41 c63e 1d46 11bf e7de ae3e 98a9 043e
00000010: 8781 e43c f352 bcbe bd28 3e3f e228 bb3e
00000020: a3cb ad3d e3fe 5f3e f836 eb3e 728c dbbd
00000030: f8c8 0d3e 64f3 1bbe 4e87 f6be c71f df3e
0.3872221 -0.5674761 0.34154436 0.1295532 0.027893795 -0.36782035 0.7428091 0.3655463
0.08486106 0.21874575 0.45940375 -0.10720147 0.13846195 -0.15229565 -0.48150104 0.43578932

convs.0.bn2.running_mean f4 [16]
00000000: 986e 7140 42a3 3440 086a c340 30d1 9e40
00000010: e330 0241 8498 803f b624 2840 d593 9740
00000020: 9c9c d940 657a 9541 80da 1b41 0d92 e23e
00000030: 6b43 1a40 bf06 a140 c469 1041 ede5 6540
3.772375 2.8224645 6.1066933 4.9630356 8.136935 1.0046544 2.6272407 4.736796
6.8003674 18.684763 9.740845 0.44252053 2.4103649 5.0320735 9.025822 3.5921586

convs.0.bn2.running_var f4 [16]
00000000: 5cd9 2541 7210 d940 f84f 3641 c0fa 9240
00000010: e764 1f42 7ceb b03f bee6 dd40 55af d741
00000020: 9af0 ad42 c441 9543 2f54 5c42 fc20 7a3e
00000030: 9029 6940 da5c e241 b001 b542 6893 b941
10.365566 6.7832575 11.394524 4.593109 39.848537 1.3821864 6.934417 26.960611
86.969925 298.5138 55.08221 0.24426645 3.6431618 28.295338 90.503296 23.196976

convs.1.fc_full.weight f4 [32, 56]
00000000: 905d 55be abf3 a43f 9484 533f 2633 d6be
00000010: 22d3 2bbf b94c 8e3e 99f5 8bbf 0757 cd3d
00000020: 03fd 8d3e 4996 d33d d2f9 72bd 29a9 4c3f
00000030: b556 00bf af8e e7be 7c51 503e d810 ee3d
00000040: 7e2e 7ebe 013e f0be c533 89bf b745 14bf
00000050: e081 36bf 32ed 9fbe 2df6 91bf d172 24bf
00000060: 1c20 dd3a 9a45 1440 fca9 c53e 4372 89bf
00000070: ae00 86bf eb67 873e 81bf 01bf 3f67 a4bf
00000080: 7009 6bbf 8c9a 07bf a798 8e3f 458a bf3f
00000090: e896 903f ddc7 46bf bd90 0bbf 7b19 9b3f
000000a0: 9018 ae3f 7c37 a23f d9d5 3fbf e806 e5be
000000b0: 2c77 8f3f 59ba ba3f 9b38 973f 05f9 cebf
000000c0: d619 d4bf 6d14 a6bf 7404 efbe 4745 43c0
000000d0: f407 fabf b6e0 98bc 15c8 fb3e d52f fb3e
000000e0: e13d be3e b27e c1bf f9d0 7abf c9df a7be
000000f0: e681 b4be 4a6e 833e 5902 b93d 75aa bc3e
00000100: b6b3 ed3e d876 46bf c9e4 8cbe 9f22 4c3e
00000110: 9bcf 8a3d 8e30 f3bf 0f82 5ebf 8d09 93bf
00000120: 3513 95be 469f b6bf a937 86bf ec72 7ebf
00000130: eb99 ab3f 93a1 e8bf f2a5 53bf 7c4c d0bd
00000140: 614f 36bf 748c ad3f 6217 cf3e 6c90 1b3f
00000150: 303d 5d3f b612 843f d94c 183e c125 473f
00000160: 17ed cf3f 9312 0d40 d9d2 6e40 e4f0 d63f
00000170: 5167 143f 3863 c73f 7ca4 0f40 1fe9 7c40
00000180: fcfa e53f ed17 163f f8c4 be3f da55 1040
00000190: 67a5 7340 9239 fa3f d1cb ec3e f60b d9bf
000001a0: 9a88 30bf 85ca 363f 592c 0e40 8dd2 3340
000001b0: d352 d63f 35dc bebe 09c7 39bf 49f8 5bbf
000001c0: 1f44 a43f 9c56 f43e 1c6d d53f 0456 153f
000001d0: 8f59 d03d c3ce 8dbf ad22 393f 0738 5e3f
000001e0: 798c 903f 55bf 103e 3b6f 273f 5b19 053f
000001f0: adf7 523f 6720 c6be 3fe2 ecbd b753 88be
00000200: 1a04 8abe d512 c73f 9d67 a33f b30b 46be
00000210: c09d ae3e f69f fbbe 3c79 84bf 0b11 413f
00000220: ac97 313f 1e62 82bf 9fbe 653f b3ad fc3e
00000230: 1429 8b3e 59bb 24bf 75dc 1d3e ea46 0c3f
00000240: 9fff 05c0 d9f8 0dc0 6717 17c0 cf1f 9a3f
00000250: 1fc7 c03f a5d2 f8bf 696a 0ac0 3198 18c0
00000260: 7d7b 973f 0948 c33f 944a febf d178 0ac0
00000270: babb 0ec0 b460 a63f b4f3 bd3f 7427 fbbf
00000280: daf4 c6bf bca0 83bf d31a a5be 09b6 03c0
00000290: efc7 d9bf 2321 6bbe 9124 843e 634c a5bd
000002a0: c3de 4bbe 4e2d 2ebf dfeb a2bf a87b 9dbf
000002b0: 1d98 073f f89a 27bf cf61 96bf f359 d7bf
000002c0: e59f 07be fafa 443f 6c34 01bf 50f5 60bf
000002d0: 983d efbe 9f3f 6fbf cb6c 26be 710f 39bf
000002e0: a521 dcbe 8706 f7bd 1514 653e 3985 193f
000002f0: c155 9dbf 45ed 6e3e 872c 5fbe 657b a1bf
00000300: 4be4 5c3e f0d8 8dbf 554a ecbc e4ec 53be
00000310: 77ba ee3d 0f29 453e 73f6 50bf b628 df3d
00000320: 741d d1bc d0ec debd a4e2 93be de74 28be
00000330: dbc2 53be 901e 8e3d f814 e43d 1702 27be
00000340: 23e9 6cbd 2914 89bd 1454 a9bc 43e6 5e3c
00000350: be64 1fbe b302 23be 32be 1fbe 7490 cc3e
00000360: 042d db3e ac52 dd3e 25c9 383f 336d 1bc0
00000370: 3be0 dfbf ac68 bdbe 758f 50bd a491 87be
00000380: 3c03 7cbe 5189 0b3f 8670 473e e8ff de3e
00000390: f259 e5bf bb62 45bf b7cd 553f 1612 a83e
000003a0: e3b5 1cbe c929 3ebf 8126 fb3d 300d a9bd
000003b0: 6cd1 9b3e 49c1 a13f ec8c 0740 504d 94bf
000003c0: 0533 0b3e 6b09 b73e 1428 733e 5eab 47be
000003d0: abc6 e83e 6500 473f 0af1 43be c95e 03bf
000003e0: f859 b73f dc3e 443f c148 bebe a64a 6fbc
000003f0: e947 413f 2281 0a3e 26ba 15bf c973 40bf
-0.20836473 1.2886862 0.82624173 -0.41835898 -0.6711904 0.2779291 -1.0934325 0.10026365
0.27732095 0.10331399 -0.05932028 0.7994562 -0.50132304 -0.45226046 0.20343584 0.116243064
-0.24822423 -0.46922305 -1.0718924 -0.57918876 -0.71291924 -0.31235653 -1.1403252 -0.64237696
0.0016870531 2.3167481 0.3860625 -1.0737995 -1.0468957 0.2644647 -0.50682837 -1.2844008
-0.91811275 -0.52970195 1.1140336 1.4964072 1.1296053 -0.7764872 -0.5451773 1.2117151
1.3601246 1.2673182 -0.7493568 -0.44731832 1.1208243 1.4588119 1.181415 -1.6169745
-1.6570385 -1.2974983 -0.46683085 -3.0511034 -1.9533677 -0.018661838 0.49176088 0.4905993
0.37156585 -1.5116789 -0.97975117 -0.32787922 -0.35255355 0.2567008 0.09033651 0.36848798
0.4642617 -0.7752509 -0.275183 0.19935082 0.06777879 -1.8999193 -0.86917204 -1.148729
-0.29116216 -1.4267356 -1.0485736 -0.99394107 1.3406347 -1.8174309 -0.8267509 -0.10170838
-0.7121487 1.3558488 0.40447527 0.60767245 0.8642149 1.031821 0.14873065 0.7779198
1.6244229 2.2042587 3.7316191 1.6792264 0.5797015 1.5577154 2.2444143 3.9517286
1.7967219 0.5863026 1.490386 2.25524 3.8069704 1.9548819 0.4624925 -1.6956775
-0.6895844 0.7140277 2.2214568 2.809726 1.6744026 -0.3727738 -0.7256933 -0.8592573
1.2833289 0.47722328 1.6673923 0.58334374 0.10173332 -1.1078724 0.72318536 0.8680424
1.1292869 0.14135487 0.654041 0.51991814 0.82409173 -0.38696596 -0.115665905 -0.2662637
-0.26956254 1.5552622 1.2765995 -0.193404 0.3410473 -0.49145478 -1.0349498 0.7541663
0.6937206 -1.0186193 0.8974399 0.49351272 0.27179778 -0.6434837 0.15416129 0.54795706
-2.0937269 -2.2183135 -2.3608034 1.2040957 1.5060767 -1.9439284 -2.1627448 -2.384289
1.1834561 1.5256358 -1.986651 -2.163624 -2.230208 1.2998261 1.4839997 -1.9621415
-1.5543473 -1.0283427 -0.32247028 -2.0579855 -1.701414 -0.2296186 0.25809148 -0.0807121
-0.19909196 -0.6803788 -1.2728232 -1.2303362 0.5296648 -0.6547084 -1.1748599 -1.6824325
-0.13244589 0.7694546 -0.50470614 -0.8787432 -0.4672668 -0.93456453 -0.16252439 -0.72289187
-0.4299442 -0.12061792 0.22370942 0.59968907 -1.2291795 0.23332699 -0.2179433 -1.2615782
0.21571462 -1.1081829 -0.028844038 -0.20695835 0.11656659 0.19253944 -0.8162605 0.10896437
-0.02552674 -0.10885012 -0.2888385 -0.16450831 -0.206798 0.06939423 0.11136812 -0.16309391
-0.057839524 -0.06693298 -0.020669974 0.013604703 -0.15565774 -0.15918998 -0.15599898 0.3995396
0.42807782 0.43227136 0.7218192 -2.42854 -1.7490305 -0.3699392 -0.05091806 -0.26478302
-0.24610609 0.54506403 0.19476518 0.43554616 -1.7918074 -0.77103776 0.8351702 0.32826298
-0.1530376 -0.7428251 0.122632034 -0.082544684 0.30433214 1.2637111 2.1179762 -1.1586094
0.13593681 0.35749373 0.23745757 -0.19498965 0.45464072 0.77734977 -0.19134918 -0.51316506
1.4324331 0.76658416 -0.37164882 -0.0146052 0.7550035 0.13525823 -0.58487165 -0.75176674

convs.1.fc_full.bias f4 [32]
00000000: fa53 0ebe 7d93 163e 4192 853d 0818 debd
00000010: 03e9 e1bd db0d 843d e3d1 3abd 2b47 01be
00000020: 626d 5abe 7b80 89be 7b2a cb3e 5eed 1bbd
00000030: b6dd f3bd 0159 693d c288 003e 8be2 57be
00000040: c013 0b3e 4d09 95be 6de0 34be 0ec3 7f3d
00000050: 4507 f5bd 9a78 17be 73c0 e43e ecc7 833d
00000060: 401f adbe 1dae a0be 3fa0 8d3f 86a6 a93d
00000070: 54e5 9d3d 255c 2d3e fb28 763e b195 353d
-0.13899222 0.147047 0.06522036 -0.10844427 -0.110307716 0.06447955 -0.04561032 -0.12624805
-0.21330789 -0.26855835 0.39680848 -0.038068168 -0.119075224 0.056969646 0.12552169 -0.21082513
0.13581753 -0.29108658 -0.17663737 0.062441878 -0.11964277 -0.147921 0.44678077 0.064346164
-0.33812904 -0.31382838 1.1064528 0.08283715 0.077097565 0.16929682 0.2403907 0.04433221

convs.1.bn1.weight f4 [32]
00000000: d69c a340 29d0 bf40 9911 4d40 1d66 4640
00000010: 0c41 ad40 1cd9 7b40 f436 9640 5435 bb40
00000020: 0e42 e140 fab1 0340 c5d0 6e40 0dd1 1b40
00000030: d3c9 4340 8d5a 0441 b375 1340 1af7 c540
00000040: 0534 963f f5ff bb3f 4e04 0e40 9aca 613f
00000050: e0f9 0f40 d09d d03f 20ef e63f afef ff3f
00000060: 86e0 2f40 8514 1440 93d6 6c3f 7ee8 bb3f
00000070: ada9 b53f 6cdf 9e40 3036 db3f cde7 393f
5.112895 5.99416 3.204199 3.0999825 5.4141903 3.9351263 4.694208 5.85026
7.0393133 2.0577378 3.7314923 2.4346344 3.0591934 8.272107 2.3040588 6.186414
1.1734625 1.4687487 2.2190127 0.8819977 2.2496262 1.629816 1.8041725 1.9995021
2.7480788 2.3137524 0.92514914 1.4680326 1.4192406 4.964773 1.7125912 0.72619325

convs.1.bn1.bias f4 [32]
00000000: 6a17 093d 4f38 39bf 7679 ecbe 2b34 d03e
00000010: bc26 abbf 2466 84bf c266 48bf 435f 93bc
00000020: 12aa 603d ee24 05bf 7e03 f7bc de84 36bf
00000030: 3e55 403f 0da5 0d3f 38c1 7dbf 4de0 763f
00000040: 61e0 a0be fa25 72bf ec7c 033f e5f7 e43e
00000050: ece2 e2bf ae6f 2cc0 3132 05bd 6de5 c3be
00000060: 7f10 98bf 7aff 99bf 20b8 6b3e 8afd edbf
00000070: 9d0e ad3e abde 89bf 6170 c4bf 6ed1 8b3e
0.033469595 -0.72351545 -0.46186417 0.406648 -1.3371196 -1.0343671 -0.78281796 -0.01798976
0.05484969 -0.52009475 -0.030153032 -0.7129649 0.7513007 0.5532997 -0.99122953 0.96436006
-0.31421188 -0.945892 0.5136249 0.4472038 -1.7725501 -2.6943164 -0.03251857 -0.38260975
-1.1880034 -1.203109 0.23019457 -1.8592999 0.33800212 -1.0771078 -1.5346795 0.2730822

convs.1.bn1.running_mean f4 [32]
00000000: 263f d4c0 943d c841 031a 5d40 7031 a1c1
00000010: cab2 c0c0 9eb7 bec0 0e8a 64c2 7801 0142
00000020: f904 0141 6442 05c1 a902 38c0 76a6 13c2
00000030: 5268 d9bf 4584 52c1 0e07 abc0 ca19 f8c1
00000040: b70b 8bc1 56f0 15c1 5d42 51c1 39d3 90c0
00000050: a56c 87c1 6537 f940 1e15 5cc2 6802 b340
00000060: 4d21 bf41 c7c6 94c1 7310 9cc1 c492 a9c1
00000070: 309a 0ac1 0fca 60c0 0968 c3c1 5735 e2c0
-6.6327085 25.030067 3.4547126 -20.14914 -6.021825 -5.959914 -57.13482 32.251434
8.063714 -8.328709 -2.8751624 -36.91256 -1.6984961 -13.157292 -5.344611 -31.012592
-17.38072 -9.371176 -13.078702 -4.525784 -16.92805 7.788012 -55.020622 5.5940437
23.89126 -18.59706 -19.508032 -21.196663 -8.662643 -3.5123327 -24.425798 -7.069011

convs.1.bn1.running_var f4 [32]
00000000: e9f3 4e42 3f34 5642 acbe 0a42 b9dc 1042
00000010: 8818 d341 3c4a 9142 a49a 5741 6f4d 9b41
00000020: d824 3342 5031 2342 cac7 4642 57c7 f041
00000030: 3843 5042 03c9 2442 ba17 1b42 b044 3642
00000040: d700 4842 42a3 2742 f3e9 e841 472e 1d42
00000050: 16bd 0a42 fd89 b241 f8f0 1442 c619 1b42
00000060: a9f3 d441 bdd6 7342 f275 0842 7959 0542
00000070: 29b8 1842 18f5 0842 ec66 4142 27c2 8042
51.738194 53.55102 34.686203 36.21555 26.386978 72.64499 13.475254 19.41281
44.78598 40.798157 49.695107 30.097334 52.065643 41.1963 38.77317 45.567078
50.00082 41.90943 29.114233 39.295193 34.684654 22.317377 37.23532 38.77517
26.618975 60.959705 34.11518 33.337376 38.179844 34.23935 48.35051 64.3792

convs.1.bn2.weight f4 [16]
00000000: 65d3 fe3f e3d1 cb3f abfa b43f 9f9a fc3f
00000010: 9249 d43f 0d77 1f3f 790d f03f 5bcd fd3f
00000020: 07db c93f d933 db3f 08c6 e93f a640 2940
00000030: 12e3 c73f dc86 cc3f 0606 ce3f bc6d 1040
1.9908262 1.5923427 1.4138998 1.9734687 1.6584952 0.6229103 1.8754112 1.9828295
1.5769967 1.7125198 1.8263559 2.6445708 1.5616171 1.5978656 1.6095588 2.2566977

convs.1.bn2.bias f4 [16]
00000000: 611a e53d acec 513d 6a5d 8abf 05fa 153e
00000010: 0246 29bf b237 f6bc 1007 29bf ca86 19bf
00000020: 2ebf d33e 41f9 d8be add5 a13e ac0d 00bf
00000030: 2761 9a3b a104 d2be 6166 1ebf 8c93 83bd
0.11186672 0.0512511 -1.0809758 0.14646156 -0.6612245 -0.030055854 -0.660264 -0.59971297
0.41356796 -0.42377666 0.31608334 -0.5002086 0.0047112885 -0.41019157 -0.6187497 -0.06424627

convs.1.bn2.running_mean f4 [16]
00000000: a918 9a40 acdf 4a40 2cf5 c740 4341 0041
00000010: 95bf 5640 7674 503f 1efd ad40 638a 9940
00000020: 5b25 7840 92ea 3640 8835 e140 070e 0240
00000030: ba7c cc40 9793 4941 28d3 e93f 8a76 9c40
4.8155103 3.1699018 6.248678 8.015933 3.3554432 0.81427705 5.437148 4.798143
3.87728 2.858067 7.0377846 2.0321062 6.3902254 12.598533 1.8267565 4.88947

convs.1.bn2.running_var f4 [16]
00000000: 1257 cb41 990d cb40 3c1e c241 7878 d741
00000010: f09c 5e41 ccea 1340 41d3 0342 35b5 6d41
00000020: eef1 1942 9d6b 0041 216a 1942 aaae 7441
00000030: 8c9a bd41 0515 b043 d141 6540 5a19 fb40
25.417515 6.34541 24.264763 26.933823 13.913315 2.3112059 32.956303 14.85674
38.48626 8.026273 38.35364 15.292643 23.700462 352.1642 3.582142 7.8468447

convs.2.fc_full.weight f4 [32, 56]
00000000: a7c9 7a3f 25ec 7a3f fa9f 6b3e 5c51 55be
00000010: 6dcb da3e e0a2 5a3f 88d0 97bf 72cf f83d
00000020: 20ee 9c3e d50a 623f 0b86 7cbe 6b82 8fbf
00000030: 7511 76bd 17d6 e03d 42fb a8bc db8c 9abf
00000040: ec3d af3e 03eb ef3f 44fb fa3f 0eda 8bbd
00000050: f48d 863f b0a9 d13f 8185 32bf 91aa e63e
00000060: 6c55 323f 24af bf3e 4522 da3c a603 683e
00000070: 86ea dcbd 33f0 c53e 61d2 fabc 8983 70bf
00000080: 2453 3c3f 0a4e 0b3f 6779 ad3e 0ed5 19bf
00000090: bb0e 17bf 3ca8 503f e7f2 383f 1790 b63e
000000a0: 090e 17bf 187e 35bf be2f 273f b704 563f
000000b0: 3ef1 043f 544c 0bbf 5452 13bf de1d b03e
000000c0: 6b70 a53e 50ee 4a3e 352a 1c3f a392 19c0
000000d0: 3943 6dbf 06be 0940 bf12 1040 6e14 e13f
000000e0: dabb 0b3f 346f f2be 67b4 87be 86ff 61bf
000000f0: 379e 80bf 8125 6d3e b27a 19be 36b8 133f
00000100: 7fcd 8fbe 35c5 b43f f34b 503f da4c 56be
00000110: d9ca 523e dea8 1a3f a2e9 8c3f 12ab f7be
00000120: 920a 8ebe 1e43 0d3f ae05 d9bf c449 b3bf
00000130: 2c8c 8ebd a3df 5ebf 5e98 3ebf 7224 28be
00000140: a50c 88be 0d93 2c3e fc93 8b3f fc8d 033f
00000150: 31e2 993f 74ba 93bd 301c 1d3e 46c3 73bf
00000160: abd7 8fbd c95c 05be c433 2dbf ba64 33bf
00000170: 45cf d6be 1104 773d 20b7 7c3c 844f 3cbf
00000180: a4c9 12bf c261 fbbe dcf4 f13d 8139 143e
00000190: 1ecb 2dbf 7529 07bf 15b0 aabe dd88 943d
000001a0: f992 25bf 9a52 cbbf 4620 f3bf d067 7abe
000001b0: 10e4 a6be fb66 98be 0fb8 693e 6a94 1b3f
000001c0: 2824 3c3f b5fb 3e3f af30 89bf 153a 04bd
000001d0: 093f afbe d150 67bb 40c9 9ebe c241 45bf
000001e0: 5a4e 013e da02 f7be 746f dd3d c8b1 de3e
000001f0: 496d 43bf 9d65 12bd 54e6 803e 3f3c 0abf
00000200: 4a02 943e c52f f43d ecd6 f0bf a86e 19be
00000210: beeb 35be 7cfc 903e 3574 233f f288 6bbe
00000220: 4710 a7bf 6090 fb3f b99c 14be b85e 823f
00000230: 4c1d debe 080d adbe 5db0 cc3f d050 803f
00000240: 564c 343f b353 143f 0982 a7bf e73e a2bf
00000250: 3c02 87bf bb93 373f 5344 0b3f 9152 a0bf
00000260: ecf8 94bf a984 8cbf ac6c 593f 3085 f13e
00000270: 8e42 9abf 2299 8abf da5f 6ebf 798a 6d3f
00000280: 3431 0ebe 5ea6 73bf 5b39 eabf acd1 a9bf
00000290: 7e69 03c0 fe1f c1be 0d1a 053f adcb 893f
000002a0: d549 e23e 9351 4b3e ee59 0cbe 5139 233f
000002b0: cee9 443e e89b 59be c322 a93e 5e90 b2be
000002c0: 2ef7 4b3f 1293 093e b831 c1bf 2fe5 b33d
000002d0: 2e03 5abe ba6c 2ec0 3ef7 213f 8766 0fbf
000002e0: bb3b 123e a433 3b3e 7e8c 81bc 4458 6d3d
000002f0: 7a59 043f ce87 cfbe 3810 9ebe 8979 1dbf
00000300: ab6f 263f b9b6 81be efb1 803e 6bcf 53be
00000310: 1e72 223f 2363 76bf 50e0 9d3d ff73 ab3d
00000320: 051b 903f 2931 ae3f ccd7 ec3f 1dbe 30be
00000330: bb36 11bf 2968 7f3f 1a57 a23f ad3f ef3f
00000340: 9649 efbd 8380 fabe 3869 6f3f 0b42 9f3f
00000350: a6ee eb3f 4913 83be 1ca8 f6be bf9d dc3e
00000360: d239 07be 0ced bfbe 79ce 2dbf 43f8 a8bf
00000370: f722 25bf 14af 203f 06fa 453f a8bb 293f
00000380: 7c2b 823c a624 403e 841d 0fbf 1ce3 f13e
00000390: 01b0 e9bf 8e4f 07c0 5ca7 75bf 5ba4 f13e
000003a0: ff6a 95bf ccb5 9dbf 2c8f 9dbf cc37 8e3d
000003b0: 2be6 fabc 1b37 c1bf 871c ec3f 85f6 23be
000003c0: a95c ba3e 059f 65bf 4b15 a93f a0b1 ba3d
000003d0: 1b38 8abe 6518 d8bf 30b1 d23e 3271 57bf
000003e0: 2625 58bf b84b d93e b1da c93e fc14 9d3c
000003f0: 5b51 3b3f c814 fcbe f66b c63f 000b fdbe
0.9796395 0.9801658 0.23010245 -0.20831817 0.42733327 0.8540478 -1.1860514 0.12148942
0.30650425 0.8829778 -0.24660508 -1.1211675 -0.060075242 0.109783344 -0.020627622 -1.2074236
0.3422693 1.8743595 1.960793 -0.068287 1.0512071 1.637991 -0.6973496 0.45052007
0.69661593 0.3743831 0.02662767 0.22657642 -0.10786919 0.3865982 -0.030617895 -0.93950707
0.7356436 0.54415953 0.33881685 -0.6009072 -0.5900685 0.81506705 0.7224564 0.35656807
-0.5900579 -0.7089553 0.65307224 0.83600944 0.51930606 -0.5441334 -0.575475 0.34397787
0.3231233 0.19817472 0.610019 -2.399575 -0.926807 2.152223 2.2511442 1.758436
0.54583514 -0.47350466 -0.26504824 -0.8828052 -1.0048283 0.23158838 -0.14988211 0.5770296
-0.2808647 1.4122683 0.8136589 -0.20927754 0.20585193 0.6041392 1.1008799 -0.48372704
-0.2774244 0.5518054 -1.6954858 -1.4006886 -0.069603294 -0.8705999 -0.74451244 -0.16420153
-0.26572147 0.1685297 1.0904536 0.51388526 1.2022153 -0.072132975 0.15342784 -0.9521984
-0.07023557 -0.13023676 -0.67657113 -0.7007557 -0.4195501 0.060306612 0.01542452 -0.7355883
-0.5733893 -0.4909802 0.11814281 0.14475061 -0.6788806 -0.52797633 -0.33337465 0.07252667
-0.6467739 -1.5884583 -1.8994224 -0.24453664 -0.32595873 -0.29766068 0.22824119 0.60773337
0.7349267 0.74602824 -1.0717982 -0.032281954 -0.3422778 -0.0035295973 -0.31012917 -0.77053463
0.12627545 -0.48244363 0.108122736 0.4349501 -0.7633863 -0.035741437 0.25175726 -0.5399818
0.28907996 0.11923174 -1.8815589 -0.14983618 -0.1776571 0.2831763 0.6384919 -0.23001459
-1.3051842 1.9653435 -0.1451291 1.0185156 -0.43381727 -0.33799005 1.5991322 1.0024662
0.7042898 0.57940215 -1.3086559 -1.2675446 -1.0547557 0.71709794 0.5440113 -1.2525197
-1.1638465 -1.0977985 0.84931445 0.47171926 -1.2051561 -1.0827982 -0.9311501 0.9278942
-0.13885957 -0.9517573 -1.8298753 -1.3267112 -2.0533137 -0.3771972 0.51992875 1.0765282
0.44196954 0.19855337 -0.1370618 0.6375933 0.19229814 -0.2125088 0.33034334 -0.34875768
0.7967404 0.13435009 -1.5093298 0.08783948 -0.21290275 -2.7253861 0.63267887 -0.5601582
0.14280598 0.18281418 -0.015814062 0.057945505 0.5169903 -0.40533298 -0.3087175 -0.6151357
0.6501414 -0.2533472 0.25135753 -0.20684592 0.6345538 -0.9624502 0.077088 0.08371734
1.1258246 1.3608752 1.8503356 -0.17260022 -0.5672414 0.9976831 1.2682831 1.8691307
-0.11683957 -0.48926172 0.93519926 1.244203 1.8432205 -0.2560065 -0.48175132 0.430891
-0.1320565 -0.3748554 -0.6789318 -1.3200763 -0.6450648 0.6276715 0.7733463 0.66301966
0.015889876 0.1876398 -0.5590441 0.47243583 -1.8256837 -2.1142306 -0.95958495 0.47195706
-1.1673278 -1.2321105 -1.2309318 0.06944236 -0.03062733 -1.5094942 1.8446206 -0.16012008
0.3639882 -0.8969577 1.3209623 0.091159105 -0.2699593 -1.6882445 0.41150808 -0.841571
-0.84431684 0.4244058 0.3942466 0.019175045 0.73171014 -0.49234605 1.5501697 -0.49422455

convs.2.fc_full.bias f4 [32]
00000000: 205e 113e b6d4 1a3d afe5 1dbe 59a9 86bd
00000010: 225e 493d 2e7d ab3d e6a4 e23c 68c8 d5bd
00000020: 42e2 5bbd c071 693c 9751 80bd 5284 283e
00000030: 44fd c3bd 9e30 bd3d 4b14 a13d 557f 03be
00000040: d996 4bbd 6da5 9c3d 9881 b0bd 0b6c 80bd
00000050: 8fde 823d 1a53 1cbe 9849 623d 473a 74bd
00000060: d2a1 a6bd 6234 51bc e8c5 86bb 045f b83d
00000070: 72a8 1abd 1ced 763d f4b0 973d 1126 16be
0.14196062 0.037800513 -0.15419649 -0.06575269 0.049162038 0.083734855 0.02766652 -0.10438615
-0.053682573 0.0142483115 -0.06265562 0.16456726 -0.09569791 0.092377886 0.07865199 -0.12841542
-0.049704406 0.0764874 -0.08618468 -0.062706076 0.06390106 -0.15266076 0.055245966 -0.05962589
-0.081363335 -0.012768837 -0.0041129477 0.09002498 -0.0377583 0.06028472 0.07406798 -0.14662959

convs.2.bn1.weight f4 [32]
00000000: 438d a53f 3d49 e33f b53d 9840 4942 b53d
00000010: d0c9 ce3f e75c 8640 8430 3540 0b67 853f
00000020: d41c 36be dd55 1a40 6894 1040 8675 0641
00000030: 1e9f 9140 dd62 b640 2d9d ce3f 2e62 b840
00000040: 5d03 8c3f 194b 0640 3153 8840 003d 163f
00000050: be39 1d40 78b9 a73e fcd6 6340 02bd fc3f
00000060: 5767 603e f008 963f 2ac5 923f ab21 413f
00000070: 4d6f 8b3f b710 0240 e92f f83f 17bf 343f
1.2933735 1.7756726 4.7575326 0.088505335 1.6155338 4.1988406 2.8310862 1.0422071
-0.17784435 2.4114907 2.259058 8.403692 4.5506735 5.6995683 1.6141716 5.761985
1.0938526 2.0983336 4.260155 0.5868683 2.4566493 0.3275869 3.5599966 1.9745181
0.21914421 1.1721478 1.146642 0.75442 1.0893341 2.0322702 1.9389621 0.7060408

convs.2.bn1.bias f4 [32]
00000000: 0f33 a1be 378a 60bf 77bf e1bf 7525 543f
00000010: 4919 9ebf 5684 ea3f a287 f7bf ebf4 b7bf
00000020: 9226 a23e a664 08bf ff9d 81be 517f 983f
00000030: 5576 eabe a2dc 34bf 03eb b4bf 2d6e 123f
00000040: 660b 0ebe 96a3 aebf 1c62 00c0 141c b3bd
00000050: fa54 e7bf 1e7a eb3f 7140 60bf e9f7 debf
00000060: 8d44 17bc 17ef 3fbe 86c3 ccbe c500 ef3e
00000070: 750a a1be 7162 dbbe 1ea0 20bf 67be 4dbe
-0.31484267 -0.877109 -1.7636555 0.82869655 -1.2351466 1.8321636 -1.9338267 -1.4371618
0.31670052 -0.5327858 -0.25315854 1.1913854 -0.45793405 -0.7064916 -1.413422 0.57199365
-0.13871536 -1.3643672 -2.0059881 -0.0874559 -1.8072808 1.8396642 -0.8759833 -1.7419406
-0.009232652 -0.1874355 -0.39992923 0.46680275 -0.3145329 -0.42848542 -0.6274432 -0.20092164

convs.2.bn1.running_mean f4 [32]
00000000: e963 2641 8438 cec0 1738 e4c0 347b a240
00000010: 8dbf b3c1 0463 95c1 52d0 90c1 b3e0 fbc0
00000020: 0dc4 1f40 9272 5cc1 4a28 58c1 af2a e2c1
00000030: 5e66 1e41 3ad5 b941 5378 ecc1 aaf7 4dc0
00000040: 60c2 f940 53c1 cac1 350c 01c2 fd31 5341
00000050: 3015 3dc1 725a 8fc1 af12 fbc1 fdfe 9b3e
00000060: 5a71 eb40 d44d 7fc1 54d1 8cc1 49f2 f2c1
00000070: 7688 f2c0 c06b f741 8c5c d3c0 6f48 4dc1
10.399392 -6.444399 -7.131847 5.0775394 -22.46853 -18.673347 -18.101719 -7.871179
2.496341 -13.777971 -13.509836 -28.270842 9.899992 23.229115 -29.558752 -3.2182412
7.8049774 -25.344397 -32.26192 13.199704 -11.817673 -17.919163 -31.384123 0.30467978
7.357587 -15.956501 -17.602211 -30.368303 -7.579158 30.927612 -6.605047 -12.830184

convs.2.bn1.running_var f4 [32]
00000000: 6c29 0b43 57ee f742 11cc 6742 49c1 b842
00000010: 3fb5 b642 bfcf a742 809b 8e42 7fbf bf42
00000020: af7d c142 47ee 7d42 5cf8 ea42 26ae 8542
00000030: 1529 9542 2e49 8f42 a0ca 4c42 0748 8142
00000040: eb56 fc42 c7ac 9d42 87de 4b42 199d 0043
00000050: f523 c142 e3ed 7f42 9e09 ce42 6d28 8042
00000060: ef41 b842 fe40 1943 bcdf f442 ab65 5842
00000070: e056 c242 1e98 8b42 4823 c342 23f8 9242
139.1618 123.96551 57.949284 92.37751 91.354 83.905754 71.30371 95.874016
96.745476 63.482693 117.48508 66.84013 74.58024 71.64293 51.197876 64.64068
126.16976 78.837456 50.96731 128.61366 96.57023 63.98231 103.01878 64.07896
92.12878 153.25388 122.43698 54.099285 97.16968 69.797104 97.56891 73.48464

convs.2.bn2.weight f4 [16]
00000000: 6d32 9d3f 3f24 e73f 9a82 a73f 4d29 e03f
00000010: 1c82 d63f 7d12 2140 d90d 2440 c11e 843f
00000020: 85d0 b63f 4d97 a33f d132 bd3f 0598 ca3f
00000030: 7549 9d3f d669 da3f 449e 963f 3249 b43f
1.2281014 1.8057936 1.3086731 1.7512604 1.6758456 2.5167534 2.5633452 1.0321885
1.4282385 1.2780548 1.4781133 1.5827643 1.2288042 1.7063549 1.1767049 1.4084837

convs.2.bn2.bias f4 [16]
00000000: ac56 2fbd 7c02 1abf 3c87 91bf 32a1 2abe
00000010: 3df5 a8bf 7838 06be 7d7b 2dbf 25a8 73bf
00000020: e46b 5fbe 69c6 ffbe 4298 af3c 862f b0be
00000030: 72bb c1be 81a6 35be 7ea5 79bf d199 4abe
-0.042807266 -0.6016004 -1.1369395 -0.16663054 -1.3199841 -0.13107479 -0.67766553 -0.95178443
-0.21818501 -0.49956062 0.021434907 -0.34411258 -0.37838322 -0.17739297 -0.97518146 -0.19785239

convs.2.bn2.running_mean f4 [16]
00000000: 8615 9940 0a8d a73f 8551 a440 40c8 ba40
00000010: 4db0 dd3f 8873 8941 9c9b f040 ba90 b23f
00000020: b171 9840 774d 9940 c623 ab40 b3ca c440
00000030: cf50 5e40 c2f9 bc40 7378 2940 2ddf 9840
4.7838774 1.3089917 5.134951 5.8369446 1.7319428 17.181412 7.5189953 1.3950417
4.7638783 4.790706 5.348117 6.1497436 3.4736822 5.905488 2.6479766 4.777243

convs.2.bn2.running_var f4 [16]
00000000: f0b0 9b41 d138 0b40 6d58 4d42 b396 b440
00000010: 3d92 8d40 f541 1142 4d97 6f43 a890 7a40
00000020: b72d 3c3e 7e83 c041 f43f da41 2fb3 bd41
00000030: ea6c 7b41 8642 4b42 f82a 3d41 f6e5 5241
19.461395 2.1753428 51.336353 5.643396 4.4241014 36.31441 239.59102 3.915079
0.18376814 24.064205 27.281227 23.712492 15.71409 50.814964 11.82299 13.181143

convs.3.fc_full.weight f4 [32, 56]
00000000: 8047 983f 1a90 2c3f e73d b7be 6a69 363e
00000010: 1e72 c23d b330 6e3f 562c 36c0 945e 933e
00000020: 4abe df3c 904e 793e 17cd f3bd b6ea eebf
00000030: 8c89 a2bc 5258 a83f ca23 513f 98d3 e6bf
00000040: 0c79 963e 6326 adbe 8418 b73f 2e53 6e3e
00000050: a952 4d3d b155 bb3f 9be6 f9be d791 223e
00000060: 5b81 26be 5acb a1be 64ec c53e ec54 f5bd
00000070: c119 143f 26b5 6b3f d840 f33e 4627 13be
00000080: a505 183f c287 533f 9167 fc3f deba a03e
00000090: 5e6c 37be dbd9 2c3f 075a 633f d537 1240
000000a0: 98c9 723d 6f5c 0cbe db29 f03e d6e3 423f
000000b0: 8b76 1440 eee3 1d3e 098e 57bd 588f a4be
000000c0: 1265 1dbf 8cce 3dbf 5f1b cebe 864a 0fc0
000000d0: 57c2 74be a1bd 2d40 fadd 2b40 1cdd e93f
000000e0: 1ab3 84be 2332 1e3f 9bd6 92bf 629c 413e
000000f0: 0d91 83bf 529d f83f 2b68 2fbf b272 77be
00000100: 7867 b1be 94ea 80bf 40fb 7cbf 5490 f6bf
00000110: 87a8 a2bf 2cc2 c73f 938f 2e3f 5929 edbf
00000120: 74c8 b9bd cd48 4ebe 5f0f be3f d7fb 96be
00000130: 14d0 8a3e 74c1 f9be 4eba 873e d7be 8a3f
00000140: 086e 70be 37c1 33bf 24ff af3e 1d09 a53e
00000150: 3bbd c53e b6b2 2f3f fc86 09be 8a53 d9bd
00000160: 5c04 9cbd 4ca8 48be d812 30bc 2939 8b3d
00000170: c116 7f3e b5b9 5bbe 2619 04be a237 45be
00000180: 30b7 a63d ff24 df3d 5288 81bd bf8f c9bd
00000190: e0da 42be 1ac3 753d 1a98 be3d 44b1 613e
000001a0: e228 b3be 57ea 81bf f2dc f5bf 344a 323f
000001b0: f52b aa3f b2bf 8bbf 6477 d9bf 7261 82bd
000001c0: 1453 093f b5d4 303f af17 75bf 096f c53d
000001d0: 6f8a 0e3f ce28 99be 70d4 eebe ff21 fe3d
000001e0: 8b21 0f3f 9687 483e 7350 c5be c4a7 b93e
000001f0: da23 3f3f 3fe1 bc3d bccb 4140 5814 323e
00000200: 3236 08be f14c a73e 275a 26be 4e0e f3bd
00000210: b945 1e3e 10c3 bd3f 6266 c93e 09e7 5bbf
00000220: c328 d0bd 906f ee3e 5b4d c43d 5186 803d
00000230: 97bc 2f3f 6aa0 1e3e 05cb cb3f fb55 18be
00000240: cd90 cfbf 04d9 f1bf 7d82 15c0 3eef 1c3e
00000250: 90ec 333f d49a bbbf de3a d9bf 79cf 18c0
00000260: 7385 8e3e fbf8 493f aff9 a5bf 244f d4bf
00000270: 0412 09c0 49a0 a13d d1bb 453f 6057 60bf
00000280: 5bca 8fbf e81f b9bf 8b60 96bf 954b 25c0
00000290: 6a39 3bc0 ce67 0bc0 289e 90bf 1a6a 68bc
000002a0: ec8d 5c3e 30ec 1f3f 7811 f13c 8bf0 313f
000002b0: 0580 acbd beb0 fd3d 797f 4abf 849e 833e
000002c0: 1237 ed3e aef8 4cbe afdd 0fc0 106f a8bf
000002d0: b010 46bf 0807 c23f 00d3 693f effb 22bf
000002e0: 9dfc b4bd 8ce7 8c3e 2673 a93f fe39 1fbe
000002f0: a193 273e 86bf e2be b69b 5d3f 6c40 ae3e
00000300: 8080 08bf 68c1 a5be 1590 193e 25fd 10bd
00000310: 1b57 923f 2c74 6d3f 9d4e d5bd f8df 643f
00000320: 670a ed3f 8b4e 1c40 ff92 5a40 8405 a2be
00000330: 4ced 74bf 4911 e53f 82d6 1c40 3118 5e40
00000340: 42eb f1be e499 6fbf e07f eb3f 3c0d 1740
00000350: 3bf2 6640 7f57 b1be f4c7 74bf 5061 1e3f
00000360: 85e0 8b3d 41b3 cabe ed7f 5bbf 5bf9 ccbf
00000370: 6261 04bf a57f 8c3f ae2f 903f 0744 ad3f
00000380: a9a6 01be 1392 61be aab3 813f 9b92 7bbc
00000390: d793 623f 3b5a 82bf 611a 7bbf 3a85 40be
000003a0: d025 28bf 6195 6dbd 631b 42bf e7ab 8e3e
000003b0: dd84 1c3f 10d1 c73d 6268 ae3f 2ef7 8d3f
000003c0: 3f5e 1bbd 4203 a4be d005 eb3f c44d 923e
000003d0: 73ed 323f 440f 7fbf a8da 19bf 26a9 8cbe
000003e0: 2463 4ebf b15a c73d 651a 0dbd fddc 5d3e
000003f0: 94c1 6f3f 6a5f bebe 44e7 853f 8847 7d3f
1.189682 0.6740738 -0.35789415 0.1781365 0.094944224 0.9304306 -2.846456 0.28783095
0.027312417 0.24346375 -0.11904352 -1.8665378 -0.019840978 1.3151953 0.81695235 -1.8033323
0.29389226 -0.3381835 1.4304357 0.23273918 0.05012766 1.4635526 -0.4880875 0.15875946
-0.16260283 -0.31600457 0.38656914 -0.11979088 0.578518 0.92073286 0.4751041 -0.1437045
0.5938361 0.82629025 1.9719106 0.31392568 -0.17912433 0.6751992 0.88809246 2.2846577
0.059274286 -0.13707136 0.46906933 0.761289 2.3197353 0.1541898 -0.05262569 -0.32140613
-0.61482346 -0.7414329 -0.40255257 -2.2389235 -0.2390226 2.714699 2.6854234 1.8270602
-0.25917894 0.6179525 -1.1471742 0.18907312 -1.0278641 1.942301 -0.6851832 -0.24164847
-0.34649253 -1.0071588 -0.9882088 -1.9262795 -1.270768 1.5606132 0.68187827 -1.8528243
-0.090714365 -0.20144959 1.4848441 -0.29489014 0.27111876 -0.48780406 0.26509327 1.083949
-0.23479474 -0.702167 0.34374344 0.32233515 0.38620934 0.68632066 -0.13430399 -0.10611637
-0.07618019 -0.1959545 -0.01074668 0.06798012 0.24911024 -0.2145756 -0.12900218 -0.19259503
0.08140409 0.10895728 -0.06324829 -0.098418705 -0.19028807 0.060000516 0.09306355 0.22040278
-0.3499213 -1.014964 -1.9208052 0.69644475 1.3294665 -1.0917876 -1.698956 -0.063662425
0.5364239 0.69074565 -0.95739263 0.09640319 0.5567998 -0.29913944 -0.46646452 0.12408828
0.5591056 0.19582972 -0.3853794 0.36260808 0.7466408 0.0922265 3.02806 0.17390573
-0.13301924 0.3267589 -0.16245328 -0.11867963 0.15456285 1.4825153 0.39335924 -0.85899407
-0.10164025 0.4656949 0.09585067 0.06275619 0.6864714 0.1549088 1.5921332 -0.14876549
-1.6216065 -1.8894353 -2.3360894 0.15325639 0.7028284 -1.4656625 -1.697109 -2.3876631
0.2783619 0.7889554 -1.2966822 -1.6586652 -2.1417246 0.078919 0.7723971 -0.87633324
-1.1233629 -1.4462862 -1.1748213 -2.5827382 -2.9253793 -2.1782107 -1.1298265 -0.014185453
0.21538514 0.6246977 0.029427275 0.69507664 -0.08422855 0.123872265 -0.7910076 0.25706875
0.46331078 -0.20016739 -2.2479055 -1.3158894 -0.77369213 1.5158396 0.91337585 -0.6366567
-0.08837245 0.27520406 1.3238266 -0.15549466 0.1636491 -0.44286746 0.8656572 0.34033525
-0.53321075 -0.3237412 0.14996369 -0.035397667 1.1432832 0.9275539 -0.10415385 0.8940425
1.85188 2.442294 3.415222 -0.31644833 -0.95674586 1.78959 2.4505925 3.4702265
-0.472498 -0.93594193 1.8398399 2.3601828 3.6085346 -0.34637067 -0.95617604 0.6186724
0.06829933 -0.39589885 -0.85742074 -1.6013597 -0.51711094 1.0976454 1.1264551 1.3536385
-0.12661232 -0.22028379 1.0132954 -0.015354778 0.88506836 -1.0183786 -0.98087126 -0.18800822
-0.656827 -0.058003787 -0.7582304 0.27865526 0.61140233 0.097566724 1.3625605 1.1091058
-0.037931677 -0.32033736 1.8361149 0.28574955 0.6989357 -0.9963267 -0.6009927 -0.274728
-0.80620027 0.09734095 -0.034449 0.21666332 0.9365475 -0.3718217 1.0461202 0.98937273

convs.3.fc_full.bias f4 [32]
00000000: 995c a03d 1924 bebd 3c70 cebd 612f cd3d
00000010: 63f8 ce3d c723 f3bd cee9 12bb e8d1 413d
00000020: 9aa9 913d c8c5 a53d 2b03 3b3c e771 c2bc
00000030: 532c ed3c 35d7 c93d cd56 e9bd c97d 26bc
00000040: 61e5 1f3c 3e1e 30bb f38d cb3d b77f e73a
00000050: 804b dcbc 2dba 97bd 1bb9 d03d ae5c c6bd
00000060: 26a3 f33d b8c5 dcbd 428b 77bb a126 cdbb
00000070: 9ac0 183e e91f b3bd c2d4 bcbd fc76 84be
0.078301616 -0.09284229 -0.10080001 0.100188024 0.1010597 -0.11872058 -0.002241719 0.047319323
0.07112427 0.080943644 0.0114143295 -0.023735953 0.0289518 0.098555006 -0.11393509 -0.010161825
0.009759278 -0.0026873494 0.09939184 0.0017661963 -0.02689147 -0.07408557 0.10191556 -0.09685646
0.118963525 -0.10779899 -0.0037772213 -0.0062607084 0.14917222 -0.08746321 -0.09220268 -0.25872028

convs.3.bn1.weight f4 [32]
00000000: 27fc b83f 40e8 fb3f 6e4f ba3f 1587 2e3f
00000010: 7078 873f e879 0440 f05c 9d40 c1ae e33f
00000020: 1329 9e3d 0d24 0840 fd38 fe3f 8fb8 8e40
00000030: f6d4 9140 7d4e f93e ff03 c63f 5e2c 9e40
00000040: 7ad9 3f3f 1492 2d40 f483 583f 3636 833e
00000050: ab40 803e bc33 0940 7c25 a73f 7708 c93f
00000060: 1373 313e 50b1 993f 1173 883f 8fa7 cf3f
00000070: abf7 1040 66e9 5f40 1e33 3d40 f79e 2d3f
1.4451951 1.9680252 1.455549 0.6817487 1.058363 2.0699406 4.917595 1.7787706
0.07722678 2.1272004 1.9861141 4.460029 4.557246 0.48692694 1.546997 4.942916
0.7494122 2.712041 0.84576344 0.25627297 0.25049338 2.1437826 1.3058314 1.5705708
0.17329054 1.2007236 1.0660115 1.622301 2.2651165 3.4986205 2.956245 0.67820686

convs.3.bn1.bias f4 [32]
00000000: 760e e1be bdd2 72be 7e40 eebf 808f 863d
00000010: 1d78 0ebf e6ff 0cbf 43e4 e5bd 35eb 67c0
00000020: 8b3a 203f 14cb a5be 076a 2ebf 3f80 93bf
00000030: d405 073e 6af2 81bf 26f3 d9bf 9426 20be
00000040: 0c72 7e3e 79ab b8be 7b3a 893f 0a2b 403f
00000050: 553f 8a3f 535a 84bf 43e6 01bf 5ad0 b03f
00000060: 3315 fb3e 75c8 e73e 1c1e 173f 3cde dfbf
00000070: c4c5 a5bf 5812 9cbf d616 073e a4b0 273f
-0.43956345 -0.23713203 -1.8613431 0.06570339 -0.5565203 -0.5507797 -0.11225178 -3.623731
0.6258933 -0.323815 -0.68130535 -1.1523513 0.13185817 -1.0152104 -1.7027328 -0.15639716
0.24848193 -0.36068323 1.0720972 0.7506567 1.0800577 -1.0340065 -0.50741976 1.3813584
0.4903961 0.45270124 0.5903032 -1.7489696 -1.2950978 -1.2193098 0.13192305 0.6550391

convs.3.bn1.running_mean f4 [32]
00000000: b879 3c41 8436 62c1 b651 6ec0 788c 7a41
00000010: 6b75 4040 f01c 10c1 13af 98c1 c92a 6141
00000020: 367e 85c1 5388 d040 a01d 6541 9e52 8241
00000030: 4af5 90c1 daf2 2141 a101 6642 6a44 6e41
00000040: a179 8240 1b87 93c1 e57e e3c1 7362 8ebf
00000050: 1b0a fbc0 a524 71c1 15f4 89c1 33ef 4bc2
00000060: 7d0a 80c1 1d9e 24c0 849f 40c1 2f60 4bc0
00000070: b34c c340 2eb6 dd41 76d0 d03f 466b 33c1
11.7797165 -14.1383095 -3.7237372 15.659294 3.0071666 -9.007065 -19.085485 14.072946
-16.686626 6.516641 14.319733 16.29034 -18.11977 10.12179 57.50159 14.891703
4.0773473 -18.44097 -28.43696 -1.1123794 -7.8449836 -15.071446 -17.24418 -50.983593
-16.005121 -2.5721505 -12.038944 -3.1777456 6.1031127 27.713955 1.6313617 -11.21369

convs.3.bn1.running_var f4 [32]
00000000: b83c c743 3171 1843 41dd 4942 32c4 4c43
00000010: c132 8842 0a67 9242 e180 e042 b0a6 a142
00000020: a750 8d43 7fd7 a042 3395 9042 8e1f 8442
00000030: b20d 9c42 a060 0643 c00e b042 b198 cc42
00000040: f360 8343 d055 0443 1feb 7c43 ca88 7343
00000050: 918a 3a43 94e5 bc42 dbb0 0543 e343 f743
00000060: b6b2 9143 4314 ea42 f332 fa42 48b4 be42
00000070: acc6 8342 1444 9f42 5060 b743 1a5c a742
398.47437 152.44215 50.46607 204.76639 68.09913 73.20125 112.25172 80.82556
282.6301 80.42089 72.291405 66.06163 78.02675 134.37744 88.02881 102.298225
262.75742 132.3352 252.91844 243.53433 186.54128 94.448395 133.69084 494.53036
291.39618 117.03957 125.09951 95.35211 65.88803 79.632965 366.75244 83.679886

convs.3.bn2.weight f4 [16]
00000000: 02fa 653f 1b4d 4340 cadd 7e3f bb04 fa3f
00000010: b8a6 3c3f 8a46 5840 fcba d03f 0b37 9b3f
00000020: cfcb f83f 3714 ba3f 1fc3 e73f 8196 963f
00000030: da67 c93f f5f6 aa3f 604e c73f 37b5 cd3f
0.89834607 3.0515811 0.99557173 1.9532694 0.7369189 3.3793054 1.6307063 1.2126173
1.9437197 1.4537419 1.8106421 1.176468 1.5734818 1.3356615 1.5570793 1.6070927
