cgcnndefect/defect_scratch_all/checkpoint.pth.tar (torch, 208559 bytes, 121 tensors)

embedding.weight f4 [16, 92]
000000 5d c7 c3 bd df 14 65 3d 89 af 6b 3d ab 1a e3 bd
       -0.0955951 0.055928107 0.05754045 -0.11089071
000010 7f 5d bc 3c eb 92 84 3d 23 60 07 bb 72 18 37 3c
       0.022993801 0.06473335 -0.0020656667 0.011175262
000020 27 b8 c9 bc bd b6 0e 3d 93 00 46 be b0 e1 a7 bc
       -0.024623943 0.03484224 -0.19336157 -0.020493358
000030 1d fc cb bd 1e b8 8a bd e4 08 30 bd 9a 1a 7d 3b
       -0.09960196 -0.06773399 -0.04297723 0.0038620592
000040 8f d7 1b 3c ba 1d 80 3d cd c0 90 bd 7f f5 39 bd
       0.009511842 0.0625567 -0.07068024 -0.04540014
000050 7d f5 c9 3b 95 1c 81 3e b4 f1 15 bd 64 08 15 3d
       0.0061632977 0.2521712 -0.03660746 0.036384955
000060 37 23 51 bd 11 bf 34 3c 0e 56 c1 3d ab 06 f9 bd
       -0.051058974 0.011031882 0.09440242 -0.12159475
000070 b7 3e 34 3d c5 d9 99 bd 59 5a 4f be fa 7a b8 3d
       0.044005122 -0.07512239 -0.20249309 0.09007831
000080 05 66 8a bd 54 94 44 bd c0 1a d6 bd 2c f9 c7 bd
       -0.0675774 -0.04799302 -0.10454321 -0.09764323
000090 72 47 79 bd fe 37 6d 3d 4f 8d 3e 3d 17 0a 07 bc
       -0.06085915 0.057914726 0.04652148 -0.008242152
0000a0 bd bf 10 bd 42 ae cc 3d 68 31 98 bc bb 11 db bd
       -0.035339106 0.099941745 -0.018578246 -0.10696741
0000b0 0d 48 9a bd 90 26 5c bd 93 b7 86 3d 1c 66 d2 3d
       -0.07533274 -0.053747714 0.06577983 0.10273382
0000c0 7d 4a 88 bd 1a 40 73 3d 09 e0 d3 3d a4 55 93 3d
       -0.066548325 0.059387304 0.10345466 0.07194069
0000d0 20 ac f6 bc 06 bb a8 ba e7 04 9e 3d 53 99 64 be
       -0.030111372 -0.001287312 0.07715779 -0.22324114
0000e0 db 26 9f 3c d2 8a a5 bd a5 fc 93 bd 9f f0 9b bc
       0.019427707 -0.080831185 -0.072259225 -0.019035636
0000f0 56 4b 12 bc 91 cb 60 3d ed f4 7c bd d5 02 01 3d
       -0.008929094 0.054881636 -0.061757017 0.03149684
000100 e7 23 d1 3c 23 99 57 bc 8a 70 82 3b a9 e4 c5 3c
       0.025529815 -0.013159069 0.003980701 0.024156885
000110 48 76 84 3d fb 04 cd 3d e7 8a a4 bd 0f 7f 1c bd
       0.06467873 0.100107156 -0.08034306 -0.03820711
000120 9b 16 a2 3d 0c e6 fa 3c 72 22 0e 3d 54 66 bc 3d
       0.07914468 0.030627273 0.03470082 0.09199205
000130 2d f9 a9 3c 16 ac b9 bd 4d 9c 1c 3e 06 41 a9 bd
       0.0207487 -0.09066026 0.15293999 -0.08264355
000140 36 af 29 be 1e 0a 0f bb e0 59 a2 3d f0 78 62 be
       -0.16570744 -0.0021826099 0.079272985 -0.22116446
000150 f2 eb b0 3c 66 ce 73 3d df 72 03 3d ab 59 1a be
       0.021596882 0.05952301 0.03209197 -0.15073268
000160 1e ad 26 3e 13 2d 92 bd 5a 8c 1c 3d d2 f4 57 3d
       0.16276976 -0.071375035 0.038219787 0.052723713
000170 0a e4 71 3d 91 ac 1f 3d 54 27 56 bd 3f 77 bc bd
       0.059055366 0.03898293 -0.0522836 -0.09202432
000180 6f 61 a5 3c 15 fd 11 bb 04 90 a6 bd 93 49 90 3c
       0.020188062 -0.0022276093 -0.081329376 0.017613208
000190 2b 37 8a 3d 00 c4 52 3d 41 a6 66 be 2b f5 d6 bc
       0.06748804 0.05145645 -0.22524358 -0.026239952
0001a0 c6 65 cb bd 8d 92 aa bd ce ca a0 bd fa b2 a4 bd
       -0.09931521 -0.083287336 -0.07851182 -0.080419496
0001b0 de 82 33 bc 32 3c 80 3c 82 e2 2e bd fd 64 7d 3d
       -0.010956494 0.015653703 -0.042696483 0.061863888
0001c0 c2 9b 8c bd 7a 6b c7 3d f9 b7 e5 3d 9e dc b4 bd
       -0.06865646 0.097372964 0.112167306 -0.08831142
0001d0 f8 e0 cb bd 05 27 9a 3b 90 38 79 3c df c4 98 bb
       -0.09955019 0.0047043585 0.015211239 -0.0046621407
0001e0 8a 52 d6 3d 71 b2 f0 bc d7 30 6c be c7 11 4a 3d
       0.10464962 -0.029381962 -0.23065506 0.04933336
0001f0 50 d1 cc bd a5 1b 7d bd ad 3f 00 bd 03 04 50 bd
       -0.10000861 -0.061793942 -0.031310726 -0.050785076
000200 58 64 15 bd a8 ad b9 bd b9 ac b5 bc e9 78 61 bd
       -0.03647265 -0.090663254 -0.022177087 -0.05504695
000210 92 3e ed bd 90 fa 09 3e 86 71 e6 3d aa 9f c5 bd
       -0.115842 0.13474488 0.112521216 -0.09649594
000220 a2 e4 3d 3b 38 5c 13 bc 50 d9 ac 3c 4a 47 a4 3d
       0.0028975387 -0.008994155 0.021099716 0.0802141
000230 28 0b d0 3c 11 a8 0c 3d 78 77 99 3d d2 ed 50 bc
       0.025395945 0.034339968 0.0749349 -0.012752013
000240 1d 27 83 bc 4f e0 a3 bd d2 ca 55 3d 85 ca 38 be
       -0.016009862 -0.08001768 0.052195378 -0.18046005
000250 e7 41 54 bd 37 9f a3 bd 6c d2 c7 bd d0 38 33 be
       -0.051820662 -0.07989352 -0.09756932 -0.17502141
000260 79 40 0a bd 38 85 bb 3d bf df 66 3d 9e ec cd bd
       -0.033752892 0.09156269 0.056365725 -0.10054897
000270 ed 07 75 3d 98 14 a7 bd 6c 8f b4 bc eb 26 2d bd
       0.05982201 -0.08158225 -0.022041045 -0.042273443
000280 05 82 a4 bc 00 b1 a7 bc de 99 bf bd 35 5c b8 bd
       -0.02008153 -0.020470142 -0.0935552 -0.09001962
000290 4f 6f 74 bd 2d 39 de bd f7 7e ae bd 5c dd 20 3d
       -0.059676465 -0.10850749 -0.0852031 0.039273605
0002a0 ea 2d c0 bd 81 8e e6 bb c5 02 12 3e da db d4 bd
       -0.093837574 -0.0070360308 0.14258869 -0.10393496
0002b0 0d fb 7b 3d 7d ae b5 3c 3d b1 c0 bd a1 df 71 3d
       0.061518718 0.022177929 -0.094088055 0.05905116
0002c0 82 ac 01 be bc 2a a7 bd 5e ed 49 3e 3a cc df bd
       -0.12663463 -0.08162448 0.19719455 -0.10927625
0002d0 3d c8 59 3e c6 60 dc bd f8 79 98 3d 0e 69 ee 3c
       0.21267791 -0.107606456 0.07445139 0.029102828
0002e0 01 f2 63 3d e7 cf 16 3d 46 4f d9 bd e5 27 18 3e
       0.055650715 0.036819365 -0.10610823 0.14858969
0002f0 33 e0 87 3d 54 33 39 3e 7a 87 a9 3d ce 95 b8 3d
       0.066345595 0.18085986 0.08277793 0.09012948
000300 47 97 37 be 78 3b 94 bd 4f 3b a1 be d0 13 6b bd
       -0.17928801 -0.07237905 -0.3149056 -0.05739194
000310 4c d6 78 bd ba c9 6b bd 2f 7a 7e bd 79 11 15 bb
       -0.060751244 -0.05756543 -0.062128242 -0.002274601
000320 1b ee 17 3d 9d a3 89 3d 32 67 a1 bd 4f 95 92 bd
       0.03709231 0.0672066 -0.07881011 -0.071573846
000330 26 ff e3 bc f4 9b db 3d 00 04 80 bc da a3 36 3e
       -0.027831625 0.10723105 -0.015626907 0.17835942
000340 05 34 92 bd d6 4b 58 3c bb 72 4b ba 8a 77 08 bd
       -0.07138828 0.013201674 -0.00077609316 -0.033317126
000350 ea f8 48 3e a7 7d da bd 19 f5 77 be b4 f2 59 3c
       0.19626203 -0.106684975 -0.24214591 0.013302494
000360 f5 03 a7 bd e3 d2 5f bd a5 65 ef 3d cb 47 ad bd
       -0.081550516 -0.054644477 0.11689309 -0.08460959
000370 be 4f f5 bb 27 1a 0b 3e 03 43 1a 3d 0b cf 1f be
       -0.0074863127 0.13584195 0.037661564 -0.15606324
000380 65 ee d6 bc b0 e0 31 bd 95 64 67 3c fa fd 03 be
       -0.026236722 -0.04342717 0.014123102 -0.12889853
000390 2f 47 0f bd 99 f4 7c bc 50 79 95 3a 87 ca 4b 3d
       -0.034979995 -0.015439176 0.0011403952 0.049753692
0003a0 c1 20 21 bc 32 8a 7b 3e cc a8 40 3e 57 03 08 bd
       -0.009834469 0.24564436 0.18814391 -0.03320631
0003b0 ec 40 86 3d c5 c0 37 be aa 3f f8 bd 8b ce 57 be
       0.065553516 -0.1794463 -0.12121518 -0.21074884
0003c0 21 01 0d 3d 11 30 a0 3d 5c 78 09 bd ed ee 5e be
       0.034424905 0.07821668 -0.03356205 -0.2177083
0003d0 4d ab ef 3d eb 7e a9 bd b3 5e 9a 3d 3e 90 b0 bd
       0.11702595 -0.08276161 0.07537594 -0.08621262
0003e0 d7 d9 0b 3d 03 35 91 bc bb e8 60 bd 99 c4 61 3c
       0.034143295 -0.017725473 -0.05490945 0.013779783
0003f0 0a 90 b0 3d ae a9 f9 bc 97 87 7d bd 60 ef 1d bd
       0.08621223 -0.030476417 -0.061896887 -0.038558364

embedding.bias f4 [16]
000000 87 54 b7 3b cf a7 5c be 95 ee 2d 3c d3 34 cb 3d
       0.0055947932 -0.21548389 0.010615964 0.09922185
000010 41 0a b0 be ee ab 0a bd f6 31 3a 3d 40 d5 57 bc
       -0.34382823 -0.03385537 0.045457803 -0.013173401
000020 e6 f1 5d 3b 55 a4 39 3d 9f b4 63 bc 21 9d 89 bd
       0.0033866107 0.045322735 -0.013898044 -0.06719423
000030 3d c0 2d 3e 63 0e 8e bc fc 2a 1c 3c 73 f2 95 3c
       0.16967864 -0.017340844 0.009531733 0.018304085

convs.0.fc_full.weight f4 [32, 56]
000000 d3 8b 84 3d 4a d9 60 bc 91 5a 38 3d 20 8e e9 3b
       0.06471982 -0.013723681 0.045008246 0.0071275383
000010 5d 0c 08 3e 41 77 82 bd 0e 48 9a bd ee 5c 67 3d
       0.13285966 -0.06370402 -0.075332746 0.05648511
000020 b8 8d 81 bd 10 42 f0 bd 4e 41 12 3e 9a 58 65 3d
       -0.06325859 -0.117313504 0.14282724 0.0559927
000030 f1 d3 08 3d 25 04 32 be 9a b4 70 bc ee c1 c8 bc
       0.033405248 -0.17384394 -0.014691496 -0.024506535
000040 19 0a d3 be d3 ee b3 3d 0e af 56 bb 6d 39 56 3e
       -0.4121864 0.087857865 -0.003275815 0.20920344
000050 07 ae 30 be 8b 4d 26 3d 80 d4 69 be 5d eb a7 3d
       -0.17253886 0.040601294 -0.22834969 0.08199189
000060 5f 89 a1 3d 0a a3 68 be bb fe fe bd 3d 0b 12 be
       0.078875296 -0.22718444 -0.1245093 -0.142621
000070 05 e2 60 3c 63 79 61 3c 55 4a 50 bd f7 8a d2 be
       0.013725762 0.013761851 -0.05085214 -0.41121647
000080 68 b2 44 3e c1 a0 64 3e 88 77 d1 3d 48 97 7b bd
       0.19208682 0.22326948 0.10227877 -0.06142357
000090 37 5a 34 3d bf 64 56 3e 8f d3 c2 3c e6 d8 da 3d
       0.044031348 0.20936869 0.02378252 0.10685901
0000a0 1a 02 c9 bc 92 62 c4 bd be b0 4d 3e df dc fe 3d
       -0.024537135 -0.09589113 0.20086953 0.124444716
0000b0 75 86 7f 3e db 35 76 bc e5 82 8e bd c7 a4 fa bd
       0.24953635 -0.015027489 -0.0695856 -0.1223846
0000c0 cb 87 9f bc 95 1d 35 3e e3 f0 98 3e 2a 65 9b bb
       -0.01947393 0.17687066 0.29871282 -0.0047422843
0000d0 ab da 05 3e e2 d8 99 3e d7 5f 0c 3f 65 24 5b 3f
       0.13071696 0.3004828 0.5483374 0.8560241
0000e0 f6 65 68 3d 54 f9 1a 3e 9c 57 54 3e d5 a8 0c 3e
       0.056737863 0.15134174 0.20736545 0.1373628
0000f0 a2 45 4a be 43 80 12 3e 7f c4 e5 bc 73 c8 7d 3e
       -0.19753125 0.1430674 -0.028047798 0.24783497
000100 0b 7d 2d 3d 08 52 0c 3e ac 8b a9 3b cc 16 9b bd
       0.04235558 0.13703167 0.005174121 -0.075727075
000110 54 e2 01 be 73 d5 3f 3e 69 d5 3c be e0 40 17 be
       -0.12683994 0.18733768 -0.18440785 -0.14770842
000120 b8 d1 b7 3c d5 8b 14 3e 3c a5 be bd 1d ab 9c bd
       0.022438869 0.14506467 -0.0930886 -0.07649825
000130 c7 fa f3 3d 5e 5c 0a be d3 15 a6 bd a9 3b ff bd
       0.11913066 -0.13511798 -0.081096314 -0.12462551
000140 eb 04 5b 3d 65 42 a6 3d 22 9d 26 be 85 b6 01 be
       0.053471487 0.081181325 -0.16270879 -0.12667282
000150 fb b0 4f 3e 43 df e2 bd 55 59 2a 3d 10 3d fc bc
       0.20282356 -0.1107774 0.0415891 -0.030790836
000160 06 0f 29 3e 0e 67 9a 3d b3 6c ff 3e b0 2b a7 3d
       0.16509637 0.07539187 0.49887618 0.081626296
000170 76 3e 14 bd 75 7b fb 3d 86 fe 69 3d 6b 3a 0c 3f
       -0.03619238 0.12279407 0.057127498 0.5477664
000180 56 f2 94 3d 2f 3e 59 bd 5c f2 ad bc be 85 55 3e
       0.072727844 -0.05303782 -0.02123373 0.208518
000190 5a 8f 13 3f 4f 58 9f bb 8d f1 8a 3c a5 dd 3d bd
       0.5764061 -0.004862822 0.016960884 -0.046353955
0001a0 59 64 42 be c1 2d c5 bd b3 34 7d 3e 23 89 12 3a
       -0.18983592 -0.096278675 0.24727134 0.0005589893
0001b0 2a 54 ff bd ba 2f cf be 62 71 9a be 4d 0a ac be
       -0.12467225 -0.404661 -0.3016463 -0.3360161
0001c0 26 e1 9b bd e2 dc 3f bc 11 20 a3 3d 73 fc 2c 3c
       -0.07611303 -0.011710377 0.079651006 0.010558235
0001d0 51 cb 31 be fd 5f f1 ba 59 9e fa 3c 82 d3 26 bd
       -0.17362715 -0.0018415448 0.030593084 -0.040729053
0001e0 f0 ea 82 bd a1 fe 32 3d 27 db db bc 0c c4 14 bc
       -0.06392467 0.043699864 -0.026837898 -0.009079944
0001f0 02 c1 ab bb f0 dc 6a 3d fa 77 38 be 89 75 b7 3c
       -0.005241514 0.05733961 -0.18014517 0.022394912
000200 1b ea 80 3e d1 53 59 3c a9 be 11 3c fb 1b 2b be
       0.25178608 0.013264612 0.008895555 -0.16709892
000210 63 b5 fc bc 22 c0 91 bd e4 34 d0 bc 6a 9e 8f 3e
       -0.03084821 -0.071167246 -0.025415845 0.28050548
000220 64 77 d2 3d 33 62 3d 3e 11 4a 30 3e 8e 3a 85 3d
       0.10276678 0.18494491 0.17215754 0.06505309
000230 3b 33 35 be 04 ac b5 3c 2e eb 6e be 65 b1 b4 3d
       -0.17695324 0.02217675 -0.23331901 0.08822898
000240 44 6f bf 3e e4 3d 74 3e 69 a7 b6 be 06 84 cd be
       0.37389576 0.23851734 -0.356746 -0.40139788
000250 9d aa 63 be c6 28 c7 3e fd 9f ae 3e 7a f7 7a be
       -0.22233053 0.38898295 0.34106436 -0.24508467
000260 01 16 51 be 07 e7 d4 be 0e 1c 3a 3e 4d f9 db 3d
       -0.2041855 -0.4158251 0.18174765 0.1074091
000270 7c f3 20 be 8d c4 96 be bf c2 b3 be f3 3c 18 3e
       -0.15717882 -0.2944683 -0.35109517 0.14867
000280 c5 bf 4b bd 39 0a 16 be cf 4b 79 bc e7 49 c8 3c
       -0.049743433 -0.14652337 -0.015215828 0.024449302
000290 df 1b cc bd 5c e1 74 bd 5f a6 0a 3e a0 e9 ae 3e
       -0.099662535 -0.059785232 0.13540028 0.34162617
0002a0 5d 74 94 bb 6f af 5f bd 0b 97 60 3e b7 df c4 3d
       -0.004530473 -0.054610666 0.21932618 0.09612983
0002b0 ab 1c 35 be 91 06 b6 bd f4 70 d6 3c d4 b3 96 3d
       -0.17686717 -0.08887971 0.026176907 0.07358518
0002c0 f4 34 09 3c 23 5e b4 3d f3 14 ac bd 94 aa cf 3d
       0.008374441 0.08807018 -0.08402433 0.10139957
0002d0 23 75 ce 3d 9d 57 b6 3d 19 b3 90 3d 32 67 a0 3b
       0.10080936 0.0890343 0.0706541 0.0048951143
0002e0 50 56 44 be d5 fb f1 3d 63 88 9b 3d 55 85 f6 3d
       -0.1917355 0.11815611 0.07594373 0.1203715
0002f0 b7 2f 14 3d e0 ea 53 bc cb bc 78 be d3 7c 27 be
       0.036178317 -0.0129344165 -0.24290769 -0.1635621
000300 21 00 c2 bd d7 6c 50 3c f7 ae 2a be b1 da e5 bd
       -0.09472681 0.012721262 -0.16668306 -0.11223353
000310 21 2a 0b 3e 45 d5 05 3d 73 7e 4a 3b 1e 1d d0 bd
       0.1359029 0.032674093 0.0030898124 -0.10161804
000320 67 97 4a 3c 94 11 d7 3d 09 21 21 be cb 20 44 be
       0.012365199 0.105014 -0.15735258 -0.19153135
000330 ab 34 e3 bd 52 08 2d 3d 62 70 16 3e 6d 5f fa bd
       -0.1109403 0.042244263 0.14691308 -0.12225232
000340 93 55 1e be 86 b4 25 bd c0 54 3a bc 0b 4d ea 3c
       -0.15462331 -0.040455364 -0.011372745 0.02860119
000350 3c 20 64 be e9 73 98 be 8d 19 b7 bd 4a f7 f8 bd
       -0.22277921 -0.29775932 -0.0894042 -0.12156542
000360 06 3e af be 1b 2b a7 be cc 38 d7 bc 68 e4 c8 bd
       -0.34227008 -0.32650074 -0.0262722 -0.0980919
000370 d5 ad 40 be 54 0e 11 bf 2e 26 c9 be 21 8d d3 bd
       -0.18816312 -0.5666249 -0.3928694 -0.103296526
000380 62 e6 c4 bb 96 fb a1 3c cc 94 f3 3d 0c 50 b9 bd
       -0.006008909 0.019773286 0.11893615 -0.09048471
000390 0e 2e 2f 3e f1 61 f2 3c 45 83 7f 3d 3d 80 64 3d
       0.17107412 0.029587718 0.062381048 0.05578636
0003a0 9f 1c ab 3d 16 6d 0e 3d e0 f8 68 3d 8e e0 c2 bd
       0.083550684 0.034772 0.05687797 -0.09515487
0003b0 4c a7 86 bd e6 46 be 3d dd c5 f0 3d 0c a4 9c bd
       -0.06574878 0.092908666 0.117564894 -0.07648477
0003c0 7d e8 e2 bd 37 ac 0a be 1e d2 99 3a 5d f6 da 3e
       -0.110795 -0.13542257 0.0011735593 0.42766085
0003d0 7f d9 05 bd 07 93 9e 3e 84 9a b5 3d 8a 7e bb bc
       -0.032678124 0.30971548 0.08867362 -0.022887487
0003e0 fb c8 c2 bd 6d 37 c1 bd 22 21 35 be c4 a8 0f 3e
       -0.0951099 -0.094344 -0.1768842 0.14029223
0003f0 28 26 87 3d d6 36 83 3e 66 85 9a 3e 56 3e af be
       0.065990746 0.25627774 0.301799 -0.34227246

convs.0.fc_full.bias f4 [32]
000000 2f 9b 1a bd 46 01 75 3e 1f a8 9e 3d d1 b3 c8 3d
       -0.03774565 0.23926267 0.0774691 0.09799922
000010 d3 72 cb bd dd 3d cb b9 23 1a 17 3e d0 51 a1 bc
       -0.0993401 -0.0003876527 0.14756064 -0.019692332
000020 b1 48 3e bd b7 ab ea bc 7e a4 30 3e 19 18 9d 3e
       -0.046456043 -0.028646333 0.17250249 0.30682448
000030 00 6f 1e 3e fc 12 60 bb 17 2f 0b 3e b5 f0 0d 3e
       0.1547203 -0.0034191003 0.13592182 0.13861354
000040 34 5c 18 be 97 3f df 3c 36 ca 13 bd f6 30 68 3d
       -0.14878923 0.027252002 -0.036081515 0.056687318
000050 6d 30 2d bd e7 81 f2 3b e5 33 d9 bd 5c a5 79 3d
       -0.04228251 0.0074007395 -0.10605601 0.060948715
000060 e0 f3 06 3e 06 31 f7 3c fb e2 82 bd ed 9c 10 bd
       0.13178968 0.030174743 -0.06390949 -0.035305906
000070 da fe 13 3e 3d f7 8e 3d c3 62 14 bd 4d 03 6a bd
       0.14452687 0.06980751 -0.036227 -0.057132054

convs.0.bn1.weight f4 [32]
000000 f1 5a be 3f be c4 b0 3f 31 5a ae 3f cf 17 95 3f
       1.4871503 1.3810041 1.3621274 1.1647891
000010 29 49 a1 3f bd 35 8f 3f ef d3 8b 3f 91 43 a5 3f
       1.2600452 1.1188275 1.0924052 1.2911245
000020 2b e5 75 3f da f5 00 40 09 a4 86 3f 57 a3 8b 3f
       0.9605281 2.0150056 1.051881 1.0909222
000030 51 50 ac 3f d3 07 9e 3f a2 53 a8 3f 2a 14 8b 3f
       1.3462011 1.2346138 1.3150523 1.0865529
000040 3d 61 82 3f a6 82 9d 3f 31 a2 8e 3f c4 aa 88 3f
       1.0185925 1.2305496 1.1143247 1.0677114
000050 c5 54 82 3f 99 3b 9e 3f 22 da 8e 3f 53 77 6b 3f
       1.018212 1.2361938 1.1160319 0.9197895
000060 bf 8b a2 3f 7a 69 84 3f d1 30 8d 3f 84 8b 90 3f
       1.2698897 1.0344689 1.1030523 1.1292577
000070 e2 a6 7d 3f dd 6d 88 3f 6d b0 9b 3f 3e 46 80 3f
       0.9908277 1.0658528 1.2163216 1.0021436

convs.0.bn1.bias f4 [32]
000000 f5 32 3b 3c 4a a6 c1 3c d6 4e 94 bd 61 57 e3 3d
       0.011425723 0.023638863 -0.07241599 0.111006506
000010 78 0c 65 bd 2e 59 94 3d da 87 e0 bb 4b 55 e0 3b
       -0.055920094 0.07243572 -0.0068521323 0.006846105
000020 f5 5d 5f be 37 bf e7 bb 7a 90 e1 bd 23 6e 24 3e
       -0.21813186 -0.007072355 -0.11013885 0.16057639
000030 0c 90 58 3e e8 e3 ea bd 80 99 d4 3c 5a 9d 0b 3e
       0.211487 -0.11469251 0.0259521 0.13634244
000040 29 58 ea 3d 1f 7d 17 be 05 eb 1c be a7 18 b6 3d
       0.114425965 -0.14793824 -0.15324028 0.08891421
000050 13 a3 d6 bd 11 2a df 3c d2 ae 09 3c 1b d9 c1 3d
       -0.10480323 0.027241739 0.008403497 0.09465238
000060 38 c6 a3 be 0c a2 15 be e0 89 47 be f9 a5 1c bd
       -0.31987166 -0.14612597 -0.19486189 -0.03824422
000070 31 9b 5c bc fa 21 e3 bc 9d d7 9d be 74 84 0c 3e
       -0.013464735 -0.027726162 -0.30828562 0.13722402

convs.0.bn1.running_mean f4 [32]
000000 5f eb 2a 3f 45 75 0f 40 f5 fc 33 bf 60 2a 99 bf
       0.667654 2.2415326 -0.70307857 -1.1966057
000010 44 3b 4f bf c3 34 9d 3f 69 65 30 40 63 90 87 3f
       -0.8094981 1.2281727 2.7561896 1.0590938
000020 a4 42 8a c0 3b 67 a7 3f 08 bf 81 bf 7e 90 d7 bf
       -4.320635 1.3078378 -1.0136423 -1.684097
000030 bf ef 24 3f a8 94 77 3e e8 c9 bc 3e cc d4 b6 3f
       0.64428324 0.24177802 0.36872792 1.428369
000040 e3 01 1f 3e c6 7c 65 3f 3f c4 ad bf 1a 25 b5 bf
       0.15528063 0.89643514 -1.3575515 -1.4151947
000050 f2 50 ee 3f b5 fb 1b 3f e9 6d ee 3f 2f dc d4 bc
       1.8618453 0.6093095 1.8627292 -0.025983898
000060 64 fb 7c c0 ec aa 3a 3f a6 52 1d bf ea 95 c8 bf
       -3.9528437 0.72917056 -0.61454237 -1.567075
000070 48 f5 92 3e 94 6b da bf 91 00 7a bf c6 4b 08 bf
       0.2870276 -1.706408 -0.97657114 -0.5324062

convs.0.bn1.running_var f4 [32]
000000 15 c2 cc 3e 52 73 a4 3d 50 85 1e 3e 73 72 05 3e
       0.39991823 0.08029808 0.15480542 0.1303194
000010 f0 1a c3 3e 0c c8 50 3e 9b fc cf 3d 4c 5d f9 3d
       0.3810649 0.20388812 0.101556025 0.12175998
000020 ce 0c b0 3d d2 94 9a 3d a4 f9 84 3d dc 3f 90 3d
       0.08596192 0.075479165 0.06492928 0.0704343
000030 f1 29 e1 3e 8a 26 b9 3d a7 f3 a9 3d df 72 7b 3e
       0.4397731 0.09040554 0.08298426 0.24555539
000040 f6 8d 80 3e 44 24 dc 3d 88 4f 01 3e 4a dc fe 3d
       0.25108308 0.107491046 0.12627995 0.124443606
000050 28 12 08 3e 40 5f ad 3e da 29 2e 3e 4c ba 08 3e
       0.13288176 0.33861732 0.17008153 0.13352317
000060 a1 d0 1e 3e c8 ad 70 3e fe 56 e8 3d ae 03 8c 3e
       0.15509273 0.23503792 0.113447174 0.27346557
000070 0f ed a5 3e fc a9 e7 3d 06 d6 a1 3e cd 1c 27 3e
       0.32407424 0.11311719 0.316086 0.1631958

convs.0.bn2.weight f4 [16]
000000 2b c3 85 3f 1e b3 42 3f 1d 90 87 3f 04 ea 98 3f
       1.0450186 0.7605456 1.0590855 1.1946416
000010 55 d5 7d 3f db 6c 82 3f d6 ec 80 3f 23 9b 7f 3f
       0.99153644 1.018947 1.0072277 0.99846095
000020 aa c1 78 3f 90 11 91 3f b7 46 89 3f 02 13 91 3f
       0.9717051 1.1333485 1.0724705 1.1333926
000030 6f 4e 87 3f 72 55 8e 3f e0 9b 8f 3f a2 a4 7f 3f
       1.0570811 1.1119826 1.1219444 0.99860585

convs.0.bn2.bias f4 [16]
000000 4d ae c9 bd 2e 42 9f be 9b 40 84 3d 98 72 40 3e
       -0.09847698 -0.3110518 0.06457635 0.18793714
000010 68 db 7f be cf ec 85 3c f8 df 2c bd 32 61 45 bd
       -0.2498604 0.01634827 -0.04220578 -0.048188396
000020 ae 14 c7 bd 53 e2 02 bd b2 69 7c bc a0 f6 28 bb
       -0.09720741 -0.03195412 -0.015406059 -0.0025781766
000030 0a 00 8b 3d e0 cb ce bd 9a d4 11 bd 31 1f 9a 3d
       0.06787117 -0.1009748 -0.035603143 0.075254805

convs.0.bn2.running_mean f4 [16]
000000 e2 5a d1 40 8b 25 97 40 ce ba ae 40 26 9c 9d 40
       6.542344 4.723333 5.4603033 4.925311
000010 a7 6f aa 40 f0 dd 9a 40 72 21 bc 40 76 93 be 40
       5.3261294 4.839592 5.8790827 5.9555006
000020 db 92 a2 40 bc 12 a7 40 98 56 99 40 f0 88 7e 40
       5.0804267 5.221037 4.7918205 3.977108
000030 e4 dc d1 40 a4 0b 9b 40 79 c9 81 40 5f a4 a3 40
       6.558214 4.845171 4.055844 5.113815

convs.0.bn2.running_var f4 [16]
000000 e6 55 39 40 34 fd 8e 41 b1 20 38 41 29 13 ca 40
       2.8958678 17.873634 11.507981 6.314839
000010 c7 27 cf 40 fc cb 3d 40 06 82 bf 41 b4 b9 0a 41
       6.4736056 2.9655752 23.938488 8.670338
000020 74 60 79 41 66 30 4b 41 92 b0 80 41 ab ac 0f 40
       15.586048 12.699316 16.086216 2.2449138
000030 fa bc 4b 40 87 d6 a8 41 9b c6 79 40 6a 58 07 40
       3.1834092 21.10475 3.902747 2.1147714

convs.1.fc_full.weight f4 [32, 56]
000000 a7 41 04 3e f4 b5 95 3e 0d 63 de 3c c8 52 bf bd
       0.1291567 0.29240382 0.02714684 -0.09341961
000010 52 0a 40 3d 93 0c d3 bc 55 50 a0 3d 36 70 0c bd
       0.046884842 -0.025762832 0.07827822 -0.0342867
000020 9d 46 cf bc e9 0c 1f be e4 83 40 3d 80 d9 1d 3e
       -0.025302226 -0.15532269 0.04700078 0.15415001
000030 b8 63 1b 3d cb 0c 18 be 50 40 0c 3e 9d 5b 3c bd
       0.037936896 -0.1484863 0.13696408 -0.045985807
000040 43 37 a2 be ae 9e 04 be f9 db 85 bd 0b 2f 53 3e
       -0.31682786 -0.12951156 -0.06536097 0.20623414
000050 98 18 10 be f5 e8 82 be 9c 83 51 bd 10 06 0e 3e
       -0.14071882 -0.25568357 -0.051150903 0.138695
000060 fe 42 fa bc 72 0f 2d be ed 83 a5 3d 0a 1c 07 be
       -0.030549522 -0.16900423 0.080818035 -0.1319429
000070 10 93 35 3e f3 bb 1c bd 5d c6 96 bd 93 cf 60 be
       0.17731881 -0.03826518 -0.073620535 -0.21954183
000080 32 bc 41 be cc 37 4d bd e3 6f 95 3d d3 74 0d 3e
       -0.18919447 -0.05010204 0.07296731 0.13814096
000090 87 37 43 bd 9c a8 27 bd e9 f1 93 bd ae 65 02 3e
       -0.047660377 -0.040932283 -0.07223875 0.127341
0000a0 57 0a 40 3a 2a 4c d7 3d c0 30 c6 bb e9 b3 a5 3c
       0.00073257595 0.10512574 -0.006048292 0.02022739
0000b0 76 46 3e 3a 4d 24 cd 3d e7 f7 12 3d 7e 63 3d 3e
       0.00072584243 0.100166894 0.03588095 0.18494985
0000c0 0d 11 89 3e 82 ab d0 3c 45 e4 a0 bd ec 15 ac bd
       0.2677082 0.025472406 -0.07856039 -0.08402619
0000d0 1b 5b 80 bd b9 a9 ac be 40 54 ba be 82 7a eb be
       -0.06267377 -0.33723238 -0.36392403 -0.45991904
0000e0 6f 52 cd bc e0 d0 8c be 21 88 1c 3d ed c1 82 bd
       -0.025063721 -0.2750311 0.03821576 -0.06384645
0000f0 46 83 97 bc ef 48 25 be 47 9a c6 bd d3 56 f2 bd
       -0.018495213 -0.16141103 -0.09697395 -0.11832967
000100 a8 ad d6 bd 40 90 43 3e c9 a3 47 be 49 59 ce 3b
       -0.10482341 0.19097996 -0.19496073 0.0062972647
000110 d5 b7 b1 3c f2 d8 04 3e ab 0a 36 3d a6 41 f5 bc
       0.021694103 0.12973383 0.044443768 -0.02993853
000120 6b 46 70 bc 3f 57 6a 3e 3e 70 0f be dd 1d a0 bc
       -0.014665226 0.22884844 -0.14007661 -0.01954549
000130 65 a3 42 3e 6a f6 b4 3e e7 4a a6 be ac 24 34 3d
       0.19007643 0.3534425 -0.3247902 0.043980286
000140 ba f9 3c bd 1f 28 66 bc 44 d2 75 bd ca 25 8a bc
       -0.046136595 -0.014047652 -0.060014978 -0.016863722
000150 c1 b4 77 3c 68 f7 32 3d e9 76 4e bc 5a 5b 85 3d
       0.015118779 0.043692976 -0.012601593 0.065115646
000160 e6 a4 87 3e 34 c5 cf 3d 38 2f 8c be 75 9a c6 be
       0.26492995 0.101450354 -0.27379775 -0.38789716
000170 56 ad 7e be cc 44 a2 3e b0 c9 5a 3e bf 88 27 bd
       -0.2487081 0.31693113 0.21366 -0.040901896
000180 ce 03 8e be 65 dd 65 be 29 a9 ba 3e e3 46 98 3e
       -0.27737278 -0.22447737 0.36457184 0.29741582
000190 ff c7 26 be 8a f0 fa bd 72 b3 a8 be e1 07 69 3e
       -0.1628723 -0.122529104 -0.32949406 0.22756912
0001a0 0e df 35 3e 09 a1 b5 bd fc 78 34 be d6 1b 2f 3d
       0.1776087 -0.08868606 -0.17624277 0.042751156
0001b0 77 43 49 bd 6e d2 0e bd 39 37 76 be e6 48 28 bf
       -0.049136605 -0.03486865 -0.24044503 -0.65736234
0001c0 4c 8c 52 3e 71 84 ba bd d4 25 aa 3d cf fb 87 3e
       0.20561332 -0.091072924 0.083079964 0.26559302
0001d0 fe 5d 4f 3d d6 78 04 3b c9 d3 3b be 6b 12 8a 3c
       0.050626747 0.0020213625 -0.18342508 0.016854485
0001e0 bf 21 88 bd a4 ef a0 3d 0b 06 a6 3d 9a 01 be 3b
       -0.066470616 0.07858208 0.08106621 0.0057985308
0001f0 9b 40 71 3e eb 10 e9 bd 31 f5 f2 bd 5a 12 2f be
       0.23559801 -0.1138018 -0.11863173 -0.17096844
000200 a2 d4 23 3e 34 b8 21 3e 25 4d a3 bc 04 15 1d bd
       0.15999082 0.15792924 -0.019934246 -0.03835012
000210 cc 6c b2 bd 02 47 68 3d b2 46 97 ba 20 bb ef 3d
       -0.087121576 0.056708343 -0.0011541455 0.11705613
000220 e5 38 1d be 5c 27 16 bb a8 4e 48 be aa 28 fc be
       -0.15353735 -0.0022911644 -0.19561255 -0.49249774
000230 39 8a 92 3d 0f 74 8d 3c 8e 7c a1 3d 7a 94 e8 3d
       0.0715527 0.017267255 0.07885085 0.11356445
000240 cd c7 42 3d 47 bc 10 3e d6 b5 f3 3d ed 7a 9c bd
       0.047553826 0.14134322 0.11899917 -0.07640634
000250 81 68 27 be da 47 13 3e d6 68 19 3e fc 80 4c 3d
       -0.16348459 0.14382878 0.14981398 0.049927697
000260 6f 86 c0 bd b7 88 0f be 54 f7 4e 3d 5c 53 d1 3d
       -0.09400641 -0.14016996 0.05052884 0.10220978
000270 88 37 1f 3e 3c 30 e2 3c a1 5a 35 be 3b 10 21 bc
       0.15548527 0.02761089 -0.17710353 -0.00983053
000280 0b c6 8b 3d b5 01 d9 3d 60 fb 04 3e ce 16 68 bd
       0.06824883 0.10596029 0.12986517 -0.056662373
000290 85 8c 12 bb a9 c5 6f be 84 2b 14 3a 8a 2a c9 3e
       -0.0022361588 -0.23415245 0.0005652236 0.39290267
0002a0 1e 9e b0 3d 02 5f 06 bd 4f ab 0d bd 2a 76 20 be
       0.086239085 -0.03280545 -0.0345872 -0.15670076
0002b0 a2 a2 0f 3e ea 52 52 be bf 22 2e be d2 37 20 be
       0.14026883 -0.20539442 -0.17005442 -0.15646294
0002c0 ef 59 7d bd dd 51 d0 bd 08 e4 95 3c 96 93 5b bd
       -0.061853345 -0.10171864 0.01829721 -0.053607546
0002d0 da 0d ef bd 6c 51 27 be 7b a2 fc bb 96 78 5a be
       -0.11672564 -0.16339654 -0.007709799 -0.21335062
0002e0 77 ee 52 be 84 14 26 3d a8 35 25 be 77 70 c1 bd
       -0.2059878 0.04054691 -0.1613375 -0.09445279
0002f0 08 00 3b 3e cd 1e 9a bc 5b 56 90 3d 56 ec bf bd
       0.1826173 -0.018813515 0.07047721 -0.093712494
000300 11 c3 4d 3d 31 e8 5c 3e ed dd aa bd 7f ed 6b 3d
       0.050234858 0.21572949 -0.0834311 0.05759954
000310 8d 5f 4f 3d 3b 28 e1 bd b0 b6 63 be 6b b2 d4 3d
       0.050628234 -0.109940015 -0.22237659 0.10385593
000320 c4 36 8c be 8d 1e df be 5f 84 bb be 3b f1 b8 bc
       -0.27385533 -0.43577996 -0.3662443 -0.022575965
000330 ed f5 1b bd 68 cd 4b be d3 c1 84 be 03 a0 9e be
       -0.03807633 -0.19902575 -0.25929126 -0.30981454
000340 bd 50 d1 3d 3b 79 12 3e 0c 92 9b be 08 6a cb be
       0.10220478 0.14304058 -0.30384862 -0.39729333
000350 06 0d bd be 97 d2 ab 3c 57 fe c4 3d d3 e6 01 3e
       -0.36924 0.02097444 0.09618824 0.12685709
000360 e8 49 18 3e 8c 21 1e 3e d0 54 ef 3c 92 de e3 bd
       0.14871943 0.15442485 0.029215246 -0.11126436
000370 9d e9 77 bd fe db d6 be 62 1e d8 be b4 76 b4 be
       -0.060525525 -0.41964716 -0.4221068 -0.35246813
000380 f2 8d c5 bd 42 3e 42 bd ef 6b 9b 3d 04 37 32 be
       -0.096462145 -0.047422655 0.07588946 -0.174038
000390 c0 e6 31 bd 12 72 7b 3e bc bc a4 bd 48 a9 0c 3b
       -0.04343295 0.24555233 -0.08043811 0.0021463204
0003a0 01 97 0c be 32 cf 18 3d 36 61 8c bd 8b 70 02 bd
       -0.13729478 0.03730697 -0.06854479 -0.03184561
0003b0 15 bf 0f bb a9 fd b1 bc 51 62 4a bc 03 9f 88 3d
       -0.0021933962 -0.0217274 -0.012352542 0.06670954
0003c0 57 6a c2 3c 62 5a fe bd 14 4b b9 bd 64 d7 5f bd
       0.023732347 -0.12419583 -0.09047523 -0.054648772
0003d0 43 5c 9b 3e b0 18 07 be 92 11 ed bd 3e 1f 24 be
       0.30343828 -0.13193011 -0.11575617 -0.16027543
0003e0 20 3f da bc 35 d0 07 3e a0 8e 0e bb 39 07 d4 3e
       -0.026641428 0.13263018 -0.0021752492 0.4141176
0003f0 fc c7 90 bd 4d e8 68 3e 1c 23 a9 3d 29 79 a0 be
       -0.07069394 0.22744866 0.0825865 -0.31342438

convs.1.fc_full.bias f4 [32]
000000 ce 2c bd bd db e0 aa 3d 7b 2e 2a bc 6f ad 17 be
       -0.092370614 0.08343669 -0.010387058 -0.14812253
000010 a5 e9 38 bd f3 96 03 3e 59 44 58 bd 01 f9 3d bd
       -0.045144696 0.12850551 -0.052799556 -0.046380047
000020 ef 71 74 3d 5e 5a 58 3c 10 3c 14 3d ea aa 3d be
       0.059678968 0.013205139 0.036190093 -0.1852223
000030 7e 6f e6 3d 1c eb 9a bd 12 56 cd 3d 15 0c ac bd
       0.11251734 -0.07564375 0.10026182 -0.08400742
000040 4c d6 26 be 54 97 7d bd 5c 57 07 3e ab cb 01 3e
       -0.16292685 -0.061911896 0.13216919 0.1267535
000050 03 f5 4f bc 47 c3 b3 bd a8 a1 b4 3d 33 52 bb bd
       -0.012692693 -0.087774806 0.08819896 -0.09146538
000060 0d c5 4a be fb 6d 82 bd e6 d9 cd 3d 7e d7 bc bc
       -0.19801731 -0.06368633 0.100513265 -0.023051973
000070 b8 0a 33 3e 3f a9 09 be de 8f db 3c 31 1a 1e bd
       0.17484558 -0.13443469 0.026802 -0.038599197

convs.1.bn1.weight f4 [32]
000000 28 4c bf 3f 20 09 b7 3f 90 b0 a1 3f 52 7c 9a 3f
       1.4945116 1.429966 1.2632008 1.206919
000010 5d 5e 9e 3f 13 ff c3 3f 9c a2 c7 3f 49 78 a3 3f
       1.2372547 1.5312217 1.55965 1.2771083
000020 06 8b c4 3f 55 68 09 40 41 48 95 3f 9d 45 89 3f
       1.5354927 2.146993 1.1662675 1.0724369
000030 bb 13 af 3f d2 15 76 3f 74 c9 bf 3f a0 6e 9c 3f
       1.3677896 0.96127045 1.4983354 1.222126
000040 15 13 8b 3f d6 c3 ad 3f e0 7c 85 3f 28 25 84 3f
       1.0865198 1.3575389 1.0428734 1.0323839
000050 03 05 95 3f 81 09 a5 3f d1 56 a0 3f b8 5f 97 3f
       1.1642154 1.2893525 1.2526494 1.1826086
000060 51 2d 86 3f 3a 6c 96 3f 01 3c 94 3f a3 25 90 3f
       1.048258 1.1751778 1.1580812 1.1261486
000070 7c ea 8a 3f 58 83 9a 3f e8 bc 92 3f f0 03 a7 3f
       1.0852809 1.2071333 1.14639 1.3048077

convs.1.bn1.bias f4 [32]
000000 0e bd 2a be 56 92 01 bf 0e d2 47 3d 79 74 84 bc
       -0.16673681 -0.50613916 0.048784308 -0.01616882
000010 c8 bf 04 3d 65 59 5a 3d 31 b5 c4 bc ea 82 48 be
       0.03240946 0.05330791 -0.02401218 -0.1958119
000020 46 da 5f bd e8 a8 a8 be 59 36 1a 3e 28 a5 06 bd
       -0.05465152 -0.32941365 0.15059794 -0.03287235
000030 e4 4a 16 3c 72 38 35 3d d6 7b 2f be 44 73 0a be
       0.009173129 0.044243284 -0.17137083 -0.13520533
000040 a6 ea 46 be ee 30 46 bf 5d 12 8d 3c a8 0c 09 3e
       -0.19425449 -0.7741841 0.01722067 0.13383734
000050 91 26 c2 bd 7e a0 80 be 19 39 62 bd 2e 9d a0 bd
       -0.09480012 -0.25122446 -0.055230234 -0.0784248
000060 dd e2 4c bb b5 0f 3d be 5a 91 00 3c 64 7b b1 bd
       -0.003126315 -0.18463023 0.0078471545 -0.08666113
000070 03 b0 a2 be 68 93 86 bc e6 c5 ad bd 4c 25 d8 be
       -0.3177491 -0.01642771 -0.08485012 -0.42215955

convs.1.bn1.running_mean f4 [32]
000000 5c e6 d5 be 25 4e 46 bf 25 9e fd 3e bf 1e 6f c0
       -0.41777313 -0.7746299 0.49534717 -3.7362516
000010 3c 94 38 c0 da 76 4a 3f 3c 2c 81 3f 67 a7 cb 3e
       -2.8840475 0.79087603 1.0091624 0.39776155
000020 3f 38 48 c0 7f 10 58 be ff 85 6d bf 73 de 42 c0
       -3.128433 -0.21100043 -0.92782587 -3.0448272
000030 62 e9 81 bf 21 57 74 3e 8f a4 1d c0 e0 27 1f 3f
       -1.0149348 0.23861362 -2.4631689 0.6217022
000040 7e 0d 0f c0 d0 93 78 3f 82 e7 7a 3f d1 5b 05 c0
       -2.2351985 0.97100544 0.980095 -2.083729
000050 ad 6b d1 bf b2 df 19 bf 81 03 11 3f e9 ce 8e 3f
       -1.6360985 -0.60106957 0.5664597 1.1156894
000060 ad 31 d9 bf 56 9a c2 bf 2c 19 bc bf e8 fc 77 c0
       -1.6968285 -1.520335 -1.4695182 -3.8748112
000070 0c 6b 4d c0 18 16 91 bf bc 11 b2 bf 34 cd 99 3f
       -3.2096586 -1.1334867 -1.3911662 1.2015748

convs.1.bn1.running_var f4 [32]
000000 24 43 13 3e a4 ba 83 3e 67 a6 58 3e 09 bc 0e 3e
       0.14381081 0.25728333 0.21157227 0.13938917
000010 0a f1 32 3e b9 28 27 3e f3 7f 44 3e 8a c2 68 3e
       0.17474762 0.16324128 0.19189434 0.22730461
000020 44 f8 1e 3e 6d 57 48 3e a1 b9 7c 3e 8e 62 95 3e
       0.15524393 0.195646 0.24680187 0.29176754
000030 86 f5 a8 3e c0 b8 71 3e a4 ca f7 3d a2 39 19 3e
       0.3299982 0.23605633 0.120991975 0.14963391
000040 b2 83 9a 3e a9 46 92 3e 9c 12 d4 3e 3f c1 e1 3e
       0.301786 0.28569534 0.41420448 0.44092748
000050 d9 16 01 3e 15 83 57 3e c3 a0 55 3e 73 81 a7 3e
       0.12606372 0.21046098 0.20862107 0.3271595
000060 c8 c8 55 3e fd 7e 8f 3e 5d dd 00 3f a4 f6 b5 3e
       0.20877373 0.28026572 0.50337774 0.35539734
000070 34 4f cc 3e 34 cb d9 3d 05 6f 1e 3e 01 7f 08 3e
       0.39904177 0.10634461 0.15472038 0.13329698

convs.1.bn2.weight f4 [16]
000000 98 3e 7a 3f 4c 7e a5 3f 08 c0 84 3f 5c 98 80 3f
       0.9775176 1.2929168 1.0371103 1.0046496
000010 c5 0f 7d 3f 87 b5 8a 3f e4 7e 88 3f 93 6e 7a 3f
       0.9885219 1.0836648 1.0663724 0.9782497
000020 e2 27 8a 3f a9 38 7b 3f 4e 9e 9d 3f 15 75 80 3f
       1.0793421 0.9813333 1.2313936 1.0035731
000030 68 ff 85 3f 6b 6f 8a 3f ff 67 88 3f 90 d9 73 3f
       1.0468569 1.0815252 1.0656737 0.9525385

convs.1.bn2.bias f4 [16]
000000 27 af f7 bd 46 52 23 3e 70 46 01 3e 1a 8a ad 3d
       -0.120939545 0.15949354 0.12624526 0.084736064
000010 32 cc ba bd f2 d8 03 be 4f a7 ff bd f9 74 61 be
       -0.091209784 -0.12875727 -0.124830835 -0.22017278
000020 4c f2 f7 3c f6 8a 19 be 75 1a 49 bd 83 49 47 bd
       0.030266903 -0.14994416 -0.049097497 -0.04865409
000030 28 32 75 3d 9b 64 e7 bd cc aa e4 bd 6f 50 80 bd
       0.059862286 -0.11298486 -0.111653894 -0.062653415

convs.1.bn2.running_mean f4 [16]
000000 7f ae a1 40 c4 af 53 40 df fe 9a 40 dc 22 cf 40
       5.052551 3.307603 4.843612 6.4730053
000010 ba e2 a1 40 b8 ba a4 40 52 5c 9b 40 f0 ec 8f 40
       5.0589266 5.147793 4.8550196 4.497673
000020 82 e8 a6 40 ae fb 99 40 92 5c a0 40 ef 67 b5 40
       5.2158823 4.8119726 5.0113 5.668937
000030 63 dc 95 40 23 fe 93 40 d4 a0 9c 40 34 d2 6f 40
       4.6831527 4.6247725 4.8946323 3.7472048

convs.1.bn2.running_var f4 [16]
000000 85 ba 07 41 39 f1 83 40 fd a6 06 41 89 b8 21 42
       8.483037 4.123196 8.415769 40.43021
000010 51 7a ac 40 e7 1a 57 41 3d 34 fe 40 a2 44 df 40
       5.389931 13.444068 7.9438767 6.977128
000020 27 b4 62 41 06 fa 3e 41 5b d6 e4 40 74 88 15 41
       14.1689825 11.936041 7.1511664 9.345814
000030 e8 99 bd 40 08 d5 ea 40 35 5b 87 41 f8 17 12 41
       5.9250374 7.338505 16.919535 9.130852

convs.2.fc_full.weight f4 [32, 56]
000000 be ac 8e bd 54 c4 0c be 50 29 e3 3d e3 03 44 3e
       -0.06966542 -0.13746768 0.11091864 0.19142108
000010 8e 9a 17 be 93 fb 63 3c d2 d8 55 3d a6 83 2f bd
       -0.14805052 0.01391496 0.05220873 -0.04285016
000020 e1 61 0b 3d 77 1c 9a 3b 0b e2 4e be 7e 23 50 be
       0.03402889 0.0047031003 -0.20203416 -0.20326039
000030 a6 66 e5 3d 4e 30 a4 bd 94 a0 a4 3b 20 97 4c be
       0.11201219 -0.08017026 0.005024025 -0.19979525
000040 cb 0c 3d be cd 01 c2 bd b0 c6 09 3e c1 13 af 3c
       -0.18461911 -0.09473 0.134547 0.021371724
000050 29 fa d9 ba 82 59 3e be 85 25 28 3e 79 ba bb be
       -0.001663034 -0.18588832 0.16420563 -0.36665705
000060 c7 f6 41 3e 6c a9 bc bb 10 94 15 3e 73 83 21 3d
       0.18941794 -0.0057575013 0.14607263 0.039432
000070 2c 02 71 be 72 e3 b2 bd c6 40 e6 bb 71 0c 0f be
       -0.23535985 -0.08734788 -0.0070267646 -0.1396959
000080 5d 7d 67 be d0 a0 d0 be 87 05 05 3e 67 fd 82 3e
       -0.22606416 -0.4074769 0.1299039 0.25583956
000090 5e 38 a6 3e 5f a0 35 be 49 7b 8b be b0 a4 82 3d
       0.3246488 -0.17736958 -0.27242497 0.06379068
0000a0 17 0a 8d 3e 3e 34 69 3e 6a 71 ba be 40 6f 49 be
       0.2754676 0.22773835 -0.36414653 -0.19671345
0000b0 63 11 17 3e ff cc a7 3e 3e c3 c3 3e b2 15 4d be
       0.14752726 0.32773587 0.38234895 -0.20027807
0000c0 bb 1e fa 3d b3 3b 9b 3e 8a 22 c4 3e 9a ee ae 3b
       0.122128926 0.30318984 0.383076 0.005338502
0000d0 c8 c6 b5 3d 63 74 c6 3d d0 34 29 be fa fb d9 3b
       0.08875805 0.09690168 -0.16524053 0.0066523524
0000e0 67 0d 77 3e 22 9a 6c be 83 09 18 be ea 3a 1a be
       0.24126206 -0.23105672 -0.14847378 -0.15061536
0000f0 92 90 14 be f1 ad 15 be 70 53 cc 3d a2 31 15 3e
       -0.14508274 -0.14617135 0.09976852 0.14569715
000100 a8 f2 be bd 9b 17 81 3e 52 ef 67 3e 1e 87 15 3c
       -0.09323627 0.25213322 0.22649887 0.009126453
000110 d6 6c 22 3e 35 ba 8e 3d 47 c6 20 3e 1e 8c 80 3d
       0.1586183 0.0696911 0.15700637 0.06276725
000120 8f c9 e0 3d 04 8c e1 3d 88 bb ed ba 51 25 66 3d
       0.10975944 0.11013034 -0.0018137554 0.05618793
000130 aa 75 ba 3c b4 8c 85 3d 5d 99 13 3e ab e1 85 3d
       0.022761185 0.065209776 0.14413972 0.065371834
000140 0d 7f 40 3d 69 73 75 3e 41 30 6d bd 72 ca b8 3d
       0.046996165 0.23969807 -0.057907347 0.090229884
000150 b3 0b b2 bd b8 98 93 3c 21 04 e6 3d 97 34 39 be
       -0.08693638 0.018017158 0.11231256 -0.18086468
000160 d0 9b 23 bd 95 1a a4 3d 7c a6 06 3f 2e ea 4c 3c
       -0.039943516 0.080128826 0.52597785 0.012507005
000170 a4 83 5c bc a9 68 28 3d 6c 99 39 3e 7a c5 d9 3e
       -0.01345912 0.041115437 0.18124932 0.42533475
000180 83 e5 06 3e c1 5e bc bd e6 35 5b 3d 92 52 88 3e
       0.1317349 -0.091977604 0.0535182 0.26625496
000190 b0 fd d3 3e 19 37 29 3e e9 91 71 3d f6 2f e4 bc
       0.41404486 0.16524924 0.05897704 -0.0278549
0001a0 eb bb 26 3e 25 ff 85 bc 29 76 bd 3d d2 14 1b 3d
       0.16282623 -0.016357014 0.09251053 0.037861653
0001b0 e5 df f1 3d cb 02 00 3e 6e 96 2e be c2 22 34 bf
       0.118102826 0.12501065 -0.17049572 -0.70365536
0001c0 b9 46 56 bd e0 e0 7d bd 56 2e a1 bd 87 26 17 be
       -0.05231354 -0.061982036 -0.07870166 -0.14760791
0001d0 db 69 43 bd 3b 1d 93 bd 24 d1 01 3d 6f b6 0b bd
       -0.047708374 -0.0718331 0.031693593 -0.03410953
0001e0 70 1a 89 bd df b7 3f 3e 13 42 f7 3c cb 0c 2d 3e
       -0.06694496 0.18722485 0.030182874 0.16899411
0001f0 d2 d7 59 3c 57 01 6e bc 98 26 0a 3d 97 d8 d9 bd
       0.0132960845 -0.014526687 0.033728212 -0.10637014
000200 66 df e7 be 3f bf 86 be 0e 7d d0 bc d1 e0 8f bd
       -0.45287627 -0.26317784 -0.025450256 -0.07025302
000210 c3 9d ad bd b4 d9 27 3d 5e 4a b6 bb fa 5c 8a be
       -0.08477356 0.040979102 -0.0055630645 -0.2702406
000220 5a 35 93 be ef 51 86 3e d1 23 9c bd 24 49 04 be
       -0.28751642 0.26234385 -0.07624019 -0.12918526
000230 57 35 1f 3e e6 3a c3 bd a8 0b e4 bd 4e 2d 17 3e
       0.15547691 -0.09532718 -0.11135036 0.14763376
000240 ee 1e 0d 3e b0 5e 9c 3e ca fd 94 bd 71 66 2c be
       0.1378133 0.3054099 -0.07274969 -0.16835953
000250 1c 45 ae bd 94 31 ff 3d 9b 27 7e 3e a2 50 83 bc
       -0.08509275 0.12460628 0.24819796 -0.01602966
000260 0a 1d 87 bd 0c 40 0d be 3b 25 70 3e fb 23 21 3e
       -0.06597336 -0.13793963 0.23451702 0.15736382
000270 6b 8e b0 3c 03 5a 34 3c 0b 52 8c 3c 71 1f 8e 3e
       0.021552285 0.011007789 0.017128965 0.27758363
000280 63 52 ba 3d b4 58 b9 3c 05 0e 58 be 6d f2 e1 bc
       0.09097745 0.022625305 -0.21099098 -0.027581418
000290 cd a3 a1 3d 18 3b ac 3e 7e e2 4c 3e 0c 8a 26 3e
       0.07892571 0.33638835 0.20008275 0.16263598
0002a0 13 f1 1c 3d aa 29 fa 3d ff dc f8 3d e1 6a db bd
       0.038315844 0.12214978 0.12151527 -0.10713745
0002b0 e7 c0 cb bd 98 5d fb 3c 7f 51 12 3b 83 89 36 be
       -0.099489026 0.030684277 0.0022326407 -0.17825894
0002c0 c0 d9 ec bd ea 5f 90 3d 9f ce fb bd 78 15 ce 38
       -0.1156497 0.07049544 -0.12295269 9.826844e-05
0002d0 04 6b 15 3d 07 80 ae 3e f5 eb 1c 3e 02 35 31 3d
       0.03647901 0.34082052 0.15324385 0.043263443
0002e0 f7 95 e1 bd 19 ab 25 3d 1a 3b 15 3e 4e 0f 98 bd
       -0.11014932 0.040446375 0.14573327 -0.07424794
0002f0 7e 88 1f 3e 05 36 81 3d 42 1e f0 bd 2f 98 1c be
       0.15579411 0.063091315 -0.11724521 -0.15292428
000300 f6 6b d4 3c a6 7c 97 3d ed c8 09 be aa 96 b4 3d
       0.025930386 0.07396822 -0.13455553 0.088177994
000310 44 6b a1 3c 52 8b 08 be 63 47 dc 3e 55 51 b9 3c
       0.019704469 -0.13334396 0.43023214 0.02262179
000320 1b 03 66 3d cf 34 1f bd 0f 6b 8b be d9 d6 11 be
       0.056155305 -0.03886872 -0.27230117 -0.14242114
000330 cc 2f 25 be f5 e7 3f bd 44 6c 0d be 18 48 9b be
       -0.16131514 -0.04685207 -0.13810831 -0.3032844
000340 f5 39 99 bd e5 3f 52 bd 88 39 a0 bd c5 4c 22 be
       -0.074817576 -0.051330466 -0.07823473 -0.15849598
000350 ba 20 b8 be 9a e8 54 be 80 0b 6f bc 9d 42 78 3e
       -0.35962468 -0.20791855 -0.014590144 0.24244161
000360 2b e7 3b 3d c7 71 3b 3e c3 00 60 bd 10 a0 6b bd
       0.045874756 0.18305121 -0.054688226 -0.057525694
000370 b7 30 13 bc e2 e3 97 be 78 9f 6b be 14 4c 12 3e
       -0.0089837825 -0.29666048 -0.23010051 0.14286834
000380 bb 39 01 3e 70 5c 24 3e a2 c6 76 3e 68 dc 30 bc
       0.12619679 0.16050887 0.2409921 -0.010794736
000390 f4 84 6c bd 9e 57 ba 3d bd c9 ae be e4 f6 bc bd
       -0.05774398 0.09098743 -0.3413829 -0.09226778
0003a0 45 53 06 be e5 14 86 bd 1e 7a 4b be a9 02 98 bd
       -0.13117702 -0.06546954 -0.19870803 -0.074223824
0003b0 6b e0 4b be 59 c6 9e bc d7 4d 41 3e 59 9a 53 bd
       -0.19909827 -0.019381689 0.1887735 -0.05166087
0003c0 35 bc 57 3e f8 92 92 3e 38 c8 c4 bd 06 f1 03 be
       0.21067889 0.28627753 -0.09608501 -0.12884912
0003d0 6a f7 8d bd 11 8c 6e bc ee b4 55 bc cd a2 b1 3d
       -0.06931956 -0.014559762 -0.013043625 0.0867363
0003e0 d0 66 4f bc 34 3d 8b 3e c1 15 ef 3d d4 9b 03 bb
       -0.01265879 0.27195132 0.11674071 -0.0020081894
0003f0 f3 c0 54 bd 6c 5c 25 3e 20 95 e2 bd 6a 26 ff bd
       -0.051941823 0.16148537 -0.110635996 -0.12458499

convs.2.fc_full.bias f4 [32]
000000 1a 38 14 3e 3e c0 3f bd 94 19 dd bd 57 6f 4f bd
       0.14474526 -0.046814196 -0.10795894 -0.05064329
000010 61 27 c8 3d 77 81 09 3d e2 5e e7 bd 0a 7c 03 be
       0.09773136 0.033570733 -0.11297394 -0.12840286
000020 c7 c2 be bd 0f c7 be 3c cd 36 94 bb f6 eb aa 3d
       -0.093144946 0.023288278 -0.0045231343 0.08345787
000030 f4 9e 0c bc 49 6b 08 3e c0 1e 3f 3d ec 9f 95 bc
       -0.008582819 0.13322176 0.046660185 -0.018264733
000040 09 89 b7 bd 50 9c 99 bc 8d ed a2 bd b9 c6 19 bd
       -0.08961684 -0.018751293 -0.079554655 -0.037543032
000050 d1 0a 57 3d c3 57 e4 bd 0d 04 d4 3d 3f 27 47 3d
       0.05250055 -0.11149552 0.10352335 0.048621412
000060 05 9c d9 bd 48 7c 02 3e b8 8c c1 bc e3 3d aa bd
       -0.106254615 0.12742722 -0.02362667 -0.08312585
000070 04 30 60 bd 13 86 8f 3c 9d 31 e5 3c 2c b5 88 bd
       -0.05473329 0.017519986 0.027977759 -0.06675181

convs.2.bn1.weight f4 [32]
000000 fd 09 84 3f 39 ee ad 3f c3 92 94 3f fa 88 95 3f
       1.0315548 1.3588325 1.1607288 1.1682427
000010 7e 81 ae 3f 05 8c cc 3f cb 46 18 40 93 cd c1 3f
       1.3633268 1.598023 2.3793209 1.5140861
000020 fa 1d c9 3f d4 ca 75 3f fc 37 b1 3f b1 5c b4 3f
       1.5712273 0.96012616 1.384521 1.4090787
000030 d7 f4 f4 3f 9d 49 a2 3f df 8f 7b 3f f3 56 e1 3f
       1.9137219 1.2678715 0.98266405 1.760466
000040 0b b7 64 3f 45 88 89 3f 9e 3f a5 3f da 4b 85 3f
       0.893418 1.0744711 1.291004 1.0413773
000050 78 01 ac 3f 89 29 82 3f 27 26 8d 3f e4 ed a3 3f
       1.3437948 1.0168926 1.1027268 1.2806973
000060 67 5b 9e 3f a4 3a bf 3f 47 0b a3 3f cd eb 93 3f
       1.2371644 1.4939771 1.2737817 1.1556336
000070 28 d9 8a 3f 28 18 9a 3f 06 55 c7 3f 8e f4 b5 3f
       1.0847521 1.2038622 1.5572822 1.4215257

convs.2.bn1.bias f4 [32]
000000 cc 90 e0 bd b8 b6 6c 3c 60 a6 43 bd 26 f8 a7 3d
       -0.10965118 0.01444786 -0.04776609 0.082016274
000010 7f 5a de bd fd ff 09 be f1 3f 50 be f6 da 2b be
       -0.108571045 -0.13476558 -0.20336892 -0.16782746
000020 2b 22 30 bb c8 47 ce 3d cf a0 43 bc c6 23 45 bd
       -0.0026875834 0.10072285 -0.011940195 -0.04812982
000030 60 65 d4 3d a6 28 60 bd 5e 72 e2 3d f4 53 2f be
       0.10370898 -0.054726265 0.1105697 -0.1712187
000040 14 97 5a be 89 10 17 be 41 68 f6 bd 6a 1a e7 3b
       -0.21346694 -0.14752401 -0.120316036 0.0070527093
000050 d9 0a fc bd 58 a8 60 3c 93 d1 09 be db 4b d0 be
       -0.123067565 0.013712011 -0.13458852 -0.40682873
000060 77 cc e4 bd 99 8b 9d be 0c cf de bd 0a 41 21 be
       -0.11171811 -0.30770567 -0.10879335 -0.15747467
000070 9a 2e 44 3d 99 ee c2 be c7 84 32 bd 17 e5 0b bf
       0.047896005 -0.3807266 -0.043583658 -0.5464644

convs.2.bn1.running_mean f4 [32]
000000 b0 fc 2f bf 29 58 6f 40 fb ed 92 bf 67 e8 70 bf
       -0.68744946 3.7397559 -1.1478876 -0.9410462
000010 0d 4d e8 bf ed 5c 3a 3f 86 e4 7a 3f 4c 97 bf 3e
       -1.8148514 0.72798043 0.9800495 0.37420118
000020 cf ee 20 c0 86 4f 1c 3e 4a 7b 24 bf 82 75 4d 3e
       -2.5145757 0.15264711 -0.64250624 0.20064357
000030 1f 1d fa 3f 13 47 a6 bf 88 89 32 40 72 08 22 be
       1.9540137 -1.299044 2.7896442 -0.15823534
000040 98 b9 4d bf d2 ce 3e 3f f8 30 67 c0 d0 83 3b bf
       -0.8036132 0.7453433 -3.6123638 -0.73248005
000050 bf 90 e5 be d9 67 1d 3f ea a9 17 40 d4 a4 50 3e
       -0.44836995 0.61486584 2.3697457 0.20375377
000060 da d8 2f c0 81 14 89 bd a6 9d 1f be 09 5a 39 3f
       -2.7476106 -0.06693364 -0.15587482 0.7240301
000070 96 57 94 bf 12 20 b3 be 58 4a a2 3e dc d9 fd be
       -1.1589229 -0.34985405 0.31697345 -0.49580276

convs.2.bn1.running_var f4 [32]
000000 39 e3 8f 3f ea 0e 13 3f 98 c1 54 3f 54 3c fa 3e
       1.1241218 0.5744463 0.831079 0.48874152
000010 39 53 12 3f 2c 97 0c 3f c7 79 fe 3e ce 17 b3 3e
       0.5715824 0.5491817 0.49702284 0.349791
000020 4a 84 ed 3e c7 ad 39 3f c9 d9 04 3f dd 3c 42 3f
       0.4638999 0.7253079 0.51894814 0.7587412
000030 9b ba 17 3f 86 0d 2c 3f 44 1b 59 3f ab 3a ea 3e
       0.5926911 0.67208135 0.8480723 0.45747885
000040 6e 30 0d 3f 4f ce 3a 3f d4 96 0c 3f 43 ff 48 3f
       0.5515202 0.7297105 0.54917645 0.785145
000050 dc ad 49 3f 0c 79 8d 3f 84 40 22 3f da fa 70 3f
       0.78780913 1.1052566 0.63379693 0.9413277
000060 d9 d8 31 3f 7f 90 12 3f 86 a9 61 3f 1a bb 18 3f
       0.6947151 0.57251734 0.881493 0.59660494
000070 9a a3 ee 3f b1 b2 0d 3f dd 06 61 3f 1d 66 17 3f
       1.8643677 0.55350786 0.879011 0.5914019

convs.2.bn2.weight f4 [16]
000000 89 fc 94 3f b6 cc 91 3f e1 26 8c 3f 37 0e 88 3f
       1.1639568 1.1390598 1.0949365 1.0629338
000010 49 10 99 3f 22 9a a4 3f 27 1e 8b 3f d4 90 a8 3f
       1.1958095 1.2859538 1.0868577 1.3169198
000020 77 13 9e 3f 55 58 a2 3f ca 66 99 3f 0b 50 8f 3f
       1.234969 1.2683207 1.1984494 1.1196302
000030 20 7e a0 3f ee e0 83 3f 26 33 b8 3f 5a 14 ab 3f
       1.253849 1.0303018 1.4390609 1.3365586

convs.2.bn2.bias f4 [16]
000000 72 d0 b4 3b 16 fd 78 3d f7 54 1a 3e cd 74 4b 3d
       0.0055180127 0.060788237 0.15071474 0.049671937
000010 4c 97 95 bc 69 ff fb 3b ce f0 89 bd ed 0f 63 be
       -0.01826062 0.0076903594 -0.06735383 -0.22174044
000020 c5 f9 2d 3d 4a f1 68 3d bf eb be bd cb 43 24 3c
       0.042474527 0.056870736 -0.09322309 0.010025929
000030 22 b2 11 3d 2c 5c ba bc 40 8f 06 bd 37 1c 0b bc
       0.03557027 -0.02274903 -0.032851458 -0.008490614

convs.2.bn2.running_mean f4 [16]
000000 c1 13 89 40 b1 ed ab 40 58 0a a6 40 92 2e 9a 40
       4.2836614 5.372765 5.1887627 4.818185
000010 ea 65 aa 40 e3 14 8b 40 6a 5e 87 40 24 72 6e 40
       5.3249407 4.3462996 4.230275 3.7257166
000020 a0 2f b1 40 51 d9 97 40 ae c5 96 40 6c 13 a4 40
       5.5370636 4.745278 4.711631 5.127371
000030 ee 23 d0 40 56 b4 92 40 65 58 a3 40 e0 cb 89 40
       6.504386 4.5845137 5.1045403 4.306137

convs.2.bn2.running_var f4 [16]
000000 0f 95 f8 40 d0 77 5b 41 f1 7a 1c 41 63 c9 71 41
       7.7681956 13.716751 9.780015 15.111667
000010 21 23 5b 41 71 db a5 40 74 2e 8f 41 43 7a 3e 40
       13.696076 5.1830373 17.897682 2.9762123
000020 9b ee be 41 69 b2 c8 40 43 b4 33 41 cf 18 3c 41
       23.866507 6.2717786 11.231509 11.756057
000030 53 f4 64 41 d0 02 61 41 b6 ff fe 40 ed b7 78 41
       14.309649 14.063187 7.9687147 15.544904
