cgcnndefect/defect_scratch_all/model_best.pth.tar (torch, 208559 bytes, 121 tensors)

embedding.weight f4 [16, 92]
0	0xbda480f9	-0.08032412
1	0x3d6514df	0.055928107
2	0x3d4ceda2	0.05003131
3	0xbdf37a84	-0.118886024
4	0x3d25a0c8	0.040436536
5	0x3d28f7a9	0.041251812
6	0xbb076023	-0.0020656667
7	0x3c61b6ec	0.013776522
8	0xbcd9a040	-0.026565671
9	0x3d04f1bc	0.0324571
10	0xbe1c8751	-0.15285994
11	0xbca7e1b0	-0.020493358
12	0xbdcbfc1d	-0.09960196
13	0xbd8ba17a	-0.068179086
14	0xbd3008e4	-0.04297723
15	0x3b7d1a9a	0.0038620592
16	0x3c299b9d	0.0103520425
17	0x3d801dba	0.0625567
18	0xbd90c0cd	-0.07068024
19	0xbd39f57f	-0.04540014
20	0x3be57d99	0.007003498
21	0x3e74b10d	0.23895665
22	0xbd10dae6	-0.035365008
23	0x3d08d7a4	0.033408776
24	0xbd391968	-0.045190245
25	0x3c34bf11	0.011031882
26	0x3dc1560e	0.09440242
27	0xbdeb556e	-0.11490904
28	0x3d1f4e9b	0.038893323
29	0xbdab9c70	-0.083794475
30	0xbe25e117	-0.16199146
31	0x3db87afa	0.09007831
32	0xbd8a6605	-0.0675774
33	0xbd449454	-0.04799302
34	0xbdd46229	-0.10370285
35	0xbdc7f92c	-0.09764323
36	0xbd794772	-0.06085915
37	0x3d70a907	0.058754947
38	0x3d3e8d4f	0.04652148
39	0x3bc35e78	0.0059621893
40	0xbcf2157b	-0.029551258
41	0x3da6de36	0.08147852
42	0xbc9218fe	-0.017834183
43	0xbdd0cf56	-0.10195796
44	0xbd9a480d	-0.07533274
45	0xbd5c2690	-0.053747714
46	0x3d86b793	0.06577983
47	0x3dd9ab13	0.10628333
48	0xbd949b20	-0.0725615
49	0x3d9d5900	0.07682991
50	0x3da3c8f9	0.07997317
51	0x3d950e3b	0.07278105
52	0xbce15ce4	-0.027510114
53	0xbb539dce	-0.0032290104
54	0x3d992259	0.074772544
55	0xbe3b2011	-0.18273951
56	0x3c9f26db	0.019427707
57	0xbda58ad2	-0.080831185
58	0xbd93fca5	-0.072259225
59	0xbc4e9c30	-0.01261048
60	0xbba080cf	-0.0048981677
61	0x3d5a8612	0.053350516
62	0xbd7cf4ed	-0.061757017
63	0x3d0102d5	0.03149684
64	0x3cd805e8	0.026370004
65	0xbc579923	-0.013159069
66	0x3b82708a	0.003980701
67	0x3cc5e4a9	0.024156885
68	0x3d847648	0.06467873
69	0x3dcd04fb	0.100107156
70	0xbda48ae7	-0.08034306
71	0xbd1c7f0f	-0.03820711
72	0x3d9d3fcf	0.07678186
73	0x3d038bf1	0.03211588
74	0x3d22e0c3	0.03976513
75	0x3dbc6654	0.09199205
76	0x3ca9f92d	0.0207487
77	0xbdb9ac16	-0.09066026
78	0x3e14ebd6	0.1454309
79	0xbda74da8	-0.08169109
80	0xbe2b8694	-0.16750556
81	0x3c56701f	0.013088255
82	0x3da259e0	0.079272985
83	0xbe58b362	-0.21162179
84	0x3c7c8a5a	0.015413845
85	0x3d455f8c	0.048186824
86	0x3d043d7b	0.032285195
87	0xbe10abca	-0.14128032
88	0x3e183be2	0.14866593
89	0xbd87eab4	-0.06636563
90	0x3d1c8c5a	0.038219787
91	0x3d57f4d2	0.052723713
92	0x3d77da70	0.060511053
93	0x3d1fac91	0.03898293
94	0xbd7dd09f	-0.061966535
95	0xbd9aa6fe	-0.075513825
96	0x3cc420ea	0.023941476
97	0x3c851f4e	0.016250279
98	0xbda69004	-0.081329376
99	0x3cce2e9d	0.025168711
100	0x3d569db5	0.052396495
101	0x3d4cf83d	0.050041426
102	0xbe6620f0	-0.22473502
103	0xbcd6f52b	-0.026239952
104	0xbdcb65c6	-0.09931521
105	0xbd95dbc5	-0.07317308
106	0xbda0cace	-0.07851182
107	0xbda4b2fa	-0.080419496
108	0xbb9a3a3f	-0.0047066505
109	0x3c803c32	0.015653703
110	0xbd2ee282	-0.042696483
111	0x3d7d64fd	0.061863888
112	0xbd7f9e3d	-0.062406767
113	0x3db6e462	0.08930279
114	0x3dd08735	0.10182039
115	0xbd9e5d5c	-0.07732651
116	0xbdc3f499	-0.09568138
117	0x3b9a2705	0.0047043585
118	0x3c793890	0.015211239
119	0xbab3805c	-0.001369487
120	0x3dc304cf	0.095224015
121	0xbcb8fcb9	-0.022581445
122	0xbe6bab86	-0.2301465
123	0x3d4a11c7	0.04933336
124	0xbdccd150	-0.10000861
125	0xbd7d1ba5	-0.061793942
126	0xbccd4c63	-0.025060838
127	0xbd500403	-0.050785076
128	0xbd156458	-0.03647265
129	0xbdace101	-0.084413536
130	0xbcb5acb9	-0.022177087
131	0xbd6541ba	-0.055970885
132	0xbdf100dc	-0.11767742
133	0x3e07504f	0.13214229
134	0x3def86c1	0.11695624
135	0xbdb98444	-0.09058431
136	0x3b3de4a2	0.0028975387
137	0xbc135c38	-0.008994155
138	0x3cacd950	0.021099716
139	0x3d9b0bf0	0.07570636
140	0x3d20403d	0.039123762
141	0x3d1c07cc	0.038093373
142	0x3dbf4f2a	0.09341271
143	0xbbd51046	-0.006502184
144	0xbc0a8406	-0.008454328
145	0xbdc2c8b8	-0.0951094
146	0x3d4fff0d	0.050780345
147	0xbe384534	-0.17995149
148	0xbd5441e7	-0.051820662
149	0xbda39f37	-0.07989352
150	0xbdc7d26c	-0.09756932
151	0xbe2c9705	-0.16854484
152	0xbd082684	-0.033239856
153	0x3da26557	0.07929485
154	0x3d66dfbf	0.056365725
155	0xbdcdec9e	-0.10054897
156	0x3d8750a9	0.066071816
157	0xbda71498	-0.08158225
158	0xbcb48f6c	-0.022041045
159	0xbd2d26eb	-0.042273443
160	0xbca48205	-0.02008153
161	0xbca7b100	-0.020470142
162	0xbdbf99de	-0.0935552
163	0xbdb85c35	-0.09001962
164	0xbd71a4c8	-0.05899504
165	0xbdc1a589	-0.094554015
166	0xbda29825	-0.079391755
167	0x3d20dd5c	0.039273605
168	0xbdc02dea	-0.093837574
169	0xbbe68e81	-0.0070360308
170	0x3e08187f	0.13290595
171	0xbdc355a9	-0.09537823
172	0x3d8b9c86	0.06816964
173	0x3cc19b51	0.023633631
174	0xbdc0b13d	-0.094088055
175	0x3d4bea45	0.049783964
176	0xbdecbab0	-0.11559045
177	0xbd8c6668	-0.0685547
178	0x3e41400a	0.18872085
179	0xbdd4c227	-0.10388594
180	0x3e5209c5	0.2051154
181	0xbdd04560	-0.10169482
182	0x3d9879f8	0.07445139
183	0x3cee690e	0.029102828
184	0x3d73f883	0.05956317
185	0x3d16cfe7	0.036819365
186	0xbdd278fa	-0.10276981
187	0x3defdcb7	0.1171202
188	0x3d605a41	0.054773573
189	0x3e29198e	0.16513655
190	0x3da9877a	0.08277793
191	0x3dbae510	0.091257215
192	0xbe28b58e	-0.16475508
193	0xbd686e4b	-0.05674581
194	0xbe997e72	-0.29979283
195	0xbd6b13d0	-0.05739194
196	0xbd78d64c	-0.060751244
197	0xbd46c18d	-0.04852443
198	0xbd7e7a2f	-0.062128242
199	0xbb151179	-0.002274601
200	0x3d04b243	0.032396566
201	0x3d89a39d	0.0672066
202	0xbda16732	-0.07881011
203	0xbd92954f	-0.071573846
204	0xbd053b6c	-0.032527372
205	0x3dd7b83d	0.105331875
206	0xbba0b65c	-0.0049045514
207	0x3e1e7917	0.1547588
208	0xbd7c3720	-0.06157601
209	0x3c584bd6	0.013201674
210	0xba4b72bb	-0.00077609316
211	0xbcecdf20	-0.028914988
212	0x3e2ea68c	0.1705572
213	0xbdc49648	-0.095989764
214	0xbe687b71	-0.22703339
215	0x3c59f2b4	0.013302494
216	0xbda703f5	-0.081550516
217	0xbd5fd2e3	-0.054644477
218	0x3de5c7b1	0.11219729
219	0xbdad47cb	-0.08460959
220	0xbbf54fbe	-0.0074863127
221	0x3e064b24	0.13114601
222	0x3d1a4303	0.037661564
223	0xbe0aa095	-0.1353782
224	0xbcae47f7	-0.02127455
225	0xbd27da70	-0.040979803
226	0x3c456912	0.0120489765
227	0xbe0139e0	-0.12619734
228	0xbd0f472f	-0.034979995
229	0xbc7cf499	-0.015439176
230	0x3a957950	0.0011403952
231	0x3d5e7f02	0.054320343
232	0xbc3cbf45	-0.011520212
233	0x3e6fb0ae	0.23407242
234	0x3e308f06	0.17242059
235	0xbd1b3f2d	-0.037902046
236	0x3d889032	0.06668128
237	0xbe28df0c	-0.16491336
238	0xbdd83b5b	-0.10558196
239	0xbe4854e3	-0.19563632
240	0x3d0d0121	0.034424905
241	0x3da03011	0.07821668
242	0xbd09785c	-0.03356205
243	0xbe49d31b	-0.19709437
244	0x3dea9e9c	0.114560336
245	0xbda3af89	-0.07992465
246	0x3d9a5eb3	0.07537594
247	0xbdb0903e	-0.08621262
248	0x3cf13bfc	0.029447548
249	0xbc913503	-0.017725473
250	0xbd60e8bb	-0.05490945
251	0x3c61c499	0.013779783
252	0x3db0900a	0.08621223
253	0xbcf9a9ae	-0.030476417
254	0xbd7d8797	-0.061896887
255	0xbd1def60	-0.038558364

embedding.bias f4 [16]
0	0x3c0e28c0	0.008676708
1	0xbe4887c4	-0.1958304
2	0x3c4de8b2	0.012567686
3	0x3dd1d304	0.10245326
4	0xbea5648c	-0.32303274
5	0xbd6e14e3	-0.058125388
6	0x3d6313ff	0.05543899
7	0xbc399584	-0.011327151
8	0x3c3476ae	0.011014624
9	0x3d34ce13	0.04414184
10	0xbcb283d2	-0.021791372
11	0xbd802526	-0.062570855
12	0x3e2c867a	0.16848174
13	0xbbfcaa17	-0.007710706
14	0x3c417ee1	0.011810035
15	0x3cfa0b8f	0.03052309

convs.0.fc_full.weight f4 [32, 56]
0	0x3d8628a1	0.06550718
1	0xbb34665b	-0.002752683
2	0x3d5bfe08	0.05370906
3	0x3ca00829	0.019535141
4	0x3de8a88b	0.11360272
5	0xbd84d371	-0.06485642
6	0xbdac8980	-0.084246635
7	0x3d6738e1	0.05645073
8	0xbd3fa7f7	-0.046791043
9	0xbdfdd37e	-0.123938546
10	0x3e078daf	0.13237642
11	0x3d4390c0	0.047745466
12	0x3d03a717	0.03214177
13	0xbe2a26c7	-0.16616355
14	0xbb7113de	-0.0036785523
15	0xbd0f5eb2	-0.035002418
16	0xbec92c98	-0.39291835
17	0x3dac030a	0.08399017
18	0xbbcd375c	-0.006262703
19	0x3e40866c	0.18801278
20	0xbe223bd1	-0.1584313
21	0x3d32eefc	0.043684945
22	0xbe4c118e	-0.19928572
23	0x3d8e5b22	0.06950976
24	0x3d897a12	0.06712736
25	0xbe5fe3c9	-0.21864237
26	0xbdf4e47a	-0.11957641
27	0xbe263151	-0.1622975
28	0x3c84fbae	0.016233291
29	0x3cbd922e	0.023140993
30	0xbd309160	-0.04310739
31	0xbebd2c99	-0.36948088
32	0x3e481592	0.19539478
33	0x3e685562	0.22688821
34	0x3dcb3a1d	0.099231936
35	0xbd8413f7	-0.064491205
36	0x3d279516	0.040913664
37	0x3e59c047	0.21264754
38	0x3cdfd9ff	0.027325628
39	0x3dd4546e	0.10367666
40	0xbce26c59	-0.027639555
41	0xbdcacf6e	-0.09902845
42	0x3e510952	0.20413712
43	0x3e02fe98	0.12792432
44	0x3e7c2122	0.24622014
45	0xbc94bde9	-0.018156962
46	0xbd94f2a6	-0.07272844
47	0xbde80103	-0.11328318
48	0xbc25100d	-0.010074628
49	0x3e36eb1b	0.17863123
50	0x3e934f9c	0.28771675
51	0xbb9b6553	-0.0047423034
52	0x3e05d9f4	0.13071424
53	0x3e951834	0.29120028
54	0x3f064ff6	0.5246576
55	0x3f4d712c	0.8025081
56	0x3d65265d	0.05594479
57	0x3e1856ed	0.1487691
58	0x3e448ff5	0.1919554
59	0x3df07380	0.1174078
60	0xbe39690d	-0.1810648
61	0x3e08f9df	0.13376568
62	0xbcd5e457	-0.026109857
63	0x3e681043	0.22662453
64	0x3d3c2517	0.04593381
65	0x3df05b3e	0.11736153
66	0xbc37863d	-0.0112014385
67	0xbd8c9734	-0.06864777
68	0xbe03ecff	-0.12883376
69	0x3e2e5edd	0.17028375
70	0xbe42d2d3	-0.19025736
71	0xbe1670b8	-0.14691436
72	0x3cc11d39	0.023573505
73	0x3e2581b1	0.16162755
74	0xbdd6d2a3	-0.104893945
75	0xbdade910	-0.08491719
76	0x3de58a97	0.112080745
77	0xbe015caa	-0.12633005
78	0xbd7c2353	-0.061557125
79	0xbdf69461	-0.1204002
80	0x3d0ce0c7	0.034394052
81	0x3d8349e0	0.06410575
82	0xbe1e426d	-0.15455027
83	0xbdde203f	-0.10845994
84	0x3e37824b	0.17920797
85	0xbdde94fc	-0.1086826
86	0x3d748395	0.0596958
87	0xbcdafbbb	-0.026731363
88	0x3e1add8c	0.15123576
89	0x3d5e724c	0.05430822
90	0x3ee58303	0.44826517
91	0x3d9ff9ae	0.078112945
92	0xbd070c2e	-0.0329706
93	0x3de204c3	0.110360645
94	0x3d16c84e	0.03681212
95	0x3efe757b	0.49699005
96	0x3d8e6e68	0.06954652
97	0xbd47a3ff	-0.048740383
98	0xbd043341	-0.032275442
99	0x3e417f02	0.18896106
100	0x3f068527	0.52546924
101	0xbbfc7dc0	-0.0077054203
102	0x3cb72c60	0.022360027
103	0xbd031f51	-0.032012288
104	0xbe2d661c	-0.16933483
105	0xbdaa98f8	-0.08329958
106	0x3e7a101d	0.24420209
107	0x3a12d252	0.0005600798
108	0xbdfeb44b	-0.12436732
109	0xbeb0a6f1	-0.34502366
110	0xbe79b15d	-0.24384065
111	0xbe93b510	-0.28849077
112	0xbdc65ef5	-0.0968608
113	0xbc00c352	-0.007859068
114	0x3d9b8457	0.07593601
115	0x3c8e7698	0.017390534
116	0xbe2fd646	-0.17171583
117	0x3b47ab28	0.0030467007
118	0x3d0de2f1	0.034640256
119	0xbd1f92ee	-0.038958482
120	0xbd9d6475	-0.07685176
121	0x3cfa760d	0.03057387
122	0xbd1a2b49	-0.037638936
123	0xbc202f57	-0.009776912
124	0x3b4f9c7e	0.003167897
125	0x3d5767e4	0.052589312
126	0xbe35fcdd	-0.17772241
127	0x3c7178e2	0.014738293
128	0x3e6577d0	0.22408986
129	0xbcedeb1c	-0.029042773
130	0xbc95655b	-0.018236807
131	0xbe265d0a	-0.16246429
132	0xbd17b3d9	-0.03703675
133	0xbda66c69	-0.08126146
134	0xbbb7e6fb	-0.005612252
135	0x3e84ea3c	0.25959957
136	0x3dc6a246	0.0969892
137	0x3e2459c4	0.16049868
138	0x3e35b9ae	0.17746612
139	0x3d5eead7	0.05442318
140	0xbe077336	-0.13227543
141	0x3d210662	0.039312728
142	0xbe716808	-0.23574841
143	0x3dc2ae72	0.09505929
144	0x3eab1a8a	0.33418685
145	0x3e472331	0.19447018
146	0xbeaf614d	-0.34253922
147	0xbebdb4ad	-0.37051907
148	0xbe41066e	-0.18850109
149	0x3eb34ed7	0.35021088
150	0x3e985ef3	0.2975994
151	0xbe6ca8f3	-0.23111324
152	0xbe3162e0	-0.17322874
153	0xbec35292	-0.38148934
154	0x3e135407	0.14387523
155	0x3d8426fc	0.06452748
156	0xbe12e26d	-0.14344187
157	0xbe86decc	-0.26341856
158	0xbea1e4ad	-0.31619778
159	0x3e0bd64a	0.13655964
160	0xbd5b3e8e	-0.053526454
161	0xbe141afc	-0.14463419
162	0xbc98acd8	-0.018637106
163	0x3cc8473c	0.02444803
164	0xbdccbf34	-0.099974066
165	0xbd96595a	-0.07341261
166	0x3dec5b82	0.11540891
167	0x3e9661ee	0.2937159
168	0xbb5d20a8	-0.0033741388
169	0xbd7fbe11	-0.06243712
170	0x3e544abf	0.20731638
171	0x3db6eed3	0.08932271
172	0xbe27e9db	-0.16397803
173	0xbdc0d2dd	-0.09415219
174	0x3ce8f33b	0.028436294
175	0x3d9819d6	0.07426803
176	0x3bab7644	0.005232604
177	0x3db0f1db	0.0863988
178	0xbd9ec781	-0.07752896
179	0x3dcb240a	0.09918983
180	0x3dbafe20	0.09130502
181	0x3dbaec83	0.09127142
182	0x3d4f28b8	0.05057594
183	0x3c08dde4	0.008353684
184	0xbe455c68	-0.19273531
185	0x3db854c4	0.09000543
186	0x3d866512	0.065622464
187	0x3dcb0197	0.099124126
188	0x3d1709cb	0.036874574
189	0xbc313a25	-0.010817085
190	0xbe6c3354	-0.23066455
191	0xbe27586c	-0.16342324
192	0xbdb41af1	-0.08794201
193	0x3c931c75	0.017957905
194	0xbe325260	-0.17414236
195	0xbdfe8ff6	-0.12429802
196	0x3dfc96d2	0.12333454
197	0x3c915e96	0.017745297
198	0x3a9468b4	0.0011322708
199	0xbdb1bc45	-0.08678488
200	0xba82dac6	-0.0009983412
201	0x3dc56bed	0.09639726
202	0xbe0f3db7	-0.13988386
203	0xbe339875	-0.17538626
204	0xbdc34d65	-0.09536246
205	0x3ceb8ccd	0.028753662
206	0x3e0d8a45	0.13822277
207	0xbdd724c5	-0.1050506
208	0xbe0e126a	-0.13874212
209	0xbcce82c6	-0.025208842
210	0xbccc7cec	-0.024961911
211	0x3ca2bbb8	0.019864902
212	0xbe52c76e	-0.20583889
213	0xbe9072c0	-0.28212547
214	0xbd987c58	-0.07445592
215	0xbdeb6d57	-0.11495464
216	0xbea5d907	-0.3239214
217	0xbe9f350c	-0.3109516
218	0xbc9034c6	-0.01760329
219	0xbdc8d9c8	-0.098071635
220	0xbe3b350d	-0.18281956
221	0xbef9c3e1	-0.48782256
222	0xbeab7875	-0.3349034
223	0xbdd03a75	-0.101674
224	0xbd35f6ae	-0.044424705
225	0x3cb57dec	0.02215477
226	0x3dc59ab1	0.09648646
227	0xbd972bdc	-0.073814124
228	0x3e2b1c76	0.16710076
229	0x3d048f81	0.03236342
230	0x3d672d32	0.056439586
231	0x3cf9852a	0.030459005
232	0x3d9e5deb	0.07732757
233	0x3c23b675	0.009992232
234	0x3d0a8b03	0.03382398
235	0xbde0a232	-0.10968436
236	0xbcf31f87	-0.02967812
237	0x3d7c9c9f	0.061672803
238	0x3e03f02f	0.12884592
239	0xbdb1ee39	-0.086880155
240	0xbdeeb96d	-0.11656461
241	0xbded6a58	-0.11592549
242	0x3c002f18	0.007823728
243	0x3ec58830	0.38580465
244	0xbc1d70ae	-0.009609384
245	0x3e8cdb77	0.27511188
246	0x3db54b1f	0.08852219
247	0xbbca0667	-0.006165314
248	0xbd84a546	-0.06476836
249	0xbdab163d	-0.08353851
250	0xbe15ff8b	-0.14648263
251	0x3e1472f3	0.14496975
252	0x3d725ff4	0.05917354
253	0x3e897e2e	0.2685408
254	0x3e985a66	0.2975647
255	0xbe894235	-0.26808324

convs.0.fc_full.bias f4 [32]
0	0xbcee2e24	-0.029074736
1	0x3e68e96d	0.22745295
2	0x3db6b6b3	0.08921566
3	0x3e28b0a7	0.16473638
4	0xbdcbf6cd	-0.09959183
5	0x3cd61872	0.026134703
6	0x3e1ef4b5	0.15523036
7	0xbd81ff07	-0.06347471
8	0xbd49e7f2	-0.049293466
9	0xbd575814	-0.052574232
10	0x3e539695	0.20662911
11	0x3e96fd0e	0.2948994
12	0x3df973bf	0.1218028
13	0x3d1d343c	0.038379893
14	0x3e00c9b3	0.12576942
15	0x3dd49991	0.10380853
16	0xbdcfaa52	-0.10139908
17	0x3badc1de	0.005302652
18	0xbd9ec6bb	-0.077527486
19	0x3d347b84	0.044063106
20	0xbd37a484	-0.04483463
21	0x3d3b4f9f	0.04573023
22	0xbdd9506e	-0.10611044
23	0x3dae60a1	0.08514524
24	0x3e13a3cf	0.14417957
25	0x3db4f4c3	0.08835747
26	0xbdaafa4d	-0.08348522
27	0xbda24ac9	-0.079244204
28	0x3d9e291a	0.07722683
29	0x3dbb2c79	0.09139342
30	0xbd834076	-0.06408779
31	0xba4aae9c	-0.00077317073

convs.0.bn1.weight f4 [32]
0	0x3fb98826	1.4494674
1	0x3fabe55f	1.3429374
2	0x3fa7f3e3	1.3121303
3	0x3f93e352	1.1553748
4	0x3f9e3bf1	1.2362043
5	0x3f8c9601	1.0983278
6	0x3f8d055c	1.101726
7	0x3fa39ed7	1.2782849
8	0x3f757ad3	0.9589054
9	0x3ff5c248	1.9199915
10	0x3f85ce04	1.0453496
11	0x3f8a88f0	1.082304
12	0x3fa63bc9	1.2986995
13	0x3f9c6189	1.2217265
14	0x3fa5297c	1.2903285
15	0x3f8ad567	1.0846375
16	0x3f831d32	1.0243285
17	0x3f9728e3	1.1809353
18	0x3f8d0b26	1.1019027
19	0x3f86ca98	1.0530577
20	0x3f8144df	1.0099143
21	0x3f9d836f	1.2305735
22	0x3f8ed577	1.1158894
23	0x3f6af22a	0.91775763
24	0x3f9e8979	1.2385703
25	0x3f81d627	1.0143479
26	0x3f9010a2	1.1255076
27	0x3f8f129a	1.1177552
28	0x3f7fbbdb	0.9989602
29	0x3f882d3b	1.0638803
30	0x3f98df64	1.1943173
31	0x3f7ee2f8	0.99565077

convs.0.bn1.bias f4 [32]
0	0x3c8079f7	0.015683157
1	0x3c1d8e7e	0.009616492
2	0xbd869785	-0.06571869
3	0x3dd885a6	0.105723664
4	0xbd3decd2	-0.046368428
5	0x3d92868e	0.071545705
6	0xbc414891	-0.011797086
7	0xbc36dfc3	-0.011161747
8	0xbe477f70	-0.19482207
9	0x3b5ebd27	0.0033987255
10	0xbde23e59	-0.11047048
11	0x3e0e8361	0.13917305
12	0x3e4f3b84	0.20237547
13	0xbdb6b318	-0.08920878
14	0x3c96dad9	0.018414902
15	0x3dfb6c5e	0.12276529
16	0x3dd775ea	0.10520537
17	0xbe08af14	-0.13348037
18	0xbe10e21c	-0.14148754
19	0x3daf634e	0.08563863
20	0xbda50490	-0.08057511
21	0x3cb9608a	0.022629041
22	0x396dfbf6	0.00022695944
23	0x3da37423	0.07981136
24	0xbe9591c2	-0.29212767
25	0xbde46b51	-0.111532815
26	0xbe4583e8	-0.192886
27	0xbd1e024b	-0.038576405
28	0xbbbfef97	-0.0058574188
29	0xbd11898b	-0.03553156
30	0xbe94b103	-0.290413
31	0x3dfd288f	0.123612516

convs.0.bn1.running_mean f4 [32]
0	0x3f350075	0.7070382
1	0x400187db	2.023917
2	0xbf2f960c	-0.6858833
3	0xbf8060f4	-1.0029588
4	0xbf24f3be	-0.6443442
5	0x3f98fc74	1.1952043
6	0x402be6c8	2.6859608
7	0x3f7c3e6d	0.98532754
8	0xc07f5f76	-3.9902015
9	0x3f8f7af7	1.1209401
10	0xbf86a73e	-1.0519788
11	0xbfc591ca	-1.5435116
12	0x3f256ec4	0.6462214
13	0x3e8de8fc	0.27716815
14	0x3eaed7fc	0.34149158
15	0x3fae5b1d	1.3621556
16	0x3df929be	0.12166165
17	0x3f373e3e	0.7157935
18	0xbfabc4f6	-1.3419483
19	0xbf948e40	-1.1605911
20	0x3fe23461	1.7672235
21	0x3f2b081f	0.66809267
22	0x3fe495d6	1.7858226
23	0xbc16aa8a	-0.009195933
24	0xc06777f8	-3.6166973
25	0x3f40779d	0.75182515
26	0xbf197472	-0.59943306
27	0xbfc66eb8	-1.5502539
28	0x3e921dc2	0.28538328
29	0xbfd93685	-1.6969763
30	0xbf668a68	-0.9005494
31	0xbed7be19	-0.4213722

convs.0.bn1.running_var f4 [32]
0	0x3ea1b3a7	0.31582376
1	0x3d84ebf2	0.064903155
2	0x3e063494	0.13105994
3	0x3dddd875	0.108323015
4	0x3e82ae4f	0.25523612
5	0x3e256b6a	0.16154256
6	0x3d97a1c0	0.07403898
7	0x3ddec5b4	0.10877553
8	0x3d970694	0.073743016
9	0x3d82ba89	0.06383235
10	0x3d5de233	0.0541708
11	0x3d65e678	0.056127995
12	0x3ec1579c	0.37762153
13	0x3da26a7b	0.07930466
14	0x3d8cfc43	0.068840526
15	0x3e556844	0.20840555
16	0x3e59c2be	0.21265694
17	0x3dcae4d5	0.099069275
18	0x3dd7ef07	0.10543638
19	0x3dcf5a95	0.10124699
20	0x3def4606	0.11683278
21	0x3e95c38f	0.29250762
22	0x3e0920f6	0.1339148
23	0x3de1bb40	0.11022043
24	0x3e0a632a	0.1351439
25	0x3e49c484	0.19703871
26	0x3dbe024f	0.09277784
27	0x3e6833d9	0.22676028
28	0x3e93141f	0.2872629
29	0x3db011e0	0.085971594
30	0x3e87b397	0.26504204
31	0x3e14c6ed	0.14529009

convs.0.bn2.weight f4 [16]
0	0x3f842f3d	1.0326916
1	0x3f489096	0.7834562
2	0x3f87a3f3	1.0596908
3	0x3f98d0fa	1.1938775
4	0x3f7a08c6	0.9766964
5	0x3f7fe3a7	0.99956745
6	0x3f815a6e	1.0105722
7	0x3f7e7f9d	0.9941347
8	0x3f7a1f9e	0.97704494
9	0x3f8eb511	1.1149007
10	0x3f88c942	1.0686419
11	0x3f908ff2	1.1293929
12	0x3f86f26e	1.0542734
13	0x3f8da0e0	1.106472
14	0x3f8ef695	1.1169001
15	0x3f808c0d	1.004274

convs.0.bn2.bias f4 [16]
0	0xbdc35e0d	-0.09539423
1	0xbe953219	-0.29139784
2	0x3d883fb8	0.066527784
3	0x3e43c15f	0.19116734
4	0xbe6a8f7e	-0.229063
5	0xbc01d02a	-0.007923165
6	0xbd03f9d9	-0.032220695
7	0xbd3dd262	-0.046343215
8	0xbdb77521	-0.089578874
9	0xbd07b7f4	-0.033134416
10	0xbcbedc8e	-0.023298528
11	0x3b061294	0.002045785
12	0x3d888c4c	0.066673845
13	0xbdbb12a9	-0.091344185
14	0xbd08800a	-0.033325233
15	0x3db3263f	0.08747529

convs.0.bn2.running_mean f4 [16]
0	0x40d19068	6.5488777
1	0x40954e11	4.6657796
2	0x40b23c98	5.5698967
3	0x409bc1dd	4.867415
4	0x40b01a81	5.5032353
5	0x409ad911	4.8389974
6	0x40b9a8ab	5.8018394
7	0x40bb67b6	5.85641
8	0x40a2942c	5.0805874
9	0x40abe3a9	5.3715405
10	0x4099c17d	4.804869
11	0x4080d43e	4.0259085
12	0x40d15c48	6.542515
13	0x4096aacd	4.7083497
14	0x4087c4a6	4.242755
15	0x40a21fcb	5.066381

convs.0.bn2.running_var f4 [16]
0	0x4036edd7	2.8582666
1	0x4183904d	16.44546
2	0x413dcab0	11.861984
3	0x40bf0ba3	5.9701705
4	0x40f866ef	7.762565
5	0x40393489	2.8938315
6	0x41bab2c0	23.33728
7	0x410534c7	8.325385
8	0x416bba3c	14.732967
9	0x4156ca22	13.424349
10	0x41818abc	16.192741
11	0x4027de42	2.6229405
12	0x406e1642	3.7201085
13	0x4195fa3c	18.747185
14	0x4080ab32	4.020898
15	0x4004db3f	2.0758817

convs.1.fc_full.weight f4 [32, 56]
0	0x3dfd2d60	0.1236217
1	0x3e89f3ee	0.26943916
2	0x3c966fae	0.0183638
3	0xbda270ad	-0.079316474
4	0x3cd871a8	0.026421383
5	0xbcb46f8e	-0.02202585
6	0x3dabaa83	0.08382132
7	0xbd07689c	-0.033058748
8	0xbbe0162e	-0.0068385815
9	0xbe13d64c	-0.14437217
10	0x3d43eafe	0.047831528
11	0x3e224abe	0.15848824
12	0x3d200610	0.03906828
13	0xbe138749	-0.14407076
14	0x3e0baeba	0.13640872
15	0xbd33f97c	-0.0439391
16	0xbe920c20	-0.28524876
17	0xbe0428ae	-0.12906143
18	0xbdb1f5d0	-0.08689463
19	0x3e5b5c8d	0.21422024
20	0xbdb0d5fa	-0.08634563
21	0xbe698b68	-0.22807086
22	0xbd99f032	-0.07516517
23	0x3e1ee996	0.15518793
24	0xbcf42b7f	-0.029805897
25	0xbe22d91c	-0.15903133
26	0x3db020df	0.0860002
27	0xbe080876	-0.13284478
28	0x3e31eb7c	0.17374986
29	0xbd149ba3	-0.03628124
30	0xbd95149e	-0.07279323
31	0xbe6241a3	-0.22095351
32	0xbe33b8fa	-0.17551032
33	0xbd0bcde5	-0.034131903
34	0x3d9ec3a9	0.07752163
35	0x3e0909e1	0.13382675
36	0xbd618951	-0.055062596
37	0xbce5bc63	-0.028043931
38	0xbd68094a	-0.056649484
39	0x3e0711cc	0.13190383
40	0xbb76b9ed	-0.0037647441
41	0x3dc6c6a4	0.097058564
42	0x3bc6711a	0.006055963
43	0x3d112912	0.03543956
44	0x3bad96ee	0.0052975332
45	0x3dc38c9f	0.09548306
46	0x3cde3ae3	0.027127689
47	0x3e411295	0.18854745
48	0x3e884a92	0.26619393
49	0x3cd0e33f	0.025498984
50	0xbda03198	-0.07821959
51	0xbdac154d	-0.084025
52	0xbd7f40b1	-0.062317554
53	0xbe9a8785	-0.30181518
54	0xbeac6f6e	-0.33678764
55	0xbeea1feb	-0.45727476
56	0xbcf0fadd	-0.029416496
57	0xbe8fa7cb	-0.28057703
58	0x3d158363	0.036502253
59	0xbd9c050c	-0.0761815
60	0xbc7391f0	-0.014866337
61	0xbe0da3c5	-0.13832004
62	0xbdbc0bf1	-0.09181965
63	0xbdaf3977	-0.085558824
64	0xbda3ffb5	-0.080077566
65	0x3e3c0d0c	0.18364352
66	0xbe41ac47	-0.18913375
67	0x3c8247d8	0.015903398
68	0x3c9fb55f	0.019495664
69	0x3e07fe4d	0.13280602
70	0x3d3056aa	0.0430514
71	0xbcaa68f8	-0.020802006
72	0xbbb12a25	-0.0054066353
73	0x3e73555b	0.2376303
74	0xbded5d31	-0.115900405
75	0x3b566ec9	0.0032719842
76	0x3e55dd63	0.20885234
77	0x3ea4a4d0	0.32156992
78	0xbe97ab02	-0.29622656
79	0x3d47e2ca	0.048800267
80	0xbd512e2a	-0.051069416
81	0xbccfce82	-0.025367025
82	0xbce0a71b	-0.027423432
83	0xbd2c71d9	-0.04210076
84	0x3cb670d9	0.022270607
85	0x3d59f391	0.0532108
86	0xbc0996f7	-0.008397809
87	0x3d94c053	0.072632454
88	0x3e771c69	0.24131931
89	0x3d967e0f	0.073482625
90	0xbe8f4733	-0.27984008
91	0xbebecdf0	-0.37266493
92	0xbe6c0e12	-0.23052242
93	0x3e96a010	0.29418993
94	0x3e3ebe88	0.1862737
95	0xbd41720e	-0.04722791
96	0xbe862e68	-0.2620728
97	0xbe52c6be	-0.20583627
98	0x3eaf712c	0.3426603
99	0x3e8a8c5c	0.2706021
100	0xbe2d8cee	-0.16948292
101	0xbddb7258	-0.10715169
102	0xbe9ee6e0	-0.3103552
103	0x3e5ee226	0.21765956
104	0x3e35e211	0.17762019
105	0xbd9287c0	-0.071547985
106	0xbe285c49	-0.16441454
107	0x3d2f199c	0.042749032
108	0xbd4b6e0e	-0.049665503
109	0xbdc92f5a	-0.09823485
110	0xbe87d073	-0.26526222
111	0xbf1f5e2e	-0.6225308
112	0x3e4b2f4e	0.19842264
113	0xbdac23a7	-0.08405238
114	0x3d631880	0.055443287
115	0x3e81eab8	0.2537439
116	0x3d424e9b	0.047438245
117	0x3bfba06d	0.0076790364
118	0xbe1e6e57	-0.15471779
119	0x3c8f30de	0.017479356
120	0xbd95e6e0	-0.073194265
121	0x3dbae65e	0.0912597
122	0x3d99f9f7	0.0751838
123	0x3c9447c2	0.018100623
124	0x3e6d154b	0.23152654
125	0xbde4af85	-0.1116629
126	0xbdf164f5	-0.11786834
127	0xbe2cb531	-0.16865994
128	0x3e15125c	0.14557785
129	0x3e099a34	0.1343773
130	0xbd07f42b	-0.03319184
131	0xbd114127	-0.035462525
132	0xbd8fce4d	-0.070217706
133	0x3d644e0b	0.05573849
134	0x3c6c00d3	0.014404493
135	0x3dd61189	0.10452563
136	0xbe1b1c2b	-0.15147464
137	0x3c8b0a1d	0.016972596
138	0xbe4eb1ec	-0.2018506
139	0xbef40bac	-0.47665155
140	0x3d323db4	0.043515876
141	0x3c0540b9	0.008133107
142	0x3d85b9e5	0.06529597
143	0x3dba6852	0.09101929
144	0x3d05e8df	0.032692786
145	0x3df2ea12	0.118610516
146	0x3de6e6a6	0.112744614
147	0xbd91a0fd	-0.07110784
148	0xbe1f2f6b	-0.15545432
149	0x3e050fb3	0.1299427
150	0x3e02c56c	0.12770623
151	0x3d32e608	0.043676406
152	0xbdb539ed	-0.08848939
153	0xbe06a5ac	-0.13149136
154	0x3d19d1ce	0.0375536
155	0x3da54b51	0.08071006
156	0x3e18d1a6	0.14923725
157	0x3d089c57	0.033352222
158	0xbe2bc394	-0.16773826
159	0xbc714b8b	-0.0147274835
160	0x3d748da2	0.059705384
161	0x3dc6e238	0.097111166
162	0x3e03c292	0.12867191
163	0xbd681007	-0.05665591
164	0xba02e7e7	-0.00049936626
165	0xbe33a13e	-0.17541978
166	0x3d4d716c	0.050156996
167	0x3ed49b50	0.41524744
168	0x3d87b4bd	0.0662627
169	0xbcf59c71	-0.029981824
170	0xbcb3756e	-0.02190658
171	0xbe1af637	-0.15132986
172	0x3df980b4	0.12182751
173	0xbe3e1574	-0.18562871
174	0xbe34017d	-0.17578693
175	0xbe3b1249	-0.18268694
176	0xbd8912b3	-0.0669302
177	0xbdca58ca	-0.098802164
178	0x3bd7a80b	0.0065813116
179	0xbd64eb6f	-0.05588859
180	0xbe0169fd	-0.12638088
181	0xbe0fee16	-0.14055666
182	0xbcd79ac4	-0.026318915
183	0xbe53f725	-0.20699747
184	0xbe390b53	-0.18070726
185	0x3d849a2b	0.06474718
186	0xbe1f9ce8	-0.15587199
187	0xbd9807f2	-0.074233904
188	0x3e2d1a7b	0.16904633
189	0xbca54f88	-0.020179525
190	0x3cf5951a	0.029978324
191	0xbdda3847	-0.10655265
192	0x3ce24d78	0.02762483
193	0x3e63b235	0.2223595
194	0xbd64e430	-0.05588168
195	0x3da6ad0b	0.08138474
196	0x3d902b70	0.07039535
197	0xbde211f2	-0.11038579
198	0xbe5b31a4	-0.21405655
199	0x3da88cdd	0.082299925
200	0xbe75d0f7	-0.24005495
201	0xbec6504c	-0.38733137
202	0xbea827d3	-0.32842883
203	0xbc88ca1b	-0.016697934
204	0xbd3661b7	-0.044526782
205	0xbe2cd7de	-0.16879222
206	0xbe58ee8e	-0.21184751
207	0xbe8b3ea4	-0.27196229
208	0x3ddc87e7	0.10768109
209	0x3e095795	0.13412316
210	0xbe8df7d6	-0.27728146
211	0xbeb3aeb3	-0.35094222
212	0xbea9a750	-0.33135462
213	0x3cd50df7	0.026007636
214	0x3dad2d6e	0.08455931
215	0x3dec4449	0.11536462
216	0x3e0519b9	0.12998094
217	0x3e07667f	0.13222693
218	0x3ccef9a0	0.025265515
219	0xbde3de5e	-0.111263976
220	0xbd772a09	-0.060342822
221	0xbec3d4a6	-0.38248175
222	0xbec9b6ea	-0.39397365
223	0xbeb35952	-0.35029083
224	0xbdcd221a	-0.1001627
225	0xbd163808	-0.03667453
226	0x3d8ca75d	0.068678595
227	0xbe2d851f	-0.16945313
228	0xbd3b284a	-0.04569272
229	0x3e6ee78d	0.23330517
230	0xbd923a29	-0.071399994
231	0xbc5fa205	-0.013649468
232	0xbe16280c	-0.14663714
233	0x3d238377	0.039920297
234	0xbd881cd5	-0.06646124
235	0xbce8dd1a	-0.028425742
236	0x3c52e92a	0.012872973
237	0xbcb6ba31	-0.02230558
238	0xbd00611e	-0.03134262
239	0x3d64c1b7	0.055848803
240	0x3cee92dc	0.029122762
241	0xbe1aa3cf	-0.1510155
242	0xbda59e4a	-0.08086832
243	0xbd86f62d	-0.06589923
244	0x3e8a5d62	0.2702437
245	0xbdf4c655	-0.11951891
246	0xbdf30c67	-0.118676
247	0xbe18e6fc	-0.14931864
248	0xbcb04b58	-0.021520302
249	0x3def3113	0.11679282
250	0xbc4f8928	-0.012666978
251	0x3ec86444	0.39138997
252	0xbd5a780e	-0.05333715
253	0x3e729005	0.23687752
254	0x3ddbcdee	0.10732637
255	0xbe967f52	-0.29394013

convs.1.fc_full.bias f4 [32]
0	0xbdd86fdf	-0.10568213
1	0x3d9ecb98	0.07753676
2	0xbcd42843	-0.025898105
3	0xbe0797cc	-0.132415
4	0xbd16b93c	-0.036797747
5	0x3df5c0f4	0.119996935
6	0xbcefa01b	-0.029251149
7	0xbd8174e3	-0.063211225
8	0x3b57903f	0.0032892374
9	0x3d391d1b	0.045193773
10	0x3cf86360	0.030320823
11	0xbe47edfb	-0.19524376
12	0x3e074dfd	0.13213344
13	0xbd9fb4e2	-0.077981725
14	0x3ddb94d9	0.1072175
15	0xbdb86072	-0.090027705
16	0xbe162079	-0.14660825
17	0xbdb37959	-0.087633796
18	0x3df1d0d1	0.11807407
19	0x3e046e28	0.12932646
20	0x3cdec30b	0.027192613
21	0xbdd101c4	-0.10205415
22	0x3e0e6cb6	0.13908657
23	0xbdcfc3ca	-0.10144766
24	0xbe11dd7a	-0.14244643
25	0xbda426d6	-0.0801522
26	0x3dae22fd	0.08502767
27	0xbc9dbace	-0.019254114
28	0x3e3a7d6b	0.18211906
29	0xbe0eac3d	-0.13932891
30	0x3d0f1254	0.03492959
31	0xbcbaaf84	-0.02278877

convs.1.bn1.weight f4 [32]
0	0x3fb550b1	1.416525
1	0x3fb21937	1.3913945
2	0x3f9e0e43	1.2348102
3	0x3f8fb070	1.122572
4	0x3f980e9e	1.1879461
5	0x3fbe6f15	1.487765
6	0x3fbec0ef	1.4902629
7	0x3f9f0b19	1.2425262
8	0x3fbe79a2	1.4880869
9	0x40015a6a	2.0211434
10	0x3f9248c7	1.142846
11	0x3f85fef5	1.0468432
12	0x3fa9d1c8	1.3267145
13	0x3f71aa00	0.94400024
14	0x3fbb02f9	1.4610282
15	0x3f9446f5	1.1584154
16	0x3f8c0611	1.0939351
17	0x3fab33c7	1.3375176
18	0x3f85f287	1.0464638
19	0x3f828098	1.0195494
20	0x3f9380d2	1.1523688
21	0x3fa172ea	1.2613194
22	0x3f9e473d	1.236549
23	0x3f95d429	1.1705371
24	0x3f84a6b7	1.0363377
25	0x3f93c403	1.1544193
26	0x3f8e4c9b	1.1117128
27	0x3f8ceece	1.1010377
28	0x3f896eed	1.0736977
29	0x3f98e54b	1.1944975
30	0x3f8c94c6	1.0982902
31	0x3fa5ef5a	1.2963669

convs.1.bn1.bias f4 [32]
0	0xbe1f82cb	-0.15577237
1	0xbef8f68a	-0.48625594
2	0x3d43ce78	0.047804326
3	0x3c0b931a	0.008518958
4	0x3d1f1115	0.03883465
5	0x3d3d4052	0.04620392
6	0xbcdab5fb	-0.026698103
7	0xbe390d12	-0.18071392
8	0xbd4f728a	-0.050646342
9	0xbe9c5bd2	-0.30538803
10	0x3e0dc3c1	0.13844205
11	0xbc8eebd0	-0.017446429
12	0x3c3c02db	0.01147529
13	0x3ce0f36d	0.027459824
14	0xbe1d2afb	-0.15348427
15	0xbe05d47b	-0.13069336
16	0xbe4e2373	-0.2013071
17	0xbf3acf0f	-0.72972196
18	0x3cd4e6c2	0.02598894
19	0x3e07dd95	0.1326812
20	0xbdcdaf41	-0.10043193
21	0xbe530542	-0.20607474
22	0xbd85bb0b	-0.06529816
23	0xbd741b7f	-0.059596535
24	0x3c1c2634	0.009530593
25	0xbe1d1677	-0.15340601
26	0x3cd46038	0.025924787
27	0xbd964339	-0.073370405
28	0xbe889267	-0.26674196
29	0xbd1e801d	-0.038696397
30	0xbd814279	-0.06311507
31	0xbeca0544	-0.39457142

convs.1.bn1.running_mean f4 [32]
0	0xbe92080b	-0.2852176
1	0xbf3520ec	-0.7075336
2	0x3ead5c01	0.33859256
3	0xc05bbaba	-3.433272
4	0xc0296a86	-2.6471267
5	0x3f0ea173	0.557151
6	0x3f8e9297	1.1138486
7	0x3ec536b5	0.385183
8	0xc03f800e	-2.9921908
9	0x3c36ec22	0.011164697
10	0xbf092003	-0.5356447
11	0xc04197d2	-3.0248914
12	0xbf646a83	-0.89225024
13	0x3eb1d17a	0.3473013
14	0xc00ce935	-2.2017338
15	0x3f31535c	0.6926782
16	0xbff4ef46	-1.913552
17	0x3f628a53	0.88492316
18	0x3f546934	0.8297303
19	0xbff2891c	-1.8948092
20	0xbfaf7712	-1.3708212
21	0xbf4a6198	-0.79055166
22	0x3f3543ee	0.7080678
23	0x3f86fea4	1.054646
24	0xbfdecf58	-1.7407026
25	0xbfcb318a	-1.5874493
26	0xbf95ea2e	-1.1712091
27	0xc0610a57	-3.516256
28	0xc03ea420	-2.9787674
29	0xbf694316	-0.9111799
30	0xbfa26d6f	-1.2689646
31	0x3f978a12	1.1839011

convs.1.bn1.running_var f4 [32]
0	0x3dffbd5b	0.124872886
1	0x3e81d624	0.2535869
2	0x3e4a4db0	0.19756198
3	0x3e0c5ac6	0.13706502
4	0x3e3409f3	0.1758192
5	0x3e1b422c	0.15161961
6	0x3e353da9	0.17699303
7	0x3e521f46	0.20519742
8	0x3e0c67a4	0.13711411
9	0x3e30a7dd	0.17251535
10	0x3e55db86	0.20884523
11	0x3e82be1c	0.25535667
12	0x3ea08510	0.3135152
13	0x3e4b1b61	0.19834663
14	0x3dd272dc	0.10275814
15	0x3e10fde1	0.14159347
16	0x3e833fcd	0.25634614
17	0x3e86b272	0.26308018
18	0x3ec3e009	0.38256863
19	0x3ebb78fe	0.36615747
20	0x3de5d177	0.11221593
21	0x3e2916c8	0.16512597
22	0x3e4130ac	0.18866223
23	0x3e9abb3a	0.30220968
24	0x3e380b16	0.17972979
25	0x3e7e581c	0.24838299
26	0x3eeb9a92	0.46016365
27	0x3e9b96fc	0.3038863
28	0x3eb9f9d1	0.36323407
29	0x3daf8fb7	0.08572333
30	0x3e0c291e	0.1368756
31	0x3dd766ae	0.105176315

convs.1.bn2.weight f4 [16]
0	0x3f7e6c54	0.99384046
1	0x3fa64180	1.2988739
2	0x3f8561c9	1.0420467
3	0x3f7fba4d	0.9989365
4	0x3f7b00a5	0.9804786
5	0x3f899904	1.0749822
6	0x3f88285f	1.063732
7	0x3f7a5684	0.9778826
8	0x3f8a0827	1.0783738
9	0x3f75102e	0.95727813
10	0x3f96a4e9	1.1769077
11	0x3f8120ce	1.0088136
12	0x3f84e123	1.0381206
13	0x3f890681	1.070511
14	0x3f87f58d	1.0621811
15	0x3f7655c6	0.9622463

convs.1.bn2.bias f4 [16]
0	0xbdf226e5	-0.11823825
1	0x3e19654c	0.14980048
2	0x3dfca654	0.12336412
3	0x3da4e6b3	0.08051815
4	0xbdadfe07	-0.084957175
5	0xbdf1cea7	-0.11806994
6	0xbdce7c60	-0.100823164
7	0xbe429683	-0.19002728
8	0x3cdc3168	0.026879027
9	0xbe127d2f	-0.14305566
10	0xbd5ae9ec	-0.05344574
11	0xbd24c7ab	-0.04022948
12	0x3d79ee16	0.061018072
13	0xbdd54143	-0.10412838
14	0xbdc22ecb	-0.09481581
15	0xbd339c79	-0.043850396

convs.1.bn2.running_mean f4 [16]
0	0x40a22fd0	5.0683365
1	0x405d49e9	3.457636
2	0x4097dd9e	4.745803
3	0x40d00dfb	6.5017066
4	0x40a256b4	5.073084
5	0x40a4e9e8	5.153553
6	0x409f6178	4.980648
7	0x4090f26a	4.5295916
8	0x40a7ca3b	5.2434363
9	0x4097bc79	4.741757
10	0x40a1b576	5.053401
11	0x40b31d3d	5.597319
12	0x40995b02	4.7923594
13	0x40908ab8	4.5169334
14	0x409def06	4.9354277
15	0x40757bce	3.8356814

convs.1.bn2.running_var f4 [16]
0	0x41248070	10.281357
1	0x408f4bcf	4.478004
2	0x40e8d08b	7.275457
3	0x421f6345	39.846943
4	0x408ff63b	4.4988074
5	0x41530e2d	13.190961
6	0x40f407f1	7.6259694
7	0x40e4782e	7.1396704
8	0x4168806e	14.531355
9	0x412230d2	10.136919
10	0x40d50ba5	6.6576715
11	0x410e4551	8.891923
12	0x40bd1966	5.9093504
13	0x40d9e413	6.809091
14	0x41884621	17.034243
15	0x4110babc	9.045589

convs.2.fc_full.weight f4 [32, 56]
0	0xbd3f879f	-0.046760198
1	0xbdfbb728	-0.12290794
2	0x3dd294e0	0.10282302
3	0x3e3bc384	0.18336302
4	0xbe224a9b	-0.15848772
5	0xbb9b53c3	-0.00474021
6	0x3d867570	0.06565368
7	0xbd6946a2	-0.056952126
8	0x3cda5126	0.026650023
9	0x3ce61308	0.028085247
10	0xbe41e263	-0.18934016
11	0xbe4ea40c	-0.20179766
12	0x3ddf5671	0.10905159
13	0xbd8cedf8	-0.068813264
14	0x3c8a823a	0.0169078
15	0xbe59311e	-0.21210143
16	0xbe2cac21	-0.16862537
17	0xbd99a3c9	-0.07501943
18	0x3dfcd91a	0.12346096
19	0x3d07a2ec	0.03311436
20	0xbb277093	-0.0025549277
21	0xbe33c3dc	-0.17555183
22	0x3e1a967b	0.15096466
23	0xbeb5256a	-0.35380107
24	0x3e37772b	0.17916553
25	0x3a82da2d	0.0009983234
26	0x3e239638	0.15975273
27	0x3cb66eef	0.022269694
28	0xbe6c665b	-0.2308592
29	0xbdb91d79	-0.090388246
30	0xbcc048f4	-0.023472287
31	0xbe0a060a	-0.13478866
32	0xbe4ca596	-0.19985041
33	0xbec37e58	-0.3818233
34	0x3df5d4d2	0.12003483
35	0x3e6dc5dc	0.23220009
36	0x3e996781	0.2996178
37	0xbe1b80ab	-0.15185802
38	0xbe7d5446	-0.24739179
39	0x3d5f7c72	0.05456204
40	0x3e813c43	0.2524129
41	0x3e4fede2	0.20305589
42	0xbeadb974	-0.33930552
43	0xbe30746a	-0.17231908
44	0x3e0e49ec	0.13895386
45	0x3e9c480d	0.3052372
46	0x3eb73f8d	0.35790673
47	0xbe4e9842	-0.20175269
48	0x3d9d44b0	0.07679117
49	0x3e776ede	0.24163386
50	0x3eb39a03	0.3507844
51	0x3baeecd3	0.0053382902
52	0x3db5a7d2	0.088699
53	0x3d5eb945	0.054375906
54	0xbe4f7e50	-0.20263028
55	0x3aaaaceb	0.0013021504
56	0x3e5dc8c1	0.21658613
57	0xbe58833d	-0.21143813
58	0xbe3b139d	-0.182692
59	0xbe1eb692	-0.15499333
60	0xbe1973b8	-0.1498555
61	0xbdf0e69e	-0.11762737
62	0x3db84527	0.08997565
63	0x3dec6136	0.11541979
64	0xbda90de1	-0.082546
65	0x3e808c19	0.25106886
66	0x3e5e7d17	0.21727405
67	0x3c146a3d	0.009058532
68	0x3e16f6bb	0.14742558
69	0x3d7d22dc	0.061800823
70	0x3e32357f	0.1740322
71	0x3d6a2c74	0.0571713
72	0x3dbdfdf6	0.09276955
73	0x3dd9ec21	0.10640741
74	0xbbbda051	-0.0057869335
75	0x3d7a4441	0.06110025
76	0x3c05fc3c	0.008177813
77	0x3db34ce9	0.08754904
78	0x3e004f6f	0.12530302
79	0x3caeb159	0.0213248
80	0x3d147fd5	0.036254723
81	0x3e84d391	0.25942662
82	0xbd9396aa	-0.07206471
83	0x3dd72700	0.105054855
84	0xbdbbbaf3	-0.09166517
85	0x3d29e142	0.04147459
86	0x3dfc603e	0.12323044
87	0xbe380fd1	-0.17974783
88	0xbd5fd63d	-0.054647673
89	0x3d66da4a	0.05636052
90	0x3ef161c8	0.47144914
91	0x3bf02e30	0.0073297247
92	0xbc3893d0	-0.01126571
93	0x3ce2572e	0.027629461
94	0x3e21b695	0.15792306
95	0x3ebdfb59	0.37105826
96	0x3e02960a	0.12752548
97	0xbdb45e09	-0.08806998
98	0x3d28f719	0.041251276
99	0x3e793571	0.24336793
100	0x3eb856d6	0.3600375
101	0x3e25dcc7	0.16197501
102	0x3d84271e	0.064527735
103	0xbd5159ab	-0.051110905
104	0x3e07d9d2	0.13266686
105	0xbcce1b3a	-0.025159467
106	0x3dbddae6	0.09270267
107	0x3d1b14a4	0.03786148
108	0x3df1c059	0.118042655
109	0x3ddcd4df	0.107827894
110	0xbdff33e8	-0.12461072
111	0xbf08c218	-0.53421164
112	0xbd83fc0c	-0.064445585
113	0xbd5abb87	-0.053401496
114	0xbd903bd4	-0.07042661
115	0xbe1502a1	-0.14551784
116	0xbd5ace60	-0.05341947
117	0xbd8d7dd5	-0.06908766
118	0x3d1d975f	0.038474437
119	0xbd1a174c	-0.037619874
120	0xbd81cfd1	-0.06338466
121	0x3e2b3325	0.16718729
122	0x3caeb31e	0.021325644
123	0x3e184176	0.14868721
124	0x3b008c0e	0.001961473
125	0xbaef328a	-0.0018249315
126	0x3d130895	0.035896856
127	0xbdae3884	-0.08506873
128	0xbedbb919	-0.42914656
129	0xbe80dddf	-0.25169274
130	0xbc4a109c	-0.012333062
131	0xbd9b3981	-0.075793274
132	0xbd8c39c7	-0.06846958
133	0x3d3e603a	0.046478488
134	0x3bddebd1	0.0067724963
135	0xbe8dd461	-0.27701095
136	0xbe8920e9	-0.2678292
137	0x3e797e86	0.24364671
138	0xbd64d253	-0.055864643
139	0xbe03e9a8	-0.12882102
140	0x3e114d66	0.14189681
141	0xbd985d0f	-0.074396245
142	0xbdd38540	-0.1032815
143	0x3e185b7c	0.14878649
144	0x3df19031	0.117950805
145	0x3e8cc549	0.27494267
146	0xbd9e3b42	-0.07726146
147	0xbe2399e0	-0.15976667
148	0xbd964ae3	-0.07338502
149	0x3dd8cecd	0.10586319
150	0x3e5fc0ea	0.21850935
151	0xbca78e2e	-0.020453539
152	0xbd69b118	-0.057053655
153	0xbe006f48	-0.1254245
154	0x3e5e02b8	0.21680725
155	0x3e038150	0.12842298
156	0x3c8d0d97	0.017218394
157	0x3ca5eb5c	0.02025383
158	0x3cf9b3af	0.030481188
159	0x3e878a2d	0.26472607
160	0x3d8ac76e	0.067763194
161	0xbb6ab05b	-0.0035810682
162	0xbe58eb5f	-0.21183537
163	0xbce1f2f7	-0.027581675
164	0x3da1804b	0.07885798
165	0x3ea092a8	0.3136189
166	0x3e3b4126	0.18286571
167	0x3e21be60	0.15795279
168	0x3d207e20	0.039182782
169	0x3e13e165	0.1444145
170	0x3df3959a	0.118937686
171	0xbdd2b42c	-0.10288271
172	0xbdbc4a99	-0.09193916
173	0x3d36bce9	0.044613753
174	0x39fe41b3	0.00048495605
175	0xbe30d7ff	-0.17269896
176	0xbdde8251	-0.108647
177	0x3d93a99b	0.07210084
178	0xbdd668f4	-0.10469237
179	0x3be1dbd1	0.0068926592
180	0x3ce12a87	0.027486099
181	0x3e9d3c13	0.30709895
182	0x3e193ad2	0.14963844
183	0x3d10c00f	0.03533941
184	0xbde0a0ea	-0.10968192
185	0x3cdcc06b	0.02694722
186	0x3e1aada2	0.15105298
187	0xbd64fedc	-0.055907115
188	0x3e20d0d0	0.15704656
189	0x3d3d5607	0.04622462
190	0xbe1994c8	-0.14998162
191	0xbe151e46	-0.1456233
192	0x3cb56b32	0.022145841
193	0x3d477621	0.04869664
194	0xbdda4377	-0.10657399
195	0x3d8c0c40	0.06838274
196	0xbc8989ec	-0.0167894
197	0xbe146071	-0.14489914
198	0x3ed06ea4	0.40709412
199	0x3bad5daf	0.005290709
200	0x3d5a36f8	0.05327508
201	0xbd1038de	-0.035210483
202	0xbe7f4bb6	-0.24931225
203	0xbdf6d220	-0.12051797
204	0xbe15ef5e	-0.14642093
205	0xbd516f7f	-0.05113172
206	0xbe0a291f	-0.13492249
207	0xbe8f9082	-0.28039938
208	0xbd58ff89	-0.052978072
209	0xbd1a336c	-0.037646696
210	0xbdabfa48	-0.08397347
211	0xbe1f899b	-0.15579836
212	0xbeac77c5	-0.33685127
213	0xbe3ea26d	-0.18616648
214	0xbb10ede4	-0.002211445
215	0x3e630f3a	0.22173777
216	0x3cf67a78	0.030087695
217	0x3e336869	0.17520298
218	0xbd532227	-0.051546242
219	0xbd6ba003	-0.057525646
220	0xbc12c0fb	-0.008957143
221	0xbe9188c8	-0.28424668
222	0xbe74e4f6	-0.23915467
223	0x3de2311b	0.110445224
224	0x3dcc443e	0.09973954
225	0x3e2374ec	0.15962571
226	0x3e735aad	0.23765059
227	0x3be1a5e1	0.0068862294
228	0xbd7d654d	-0.061864186
229	0x3d9b7ea0	0.07592511
230	0xbe9e3318	-0.30898356
231	0xbdcdf1d2	-0.10055889
232	0xbdffc821	-0.124893434
233	0xbd633eec	-0.05547993
234	0xbe3db03f	-0.18524264
235	0xbd80b05f	-0.0628364
236	0xbe434b1d	-0.19071622
237	0xbca3f279	-0.02001308
238	0x3e1d8638	0.15383232
239	0xbd2716d6	-0.040793262
240	0x3e5223b4	0.20521432
241	0x3e93c360	0.28859997
242	0xbdcae604	-0.09907153
243	0xbdcd3548	-0.10019928
244	0xbddc8192	-0.10766901
245	0xbbe54747	-0.0069970223
246	0xbc52b739	-0.0128610665
247	0x3dacef21	0.08444048
248	0xbbaf21b3	-0.0053445934
249	0x3e81788f	0.2528729
250	0x3dc57ef8	0.09643358
251	0x3c264ceb	0.010150175
252	0xbd05fa8f	-0.032709654
253	0x3e2e3d6c	0.17015618
254	0xbdcd5010	-0.10025036
255	0xbe140225	-0.14453943

convs.2.fc_full.bias f4 [32]
0	0x3e15bfbc	0.14623922
1	0xbd72d784	-0.059287563
2	0xbdcf433d	-0.101202466
3	0xbd7aa9bb	-0.061197024
4	0x3dc6e600	0.09711838
5	0x3d0914d9	0.033467147
6	0xbdd99104	-0.10623363
7	0xbe0dff75	-0.1386698
8	0xbdd2538d	-0.10269842
9	0x3ce12248	0.027482167
10	0xbcb1f08a	-0.021721143
11	0x3d98d64f	0.07462751
12	0xbcd2ac9a	-0.025717068
13	0x3e04761f	0.12935685
14	0x3d3b29b0	0.045694053
15	0xbcda7a7e	-0.026669737
16	0xbda4f907	-0.08055311
17	0xbd0490a3	-0.0323645
18	0xbd8b2135	-0.06793443
19	0xbcaf6149	-0.021408694
20	0x3cc6c3e1	0.024263324
21	0xbde911f9	-0.11380381
22	0x3d8fa1b4	0.07013264
23	0x3d71101e	0.05885326
24	0xbdd9a94c	-0.10627994
25	0x3dd184ca	0.10230406
26	0xbd209145	-0.03920104
27	0xbdaa6ee5	-0.08321933
28	0xbcfcba72	-0.030850623
29	0x3d0845c9	0.033269677
30	0x3d0a2158	0.033723205
31	0xbdc5bd52	-0.096552506

convs.2.bn1.weight f4 [32]
0	0x3f81a170	1.0127392
1	0x3f9f5d96	1.2450435
2	0x3f917887	1.1364907
3	0x3f94010b	1.1562818
4	0x3fab64c7	1.339013
5	0x3fc34e34	1.5258241
6	0x400d987d	2.2124321
7	0x3fbd414e	1.4785554
8	0x3fc67bab	1.550649
9	0x3f75a516	0.95955026
10	0x3fad3f91	1.3535024
11	0x3fa91075	1.3208147
12	0x3fea65f4	1.8312364
13	0x3f98fda6	1.1952407
14	0x3f7ba2e1	0.9829541
15	0x3fdbdd97	1.7176999
16	0x3f6746ed	0.903426
17	0x3f881be9	1.0633518
18	0x3fa26d7d	1.2689663
19	0x3f8542fd	1.0411068
20	0x3facbb3c	1.3494639
21	0x3f808307	1.0039986
22	0x3f8eb883	1.1150059
23	0x3fa2d40b	1.272096
24	0x3f9c48e1	1.2209741
25	0x3fb8f3db	1.4449419
26	0x3fa12175	1.2588335
27	0x3f9012e1	1.1255761
28	0x3f88da05	1.0691534
29	0x3f979d0d	1.1844803
30	0x3fc66588	1.5499735
31	0x3faeb7ff	1.3649901

convs.2.bn1.bias f4 [32]
0	0xbdc9d701	-0.09855462
1	0xba3d6f37	-0.000722635
2	0xbd2d8e32	-0.042371936
3	0x3d86ced3	0.06582417
4	0xbdcde635	-0.10053674
5	0xbe0daa69	-0.13834538
6	0xbe5d26bf	-0.21596812
7	0xbe3fda0d	-0.18735524
8	0xbc279db7	-0.010230473
9	0x3dd52ce6	0.10408954
10	0xbcb72239	-0.022355186
11	0xbcdb94d1	-0.02680436
12	0x3db44b5b	0.088034354
13	0xbd35760a	-0.044302024
14	0x3da8076d	0.08204541
15	0xbe4aa512	-0.19789532
16	0xbe4669d9	-0.19376315
17	0xbe23c9fe	-0.15995023
18	0xbde4986c	-0.11161885
19	0xbc10b764	-0.008832786
20	0xbe0d628b	-0.13807122
21	0x3ca8d865	0.020610997
22	0xbe0c92a3	-0.13727812
23	0xbecfb557	-0.4056804
24	0xbde60f73	-0.112334155
25	0xbe919e96	-0.28441304
26	0xbdd62020	-0.10455346
27	0xbe082ec5	-0.13299091
28	0x3d5d61ef	0.054048475
29	0xbeac1851	-0.33612302
30	0xbda4c664	-0.080456525
31	0xbef9be6e	-0.487781

convs.2.bn1.running_mean f4 [32]
0	0xbf2c8637	-0.67392296
1	0x40546d19	3.3191588
2	0xbf91f6bd	-1.1403424
3	0xbf77bc61	-0.9677182
4	0xbfcd6241	-1.604561
5	0x3f6edfa2	0.93309987
6	0x3f6e9e91	0.93210703
7	0x3ef7992d	0.4835905
8	0xc01ba8b3	-2.4321716
9	0xbc4065e7	-0.011743045
10	0xbeeec60d	-0.46635476
11	0x3e3354f3	0.17512874
12	0x3fb5adc7	1.4193658
13	0xbfcf6ce2	-1.6205103
14	0x4022ec90	2.5456886
15	0xbdea70b6	-0.11447279
16	0xbf0b616e	-0.5444554
17	0x3f4fb68e	0.8113793
18	0xc068be9d	-3.636634
19	0xbf1867df	-0.59533495
20	0xbe66ffa4	-0.22558457
21	0x3f194751	0.59874445
22	0x400e2ce2	2.2214894
23	0x3e3b4616	0.18288454
24	0xc02f2a0e	-2.7369418
25	0xbe31fc29	-0.17381348
26	0x3d65afeb	0.05607597
27	0x3f091aa7	0.53556293
28	0xbf8a0d1f	-1.0785254
29	0xbed871b9	-0.42274264
30	0x3e8c4aca	0.2740081
31	0xbf0c479f	-0.54796785

convs.2.bn1.running_var f4 [32]
0	0x3f871ec0	1.0556259
1	0x3f0d8de6	0.55294645
2	0x3f498cf8	0.78730726
3	0x3ed6aba2	0.4192782
4	0x3f0a670e	0.540635
5	0x3f037706	0.5135349
6	0x3ee854f8	0.45377326
7	0x3ea914ab	0.3302358
8	0x3ecd56f2	0.40105397
9	0x3f253d2a	0.64546454
10	0x3ef6f51d	0.48233882
11	0x3f38ba44	0.7215922
12	0x3f0e242a	0.5552393
13	0x3f22e232	0.63626397
14	0x3f4d8cb1	0.80292803
15	0x3eb41618	0.35173106
16	0x3f032b8c	0.5123832
17	0x3f330c22	0.6994039
18	0x3eec1868	0.4611237
19	0x3f38db91	0.7221003
20	0x3f364358	0.7119651
21	0x3f853bea	1.0408909
22	0x3f055c4f	0.52093977
23	0x3f4e3205	0.80545074
24	0x3f152be2	0.58270085
25	0x3f0a9a3f	0.5414161
26	0x3f385be2	0.720152
27	0x3eff3040	0.498415
28	0x3fcc7806	1.5974128
29	0x3efa92c4	0.48940098
30	0x3f4a9121	0.791277
31	0x3f04155a	0.5159508

convs.2.bn2.weight f4 [16]
0	0x3f9142e9	1.1348544
1	0x3f91699d	1.1360356
2	0x3f888c98	1.0667906
3	0x3f87db07	1.0613717
4	0x3f93d239	1.154853
5	0x3fa11090	1.258318
6	0x3f8affb2	1.0859282
7	0x3fa7a381	1.3096772
8	0x3f9d31b3	1.2280792
9	0x3fa1b93f	1.2634658
10	0x3f987bcd	1.1912781
11	0x3f8d0c04	1.1019292
12	0x3f9e4c28	1.2366991
13	0x3f83796e	1.0271432
14	0x3fb1bedf	1.3886374
15	0x3fa640a2	1.2988474

convs.2.bn2.bias f4 [16]
0	0xbc188b44	-0.009310547
1	0x3d61406b	0.054993074
2	0x3e1a9675	0.15096457
3	0x3d3d71f8	0.046251267
4	0xbcad7852	-0.021175537
5	0x3a5700f7	0.0008201743
6	0xbd391db5	-0.045194346
7	0xbe45bbbc	-0.19309896
8	0x3d33fa3c	0.043939814
9	0x3d974da8	0.07387859
10	0xbda691fe	-0.081333145
11	0x3c4a0f71	0.012332783
12	0x3d242b61	0.04008043
13	0xbc7345d3	-0.01484819
14	0xbcd9f754	-0.026607193
15	0x39f120d4	0.0004599156

convs.2.bn2.running_mean f4 [16]
0	0x408ae87b	4.340879
1	0x40aa648f	5.324775
2	0x40a2c2e0	5.0862885
3	0x4098e2a4	4.777666
4	0x40ad81ff	5.4221187
5	0x408aa944	4.3331623
6	0x4081f4fb	4.061155
7	0x406d0b86	3.7038283
8	0x40af5607	5.4792514
9	0x409668ea	4.700307
10	0x40942e32	4.630639
11	0x40a43e02	5.1325693
12	0x40d13203	6.537355
13	0x4097e88c	4.747137
14	0x409c4f3a	4.884671
15	0x4088283d	4.254912

convs.2.bn2.running_var f4 [16]
0	0x40e0baa7	7.0227847
1	0x41565d1e	13.397734
2	0x410f0dcc	8.940868
3	0x4179d553	15.614581
4	0x416e49db	14.893031
5	0x40936358	4.605877
6	0x41787619	15.528832
7	0x403a63ec	2.9123487
8	0x41b6aa2d	22.833094
9	0x40c0fcdb	6.030866
10	0x41323d6a	11.139994
11	0x4128b8b1	10.545091
12	0x416c2241	14.758363
13	0x4154ad77	13.29235
14	0x40f962d6	7.793315
15	0x415d713f	13.840148
