cgcnndefect/pretrain_formation_average/checkpoint.pth.tar (torch, 208623 bytes, 121 tensors)

embedding.weight f4 [16, 92]
-0.47724175 -0.030134007 0.1872191 -1.5319767 -1.2402004 -0.23935169 0.6620998 1.3710474
1.126493 0.5178398 1.2142336 -0.15199916 -0.583317 0.34446624 0.39434204 0.20791653
-0.32611394 0.31869859 -0.26522842 0.58481604 -0.5309764 -0.07674915 0.4439153 0.43955675
0.44207996 0.608422 0.081494875 -0.6969679 0.35157678 -0.13833082 0.59669906 1.3479776
1.0608671 0.55887085 -0.64519525 -0.034589935 0.5693578 -0.4435572 1.1160557 0.4619252
0.5001498 0.039224647 -0.5560768 -0.2647777 -0.12812361 -0.15748124 -0.020282578 -0.23786534
-0.24296667 -0.2391092 0.1116527 -0.16503315 0.6161445 1.0959532 0.5601558 -0.7733189
-0.11207777 0.49314117 -0.08516715 -0.13352057 0.19390129 -0.41916624 0.24148557 1.0453988
0.25972936 0.04989378 0.003980701 -1.8021452 -0.08309813 0.100107156 0.86150324 -0.03820711
-0.05497765 -0.037118435 0.015016025 0.94922507 0.0207487 0.16548097 -0.010934247 0.38085434
0.11160735 -0.38382894 0.60482305 -1.3415642 0.06017413 0.22810924 -0.4658276 -0.6625718
0.3421666 0.4106236 -0.3857033 0.012818869 0.3535177 -0.20466383 0.07244457 -0.1858651
0.82471955 -0.7799097 0.39543584 -0.07977616 0.7682747 0.4589066 0.55695605 -0.2921077
-0.66225207 -0.122009195 0.27804157 0.27923015 0.017105984 -0.09235618 -2.857394 0.7379022
0.1872741 -0.25197652 0.94881123 0.00687827 -0.10032418 -1.825431 -0.22894695 -0.6364411
-0.2921299 0.4180491 0.5462386 -0.04019681 1.1704212 -0.53202736 -0.019973148 -0.051442847
0.6395637 -0.06723486 -0.108210325 0.7361945 -0.08562674 -0.23819607 0.27253523 -0.5366842
-0.14831015 -0.20827849 -0.22254728 0.41560826 -0.030681182 0.6679745 0.097639956 0.043009296
-0.13241248 0.22000112 0.45964545 -0.53404593 -0.31768817 0.34380555 -0.3417266 0.31556305
0.037075426 0.078381985 0.47915095 0.029786041 -0.00767688 -0.082240276 -0.022041045 0.0389159
1.0028236 -0.020470142 0.027907768 -0.09001962 -0.43480557 -0.36489162 0.2909282 -0.43879208
-0.093837574 -0.11504597 0.059437618 -0.07088095 0.4148735 0.31664032 0.044349305 1.9240651
0.21097603 -0.60391223 -0.4920816 0.19994506 -0.73461723 -0.7715467 -0.58395314 -0.27608195
0.49701488 0.32517967 -1.2928364 1.0949227 0.68228954 1.4346813 2.3036554 0.75070626
-0.52039886 -1.563286 -1.5808665 -0.6741505 -1.531069 -0.56823224 0.19324315 -0.0987999
0.1222117 -0.01715699 -1.6660745 -0.0070134853 -0.33695006 1.04269 -0.5347555 -0.016193181
-0.13145398 -0.44898567 0.64865273 0.21423627 0.19591625 0.55058485 0.22533253 0.17380758
0.19667266 -1.1374716 -0.379857 -0.0096841445 0.057074066 -0.20024975 0.27491415 0.9054918
-0.97279906 -0.18502998 0.17591234 0.26470974 0.41088387 0.23058832 0.28950015 -0.37258285
-0.07179589 0.83524555 0.48098156 0.45620498 0.20371848 -0.6974627 -1.6121234 -2.3945968
-0.5823336 -0.68225104 0.6158673 -0.25925413 -0.06661963 -0.47692 0.69313836 -0.063771725
-0.19422585 0.057199944 -0.05490945 -0.9512341 -0.29785985 -0.030476417 -0.42958438 -0.038558364
00000000: 0859 f4be 98db f6bc 5db6 3f3e d017 c4bf
00000010: e3be 9ebf 9c18 75be 5f7f 293f 7b7e af3f
00000020: ec30 903f 2691 043f 026c 9b3f aba5 1bbe
00000030: 4354 15bf e15d b03e 33e7 c93e 12e8 543e
00000040: 68f8 a6be 762c a33e 05cc 87be 81b6 153f
00000050: 12ee 07bf a92e 9dbd de48 e33e 950d e13e
00000060: 4e58 e23e 8bc1 1b3f c9e6 a63d 7d6c 32bf
00000070: df01 b43e 98a6 0dbe 45c1 183f 888a ac3f
00000080: 7eca 873f 2912 0f3f 842b 25bf 2dae 0dbd
00000090: 6fc1 113f ee19 e3be eada 8e3f 7681 ec3e
000000a0: d109 003f 06aa 203d 0d5b 0ebf f190 87be
000000b0: d632 03be c342 21be a627 a6bc f992 73be
000000c0: 41cc 78be 0bd9 74be 2caa e43d 73fe 28be
000000d0: a5bb 1d3f 3248 8c3f 5f66 0f3f 3af8 45bf
000000e0: 0889 e5bd 007d fc3e 1d6c aebd 9eb9 08be
000000f0: 0f8e 463e f59c d6be fe47 773e a1cf 853f
00000100: 3ffb 843e 6c5d 4c3d 8a70 823b b2ac e6bf
00000110: 5a2f aabd fb04 cd3d 7a8b 5c3f 0f7f 1cbd
00000120: 3f30 61bd 8009 18bd c605 763c 6a00 733f
00000130: 2df9 a93c d873 293e 8e25 33bc 57ff c23e
00000140: 6592 e43d 3a85 c4be afd5 1a3f 60b8 abbf
00000150: 2679 763d 7895 693e f580 eebe 4e9e 29bf
00000160: 7630 af3e 423d d23e e77a c5be 3c06 523c
00000170: 4600 b53e 6593 51be d25d 943d 6c53 3ebe
00000180: d220 533f 29a8 47bf 9176 ca3e af61 a3bd
00000190: a7ad 443f cef5 ea3e ac94 0e3f 248f 95be
000001a0: 5a89 29bf f5df f9bd 775b 8e3e 41f7 8e3e
000001b0: d921 8c3c 3d25 bdbd 8bdf 36c0 29e7 3c3f
000001c0: c8c4 3f3e 1103 81be 4be5 723f 1c63 e13b
000001d0: c476 cdbd b9a7 e9bf 1271 6abe ceed 22bf
000001e0: 0d92 95be 880a d63e 4bd6 0b3f 69a5 24bd
000001f0: 5dd0 953f f232 08bf ba9e a3bc bcb5 52bd
00000200: 72ba 233f 6eb2 89bd 609d ddbd 3e77 3c3f
00000210: 125d afbd ace9 73be bd89 8b3e 2364 09bf
00000220: 9ede 17be f546 55be 6fe3 63be 9bca d43e
00000230: 1a57 fbbc 6000 2b3f 75f7 c73d 842a 303d
00000240: 2397 07be f947 613e a656 eb3e 3cb7 08bf
00000250: 06a8 a2be 4807 b03e caf6 aebe 7b91 a13e
00000260: 67dc 173d bc86 a03d 4653 f53e db01 f43c
00000270: 568e fbbb 976d a8bd 6c8f b4bc 4766 1f3d
00000280: 865c 803f 00b1 a7bc d59e e43c 355c b8bd
00000290: d69e debe 13d3 babe 8bf4 943e 5ba9 e0be
000002a0: ea2d c0bd 399d ebbd dc74 733d 082a 91bd
000002b0: 4d6a d43e ae1e a23e 9ea7 353d c447 f63f
000002c0: 1a0a 583e fe99 1abf 1ff2 fbbe 66be 4c3e
000002d0: e00f 3cbf 1684 45bf f47d 15bf 9d5a 8dbe
000002e0: bc78 fe3e f37d a63e aa7b a5bf 6d26 8c3f
000002f0: 87aa 2e3f a3a3 b73f 176f 1340 492e 403f
00000300: dc38 05bf c119 c8bf d559 cabf 2195 2cbf
00000310: 12fa c3bf ab77 11bf 88e1 453e 9a57 cabd
00000320: 214a fa3d d18c 8cbc ee41 d5bf 61d1 e5bb
00000330: b884 acbe de76 853f bde5 08bf 90a7 84bc
00000340: df9b 06be 73e1 e5be 1b0e 263f c160 5b3e
00000350: 459e 483e 21f3 0c3f 92bd 663e 9dfa 313e
00000360: 8f64 493e ab98 91bf 9e7c c2be 3faa 1ebc
00000370: 7fc6 693d 450e 4dbe 8cc1 8c3e 50ce 673f
00000380: 5c09 79bf 8078 3dbe 5d22 343e 0988 873e
00000390: 5f5f d23e 581f 6c3e 5d39 943e 2ec3 bebe
000003a0: b909 93bd a7d2 553f 3743 f63e b393 e93e
000003b0: 949b 503e ea8c 32bf 0f5a cebf 1341 19c0
000003c0: d113 15bf 01a8 2ebf 7ba9 1d3f f5bc 84be
000003d0: df6f 88bd dc2e f4be 8471 313f c09a 82bd
000003e0: 24e3 46be 7d4a 6a3d bbe8 60bd 1484 73bf
000003f0: 1681 98be aea9 f9bc 7cf2 dbbe 60ef 1dbd

embedding.bias f4 [16]
0.59371555 0.47618967 -0.5913497 -0.19880082 0.18806076 -0.15390858 0.8934026 0.59304833
-0.20498337 0.45195153 0.4412511 -0.44051346 0.27417186 0.04238923 -0.4032241 0.35720915
00000000: befd 173f 22cf f33e b262 17bf 7192 4bbe
00000010: 0093 403e 369a 1dbe 08b6 643f 04d2 173f
00000020: 29e7 51be 3166 e73e aaeb e13e fb8a e1be
00000030: 4160 8c3e 54a0 2d3d 6473 cebe 1ee4 b63e

convs.0.fc_full.weight f4 [32, 56]
-0.076704524 -0.279062 0.23504347 0.16825536 0.5369049 -1.1650411 -0.1082701 0.16983737
-0.1487046 -0.9720525 1.1769412 -0.6399572 0.36244503 -0.9114344 -0.3921203 0.5897306
-0.63489246 -0.19706821 0.20793618 0.365133 -0.5493776 0.2659153 0.81548977 -0.44431522
-0.18933654 0.5876061 0.5161565 -0.16296604 -0.55804795 -0.6333485 0.4693017 -0.12677655
1.7214442 1.8782309 1.0849208 -1.1333302 -1.194248 1.7492259 1.6951907 1.1080596
-1.108457 -1.3500015 1.7492393 1.8099054 1.2650181 -1.1101018 -1.3385539 1.6646863
2.1634958 2.6149607 2.738417 -1.4501963 -1.7267344 -1.3918853 -0.30844644 0.5592155
0.33816606 -0.11820899 -0.567331 -0.024803001 -1.1229161 1.0572549 -0.7185438 0.79101443
0.639575 1.5771695 -0.23836279 1.5160049 0.700966 0.16336001 -0.39664912 -0.5274034
-0.5126868 0.58117354 0.29254848 -0.64747214 0.9535169 -0.4064603 1.5484058 -0.58346903
0.8052279 0.85174817 -0.7993187 -0.52412695 0.14472501 -1.1511346 -0.18273596 0.14042056
0.9095531 0.99326867 1.5855612 1.7510896 0.14141946 0.8628936 0.98364097 1.6510081
1.7380613 0.09341603 0.71227235 1.141469 1.6916713 1.6548163 0.13288143 -1.1318933
-0.1554134 1.1982229 2.5966184 -2.9916317 -2.240553 1.7656971 2.769173 1.8465583
0.31361514 1.5066861 -0.6217588 -0.017738523 0.011006746 -0.6236585 0.66445285 0.5829868
-0.012540243 0.19978446 0.012381694 0.3218928 0.028279668 -0.906003 0.18896604 -0.45147088
1.3350691 0.0042636874 -0.7601465 0.9797315 -0.03894706 0.35143936 -0.9295175 1.0988138
0.06474686 -1.473915 0.233898 0.0830111 -0.7109 -0.049891174 -0.07131643 0.47590253
0.226334 0.8544823 2.6815712 1.4734906 1.1323899 0.20803356 0.9506723 2.7978833
1.6497667 0.8944557 -0.033115223 0.70771486 2.8800383 1.5352829 0.9151797 0.46523896
0.5933764 0.5766141 0.82272685 -3.631975 -4.071502 -4.346339 -3.6524453 -2.7170932
-0.47203898 -0.7072971 0.24859436 0.073477365 0.25403875 -1.168549 -0.30674568 -0.61226106
0.22161354 0.19687504 0.41487458 0.2863293 0.81021935 -0.45892128 0.603694 -0.15799925
-0.24406885 0.47818285 0.22475249 0.28201884 -0.9230929 1.1582024 1.0107107 1.0034642
-0.319582 0.29162616 0.10426628 -0.50943285 -0.48288035 1.2394636 -1.315093 0.35219795
0.99721354 0.53395015 -3.173293 -3.4622674 -2.5052078 1.0901415 0.6195382 -3.1379292
-3.4227164 -2.4129214 1.096873 0.5435009 -3.2322245 -3.5610342 -2.4390745 2.8968127
1.9597577 0.8846206 -0.032125477 0.88683325 1.4440844 2.1523767 2.5493538 2.9504707
0.3659732 0.16042186 -0.41967466 -0.12640384 -0.16119274 0.22778375 0.29292122 -0.15950088
0.4015208 -0.043968447 -0.11898725 -0.014224549 0.27915484 0.19828221 0.7645377 -0.23452999
0.15553999 0.10750504 0.22039348 0.85571206 0.03011171 0.14595821 0.62528265 -0.0019574058
-0.11651431 0.17383604 0.15484433 0.011488979 -0.104300246 -0.06279419 -0.24916115 0.027318785
00000000: 4317 9dbd 37e1 8ebe 3caf 703e 224b 2c3e
00000010: 9972 093f 1120 95bf b7bc ddbd d9e9 2d3e
00000020: 0546 18be 6fd8 78bf 02a6 963f 3cd4 23bf
00000030: 6592 b93e c453 69bf fec3 c8be 96f8 163f
00000040: 5088 22bf 40cc 49be 39ed 543e b6f2 ba3e
00000050: 03a4 0cbf 0d26 883e f0c3 503f 497d e3be
00000060: 70e1 41be 5a6d 163f d522 043f 92e0 26be
00000070: 3bdc 0ebf 2123 22bf 5048 f03e b6d1 01be
00000080: 4958 dc3f df69 f03f afde 8a3f f710 91bf
00000090: 1edd 98bf a2e6 df3f 02fc d83f e6d4 8d3f
000000a0: ebe1 8dbf d9cc acbf 13e7 df3f fbaa e73f
000000b0: 1dec a13f d117 8ebf bc55 abbf 7114 d53f
000000c0: b776 0a40 845b 2740 3942 2f40 08a0 b9bf
000000d0: a205 ddbf 4c29 b2bf b1ec 9dbe bf28 0f3f
000000e0: 1a24 ad3e 8e17 f2bd 9b3c 11bf aa2f cbbc
000000f0: b7bb 8fbf 2154 873f 7df2 37bf ec7f 4a3f
00000100: 30bb 233f b1e0 c93f 6015 74be 730c c23f
00000110: 8272 333f d947 273e 9815 cbbe e903 07bf
00000120: 713f 03bf cac7 143f eac8 953e bcc0 25bf
00000130: af19 743f 901b d0be 2932 c63f 3a5e 15bf
00000140: 6a23 4e3f 2b0c 5a3f 26a0 4cbf 2f2d 06bf
00000150: cb32 143e 6158 93bf 231f 3bbe 68ca 0f3e
00000160: 79d8 683f db46 7e3f abf3 ca3f b423 e03f
00000170: 43d0 103e 98e6 5c3f e5cf 7b3f 3c54 d33f
00000180: cb78 de3f e750 bf3d 7b57 363f a81b 923f
00000190: af88 d83f 05d1 d33f 1212 083e e1e1 90bf
000001a0: b124 1fbe 5e5f 993f ff2e 2640 e576 3fc0
000001b0: 3865 0fc0 5d02 e23f 213a 3140 065c ec3f
000001c0: 2a92 a03e 17db c03f 962b 1fbf 6150 91bc
000001d0: a455 343c 15a8 1fbf 9519 2a3f 9f3e 153f
000001e0: 9775 4dbc 4c94 4c3e 97dc 4a3c 22cf a43e
000001f0: c3aa e73c d0ef 67bf 5080 413e 3127 e7be
00000200: 8be3 aa3f 67b6 8b3b f698 42bf afcf 7a3f
00000210: f486 1fbd dcef b33e dcf4 6dbf eea5 8c3f
00000220: 009a 843d 3fa9 bcbf f582 6f3e b901 aa3d
00000230: 8bfd 35bf b05a 4cbd 590e 92bd 7fa9 f33e
00000240: 1ac4 673e 5abf 5a3f dd9e 2b40 579b bc3f
00000250: 27f2 903f c006 553e 435f 733f 8510 3340
00000260: 8e2b d33f 0cfb 643f d4a3 07bd cd2c 353f
00000270: 8c52 3840 2684 c43f 3849 6a3f cd33 ee3e
00000280: 84e7 173f fb9c 133f 3a9e 523f 4772 68c0
00000290: bf49 82c0 3615 8bc0 aac1 69c0 dbe4 2dc0
000002a0: 18af f1be 6c11 35bf 858f 7e3e 4d7b 963d
000002b0: 5e11 823e 0393 95bf c50d 9dbe 24bd 1cbf
000002c0: a9ee 623e 9c99 493e 716a d43e c199 923e
000002d0: 896a 4f3f bbf7 eabe b18b 1a3f 8eca 21be
000002e0: 2fed 79be 62d4 f43e 8425 663e c664 903e
000002f0: d14f 6cbf fa3f 943f f85e 813f 8471 803f
00000300: 40a0 a3be 0650 953e 8f89 d53d 316a 02bf
00000310: 183c f7be bea6 9e3f f854 a8bf 4a53 b43e
00000320: 6349 7f3f f5b0 083f 3c17 4bc0 ca95 5dc0
00000330: 5355 20c0 c289 8b3f 0e9a 1e3f d5d3 48c0
00000340: c90d 5bc0 4e6d 1ac0 5666 8c3f e022 0b3f
00000350: c4dc 4ec0 fce7 63c0 cc19 1cc0 6165 3940
00000360: 57d9 fa3f 7f76 623f 0196 03bd 8107 633f
00000370: c2d7 b83f 8ac0 0940 9d28 2340 83d4 3c40
00000380: d760 bb3e a145 243e 99df d6be 0270 01be
00000390: b60f 25be 2540 693e c5f9 953e 3354 23be
000003a0: 2294 cd3e 4218 34bd 96af f3bd 150e 69bc
000003b0: 62ed 8e3e 7e0a 4b3e beb8 433f a128 70be
000003c0: e045 1f3e 9a2b dc3d d4ae 613e f20f 5b3f
000003d0: d5ac f63c 1276 153e 8612 203f d247 00bb
000003e0: 0e9f eebd 1302 323e 838f 1e3e 453c 3c3c
000003f0: 5e9b d5bd 3e9a 80bd 1a24 7fbe a5cb df3c

convs.0.fc_full.bias f4 [32]
-0.0008467503 0.30711827 -0.10669221 -0.06079415 -0.018335294 -0.51165855 -0.16311462 -0.16131204
0.050399985 -0.030256419 -0.13022429 0.15280864 0.014176348 -0.03511431 0.1653661 0.26982406
-0.15504797 -0.027378313 -0.12503026 0.242977 0.08992002 0.27115667 -0.2681827 -0.013525866
-0.023935428 -0.10582871 0.112148285 0.08722178 0.08612125 0.21087173 0.40417644 0.3376413
00000000: 73f8 5dba 9b3e 9d3e 7281 dabd 4903 79bd
00000010: e633 96bc 0efc 02bf 8507 27be fc2e 25be
00000020: 3770 4e3d 4fdc f7bc 8459 05be de79 1c3e
00000030: ea43 683c 06d4 0fbd bb55 293e 6126 8a3e
00000040: e5c4 1ebe 7c48 e0bc ef07 00be f6ce 783e
00000050: fd27 b83d 0cd5 8a3e 3e4f 89be 989b 5dbc
00000060: 3b14 c4bc b9bc d8bd 00ae e53d 55a1 b23d
00000070: 5760 b03d c2ee 573e 37f0 ce3e 52df ac3e

convs.0.bn1.weight f4 [32]
3.5590093 3.992725 4.6892495 3.3830667 2.6339183 1.6867472 4.167279 4.820211
4.6397386 7.719176 2.5891964 4.639152 5.733247 4.2624984 3.373806 5.870911
1.654212 1.0661368 0.7188785 0.6951286 4.4476275 1.1273037 1.8502336 1.1096513
0.99529344 0.9664796 1.6628802 2.5704615 0.91246337 1.1374351 1.7336869 1.4192741
00000000: cfc6 6340 ce88 7f40 550e 9640 2a84 5840
00000010: 1e92 2840 55e7 d73f 595a 8540 2b3f 9a40
00000020: bd78 9440 7d03 f740 65b5 2540 ef73 9440
00000030: c276 b740 6366 8840 70ec 5740 81de bb40
00000040: 38bd d33f 2c77 883f 6c08 383f f3f3 313f
00000050: f752 8e40 7d4b 903f 74d4 ec3f 0e09 8e3f
00000060: 8dcb 7e3f 356b 773f 42d9 d43f 7182 2440
00000070: 3397 693f 7997 913f 74e9 dd3f c6aa b53f

convs.0.bn1.bias f4 [32]
-0.63554794 1.1064988 0.28614628 0.19673593 -1.2230068 0.30160904 -0.67394966 -0.45018336
1.0670291 0.5834668 -0.61384666 -0.48937052 -0.7806523 -0.11154425 -1.0626255 -1.015123
-0.63471496 0.6361737 0.90101427 0.44733953 -0.2725152 0.11193404 -2.4675298 -1.4293973
0.82857394 0.44052634 -2.7706814 -4.3965845 -0.43557006 -0.04935542 -2.29257 0.38161704
00000000: 45b3 22bf c1a1 8d3f c481 923e 2575 493e
00000010: 7d8b 9cbf 806c 9a3e f787 2cbf 6f7e e6be
00000020: 6994 883f 155e 153f 0e25 1dbf c68e fabe
00000030: d4d8 47bf 5071 e4bd 1d04 88bf 8def 81bf
00000040: ae7c 22bf 48dc 223f dfa8 663f b009 e53e
00000050: 1d87 8bbe ad3d e53d 02ec 1dc0 7ef6 b6bf
00000060: 6c1d 543f ab8c e13e d852 31c0 d2b0 8cc0
00000070: 0a03 dfbe e928 4abd 78b9 12c0 4f63 c33e

convs.0.bn1.running_mean f4 [32]
17.42402 17.6489 22.172928 -18.152758 -1.229207 9.771905 -18.408403 -22.036198
-1.8843294 4.967832 -17.783451 -1.3167785 -58.008636 11.8993 -16.525244 9.800929
-0.24133255 43.216896 -13.142806 9.832469 -9.44355 15.783545 -25.723202 -18.544743
-4.837985 -8.220035 -13.191485 -22.035336 21.08852 -10.034373 -38.406727 3.4868245
00000000: 6564 8b41 f230 8d41 2862 b141 d938 91c1
00000010: a856 9dbf b959 1c41 6944 93c1 224a b0c1
00000020: b531 f1bf 7bf8 9e40 8244 8ec1 338c a8bf
00000030: d808 68c2 8863 3e41 b333 84c1 9bd0 1c41
00000040: e11f 77be 1ade 2c42 ef48 52c1 cb51 1d41
00000050: c818 17c1 6689 7c41 1ec9 cdc1 a25b 94c1
00000060: c6d0 9ac0 4385 03c1 5310 53c1 5e48 b0c1
00000070: 4ab5 a841 cb8c 20c1 7da0 19c2 2228 5f40

convs.0.bn1.running_var f4 [32]
62.578407 72.653114 38.38848 66.375496 21.835627 35.06106 35.177185 25.889256
73.12897 58.636932 70.08336 44.504757 34.10763 80.222496 70.76161 97.15928
32.709194 32.196735 33.437073 49.899044 67.539635 35.483612 15.6342325 46.396095
72.37792 29.65222 17.478117 22.98833 48.29407 63.909027 39.707546 49.83333
00000000: 4a50 7a42 654e 9142 ce8d 1942 41c0 8442
00000010: 5daf ae41 873e 0c42 70b5 0c42 321d cf41
00000020: 0842 9242 388c 6a42 ae2a 8c42 df04 3242
00000030: 376e 0842 eb71 a042 f285 8d42 8d51 c242
00000040: 37d6 0242 75c9 0042 90bf 0542 9f98 4742
00000050: 4b14 8742 38ef 0d42 d125 7a41 9a95 3942
00000060: 7fc1 9042 bf37 ed41 2fd3 8b41 1ae8 b741
00000070: 212d 4142 d8a2 7f42 87d4 1e42 5455 4742

convs.0.bn2.weight f4 [16]
1.0740438 1.4556861 1.9849129 1.3754743 1.6511899 1.4749197 1.7915267 1.1618369
1.5363336 0.8409921 1.85448 1.4038526 1.281442 1.2158219 0.9877869 1.5875635
00000000: 447a 893f ec53 ba3f a011 fe3f 8b0f b03f
00000010: 315a d33f 2bca bc3f bf50 e53f 12b7 943f
00000020: 94a6 c43f 424b 573f 9a5f ed3f 71b1 b33f
00000030: 4b06 a43f 0da0 9b3f 9adf 7c3f 4835 cb3f

convs.0.bn2.bias f4 [16]
0.48964593 0.38062012 -0.53739595 -0.11009138 0.2820222 -0.103704885 0.80574435 0.558034
-0.3055676 0.37467998 0.4397403 -0.37589243 0.17236434 -0.041231975 -0.44836763 0.414161
00000000: dfb2 fa3e a4e0 c23e c892 09bf 9777 e1bd
00000010: 3765 903e 3a63 d4bd 4345 4e3f 51db 0e3f
00000020: 5b73 9cbe 0ed6 bf3e a425 e13e f974 c0be
00000030: 4780 303e dce2 28bd 7190 e5be e90c d43e

convs.0.bn2.running_mean f4 [16]
3.1605818 7.4111485 9.812788 6.4977403 12.121497 7.661866 2.2402065 2.2005506
10.505982 6.84274 1.3675072 0.4696848 2.5578704 7.0451136 1.2615408 7.323314
00000000: f946 4a40 2128 ed40 2e01 1d41 7ded cf40
00000010: a7f1 4141 022e f540 8b5f 0f40 d2d5 0c40
00000020: 8118 2841 baf7 da40 7a0a af3f 877a f03e
00000030: 26b4 2340 9271 e140 2b7a a13f 9758 ea40

convs.0.bn2.running_var f4 [16]
7.543531 50.631924 37.47258 9.600998 121.2967 16.11881 12.021157 3.9658847
53.03478 27.122698 1.0102612 0.2910618 5.5471177 20.851383 2.8041024 34.429462
00000000: 9b64 f140 1787 4a42 ece3 1542 b09d 1941
00000010: e997 f242 53f3 8041 a956 4041 0ed1 7d40
00000020: 9d23 5442 49fb d841 3d50 813f 0d06 953e
00000030: fd81 b140 a2cf a641 6a76 3340 c5b7 0942

convs.1.fc_full.weight f4 [32, 56]
0.9393677 -0.2124955 -0.5970677 -1.3980337 -0.68265873 -0.09414619 -0.56223226 -0.819161
-0.16159911 0.31497237 -0.34850442 0.08766623 -0.2509176 -0.4718065 0.18252662 -0.925969
-0.5759451 0.061888617 -0.0071254917 0.21446718 1.3057158 0.28732556 -1.1558285 0.4831958
0.012237681 -0.22556375 0.3716977 0.22102761 0.10049273 -0.3560177 0.68654484 0.531493
-5.850758 -6.183731 -6.4832563 1.5287473 3.4944613 -5.639606 -6.185306 -6.4395027
1.3933388 3.69664 -5.537881 -6.068427 -6.569881 1.4937135 3.675529 -0.98066396
-1.3991402 -2.1461368 -3.2192118 -1.4638616 -1.4745328 -0.2691921 -0.18240412 -1.1490774
1.2551641 -0.065067954 3.5706694 0.7491311 0.08462935 0.5288205 -0.58314013 -0.9554221
0.047032356 1.1097243 -0.37277257 -0.31550166 -0.384046 -0.6127945 -0.19946851 0.084334195
-0.17392695 0.44066757 1.294103 0.34930184 0.5434922 1.4801819 0.46726102 0.77270925
0.8265983 0.58571744 0.7562491 -1.234703 2.358766 0.92291224 -0.073855884 -1.1871003
2.473784 3.0693848 0.088043906 -1.4462817 -1.5770459 2.4833581 3.1548884 0.31087062
-1.3426483 -1.5714405 2.4895768 3.2101576 0.17996775 -1.1938156 -1.6947596 1.5259504
1.9609802 2.1211894 1.9880874 4.6319647 5.0023756 0.7928153 -0.82313 -1.3889394
1.2462788 0.1507501 -0.537737 0.8094893 -0.016279096 1.4463196 0.2624914 0.39270937
-2.2633371 -0.3244558 0.4893778 -0.44973555 0.17877693 -0.16016161 -0.005431156 -0.11577766
0.47112343 2.2272162 -0.805027 -0.7960212 0.26536158 0.68979067 -0.11947902 -1.6685903
-2.1438813 0.60222024 -0.21517581 -0.39371777 -0.2821486 -0.24410608 -0.6347988 -1.1046305
0.15429705 0.2551002 0.7119424 0.02386905 -0.15606274 0.2828021 0.30098456 0.6896196
-0.007977582 -0.15208313 0.21806231 0.28832337 0.8400269 0.10007148 -0.20772052 -0.42431346
0.3146388 1.1952274 2.2905154 -0.4120425 0.0040534474 0.42824972 0.42753786 0.039300025
-0.13790104 0.042504877 -0.30831084 0.5288442 -1.6078079 0.3761985 -0.66777956 -0.9126004
0.27410692 0.9186933 0.71742964 -0.23199652 0.42542428 -0.45484132 -2.2369227 -1.1241378
0.26337302 0.15165633 0.07074649 -0.027828882 0.8128863 -0.74974555 0.11644597 -0.86267334
0.44625926 -0.55886745 0.31119573 0.27264768 -0.81817603 -0.07802765 -0.7792229 -0.5484228
-0.5834235 -0.5009174 0.56740826 0.92677873 0.6977703 -0.51094115 -0.30107972 0.66988176
1.0326012 0.83349395 -0.6217661 -0.41795278 0.65536624 0.92999524 0.7401904 0.19036193
0.17884193 -0.034799013 -0.06906203 -2.485075 -2.8823917 -2.551584 -2.5168962 -2.651047
0.057581678 -0.36643454 0.07224204 0.24583071 -0.27133596 0.046797656 0.0013097408 -0.27061746
-0.4031012 0.51774293 1.6966028 -1.6948256 1.1411358 -2.355539 1.2987856 -0.15440427
0.19193046 0.9754009 -0.53019565 -1.0530115 -0.60705125 0.5022031 -0.43886584 -1.0299591
0.046504457 -0.59585714 -0.6303762 -0.21149676 -0.71426237 -0.3061764 -0.659265 -0.8154365
00000000: 677a 703f 6c98 59be 6ed9 18bf c5f2 b2bf
00000010: b9c2 2ebf b8cf c0bd 74ee 0fbf 89b4 51bf
00000020: 3d7a 25be 0f44 a13e 2c6f b2be 5a8a b33d
00000030: 4678 80be 9f90 f1be 42e8 3a3e 4e0c 6dbf
00000040: 2371 13bf eb7e 7d3d f57c e9bb 499d 5b3e
00000050: b221 a73f 561c 933e 30f2 93bf 7165 f73e
00000060: 8e80 483c 2ffa 66be 294f be3e 1055 623e
00000070: 22cf cd3d f447 b6be 67c1 2f3f ed0f 083f
00000080: 6939 bbc0 20e1 c5c0 d676 cfc0 fead c33f
00000090: 41a5 5f40 a777 b4c0 07ee c5c0 6810 cec0
000000a0: ed58 b23f c095 6c40 5236 b1c0 8e30 c2c0
000000b0: 773c d2c0 0132 bf3f de3b 6b40 cb0c 7bbf
000000c0: 0717 b3bf 4e5a 09c0 9107 4ec0 d15f bbbf
000000d0: 7ebd bcbf 8cd3 89be 25c8 3abe f814 93bf
000000e0: 38a9 a03f 5942 85bd d985 6440 0ec7 3f3f
000000f0: 2752 ad3d c860 073f ac48 15bf 8b96 74bf
00000100: 00a5 403d 720b 8e3f 0cdc bebe 6f89 a1be
00000110: ada1 c4be 1ae0 1cbf 7941 4cbe 68b7 ac3d
00000120: e819 32be 2e9f e13e 2ba5 a53f b1d7 b23e
00000130: 4e22 0b3f 9a76 bd3f d63c ef3e 46d0 453f
00000140: f29b 533f 94f1 153f 8b99 413f bf0a 9ebf
00000150: 06f6 1640 fa43 6c3f c141 97bd e7f2 97bf
00000160: 7a52 1e40 cd70 4440 5d50 b43d c21f b9bf
00000170: a4dc c9bf 57ef 1e40 b1e9 4940 6f2a 9f3e
00000180: e6db abbf f624 c9bf 3a55 1f40 3973 4d40
00000190: 7749 383e f3ce 98bf e2ed d8bf 5852 c33f
000001a0: 6601 fb3f 91c1 0740 a679 fe3f 0e39 9440
000001b0: 7613 a040 f2f5 4a3f a6b8 52bf c4c8 b1bf
000001c0: 1086 9f3f 3c5e 1a3e 22a9 09bf b13a 4f3f
000001d0: bd5b 85bc 0021 b93f 4665 863e 3411 c93e
000001e0: 84da 10c0 121f a6be ba8f fa3e bd43 e6be
000001f0: 4d11 373e 6801 24be d7f7 b1bb d61c edbd
00000200: 1737 f13e b68a 0e40 4016 4ebf 0cc8 4bbf
00000210: 79dd 873e 1f96 303f 6bb1 f4bd 5e94 d5bf
00000220: 5a35 09c0 1b2b 1a3f 0c57 5cbe 6095 c9be
00000230: c875 90be f2f6 79be 2d82 22bf 8864 8dbf
00000240: 0c00 1e3e 7e9c 823e db41 363f 0789 c33c
00000250: e9ce 1fbe 70cb 903e a61a 9a3e e98a 303f
00000260: 67b4 02bc aebb 1bbe ba4b 5f3e 1f9f 933e
00000270: 010c 573f 47f2 cc3d b0b4 54be 9d3f d9be
00000280: 5618 a13e 36fd 983f ce97 1240 3cf7 d2be
00000290: c8d2 843b 8c43 db3e 3ee6 da3e 10f9 203d
000002a0: ee35 0dbe 9819 2e3d ebda 9dbe 5562 073f
000002b0: a6cc cdbf 179d c03e 9af3 2abf 2ea0 69bf
000002c0: be57 8c3e 7c2f 6b3f 78a9 373f 7f90 6dbe
000002d0: 36d1 d93e f6e0 e8be be29 0fc0 bfe3 8fbf
000002e0: d4d8 863e cc4b 1b3e 89e3 903d 65f9 e3bc
000002f0: 5119 503f 53ef 3fbf 3a7b ee3d 29d8 5cbf
00000300: 187c e43e f011 0fbf 0c55 9f3e 7a98 8b3e
00000310: fc73 51bf f6cc 9fbd 277b 47bf 7065 0cbf
00000320: 3e5b 15bf 1f3c 00bf ab41 113f 5f41 6d3f
00000330: 13a1 323f 0acd 02bf 1f27 9abe 5f7d 2b3f
00000340: 472c 843f dc5f 553f 102c 1fbf e8fd d5be
00000350: 15c6 273f 2b14 6e3f 1e7d 3d3f 3dee 423e
00000360: 5722 373e 6989 0ebd 6570 8dbd 780b 1fc0
00000370: 1b79 38c0 274d 23c0 d414 21c0 c1aa 29c0
00000380: c4da 6b3d 4f9d bbbe a2f3 933d 0cbb 7b3e
00000390: 8cec 8abe e6ae 3f3d 9cab ab3a 5f8e 8abe
000003a0: 4863 cebe cd8a 043f 482a d93f 0cf0 d8bf
000003b0: bd10 923f 27c1 16c0 9b3e a63f 271c 1ebe
000003c0: 6b89 443e e0b3 793f e7ba 07bf 15c9 86bf
000003d0: b667 1bbf 6290 003f 06b3 e0be b3d5 83bf
000003e0: 757b 3e3d 188a 18bf 5660 21bf 9b92 58be
000003f0: e6d9 36bf 27c3 9cbe 97c5 28bf 72c0 50bf

convs.1.fc_full.bias f4 [32]
-0.04994828 0.24302371 -0.04105996 -0.3795062 0.29726407 0.25205433 0.17961395 -0.05257934
-0.036458444 0.1471177 0.14864701 -0.030043606 0.2444918 0.45575505 0.03471774 0.07722777
-0.54206324 -0.31208315 0.45604432 0.117242746 -0.054420084 -0.21885723 0.20807615 -0.3360452
-0.14823599 0.18541361 0.457682 0.054316156 0.3192857 0.39264154 -0.033207364 -0.048126183
00000000: 9196 4cbd 35db 783e 7d2e 28bd a34e c2be
00000010: ff32 983e 440d 813e b8ec 373e 6f5d 57bd
00000020: 7355 15bd 06a6 163e ec36 183e 021e f6bc
00000030: 0f5c 7a3e ba58 e93e 3034 0e3d 9829 9e3d
00000040: a8c4 0abf 5dc9 9fbe a47e e93e f71c f03d
00000050: 98e7 5ebd 1c1c 60be ea11 553e 1e0e acbe
00000060: 2dcb 17be 11dd 3d3e 4c55 ea3e 9e7a 5e3d
00000070: 6a79 a33e 5008 c93e 7204 08bd f61f 45bd

convs.1.bn1.weight f4 [32]
3.6887147 7.3523116 1.5252274 6.05924 2.4147987 4.402957 5.0885715 3.0831532
6.544383 2.6789975 3.4977617 3.824935 2.805837 4.428745 1.4137447 4.797452
2.145028 2.2536638 1.3211756 0.78657085 3.6622312 0.88949424 3.869611 4.2189307
1.4368137 2.4176362 1.739859 2.9289508 6.4923515 2.551085 1.6193795 2.363109
00000000: e713 6c40 2346 eb40 a73a c33f 4be5 c140
00000010: 108c 1a40 06e5 8c40 94d5 a240 6252 4540
00000020: 966b d140 b274 2b40 54db 5f40 bccb 7440
00000030: d592 3340 47b8 8d40 96f5 b43f ba84 9940
00000040: 2448 0940 073c 1040 481c a93f b55c 493f
00000050: ff61 6a40 e5b5 633f b5a7 7740 7b01 8740
00000060: 83e9 b73f 8dba 1a40 b3b3 de3f ee73 3b40
00000070: 58c1 cf40 fa44 2340 d447 cf3f 2e3d 1740

convs.1.bn1.bias f4 [32]
-1.4691794 -1.2082344 -0.94051945 -0.03238765 -0.972782 -0.18142967 -0.63941103 0.17874038
-0.25331876 -0.20526972 -0.7972619 -1.4145912 0.5030856 -0.8928076 -0.42794198 -0.7224861
-2.6239965 -1.2580829 -0.8739082 0.265144 -2.3448007 0.12711747 -1.0715038 -0.7518242
0.79932964 -1.1396838 -0.5377835 -1.1673346 -1.4441073 -0.7839269 -1.1111612 -0.33607855
00000000: 120e bcbf 6da7 9abf e2c5 70bf eaa8 04bd
00000010: 3e08 79bf b3c8 39be 71b0 23bf b807 373e
00000020: ffb2 81be 3a32 52be 5b19 4cbf 5311 b5bf
00000030: 38ca 003f 0a8f 64bf 361b dbbe d9f4 38bf
00000040: 8fef 27c0 dc08 a1bf 73b8 5fbf f4c0 873e
00000050: 3711 16c0 152b 023e 0927 89bf 8d77 40bf
00000060: dea0 4c3f 29e1 91bf 2eac 09bf 386b 95bf
00000070: 82d8 b8bf 6faf 48bf 883a 8ebf 7d12 acbe

convs.1.bn1.running_mean f4 [32]
-46.967815 24.904396 5.7888737 -4.2044935 2.7461417 -8.860214 -30.813253 -13.616404
-19.488426 -2.535186 -0.7525924 -21.968655 0.8797493 -66.41423 -19.191639 -20.243633
-48.705025 6.058319 7.995935 -0.8169734 -7.7399983 -23.249516 -22.862253 2.4432037
-16.770742 -10.6186075 -21.949154 -22.158308 10.855505 -19.230934 -18.846832 -33.899864
00000000: 0bdf 3bc2 343c c741 743e b940 368b 86c0
00000010: c9c0 2f40 70c3 0dc1 8b81 f6c1 cadc 59c1
00000020: 4ce8 9bc1 7d40 22c0 e5a9 40bf cebf afc1
00000030: 4037 613f 16d4 84c2 7a88 99c1 f6f2 a1c1
00000040: f2d1 42c2 c0dd c140 b3de ff40 2b25 51bf
00000050: 11ae f7c0 02ff b9c1 e5e5 b6c1 735d 1c40
00000060: 7b2a 86c1 d1e5 29c1 de97 afc1 3744 b1c1
00000070: 26b0 2d41 f4d8 99c1 50c6 96c1 7699 07c2

convs.1.bn1.running_var f4 [32]
46.05346 45.875843 26.958708 35.92972 36.2607 33.28171 30.901262 44.932804
26.069517 37.217346 63.971752 65.82391 25.890795 26.748226 24.873602 11.77405
40.90404 25.268728 32.540634 71.0954 22.171896 42.87104 33.418983 30.972498
35.145542 41.33717 73.577065 40.409336 34.608345 30.886961 30.953035 18.290703
00000000: be36 3842 dd80 3742 6fab d741 09b8 0f42
00000010: f50a 1142 7920 0542 c935 f741 31bb 3342
00000020: 5f8e d041 90de 1442 13e3 7f42 d8a5 8342
00000030: 5920 cf41 5efc d541 23fd c641 8262 3c41
00000040: bd9d 2342 5b26 ca41 9c29 0242 d830 8e42
00000050: 0b60 b141 f27b 2b42 0aad 0542 adc7 f741
00000060: 0995 0c42 4359 2542 7527 9342 29a3 2142
00000070: f26e 0a42 7f18 f741 d19f f741 5c53 9241

convs.1.bn2.weight f4 [16]
1.200486 1.9659176 1.4855949 1.7764721 1.3839539 1.6941462 1.243347 1.5297387
1.6689776 1.1987337 1.9939821 1.7158597 2.1628144 1.4897587 0.8475648 1.5042605
00000000: 86a9 993f 30a3 fb3f f927 be3f 7063 e33f
00000010: 6725 b13f c8d9 d83f ff25 9f3f 7ace c33f
00000020: 0fa1 d53f 1b70 993f ce3a ff3f 4aa1 db3f
00000030: 8d6b 0a40 6ab0 be3f 02fa 583f 9c8b c03f

convs.1.bn2.bias f4 [16]
0.30892092 0.033837587 -1.9785546 0.29310554 -1.1775436 -0.6550866 -0.79475516 -0.23255517
-0.068804085 0.35222974 0.22391075 0.8085385 1.7173153 -0.2947548 -0.44218332 -0.31248826
00000000: e22a 9e3e 4899 0a3d 4741 fdbf ee11 963e
00000010: c0b9 96bf c1b3 27bf 1375 4bbf f122 6ebe
00000020: 28e9 8cbd 7557 b43e dc48 653e 61fc 4e3f
00000030: fdd0 db3f 1aea 96be da65 e2be 76fe 9fbe

convs.1.bn2.running_mean f4 [16]
0.8638326 4.353946 2.2251666 5.7998705 3.9875293 5.6545534 9.735246 5.260082
8.898653 4.7594557 5.8748403 3.4099972 16.484575 6.066695 3.6734638 5.5324745
00000000: 2224 5d3f 8753 8b40 2169 0e40 8a98 b940
00000010: ae33 7f40 1af2 b440 91c3 1b41 9752 a840
00000020: e260 0e41 764d 9840 b1fe bb40 653d 5a40
00000030: 69e0 8341 5e22 c240 081a 6b40 080a b140

convs.1.bn2.running_var f4 [16]
1.7652779 18.878109 3.6915193 21.522526 39.205135 18.801472 159.8149 54.679516
60.42739 27.505163 52.387558 30.58977 369.4641 127.48964 30.640131 92.34359
00000000: a0f4 e13f 5e06 9741 da41 6c40 222e ac41
00000010: 0fd2 1c42 6a69 9641 9dd0 1f43 d3b7 5a42
00000020: a6b5 7142 930a dc41 dc8c 5142 d9b7 f441
00000030: 68bb b843 b2fa fe42 fd1e f541 ebaf b842

convs.2.fc_full.weight f4 [32, 56]
0.14428934 0.06590315 0.7164888 0.8177316 -1.5391527 -1.5148968 -0.9695765 0.69527954
0.26461637 -0.3667992 -0.34741026 -1.8209629 -1.3529555 -0.07541075 -0.49901974 0.08453578
-0.8098734 0.62634045 1.4013981 0.11716609 -0.36068073 -1.1670672 -1.0296152 0.18620226
0.6659006 -0.5964352 0.074312896 -1.5323143 -0.0127688935 -0.3353045 -1.1278892 0.71732914
0.3268004 0.23778374 0.9691253 0.09933412 0.013416835 0.3936015 0.4058118 1.0042202
0.111243136 -0.107171245 0.21993423 0.509191 1.1679469 0.15627027 0.024207052 0.05033903
0.40000647 0.5503954 1.0325323 -2.9945366 -1.3996166 1.3561819 1.5519694 1.5922062
0.5880659 -0.6578218 -2.0109499 -0.17438059 1.4833024 0.21491516 -1.2285743 -0.4011044
-2.3322992 1.3675184 -0.90570074 1.6016409 0.6132094 -0.9920611 -0.18302312 0.12289941
-0.094375685 -0.1553099 -1.0137346 -0.26626608 0.6931434 0.37665084 0.1500836 1.6249628
0.56444633 0.115306035 0.7346513 0.89109564 0.0130340345 0.3002766 -0.017732562 -0.2909623
-0.07572738 0.15717824 1.4486564 0.6315903 0.3686922 0.016487576 0.2780547 1.4218159
0.75729316 0.28462005 0.03678892 0.37927952 1.4686103 0.7958744 0.42924866 -0.5585088
-0.2371155 -0.20680271 0.107828 -0.48873436 0.1818525 -0.8103015 -1.6719829 -1.3676339
0.12904608 -2.0069063 -0.21678472 -0.6145384 -1.8706843 -0.24668251 0.090374365 -0.14862584
-0.0062593566 -0.03504059 -0.44656327 -1.1931413 0.22239934 -0.09038527 0.53118443 0.3145791
0.17621121 -2.5750375 -0.40464768 -0.495887 -1.1937138 0.45673993 -0.7687989 -1.0141026
0.5363455 0.29806677 -0.6801992 -1.8236197 -0.54139966 -1.0032003 0.32169038 0.37153554
-2.5542338 -2.3935285 -1.7673644 1.4235581 2.2010388 -2.5321324 -2.424856 -1.7137132
1.5039086 2.1373327 -2.3857741 -2.4864883 -1.6721761 1.5561148 2.2801812 -0.58659375
0.11465443 0.84965724 1.0631739 -4.0930653 -3.7988927 -1.2876608 -0.07563784 0.62652594
0.2634121 0.08547087 -0.31064647 0.53795993 -0.67338854 -0.049856998 0.89610416 0.51197875
1.187166 0.11649066 -1.4811391 -1.7550257 0.43449226 0.6803356 0.23645712 -0.398009
-0.6459166 0.87689275 0.46455547 0.47108805 0.048550963 0.053619158 0.20814492 0.97344744
1.0487765 0.64585125 -0.74415594 -1.6416701 0.3100552 0.59233534 0.002299372 0.40571386
1.7549978 2.3641903 4.9138503 0.58810437 -0.3291563 1.5906446 2.2558222 5.03893
0.6534995 -0.265611 1.4914048 2.2113187 5.0532384 0.516319 -0.27479437 -0.18284312
-0.55220324 -0.3925134 -0.0129529545 -2.8873124 -1.9879239 -0.20528334 0.02199659 0.055069163
-1.1997572 -0.95803905 1.61455 -0.35545915 -0.33970326 1.6651825 0.01883818 1.715964
-0.91153455 -0.5336449 -0.673983 0.29967636 -1.2298367 -0.32192177 -0.2745045 -0.19908322
0.78944105 0.7186117 0.28405112 0.34670132 -1.6656467 1.3410034 -0.27649984 0.8708806
1.7826487 1.1383684 0.15461536 0.829551 0.015921913 -0.27050638 0.99870497 0.4708913
00000000: 96c0 133e 3bf8 863d cf6b 373f dc56 513f
00000010: f502 c5bf 23e8 c1bf 2a36 78bf d7fd 313f
00000020: cc7b 873e 1bcd bbbe c2df b1be 5015 e9bf
00000030: a52d adbf f470 9abd 847f ffbe 1821 ad3d
00000040: dd53 4fbf d957 203f 0361 b33f c6f4 ef3d
00000050: 25ab b8be 7562 95bf 6eca 83bf ceab 3e3e
00000060: 7678 2a3f faaf 18bf 5c31 983d e022 c4bf
00000070: 9f34 51bc 08ad abbe ac5e 90bf e2a2 373f
00000080: 6252 a73e 957d 733e 9818 783f b06f cb3d
00000090: 49d2 5b3c 2386 c93e 90c6 cf3e 4a8a 803f
000000a0: 71d3 e33d 997c dbbd 7036 613e 575a 023f
000000b0: 497f 953f 5005 203e de4d c63c 4c30 4e3d
000000c0: a6cd cc3e b7e6 0c3f 052a 843f 7da6 3fc0
000000d0: a326 b3bf 5e97 ad3f efa6 c63f 6acd cb3f
000000e0: 7d8b 163f 0267 28bf 67b3 00c0 d390 32be
000000f0: dadc bd3f b812 5c3e ec41 9dbf 8e5d cdbe
00000100: 6444 15c0 d80a af3f 01dc 67bf 9202 cd3f
00000110: 4bfb 1c3f b7f7 7dbf 6a6a 3bbe b0b2 fb3d
00000120: 0a48 c1bd 8f09 1fbe 0ec2 81bf 0754 88be
00000130: d971 313f 61d8 c03e 84af 193e c8fe cf3f
00000140: 8e7f 103f 9225 ec3d 1c12 3c3f d81e 643f
00000150: b48c 553c dbbd 993e e143 91bc 03f9 94be
00000160: f516 9bbd 55f3 203e 936d b93f e7af 213f
00000170: 39c5 bc3e f410 873c 305d 8e3e 10fe b53f
00000180: f7dd 413f b8b9 913e fbaf 163d ed30 c23e
00000190: 6cfb bb3f 6dbe 4b3f 7bc6 db3e 6ffa 0ebf
000001a0: 68ce 72be 17c4 53be edd4 dc3d 643b fabe
000001b0: 8b37 3a3e eb6f 4fbf 8903 d6bf a10e afbf
000001c0: a824 043e 2771 00c0 d0fc 5dbe 6352 1dbf
000001d0: 9572 efbf 579a 7cbe 3216 b93d 5f31 18be
000001e0: 4a1b cdbb b986 0fbd f1a3 e4be dbb8 98bf
000001f0: a7bc 633e ea1b b9bd b4fb 073f 8310 a13e
00000200: b670 343e 6acd 24c0 fb2d cfbe e7e4 fdbe
00000210: 9dcb 98bf d1d9 e93e 01d0 44bf 1dce 81bf
00000220: f04d 093f 359c 983e 8921 2ebf 5f6c e9bf
00000230: 2b99 0abf de68 80bf 9ab4 a43e e839 be3e
00000240: 9178 23c0 922f 19c0 ff38 e2bf 2737 b63f
00000250: d2dd 0c40 750e 22c0 d730 1bc0 f45a dbbf
00000260: 1480 c03f 0fca 0840 86b0 18c0 a022 1fc0
00000270: de09 d6bf c52e c73f 7dee 1140 022b 16bf
00000280: f1cf ea3d 2383 593f 1516 883f 64fa 82c0
00000290: 0f21 73c0 12d2 a4bf 03e8 9abd 0164 203f
000002a0: f3dd 863e 5a0b af3d 0e0d 9fbe beb7 093f
000002b0: 3163 2cbf da36 4cbd 1567 653f 0a11 033f
000002c0: 0ef5 973f a892 ee3d f795 bdbf afa4 e0bf
000002d0: c575 de3e 792a 2e3f d121 723e d6c7 cbbe
000002e0: ca5a 25bf 0b7c 603f 37da ed3e 7432 f13e
000002f0: 60dd 463d c39f 5b3d f123 553e da33 793f
00000300: 4f3e 863f 8256 253f 0181 3ebf 3f22 d2bf
00000310: 8ebf 9e3e 4aa3 173f 10b1 163b bab9 cf3e
00000320: c5a3 e03f e54e 1740 433e 9d40 028e 163f
00000330: 2d87 a8be 3e9a cb3f 645f 1040 ea3e a140
00000340: be4b 273f 2afe 87be 5ae6 be3f 3f86 0d40
00000350: 21b4 a140 7b2d 043f d9b1 8cbe 3a3b 3bbe
00000360: 315d 0dbf 84f7 c8be a138 54bc bac9 38c0
00000370: 4a74 febf cc35 52be 3132 b43c 3490 613d
00000380: a591 99bf 0c42 75bf 93a9 ce3f befe b5be
00000390: 96ed adbe b324 d53f 8752 9a3c b5a4 db3f
000003a0: 545a 69bf f49c 08bf 268a 2cbf 2e6f 993e
000003b0: 4a6b 9dbf eed2 a4be db8b 8cbe 79dc 4bbe
000003c0: cf18 4a3f f0f6 373f 266f 913e d682 b13e
000003d0: e933 d5bf 00a6 ab3f 6391 8dbe 08f2 5e3f
000003e0: d52d e43f 0eb6 913f 7d53 1e3e 745d 543f
000003f0: ac6e 823c d07f 8abe 21ab 7f3f aa18 f13e

convs.2.fc_full.bias f4 [32]
0.13368885 -0.09953946 -0.12773041 -0.10531313 0.0131650595 -0.1563127 -0.088385195 -0.09199688
-0.048566774 0.0073094796 -0.013721272 0.032281518 -0.038153134 0.17326707 0.00925201 -0.12514439
0.099441946 0.09442872 -0.16524905 0.012365782 0.061259296 -0.11050818 0.24721083 0.06443954
-0.24250133 0.18822634 0.10240354 0.04473034 0.030292757 0.058430452 0.19343644 -0.099470265
00000000: bbe5 083e 58db cbbd c3cb 02be 69ae d7bd
00000010: 43b2 573c 7010 20be 4c03 b5bd dc68 bcbd
00000020: f4ed 46bd 5c84 ef3b 30cf 60bc a039 043d
00000030: 7646 1cbd ec6c 313e be95 173c da25 00be
00000040: 38a8 cb3d d863 c13d 0c37 29be d999 4a3c
00000050: 07eb 7a3d 1d52 e2bd d624 7d3e e1f8 833d
00000060: 4552 78be 68be 403e f2b8 d13d 2937 373d
00000070: 8428 f83c c554 6f3d 3414 463e 11b7 cbbd

convs.2.bn1.weight f4 [32]
0.8035933 3.0219707 2.7010422 0.5475947 0.97031826 5.2072544 6.722991 4.51943
6.3019104 2.1451232 2.945459 4.22446 1.3758652 4.175138 0.9122177 5.936495
0.28850448 0.76325953 2.933953 0.34024858 2.411104 1.3062817 3.0770094 1.2302157
1.4028926 1.1868206 1.3231536 4.802549 1.5613302 1.4895779 1.5281471 2.7198834
00000000: 4ab8 4d3f f867 4140 e0dd 2c40 2b2f 0c3f
00000010: c766 783f d4a1 a640 be22 d740 2c9f 9040
00000020: 40a9 c940 b349 0940 6682 3c40 c72e 8740
00000030: 5a1c b03f bb9a 8540 1987 693f c4f7 bd40
00000040: dcb6 933e fa64 433f e3c5 3b40 1035 ae3e
00000050: 874f 1a40 3d34 a73f b9ed 4440 b577 9d3f
00000060: fc91 b33f bde9 973f 195d a93f 7bae 9940
00000070: abd9 c73f 7daa be3f 539a c33f 9212 2e40

convs.2.bn1.bias f4 [32]
0.3491245 -1.6854889 0.4978443 0.3684508 -0.6185556 -0.032208562 -0.453763 -1.7004776
0.43373367 -0.6485021 0.3324918 0.19149075 -2.2434192 -0.31763333 -0.5831173 -0.8773041
0.6973374 -0.4171256 -1.6737804 -0.07468739 -0.8569547 0.35871336 -0.7738538 -1.584989
-0.25897774 -2.0778244 -0.5239047 -0.9107932 -2.7226417 -1.9227667 -1.3424302 -0.49194524
00000000: 72c0 b23e 1abe d7bf 73e5 fe3e 95a5 bc3e
00000010: a959 1ebf 20ed 03bd a053 e8be 40a9 d9bf
00000020: 5712 de3e 3c04 26bf 5d3c aa3e 2716 443e
00000030: 2e94 0fc0 d6a0 a2be 2d47 15bf 0097 60bf
00000040: b484 323f 7d91 d5be 703e d6bf b4f5 98bd
00000050: 6261 5bbf 47a9 b73e 481b 46bf ebe0 cabf
00000060: bb98 84be 13fb 04c0 9e1e 06bf be29 69bf
00000070: c33f 2ec0 381d f6bf c1d4 abbf 3fe0 fbbe

convs.2.bn1.running_mean f4 [32]
-11.637897 16.011282 -36.01913 28.737438 -6.0063066 3.3125973 -36.129463 -9.250898
-19.933008 -18.779922 -28.331324 -34.791588 -28.025469 -30.28714 -17.189913 -20.314823
-17.129635 -3.619747 -23.83659 25.445463 -15.572732 40.55184 -54.536263 -28.49207
-29.272562 -34.001717 -12.855621 -4.262387 -18.980228 -23.62679 -21.905632 -40.430405
00000000: d334 3ac1 1b17 8041 9713 10c2 46e6 e541
00000010: aa33 c0c0 9801 5440 9284 10c2 ae03 14c1
00000020: cd76 9fc1 483d 96c1 8da6 e2c1 962a 0bc2
00000030: 2934 e0c1 104c f2c1 f184 89c1 c284 a2c1
00000040: 7e09 89c1 efa9 67c0 56b1 bec1 4f90 cb41
00000050: e929 79c1 1635 2242 2225 5ac2 c2ef e3c1
00000060: 352e eac1 c201 08c2 a0b0 4dc1 7965 88c0
00000070: 82d7 97c1 aa03 bdc1 bc3e afc1 bcb8 21c2

convs.2.bn1.running_var f4 [32]
62.02004 50.415276 125.4869 78.6592 71.778244 186.1997 49.238167 106.20799
55.422855 185.73442 79.700356 93.7253 115.03241 65.31931 228.23465 38.54588
107.06457 88.797935 72.937614 69.19942 119.50061 94.93749 91.31925 62.668545
91.48991 237.64258 119.06992 94.59179 73.31664 59.670895 234.55142 54.582657
00000000: 8514 7842 3ea9 4942 4bf9 fa42 8351 9d42
00000010: 768e 8f42 2033 3a43 e2f3 4442 7e6a d442
00000020: 01b1 5d42 03bc 3943 9566 9f42 5b73 bb42
00000030: 9810 e642 7da3 8242 123c 6443 fb2e 1a42
00000040: 0f21 d642 8b98 b142 0fe0 9142 1a66 8a42
00000050: 5000 ef42 ffdf bd42 75a3 b642 97ac 7a42
00000060: d5fa b642 80a4 6d43 cd23 ee42 ff2e bd42
00000070: 1fa2 9242 ffae 6e42 2a8d 6a43 a454 5a42

convs.2.bn2.weight f4 [16]
1.5845419 3.0941236 1.284345 1.6653502 2.0002878 2.5466926 1.5942115 2.2030995
1.2202058 1.6444541 1.3889127 2.0190442 1.0576972 1.7299256 2.1985834 1.5786899
00000000: 45d2 ca3f 1f06 4640 6b65 a43f 322a d53f
00000010: b704 0040 03fd 2240 1f0f cc3f 95ff 0c40
00000020: b42f 9c3f 797d d23f e4c7 b13f 0538 0140
00000030: 9f62 873f 346e dd3f 97b5 0c40 8312 ca3f

convs.2.bn2.bias f4 [16]
-0.0496 -0.19033438 -1.1198666 -0.2788887 -2.8980262 -0.79188716 -0.68077683 -0.56275123
-0.43620595 0.04863419 0.0027851325 -0.3905256 -0.9426217 -0.44668084 -0.2846369 -0.34387815
00000000: 5f29 4bbd 04e7 42be ca57 8fbf 80ca 8ebe
00000010: 4379 39c0 1eb9 4abf 6447 2ebf 7710 10bf
00000020: 6356 dfbe a534 473d c586 363b f9f2 c7be
00000030: a84f 71bf 5ab3 e4be eebb 91be cc10 b0be

convs.2.bn2.running_mean f4 [16]
8.070199 2.4619975 5.7147465 4.9460053 4.4461527 4.3060794 6.7611523 1.2631745
5.5289755 1.3941448 5.6703644 7.901745 0.1909519 0.8803266 2.2523293 6.27405
00000000: 891f 0141 5e91 1d40 34df b640 ad45 9e40
00000010: e246 8e40 67cb 8940 5c5b d840 b4af a13f
00000020: 5eed b040 5673 b23f a073 b540 18db fc40
00000030: e588 433e 165d 613f 2a26 1040 05c5 c840

convs.2.bn2.running_var f4 [16]
8.957387 11.087804 70.78241 3.8682134 24.190214 11.995158 63.17537 2.0655823
27.3852 2.8532372 29.667448 183.5033 0.048709206 1.5700848 4.0136743 99.80142
00000000: 7551 0f41 a567 3141 9890 8d42 cf90 7740
00000010: 8f85 c141 2bec 3f41 94b3 7c42 8032 0440
00000020: e414 db41 709b 3640 ef56 ed41 d880 3743
00000030: 4e83 473d 8af8 c83f 0570 8040 549a c742

convs.3.fc_full.weight f4 [32, 56]
0.57481915 0.5832806 1.338807 0.6559277 0.017258707 0.74802995 -0.9797564 -0.46605048
-1.0904738 1.1610924 -1.2837802 0.7354013 -0.5146016 0.19783734 0.18294238 -0.17734942
-0.6820166 0.32815176 1.8798927 0.0042950055 -0.103517644 0.6752084 1.4682329 -0.37313318
0.39275908 -0.21607411 -0.022786401 0.3701468 1.5742892 0.8287928 -0.30708307 1.0798539
1.2155311 1.8955277 5.9845276 1.210471 0.15789309 1.2543852 1.93561 6.4036274
0.9611239 0.18367755 1.0051208 1.7821666 6.4712486 1.0570161 0.2510624 -0.7285696
-0.7738673 -0.6028295 0.12529433 -3.0246236 -1.9397358 0.4095642 1.0893644 0.9919555
-0.33942854 1.2996471 0.6927844 -0.46061784 -1.865609 0.66825 -0.9178584 -0.34075934
-1.5294214 0.3363621 -0.5379168 0.8129077 0.24626064 -1.4147 -1.0389754 -0.17903489
-0.9150959 0.46909547 0.9578232 -0.80661994 -1.0590235 0.7055578 0.9947094 0.8995948
0.44982424 -0.24447693 0.6024524 -0.26085845 1.4134942 -0.27678975 -0.8931575 0.76352644
-0.51510644 0.24999973 5.917374 3.7272842 2.6911182 -0.70376205 0.3108584 5.9261355
3.7377887 2.4863598 -0.6044497 0.3306232 6.027857 3.6963365 2.4014869 -1.9942062
-1.3346972 -0.61733705 0.2449452 -1.6295276 -0.7564924 -2.746385 -4.126426 -4.143933
0.3193571 0.12839249 2.0685852 0.11826629 0.1800258 -0.42326006 0.5774279 0.3260107
-0.075211905 0.54416275 -0.19986282 0.020776998 -0.6017291 -0.11496648 1.950197 -0.9669463
0.7453122 0.562087 2.003175 -0.48243967 0.58197105 -0.84787595 0.3926304 0.4796277
0.06053091 0.6013408 0.08673296 -0.72025037 0.10281691 0.24434943 1.0006226 0.3628582
-2.51252 -3.1823757 -5.104184 -0.907527 0.44254825 -2.2995472 -2.9551642 -5.186672
-0.80052763 0.53940505 -2.0753744 -2.8822482 -4.9479556 -1.006819 0.5369823 -0.56545913
-0.07563595 0.20578663 0.6426967 -1.3296509 -0.22842117 2.068114 1.5248371 0.36638027
0.409193 -0.46271038 0.7479943 1.2801828 -1.3008986 0.4484521 -0.4457053 -0.11938495
-0.8567593 0.24373996 -1.410608 -0.21112698 -0.1879762 0.1502656 0.12915933 -0.15561713
-0.59315526 0.90381575 1.3923584 0.30311027 0.019918075 -0.9569639 1.1757256 0.31040904
0.20202751 -0.14147872 -0.17895298 -0.271392 0.9543611 0.66872984 -0.4385979 1.0257788
1.5955976 2.3326535 5.146831 0.53659046 -0.3390875 1.525083 2.3449287 5.323994
0.38556936 -0.32767746 1.5651842 2.2536073 5.5173206 0.5117306 -0.3582396 -0.25178853
-0.49382558 -0.4153226 -0.09885911 -2.6729443 -1.7612165 0.92034274 1.3611659 1.3769306
-0.81213194 -0.5087225 -0.70741343 0.026239661 -0.29198182 1.774345 -1.1314305 0.29606777
0.27153018 1.5486206 0.2673401 0.44633654 -0.6879195 0.24976471 1.102376 -0.45710942
-0.5138338 -0.63637364 -0.42432058 0.08959546 0.5547981 0.8930651 -0.3104803 0.99241376
0.2675541 0.79839045 0.29309142 0.9638957 -0.717932 0.77004284 0.5637241 -0.0067092543
00000000: 5927 133f e151 153f 075e ab3f e1ea 273f
00000010: 2262 8d3c e47e 3f3f 51d1 7abf 2b9e eebe
00000020: a594 8bbf ad9e 943f e952 a4bf 4243 3c3f
00000030: eebc 03bf df95 4a3e 3f55 3b3e 169b 35be
00000040: a498 2ebf 8203 a83e 53a0 f03f 1ebd 8c3b
00000050: 0f01 d4bd 75da 2c3f 0eef bb3f 500b bfbe
00000060: b817 c93e 8842 5dbe 8caa babc e283 bd3e
00000070: 4f82 c93f c42b 543f fe39 9dbe a738 8a3f
00000080: 8696 9b3f a7a0 f23f 4081 bf40 b7f0 9a3f
00000090: baae 213e b28f a03f 12c2 f73f 84ea cc40
000000a0: 370c 763f f815 3c3e cca7 803f 091e e43f
000000b0: 7814 cf40 4e4c 873f 408b 803e 8a83 3abf
000000c0: 2b1c 46bf 0953 1abf 284d 003e 6f93 41c0
000000d0: 4349 f8bf 66b2 d13e 4b70 8b3f ccf0 7d3f
000000e0: 94c9 adbe d65a a63f 525a 313f 1ad6 ebbe
000000f0: 47cc eebf 6f12 2b3f c5f8 6abf 0278 aebe
00000100: 15c4 c3bf a737 ac3e eab4 09bf b81a 503f
00000110: c02b 7c3e e414 b5bf 25fd 84bf ec54 37be
00000120: ba43 6abf 482d f03e e733 753f a57e 4ebf
00000130: 158e 87bf 709f 343f 46a5 7e3f d84b 663f
00000140: 5d4f e63e 2958 7abe 523a 1a3f 3d8f 85be
00000150: 61ed b43f 63b7 8dbe f8a5 64bf 7876 433f
00000160: 04de 03bf eeff 7f3e 215b bd40 d38b 6e40
00000170: 483b 2c40 c029 34bf d528 9f3e e7a2 bd40
00000180: ee37 6f40 8520 1f40 37bd 1abf 7247 a93e
00000190: 34e4 c040 c790 6c40 f6b1 1940 2642 ffbf
000001a0: 5cd7 aabf cd09 1ebf ead2 7a3e 5c94 d0bf
000001b0: 7ca9 41bf c6c4 2fc0 af0b 84c0 199b 84c0
000001c0: c682 a33e 5279 033e b363 0440 9935 f23d
000001d0: af58 383e 8bb5 d8be 51d2 133f e0ea a63e
000001e0: b308 9abd 404e 0b3f d7a8 4cbe 8634 aa3c
000001f0: eb0a 1abf 8c73 ebbd 0ea0 f93f cb89 77bf
00000200: c8cc 3e3f efe4 0f3f 0534 0040 5502 f7be
00000210: 0efc 143f 660e 59bf da06 c93e c391 f53e
00000220: 42ef 773d 78f1 193f 0da1 b13d 5462 38bf
00000230: ac91 d23d bd36 7a3e 6714 803f 8dc8 b93e
00000240: 21cd 20c0 0bac 4bc0 7a55 a3c0 b153 68bf
00000250: af95 e23e c82b 13c0 6921 3dc0 38f9 a5c0
00000260: 61ef 4cbf 7316 0a3f efd2 04c0 c176 38c0
00000270: a755 9ec0 72df 80bf ac77 093f eec1 10bf
00000280: 05e7 9abd bbb9 523e c587 243f 0032 aabf
00000290: 3de7 69be fb5b 0440 dd2d c33f 3296 bb3e
000002a0: bf81 d13e 60e8 ecbe 8e7c 3f3f 08dd a33f
000002b0: d883 a6bf 839b e53e 7c33 e4be 1980 f4bd
000002c0: 9454 5bbf f896 793e ce8e b4bf ac31 58be
000002d0: d57c 40be 3adf 193e 5842 043e 195a 1fbe
000002e0: 06d9 17bf 7860 673f cd38 b23f 4531 9b3e
000002f0: 3b2b a33c 96fb 74bf 2d7e 963f efed 9e3e
00000300: 4de0 4e3e ccdf 10be 733f 37be e4f3 8abe
00000310: 0251 743f e131 2b3f e78f e0be b84c 833f
00000320: 8b3c cc3f 324a 1540 d7b2 a440 fe5d 093f
00000330: e09c adbe eb35 c33f 5013 1640 295e aa40
00000340: 5969 c53e 57c5 a7be f557 c83f 1a3b 1040
00000350: e48d b040 c700 033f 2e6b b7be 6dea 80be
00000360: b5d6 fcbe 2aa5 d4be a576 cabd 8511 2bc0
00000370: 8b6f e1bf 959b 6b3f af3a ae3f 433f b03f
00000380: e1e7 4fbf a33b 02bf 0c19 35bf 8ff4 d63c
00000390: a47e 95be bd1d e33f b7d2 90bf 3296 973e
000003a0: 0106 8b3e 3339 c63f cde0 883e 3986 e43e
000003b0: 7e1b 30bf 52c2 7f3e a81a 8d3f 3f0a eabe
000003c0: 9d8a 03bf 62e9 22bf 8c40 d9be d37d b73d
000003d0: 4007 0e3f ea9f 643f 46f7 9ebe d40e 7e3f
000003e0: dafc 883e 5163 4c3f 1410 963e dec1 763f
000003f0: 64ca 37bf 8721 453f 3950 103f 4ed9 dbbb

convs.3.fc_full.bias f4 [32]
0.064956464 -0.054753684 -0.105554946 0.046793748 0.098333456 -0.061180018 -0.010320936 0.030216381
0.0911798 0.13084294 0.048412018 -0.07471127 0.0051571736 0.07376792 -0.11980917 -0.042268466
-0.004326077 0.002234208 0.12410567 -0.072788864 -0.042268533 0.041379094 0.21641718 -0.09557616
0.12704834 -0.12139907 -0.03367237 -0.106031656 0.11313541 -0.05015765 -0.07976804 0.016340015
00000000: e507 853d 6645 60bd 312d d8bd cdaa 3f3d
00000010: 0d63 c93d e697 7abd 2519 29bc 5888 f73c
00000020: 7abc ba3d b1fb 053e ae4b 463d 3902 99bd
00000030: 82fd a83b a313 973d 835e f5bd b321 2dbd
00000040: c4c1 8dbb ca6b 123b 1d2b fe3d 5412 95bd
00000050: c521 2dbd 207d 293d 779c 5d3e 6fbd c3bd
00000060: f618 023e 13a0 f8bd 0aec 09bd 2027 d9bd
00000070: 8ab3 e73d 1c72 4dbd 6d5d a3bd 7fdb 853c

convs.3.bn1.weight f4 [32]
1.6879611 3.3463767 1.1918416 1.3164083 2.086349 5.1043897 4.7123003 1.9637046
2.759249 0.93481266 4.58305 1.6127996 2.7755435 4.1719794 0.79009545 2.3703208
0.18358062 1.0745974 1.2587382 0.4945247 4.5168624 1.5434299 2.9218 4.499238
2.4181948 0.9646023 1.0153618 1.8564246 3.1051674 1.502339 0.89083314 0.7658514
00000000: 1c0f d83f 092b 5640 448e 983f 1180 a83f
00000010: be86 0540 2957 a340 2acb 9640 ac5a fb3f
00000020: 8997 3040 e24f 6f3f 58a8 9240 3870 ce3f
00000030: 81a2 3140 db80 8540 b243 4a3f 56b3 1740
00000040: 8ffc 3b3e 688c 893f 551e a13f 5732 fd3e
00000050: 238a 9040 1c8f c53f c5fe 3a40 c2f9 8f40
00000060: b4c3 1a40 2df0 763f 60f7 813f 529f ed3f
00000070: 10bb 4640 a54c c03f a40d 643f d60e 443f

convs.3.bn1.bias f4 [32]
0.75655615 -1.541131 -2.3126116 0.03966108 -0.78438 -1.5437465 -0.76011807 -3.1516328
-2.1563454 -1.9942601 -0.047277723 -1.4815098 -0.8828883 -0.42040843 -0.02451382 0.81217575
0.76879114 -0.4898084 1.5297173 0.05920888 -1.5457753 -2.028748 -0.91324615 0.077184245
-1.9430909 0.49086446 0.056485094 -0.36061698 -0.34145057 -1.2156441 0.069262184 0.57094294
00000000: aaad 413f c843 c5bf d401 14c0 a873 223d
00000010: 21cd 48bf 7c99 c5bf 1997 42bf 5ab4 49c0
00000020: 9001 0ac0 ea43 ffbf 49a6 41bd 1da2 bdbf
00000030: f804 62bf c63f d7be 35d1 c8bc c0ea 4f3f
00000040: 7fcf 443f 2bc8 fabe c7cd c33f 0385 723d
00000050: f7db c5bf 02d7 01c0 80ca 69bf c612 9e3d
00000060: 34b7 f8bf 9652 fb3e ea5c 673d caa2 b8be
00000070: 9cd2 aebe 3a9a 9bbf 55d9 8d3d 5129 123f

convs.3.bn1.running_mean f4 [32]
40.907555 33.19446 -18.241913 28.27219 -0.98772347 2.0262396 3.8387456 -14.96204
-1.6856159 22.327755 -17.107021 -2.91023 -30.99377 9.921771 8.952454 2.135935
17.117249 15.743647 -33.494534 19.168386 -31.385426 -10.552704 -35.78729 -36.624096
-13.996876 -4.4104137 -31.03005 -21.795273 0.110997066 -9.122588 -1.6580184 -40.424374
00000000: 56a1 2342 21c7 0442 70ef 91c1 722d e241
00000010: 72db 7cbf e9ad 0140 02ae 7540 8464 6fc1
00000020: 43c2 d7bf 3e9f b241 2edb 88c1 3541 3ac0
00000030: 3ef3 f7c1 93bf 1e41 403d 0f41 29b3 0840
00000040: 20f0 8841 fae5 7b41 67fa 05c2 db58 9941
00000050: 5a15 fbc1 e0d7 28c1 2f26 0fc2 137f 12c2
00000060: 34f3 5fc1 1c22 8dc0 8b3d f8c1 b85c aec1
00000070: 6e52 e33d 1ff6 11c1 f239 d4bf 8fb2 21c2

convs.3.bn1.running_var f4 [32]
242.77931 174.84253 88.88951 119.000885 110.788574 226.81921 354.60715 78.17105
138.43855 163.71748 146.7115 100.45839 108.38426 50.33994 144.47243 69.876335
242.80792 174.98515 608.23804 124.07877 133.41583 97.490265 317.44324 285.82904
255.68555 283.8863 185.11465 116.94384 86.3566 92.64225 256.7166 116.90829
00000000: 81c7 7243 b0d7 2e43 6ec7 b142 7400 ee42
00000010: c093 dd42 b8d1 6243 b74d b143 9457 9c42
00000020: 4570 0a43 adb7 2343 25b6 1243 b2ea c842
00000030: bec4 d842 195c 4942 f178 1043 afc0 8b42
00000040: d4ce 7243 33fc 2e43 3c0f 1844 5528 f842
00000050: 746a 0543 04fb c242 bcb8 9e43 1eea 8e43
00000060: 80af 7f43 72f1 8d43 5a1d 3943 3fe3 e942
00000070: 94b6 ac42 d548 b942 ba5b 8043 0bd1 e942

convs.3.bn2.weight f4 [16]
1.3432586 2.9673586 1.6313307 1.6475544 1.7250174 2.003242 2.4576232 1.237035
1.4600327 1.0307835 1.9314165 2.3707612 1.4662348 1.4965628 1.4850124 1.6632931
00000000: e6ef ab3f 34e9 3d40 72cf d03f 10e3 d23f
00000010: 5fcd dc3f 1e35 0040 b349 1d40 2a57 9e3f
00000020: 5ae2 ba3f b7f0 833f a838 f73f 8dba 1740
00000030: 95ad bb3f 5f8f bf3f e314 be3f cae6 d43f
