cgcnndefect/pristinepretrained/model_best.pth.tar (torch, 178655 bytes, 109 tensors)

embedding.weight f4 [16, 92]
000000 5b 35 35 be 19 98 0d 3e fe e6 00 3c 80 bc d4 be
       -0.17696135 0.13827552 0.007867573 -0.41550064
000010 3d 32 36 bf d9 ab 3b bc 77 dd 1d 3e 2d c7 fb bc
       -0.7117041 -0.011454546 0.15416513 -0.030734623
000020 e5 51 c2 bd 8c 98 53 3d 88 7a 1c bd 34 f4 bc 3e
       -0.094882764 0.051659152 -0.038202792 0.36905062
000030 7b 26 7b 3e 6e 34 d8 3a bc a3 c0 3d 45 94 56 be
       0.24526398 0.0016495117 0.0940623 -0.20954998
000040 c1 c8 ae bc fa 75 a4 3e bc 04 0f 3f ac 7a 33 3d
       -0.021335961 0.3212126 0.558666 0.04381816
000050 05 98 8a 3e 2c ab 46 be d1 b3 38 3e a3 e6 7d be
       0.27069107 -0.19401234 0.18037345 -0.24795012
000060 41 cb e2 bd 7a 07 a7 3e e5 a1 28 be 20 24 bf bd
       -0.11073924 0.32622892 -0.16468008 -0.09333062
000070 b6 7d 36 be be 92 08 be 98 07 b8 bd 84 ec dc bc
       -0.17821392 -0.13337228 -0.089858234 -0.026968248
000080 93 25 08 3f d3 24 70 3e 6b 7e 51 3c 7d ed 18 be
       0.53182334 0.23451547 0.012786488 -0.14934345
000090 7f a8 d6 3b fe 36 39 bd 0c 23 cb 3e 14 34 26 be
       0.006550848 -0.04521846 0.39675176 -0.16230804
0000a0 00 6a cf bd 11 70 8a 3c b5 14 2a be 82 cd ec bc
       -0.1012764 0.01689914 -0.16609462 -0.028906588
0000b0 78 89 d1 3d 8f 19 83 bd 73 b3 60 3e 9e 04 01 3c
       0.10231298 -0.06401359 0.21943454 0.007874636
0000c0 33 cc 0b be 5c 1c 80 bd ca 0f 61 be fa ec 86 3d
       -0.13652115 -0.06255409 -0.2197868 0.065881684
0000d0 a4 e0 19 3e 0b a0 28 3b 31 bf 06 be b1 3c ac bd
       0.150271 0.0025730159 -0.13158871 -0.084100135
0000e0 10 fd f7 3e 6e d0 87 3e 61 d5 65 be bc fb 83 bd
       0.4843526 0.26526207 -0.22444679 -0.06444499
0000f0 bd 73 00 bd f1 7f ab bc 20 89 86 3d 78 f0 f5 3c
       -0.031360377 -0.02093503 0.06569123 0.030021891
000100 9f e5 90 3c 4b 95 29 be 67 e7 fa bc 65 85 a5 3d
       0.017687617 -0.16560857 -0.03062792 0.080820836
000110 2f cf 95 be d7 51 ce bd 59 a4 fa bb 28 ed 83 bc
       -0.2925963 -0.100742035 -0.0076489863 -0.016104296
000120 51 3b 91 3e ba 55 87 3e fc d7 34 be ab eb 88 3c
       0.28365567 0.26432592 -0.17660517 0.016713938
000130 59 0c 65 bd ce b7 9e 3e 5e 40 94 3e b4 64 6b 3d
       -0.05591998 0.30999607 0.28955358 0.057469085
000140 37 76 83 be 4b 7a 42 be b6 fc e5 3e 80 ea da 3d
       -0.25676128 -0.18991964 0.44919366 0.106892586
000150 c2 75 73 be cf 41 92 be e3 86 19 bd f8 f9 03 3e
       -0.2377539 -0.28565833 -0.037482154 0.12888324
000160 9f 55 cd be de ed ea bc 59 5f 58 be 59 8c 15 3e
       -0.40104386 -0.028677877 -0.21130122 0.1460432
000170 0d 28 32 3e ce 7c 3f bc ac 54 8d be 5a 2a c8 3e
       0.1739809 -0.011687471 -0.27603662 0.39094812
000180 a9 f1 be 3e c0 dd 1b 3f 58 be 68 3f 36 65 6a 3e
       0.37293747 0.6088524 0.9091544 0.22890171
000190 d3 b4 23 3c 79 04 7a be 0e 18 89 be 92 44 08 bf
       0.009991842 -0.24415769 -0.26776165 -0.5322963
0001a0 ae 50 4d bf 39 25 2f be 8d 48 df bd 35 65 3e bd
       -0.8020123 -0.17104043 -0.1090251 -0.046483237
0001b0 cd 0d 86 bd 17 bb a4 3d 1d ac e0 bf 26 2c 4e 3e
       -0.06545601 0.08043497 -1.7552525 0.20134029
0001c0 95 fc 09 3e fd c9 bf 3d c6 95 80 bc e9 84 34 be
       0.13475259 0.09364698 -0.015696418 -0.17628826
0001d0 48 d6 cb be 63 12 18 3e e3 04 7f bd 6b 47 56 3e
       -0.3981192 0.14850764 -0.06226052 0.20925681
0001e0 a8 5f 09 be fe 96 b5 3e 06 1d ab 3e f4 06 39 3e
       -0.13415396 0.3546676 0.3342058 0.18069059
0001f0 90 b6 93 3e 5c 34 9c be 65 16 98 bd 4e cd dd 3d
       0.28850222 -0.30508697 -0.074261464 0.108301744
000200 c2 8c 07 3e 07 4d 25 bd 03 d2 fa bd c8 63 6f 3e
       0.13237289 -0.040356662 -0.12247088 0.23377907
000210 26 97 06 be c6 6b e3 be f2 ea 60 3e cc f8 2e 3e
       -0.13143596 -0.44418162 0.21964625 0.17087096
000220 b5 4e 18 be 08 28 83 3e 27 f5 00 be 8d 83 46 3e
       -0.14873774 0.2561648 -0.12593518 0.1938612
000230 79 1b 41 bd 6e fa 21 3d c9 b3 57 3e 79 e5 2d 3e
       -0.04714534 0.03954547 0.21064676 0.16982068
000240 3b e2 73 3d c3 d9 3f be 86 aa ff bd 76 08 30 bf
       0.059541922 -0.18735413 -0.12483697 -0.6876291
000250 56 5e 1b bf 5b ad 1d bf a3 b2 9f 3d 72 99 e2 be
       -0.6069082 -0.61592644 0.07797744 -0.44257694
000260 93 6b 58 be f1 9c dd bd 15 2b 8b 3e ac 80 7b 3d
       -0.21134786 -0.1082095 0.27181306 0.061402008
000270 2f 2d 7a 3d 4c ad 3e 3c 4e d5 9c bd 74 02 9a 3c
       0.061078247 0.011637997 -0.07657872 0.018799998
000280 b2 1c 0e bf f4 fb 8f bc 35 f5 04 be 0d 27 05 bc
       -0.55512536 -0.017576195 -0.12984164 -0.008126986
000290 c1 74 99 3e 7a 8e 18 be f5 76 b8 3c 8d 25 e0 3a
       0.2997189 -0.148981 0.02251766 0.0017101035
0002a0 4c c1 dd 3c 13 10 4f 3d f6 37 26 be fc 76 5c be
       0.02706971 0.05055244 -0.16232285 -0.21529764
0002b0 28 56 6f 3e cb 91 05 3e c3 aa 01 be ed d5 0e 3e
       0.2337271 0.13043897 -0.12662797 0.13948794
0002c0 64 5d c4 3e a0 24 3e 3e be 0f 3e 3e 0d aa cf bc
       0.383525 0.18568659 0.18560693 -0.025349641
0002d0 98 5c 55 3e 3a 61 ac 3e 8a 25 e0 be 61 79 2b 3e
       0.20836103 0.33667928 -0.4377864 0.16745521
0002e0 c1 0a 53 be e5 86 86 3e 0c ce 82 be 45 0c 97 be
       -0.20609571 0.2627479 -0.25547826 -0.29501548
0002f0 15 4d 11 bf ea 4c e1 be 53 86 dd be 92 91 92 3c
       -0.5675824 -0.44003993 -0.43266544 0.017891679
000300 18 be 36 3e 19 98 9a 3e bd b7 1a 3f 3e 51 ca 3e
       0.17845953 0.30194166 0.6043661 0.39515108
000310 35 e3 19 3e 3e 1a 16 bd ca 0e cc bd 55 ec 53 3d
       0.15028079 -0.03664612 -0.09963758 0.051739056
000320 13 95 a0 3e 7a 7c bf 3e 4e ad 9d 3f 60 18 b4 3d
       0.31363735 0.37399656 1.2318513 0.08793712
000330 39 46 3d 3e c0 30 51 3e 5c 36 ab bd 4e c2 4b bd
       0.18483819 0.20428753 -0.083599776 -0.04974585
000340 f2 78 68 bd 48 f7 41 be 93 bd fd bd 5f bf 58 be
       -0.056755967 -0.18941987 -0.12389674 -0.21166752
000350 3c 80 13 be 21 15 b9 bd 12 b0 76 3d dc c0 0a bd
       -0.14404386 -0.09037233 0.060226507 -0.03387533
000360 87 03 e0 be d1 b0 f7 bb 0d 9f 50 3e 2c 04 aa 3e
       -0.4375269 -0.00755892 0.20373173 0.33206308
000370 80 d6 06 3e d8 26 e1 3e cd 73 be bd 62 72 68 3d
       0.13167763 0.43974948 -0.09299431 0.05674971
000380 da 37 10 be b2 0d 29 be 59 46 37 be f1 5e 8a 3d
       -0.14083806 -0.1650913 -0.17897929 0.0675639
000390 4f b5 1d 3c 15 43 35 be de 8d a9 3d 22 95 98 be
       0.009625747 -0.17701371 0.08279012 -0.2980128
0003a0 07 09 05 be 54 58 8c be d5 87 56 be cf ea 6d 3d
       -0.12991725 -0.2741114 -0.20950253 0.05808526
0003b0 c8 79 66 3e 4f 68 72 3e 85 d8 bc 3e 63 1a a0 3e
       0.22507393 0.23672603 0.3688394 0.3127013
0003c0 ea 90 f4 3e 0d 46 a5 3e af eb 65 be aa 67 f1 bd
       0.4776681 0.32280007 -0.22453187 -0.117873505
0003d0 a5 e3 51 be 2c b5 01 3d 93 af 9c bd ef a0 78 bd
       -0.20496996 0.03166692 -0.076506756 -0.060700353
0003e0 c9 1f c2 3e 6c ca d5 3e ad b9 ae bc 03 68 bf be
       0.37914875 0.41755998 -0.021328771 -0.37384042
0003f0 d8 99 20 3f 6d bd a7 3d da d0 7c be 8a 16 f7 3c
       0.62734747 0.08190427 -0.24689046 0.030162115

embedding.bias f4 [16]
000000 51 b6 65 3d 85 6f 03 be 54 c5 b2 3e 04 1c 98 bd
       0.056082074 -0.1283551 0.34916174 -0.074272186
000010 77 24 1f 3e 4f 23 ba bc 11 7d 70 3e 67 bf 81 3e
       0.15541254 -0.022721915 0.23485209 0.2534134
000020 bd f4 70 3e d7 ec 36 bd 0f 82 4d be 9d b9 9f bd
       0.2353086 -0.04465946 -0.20069145 -0.07799075
000030 5f 13 76 bd 1c bc 98 3e 85 87 ee bd 10 ba 17 3d
       -0.060077067 0.29831016 -0.11646942 0.037042677

convs.0.fc_full.weight f4 [32, 56]
000000 a5 77 27 be e0 75 ca be 45 f4 4e bd a8 d9 e9 3c
       -0.16354235 -0.39543056 -0.050525922 0.02854617
000010 98 b1 49 be 80 8e 81 3e a2 25 e8 3c 0a 5c 1f bd
       -0.19696653 0.2530403 0.028338257 -0.038906135
000020 c8 a9 72 bd 2e 8f 9a be 02 51 b3 be 38 2b fd 3d
       -0.059243947 -0.30187362 -0.35022742 0.12361759
000030 49 47 68 ba 9d dd a3 3d f6 20 ff bd 3c 06 42 bd
       -0.000886072 0.08001254 -0.12457459 -0.047369227
000040 09 24 bf bd 7e 41 d3 bd 26 f6 44 3d 26 ce c2 be
       -0.09333045 -0.10315226 0.048086308 -0.38047904
000050 94 28 53 3e 35 09 c1 bd 4a 45 ea 3d 6c a6 3c be
       0.20620948 -0.09425584 0.11438997 -0.1842286
000060 94 e6 be be 12 5b 0a 3d be 4f 72 3d 24 36 90 3e
       -0.37285292 0.033778258 0.05915808 0.28166306
000070 bb 77 9d 3e a0 50 bf be 21 f3 41 3d af be 11 3e
       0.3075541 -0.373662 0.047351006 0.14232896
000080 09 d5 28 3f c6 2f c5 3e f5 d4 74 bf cf ff 77 bf
       0.65950066 0.3851301 -0.95637447 -0.9687471
000090 5c 68 60 bf 38 f8 eb 3e 50 ff 15 3e 7b 31 8a bf
       -0.8765924 0.46087813 0.14648175 -1.079635
0000a0 e0 0a 66 bf 41 74 5e bf b8 0f 15 3f 89 a9 87 3e
       -0.89860344 -0.8689614 0.5822711 0.26496533
0000b0 79 86 97 bf c8 5b 55 bf 34 29 40 bf a7 60 45 3e
       -1.1837913 -0.8334317 -0.7506287 0.19275151
0000c0 34 22 43 be 30 57 fe be 21 38 83 bf 84 9b 9a be
       -0.19056016 -0.49675894 -1.0251504 -0.30196774
0000d0 39 8d 3e 3e 5d 6f 00 3d 78 ad b3 3d 18 ae 89 3e
       0.1860856 0.031356204 0.08773321 0.26890635
0000e0 55 a9 2d be 9d 76 15 3c 11 76 4e be f3 60 8e 3e
       -0.16959126 0.009122518 -0.20162226 0.2780834
0000f0 34 f6 4c be ac 6f 56 3d 06 75 89 3d 58 c5 83 bd
       -0.20015794 0.052352592 0.067117736 -0.06434125
000100 18 c3 a9 3d 1f 08 35 3d 42 d5 bd be 78 9c 41 be
       0.08289164 0.044197198 -0.37076765 -0.18907344
000110 4f bd a9 3e f9 38 59 3e e3 12 b4 be 7c 0e 87 bc
       0.33152243 0.2121314 -0.3517066 -0.016486399
000120 bc 25 a2 be 8f 2d 11 be ee dd c3 bd 86 2e 10 bd
       -0.31669414 -0.14177535 -0.09563814 -0.03520062
000130 86 50 0f 3e e8 9f 95 be 62 42 fa bd 75 ac 81 bd
       0.13995561 -0.2922356 -0.12219693 -0.06331722
000140 69 e6 16 bd fc 6f 27 3e 10 3d a4 be c1 37 48 3d
       -0.03684083 0.16351312 -0.32077837 0.048881296
000150 a5 77 25 3e 80 a3 54 3d 6c d0 21 bd 37 4b df 3d
       0.16158922 0.05191374 -0.039505407 0.10903018
000160 3e 88 43 3e e3 4e 89 3d fc 4f d1 be 20 49 24 bf
       0.19094941 0.067044996 -0.40881336 -0.6417408
000170 83 21 23 bf 92 fb a2 3e d0 09 11 3e 4a 99 e9 be
       -0.6372301 0.31832558 0.141639 -0.45624763
000180 bf bc 17 bf 34 54 1d bf f2 14 ca 3e 49 b5 2a 3e
       -0.5927238 -0.6145661 0.39469105 0.16670717
000190 37 83 b3 be cf ed 15 bf 3f 68 13 bf 0f 83 cc 3e
       -0.35061046 -0.5856599 -0.5758094 0.3994374
0001a0 05 99 22 3f b1 e9 f1 3e 2e 84 c9 3e f8 5b cc 3d
       0.6351474 0.47248605 0.39358658 0.09978479
0001b0 91 c3 a4 3f fe dd 8a 3f 3c b9 15 3f 80 bf d0 3e
       1.2872182 1.0848997 0.5848577 0.40771103
0001c0 7a a9 7e bd 39 da a7 3d 39 06 38 be 26 4c 4f 3b
       -0.062173344 0.081959195 -0.17971124 0.0031631081
0001d0 67 e1 b2 bd d1 28 5c be f8 ba 6f 3e 15 8a c2 bd
       -0.08734398 -0.21499945 0.23411167 -0.09498993
0001e0 fc 0a 5b 3e 6c b2 79 3e ef 85 51 3e 85 2e ea bd
       0.21390909 0.24384469 0.20461248 -0.11434654
0001f0 28 f7 69 3e c9 c8 5c 3c 7a 00 e4 3d cb 13 79 3e
       0.22848189 0.013475605 0.111329034 0.24323957
000200 38 f9 95 be aa c2 92 3e 0a cf a4 be 80 62 ea bd
       -0.292917 0.28664142 -0.32189208 -0.11444569
000210 99 88 99 be 85 55 2e 3d 08 31 e6 3d 7f fa 17 3e
       -0.29987028 0.042562027 0.11239821 0.1484165
000220 4e e4 4c be b9 4e 8d 3e a2 c1 a0 3c a8 49 af be
       -0.20008966 0.27599123 0.019623581 -0.34235883
000230 06 8b a1 3e f4 bc 52 be 2c bc ad bd d0 22 4c 3e
       0.3155138 -0.20579892 -0.084831566 0.19935155
000240 4d 96 c5 3e 39 d5 39 3e 2c 0e 56 bf f9 50 3e bf
       0.38591233 0.18147744 -0.83615375 -0.74342304
000250 aa 94 0d bf 6a b6 9e 3e 80 08 1f 3c fb 73 1c bf
       -0.5530497 0.30998546 0.009706616 -0.6111447
000260 9b ae 31 bf ac 96 07 bf 0b 41 f9 3e 97 95 04 3e
       -0.6940705 -0.5296428 0.48682436 0.12947689
000270 c5 71 1f bf d9 76 31 bf a2 02 25 bf b9 11 7f bd
       -0.62282974 -0.6932197 -0.6445714 -0.06227276
000280 48 90 0a bf 6e f7 20 bf 24 6e 39 bf c9 03 53 3f
       -0.54126406 -0.6287755 -0.72433686 0.8242765
000290 33 3b 6b 3f 4d b6 dd 3d 0c a6 f1 3b b2 3d 4b be
       0.91887206 0.10825787 0.0073745307 -0.19847754
0002a0 11 65 e5 3e 11 74 42 3e 25 cd 40 be 9a 3e 2c 3e
       0.4480367 0.18989588 -0.18828256 0.16820756
0002b0 07 5d e5 be 6a 0a 83 bd d1 47 9d be 1b bc 36 be
       -0.44797537 -0.06398471 -0.30718854 -0.17845194
0002c0 27 ab da bd a1 35 af be ca 6f c3 bd d7 c4 5c be
       -0.10677176 -0.34220603 -0.095428064 -0.21559463
0002d0 8d bc f8 be f9 49 1c bf d5 98 53 3e 5b 47 e9 be
       -0.48581353 -0.61050373 0.2066377 -0.45562252
0002e0 f1 8d 9c 3e 47 e3 b0 3e 4f 77 44 3c 1c 7e e9 bb
       0.30577043 0.345484 0.011991336 -0.007125629
0002f0 4f 47 86 3e 44 33 15 3e 7b a9 fe 3c 0e d1 80 bd
       0.2622628 0.14570338 0.031086674 -0.06289874
000300 10 5f 3c 3d fd fa 1b 3f f2 c5 26 be 57 10 65 3e
       0.045989096 0.6092985 -0.16286448 0.22369514
000310 c6 28 6b 3e 6a e2 49 3d f4 87 ae be 08 1a 06 3e
       0.22964773 0.04928819 -0.340881 0.13095868
000320 92 74 23 3f a2 be 47 3f 9a b6 d0 3f 8d e1 5a 3e
       0.6384975 0.7802526 1.6305726 0.21375103
000330 cb e1 61 bc 70 64 33 3f 50 64 60 3f f1 b3 e1 3f
       -0.013786743 0.7007513 0.87653065 1.7633039
000340 32 16 99 3e b9 67 26 be 65 2c 29 3f d3 17 26 3f
       0.29899746 -0.16250505 0.66083366 0.648801
000350 ef 04 db 3f fe 72 6e 3e 89 74 2d bd 25 04 97 bd
       1.7110881 0.23286054 -0.042347465 -0.073738374
000360 65 ca ff bc 27 f9 b3 bd c7 cc 97 3d 89 63 38 3d
       -0.031224439 -0.087877564 0.07412105 0.0450168
000370 c8 c5 1f be 84 e3 05 3d 21 62 8b 3e cb 5d 53 3e
       -0.15602791 0.03268768 0.27223304 0.20641248
000380 93 5f 8e 3d 18 12 2e 3e 5a d2 12 3e 23 3b 78 3d
       0.06951823 0.1699909 0.14338055 0.060603272
000390 12 89 2e bd dd a7 8e bd 7f 73 c4 bd 46 f3 9e 3d
       -0.04261119 -0.06965611 -0.09592342 0.077612445
0003a0 bc 89 d6 3e 09 a1 0e bd 49 60 22 3e e2 43 aa be
       0.41901958 -0.034821544 0.15857042 -0.33254915
0003b0 a4 39 a1 be 1a 60 af bd f4 b1 5b 3e ef 76 6c be
       -0.3148929 -0.08563252 0.21454602 -0.23092245
0003c0 43 cf 8f be d8 be 93 bd 6d 91 43 3d 79 53 cf 3d
       -0.28087816 -0.07214135 0.04774611 0.10123343
0003d0 fd 48 48 3e 73 8d 7d be 47 9e c6 be fc 94 6c 3d
       0.19559093 -0.2476099 -0.3879263 0.05775927
0003e0 57 b0 07 3e ee 47 15 3c a2 a4 ef bc a3 b1 40 3e
       0.13250862 0.009111388 -0.029253308 0.18817763
0003f0 70 24 c2 3e 1d 9e 91 be 0f 2e 74 3e ac 40 e7 3e
       0.37918425 -0.28440943 0.23845695 0.45166528

convs.0.fc_full.bias f4 [32]
000000 ac 4d 78 bd 40 6d a5 be f5 2a 52 be e9 30 6a bd
       -0.06062095 -0.32309914 -0.205242 -0.05717555
000010 64 0d 37 3d 8f 81 a0 3e 83 3c 09 3e a6 a6 92 be
       0.044690505 0.31348845 0.1340199 -0.28642768
000020 a1 f8 80 3d 3d 06 b5 be a7 c0 3a 3e 29 ba d6 3d
       0.06297422 -0.35356322 0.18237554 0.10484726
000030 37 54 76 be 4b b1 95 be 13 75 a6 3e 18 5d 82 3e
       -0.24055563 -0.29236826 0.32511196 0.2546165
000040 21 fd 60 be 78 8a fc bd 29 8f ae 3d f3 a8 98 bd
       -0.21971561 -0.12331098 0.085233994 -0.074540995
000050 33 e9 6f 3c 68 56 8c bd 70 0e 0a be ad f7 93 3e
       0.014643001 -0.06852418 -0.1348207 0.288999
000060 14 9f eb 39 41 ff a3 3e 72 09 8e bc f5 ff d8 3d
       0.00044941215 0.3203068 -0.017338488 0.10595695
000070 ad ba 61 3e 8f 17 20 be f1 33 f0 bd 36 22 e3 3d
       0.22043867 -0.15633987 -0.11728657 0.110905096

convs.0.bn1.weight f4 [32]
000000 bc 5a be 3f 38 54 df 3f 96 d2 c1 3f ec 20 c8 3f
       1.487144 1.7447577 1.5142391 1.5635047
000010 df 93 5a 40 2f c7 04 40 ab ad c5 3f b9 e6 f4 3f
       3.4152753 2.0746572 1.5443624 1.9132911
000020 60 7a e2 3f 57 50 21 40 c8 19 00 40 54 7c bf 3f
       1.7693596 2.5205286 2.0015736 1.4959817
000030 3e d5 0d 40 71 2d 18 40 18 8f 75 40 a4 49 42 40
       2.2161403 2.3777735 3.8368587 3.0357447
000040 06 b6 0e 40 0c 3c ae 3f f6 c9 ac 3f 21 6b 43 3f
       2.2298598 1.3612075 1.3499134 0.7633534
000050 18 2e 87 3f a8 c1 b2 3f 57 3c 9b 3f a4 f2 9a 3f
       1.0560942 1.3965349 1.2127789 1.2105298
000060 5d d5 01 40 5a f7 71 3f 5f a1 a5 3f 62 6a e8 3f
       2.0286477 0.94518054 1.2939872 1.8157465
000070 5e 86 85 3f f1 e2 f7 3f 7c cc 98 3f 32 53 b8 3f
       1.0431631 1.9366132 1.1937404 1.4400389

convs.0.bn1.bias f4 [32]
000000 eb 0d 24 bf bb 50 c1 be 3c 33 3b bf de a7 e4 3e
       -0.6408374 -0.37756905 -0.7312505 0.44659323
000010 ee 15 9c 3e 77 bc 13 3e 15 bd 9d 3e c4 bd 4a 3e
       0.3048548 0.14427362 0.3080832 0.19798952
000020 3e a9 e3 be 3e c8 97 be 56 a8 94 bd f3 15 0e 3e
       -0.4446506 -0.2964496 -0.0725867 0.1387556
000030 af 6f c6 3d 6b 1f 1d bf 62 e9 b3 3e a7 05 47 be
       0.09689271 -0.61376065 0.35138994 -0.1943575
000040 f9 66 d6 bf ca c9 b2 be 94 a0 be bf fa 04 00 3f
       -1.6750175 -0.34919578 -1.4892755 0.50007594
000050 e6 02 88 be 77 93 e8 be f6 84 76 be 66 a3 08 3e
       -0.2656471 -0.45425007 -0.24074158 0.13343582
000060 e8 17 a2 bf d4 e7 23 bf 5b 9e 4c 3d f2 b1 7a be
       -1.2663546 -0.64025617 0.049955707 -0.24481943
000070 2a 64 21 bf 49 23 92 bf 52 aa ef be 17 02 d0 bc
       -0.63043463 -1.1417018 -0.46809632 -0.025391622

convs.0.bn1.running_mean f4 [32]
000000 86 9d de c0 71 85 5f c0 b1 da cf c0 fe 14 0a 41
       -6.956729 -3.4925196 -6.4954457 8.630125
000010 20 24 1b c1 0c 85 84 c0 5c af bc c0 3e 2a 33 c1
       -9.69632 -4.141241 -5.896406 -11.197813
000020 a9 5b 96 c0 f9 48 09 3f 11 60 55 40 67 62 b2 40
       -4.698689 0.5362697 3.3339884 5.574512
000030 b7 45 11 40 85 6c 3a c0 55 83 95 3e cd 4b 28 40
       2.26988 -2.9128735 0.2920176 2.6296265
000040 2f 09 1e c0 77 a4 83 c1 7d c6 10 c1 ad ee 72 bf
       -2.4693105 -16.455305 -9.048459 -0.9489544
000050 b4 fb 42 40 bd 35 9b c0 7e e7 a0 bf 71 61 b9 40
       3.0466127 -4.85031 -1.2570646 5.7931447
000060 29 fa 17 c0 ca 9c 6d bf a8 db a6 bf 80 88 36 41
       -2.3746436 -0.92817366 -1.3035784 11.408325
000070 37 8b 62 40 4f 99 84 c0 cb 1e 38 c0 e7 2d d4 40
       3.539747 -4.1437144 -2.8768795 6.6306033

convs.0.bn1.running_var f4 [32]
000000 f4 28 5d 3f 1e b5 8b 3f f6 47 b0 3f 23 cd 28 3f
       0.86390615 1.0914648 1.3771961 0.65938014
000010 4d c4 9f 3f d7 7b 7c 3f 2f 86 0f 3f ba 28 82 3f
       1.2481781 0.98626465 0.5606412 1.0168679
000020 9d a2 41 3f ce 02 54 3f 9c da 5a 3f 0a 3b 40 3f
       0.75638753 0.8281678 0.8548982 0.75090086
000030 bc c0 3d 3f e6 67 95 3f 5d c2 2c 3f 9d 61 93 3f
       0.74122214 1.1672332 0.67484075 1.1514164
000040 60 f1 8d 3f 5d ab 9e 3f ff 67 40 3f 90 64 b7 3f
       1.1089287 1.2396046 0.75158685 1.4327564
000050 12 99 a4 3f aa 23 45 3f 61 c9 b3 3f d1 f3 8d 3f
       1.2859213 0.77007544 1.4045831 1.1090032
000060 aa c1 7a 3f ae b8 64 3f 04 99 68 3f 38 e3 70 3f
       0.9795176 0.893443 0.90858483 0.9409671
000070 40 38 93 3f 7b d1 40 3f 76 1a 6e 3f d8 43 87 3f
       1.1501541 0.7531964 0.93009126 1.0567579

convs.0.bn2.weight f4 [16]
000000 b1 f5 9b 3f 5d 15 93 3f 4d 16 91 3f 1a 7a 84 3f
       1.2184354 1.1490895 1.1334931 1.0349762
000010 7d b2 77 3f b2 e1 37 3f 41 96 9a 3f ce d3 73 3f
       0.96756727 0.7182876 1.2077104 0.95245063
000020 9d 5f 49 3f ea f1 72 3f 82 e8 4f 3f 26 41 8f 3f
       0.7866152 0.9490038 0.81214154 1.1191757
000030 ef 37 66 3f e2 c6 84 3f b0 49 94 3f 4f 5c 91 3f
       0.899291 1.0373194 1.1584988 1.1356295

convs.0.bn2.bias f4 [16]
000000 71 d0 14 3d 2c 82 a7 bd bd 6d 99 3e 39 97 81 bd
       0.036331598 -0.08179125 0.29966536 -0.063276716
000010 63 55 1d 3e f9 03 90 bd 2a de ab 3e 0b 5b 67 3e
       0.15364604 -0.07032008 0.33567935 0.22593324
000020 f5 3f 88 3e 17 6b 37 3d 0c 4b 3e be 69 a2 b0 3c
       0.26611295 0.044779863 -0.18583316 0.021561818
000030 2b d3 3e bd e1 2d a7 3e fa 20 b6 bc 9b e2 e7 3d
       -0.046588104 0.3265219 -0.022232521 0.113225184

convs.0.bn2.running_mean f4 [16]
000000 6d f5 16 40 d1 ff 3a 40 93 35 ca 3f b7 ce e3 40
       2.3587296 2.9218638 1.57976 7.1189837
000010 c9 23 8d 40 a6 5b 76 40 1f 78 9f 40 63 e5 c0 40
       4.4106183 3.8493438 4.983413 6.0280013
000020 cf f5 01 40 b8 86 36 40 ea 76 ce 40 df a7 be 40
       2.030628 2.8519726 6.452016 5.957992
000030 da 82 68 40 bd ce 8b 40 94 40 8c 40 a5 dc da 40
       3.6329865 4.3689866 4.382883 6.839434

convs.0.bn2.running_var f4 [16]
000000 96 85 36 41 4c d8 88 40 cd 1f 0a 3f 4e 64 a8 41
       11.407614 4.2764034 0.53954774 21.048977
000010 9c 40 1c 41 d4 f6 a5 40 2c c6 76 41 d6 a1 89 41
       9.765774 5.1863804 15.423382 17.204021
000020 c8 cd 10 40 67 0c b1 40 d4 b0 c1 41 a7 f6 84 41
       2.26256 5.532764 24.211342 16.620436
000030 3d d4 00 41 b8 99 2c 41 e2 08 61 41 59 c5 ce 41
       8.051816 10.787529 14.064669 25.846361

convs.1.fc_full.weight f4 [32, 56]
000000 04 4b 6d be df 62 2c be 94 94 8a 3d 5f 84 c9 3e
       -0.23173147 -0.16834591 0.0676662 0.39358804
000010 21 95 91 be cb a0 29 bc 76 03 ad 3e ee 2e ea 3e
       -0.2843409 -0.010353277 0.33791703 0.4573893
000020 d5 1a 1a bd 72 19 80 3e 0b b7 89 be 16 42 e5 3e
       -0.037623245 0.25019413 -0.26897463 0.44776982
000030 61 18 11 3f 16 8d 8e 3e b5 79 a3 be 17 0f f3 bd
       0.56677824 0.27842015 -0.31928793 -0.118681125
000040 ce 64 40 3e e1 32 56 be 4e ef 28 be 2a ad 9d be
       0.18788454 -0.20917846 -0.16497537 -0.30796176
000050 c9 04 ee 3e f8 e2 a8 3e d5 d8 e6 3d e6 53 8c 3c
       0.46488026 0.32985663 0.11271826 0.01712985
000060 80 aa 83 be 78 ef 80 be cf 5d 1d be 3f e1 39 be
       -0.2571602 -0.251827 -0.15367816 -0.18152331
000070 55 bb 20 3d 64 4b 40 be 5d 2b d0 3c 94 7e 0f be
       0.039241154 -0.18778759 0.025411302 -0.1401313
000080 83 23 e9 bd ef 6b 15 3d dc 53 dc bd d0 71 c3 3d
       -0.113837264 0.036479887 -0.107581824 0.095431924
000090 bd 02 4f bd 65 75 6f bc 2b 8d 21 be 0e 7e 3b be
       -0.05053972 -0.014615391 -0.15776508 -0.18309805
0000a0 e1 12 85 bd f9 60 40 3e f3 d2 6b be e3 fe 5b be
       -0.064977415 0.18786992 -0.2302969 -0.2148395
0000b0 06 ad 8d be 4f 1c b4 3d 82 74 99 3c 0e 70 9f be
       -0.2767107 0.08794462 0.018732313 -0.31140178
0000c0 d3 fd 62 3d a6 0d 85 3e 2a e5 f1 3e e9 5e a9 be
       0.055417847 0.25986975 0.4724515 -0.33080223
0000d0 38 3f b1 bd 9c 62 76 3e e9 50 ab 3e a5 44 24 3e
       -0.08654636 0.24061054 0.33460167 0.16041811
0000e0 ff 19 4c 3e 7e b3 98 be 75 9b 9c be f3 3c 1e be
       0.19931792 -0.29824442 -0.30587354 -0.15452938
0000f0 b4 c8 dd 3e 78 35 eb 3d 74 f0 43 3e 15 2e a3 3e
       0.43317187 0.11484808 0.19134694 0.31871095
000100 ce 16 75 be 54 c6 4a 3d 8a df bf be 20 99 0a be
       -0.2393448 0.049505547 -0.37475234 -0.13534975
000110 9b 9a 00 bf 94 02 1a be 9f df e2 3e ed be a7 3d
       -0.5023591 -0.15040046 0.44311234 0.08190713
000120 73 af 54 3e a9 7e 5b 3e fe c9 7c bb 40 37 7d 3e
       0.20770054 0.21435036 -0.0038572545 0.24728107
000130 02 8b a7 be 5a c5 90 3e 36 64 b2 3d 21 51 12 3c
       -0.32723242 0.28275567 0.0871052 0.008930475
000140 e0 0a 84 be 2f 4f d0 3e 1c 67 bb 3e 72 92 eb bd
       -0.25789547 0.40685412 0.36602104 -0.115025416
000150 87 2b c3 3e 07 90 41 3e c5 43 3a 3e 56 01 91 3d
       0.38119146 0.18902598 0.18189915 0.07080333
000160 13 2c 69 3d fb 36 ab 3e 6a 1b ad 3e 90 3c 00 3e
       0.056926798 0.33440384 0.33809978 0.12523103
000170 20 e9 41 3e 60 e4 0b 3e df 12 20 3e b7 75 9a 3e
       0.18936586 0.13661337 0.15632199 0.30167934
000180 91 14 3e 3e c3 2f 90 bd a4 79 59 3d 7d 10 0f 3e
       0.18562533 -0.0704036 0.05309452 0.13971134
000190 9b e4 d9 3e d7 6f 85 3d 41 0c 0e bc 08 49 d8 be
       0.42557225 0.065154724 -0.008669914 -0.42243218
0001a0 eb a7 11 bf e6 31 34 be 39 0c 3e bd 15 2e cb bf
       -0.5689685 -0.1759716 -0.046398375 -1.5873438
0001b0 69 c4 8f bf b2 49 29 bd f3 d5 01 3e 92 bd 6d 3e
       -1.1231815 -0.041330047 0.12679271 0.23216847
0001c0 53 b3 52 bf 02 6a d5 bd 20 47 76 be e7 d7 73 3e
       -0.8230488 -0.1042061 -0.2405057 0.23812829
0001d0 ac 04 89 be 99 2c 02 be 1f f4 05 be db aa b8 be
       -0.26761377 -0.12712325 -0.13081406 -0.36067852
0001e0 77 d3 2b bc f1 dc d8 3e 84 5b ca bc 28 33 c6 bd
       -0.010487429 0.42356065 -0.024701841 -0.09677726
0001f0 28 fd 9c be 13 eb 82 3e af d5 38 3b 82 d4 88 3e
       -0.30661893 0.25569972 0.0028203537 0.2672463
000200 b7 50 cf 3e 5f a5 17 bf 53 9e 13 be f7 f1 10 3f
       0.40491268 -0.5923671 -0.14415865 0.5661921
000210 d1 81 09 be 27 fd 62 3e 32 05 df bc f1 17 f0 3c
       -0.13428427 0.22166882 -0.027224157 0.029308291
000220 01 67 4e bd 95 8d fe 3c 7e 2b 3b bc c4 43 61 be
       -0.0503912 0.031073371 -0.011423944 -0.21998507
000230 cf 7f 25 be cc 55 d7 3e 4d 89 b2 3e b7 18 0b be
       -0.16162036 0.42057645 0.34870377 -0.13583647
000240 0f 1e 1c 3c 0d d1 01 3e 05 ac d7 3d 84 61 43 be
       0.009528651 0.12677403 0.10530857 -0.19080168
000250 28 12 14 3d 59 23 a3 3d 80 6e ca 3d 89 5f 19 3e
       0.036150128 0.079657264 0.098843575 0.1497785
000260 1c c2 b0 bc 5c a3 34 be 4d 9f 2c 3e e5 38 2a 3e
       -0.021576934 -0.17640442 0.16857643 0.16623266
000270 ae 76 5e 3e 30 dd b6 bc 3d 35 48 be ac d4 36 3e
       0.2172496 -0.022322267 -0.19551559 0.17854565
000280 f2 18 83 3e bc 43 89 3e d6 55 7a 3e dc 28 57 3d
       0.2560497 0.2680949 0.24446806 0.0525292
000290 6e fb af be f2 23 87 bf 03 f6 b1 bf 17 a9 e4 bf
       -0.34371513 -1.0557845 -1.3903202 -1.7864102
0002a0 0e 8d dc 3e 88 88 96 bd 76 f0 51 3c da ee 5b be
       0.43076366 -0.0735026 0.012813678 -0.21477833
0002b0 66 16 89 3d 4d 38 4e 3e 5a 91 97 3e f7 97 74 3e
       0.06693725 0.20138665 0.29603082 0.23886095
0002c0 7e 02 12 3f bd 5a 3e 3d de 37 bc 3c 62 4b 1f 3f
       0.5703505 0.046473254 0.022975858 0.622244
0002d0 9c 4e 36 3d 36 bd ab 3d a3 e0 de 3e cc 3c 68 be
       0.04450856 0.083856985 0.4353076 -0.22679442
0002e0 e0 6a 57 be 62 58 8b 3e 3c f1 f2 bc b1 3a 23 3c
       -0.21036863 0.27215868 -0.029656045 0.009962724
0002f0 3a 37 29 3e e2 f1 fa ba da 91 25 be 27 4f b6 bc
       0.16524974 -0.0019145573 -0.16168919 -0.02225454
000300 83 d7 0d 3b b3 0b 2e 3e dc 49 82 3b 51 12 0b 3f
       0.0021643348 0.1699665 0.00397609 0.54324824
000310 d2 51 f2 bd c3 6a 0a 3e aa 63 4d be b8 a9 28 bf
       -0.11832012 0.13517289 -0.2005755 -0.6588397
000320 61 d0 bd bd 80 fd 48 be 26 a9 4a be cb 7b 13 be
       -0.09268261 -0.19627953 -0.19791088 -0.14402692
000330 7d 61 3f 3c 14 91 f4 bd 7e ea 01 be 0d 8c 1b be
       0.011680958 -0.11941734 -0.12687108 -0.15190144
000340 01 da ef bc 27 48 82 3d 72 65 d7 bc 51 96 de bc
       -0.029278757 0.06361418 -0.02629349 -0.027171286
000350 7e 07 02 bd 15 4d dd bd e1 43 f9 3d 05 b0 82 3d
       -0.031745426 -0.10805718 0.1217115 0.06381229
000360 df ee 60 bc 18 08 d7 be 63 6f 47 bf fe 23 2f 3f
       -0.013728826 -0.41998363 -0.7790434 0.68414295
000370 e9 78 8e 3e e2 ac 24 bf ad d5 74 bf 9a 11 90 bf
       0.27826622 -0.643263 -0.95638543 -1.1255372
000380 d5 b3 1f 3c 6f f5 8f 3e 20 11 04 bf 49 2a a4 bd
       0.009747465 0.28116938 -0.5158863 -0.08015878
000390 46 ba 1a bf 44 84 2e 3e 45 17 17 be 3c 22 0a 3e
       -0.6044048 0.17042643 -0.1475497 0.13489622
0003a0 54 cb bd be 61 c5 86 3e 59 78 a9 3d 8c 1f f1 bd
       -0.3706919 0.26322463 0.082749076 -0.11773595
0003b0 e6 2e b5 bd bf 94 43 3e 87 8f 19 3e a5 c3 b6 bd
       -0.08846836 0.19099711 0.14996158 -0.08924035
0003c0 6d ff 17 bd 06 41 b2 3e e9 1e 93 bd 83 4a 4b 3e
       -0.037108827 0.34815234 -0.0718363 0.19852643
0003d0 60 d1 77 bd 54 c5 5e 3c e7 34 6b be d3 d7 db 3d
       -0.06050241 0.013596851 -0.229694 0.107345246
0003e0 eb c2 0f be dc bc 0f be ec 0b 0b be 78 37 e1 3e
       -0.14039199 -0.14036888 -0.13578767 0.43987632
0003f0 04 d5 aa be a0 49 8d 3e c3 41 44 3e e8 70 77 be
       -0.33365643 0.27595234 0.19165711 -0.24164164

convs.1.fc_full.bias f4 [32]
000000 77 9f ac 3d fe 21 51 be 85 e8 b3 3b e7 de 94 3e
       0.08428853 -0.20423123 0.005490365 0.2907631
000010 3c 81 2a be 0c ce 1a bc f9 4e 6d 3c 23 57 82 3e
       -0.16650862 -0.0094485395 0.014484161 0.25457105
000020 84 2d ad 3b e3 cf 9e be f9 f7 67 be 52 d4 8d bd
       0.005284967 -0.3101798 -0.22653188 -0.069252625
000030 35 e7 25 3e 74 51 22 3e 27 6d 88 be b0 ca 6c 3e
       0.1620148 0.15851384 -0.26645777 0.23124194
000040 ea fb ab bd 71 b8 5f be 10 56 6f be 4d 6f fc 3d
       -0.08397658 -0.21847703 -0.23372674 0.123259164
000050 b2 af 51 3d e5 89 e8 3d 54 1d 0d 3e 66 4c ef 3d
       0.051192947 0.11354426 0.13780719 0.11684494
000060 4e 2b 32 3d 93 a9 ca 3e fe 17 b5 be 48 24 9b be
       0.04349833 0.395825 -0.35369867 -0.30301118
000070 04 9a 02 bd 88 3b d7 3e 89 8b d1 3d c4 c3 6f 3e
       -0.031885162 0.42037606 0.10231692 0.23414522

convs.1.bn1.weight f4 [32]
000000 00 10 34 40 f0 45 fa 3f c3 44 cb 3f 4e 2d 26 40
       2.8134766 1.9552593 1.588036 2.5965152
000010 99 cf de 3f 5d 66 fd 3f a9 a9 ef 3f a1 b6 64 40
       1.7407104 1.9796864 1.8723651 3.5736468
000020 1e f4 4b 40 81 ed ee 3f 3d 63 ae 3f 13 0d db 3f
       3.1867747 1.866623 1.3624035 1.7113365
000030 5c 58 da 3f ce f6 b6 3f 21 f3 a9 3f cf c9 30 40
       1.7058215 1.4294069 1.3277322 2.7623174
000040 f4 35 96 3f 30 72 8d 3f 11 d1 8f 3f 8e a2 8d 3f
       1.1735215 1.1050472 1.1235677 1.1065233
000050 b1 a3 36 40 73 f8 df 3f f8 52 85 3f 7f 6d 79 3f
       2.853741 1.7497696 1.0415945 0.974327
000060 ff f4 8b 3f 08 50 8c 3f a2 d2 a3 3f 67 93 9b 3f
       1.0934142 1.0961924 1.2798655 1.2154359
000070 5a f5 d0 3f cf a1 a5 3f 9d cb e4 3f f6 2b b1 3f
       1.6324875 1.2940005 1.7874638 1.3841541

convs.1.bn1.bias f4 [32]
000000 36 cb e0 bd ff 4b 66 3d a5 77 52 3e d6 c9 ba be
       -0.109762594 0.05622482 0.20553453 -0.36482114
000010 b6 a3 80 bf 07 25 75 3d 8c e4 ff bd 9b 9b 35 bd
       -1.0049961 0.059849765 -0.12494764 -0.04433785
000020 cf 33 21 3f d4 3c 94 3e 79 ef ae 3e f8 83 a0 bd
       0.6296968 0.28952658 0.34167078 -0.07837671
000030 3f 97 85 be e2 df ab bd 0b 0a de be 7f d6 e7 be
       -0.26091954 -0.08392312 -0.43367037 -0.45280835
000040 f3 ab 2d 3e c9 68 78 be fb a9 62 be dd 97 4b be
       0.16960125 -0.24258722 -0.22135155 -0.1988215
000050 dd f2 34 bf 4d 19 92 3d 4f be 08 be 41 78 80 3e
       -0.7068308 0.07133732 -0.13353847 0.25091746
000060 91 16 01 bd 7b 26 4c be 2a 54 89 bd 6a cb 8d bc
       -0.03151566 -0.19936554 -0.06705506 -0.01730891
000070 d7 22 4c bf 7b 24 0a bf 7b 0a 54 bf 50 0f 2c bf
       -0.7974066 -0.53961915 -0.8282849 -0.67210865

convs.1.bn1.running_mean f4 [32]
000000 bb 54 b3 3e b9 5a 31 40 00 8f 09 be d6 68 73 3f
       0.35025582 2.7711623 -0.13433456 0.9508184
000010 0f 70 7f 41 08 7b 4c c0 aa 65 01 c0 06 b1 96 40
       15.964858 -3.1950092 -2.02183 4.7091093
000020 48 56 ba 40 e2 dd 30 40 db 8e 2e c0 d5 74 21 c0
       5.8230324 2.7635427 -2.7274692 -2.5227559
000030 70 3b ae c0 4a 9a b5 3f bc d2 c4 c0 ad 9b 02 c1
       -5.4447556 1.418771 -6.1507244 -8.163007
000040 58 bd 85 c0 1f 8b eb c0 78 ad 1f 40 3f c2 f2 40
       -4.1793633 -7.3607326 2.4949627 7.5862117
000050 22 06 11 40 1f 2f b3 bf 50 02 e3 3f ed 49 13 3f
       2.2659993 -1.3998755 1.7735081 0.57534677
000060 e5 7c 69 c0 5e 3a fd 3f d8 90 3f bf 69 01 28 c1
       -3.648248 1.9783437 -0.7483039 -10.500344
000070 12 c0 5b c0 18 d3 fa bf cb 9e 3b c0 db 9b 3c c0
       -3.433598 -1.9595671 -2.931567 -2.9470127

convs.1.bn1.running_var f4 [32]
000000 e9 0b 65 3f c7 25 76 3f ef b1 0d 40 40 22 4d 3f
       0.894713 0.96151394 2.2139852 0.80130386
000010 37 a8 5f 3f 54 c9 ef 3f 01 bd 27 40 59 b2 f1 3f
       0.8736605 1.8733315 2.620911 1.8882552
000020 85 a5 80 3f dd cb 2e 3f 08 d7 a2 3f aa e9 b4 3f
       1.0050513 0.6827982 1.2721872 1.4133809
000030 ff 46 0a 40 30 ec 6f 3f 67 47 f5 3f a6 69 66 3f
       2.1605833 0.9371977 1.9162415 0.90004957
000040 bb 6e 02 40 2b fa c4 3f ee 7c 41 40 91 49 d0 3f
       2.0380085 1.5388845 3.02325 1.6272451
000050 e4 11 b0 3f 08 7e 89 3f 62 0f de 3f 26 52 05 40
       1.375546 1.0741587 1.7348444 2.083139
000060 cd 08 76 40 88 b4 53 3f 29 47 30 3f 18 9c ae 3f
       3.8442872 0.82697344 0.6885858 1.3641386
000070 0a a4 ff 3f ff d3 d1 3f 5b d2 fe 3f a8 51 e2 3f
       1.9971936 1.6392821 1.9907945 1.768117

convs.1.bn2.weight f4 [16]
000000 cf 1d 71 3f d3 08 b4 3f 0e 8e a1 3f 3a a3 7f 3f
       0.9418611 1.4065193 1.2621477 0.9985844
000010 ae 0c 9c 3f 1e 02 9f 3f 63 42 c2 3f a8 77 76 3f
       1.219137 1.2422521 1.517651 0.9627633
000020 9f 15 98 3f c4 99 6c 3f bb 40 ba 3f c8 f7 ba 3f
       1.1881598 0.9242213 1.4551004 1.4606867
000030 06 6c 75 3f 27 e8 a6 3f f1 08 8b 3f 03 38 84 3f
       0.95867956 1.3039597 1.0862104 1.0329593

convs.1.bn2.bias f4 [16]
000000 12 29 12 3e 42 40 0a 3e 3b ae 1f 3c 49 2d 60 bf
       0.1427348 0.13501075 0.00974613 -0.875691
000010 75 1a 08 be ba a1 86 bd a4 ec 06 3e af 45 00 3d
       -0.13291343 -0.06573816 0.13176209 0.031316455
000020 1f 64 5c 3e 48 80 3a 3d 4c dd 64 bd d1 3a b5 be
       0.21522568 0.045532495 -0.055875108 -0.35396436
000030 94 a5 bf be d4 22 78 3a a5 8d 5a 3e bb ce 03 bf
       -0.37431014 0.0009465639 0.21343096 -0.5148732

convs.1.bn2.running_mean f4 [16]
000000 ef 02 a6 40 42 3e b0 40 70 5e b7 40 50 88 68 40
       5.187858 5.5076 5.730278 3.6333199
000010 87 02 9e 40 d9 a1 99 40 24 e9 82 40 fe 79 fc 40
       4.9378085 4.801007 4.0909595 7.8898916
000020 63 ba de 40 0d e7 97 40 52 b2 c1 40 5e 21 99 40
       6.9602523 4.7469544 6.0530176 4.785323
000030 c7 67 86 40 dd 1e 81 40 46 21 12 40 e2 cd f2 3f
       4.200168 4.0350175 2.2832808 1.896908

convs.1.bn2.running_var f4 [16]
000000 e0 8c 71 41 f1 01 24 42 73 f7 88 41 27 b2 c8 40
       15.096893 41.001896 17.120825 6.271747
000010 2e fe 32 42 58 b3 fa 41 e7 73 57 41 bd bf 0f 42
       44.748222 31.33757 13.465796 35.937244
000020 74 33 8d 41 f1 0b 0a 41 ea 2d 8f 41 6b 55 1a 41
       17.650124 8.627915 17.897419 9.645854
000030 b4 cf b7 41 24 f2 66 41 3f 0e 5f 40 68 24 df 3f
       22.976418 14.434116 3.4852445 1.7432985

convs.2.fc_full.weight f4 [32, 56]
000000 0d c2 96 be 05 f1 81 be 46 4c 4d be 66 97 3c bf
       -0.29444924 -0.25379196 -0.20048627 -0.73668516
000010 63 e6 b3 3d fa 53 0e 3d f0 cf 3b be ba c8 1d bd
       0.08784177 0.034748055 -0.1834104 -0.038521506
000020 82 59 f4 bd b3 05 78 be 61 a1 71 be 18 90 c2 be
       -0.11931135 -0.24220924 -0.23596717 -0.3800056
000030 54 ce 47 bd 64 7e 04 3e 34 93 c2 3e cd 75 5a be
       -0.048780754 0.12938839 0.38002932 -0.21334
000040 1f fe f3 be c4 3a 98 be de b9 ee bd fd 15 0d bf
       -0.47654817 -0.29732335 -0.11656545 -0.55111676
000050 3a c5 b7 bd 29 03 02 3e 12 d0 11 3e e4 e6 c5 3c
       -0.08973165 0.12696518 0.14239529 0.024157949
000060 5e 13 dd 3b 75 71 54 bf a6 24 b9 be 97 1f c4 3e
       0.0067466935 -0.8298562 -0.36160773 0.3830535
000070 f4 c9 aa 3e 9a b7 9d be b9 a3 10 be 8d 9c 72 3d
       0.33357203 -0.3080414 -0.14124955 0.05923133
000080 1d f5 22 bf 89 8d 74 bf 61 24 9d bf 75 26 38 3e
       -0.63655263 -0.95528466 -1.2276727 0.1798342
000090 49 4d c9 3e ad 88 31 bf 5d 49 6d bf c6 b8 95 bf
       0.39316776 -0.69349176 -0.9269007 -1.1697013
0000a0 c8 43 9c 3e ff b8 f9 3e f9 2d 4f bf e4 28 75 bf
       0.30520463 0.48773953 -0.80929524 -0.9576552
0000b0 e9 ff 99 bf bc e3 68 3e 46 57 a7 3e 26 ed 2c 3d
       -1.2031223 0.22743124 0.32683772 0.04221835
0000c0 25 0c ac bc 86 f5 7f 3d e5 0d 9a bd 4b 18 96 bf
       -0.021001885 0.06249001 -0.075221814 -1.1726164
0000d0 e1 79 8a bf 41 4a a5 be b0 a6 e7 be 94 4f 23 bf
       -1.0818444 -0.32283214 -0.4524436 -0.637933
0000e0 0f a8 f8 bd 40 a4 00 3e c6 83 05 3e 6a e0 4d be
       -0.1214143 0.12562656 0.13038549 -0.20105138
0000f0 d1 8c 22 3e 57 17 1a bf b5 ab de bd 10 28 25 be
       0.1587403 -0.60191864 -0.10872594 -0.16128564
000100 cd 11 93 bd ff ab 79 bd 1c 2e c2 bb d7 08 8f be
       -0.071811296 -0.060955044 -0.005925907 -0.27936432
000110 ec a2 5b bf f0 d0 1d be 49 06 c6 3e f2 9e a0 3e
       -0.85795474 -0.15411735 0.3867667 0.31371266
000120 0c 60 ce be c4 4e ba be b0 90 9a be 56 87 10 3c
       -0.40307653 -0.36388218 -0.30188513 0.008821329
000130 53 dc db be 4d 76 47 bf 81 a5 ed bd e2 08 70 be
       -0.42941532 -0.7791489 -0.11603833 -0.23440889
000140 66 7d b4 3d ad 4b 8d bd af 8f 3c bc 7b d0 a8 3e
       0.0881298 -0.068992 -0.011508866 0.32971558
000150 7a ec 12 3e 86 18 9c 3e 5a 6f d8 be f8 5d b1 3d
       0.14348021 0.3048746 -0.42272455 0.08660501
000160 b7 63 4f 3d 7d dc 12 3e 7f 40 9d 3d 44 ab ce bc
       0.050632205 0.14341922 0.07678317 -0.02522815
000170 80 69 95 be 37 e0 9a 3d b8 35 72 3e 1b 12 c7 3d
       -0.29182053 0.07562297 0.23653305 0.0972025
000180 b2 ff 12 be 1f 9f 8e be 0d d4 8f 3d 6a ab 18 3e
       -0.14355353 -0.27855775 0.07022867 0.1490914
000190 55 77 4c bd 5d d6 81 be 80 02 58 be d5 c7 90 be
       -0.04991849 -0.2535886 -0.21094704 -0.2827746
0001a0 e2 6d 87 be a1 31 b3 3d 76 10 c5 3e 8d 36 31 bc
       -0.2645102 0.087497 0.3848912 -0.010816229
0001b0 aa 41 99 3d 93 8f 34 3f 6f d6 0c 3f 1b 41 ab 3e
       0.074832276 0.70531577 0.550147 0.3344811
0001c0 f1 f7 84 3e cb 15 e2 bd aa e9 bd 3d fb 29 97 bd
       0.25970414 -0.11039313 0.092730835 -0.07381054
0001d0 c0 44 d8 be 3b d1 02 3f a3 eb 4e 3d 16 b9 f2 3e
       -0.42239952 0.5110051 0.05051769 0.47406834
0001e0 7a 0d 89 3e 7d 8f a1 3e 2d a7 8d be a6 3e 4f be
       0.26768094 0.31554785 -0.27666607 -0.20238742
0001f0 c1 cc 2e 3e a0 ec 8e be 35 2a 73 bd 52 12 ea bc
       0.17070295 -0.27914906 -0.059366424 -0.028573189
000200 8f ce 3b 3e f9 80 06 3f 3b 2a 69 bd 41 3c 35 be
       0.18340515 0.52540547 -0.05692504 -0.17698766
000210 16 32 18 be 9d f3 1d 3f ea 35 5e 3e 4a e5 73 3e
       -0.14862856 0.6169985 0.21700254 0.23817936
000220 7c c0 0b bd f3 41 91 3d 8e b6 41 3e 4e 4f 9c bd
       -0.034119114 0.07092657 0.18917295 -0.07632314
000230 9d 98 1f 3f 52 86 0e 3f 9e 5c b6 be 5e 8b 15 be
       0.62342244 0.55673707 -0.35617536 -0.14603946
000240 bd 1c 70 bc c2 ac 7a be c9 9f 8d be fc 01 f8 3c
       -0.014655289 -0.24479964 -0.2766097 0.030274384
000250 b0 f8 c5 bd 11 7d 00 3d b7 d8 4b bd 98 43 c5 be
       -0.09666574 0.031369273 -0.049767222 -0.38528132
000260 73 b1 36 bd 22 9c 33 3d ed 8d 4e bd 58 ad 0a be
       -0.044602823 0.04385007 -0.05042832 -0.13542688
000270 16 59 e6 be af 47 55 3d a6 62 51 3d ca 1d 0d be
       -0.44989842 0.052070316 0.05111947 -0.13780895
000280 91 a9 1c be 4e a6 ad bd 8c d0 4b 3d 53 45 c8 3e
       -0.1529906 -0.08478986 0.049759433 0.3911539
000290 78 98 78 bb 1d 31 f2 be 42 07 b0 be 37 22 2e be
       -0.0037932675 -0.47303095 -0.34380537 -0.1700524
0002a0 f6 c5 06 3d 2b 51 f0 3d 26 3d bc 3e 14 99 21 bd
       0.032903634 0.117342316 0.36765403 -0.039452627
0002b0 58 56 f7 3d 87 a9 7e bd a2 b3 f7 3e bd c6 b9 3d
       0.12077016 -0.062173393 0.48379236 0.090711094
0002c0 5d 13 34 be f2 fb 68 be fa 1d ae bd d6 a1 89 3d
       -0.17585512 -0.2275236 -0.08501811 0.06720321
0002d0 51 35 df bd bc 12 56 be f1 b4 a2 3d 5f 7d 60 be
       -0.10898841 -0.20905584 0.07944668 -0.21922825
0002e0 ac b5 d7 3d 1d 48 a5 3e 6a 6b 5a 3b 88 fe 20 3f
       0.10532698 0.3228158 0.0033328184 0.62888384
0002f0 f9 12 d1 3d cb 41 92 3e 9e 5c 9f be 22 be aa 3e
       0.10208697 0.2856582 -0.3112535 0.33348185
000300 04 b2 c0 3c 5e fe bc be e9 b4 a3 3d f7 e9 a0 be
       0.023522384 -0.36912817 0.0799349 -0.314285
000310 3b 21 96 3e 70 b4 23 be 2f ea 43 3f b0 2c a6 be
       0.29322228 -0.159868 0.7652921 -0.3245597
000320 d0 a3 d9 bd 09 3a 94 bd 7a 38 71 bf 53 2e c0 be
       -0.10626948 -0.07237632 -0.942268 -0.37535343
000330 2d 6e 61 bd 77 15 11 bd ee f8 2c bd cb bb 65 bf
       -0.055036712 -0.03542086 -0.042229585 -0.89739674
000340 bc 8b 86 be 8b 53 96 be 6f eb 89 3b 19 a9 18 3d
       -0.26278484 -0.29360613 0.004208974 0.03727064
000350 b3 9d 66 bf 78 ed 98 be 6b 18 1e be 75 42 43 3e
       -0.9008438 -0.29868674 -0.15439002 0.1906832
000360 05 69 e0 3d ab be eb bd 68 d6 26 be b3 15 6d bf
       0.10957531 -0.115109764 -0.16292727 -0.92611235
000370 4b f3 48 bf ef f6 a6 3e d9 de 9d 3e 79 f7 c7 3d
       -0.78496236 0.3261027 0.30834082 0.097639985
000380 86 ae 9b 3e 15 f4 07 be 0f 6e 16 be 1d a8 48 3d
       0.30406588 -0.13276704 -0.14690422 0.04898845
000390 a8 4b be bd 58 39 e1 3d 01 55 aa 3e 49 e3 82 3d
       -0.09291774 0.109972656 0.33267978 0.063910075
0003a0 21 19 3a 3e d5 21 c9 be 9d 87 33 be 5c 43 e3 bd
       0.18173648 -0.39283624 -0.17532201 -0.11096832
0003b0 64 a3 a4 bb ee 52 09 be a4 08 19 3f 48 c0 63 bd
       -0.0050243605 -0.13410541 0.5977881 -0.055603296
0003c0 f9 eb 79 be 19 6f 95 be f8 3c 75 be b0 43 19 3e
       -0.24406423 -0.29186323 -0.23949039 0.14967227
0003d0 ac df 25 bf dd 91 20 3d 4e 67 f0 bd 8a 21 56 bd
       -0.6479442 0.039201606 -0.11738454 -0.05227808
0003e0 6f 83 22 be b6 f8 46 bc 3e 5d 45 3d 8c b9 16 bd
       -0.1587045 -0.012144258 0.048184626 -0.036798045
0003f0 02 be 54 3e 90 d1 1a be a4 99 94 3e 68 20 07 3e
       0.20775607 -0.15119004 0.29023468 0.13195956

convs.2.fc_full.bias f4 [32]
000000 8f c4 9c 3d bc ef c9 3d f5 80 13 3d a5 a4 76 bd
       0.07654678 0.09860179 0.036011655 -0.06021561
000010 f2 55 f5 3d a5 2c df 3c 7d a6 03 3d de 5f a9 3d
       0.119792834 0.027242968 0.032141197 0.08270238
000020 2d e5 52 bc 81 bd 44 bd bd 7f 86 bd 05 7f 0f 3b
       -0.012872023 -0.048032288 -0.06567333 0.0021895778
000030 ee dd a8 3d 7b 1c ec bd ca 6b e3 bc df 41 a7 3d
       0.08245455 -0.1152887 -0.027761359 0.08166861
000040 d5 e6 62 be fd 52 28 be 76 80 3b 3d 84 b2 00 3e
       -0.22158368 -0.16437908 0.045776807 0.12568098
000050 4c 28 10 be fb fa 17 be 1e 32 05 be 0e ee 18 bc
       -0.14077872 -0.14841835 -0.130074 -0.0093341
000060 2d 9d d8 bc 14 ca 36 be 65 45 8d bb e0 f4 01 bd
       -0.026442135 -0.17850524 -0.004311251 -0.03172767
000070 37 4d 5d 3c 49 5b 81 bd 67 23 3d bc 38 ac 8f 3e
       0.013507179 -0.063162394 -0.011544085 0.2806108

convs.2.bn1.weight f4 [32]
000000 38 d3 5b 40 2f 9b d0 3f 36 04 ae 3f 5e cf 48 40
       3.4347668 1.6297358 1.3595035 3.1376567
000010 96 3e d1 3f 81 a7 0c 40 86 95 24 40 a2 00 28 40
       1.6347225 2.1977236 2.5716262 2.6250386
000020 90 18 de 3f e4 6f 43 40 b6 0e e3 3f 3c e5 17 40
       1.7351246 3.0537043 1.7738864 2.3733664
000030 27 f4 07 40 df 65 f8 3f 79 ce 00 40 fd 7e 5c 40
       2.1242769 1.9406089 2.012602 3.4452507
000040 18 f6 f9 3f 12 c5 81 3f 0b 12 8e 3f 05 df f9 3f
       1.9528227 1.0138266 1.1099256 1.9521185
000050 77 64 01 40 ec 84 c4 3f fb 22 94 3f 66 78 8c 3f
       2.021757 1.5353065 1.1573175 1.0974243
000060 b9 5e ae 3f 8d 49 97 3f a2 90 a7 3f 20 b2 08 40
       1.3622657 1.1819321 1.3091013 2.135872
000070 d3 7c a6 3f 19 9b 99 3f 1b 2a 98 3f 4f 67 d6 3f
       1.3006843 1.2000457 1.188785 1.6750277

convs.2.bn1.bias f4 [32]
000000 a9 5d c4 3c 32 45 9b 3e ff b0 05 3d bc 42 ea be
       0.023970442 0.3032623 0.0326395 -0.4575404
000010 9c d6 08 bf 5b 90 0b bf 46 94 2a 3f 5b 5f a1 3e
       -0.5345247 -0.54517144 0.666325 0.31518063
000020 b7 86 cc be 21 7e e6 bd 6e 0d 55 be 2d cf c7 be
       -0.3994653 -0.11254526 -0.20805904 -0.3902525
000030 02 de 06 bf 5c 14 17 bf ad 91 b2 3d fe 57 01 bf
       -0.5268251 -0.5901544 0.08719192 -0.5052489
000040 ba be 03 bf be 89 29 be ce 2e 95 3d 16 4b f4 be
       -0.514629 -0.1655645 0.07284318 -0.47713536
000050 2e 4a f5 be 53 ae 59 bf f6 57 3c 3d c1 df 3f bd
       -0.47908157 -0.8503162 0.045982324 -0.046844248
000060 50 46 b4 be 33 64 1d be 01 04 ca be 3a d3 39 bf
       -0.35209894 -0.15370254 -0.3945618 -0.7258793
000070 6d e6 44 bf 60 7b bd be bb ee f2 be 6d 2b 04 bf
       -0.769141 -0.3700819 -0.47447762 -0.5162876

convs.2.bn1.running_mean f4 [32]
000000 d4 e4 42 c1 88 39 a9 c0 6b 1f 38 40 d2 b3 e3 bf
       -12.180866 -5.288273 2.8769176 -1.7789252
000010 62 80 ab bf 42 d5 73 bf e1 2d 68 40 54 21 76 c0
       -1.3398554 -0.9524728 3.6278002 -3.8457842
000020 3f 93 d4 c0 72 8b 44 c0 bf 84 cd c0 b1 7a 40 c0
       -6.6429744 -3.071011 -6.4224544 -3.0074885
000030 ab 7a c0 40 43 2c 35 40 33 f5 c5 bf d5 00 b5 40
       6.014974 2.8308265 -1.5465454 5.6563516
000040 f6 8f 47 c0 52 a0 aa bf f6 2f 03 c1 e0 31 3c c1
       -3.1181617 -1.3330176 -8.199209 -11.7621765
000050 53 63 15 c0 a3 ca fa c0 5f 73 c7 3f 7d f4 ef bd
       -2.3341873 -7.837236 1.5582083 -0.11716554
000060 42 4d 3b c0 19 8b 3b c0 65 76 7b 40 f7 ea d7 c0
       -2.9265904 -2.9303648 3.9291012 -6.747432
000070 6e 3e b2 3e 29 f6 3a 3f 3c 93 7a c0 de b9 db 40
       0.34813255 0.7303186 -3.9152365 6.866439

convs.2.bn1.running_var f4 [32]
000000 8e 16 61 40 ab 9b 57 40 e2 d8 74 40 f0 a8 be 3f
       3.5170016 3.3688762 3.8257375 1.4895306
000010 08 11 30 40 79 f5 02 40 e3 e0 c2 3f 94 4f 33 40
       2.7510395 2.0462325 1.522488 2.801732
000020 af 88 e7 3f 6b d6 c5 3f be 96 0f 40 dc c6 ec 40
       1.8088588 1.545606 2.2435756 7.399275
000030 89 32 85 3f e6 43 92 40 50 cd c3 40 d9 1e 20 40
       1.0406047 4.5707884 6.1188126 2.5018828
000040 ab f5 28 40 51 01 92 40 28 19 96 40 12 4f 25 40
       2.6399944 4.5626607 4.690571 2.582951
000050 f7 0a 8f 40 ea 2e 1a 40 44 41 ae 40 a2 39 dd 3f
       4.4700885 2.4091134 5.445467 1.7283213
000060 56 b2 a6 40 59 17 be 3f 5f 44 32 40 56 e3 82 40
       5.2092695 1.4850875 2.785423 4.090251
000070 7f 44 f6 3f c6 b8 30 40 b0 c8 32 40 9a 3f 93 3f
       1.9239653 2.7612777 2.793499 1.1503785

convs.2.bn2.weight f4 [16]
000000 fa 3f bc 3f 82 55 d7 3f 3a c3 b1 3f e3 96 9e 3f
       1.4707024 1.682297 1.3887703 1.2389797
000010 bd 74 cb 3f 06 f5 9e 3f b5 00 ea 3f 92 8b 94 3f
       1.5895001 1.2418525 1.8281466 1.1605093
000020 87 e8 93 3f c6 20 85 3f b4 35 d3 3f d5 b0 80 3f
       1.1555337 1.0400627 1.6500764 1.0053965
000030 0a 21 98 3f 71 58 a4 3f ee 06 c1 3f dc 5f 8f 3f
       1.1885083 1.283949 1.508024 1.1201129

convs.2.bn2.bias f4 [16]
000000 f3 95 a3 3d 77 f5 d1 3d 03 5c 24 3d 00 5c 7f bf
       0.07987585 0.10251897 0.04012681 -0.99749756
000010 5b fc e3 3c 4f 3f 3f bd 9c 8b e8 3d 8e b7 53 be
       0.027830293 -0.046691235 0.113547534 -0.2067549
000020 29 30 0f 3c 9b b3 c7 be 9f 6b 97 bc 31 1a 0e bd
       0.00873951 -0.39004216 -0.018483935 -0.034692947
000030 d2 83 2f bf 98 99 ff 3b 7a 6d 8e bd f7 34 60 be
       -0.68560517 0.007800292 -0.06954475 -0.21895204

convs.2.bn2.running_mean f4 [16]
000000 5b 07 df 40 0a 8c bb 40 8d 82 ad 40 9f 40 6e 40
       6.969648 5.8608446 5.4221864 3.7226942
000010 56 bd 89 40 b4 30 00 40 83 c9 c8 40 90 de 9d 40
       4.3043623 2.0029726 6.2745986 4.9334183
000020 65 b2 8c 40 08 bb 8d 40 32 3e 6d 40 5d ae 21 40
       4.3967767 4.429081 3.706921 2.5262673
000030 01 c6 11 40 3f 52 5e 40 2a e8 4d 40 cf 25 80 40
       2.2777102 3.47377 3.2172952 4.0046153

convs.2.bn2.running_var f4 [16]
000000 48 e0 7d 42 f6 fc 6f 41 52 34 61 41 57 46 72 41
       63.469025 14.999258 14.0752735 15.142173
000010 5b cd 17 41 fb 46 99 40 48 09 c1 41 4b 91 55 41
       9.487636 4.7899146 24.129532 13.347972
000020 6e 63 34 41 d3 53 a8 41 32 a1 28 41 2f a9 db 40
       11.274275 21.04093 10.539354 6.8644023
000030 1d 41 94 40 89 2b 10 41 40 56 9b 40 d8 79 42 41
       4.6329484 9.010629 4.8542786 12.154747
