cgcnndefect/bandgappretrained/checkpoint.pth.tar (torch, 178655 bytes, 109 tensors)

embedding.weight f4 [16, 92]
000000 32 59 19 bd 68 c7 7f bd bc 9b f2 bc f3 9a 26 be
       -0.03743858 -0.062446028 -0.029615276 -0.16270046
000010 4b c2 d4 bd dc 1d b1 bd 64 7b 2f 3e af 60 2f 3e
       -0.10388621 -0.08648273 0.17136914 0.17126726
000020 31 f3 16 bc 4a 1f b7 3d 6d 1f 1e bb d0 37 24 bd
       -0.009213255 0.08941515 -0.0024127618 -0.04009229
000030 aa 15 e2 3c ce a4 a6 bd 2a fe 20 be ed 36 93 3d
       0.02759822 -0.08136903 -0.15721956 0.07188211
000040 c5 04 15 bd 47 71 b0 3c c1 b9 9c bd 9e a1 b3 3d
       -0.0363815 0.02153839 -0.07652617 0.087710604
000050 75 0d b2 bc 4c 46 89 3d 9b 29 85 bd 11 ac c9 bd
       -0.021734932 0.06702861 -0.06502076 -0.09847272
000060 e6 a4 1e 3e f3 d4 64 3d 33 f0 2a 3d f6 04 d0 bc
       0.15492591 0.055867147 0.041732978 -0.02539299
000070 d4 72 3d 3b dc c6 38 3e a0 d6 21 be 10 0d 1a be
       0.0028907554 0.18044609 -0.15804529 -0.15044045
000080 ef 1b 22 bd aa dd cd bd 02 76 d7 bc 04 65 8c bd
       -0.03957742 -0.10052045 -0.026301388 -0.06855205
000090 5f 9e 4e 3d 31 5b 82 bd 35 9b c9 3b b9 56 bc bd
       0.050444003 -0.0636505 0.0061525353 -0.091962285
0000a0 8f fa 9e 3c c8 80 2f bd 7f 20 b0 bd 79 da 9e 3d
       0.019406585 -0.042847425 -0.08599948 0.07756514
0000b0 23 a5 93 3c 28 da 21 bd df 51 99 3c ad c2 e7 3d
       0.01802308 -0.03951469 0.018715797 0.11316428
0000c0 d0 75 07 be eb 6b 3c bd bc 18 f6 ba 02 aa 1f 3d
       -0.13228536 -0.046001356 -0.0018775682 0.03898049
0000d0 77 96 e7 3d a0 3f d5 3c c6 2b c0 bd 63 39 19 3d
       0.11307996 0.026031315 -0.09383349 0.037408244
0000e0 1b 07 9a 3d d2 f1 ac bd cc ba 93 bc 8d 75 7c 3d
       0.075208865 -0.08444561 -0.018033408 0.061635543
0000f0 08 8e 82 bd 66 75 3b 3d 65 ca ca bd 45 ed 0b bc
       -0.063747466 0.045766257 -0.09901885 -0.008540456
000100 31 2c 33 bd 68 b4 ad bd 67 e7 fa bc ab ad a9 3d
       -0.043743316 -0.084816754 -0.03062792 0.08285078
000110 40 0b 0d be d7 51 ce bd f2 13 6f bd 28 ed 83 bc
       -0.13773823 -0.100742035 -0.05836863 -0.016104296
000120 21 5f c8 3d ca 98 ce bc e9 1c ff bd a9 0f c3 bd
       0.097837694 -0.02521934 -0.12456686 -0.09524471
000130 59 0c 65 bd c6 1f 29 3c 06 31 05 3e c9 22 24 bd
       -0.05591998 0.010322517 0.13006982 -0.040072236
000140 11 1c d4 bd e9 6c 4e bd cd 76 74 3d 97 a2 01 be
       -0.10356916 -0.050396834 0.05968361 -0.1265968
000150 f8 3b 16 be 8b 76 e8 bd e0 10 ae bd 2b 08 57 bd
       -0.14671314 -0.11350735 -0.084993124 -0.052498024
000160 9a 4a 47 3e b9 20 a7 3c a5 d0 9b bc bc 12 a5 3d
       0.19462052 0.020401346 -0.019020388 0.08060214
000170 1c 52 1c bc a4 8c 73 3d 98 e9 19 bd f5 69 78 3d
       -0.009541061 0.059460297 -0.037576288 0.060647923
000180 05 7a 48 3c ca 4c b3 3d 89 bb 4b bc 55 1b 34 3e
       0.012236123 0.08754881 -0.012434849 0.17588551
000190 f6 f2 a4 bd c4 b3 3e bd 4d 21 97 3d c0 85 30 3c
       -0.080541536 -0.046558157 0.073793985 0.010774076
0001a0 19 41 f9 3c aa c4 96 3d cb 80 9a bd f8 69 2d 3e
       0.030426549 0.073617294 -0.075440966 0.16934955
0001b0 36 ba 9d bc 50 6a 7f 3d b5 e7 e9 3c 24 58 01 bc
       -0.019253831 0.062357247 0.02855287 -0.0078945495
0001c0 be 4c 71 bc 32 38 9d 3d 48 86 a6 3d 9c 17 19 bd
       -0.014727769 0.07676734 0.08131081 -0.03737603
0001d0 71 05 0a be 08 3b e1 3c aa 91 a5 bd 14 25 56 3d
       -0.13478638 0.027493969 -0.08084424 0.052281454
0001e0 c2 09 99 bd 9a 7c 5d 3d 12 f5 a7 3c d9 a3 05 3d
       -0.07472564 0.054073907 0.0205026 0.03262696
0001f0 90 96 2c 3d 5a 44 a8 3d aa 1c a8 bd 2c 88 c9 3c
       0.042135775 0.08216162 -0.08208592 0.024601065
000200 13 6a 9d bd ba 74 c4 bd 26 52 df bd 33 05 9a 3c
       -0.07686248 -0.09592576 -0.109043404 0.018801307
000210 82 a8 a0 3d 32 24 8d bc db 0a 14 3d a2 7f 82 3d
       0.0784464 -0.017229173 0.036143165 0.06372
000220 78 05 1f bd bc 0f 10 3d e4 6a 60 bd d4 9f cf 3d
       -0.038823575 0.035171255 -0.05478944 0.10137907
000230 d2 d7 bb 3d 6e 71 fc bd 90 09 0a 3e 55 47 63 3d
       0.09172024 -0.123263225 0.1348021 0.05548795
000240 5c 09 08 3d c4 8c 81 bd 03 06 95 3d dd d8 03 be
       0.03321205 -0.06325677 0.07276537 -0.12875696
000250 c0 be 82 bd c8 c2 37 bd 65 47 73 3d 7b a3 7e bd
       -0.06384039 -0.044863492 0.05939426 -0.062167626
000260 3f e2 b1 bd 70 1f 6c 3d 45 51 7f 3d c2 9e ce 39
       -0.08685731 0.05764717 0.062333364 0.00039409666
000270 32 ee d9 bd 89 95 93 bd 4e d5 9c bd a2 63 63 bd
       -0.10641135 -0.07206256 -0.07657872 -0.05551494
000280 7e 15 2c bc f4 fb 8f bc 1e f5 cc 3d 0d 27 05 bc
       -0.010503171 -0.017576195 0.1000769 -0.008126986
000290 84 67 0a bd c2 e3 89 bd f8 df 2c bd 24 18 34 bd
       -0.033790126 -0.067328945 -0.04220578 -0.043968335
0002a0 4c c1 dd 3c a2 04 05 3d 43 91 d0 3b 5e 33 dc 3c
       0.02706971 0.03247512 0.006364973 0.026879963
0002b0 ab 7f 5c bd 44 6d 59 bd 54 89 ec bd bb c3 7d 3d
       -0.05383269 -0.05308272 -0.11549631 0.06195424
0002c0 9d 4c 92 3a 01 19 2d 3d 56 e3 64 3d b2 5e c5 bc
       0.0011161749 0.042260174 0.055880867 -0.024093006
0002d0 00 0a 1c be cd 3d c3 bd 0b ce 89 bd d0 c6 d1 3d
       -0.1523819 -0.09533272 -0.06728753 0.102429986
0002e0 f8 9b c4 bd d9 ee a7 3d cd 0b 27 3c 2f 37 5b 3d
       -0.09600061 0.081998535 0.010195685 0.053519424
0002f0 d1 1b c3 bc 52 f9 af bd cc 0d 5c bd c7 7a ee 3d
       -0.023816975 -0.08592476 -0.053724095 0.11644512
000300 d4 36 4d 3d 72 d0 ab bb a8 00 90 3e 30 3c 64 3d
       0.050101116 -0.0052433545 0.281255 0.05572146
000310 49 4c 98 bd 4a 4d 83 bc 3d 70 1a bd fc 4e 3a 3e
       -0.07436425 -0.016028065 -0.037704695 0.18194193
000320 a6 e5 e7 3d 49 c0 b6 3d 92 03 0f bd dc c0 0a 3d
       0.11323099 0.08923394 -0.034915514 0.03387533
000330 a9 e7 d4 3d 91 ee 8b bd 18 cc 06 be 7f 7c f6 bb
       0.10395748 -0.06832612 -0.13163793 -0.0075221653
000340 bc a3 0a 3e 56 55 4a 3d ff ea ab 3d 0b 6e 6d bd
       0.13539022 0.04939779 0.08394431 -0.057966273
000350 d1 6e 69 3d 01 0c 50 3d 1d cc 86 3c 7b e7 e2 bd
       0.05699045 0.050792698 0.01645475 -0.11079308
000360 f4 54 c8 bd 47 92 b4 bd 6a f2 b8 bd 4b 48 f6 bc
       -0.097818285 -0.08816963 -0.09030612 -0.030063769
000370 0f f5 9e 3d ee 42 76 3c bd b6 84 3c 00 26 78 bd
       0.07761585 0.015030606 0.016200418 -0.060583115
000380 a5 d6 70 3d 57 5f 54 bd 10 34 51 bd 94 6a fe 3c
       0.05879845 -0.051848736 -0.05107504 0.03105668
000390 00 1d fe 3c df e8 2e bd ff 9f c8 bd 54 bb 74 bd
       0.031019688 -0.042702552 -0.09796142 -0.059748963
0003a0 e6 f9 2b 3d 8b 37 11 3d e4 27 7c bd 88 70 b6 bd
       0.04198637 0.03545336 -0.06156148 -0.089081824
0003b0 50 0a 1d 3d 9e c0 79 3c 1f 8c 7c 3d 24 d3 71 3b
       0.038339913 0.015243677 0.061657067 0.0036899531
0003c0 4a 8d 0d 3e 34 fd 8d 3b 3f bb 88 bc 4f 7c 28 3d
       0.13823429 0.0043331627 -0.016690848 0.041134175
0003d0 01 03 d6 bd 67 af 9e 3d ea 5f 61 3b 70 6c 35 3e
       -0.10449792 0.07748299 0.0034389445 0.17717147
0003e0 c2 68 a0 3d dc 0e 63 3d ad b9 ae bc ad 11 7a bc
       0.07832481 0.055434093 -0.021328771 -0.015263003
0003f0 80 b7 7c bd 6d bd a7 3d 35 3b cc bd 8a 16 f7 3c
       -0.061698437 0.08190427 -0.0997223 0.030162115

embedding.bias f4 [16]
000000 83 f5 5f bd e9 f4 d8 bc 95 95 b9 3d 35 86 93 bc
       -0.054677498 -0.02648397 0.09061734 -0.01800833
000010 a2 46 98 bd 2b b7 28 be a9 6c 22 bd 1b 16 5e 3d
       -0.07435347 -0.16476123 -0.039654408 0.0542203
000020 ea d6 13 bd 5b 08 83 bd 2c 9e 97 bc 13 e2 52 bd
       -0.03609363 -0.06398078 -0.01850804 -0.051485132
000030 85 8f 1a 3d b4 2e cc bc d5 68 f9 bd 74 cd 78 bd
       0.037734527 -0.024924614 -0.12178198 -0.06074281

convs.0.fc_full.weight f4 [32, 56]
000000 cd 5e e3 bd 5d 11 dc bd c8 2c cc 3d 03 f4 00 bd
       -0.11102066 -0.10745499 0.09969479 -0.031482708
000010 b7 44 00 3d 6f 0f d1 3d 0d 66 d4 bd 2f 19 aa 3d
       0.03131553 0.10208022 -0.10371027 0.08305585
000020 8f 30 83 3d 60 83 a3 bd 5f 86 8b bd 2e 9e 25 bd
       0.06405746 -0.07984042 -0.068127386 -0.040434055
000030 31 65 ee bd 98 88 fc 3c 72 c2 74 3b f2 6d 45 bd
       -0.116403945 0.030826852 0.0037347344 -0.048200555
000040 f6 db 2a 3e 73 cf 2d 3c 24 0e de 3d 37 c4 c8 bd
       0.16685471 0.010608542 0.10842541 -0.0980305
000050 14 39 e5 bd 22 14 b3 3d 58 1c c4 bb 34 1c 0e 3d
       -0.111925274 0.087440744 -0.005984824 0.034694865
000060 2c fc 6b bc df 12 84 bd 60 c5 1c 3e 6a 63 48 3d
       -0.014403384 -0.06448912 0.15309668 0.048922934
000070 2f e4 86 bd 19 89 cd bd b3 7b 2e bc 11 a6 bc bd
       -0.06586491 -0.10035915 -0.010649609 -0.09211362
000080 5a 18 57 3e eb 6a 3e 3e ed 3d cd 3b a2 1a 3f be
       0.21005383 0.18595473 0.0062634856 -0.18662503
000090 7c 4e 2a be 78 4a 13 3c 14 af 46 bd 04 89 e4 bd
       -0.16631502 0.008989923 -0.04850681 -0.11158946
0000a0 39 a8 fa bd fc 42 2e be fa 5e 02 3e 23 c0 96 3d
       -0.12239117 -0.1701774 0.12731543 0.07360866
0000b0 24 e3 57 be 8d 5c 81 bd 8b a8 81 bd bd c7 48 3c
       -0.21082741 -0.06316481 -0.06330975 0.012254653
0000c0 43 3d b7 bd 61 6e 8d bc 94 80 27 be ac b3 c5 3d
       -0.089472316 -0.017264547 -0.16357642 0.0965341
0000d0 6a a8 78 bd 24 df 87 be 8c ae 58 bd 5e f6 70 3d
       -0.060707487 -0.2653743 -0.052900836 0.058828704
0000e0 12 d5 b6 3d 18 d0 96 bc e2 69 29 3c 3e e6 31 bd
       0.08927359 -0.018409774 0.010340186 -0.043432467
0000f0 15 53 da bc a9 8c 10 3e a2 08 8b 3d d1 78 76 bd
       -0.026650945 0.14116158 0.06788756 -0.060173813
000100 de 9d 6f bd db 1a 80 3c 25 9b c9 bd be cb 8d 3d
       -0.058500163 0.015637806 -0.098440446 0.06923626
000110 2f c5 9f 3d c6 66 0f 3e 52 59 87 bc c9 6f 80 bd
       0.07801282 0.14004049 -0.016522083 -0.06271321
000120 ca 49 12 be c1 6c 80 be 06 a2 03 bd 50 65 1a 3a
       -0.14285961 -0.25082973 -0.03213694 0.00058897305
000130 61 9a 83 bc c8 da 30 3b 40 49 96 3d 1f a1 11 3e
       -0.016064825 0.0026985873 0.0733819 0.14221619
000140 30 87 c2 3d e7 09 e6 3d 11 35 32 3d 46 c4 09 bc
       0.09498441 0.112323575 0.04350764 -0.008408612
000150 ca a2 a6 bc 03 27 42 3c 77 ad 48 3e 41 2d fc 3d
       -0.020341296 0.011850121 0.19597422 0.12313319
000160 d7 c6 e5 bd 29 56 d7 bd 20 89 b7 bd ed 65 21 bd
       -0.11219566 -0.105144806 -0.089617014 -0.039403845
000170 37 e2 89 bd e3 3f 31 bc af 0c 4e bd 0c 98 15 be
       -0.067326 -0.010818454 -0.050305065 -0.14608783
000180 4d ad 52 3c 1c 33 25 bd ee ca 28 3d d2 3f 36 bd
       0.012858701 -0.040331945 0.041209154 -0.044494458
000190 63 90 4a bd 50 55 be 3c 87 db 36 3b e0 20 8a 3d
       -0.049454104 0.02323404 0.0027901845 0.06744552
0001a0 c3 84 14 3e 3d 39 2c bd 61 5d 2a bd 2e 64 2f 3d
       0.1450377 -0.042046774 -0.04159296 0.04282015
0001b0 ef 51 0a 3e ad d5 c1 3d 84 b9 a9 bd 9a a9 13 bd
       0.13507818 0.094645835 -0.082873374 -0.036050417
0001c0 e2 94 4e bd 11 a5 5d 3d b5 d7 70 bd da e2 d5 3d
       -0.050434954 0.054112498 -0.058799464 0.10443659
0001d0 53 ec bb 3b a2 4f b4 bd d2 74 18 3d a6 9a 8a bd
       0.005734959 -0.08804251 0.037220784 -0.06767778
0001e0 d9 01 10 3e f4 2e f3 3c aa 9e 39 3d a8 99 4c bd
       0.14063205 0.029685475 0.04531733 -0.049951226
0001f0 ca a2 35 bd 16 32 c0 3d 97 43 2c bd 80 3e e5 bb
       -0.0443447 0.09384553 -0.042056646 -0.006995976
000200 d3 d2 25 3b 42 d1 04 3e 31 2a cf bd b3 8c 44 bd
       0.0025302663 0.1297045 -0.10115469 -0.047985744
000210 bf c8 0a be d0 e6 8f bc 83 e1 21 bc 40 57 0c 3e
       -0.13553141 -0.017566115 -0.009880426 0.13705158
000220 70 6a b0 3d 7d b6 ae bd 88 e1 1a be 6b 4e 83 bd
       0.08614051 -0.085309006 -0.15125096 -0.064114414
000230 8c e5 39 bd 57 52 37 be 54 9a 0b be fc 93 9b 3c
       -0.04538493 -0.17902504 -0.1363309 0.018991463
000240 04 a8 68 bc 83 c1 fc 3c a9 ee 0c be 24 68 d1 bd
       -0.014200214 0.030853992 -0.13762917 -0.102249414
000250 9f e4 49 3d 10 d3 b9 bd b7 40 09 be a2 14 bc 3d
       0.049290296 -0.0907346 -0.13403593 0.09183623
000260 c4 7c 64 bd 67 d0 85 3d 25 b9 ad 3d 5d 64 01 bc
       -0.05578305 0.0653389 0.08482579 -0.007897464
000270 5f db ac 3d 7e 46 6d bd 9d 60 6a bd f4 d4 4c 3d
       0.08440279 -0.057928555 -0.057221044 0.050007775
000280 61 52 87 bd c5 ef a6 3c d8 a7 0a be b1 5b 1a bb
       -0.066075094 0.020378003 -0.1354059 -0.0023553187
000290 17 59 eb 3d a9 4d 93 bd 9f 85 2a 3e 00 9c d9 3d
       0.11491602 -0.07192547 0.16652535 0.10625458
0002a0 a9 37 0f 3d ff 70 03 bd 8e 9c 30 bd f7 ea cb 3d
       0.03496519 -0.032090183 -0.043118052 0.09956925
0002b0 96 ab bc bd d8 6a 4f 3b 7b f8 6c bc 54 90 22 bd
       -0.09212415 0.0031649377 -0.014463539 -0.039688423
0002c0 83 81 0f bd d9 27 02 3d 69 2d b1 3d 1f fe 07 bb
       -0.03503562 0.031776283 0.086512394 -0.0020750833
0002d0 64 26 d4 bd e4 7e dd bd 61 39 dd 3d a2 75 0e be
       -0.10358885 -0.10815218 0.1080196 -0.13912061
0002e0 c4 a4 ea 3d 46 41 1f 3d 9f 0c 3c 3b 3f 11 94 3d
       0.11457208 0.03888061 0.0028694046 0.07229852
0002f0 00 54 f9 3d f2 56 87 3c 57 2d 8a bd 83 00 57 3d
       0.12174225 0.016520951 -0.06746929 0.052490722
000300 05 c7 df bd f3 78 10 3e 4d 02 a8 3d cd e0 b9 3d
       -0.10926632 0.14108638 0.08203564 0.090760805
000310 c4 19 e0 bc c5 c8 f1 3d 8b d6 af bd a9 8f 56 39
       -0.027356036 0.11805872 -0.08585843 0.00020462148
000320 54 82 9e 3d 91 27 1c 3b 1e 62 a2 bd 53 fa 36 be
       0.07739702 0.0023827294 -0.079288706 -0.17868929
000330 68 44 01 bc ea 59 3d 3e b0 6b 0e 3e 12 d7 af 3d
       -0.0078898445 0.1849133 0.13908267 0.08585943
000340 04 58 ca bd b4 d8 23 be 9a ab 3f 3e 63 38 4c bd
       -0.09880069 -0.16000634 0.18717805 -0.049858462
000350 f9 fe 87 3d 57 31 2e be 54 61 30 bd dc 51 2a 3e
       0.06640429 -0.17011009 -0.04306157 0.1663279
000360 60 99 4e 3e 23 fe 0f 3d 2b 4a 98 3c f1 89 d2 bc
       0.20175695 0.035154473 0.018590054 -0.025700541
000370 80 15 52 3d 23 77 cf 3d f9 b8 31 3d 12 6c 17 bb
       0.051290035 0.101301454 0.043389294 -0.0023105186
000380 da 10 11 bd e6 14 8a 3d b1 56 79 bb e2 93 ad bd
       -0.03541646 0.06742267 -0.0038046057 -0.08475472
000390 e0 b2 8f 3a 24 fa 0f be 36 b7 67 bc d6 c7 b8 3c
       0.0010963343 -0.14060265 -0.014142802 0.022556227
0003a0 de c9 1f 3d 12 a1 81 bd b8 8e 1e bd 8e 7f 95 bd
       0.039010875 -0.0632955 -0.038710326 -0.0729972
0003b0 31 c3 fb bd 8a d3 30 3d 11 96 34 3e e0 25 e4 bc
       -0.12293089 0.04317049 0.17635371 -0.027850091
0003c0 3d 45 db bd 87 57 0c 3d 07 05 6c 3d 7e 29 c1 3d
       -0.107065655 0.03426316 0.057621982 0.09431742
0003d0 75 46 01 be 7e 87 91 3e 98 32 63 bd af 7b d8 bc
       -0.12624533 0.28423685 -0.05546817 -0.026426164
0003e0 ab 3c 85 be 5f c9 1a be 33 54 71 3e 46 4f 8d bc
       -0.26022848 -0.1511588 0.23567276 -0.017249715
0003f0 57 0c c9 3d c8 75 7e 3d c7 6d 6a 3d 8a 09 ac 3b
       0.09816807 0.062124044 0.057233598 0.0052501606

convs.0.fc_full.bias f4 [32]
000000 0d 93 b9 3d dc 33 ce 3d 14 86 0c bc 7c 47 07 3e
       0.09061251 0.10068485 -0.008576889 0.13210863
000010 a4 c7 05 bc 65 57 d8 bd 39 44 0d 3d 76 a9 c0 3d
       -0.008165274 -0.10563544 0.03448889 0.09407322
000020 d2 3c 0e 3d 37 e5 d5 bd 98 c6 d5 3d d3 45 14 3e
       0.03472597 -0.1044411 0.104382694 0.14479761
000030 78 12 c2 bd 48 a9 4b 3d 58 21 23 3d 17 10 be 3d
       -0.09476179 0.049721986 0.03982672 0.09280413
000040 96 dd 8b bd 46 99 1a bd 1c 3d 29 bc b4 28 5d 3d
       -0.068293735 -0.03774383 -0.010329511 0.053993896
000050 92 77 48 3a a9 a0 5e be 86 bc 11 3c c6 ff 5d 3d
       0.0007647212 -0.21740974 0.008895045 0.054199003
000060 4a 84 2e bc 47 76 5e 3c d5 39 c9 3d 34 df ce 3d
       -0.010651657 0.013578004 0.09825484 0.10101166
000070 27 c4 ee 3d bf f3 6a bd 22 97 45 3d c2 00 07 3e
       0.11658507 -0.05736136 0.048239835 0.13183883

convs.0.bn1.weight f4 [32]
000000 ed 6c 94 3f a7 b1 98 3f 56 e0 84 3f 3a 47 89 3f
       1.1595742 1.1929215 1.0380962 1.0724862
000010 56 73 8f 3f 20 15 91 3f 85 93 83 3f 03 14 84 3f
       1.1207073 1.1334572 1.0279394 1.0318607
000020 58 0e 89 3f 85 a4 7b 3f 87 04 8c 3f fe 75 96 3f
       1.0707502 0.9829791 1.0938882 1.1754758
000030 6c 0e 8c 3f 6e cb 8c 3f 36 32 86 3f 76 e4 96 3f
       1.0941901 1.0999582 1.0484073 1.1788471
000040 5b e5 75 3f bf be 7a 3f f0 d1 76 3f c9 f5 7d 3f
       0.96053094 0.97947305 0.9641409 0.99203163
000050 84 36 98 3f ef f0 86 3f 5d 41 8b 3f 95 27 75 3f
       1.1891637 1.0542277 1.0879322 0.9576352
000060 ed 4f 71 3f 23 83 79 3f e0 63 71 3f 52 a8 74 3f
       0.9426258 0.97465724 0.9429302 0.95569336
000070 95 7f 83 3f c5 d7 85 3f af e9 88 3f ab 1b 83 3f
       1.027331 1.0456473 1.0696315 1.0242819

convs.0.bn1.bias f4 [32]
000000 56 9a 81 bc f9 21 47 bc 4c f1 37 3c 26 57 c6 3c
       -0.015820663 -0.012154096 0.011226963 0.024211477
000010 93 ee 3e be fe b8 6e 3d f0 c5 44 3b 04 f4 94 bc
       -0.18645696 0.05828189 0.0030025207 -0.018182762
000020 9d 67 1b 3b 50 f6 82 3d a9 8d f1 bc aa af 17 bc
       0.0023712881 0.06394637 -0.029486494 -0.00925819
000030 ce ac a6 bc fd 0b 43 bc 99 0e c6 bd e2 59 3e bc
       -0.020346072 -0.011904714 -0.09670753 -0.011618109
000040 d1 6f 1b 39 01 a9 31 3d 3c 83 9d 3d fe 82 d4 3d
       0.00014823607 0.043374065 0.076910466 0.10376547
000050 ac 6a 48 be 74 cb 32 bd 18 fc 77 bd 48 00 8d 3d
       -0.19571942 -0.04365106 -0.06054315 0.06884819
000060 b8 7a b2 3d c7 c4 53 3d 97 62 88 3d 83 09 84 3d
       0.08714813 0.051701333 0.066594295 0.06447127
000070 e7 fb 8f bd 3e 66 07 bd 27 8b cc bd cb 94 aa bd
       -0.070304684 -0.03305649 -0.09987479 -0.08329161

convs.0.bn1.running_mean f4 [32]
000000 4c b2 e7 be 4c 16 10 bf 95 28 b0 be e4 a8 7a 3e
       -0.45253217 -0.5628402 -0.34405962 0.24478489
000010 71 46 5f bf 61 f0 12 3f 8f ff 03 bf 37 cb 2c bf
       -0.8721686 0.5739804 -0.51561826 -0.6749758
000020 a0 0d c5 be e3 23 51 bf 60 99 03 bd 4c d4 80 3e
       -0.38486958 -0.81695384 -0.03212869 0.2516197
000030 f1 15 a0 3e 95 4a 40 bf 9f bc a8 bd 13 5d 6f 3d
       0.3126674 -0.75113803 -0.082391016 0.058438372
000040 9a 94 ce be 9a d2 6f bf 7d 84 a6 be 20 b0 a8 be
       -0.4034775 -0.9368073 -0.32522956 -0.32946873
000050 d4 ff 3f bf 52 05 3c bf e2 b0 a0 bf 90 9b fa 3e
       -0.7499974 -0.7344562 -1.255398 0.4894681
000060 7a 64 e8 be 20 6e 9c bf ad 25 9a be 4e fb 2a be
       -0.45389158 -1.2221107 -0.3010687 -0.16697428
000070 45 f0 a7 3e 89 c1 6a bf 97 38 5a be 6c cb 6c bd
       0.328005 -0.9170156 -0.2131065 -0.057811186

convs.0.bn1.running_var f4 [32]
000000 c7 c6 12 3c 55 51 28 3c 2f 1b 44 3c 64 93 f2 3c
       0.008958525 0.010273297 0.011969372 0.029611297
000010 a4 8d 60 3c ee 00 cd 3c fa 51 1c 3c d4 95 2c 3c
       0.013705645 0.025024857 0.009541029 0.010533769
000020 00 f2 56 3c ae e2 90 3c bb 17 43 3c 81 78 17 3c
       0.013119221 0.017686214 0.011907513 0.009245039
000030 85 a3 6b 3c a7 16 0c 3c db 4e 97 3c 1b 2a 18 3c
       0.014382248 0.008550323 0.018470218 0.0092873825
000040 cf 6f 2f 3c 7d 87 9d 3c 2f 7d 51 3c db f0 5d 3c
       0.01070781 0.019229645 0.012786194 0.013546194
000050 1d 81 27 3d f5 a2 b8 3c 80 18 41 3c 06 41 cd 3c
       0.040894616 0.022538641 0.011785626 0.02505542
000060 89 6b e7 3c a9 9d 86 3c 55 80 31 3c bc 92 64 3c
       0.028249519 0.0164326 0.010833819 0.013951
000070 d6 62 78 3c 87 6a 11 3c 05 c4 9f 3c a3 2e cf 3c
       0.015160283 0.008875496 0.01950265 0.025290793

convs.0.bn2.weight f4 [16]
000000 6d 07 83 3f 8c 12 86 3f bf e4 89 3f 70 88 7c 3f
       1.0236641 1.047441 1.0772933 0.9864569
000010 ef ea 82 3f 3e d2 78 3f dc a3 82 3f df 1c 7d 3f
       1.0227946 0.97195804 1.0206256 0.9887218
000020 66 4d 78 3f a5 40 7a 3f f6 c4 7d 3f 21 51 85 3f
       0.969931 0.9775489 0.99128664 1.0415384
000030 2e 46 88 3f 18 52 8b 3f 42 c6 79 3f 90 3c 94 3f
       1.0646417 1.0884428 0.9756814 1.1580982

convs.0.bn2.bias f4 [16]
000000 3c 68 98 bd d4 93 a4 3c ff 69 28 3d 9e 16 e5 bb
       -0.07441756 0.020090021 0.04111671 -0.0069912216
000010 40 e3 9b bd bc 6c 59 be fb 95 7a 3d 52 0e db 3c
       -0.07611704 -0.21232885 0.06117819 0.026740227
000020 b2 09 ad bb 54 a4 d0 3c 1b fc 6d bb 0f e3 44 3d
       -0.005280697 0.025468983 -0.0036313597 0.048068102
000030 05 cc 51 3d fa 0b 58 3b 66 c2 e1 bc 00 bf 7c 3c
       0.05121996 0.0032966123 -0.027558517 0.015426397

convs.0.bn2.running_mean f4 [16]
000000 34 6b 86 40 96 16 97 40 e7 49 a8 40 ae 47 9a 40
       4.2005863 4.721507 5.2590213 4.82125
000010 e6 44 a3 40 e4 1e 92 40 7e 2b 91 40 7b 92 94 40
       5.1021605 4.566271 4.536559 4.642881
000020 55 44 a3 40 5f 9d ad 40 8a 14 90 40 5a 0d 98 40
       5.1020913 5.4254603 4.502507 4.75163
000030 93 70 9c 40 c7 28 a1 40 fd fc aa 40 2a 7b 9a 40
       4.888742 5.0362277 5.3433824 4.8275347

convs.0.bn2.running_var f4 [16]
000000 3c 4a a0 40 f1 1a c1 40 88 69 9d 40 f8 ad 5c 40
       5.009062 6.0345387 4.919132 3.4481182
000010 0d 5d af 40 3b e6 18 40 f4 ae 81 40 e3 b1 99 40
       5.4801087 2.3890522 4.0526066 4.8029647
000020 c0 e4 3c 40 d0 6c 13 41 49 25 3f 40 36 97 da 40
       2.9514618 9.214066 2.9866507 6.8309584
000030 f5 2c c8 40 f1 f4 af 40 5f 6b 51 41 f0 42 61 40
       6.255488 5.49865 13.088714 3.5197105

convs.1.fc_full.weight f4 [32, 56]
000000 1e 50 59 3c 99 7e dc bd 99 bc 7b bd 0d 36 50 3d
       0.01326373 -0.10766334 -0.061459158 0.050832797
000010 0a ea 94 bd eb 61 bc 3c 23 f2 1d 3d a3 eb 58 bd
       -0.07271202 0.02299591 0.038560998 -0.052959096
000020 3d d4 3d bc 83 b2 12 3e 54 6c f1 3d 3f 0e 94 3d
       -0.011586246 0.1432591 0.1178824 0.0722928
000030 fd 6e 73 bc 5e 72 44 3d 9a 31 33 be 4f 8a 1a 3e
       -0.014858005 0.04796063 -0.1749939 0.15091823
000040 cb 98 8d 3d 14 04 22 be c8 14 16 be 25 d2 48 bb
       0.069139086 -0.15821868 -0.14656365 -0.0030642834
000050 87 8d 56 bd 2a 48 fd 3d 7c ca 39 bd fb 68 b6 bd
       -0.052381065 0.1236728 -0.04535912 -0.08906742
000060 a1 de 00 bd ad d1 20 bd ea 21 3c bd d7 ba 52 3d
       -0.031462315 -0.039262462 -0.04593078 0.051447716
000070 63 d0 f7 bd a6 56 14 bd 43 cb b4 3d a9 30 11 bd
       -0.121002935 -0.036215447 0.088278316 -0.035446797
000080 c6 ba 0e 3d 1d 67 3b 3e e5 d3 2d bd c1 ba f8 bc
       0.03484609 0.18301053 -0.042438406 -0.030362489
000090 7d 76 3f be 30 cb 1e 3e 85 6c 8a 3c 0b 59 a3 bd
       -0.18697543 0.15507197 0.01689745 -0.07975968
0000a0 b4 5c 42 be 28 eb 29 3d 16 1b 33 bd 4f dc 76 bc
       -0.18980676 0.041484028 -0.043727003 -0.015067174
0000b0 0d 49 0c be 25 a5 12 bd 19 0e 0d be 02 74 41 bd
       -0.13699742 -0.035802025 -0.13774909 -0.047229774
0000c0 b2 c8 61 3d 74 c5 54 bd ae c2 e7 3b 4c f0 cc bd
       0.05512304 -0.05194612 0.007072768 -0.100067705
0000d0 6a 8f ad bc 8f 0c 21 be 99 08 3e ba d6 f6 ab bd
       -0.02118655 -0.15727447 -0.0007249206 -0.083966896
0000e0 16 26 90 3d f7 25 17 be a2 89 04 be b1 54 e3 bd
       0.07038514 -0.14760576 -0.12943128 -0.11100138
0000f0 be bb ff bc 22 ee 27 3c 94 95 29 3c 99 64 f3 3d
       -0.031217452 0.010249646 0.010350604 0.11884422
000100 c9 02 45 3d 2c 56 31 3b 06 f1 2f 3d 92 3c 93 3c
       0.04809836 0.002705942 0.042954467 0.017973218
000110 a9 65 85 bd 9e 00 a5 bd cb 35 1f bc f8 10 ab bd
       -0.06513531 -0.08056758 -0.009717415 -0.08352846
000120 8c ac 88 bc f5 00 43 3d 42 86 cc 3c af d8 f3 3d
       -0.01668384 0.047608335 0.024966363 0.119065635
000130 c9 92 a7 3d 23 83 4b 3e 9f 7f cf 3d dd 30 9b 3c
       0.08182294 0.19874243 0.10131764 0.018944198
000140 7c dd 2a be 3a 75 03 3d ca e1 da 3d 46 5e 87 bd
       -0.16686052 0.032094218 0.10687597 -0.06609778
000150 a6 04 bf 3d 3d 8c 66 3d ec fc 55 bc 72 e9 2b 3c
       0.093270585 0.056286085 -0.01306079 0.010492669
000160 8c ae 92 bd 61 16 a9 3d 0d 41 cb 3c a8 f1 94 bb
       -0.071621984 0.082562216 0.024811292 -0.004545409
000170 e8 3f 01 3e 78 df 0a 3d 55 fb 85 bd 91 e5 82 3c
       0.12622035 0.033904523 -0.065420784 0.015978606
000180 43 4d 61 3d b2 c7 0c be c5 ea dd bc c9 75 5e bd
       0.055005323 -0.13748053 -0.027089486 -0.054311547
000190 dd 32 2a 3e 77 b4 87 bd 00 45 a3 bd 00 4a a6 bc
       0.16620965 -0.06626218 -0.07972145 -0.020298958
0001a0 52 3e 8a bd 25 9f e5 3d 04 74 82 bb 46 cf 91 3d
       -0.06750168 0.11211995 -0.0039811153 0.071196124
0001b0 21 27 0d 3e e6 0d 4d 3c c3 36 ed 3c 7a 9d 1e 3e
       0.13784458 0.012515521 0.028956776 0.1548976
0001c0 e0 a6 e0 bc e9 50 8f 39 96 e3 c8 bd f4 cd 0b 3e
       -0.027423322 0.00027335368 -0.098090336 0.13652784
0001d0 64 c5 f9 bd 87 03 f0 bc 95 0e 0f be f2 0b 48 bd
       -0.121958524 -0.029298557 -0.13970406 -0.048839517
0001e0 07 d8 97 3c bd d5 a1 3c 09 5e bc bd 24 06 9f bd
       0.018535627 0.019755239 -0.09197623 -0.07764843
0001f0 1e bc 13 be 83 e9 42 bb c3 a2 2f bd b1 9e 85 3d
       -0.1442723 -0.0029741235 -0.04287983 0.065244086
000200 4c af 86 3d 5f c4 3d 3d 6d fb cb bd 7d 02 b4 3d
       0.06576404 0.046329852 -0.09960065 0.08789537
000210 fd 09 a3 bd 5c 58 9c 3d 41 b9 27 bd 86 bf 13 3e
       -0.079608895 0.07634041 -0.040948156 0.14428529
000220 54 6f c8 bd f6 3a 58 3d 50 d4 8a bd 74 ea e7 bd
       -0.09786859 0.052790605 -0.06778777 -0.11324015
000230 fa d9 ae bb 87 f6 0d 3d 7c be e4 3d d8 3f 34 be
       -0.0053360434 0.034658935 0.111691445 -0.1760248
000240 45 d6 05 be 3d a6 a0 bc 57 fa 10 bd ab 06 06 be
       -0.13070019 -0.019610519 -0.035394993 -0.13088481
000250 d4 f1 06 3e 93 ef 73 bd 6f fc 3c bd 30 ea 6f 3c
       0.13178188 -0.059554648 -0.046139177 0.014643237
000260 96 85 2c 3d 45 47 9e bd 01 0b f6 3c 6b 8f b6 3c
       0.042119585 -0.07728437 0.030034544 0.022285184
000270 e0 46 b2 3d 56 21 38 3d 31 d7 be bd 8f ee 18 be
       0.087049246 0.044953667 -0.09318388 -0.14934753
000280 3a c0 29 bd 02 de 1a 3d 26 17 a1 3d 3a 1c 90 bd
       -0.041443087 0.03780938 0.07865743 -0.07036634
000290 a6 32 00 bd 7e 8d cc 3c 2a 29 6b bd f7 b5 23 bd
       -0.031298302 0.024969812 -0.057412304 -0.039968457
0002a0 36 96 44 3d 08 a0 61 bd bb e0 ba bd 0f 28 3f be
       0.047994815 -0.05508426 -0.09124895 -0.18667625
0002b0 d3 95 ae bb 7e a7 20 3e 0d 69 a3 3d 6c f6 a2 3d
       -0.005327919 0.15688893 0.07979021 0.079571575
0002c0 d7 34 a2 3d 81 79 a3 3d 65 c0 75 bc af 0f ff bb
       0.07920235 0.079821594 -0.014999484 -0.007783852
0002d0 32 62 23 3d 73 05 2c bd e9 4f c5 3d 84 b5 00 bc
       0.03988857 -0.041997384 0.09634382 -0.007855777
0002e0 61 76 20 be b9 ce 84 3d 15 03 2b 3e e1 bc f5 3d
       -0.15670158 0.06484742 0.16700394 0.119989164
0002f0 24 dd 3d 3e fb 15 b6 bd cd fe 86 3d ec d0 da ba
       0.1854139 -0.08890911 0.06591568 -0.0016694344
000300 d7 9c 29 bc 8c c2 37 bd 29 1b 44 bd bc 17 10 3e
       -0.010352335 -0.04486327 -0.047877464 0.14071554
000310 06 23 5f bd 9d 8e 8a 3d 07 88 db bd f7 a4 be 3c
       -0.05447676 0.067654826 -0.107193045 0.02327202
000320 6e df b2 bd 08 d0 1c be 15 d5 00 be 68 33 c1 bd
       -0.08734022 -0.15313733 -0.12581284 -0.09433633
000330 f3 ba 5b 3d ea e0 e9 bd 1f 64 a9 bd 8f 82 a6 bd
       0.053645086 -0.11419852 -0.0827105 -0.08130371
000340 4c 76 90 3c 8c e3 d1 3d 15 33 ad bc fd e5 93 3c
       0.017634533 0.10248479 -0.021142522 0.018054003
000350 67 70 18 3d 11 01 83 bd 40 4f 21 3e e8 f8 64 bd
       0.03721657 -0.06396688 0.15752888 -0.055901438
000360 8e a9 d8 3d 47 17 43 3d c2 e6 c5 bc ee 6d e9 3d
       0.10579215 0.04762962 -0.024157885 0.113979205
000370 14 23 db 3d 6b 6d 45 bd a7 39 40 be d8 70 82 3b
       0.1070005 -0.048200052 -0.18771993 0.003980737
000380 4e 25 ee 3c cf 89 e6 3b c4 f5 b3 bd 0d 0b 13 3d
       0.029070523 0.007035471 -0.087871104 0.03589921
000390 60 47 50 bd e9 98 b5 ba 7d 86 c2 3b d9 84 15 3d
       -0.05084932 -0.0013854775 0.0059364424 0.036503647
0003a0 95 75 6e bd 23 c3 43 3d 97 fc b1 bd 75 f8 bd bd
       -0.058217604 0.04779352 -0.08690756 -0.09275905
0003b0 e3 02 bf 3d d5 5b 81 3d 46 9d f6 3d 27 2d 00 bd
       0.093267225 0.06316344 0.12041716 -0.03129306
0003c0 77 0b 0a be 18 02 37 3e 71 74 b9 bd 63 04 f9 3d
       -0.13480936 0.17871892 -0.090554126 0.1215904
0003d0 9a 73 b4 bd 43 6b c1 bc 37 8c 5d 3e 56 79 e4 3d
       -0.08811112 -0.023610717 0.21635519 0.111559555
0003e0 f5 24 8c 3d 4c 30 e2 3d 9f ef 07 be fd 5b bd 3a
       0.068429865 0.11044368 -0.13275002 0.001444697
0003f0 91 f2 ab 3d e1 73 8a 3d 58 20 5e 3d cc 18 f6 3d
       0.08395875 0.067603834 0.054230064 0.120164484

convs.1.fc_full.bias f4 [32]
000000 2e 55 67 3d b8 f0 d2 bd c0 32 7f bd ce f7 94 3d
       0.056477718 -0.1029982 -0.06230426 0.072738275
000010 60 1d e4 3d 7f 4b 10 3e a6 da 96 3d 76 b4 cc 3d
       0.11138415 0.140913 0.07365923 0.09995358
000020 1a 22 86 3d 00 94 3b be 59 18 3d 3e 84 2a 91 bd
       0.06549473 -0.18318176 0.18466319 -0.07088187
000030 6a 3f 8c 3d c5 df 08 bd 75 66 c5 3c 3b 56 f1 bd
       0.06848033 -0.03341653 0.024096707 -0.11784025
000040 d2 f5 14 3d fb cb cd ba 39 12 08 bd 42 35 4b 3e
       0.036367245 -0.001570105 -0.033220503 0.19844535
000050 db a5 0f bd ff 49 e2 3d 27 b2 1d 3d 7c e5 d4 bd
       -0.03507028 0.1104927 0.038499977 -0.10395333
000060 1c 44 21 3b df 2c 16 3c 2d b7 b1 bd 64 1e 8c bb
       0.0024607247 0.009165972 -0.08677516 -0.004276084
000070 91 1b b9 bd ed 78 c5 3d ba 59 bf bd ef c9 ab bd
       -0.09038461 0.096422054 -0.09343286 -0.08388125

convs.1.bn1.weight f4 [32]
000000 64 ad 90 3f e0 1a b6 3f f4 f2 88 3f a6 ca a9 3f
       1.1302915 1.4226952 1.0699143 1.3264968
000010 2f c0 8b 3f 68 55 a0 3f ae 4b c6 3f de 3b a0 3f
       1.0918025 1.2526064 1.5491846 1.251827
000020 ba 40 9b 3f 0d 8b 9b 3f cb bf 8c 3f ab 38 9e 3f
       1.2129128 1.215181 1.099603 1.2361044
000030 6c fa 88 3f be 4d 88 3f e8 d0 b3 3f 36 6b 8b 3f
       1.0701423 1.0648725 1.4048128 1.0892093
000040 d0 b1 93 3f 66 44 8d 3f e6 a9 81 3f 36 0e 8c 3f
       1.1538639 1.1036499 1.0129974 1.0941837
000050 56 72 83 3f 18 55 93 3f 3e 35 8b 3f 9a d0 69 3f
       1.0269268 1.1510344 1.0875623 0.91333926
000060 ae b9 7c 3f 8a c7 83 3f bc 22 8a 3f a6 1a 8c 3f
       0.98720825 1.029527 1.079185 1.0945632
000070 e1 3f 85 3f 0c 96 92 3f 33 84 8d 3f 61 65 94 3f
       1.0410119 1.1452041 1.1055969 1.1593438

convs.1.bn1.bias f4 [32]
000000 5f 37 e5 3d cb 50 0d bd c0 37 29 3d 41 34 0d bd
       0.11192202 -0.03450088 0.041312933 -0.03447366
000010 87 94 34 bd 47 4c e3 bd 29 2b 21 bd 4e f6 6d 3c
       -0.04408696 -0.11098533 -0.0393478 0.014524056
000020 7f f8 44 3c 76 bc 97 3d 4e 99 ca 3c 10 7c 1f bc
       0.012022137 0.07408993 0.024731304 -0.009734169
000030 6c 93 ef bb 5e fc 04 be 7d 3b 23 bd 44 69 88 3d
       -0.007311275 -0.12986895 -0.039851654 0.06660703
000040 62 4b 6f bc e4 74 00 3c ef 1d 50 3d 5f 8a 6e bd
       -0.014605375 0.007840369 0.050809797 -0.05823743
000050 82 3f ef bc d6 8f 44 be 5a 80 32 be ae ca 9b 3d
       -0.029205088 -0.19195494 -0.17431775 0.076070175
000060 3b 02 1a 3d 9e cc a6 3d 77 f1 93 ba 85 26 89 bd
       0.037599783 0.081444964 -0.0011287172 -0.066968
000070 39 f9 07 bd 21 1f a7 be f6 d5 0b be 63 5a 39 bc
       -0.03319666 -0.32640937 -0.13655838 -0.011313054

convs.1.bn1.running_mean f4 [32]
000000 4d 11 41 bf 80 f2 21 3e 72 7c 5e bf d3 79 27 3e
       -0.75417024 0.15815163 -0.8690864 0.16355066
000010 69 98 4b bd 74 ec c2 3e 50 e8 e3 be c0 26 a3 3f
       -0.049705897 0.38071024 -0.44513178 1.27462
000020 a9 c7 94 3e 7c 38 0e 3e 64 1a b7 be 35 0f 15 3f
       0.2905858 0.13888735 -0.35762322 0.5822633
000030 b0 80 8c be 3d b7 9b be cf 7f bc bf bb 13 89 3d
       -0.2744193 -0.30413237 -1.4726504 0.066932164
000040 28 de 3f 3e fa 0c 3d be 5d 2a cc 3e f8 a5 7b 3e
       0.1873709 -0.18461981 0.3987607 0.24575031
000050 55 4c a0 3f d7 35 86 bd 9e 11 a0 be 99 29 2a bf
       1.2523295 -0.06553238 -0.3126344 -0.66469723
000060 56 9c a8 3d aa 19 11 bf d2 d4 09 3f 33 c4 31 bf
       0.08232944 -0.56679785 0.53840363 -0.6944
000070 01 7a 09 3f 7d ee d3 be 1e e1 84 be 99 78 58 3e
       0.5370179 -0.4139289 -0.25953 0.21139754

convs.1.bn1.running_var f4 [32]
000000 be c8 70 3d ac 34 71 3d 0b 46 a6 3d d3 b5 1c 3d
       0.058785193 0.058888122 0.081188284 0.03825934
000010 77 ec 88 3d 52 44 d3 3d c4 9f 77 3d 82 9c b0 3d
       0.06685727 0.103157654 0.0604551 0.086236015
000020 d7 b2 29 3d 97 ac a6 3d 93 10 87 3d 72 8b 96 3d
       0.04143032 0.08138388 0.06594958 0.07350816
000030 68 61 5d 3d 38 36 c1 3d db 28 e7 3d e2 93 89 3d
       0.054047972 0.094341695 0.112870894 0.067176595
000040 f2 a5 a0 3d bd 95 35 3d 05 b3 00 3e 0e 89 a8 3d
       0.078441516 0.044332255 0.1256829 0.08229266
000050 2d d9 15 3e 86 f5 23 3e 82 fb aa 3d 16 f5 d5 3d
       0.14633627 0.16011629 0.083487526 0.10447137
000060 37 81 16 3e 56 43 d4 3d 2e e3 98 3d 72 4a c9 3d
       0.14697729 0.10364406 0.07465206 0.098286524
000070 38 ce 46 3d b7 b8 69 3d a8 c5 db 3d 26 05 80 3d
       0.04853651 0.057060923 0.10731059 0.06250982

convs.1.bn2.weight f4 [16]
000000 00 1d 8b 3f 4a 61 72 3f c0 32 81 3f 05 62 7a 3f
       1.0868225 0.946797 1.0093613 0.97805816
000010 41 ac 82 3f 9e fd 85 3f 94 b4 8d 3f 6a a6 6d 3f
       1.0208818 1.0468023 1.1070733 0.9283205
000020 64 2d 80 3f f8 26 82 3f 87 a6 85 3f 35 80 86 3f
       1.0013852 1.0168142 1.0441445 1.0507876
000030 2f 09 6c 3f e5 67 82 3f 7b 71 8b 3f 1b d1 97 3f
       0.92201513 1.0187956 1.0894006 1.1860689

convs.1.bn2.bias f4 [16]
000000 90 ce 36 bc e2 3c 8f 3b ff 93 46 3d 55 01 11 bd
       -0.011157647 0.0043712715 0.048480984 -0.03540166
000010 74 15 11 bd b1 45 e2 bd 0f 62 cf 3c ad 92 5a bd
       -0.03542085 -0.11048449 0.025315313 -0.053362537
000020 ff a7 6d 3c fe a8 f7 3a 8e b8 fa 3c c7 dc 54 b9
       0.014505385 0.0018894968 0.03060558 -0.00020300141
000030 c1 69 d8 bc b4 d4 a8 bc 2c 9e 62 3d aa 4d e7 3c
       -0.026417615 -0.020609237 0.055326626 0.028235275

convs.1.bn2.running_mean f4 [16]
000000 95 63 99 40 52 43 8c 40 23 0b 8d 40 c8 11 9e 40
       4.793406 4.383218 4.4076095 4.9396706
000010 bb 73 95 40 75 ed 7d 40 1b ef 8a 40 89 b0 94 40
       4.6703773 3.9676182 4.3416877 4.6465497
000020 7a 07 94 40 a0 5b b7 40 d2 13 9f 40 5e 04 93 40
       4.6259127 5.7299347 4.9711695 4.594283
000030 7b 40 9b 40 21 90 85 40 e9 4b 95 40 b9 40 a8 40
       4.851621 4.173844 4.6655164 5.2579007

convs.1.bn2.running_var f4 [16]
000000 09 16 55 41 58 ee 0c 41 d8 5b 2b 40 16 79 15 41
       13.31788 8.808189 2.6774807 9.342062
000010 f8 80 64 40 ee 3b a1 40 cf d6 b0 40 4f 70 a4 40
       3.5703716 5.0385656 5.5262218 5.1387095
000020 63 c7 9a 40 14 2c 49 41 62 b8 33 41 a5 f6 bf 40
       4.836839 12.573261 11.232515 5.998858
000030 4c 7a 57 41 3a a6 f6 40 4a 97 f6 40 7d 7e 34 41
       13.467358 7.7077913 7.705968 11.280881

convs.2.fc_full.weight f4 [32, 56]
000000 2c 09 54 bd 9c 5f 8e bd 0f e2 37 bc 4e 56 27 bd
       -0.05176656 -0.0695183 -0.01122333 -0.04085379
000010 f5 db d0 bc 23 f0 0d bd f9 21 d9 bd e1 f3 0f 3e
       -0.025495509 -0.03465284 -0.10602183 0.14057876
000020 ab 38 ba 3c 43 cc b0 3d ed 41 54 3d 0d b1 17 bd
       0.0227321 0.0863271 0.051820684 -0.037034083
000030 d4 52 81 bc 3f af 42 bc 64 96 6e 3d bf 86 9e 3d
       -0.015786566 -0.011882602 0.058248892 0.077405445
000040 d3 19 9f 3d c8 ba 8c bd 58 e4 60 3d 02 87 a1 bd
       0.077685975 -0.06871563 0.054905266 -0.07887079
000050 28 31 0f 3e c9 08 97 3d 99 f9 a1 bd d3 5a d0 3d
       0.13983595 0.073747225 -0.07908935 0.10173573
000060 ce a7 f1 3d ae b1 63 bd 3a cb 23 3e a6 69 2c bc
       0.11799584 -0.05558937 0.15995494 -0.010523235
000070 93 e9 b7 bd b3 9e 88 bd a4 5e 5a bd f1 89 56 3d
       -0.089800976 -0.066708945 -0.053312913 0.052377645
000080 80 5d 57 3e 29 57 1d 3c 84 bc 42 be c6 bf 1a be
       0.21031761 0.0096033 -0.19017226 -0.15112218
000090 9c df 0a be c9 6f 05 3e 13 1e a3 3c 61 37 0c be
       -0.13561863 0.13030924 0.019911801 -0.13693
0000a0 07 9c aa bc 0d c6 23 bd 5a 9b 02 bc c4 dd f0 bc
       -0.020826353 -0.039983798 -0.007971609 -0.029402621
0000b0 bf a8 35 be cb 94 bf bd 97 aa 4c be 1b 0f 12 3e
       -0.17740153 -0.09354552 -0.1998695 0.14263575
0000c0 b5 2b 53 3d 07 8d 17 3e ea 4d 90 3d c1 d8 1e 3e
       0.051555354 0.14799891 0.07046111 0.15512373
0000d0 1a bd d5 3d c7 49 4b 3d bb 56 fe 3c 6b cb 65 3e
       0.10436459 0.049630906 0.031047216 0.22440879
0000e0 f6 06 51 bd 0c 2d 32 3c f5 13 0b 3d 9b 1b b8 bd
       -0.05103203 0.010874998 0.03395458 -0.0898964
0000f0 0a b0 44 bc 20 98 c6 bd 9e 9c a3 bc a6 24 e4 bd
       -0.012004862 -0.09696984 -0.019972142 -0.11139803
000100 a3 3a 71 3d e9 cb 48 be 84 02 af 3d db 85 f6 bd
       0.05889381 -0.19609036 0.08545402 -0.1203725
000110 8b a9 a2 bb 72 71 ac 3c c8 9e 88 3d 9e 5a 96 bc
       -0.0049640588 0.021050189 0.0667091 -0.018353757
000120 e8 81 fa bd b0 91 18 3d cf 75 e9 bd 67 6f b4 3d
       -0.12231809 0.037248313 -0.11399423 0.08810311
000130 52 cc 59 be 73 f4 76 bc c0 1d 09 be cf 68 ab 3d
       -0.21269348 -0.01507293 -0.13390255 0.083696
000140 fa a3 f3 bc a2 a1 5f bd 72 55 b5 bd 68 4a 86 bd
       -0.029741276 -0.054597504 -0.08854188 -0.065571606
000150 ca 1c 03 be 33 aa ae bd 03 b6 7b bd 2b e1 a2 bd
       -0.12803951 -0.08528557 -0.061452877 -0.07953104
000160 3d 74 00 be fb f5 60 bd 19 a4 8c be fa e1 53 3d
       -0.12544341 -0.054922085 -0.27468947 0.05172918
000170 d7 e3 31 be 99 09 a4 bd cc 32 81 3d 48 c2 5d be
       -0.1737207 -0.08009643 0.06308517 -0.21656144
000180 9a 51 8e bd 98 95 2d be 6e 85 8b bd f7 42 da ba
       -0.06949158 -0.16951597 -0.06812559 -0.0016652037
000190 5e a7 a7 be 01 9e 3a be ac df e2 bd 6e 0b 73 bb
       -0.3274488 -0.18224336 -0.11077818 -0.003708567
0001a0 41 70 b6 bd 52 da d5 3c 25 d2 b2 3c 09 b5 b8 bd
       -0.089081295 0.02610508 0.02182872 -0.09018905
0001b0 e2 bb 9f 3d 76 71 0d 3e b0 5d a5 3c 10 c6 9d bd
       0.07799508 0.13812813 0.020186275 -0.07703793
0001c0 6a 1c 85 3d cc 28 15 bd 78 80 cc bb 9c de b4 bd
       0.0649956 -0.03641586 -0.0062409006 -0.08831522
0001d0 d4 9f a5 3d 57 07 d8 3c 61 5b b9 3d ed 75 01 be
       0.080871254 0.026370687 0.09050632 -0.12642641
0001e0 88 4b 5a 3d e5 6d 64 bc 9f cb 3b 3d 35 2b ae 3d
       0.05329469 -0.0139422165 0.045848485 0.08504335
0001f0 44 48 de bd a6 02 0b be a1 86 43 be c8 4f 7f 3c
       -0.10853627 -0.13575229 -0.19094326 0.015582986
000200 62 7e 2e 3d 82 15 3d 3e 0e af 12 3e c3 1f c4 bd
       0.042600997 0.18465236 0.1432459 -0.095763706
000210 11 1f da bd 8a a1 f8 3d 82 70 28 bd 73 a8 aa 3d
       -0.10650457 0.12140186 -0.04112292 0.083329104
000220 31 ed e6 bd 0f e9 29 3e 47 47 53 bd 49 21 61 bd
       -0.112757094 0.16592811 -0.051581647 -0.054963384
000230 22 04 14 bd b7 ef 1a be 15 c2 d0 bd d2 56 22 3d
       -0.036136754 -0.15130506 -0.10193268 0.03963358
000240 d5 d9 0d 3e e7 54 73 bd 12 2b f5 bc be 2f 83 bc
       0.13852628 -0.05940714 -0.029927764 -0.016013976
000250 72 ab 39 be e1 38 45 3e b4 bf 18 3e 5d 6d dc bd
       -0.18131807 0.19259979 0.14916879 -0.10763047
000260 b3 af bb bd 39 df 42 bd dc 60 ef 3d 7c 8e 9a 3d
       -0.09164371 -0.047576163 0.11688396 0.07546708
000270 9b 1d 12 be 57 d3 8d 3b bc d2 40 bd a7 33 c9 3c
       -0.14269106 0.004328172 -0.047075972 0.024560763
000280 e2 f9 4f bc 9f f0 db bc 7f 65 d6 3b 16 5c 9f 3d
       -0.012693854 -0.026848136 0.006542861 0.07781236
000290 94 bc a6 3d b0 c5 47 bd c6 1f 63 bd 80 b7 e9 3d
       0.08141437 -0.048772514 -0.055450223 0.11411953
0002a0 24 4a 03 3d 71 d0 11 3e ce bb a7 3d 5f f6 45 bc
       0.032053128 0.1423967 0.08190118 -0.012082665
0002b0 fd 4e 76 bc 1d 5c 58 3e 5a 04 56 3d ff 4b 00 be
       -0.015033481 0.21128888 0.052250244 -0.1252899
0002c0 ff 53 81 3d d2 e9 c9 bd 91 b8 d6 bc 22 23 23 ba
       0.06314849 -0.09859051 -0.026211055 -0.0006223192
0002d0 b3 52 cd 3d 13 5c 96 bc fc 02 ab 3d 29 00 1f bc
       0.10025539 -0.018354451 0.083501786 -0.009704628
0002e0 3b b2 3a 3d 94 e8 89 3e d5 f3 84 bd 84 a6 00 3e
       0.04558013 0.26935256 -0.0649182 0.1256352
0002f0 1c db 38 bd 72 2a 0f 3e 79 2e a8 bd ca 6b 10 3d
       -0.045130834 0.13981035 -0.08211989 0.035259046
000300 37 c4 c3 3d b0 23 8d bd b6 a4 92 3d e8 aa f4 bd
       0.095589094 -0.068915725 0.07160322 -0.1194666
000310 64 f0 ac ba b0 51 20 be 78 4f 98 3d 92 f4 46 bd
       -0.0013194201 -0.15656161 0.074370325 -0.048573084
000320 1b 45 35 be 93 8d 90 bd 3e 17 17 be aa 9e 9b bd
       -0.17702143 -0.07058253 -0.1475496 -0.07598622
000330 e2 f9 17 3e 58 82 e2 bd cb ff 2b bd 4c e5 c8 bd
       0.14841416 -0.11060017 -0.04199199 -0.0980936
000340 03 8e 17 3d a0 a7 be bd 78 15 9b bd 23 7a 11 3d
       0.037000667 -0.09309316 -0.07572454 0.03551687
000350 5f 78 c9 bd 6c 9c c4 3a 46 ad 30 3d 97 34 93 3d
       -0.09837412 0.0015000231 0.043133996 0.07187765
000360 9e 29 4f 3d 5c e7 e7 bc ae e8 f0 3c 91 13 4f bd
       0.0505768 -0.028308563 0.029407825 -0.05055577
000370 88 3b 00 bc 30 68 a1 3b 7a 51 b5 3c 23 c1 13 3b
       -0.007826693 0.00492575 0.022133578 0.0022545538
000380 bb 9c 43 3d 66 c2 cc 3d 34 4e ce 3c f4 f6 e6 bd
       0.04775689 0.09998016 0.025183775 -0.11277571
000390 6e 20 b6 3d 60 5a 5e bd 50 51 02 bc 1f ec 32 be
       0.08892904 -0.054285407 -0.007953957 -0.17472886
0003a0 2a 77 c4 3d e8 1a c8 bd ae 00 23 be 67 18 7b 3e
       0.09593041 -0.09770757 -0.15918228 0.24521028
0003b0 9e a3 2d bd 92 04 88 bc 8d 5f af bd 95 33 7a 3c
       -0.042392366 -0.016603742 -0.08563147 0.015271087
0003c0 d3 63 b8 bd a9 c1 8c bd d5 7c 07 be a2 da d9 bc
       -0.09003415 -0.06872875 -0.13231213 -0.02659351
0003d0 bf fe da bd 38 c4 d9 bb ff 43 7f bd 88 82 8a bd
       -0.1069312 -0.0066457056 -0.062320706 -0.06763178
0003e0 14 73 37 bd 60 78 59 bc 51 95 58 bc a1 74 16 bd
       -0.04478748 -0.013273329 -0.013219194 -0.03673232
0003f0 99 d9 67 3d fc cf 32 be fb 89 32 3d fc 3f 17 be
       0.056604 -0.17462152 0.04358862 -0.14770502

convs.2.fc_full.bias f4 [32]
000000 d2 12 69 3c cd 88 40 3e a2 d3 7a bd 84 7c fa bd
       0.0142256785 0.18802185 -0.061236985 -0.12230781
000010 d4 0b 09 3d e4 26 c8 3d d5 bf af 3d eb 65 f8 3d
       0.033458546 0.09773043 0.08581511 0.12128814
000020 e0 3a e2 bd 27 fc 37 bd e0 68 79 3d a4 22 dc bc
       -0.11046386 -0.044918206 0.060891032 -0.026871987
000030 b9 89 99 bd 31 d5 89 bd b4 21 a9 bd ad dc 0b 3e
       -0.07496972 -0.06730116 -0.082583815 0.136584
000040 7d 2f 0d bc 0c c2 11 bc 5d 7f 8e 3d 0c cd 68 3d
       -0.008617279 -0.008896362 0.06957886 0.056836173
000050 81 f5 c7 bd 83 f1 c0 bd c7 d7 08 3c f1 be c6 bd
       -0.09763623 -0.09421065 0.008352227 -0.09704388
000060 25 3e 8a 3d 74 b3 46 be 06 ee 00 3e bc ed 9d bd
       0.067501344 -0.19404393 0.12590799 -0.0771136
000070 14 b0 09 3e ea d2 1e bd 63 4b e7 bd 73 3b 1e 3d
       0.13446075 -0.038775362 -0.11293676 0.038630914

convs.2.bn1.weight f4 [32]
000000 10 db 95 3f 6c c3 8e 3f 66 7c a2 3f ff 9a ac 3f
       1.1707478 1.1153388 1.2694213 1.3484801
000010 14 49 99 3f 52 4b 98 3f a3 5f 8c 3f bf 47 a0 3f
       1.1975427 1.1897986 1.0966686 1.2521895
000020 08 9f b6 3f db 65 9c 3f 4d 02 94 3f 0e 70 8e 3f
       1.4267282 1.2218584 1.1563202 1.1127946
000030 3e 5e a6 3f 5d f8 9a 3f f1 14 96 3f ab 0a a6 3f
       1.299751 1.2107044 1.1725141 1.2972006
000040 36 21 88 3f c5 3f 91 3f 97 78 8c 3f 01 33 8d 3f
       1.0635135 1.1347586 1.0974301 1.103119
000050 71 c1 8a 3f e6 ab 88 3f 35 dd 99 3f 88 4f 88 3f
       1.0840284 1.0677459 1.2020632 1.0649271
000060 46 81 8a 3f 57 57 81 3f a2 7c 80 3f b1 0c 8e 3f
       1.0820701 1.0104779 1.0038035 1.1097623
000070 0d 10 86 3f 54 44 88 3f 86 89 83 3f 6a f9 79 3f
       1.0473648 1.0645852 1.0276344 0.976462

convs.2.bn1.bias f4 [32]
000000 f4 5f 68 38 fa 49 0b bb 12 a5 8b bd 62 f0 80 bd
       5.5402474e-05 -0.002125381 -0.06818594 -0.062958494
000010 2f eb a5 bc ee 6a d7 3b 18 e7 4c 3c 25 a9 bd ba
       -0.020253746 0.0065740263 0.012506269 -0.0014469965
000020 f5 18 aa bd 92 5e ed ba 68 d8 07 bd f6 9a 11 be
       -0.083055414 -0.0018109849 -0.033165365 -0.14219269
000030 1c 1f 91 bd 2f fb 20 3d 68 b5 50 bd a8 6a 2b be
       -0.07086012 0.039302047 -0.050954252 -0.16739905
000040 dd 25 ab bd 13 cc bf bd 52 57 15 be 30 bd e4 bd
       -0.08356831 -0.09365096 -0.14584091 -0.11168897
000050 35 44 07 bd 62 2b 3a bd 20 1b 15 be 22 02 dc 3c
       -0.03302403 -0.04545153 -0.14561129 0.026856486
000060 c9 1e a2 bd 25 4c 36 bd eb bc cc 3c 03 c0 90 bd
       -0.07916028 -0.04450621 0.024992427 -0.07067873
000070 33 a4 01 bd 18 bd eb bd 41 1e 9d bd ff d8 8d 3c
       -0.031650733 -0.11510676 -0.07671786 0.017315386

convs.2.bn1.running_mean f4 [32]
000000 16 87 1c be 4c 6e 54 c0 90 c3 c2 be f9 6d cc 3d
       -0.15285906 -3.319232 -0.38039827 0.09981913
000010 ad 59 74 bf 17 15 e2 bf 8b 90 8a bf 6c 9a 09 c0
       -0.95449334 -1.7662686 -1.0825361 -2.1500502
000020 cd e3 48 bf 6f b3 57 bf 7a 30 28 bf ab f2 c9 be
       -0.78472596 -0.8425817 -0.6569897 -0.39442953
000030 7f 17 8a 3f 41 44 76 3e 80 28 a7 bf b7 cf 93 3e
       1.078842 0.24049474 -1.3059235 0.2886941
000040 90 fd 33 bb b3 cc ec be d2 97 43 bf cf 56 dd bf
       -0.0027464367 -0.46249923 -0.76403534 -1.7292117
000050 1a ea 0d be 4b e0 a9 bf 1f c6 53 bf e4 2b c3 bf
       -0.13858834 -1.3271574 -0.82724184 -1.5247769
000060 b5 22 93 3e 8e 84 cc bf f2 95 29 3e e8 04 b1 3e
       0.28737417 -1.5977952 0.16561106 0.34574056
000070 ea 96 24 3f ec 5f 46 be b3 02 3d 3e 6a fe 43 3e
       0.64292777 -0.19372529 0.18458061 0.1914002

convs.2.bn1.running_var f4 [32]
000000 6c ff 4c 3e 5d f8 1f 3e 7a 73 5a 3e 54 56 80 3e
       0.2001931 0.15622087 0.21333113 0.25065863
000010 de 5f 9b 3e 5e 2e a6 3e 0c e1 29 3e 31 9b e1 3d
       0.30346578 0.3245725 0.16589755 0.110159285
000020 d8 80 36 3e 89 3c 52 3e 41 27 07 3e 6a 6b 2d 3e
       0.17822587 0.20530905 0.13198568 0.16935506
000030 d4 a7 a6 3e 00 50 88 3e 77 49 5d 3e 1b 75 83 3e
       0.32549918 0.26623535 0.21610056 0.25675282
000040 ea 50 8a 3e f7 d5 1e 3e 7a 7a 1e 3e 92 bd 91 3e
       0.27014858 0.15511309 0.15476409 0.28464943
000050 5c 61 f2 3d a2 7a 69 3e 8d fa 14 3e e7 da 65 3e
       0.11834976 0.22800687 0.14548703 0.22446786
000060 eb db c1 3e b3 22 8b 3e de 86 58 3e 80 8c 24 3e
       0.37863097 0.2717491 0.21145198 0.16069221
000070 89 1f 60 3e 2b b7 0b 3e 8d 30 24 3e 88 3f 41 3e
       0.2188703 0.13644092 0.16034146 0.18871891

convs.2.bn2.weight f4 [16]
000000 d9 1c 83 3f 96 c8 8b 3f 3c 04 96 3f 54 b5 8a 3f
       1.0243179 1.0920589 1.1720042 1.0836587
000010 bd ef 88 3f 28 a4 8d 3f fa 2b 94 3f f4 78 84 3f
       1.0698162 1.1065722 1.157592 1.0349412
000020 c7 03 90 3f a3 7b 81 3f 68 cf 88 3f 90 7b 8d 3f
       1.1251153 1.0115856 1.0688295 1.1053333
000030 de 9c 88 3f 89 94 8f 3f 7e bb 8a 3f ab c9 94 3f
       1.0672872 1.1217204 1.0838468 1.1624044

convs.2.bn2.bias f4 [16]
000000 47 61 ef 3c 96 34 1b 3c ec 47 63 3d 79 e1 9d ba
       0.02922119 0.009472987 0.055488512 -0.0012045346
000010 75 24 de ba af 79 26 bd ed b4 10 3d 56 94 c5 bc
       -0.0016948121 -0.04064339 0.035328794 -0.024118584
000020 5c 5d 16 3d 5a c5 66 3d a1 c6 3d 3d 33 25 2c 3d
       0.03671013 0.056340553 0.046332005 0.042027663
000030 11 ba 18 bc 82 32 bc 3c 5e 69 77 3d 0c c1 fc 3c
       -0.009321705 0.022973303 0.06040322 0.03085377

convs.2.bn2.running_mean f4 [16]
000000 32 69 a2 40 93 34 90 40 78 c8 85 40 7e b0 7f 40
       5.075341 4.5064178 4.1807213 3.9951472
000010 ba d9 90 40 a2 e0 9a 40 24 22 8f 40 4a 77 9b 40
       4.526578 4.839921 4.4729176 4.8583117
000020 5f d4 97 40 72 58 aa 40 26 75 99 40 81 50 93 40
       4.744674 5.3232965 4.7955503 4.603577
000030 52 24 9d 40 0c 2d a6 40 d2 9d a1 40 85 c1 a2 40
       4.9106836 5.192999 5.050515 5.086123

convs.2.bn2.running_var f4 [16]
000000 55 09 fa 40 46 d8 ea 40 3a 71 e8 40 67 d7 99 40
       7.813639 7.3389006 7.2638216 4.807544
000010 05 65 18 41 eb 61 c1 40 ef f1 e0 40 aa 5a 79 41
       9.524663 6.043203 7.029533 15.584635
000020 de ce 43 41 b9 e5 65 41 93 37 45 41 5a c8 16 41
       12.238005 14.368585 12.326068 9.423914
000030 ca d1 2d 41 85 a9 65 41 73 9e 5c 41 7a 62 49 41
       10.863718 14.353887 13.788684 12.586542
