cgcnndefect/bandgappretrained/model_best.pth.tar (torch, 178655 bytes, 109 tensors)

embedding.weight f4 [16, 92]
000000 25 74 0e bd d4 b8 81 bd ce 09 fe bc 3d ba 26 be
       -0.034778733 -0.06334081 -0.031010535 -0.16281982
000010 91 08 d0 bd be b6 ae bd 0b 19 30 3e a5 bf 30 3e
       -0.10157884 -0.08530949 0.17197053 0.17260607
000020 31 f3 16 bc 4a 1f b7 3d eb 48 bf bb e9 60 1e bd
       -0.009213255 0.08941515 -0.00583755 -0.03866664
000030 f9 a5 e5 3c de 44 a4 bd 57 87 1f be 68 83 90 3d
       0.028033243 -0.08020948 -0.15578972 0.07056314
000040 ec 2b 16 bd 47 71 b0 3c c1 b9 9c bd 9e a1 b3 3d
       -0.03666298 0.02153839 -0.07652617 0.087710604
000050 84 bd b8 bc 17 1b 8d 3d 6d e1 82 bd 83 6e cd bd
       -0.022551306 0.068899326 -0.06390653 -0.10030844
000060 dd be 1f 3e f3 d4 64 3d da c0 2b 3d 20 a8 d6 bc
       0.15600152 0.055867147 0.041931964 -0.026203215
000070 cb 69 6b 3b cf 54 38 3e 3a 91 20 be cd 52 16 be
       0.0035921212 0.18001102 -0.156804 -0.14680023
000080 ef 1b 22 bd aa dd cd bd 52 c4 d9 bc 04 65 8c bd
       -0.03957742 -0.10052045 -0.02658287 -0.06855205
000090 5f 9e 4e 3d c3 ee 82 bd a2 07 cd 3b fe ca b8 bd
       0.050444003 -0.063931964 0.0062570134 -0.09023093
0000a0 aa 51 a7 3c 2a 71 30 bd 9c c8 b3 bd 4b db 9e 3d
       0.020424683 -0.04307667 -0.087784976 0.077566706
0000b0 29 c9 61 3c c7 4c 06 bd 58 fd 91 3c d5 3e e7 3d
       0.0137808705 -0.032788064 0.017820999 0.11291281
0000c0 2e 68 06 be 19 4e 33 bd c0 bf 0f bb 62 23 1f 3d
       -0.13125679 -0.04377565 -0.002193436 0.038852103
0000d0 5d 54 ea 3d a0 3f d5 3c c6 2b c0 bd 01 96 12 3d
       0.11441872 0.026031315 -0.09383349 0.035787586
0000e0 8c f2 9c 3d cd fb af bd 89 19 92 bc c6 d5 7b 3d
       0.0766345 -0.08592949 -0.017834442 0.061483167
0000f0 59 9f 81 bd 44 2a 3a 3d 7d cc c8 bd 44 46 0b bc
       -0.06329221 0.045450464 -0.09804628 -0.008500639
000100 58 53 34 bd 68 b4 ad bd 67 e7 fa bc ab ad a9 3d
       -0.044024795 -0.084816754 -0.03062792 0.08285078
000110 5f dc 0b be d7 51 ce bd f2 13 6f bd 28 ed 83 bc
       -0.13658284 -0.100742035 -0.05836863 -0.016104296
000120 79 4c c4 3d e8 91 d6 bc 47 aa fa bd d4 fa c0 bd
       0.095848985 -0.02619262 -0.12239509 -0.09422842
000130 59 0c 65 bd c6 1f 29 3c ff 9f 03 3e 85 8b 22 bd
       -0.05591998 0.010322517 0.12854002 -0.039683837
000140 1d 14 d2 bd dc 87 43 bd 0a c1 76 3d 42 59 ee bd
       -0.102577426 -0.047736987 0.06024269 -0.11638118
000150 f0 0e 16 be ae f3 e9 bd c0 78 ad bd 6b 5c 5a bd
       -0.14654136 -0.11423431 -0.08470297 -0.053310793
000160 bc a3 42 3e 49 21 ac 3c 85 eb a3 bc 61 a6 a7 3d
       0.19007772 0.021011965 -0.020009765 0.08186031
000170 48 f2 62 bc 0f a6 73 3d e5 1e 14 bd ee 9f 72 3d
       -0.01385171 0.059484538 -0.036162276 0.059234552
000180 d4 69 48 3c 0a cf b5 3d 60 d5 49 bc 17 a7 31 3e
       0.012232263 0.0887738 -0.012318939 0.17348896
000190 f6 f2 a4 bd c4 b3 3e bd c6 b4 8e 3d b1 5e 40 3c
       -0.080541536 -0.046558157 0.069680735 0.011741326
0001a0 d9 e3 f8 3c ae ad 98 3d 72 ce 99 bd 0f 15 2c 3e
       0.030382084 0.07455002 -0.075100794 0.16804908
0001b0 94 21 9c bc 50 6a 7f 3d b5 e7 e9 3c 24 58 01 bc
       -0.01905898 0.062357247 0.02855287 -0.0078945495
0001c0 43 99 77 bc 50 27 a3 3d 26 85 a8 3d 18 cd 1e bd
       -0.015112224 0.07966483 0.08228521 -0.03876981
0001d0 2f 16 0a be 08 3b e1 3c 05 74 a4 bd 76 d8 56 3d
       -0.13485025 0.027493969 -0.080299415 0.052452527
0001e0 52 dd 9a bd 80 31 5d 3d 2a a5 a7 3c 61 e9 11 3d
       -0.07561745 0.054002285 0.020464499 0.035622958
0001f0 90 96 2c 3d 5a 44 a8 3d 84 b6 a7 bd 2c 88 c9 3c
       0.042135775 0.08216162 -0.08189109 0.024601065
000200 13 6a 9d bd 94 0e c4 bd 9d 57 de bd 35 9b 91 3c
       -0.07686248 -0.09573093 -0.10856555 0.017774204
000210 8c 8d 9d 3d df ad 80 bc 77 9b 0f 3d 98 72 84 3d
       0.076930135 -0.015707908 0.035060372 0.064671695
000220 4b 40 1d bd 38 45 0b 3d 79 51 60 bd 9e 80 d0 3d
       -0.038391393 0.03400156 -0.0547652 0.10180782
000230 cc 15 bd 3d de e0 fb bd 1b 4a 09 3e 71 29 64 3d
       0.09232673 -0.122987494 0.13407175 0.055703584
000240 c7 70 fc 3c c4 8c 81 bd 03 06 95 3d 23 fd 06 be
       0.030815495 -0.06325677 0.07276537 -0.13182501
000250 a5 c3 80 bd 3e 03 3a bd be 82 75 3d 9a 72 83 bd
       -0.06287316 -0.04541325 0.05993914 -0.06418343
000260 6f e8 ae bd d4 78 6b 3d ea 0b 80 3d 56 24 48 3a
       -0.08540427 0.057488278 0.062522724 0.0007634809
000270 0c 88 d9 bd 89 95 93 bd 4e d5 9c bd a2 63 63 bd
       -0.10621652 -0.07206256 -0.07657872 -0.05551494
000280 b7 fa 39 bc f4 fb 8f bc 1e f5 cc 3d 0d 27 05 bc
       -0.011351279 -0.017576195 0.1000769 -0.008126986
000290 8b 6f 0d bd a5 33 87 bd 55 95 2d bd a3 0e 33 bd
       -0.034530204 -0.06601647 -0.042378742 -0.04371513
0002a0 4c c1 dd 3c a2 04 05 3d 18 32 f2 3b fd ca dd 3c
       0.02706971 0.03247512 0.0073912255 0.027074331
0002b0 ae da 5d bd 53 15 6b bd 60 15 ed bd cf 19 78 3d
       -0.054163627 -0.057393383 -0.115763426 0.060571488
0002c0 75 e4 0b 3b d8 3f 2c 3d 23 8c 64 3d 20 ba ce bc
       0.0021345888 0.042053074 0.055797707 -0.025235236
0002d0 dc 82 16 be 8c e8 c2 bd 30 91 86 bd 96 15 d1 3d
       -0.14698356 -0.09517011 -0.06570661 0.10209195
0002e0 1d 8b c1 bd b9 5c a4 3d fa 7d 32 3c 4a f8 58 3d
       -0.09450362 0.08025498 0.010894293 0.052971162
0002f0 54 2e cf bc 15 09 ad bd ca 5d 58 bd 8b 86 ef 3d
       -0.025290646 -0.08448998 -0.05282382 0.11695584
000300 d4 36 4d 3d 72 d0 ab bb 3f 66 8c 3e 44 74 6a 3d
       0.050101116 -0.0052433545 0.27421758 0.057239786
000310 df c9 92 bd 0e 77 84 bc fe 58 1f bd 0b 8d 3c 3e
       -0.0716741 -0.016170051 -0.03890323 0.18413179
000320 ba 96 e7 3d 49 c0 b6 3d 92 03 0f bd dc c0 0a 3d
       0.11308046 0.08923394 -0.034915514 0.03387533
000330 4c a3 d4 3d ae 37 8b bd 31 7b 07 be cd b2 cc bb
       0.10382709 -0.067977294 -0.13230588 -0.0062469007
000340 74 c2 09 3e 56 55 4a 3d 0a dd a9 3d 5d df 6f bd
       0.13453084 0.04939779 0.08294113 -0.058562625
000350 3a d9 6f 3d cb ca 51 3d e5 6e 93 3c 5f 9b e9 bd
       0.058556773 0.05121879 0.017997215 -0.11406588
000360 f4 54 c8 bd 47 92 b4 bd 56 41 b9 bd 4b 48 f6 bc
       -0.097818285 -0.08816963 -0.09045665 -0.030063769
000370 0f f5 9e 3d 93 cb 73 3c 40 fa 74 3c b9 01 65 bd
       0.07761585 0.014880079 0.014952242 -0.055909846
000380 49 87 6d 3d 64 c6 4f bd 38 71 4f bd 98 ac fa 3c
       0.057990346 -0.05072631 -0.050645083 0.030599877
000390 87 72 fe 3c e5 51 2e bd 1f 32 cc bd 7d 0e 71 bd
       0.03106047 -0.04255857 -0.09970497 -0.058851708
0003a0 97 bd 2a 3d f5 e4 08 3d 97 bb 71 bd 52 75 b6 bd
       0.041684713 0.033421475 -0.05901679 -0.08909096
0003b0 d5 21 1f 3d 9e c0 79 3c 1f 8c 7c 3d 08 a1 11 bb
       0.038850624 0.015243677 0.061657067 -0.0022221226
0003c0 4c 1b 0f 3e 9f a3 d6 3b fe f2 90 bc 01 44 21 3d
       0.13975257 0.006550267 -0.017693993 0.039371494
0003d0 e3 b6 d2 bd bf 24 9d 3d b9 6a c5 3b b8 ef 31 3e
       -0.10288789 0.076730244 0.006024685 0.17376602
0003e0 d6 19 a0 3d dc 0e 63 3d ad b9 ae bc ad 11 7a bc
       0.07817428 0.055434093 -0.021328771 -0.015263003
0003f0 a4 9b 69 bd 6d bd a7 3d 35 3b cc bd 8a 16 f7 3c
       -0.057033196 0.08190427 -0.0997223 0.030162115

embedding.bias f4 [16]
000000 7f da 59 bd 85 1b cf bc bf 99 ba 3d 89 d5 90 bc
       -0.05318689 -0.025281677 0.09111356 -0.017679946
000010 09 f3 95 bd 2e ca 24 be 7d 49 26 bd 9b a4 63 3d
       -0.07321746 -0.1609275 -0.040597428 0.055576902
000020 6e 43 13 bd fe b4 80 bd b1 6f 90 bc 85 13 5a bd
       -0.035952978 -0.062845215 -0.017631384 -0.05324127
000030 b2 4a 17 3d b9 df bb bc 88 26 fc bd 02 3c 70 bd
       0.03693647 -0.022933828 -0.12312037 -0.058650978

convs.0.fc_full.weight f4 [32, 56]
000000 33 aa e4 bd 76 41 dd bd d3 9e cf 3d 4e d0 02 bd
       -0.111652754 -0.10803501 0.10137715 -0.031936936
000010 1a f2 fd 3c 46 00 d0 3d dc 03 d3 bd 24 1f a8 3d
       0.030999232 0.10156302 -0.103034705 0.082090646
000020 07 c5 7c 3d d6 b1 a3 bd 4e 64 89 bd f6 13 29 bd
       0.061711337 -0.07992904 -0.06708585 -0.0412788
000030 2e 38 ed bd 4c 29 f7 3c 99 1c 6a 3b 2d 4a 3c bd
       -0.11582981 0.03017106 0.0035722612 -0.045969177
000040 04 82 2a 3e dc d7 12 3c e0 2b dd 3d b8 2f c4 bd
       0.1665116 0.008962598 0.10799384 -0.09579414
000050 41 ad ea bd 92 55 ad 3d 25 1b bd bb 14 4b 13 3d
       -0.11458827 0.08463587 -0.005771058 0.035960272
000060 5f 5e 69 bc 10 d6 84 bd 13 47 1c 3e 9b c9 4a 3d
       -0.014243691 -0.06486142 0.15261488 0.049508672
000070 19 dd 88 bd f3 15 cd bd 80 aa 36 bc 9c 5d c0 bd
       -0.06682796 -0.10013952 -0.011149049 -0.093928546
000080 bf 1f 55 3e 51 e4 3c 3e 55 9f ee 3b a8 7f 3c be
       0.20812891 0.18446471 0.0072821775 -0.18408072
000090 22 c3 27 be ff bc e7 3b 04 b6 4c bd 4f 6d e2 bd
       -0.16383031 0.0070720906 -0.04997827 -0.11056005
0000a0 cd 7c f5 bd b1 c0 2b be 49 69 00 3e f3 c5 93 3d
       -0.119866945 -0.16772725 0.12540163 0.0721549
0000b0 13 d4 56 be d5 79 78 bd 1e 6e 79 bd 49 fe 39 3c
       -0.20979337 -0.060663063 -0.06089603 0.01135213
0000c0 63 48 b7 bd 51 76 88 bc 98 98 26 be 24 24 c7 3d
       -0.089493535 -0.01665798 -0.16269147 0.0972369
0000d0 dc 0f 74 bd 0f 09 87 be 18 ce 56 bd 71 46 6d 3d
       -0.059585437 -0.263741 -0.05244264 0.057928506
0000e0 7b ef b3 3d 09 41 97 bc 00 29 01 3c e2 3e 2c bd
       0.08785912 -0.018463628 0.00788331 -0.042052157
0000f0 b6 2d e6 bc 18 b0 10 3e da c5 8b 3d d8 e1 7a bd
       -0.028097969 0.14129674 0.068248466 -0.061250538
000100 06 43 6b bd c1 68 83 3c 7e c9 c9 bd 1f db 89 3d
       -0.057436965 0.016041161 -0.09852885 0.06731247
000110 ec f0 9f 3d 93 7f 0f 3e 18 6b 97 bc 20 92 7d bd
       0.07809624 0.1401351 -0.018483683 -0.061906934
000120 b5 47 13 be ec 88 80 be 1c 9a 03 bd 71 d6 e6 3a
       -0.14382823 -0.25104463 -0.032129392 0.0017611516
000130 cd da 7a bc a4 81 87 3b b9 c3 91 3d c1 02 11 3e
       -0.015310955 0.0041353274 0.07117409 0.14161207
000140 28 0a c5 3d da c4 e1 3d 12 9e 34 3d ce 94 0d bc
       0.09621078 0.110238746 0.04409606 -0.008641435
000150 06 1f a4 bc 4e e7 52 3c a8 d6 49 3e 7d d2 f8 3d
       -0.020034324 0.01287253 0.19710791 0.121495225
000160 a9 26 e5 bd ab 92 d6 bd 8c 4f b7 bd 61 0e 22 bd
       -0.111890145 -0.104771934 -0.08950719 -0.039564494
000170 a4 4c 8a bd 5d 4d 2c bc 3c 85 4c bd 1b 78 15 be
       -0.06752899 -0.010516492 -0.04993175 -0.14596598
000180 7b 16 50 3c 7b 08 26 bd 31 03 2a 3d 7f b7 34 bd
       0.012700672 -0.04053543 0.04150695 -0.044120308
000190 d3 04 4a bd 4e 10 bd 3c c8 79 29 3b 1d 3d 88 3d
       -0.049321007 0.023079064 0.002585994 0.066522814
0001a0 bc 34 13 3e 45 e2 30 bd 5f 81 2b bd 9f e8 2b 3d
       0.14375585 -0.043184537 -0.041871425 0.04196989
0001b0 eb 95 09 3e 13 f0 c1 3d 8c 31 a8 bd 44 00 0d bd
       0.13436095 0.09469619 -0.08212575 -0.03442408
0001c0 66 b4 4d bd 1f 35 60 3d 52 e5 71 bd 3d b2 d8 3d
       -0.05022087 0.05473816 -0.059056588 0.10580871
0001d0 b4 82 6f 3b 6b 2c b0 bd 23 5f 15 3d 61 ce 8a bd
       0.003654641 -0.08602222 0.036467683 -0.06777645
0001e0 6c 32 11 3e 7b ff e0 3c 7d 66 3a 3d 03 4a 4d bd
       0.1417939 0.027465573 0.045507897 -0.05011941
0001f0 47 96 3b bd 3d 72 bd 3d 7c 65 32 bd 0e 85 c1 bb
       -0.045797613 0.09250305 -0.043553814 -0.005905754
000200 85 89 05 3b a7 5e 04 3e e4 db d0 bd c3 49 44 bd
       0.0020376157 0.12926732 -0.10198191 -0.047921907
000210 33 c5 0a be 22 ba 8d bc 48 19 22 bc c6 3e 0c 3e
       -0.13551788 -0.01730067 -0.009893723 0.13695821
000220 b2 f5 ad 3d 2b 6d af bd 91 59 19 be 16 c1 82 bd
       0.08494128 -0.08565744 -0.14975573 -0.063844845
000230 73 b1 34 bd 71 c3 35 be 13 f3 0b be 3e ab a0 3c
       -0.04411454 -0.17750336 -0.13666944 0.019612905
000240 7e 9a 69 bc ec d9 00 3d 45 06 0a be 83 17 cf bd
       -0.014258025 0.031457826 -0.13478954 -0.101119064
000250 6c 5b 4d 3d 03 02 ba bd 7f a7 08 be 85 e5 c1 3d
       0.050136015 -0.09082415 -0.13345145 0.094676055
000260 59 e1 5f bd a6 81 87 3d 6c 79 ad 3d e7 48 f0 bb
       -0.054658268 0.06616525 0.08470425 -0.0073329094
000270 8f ab b2 3d 4f b2 68 bd 83 12 67 bd d3 21 4a 3d
       0.087241285 -0.056810673 -0.05641414 0.049348664
000280 62 47 87 bd 01 d5 af 3c c2 ef 07 be 3c bb 96 3a
       -0.06605412 0.021463873 -0.13275054 0.0011499892
000290 54 e1 f2 3d 60 70 8c bd f0 e0 2c 3e 2d 84 db 3d
       0.11859384 -0.06857371 0.16882682 0.1071857
0002a0 0d 98 0f 3d 6a df fd bc b8 9e 38 bd 9d fd ca 3d
       0.035057116 -0.030990321 -0.04507324 0.09911654
0002b0 18 1f bd bd 6a 53 f5 3a 50 37 54 bc 1b fa 24 bd
       -0.09234446 0.0018716876 -0.012952641 -0.04027758
0002c0 83 ba 07 bd f0 31 0b 3d 34 e8 ad 3d f6 f3 2e bb
       -0.033136856 0.03398317 0.08491555 -0.0026695705
0002d0 7b 07 d3 bd 8c 9d dc bd af 31 e1 3d 0a e0 0d be
       -0.10304161 -0.10772237 0.109958045 -0.13854995
0002e0 a3 54 e8 3d 00 45 21 3d 55 37 c2 3a 73 41 95 3d
       0.11344268 0.039372444 0.0014817516 0.07287874
0002f0 e8 66 f8 3d df a6 90 3c 41 23 8c bd b0 76 5d 3d
       0.12129003 0.017657695 -0.06842662 0.054068267
000300 2a 50 dd bd 00 1c 0f 3e 84 38 a5 3d 23 f6 b8 3d
       -0.10806306 0.13975525 0.0806742 0.09031322
000310 7e bc df bc fd 17 f1 3d 90 77 af bd dc 50 f5 39
       -0.02731156 0.117721535 -0.085677266 0.00046790286
000320 a7 cc 9b 3d 86 6d 7a 3a 86 36 a2 bd 93 3b 36 be
       0.07607394 0.00095530634 -0.07920556 -0.17796163
000330 91 73 e5 bb 2d 04 3c 3e db f7 0c 3e c4 02 b0 3d
       -0.007002302 0.18360968 0.13766424 0.085942775
000340 dd d9 c8 bd 6b ed 22 be 90 5a 3e 3e 78 00 52 bd
       -0.09807179 -0.1591088 0.18589234 -0.05126998
000350 dd 28 88 3d 17 72 2d be b5 aa 2c bd f3 d0 29 3e
       0.06648419 -0.16938053 -0.042154986 0.16583614
000360 c5 37 4e 3e b5 6b 0f 3d a6 9e 98 3c 49 22 dd bc
       0.20138462 0.035014827 0.018630337 -0.026993887
000370 24 f9 4d 3d d3 b7 ce 3d d8 9e 30 3d 03 e9 35 bb
       0.050286427 0.100936554 0.043120235 -0.0027757294
000380 8c da 16 bd b9 24 8a 3d 89 af b6 bb 4e f5 ae bd
       -0.036829516 0.067452855 -0.0055751246 -0.08542882
000390 b2 e5 c8 3a 62 69 0f be 80 0c 62 bc d7 ef b8 3c
       0.0015327244 -0.14005044 -0.013796926 0.022575302
0003a0 e1 2d 1a 3d ec 3f 83 bd 1e df 1a bd f7 c4 92 bd
       0.03764141 -0.064086765 -0.037810437 -0.07166474
0003b0 84 99 fc bd ff 8d 2a 3d b5 3f 36 3e 7f 8b d9 bc
       -0.12333968 0.041639324 0.1779774 -0.026555775
0003c0 d4 ca d8 bd f2 65 0f 3d 1b e6 6d 3d e5 5d c1 3d
       -0.105855614 0.035009332 0.058080774 0.09441737
0003d0 02 15 01 be b9 32 90 3e dd e7 60 bd 1d c4 d2 bc
       -0.1260567 0.28163698 -0.054908622 -0.02572828
0003e0 f9 59 85 be 2e 8e 16 be 6a 05 70 3e dd 13 a2 bc
       -0.26045206 -0.14702675 0.23439565 -0.019784862
0003f0 ad 18 c9 3d b0 29 83 3d 2f d1 6b 3d e7 15 e9 3b
       0.0981916 0.06404436 0.05757254 0.0071132067

convs.0.fc_full.bias f4 [32]
000000 40 4c ad 3d 4d 62 d7 3d bd d9 44 bc 53 06 03 3e
       0.08461809 0.10516796 -0.0120148035 0.12795381
000010 4f 2e 27 3a 97 61 be bd fc 20 e7 3c 91 ac be 3d
       0.0006377445 -0.092959575 0.02821397 0.09310258
000020 2b 0b 28 3d 0f 7e d4 bd 99 50 dc 3d 0a f1 1d 3e
       0.041026276 -0.10375606 0.1075756 0.1542398
000030 7e a1 ac bd f3 8b 40 3d 58 b4 16 3d e7 dd a3 3d
       -0.0842924 0.047008466 0.036793083 0.08001309
000040 15 d9 a3 bd b7 66 c4 bc 4c b9 a9 bb 06 a9 56 3d
       -0.080003895 -0.02397476 -0.00517956 0.052407287
000050 a5 2b 93 bc a7 b0 55 be 0a 88 b0 3c ac fc 50 3d
       -0.017965147 -0.20868169 0.021549243 0.051022217
000060 34 44 8d bc d6 b9 19 3c ac 32 b9 3d 8c db c3 3d
       -0.017244436 0.009382686 0.09042868 0.095633596
000070 d7 a9 e7 3d f1 2c 75 bd b1 43 6f 3d 18 5b 0a 3e
       0.11311691 -0.059857313 0.058414165 0.13511312

convs.0.bn1.weight f4 [32]
000000 47 01 94 3f 87 60 98 3f 37 c4 84 3f ed ea 88 3f
       1.156289 1.1904458 1.037238 1.0696694
000010 0f 37 8f 3f 24 e6 90 3f f5 92 83 3f 7c 1b 84 3f
       1.1188678 1.1320233 1.0279223 1.0320888
000020 59 ec 88 3f 10 35 7b 3f d5 db 8b 3f eb eb 95 3f
       1.0697128 0.9812784 1.0926462 1.1712621
000030 d9 89 8b 3f 72 a8 8c 3f 77 05 86 3f 16 b1 96 3f
       1.0901443 1.0988905 1.0470418 1.1772792
000040 47 40 76 3f ac de 7a 3f 99 d1 76 3f a8 87 7e 3f
       0.9619183 0.9799602 0.9641357 0.99425745
000050 32 bd 97 3f 48 a5 86 3f 9b 13 8b 3f 04 41 75 3f
       1.1854613 1.051919 1.0865358 0.9580233
000060 17 07 72 3f 24 bf 79 3f d5 84 71 3f 83 76 74 3f
       0.9454207 0.9755728 0.9434331 0.95493335
000070 01 5a 83 3f 30 7f 85 3f e2 ae 88 3f a5 5c 83 3f
       1.0261842 1.042944 1.067837 1.0262648

convs.0.bn1.bias f4 [32]
000000 3f ef 73 bc 57 0c 36 bc 19 e2 22 3c d3 de c1 3c
       -0.014888584 -0.0111113405 0.009941601 0.023665821
000010 08 07 3f be a6 92 6b 3d 3c e3 13 3b 87 0f 99 bc
       -0.18655026 0.0575129 0.0022565862 -0.018684162
000020 82 00 a2 3a 2b df 7f 3d 73 14 f3 bc 3e 01 14 bc
       0.001235977 0.06246869 -0.029672837 -0.009033499
000030 ca 3c 9a bc 1a 9c 43 bc 6b 8c c2 bd 14 52 50 bc
       -0.018827815 -0.011939073 -0.09499439 -0.012714881
000040 2e 25 c3 ba b8 80 29 3d 6d ab 9b 3d 1e b3 cb 3d
       -0.00148884 0.04138252 0.07601056 0.09946273
000050 c9 73 44 be c9 76 2a bd e9 f0 73 bd 84 d4 8a 3d
       -0.19184794 -0.04161719 -0.05955592 0.067788154
000060 9c 99 aa 3d 02 eb 50 3d 94 82 85 3d 5b c7 82 3d
       0.0833008 0.05100537 0.065190464 0.0638568
000070 82 c8 8b bd 43 6a f8 bc 81 53 c8 bd c1 42 ae bd
       -0.06825353 -0.030324107 -0.09781552 -0.08508826

convs.0.bn1.running_mean f4 [32]
000000 e9 a0 e5 be d7 ad 0d bf ac f4 a8 be fa 5e 71 3e
       -0.44849327 -0.55343384 -0.3299917 0.23571387
000010 d9 b7 5d bf 32 ef 11 3f 78 96 00 bf 5c 44 2a bf
       -0.86608654 0.5700561 -0.502296 -0.6651056
000020 4e ec c9 be c3 64 4d bf 04 8a 0b bd 60 25 8b 3e
       -0.394381 -0.80231875 -0.03406717 0.27176952
000030 ce 5e a5 3e 42 d3 3d bf e3 a8 97 bd 4e bd f3 3c
       0.32298893 -0.7415048 -0.074052595 0.029753353
000040 44 60 d0 be 7e cd 69 bf 34 ac a0 be 9d 1f a6 be
       -0.40698445 -0.9132918 -0.3138138 -0.32445994
000050 c5 ca 48 bf 95 47 37 bf 8a ec 9d bf 6b 4a f8 3e
       -0.784344 -0.715936 -1.2337811 0.48494276
000060 b6 b1 f8 be ba ef 9b bf a0 f5 9d be 0e 01 20 be
       -0.48573083 -1.2182534 -0.3085146 -0.15625402
000070 63 7f a3 3e fe 20 68 bf dd c9 43 be c4 e1 8a bd
       0.31933126 -0.9067534 -0.19119973 -0.067813426

convs.0.bn1.running_var f4 [32]
000000 2f a5 11 3c bc e1 26 3c 79 7a 42 3c 4b 83 f0 3c
       0.0088894805 0.010185655 0.01187002 0.02935948
000010 7b 5a 59 3c 27 b1 ca 3c c6 e2 18 3c 9a 38 28 3c
       0.013266201 0.024742676 0.009331411 0.010267401
000020 c4 ce 4e 3c f3 c9 8e 3c 9e 15 3f 3c d8 ad 15 3c
       0.012622539 0.017430281 0.011662869 0.009135686
000030 02 37 6a 3c c7 13 08 3c a1 e4 96 3c ca 83 14 3c
       0.014295341 0.008305497 0.018419566 0.009064624
000040 b1 08 2d 3c 81 ff 99 3c e1 10 4e 3c f9 2b 5b 3c
       0.010561154 0.018798592 0.012577266 0.013377183
000050 af 5f 26 3d 33 80 b5 3c 3f 91 3a 3c 32 fa c7 3c
       0.040618595 0.022155857 0.011387168 0.024411295
000060 00 e9 e0 3c 92 ce 83 3c 7d a7 2e 3c 68 e4 5f 3c
       0.027454853 0.016089711 0.0106600495 0.013665296
000070 24 09 73 3c b5 c7 0e 3c cb 92 9f 3c 60 e6 ca 3c
       0.014833722 0.008714606 0.019479176 0.024768054

convs.0.bn2.weight f4 [16]
000000 2a d7 82 3f 58 26 86 3f 45 b0 89 3f 8a d0 7c 3f
       1.0221913 1.0480452 1.0756918 0.98755705
000010 22 c3 82 3f eb 64 78 3f 35 5a 82 3f d0 26 7d 3f
       1.02158 0.9702899 1.0183779 0.9888735
000020 4b f4 78 3f 28 81 7a 3f 49 df 7d 3f 5f 05 85 3f
       0.9724776 0.97853327 0.9916883 1.0392264
000030 a0 0a 88 3f 7a 7a 8b 3f 2b 80 79 3f b5 40 94 3f
       1.0628242 1.0896752 0.97461194 1.1582247

convs.0.bn2.bias f4 [16]
000000 f9 5a 95 bd 04 6e ae 3c 4a 72 2a 3d 59 5a da bb
       -0.07292742 0.021292694 0.0416129 -0.0066636023
000010 c4 8f 99 bd c2 7f 55 be e4 b8 76 3d 61 2c e6 3c
       -0.07498124 -0.20849517 0.06023492 0.028097333
000020 3f 6d a8 bb a2 f0 d9 3c 63 85 34 bb 7b b1 3d 3d
       -0.0051399763 0.026604 -0.0027545325 0.046311837
000030 f2 86 4e 3d 02 40 ad 3b 40 b9 ec bc e2 81 8f 3c
       0.050421663 0.0052871713 -0.028896928 0.017517988

convs.0.bn2.running_mean f4 [16]
000000 82 42 86 40 d7 f8 96 40 24 c1 a7 40 f3 fc 99 40
       4.1956186 4.717876 5.2423267 4.8121276
000010 4f 0e a3 40 d4 b0 91 40 5a aa 91 40 12 a6 94 40
       5.0954967 4.5528355 4.552045 4.6452723
000020 b5 62 a2 40 54 24 ad 40 60 67 8f 40 40 8f 98 40
       5.074549 5.4106846 4.481369 4.7674866
000030 a3 7a 9c 40 a6 2a a1 40 3a 2e ab 40 dc 11 9a 40
       4.8899703 5.036456 5.349393 4.81468

convs.0.bn2.running_var f4 [16]
000000 7a 77 9d 40 40 ea bb 40 f8 df 9a 40 12 11 5c 40
       4.9208345 5.872345 4.83984 3.438542
000010 6c 22 ad 40 d8 57 17 40 e2 6d 82 40 9b df 9a 40
       5.410452 2.3647366 4.0759134 4.8397956
000020 ba 69 3b 40 8f bb 14 41 6e 20 3b 40 45 b5 dd 40
       2.928328 9.295791 2.9238544 6.9283776
000030 bc a5 c7 40 08 a0 af 40 dd cb 52 41 f0 8d 5e 40
       6.2389812 5.488285 13.174771 3.4774132

convs.1.fc_full.weight f4 [32, 56]
000000 4b fd 51 3c e7 7e da bd 7a 0c 7c bd c8 9a 51 3d
       0.012816737 -0.10668736 -0.061535336 0.051173
000010 b1 53 8e bd 68 42 b3 3c 96 4a 21 3d 25 51 59 bd
       -0.069495566 0.02188225 0.03937777 -0.0530559
000020 40 62 17 bc 76 8e 13 3e e4 0c f0 3d 65 1c 92 3d
       -0.009239733 0.14409813 0.11721209 0.07134322
000030 99 6c 73 bc 26 5a 42 3d 52 d2 31 be b3 7b 19 3e
       -0.014857435 0.047449253 -0.17365387 0.14988594
000040 d7 6f 8a 3d 4a c5 22 be a1 be 15 be b0 89 81 bb
       0.06759613 -0.15895572 -0.146235 -0.003953181
000050 b3 a9 57 bd 09 c4 fb 3d 2d 6b 33 bd a0 8b b7 bd
       -0.052652072 0.1229325 -0.043803383 -0.08962178
000060 e6 02 05 bd 35 f6 21 bd 6b 75 40 bd c1 1b 5c 3d
       -0.032473467 -0.039541442 -0.04698698 0.053737406
000070 0b 0a fa bd 67 69 09 bd bb 42 b2 3d fd de 16 bd
       -0.12208947 -0.033547785 0.08704134 -0.036833752
000080 65 48 09 3d 67 bf 39 3e 2a c4 35 bd fc 12 f4 bc
       0.033516306 0.1813942 -0.04437653 -0.029794209
000090 25 9f 3e be b9 74 1d 3e e4 9d 7a 3c 94 52 a7 bd
       -0.18615396 0.15376557 0.015296433 -0.081700474
0000a0 54 c7 41 be b4 53 2d 3d 6a 5d 38 bd 9c 6b 88 bc
       -0.18923694 0.042316154 -0.04501096 -0.016652875
0000b0 bf 46 0e be a8 4d 10 bd 1a 31 0c be 2c 3f 42 bd
       -0.13894175 -0.03523031 -0.13690606 -0.047423527
0000c0 0c b2 60 3d 0c 32 57 bd 59 dc c1 3b c2 8a c9 bd
       0.0548573 -0.052537963 0.00591616 -0.09840919
0000d0 c4 cd a1 bc 09 27 20 be ec 47 e3 b9 e5 f7 ad bd
       -0.019751437 -0.1563989 -0.000433504 -0.08494548
0000e0 9d c5 8e 3d 73 65 16 be 05 30 05 be f6 e0 e4 bd
       0.069712855 -0.14687137 -0.13006599 -0.111757204
0000f0 fa 61 05 bd 7f 9b 21 3c 12 33 21 3c 2e 5a f0 3d
       -0.03256414 0.009863733 0.009838836 0.117359504
000100 71 a7 43 3d ef ae 82 3b 7f 95 2e 3d b3 21 9b 3c
       0.047767106 0.003988139 0.04262304 0.018936967
000110 bd 1c 84 bd 0f e2 a1 bd 2b a3 28 bc e3 11 ac bd
       -0.06450794 -0.079044454 -0.0102928085 -0.08401849
000120 07 0c 86 bc 6f 27 3b 3d 2c e0 d1 3c 7c f2 f6 3d
       -0.016363157 0.045691904 0.025619589 0.12057969
000130 a8 31 a6 3d b1 c6 47 3e eb 7c d1 3d 80 d0 98 3c
       0.0811494 0.19509389 0.10228904 0.018654108
000140 d8 f1 28 be d8 75 00 3d 0c 69 db 3d ee 9e 8a bd
       -0.16498506 0.031362385 0.107133955 -0.06768595
000150 05 8a c2 3d ca 6e 68 3d 0b bf 53 bc c4 72 38 3c
       0.094989814 0.05674628 -0.012923966 0.011257831
000160 89 c9 92 bd ad 87 a7 3d 14 b4 aa 3c 2c a8 cd bb
       -0.07167346 0.08180175 0.020837821 -0.006276151
000170 58 0b 00 3e c8 d8 0a 3d 45 7e 87 bd 06 b8 44 3c
       0.12504327 0.033898145 -0.06615881 0.012006765
000180 d0 3e 5a 3d 11 f4 0d be a5 9a dd bc 22 65 61 bd
       0.05328256 -0.13862635 -0.02705128 -0.05502809
000190 d7 21 26 3e e5 37 8b bd 0e 8d a5 bd 60 9d 93 bc
       0.16223846 -0.067977704 -0.08083545 -0.018019378
0001a0 6b fc 87 bd 74 53 e4 3d 3d 06 c8 bb 1a 82 91 3d
       -0.06639942 0.1114873 -0.0061042593 0.07104893
0001b0 2e 0a 0d 3e a1 16 50 3c df 22 f0 3c fb dd 1e 3e
       0.13773414 0.012700708 0.029313503 0.15514366
0001c0 ee dc ce bc ed cc 95 3a da 6d c8 bd 3a 52 0b 3e
       -0.025251832 0.001142887 -0.097865775 0.13605586
0001d0 c6 53 f7 bd fd 97 f8 bc 42 8f 0e be 56 7a 3c bd
       -0.120765254 -0.030345911 -0.13921836 -0.046015106
0001e0 88 41 94 3c 6e 67 a6 3c 07 9e bc bd 05 5b a3 bd
       0.018097654 0.020312991 -0.09209829 -0.07976345
0001f0 b0 72 13 be 6e 9b 63 bb 0e 69 31 bd 9a 01 85 3d
       -0.14399219 -0.0034730094 -0.04331308 0.06494446
000200 27 eb 87 3d 34 ad 3f 3d 9c 88 cd bd 48 87 b1 3d
       0.066366486 0.04679604 -0.10035822 0.08668381
000210 72 84 a1 bd 2e dd 98 3d 8f 4e 2a bd 65 2f 14 3e
       -0.0788659 0.07464062 -0.041578826 0.14471205
000220 e2 32 c7 bd 7a ad 57 3d e3 5b 89 bd 33 ed e8 bd
       -0.09726502 0.052655675 -0.06706979 -0.11373367
000230 5c e0 c4 bb 42 6f 0d 3d b9 93 e2 3d d2 fa 34 be
       -0.006008191 0.03452993 0.11063332 -0.17673805
000240 55 69 06 be 69 b0 a6 bc d5 6b 14 bd e5 08 06 be
       -0.13126118 -0.02034779 -0.03623565 -0.1308933
000250 84 20 07 3e ab 2c 76 bd b5 f6 3f bd 37 4c 62 3c
       0.13195997 -0.060101192 -0.046866138 0.013812116
000260 37 85 2c 3d e5 e2 9d bd 2c ac f1 3c 79 a8 b0 3c
       0.04211923 -0.07709292 0.029501043 0.021564709
000270 74 94 b0 3d 45 26 38 3d 88 6c be bd 57 ec 18 be
       0.08622065 0.04495837 -0.092980444 -0.14933906
000280 9a f2 2a bd ca 34 18 3d 6a 47 9f 3d b7 1e 91 bd
       -0.04173527 0.03715972 0.07777293 -0.070859365
000290 45 b0 02 bd b4 d3 c7 3c 41 55 6c bd a4 33 23 bd
       -0.031906385 0.02439294 -0.057698492 -0.03984417
0002a0 ee 3b 3e 3d 9f 0b 5e bd 6e 17 bc bd 1b 0c 3b be
       0.046443872 -0.0542103 -0.09184156 -0.18266337
0002b0 18 68 96 bb 75 5f 21 3e 5f dc 9f 3d a4 95 a7 3d
       -0.0045900457 0.1575907 0.07805704 0.081828386
0002c0 84 07 a3 3d 18 52 a3 3d 0e 5c 86 bc 7a b4 13 bc
       0.07960418 0.079746425 -0.016401317 -0.009015197
0002d0 95 14 30 3d ad eb 2d bd eb 7f ca 3d ed 14 c5 bb
       0.04298838 -0.042461086 0.0988768 -0.0060144574
0002e0 72 c7 1b be a8 3a 86 3d d4 59 29 3e 70 52 f4 3d
       -0.15212801 0.065541565 0.16538173 0.11929786
0002f0 d8 bb 3f 3e 8e fd b3 bd f8 72 85 3d 5d db b8 ba
       0.18724 -0.08788596 0.06516069 -0.0014103461
000300 20 7c 21 bc 47 15 3f bd 18 dd 43 bd f7 4d 0e 3e
       -0.009856254 -0.04665115 -0.047818273 0.13896929
000310 ff 35 5f bd 88 18 87 3d 85 ae dd bd 9d cb a9 3c
       -0.054494854 0.06596476 -0.108243026 0.020726973
000320 fb f5 b2 bd 47 d6 1c be 37 bc 00 be ff 0c c1 bd
       -0.08738323 -0.15316115 -0.12571798 -0.09426307
000330 2e 00 5c 3d e5 ed e9 bd d1 66 a9 bd c3 56 a6 bd
       0.05371111 -0.11422328 -0.08271564 -0.08122017
000340 9f e6 90 3c 54 fc d1 3d b1 43 ad bc a5 ff 93 3c
       0.017688094 0.10253206 -0.021150442 0.018066237
000350 f9 b8 18 3d 24 ef 82 bd d4 56 21 3e 68 50 5b bd
       0.03728578 -0.06393269 0.15755779 -0.05354348
000360 b3 05 de 3d 3e b3 4b 3d 97 74 c0 bc 18 5a e8 3d
       0.10840931 0.049731486 -0.023493094 0.11345309
000370 19 e1 d9 3d 3e b2 49 bd aa 29 42 be 71 54 d2 39
       0.10638637 -0.04924225 -0.18961206 0.00040117235
000380 0b 23 f0 3c 80 8c 05 3c 5d cb b9 bd dc 9f 12 3d
       0.029313585 0.008151174 -0.090719916 0.035796985
000390 d4 98 51 bd ba c9 40 bb 79 3b b6 3b 68 67 19 3d
       -0.05117114 -0.0029417113 0.005561289 0.03745213
0003a0 f0 cd 69 bd 81 01 46 3d 15 9a b4 bd 11 b8 bd bd
       -0.057081163 0.048341278 -0.08818451 -0.092636235
0003b0 6e 45 bf 3d f9 5c 81 3d 20 d8 f5 3d a6 80 02 bd
       0.093394145 0.06316561 0.12004113 -0.03186097
0003c0 be b5 09 be 57 24 38 3e 88 b2 b9 bd ab 4b f5 3d
       -0.13448235 0.17982613 -0.09067255 0.11977323
0003d0 31 1a b3 bd c0 96 be bc 3e 0b 5b 3e e3 be e1 3d
       -0.0874523 -0.023265243 0.21391007 0.11022737
0003e0 0a 2a 8f 3d 14 2f e2 3d 26 99 05 be a8 ff 47 39
       0.0699044 0.11044136 -0.13046703 0.00019073358
0003f0 52 ef a8 3d 22 ca 87 3d 90 91 60 3d 04 08 f6 3d
       0.08248772 0.06630351 0.05482632 0.120132476

convs.1.fc_full.bias f4 [32]
000000 76 ad 6b 3d 1a ff dc bd e0 c8 93 bd a3 14 8e 3d
       0.057538472 -0.10790844 -0.07216048 0.0693753
000010 41 a1 e3 3d bd b0 0b 3e 05 f8 9e 3d 6f 71 d9 3d
       0.11114741 0.13641639 0.0776215 0.10617339
000020 39 28 8e 3d 3d 5b 39 be 38 17 36 3e ef 15 ad bd
       0.069412656 -0.18101211 0.17782295 -0.08451449
000030 33 c6 78 3d e7 02 1a bd 5d f6 af 3c 8d b5 d9 bd
       0.060735893 -0.037600424 0.02147978 -0.10630331
000040 78 fb 04 3d 8c bd c3 bc 37 42 f0 bc 00 64 4d 3e
       0.03246638 -0.023894094 -0.029328449 0.20057678
000050 b4 33 27 bd 13 79 dc 3d ec 24 f9 3c 71 62 d0 bd
       -0.040820792 0.107652806 0.030413114 -0.10175026
000060 a1 d1 17 bb 4e fd 75 3c 11 1a bb bd 3f 3b 3f bb
       -0.002316572 0.015014006 -0.09135831 -0.00291796
000070 c7 8e b3 bd 04 b8 d8 3d ff ad b9 bd ee cb a5 bd
       -0.08767467 0.10581973 -0.0906639 -0.08095537

convs.1.bn1.weight f4 [32]
000000 4a 7b 90 3f f8 bf b4 3f 96 d9 88 3f 5b 4d a8 3f
       1.1287625 1.4121084 1.0691402 1.3148607
000010 4a 89 8b 3f 19 f4 9f 3f 4e 20 c5 3f 3f d8 9f 3f
       1.0901272 1.2496368 1.5400484 1.2487868
000020 cd a1 9a 3f 84 9e 9a 3f 4f 66 8c 3f 95 ac 9d 3f
       1.2080628 1.2079625 1.0968722 1.2318293
000030 25 ce 88 3f 85 3e 88 3f 20 be b2 3f 46 12 8b 3f
       1.068791 1.064408 1.3964272 1.0864952
000040 22 5d 93 3f d4 01 8d 3f 3f 8a 81 3f 1b e7 8b 3f
       1.1512797 1.1016183 1.0120314 1.0929903
000050 4d 2d 83 3f 5d 75 92 3f c0 f4 8a 3f f0 4b 69 3f
       1.02482 1.1442066 1.0855942 0.91131496
000060 7b b1 7c 3f f0 d6 83 3f 15 d5 89 3f 90 ea 8b 3f
       0.98708314 1.0299969 1.0768152 1.0930958
000070 93 f4 84 3f bc 64 92 3f f8 95 8d 3f d5 42 94 3f
       1.0387138 1.1436992 1.1061392 1.1582896

convs.1.bn1.bias f4 [32]
000000 bd 13 e2 3d 70 57 09 bd bc b5 27 3d 6c 65 17 bd
       0.11038921 -0.033530653 0.0409448 -0.036961958
000010 58 b7 39 bd c9 99 e1 bd fa 58 12 bd 87 8a 42 3c
       -0.045340866 -0.1101566 -0.035729386 0.011873848
000020 e3 8f 36 3c 63 c0 96 3d 78 ef bf 3c 99 21 2d bc
       0.011142704 0.073609136 0.023429617 -0.010567092
000030 d1 c8 07 bc 49 9a 05 be 12 46 1d bd d8 b9 81 3d
       -0.008287624 -0.13047136 -0.038396902 0.06334275
000040 a4 b8 79 bc 21 a6 ff 3b 85 c4 51 3d 55 a5 70 bd
       -0.015241776 0.0078017865 0.051212806 -0.058751423
000050 1b 98 e1 bc 01 c7 3d be 19 76 2f be 1f c5 9c 3d
       -0.02753835 -0.18532945 -0.17134894 0.07654785
000060 e6 ee 1c 3d 58 40 a1 3d ec 70 36 ba a4 cc 87 bd
       0.03831377 0.07873601 -0.00069595757 -0.06630829
000070 80 6b 00 bd 9e fe a5 be cf c0 0b be e9 b6 90 bc
       -0.03135252 -0.3242082 -0.1364777 -0.017665343

convs.1.bn1.running_mean f4 [32]
000000 2d 78 42 bf 07 ae 08 3e 80 b1 60 bf 56 b3 2f 3e
       -0.75964624 0.13347636 -0.87770844 0.17158255
000010 be 62 2e bd de 3f be 3e bd 0b e7 be 52 3f a6 3f
       -0.042574637 0.37158102 -0.45126143 1.2988074
000020 40 45 98 3e 90 1c 1d 3e c0 37 ae be b1 b1 15 3f
       0.29740334 0.15342927 -0.3402691 0.5847426
000030 4d d1 83 be fc 9c 9a be 61 e5 bf bf 95 57 9d 3d
       -0.2574562 -0.30197895 -1.4991876 0.076827206
000040 f2 79 3c 3e a7 b7 48 be f6 9d c7 3e 65 1f 81 3e
       0.18405893 -0.19601308 0.38987702 0.25219265
000050 88 e3 9d 3f 5e 56 80 bd bc 1d ae be 2d bb 28 bf
       1.2335062 -0.06266473 -0.3400706 -0.6591061
000060 30 7e ac 3d 2e 7e 0a bf cc 20 0c 3f 01 e7 2d bf
       0.08422506 -0.54098785 0.54737544 -0.6793061
000070 4c ff 0b 3f e0 aa cb be 3d d9 91 be ea ad 5d 3e
       0.5468643 -0.39778805 -0.28486052 0.21648374

convs.1.bn1.running_var f4 [32]
000000 39 d9 6e 3d cc 7a 77 3d 51 76 a4 3d 6c 0d 1a 3d
       0.05831263 0.060419843 0.080303796 0.037610456
000010 8c d3 87 3d a3 ad d2 3d 2a 8d 7e 3d a5 cd af 3d
       0.06632146 0.10287025 0.062146343 0.085841455
000020 8f 34 29 3d f4 b0 a7 3d 05 90 88 3d d4 ec 94 3d
       0.04130989 0.08188048 0.066680945 0.07271734
000030 42 06 60 3d 79 c0 bc 3d c3 9e e3 3d 73 0b 88 3d
       0.054693468 0.09216399 0.11114266 0.06642809
000040 eb 58 9e 3d 2e a1 35 3d 6c 9f fc 3d cf 0c a6 3d
       0.077318035 0.044343166 0.12335095 0.08107912
000050 5e 4b 13 3e bd a2 24 3e 06 4b ab 3d 7d da d4 3d
       0.14384219 0.16077705 0.08363919 0.10393236
000060 5d a8 16 3e 03 9c d2 3d e9 1c 99 3d 0a f6 c8 3d
       0.14712663 0.10283663 0.07476217 0.09812553
000070 b8 f3 46 3d f1 2d 67 3d 65 8f d7 3d 1a 46 80 3d
       0.048572272 0.056440298 0.10525397 0.06263371

convs.1.bn2.weight f4 [16]
000000 c7 06 8b 3f c2 33 72 3f c9 59 81 3f dd 2b 7a 3f
       1.0861443 0.94610226 1.0105525 0.9772318
000010 20 bc 82 3f 31 57 86 3f ce 60 8d 3f ef 51 6e 3f
       1.0213661 1.0495359 1.1045167 0.9309377
000020 0a 43 80 3f 84 38 82 3f e5 b2 85 3f f9 7d 86 3f
       1.0020459 1.0173497 1.0445219 1.0507194
000030 7f e0 6b 3f 61 30 82 3f d9 16 8b 3f e1 1e 98 3f
       0.9213943 1.0171014 1.0866348 1.1884423

convs.1.bn2.bias f4 [16]
000000 35 5b 1d bc d5 97 b8 3b 28 72 4b 3d da a0 0e bd
       -0.009604265 0.005633334 0.049669415 -0.03482137
000010 a0 c4 0a bd 10 83 dc bd 8a 9a cf 3c 05 49 50 bd
       -0.033878922 -0.10767186 0.025342245 -0.050850887
000020 82 92 76 3c 3c 51 28 3b f6 30 00 3d 46 a7 b2 39
       0.015049579 0.0025683185 0.031296693 0.00034075434
000030 ba e3 d0 bc b4 57 a4 bc dc 76 60 3d e1 3b ee 3c
       -0.025499213 -0.020061351 0.054800853 0.029081287

convs.1.bn2.running_mean f4 [16]
000000 ab 49 99 40 f0 6d 8c 40 52 50 8d 40 45 d6 9e 40
       4.7902427 4.38842 4.4160547 4.963656
000010 0d 4e 95 40 53 eb 7e 40 38 18 8c 40 6a 30 94 40
       4.6657777 3.983113 4.3779564 4.63091
000020 66 b1 93 40 67 fe b6 40 e2 3b 9f 40 5a 21 93 40
       4.615405 5.718555 4.97606 4.597821
000030 91 04 9b 40 8f fd 84 40 9b be 95 40 5f e4 a7 40
       4.8443074 4.155952 4.6795173 5.2466273

convs.1.bn2.running_var f4 [16]
000000 84 7c 54 41 e3 33 0e 41 4e a3 2c 40 5a 58 19 41
       13.280399 8.887668 2.6974673 9.58407
000010 93 6b 69 40 24 d0 a4 40 ca 95 b4 40 ff 2e a3 40
       3.6471908 5.150408 5.643285 5.099487
000020 c8 99 9b 40 ef 84 4b 41 f5 7e 33 41 88 e8 c3 40
       4.862522 12.7199545 11.218495 6.122135
000030 95 78 53 41 f9 39 f7 40 18 d8 f8 40 9c 66 35 41
       13.216939 7.7258267 7.7763786 11.337551

convs.2.fc_full.weight f4 [32, 56]
000000 84 3b 55 bd 15 34 8e bd 02 ae fe bb ba b0 28 bd
       -0.05205871 -0.069435276 -0.007772208 -0.041184165
000010 ee 7d c9 bc 6d e9 0a bd 21 eb d8 bd 2d 5b 0e 3e
       -0.02459618 -0.03391402 -0.10591722 0.13901968
000020 59 6f e2 3c a7 2c b1 3d a5 5e 62 3d ec 66 14 bd
       0.027640985 0.08651095 0.05526604 -0.036230966
000030 c1 d0 8f bc a3 f1 3b bc 65 13 65 3d 54 5c 8e 3d
       -0.017555596 -0.011471185 0.0559267 0.06951204
000040 7d 37 9a 3d cf 1f 8c bd 23 cc 67 3d 71 fe a3 bd
       0.07530115 -0.068420045 0.056591164 -0.08007515
000050 d0 59 0d 3e ff d1 97 3d d2 67 a4 bd 33 1e d0 3d
       0.13803792 0.074131005 -0.08027615 0.1016201
000060 03 7e f1 3d 7f af 66 bd 24 52 24 3e c7 f1 17 bc
       0.11791613 -0.05631971 0.16046959 -0.009273953
000070 48 e5 b4 bd b3 ff 82 bd f4 d2 67 bd 55 46 57 3d
       -0.088327944 -0.06396427 -0.056597665 0.05255731
000080 0a 25 56 3e cf 36 28 3c a5 48 3a be de c1 15 be
       0.20912567 0.010266974 -0.18191774 -0.14624736
000090 26 e7 06 be 9e 1e 04 3e 10 2d a8 3c 82 c6 03 be
       -0.13174114 0.12902305 0.0205293 -0.12868693
0000a0 f3 f6 82 bc d4 36 14 bd eb 39 19 bc 71 3b ec bc
       -0.015986895 -0.0361851 -0.009352188 -0.028836938
0000b0 c2 3e 2d be 05 c0 b5 bd 01 dc 48 be d9 b9 0f 3e
       -0.16918471 -0.088745154 -0.19615175 0.14035739
0000c0 28 89 4d 3d 15 a1 17 3e f5 98 94 3d 53 14 0f 3e
       0.05017963 0.14807542 0.07255737 0.13972597
0000d0 11 c9 b6 3d 90 cf 12 3d 6f 33 a0 3c 55 f3 5f 3e
       0.08925069 0.03584248 0.019555775 0.21870168
0000e0 4c 01 47 bd ed ad 49 3c e6 5a 0b 3d 9e d2 b5 bd
       -0.04858522 0.012309534 0.034022234 -0.08878063
0000f0 eb f7 1d bc a4 71 c2 bd 5f dc a5 bc a2 03 e1 bd
       -0.009641628 -0.094943315 -0.020246683 -0.10987021
000100 45 50 6f 3d 48 5e 49 be 78 67 af 3d 4c 0e f2 bd
       0.05842616 -0.19664872 0.08564657 -0.11819133
000110 a3 97 9c bb e7 e1 a2 3c c0 ac 8d 3d f9 25 95 bc
       -0.0047788187 0.01988311 0.06917715 -0.018206583
000120 63 75 fc bd 98 f8 15 3d d8 e0 e8 bd 5f 5b b5 3d
       -0.12327077 0.03661403 -0.113710105 0.08855318
000130 36 55 59 be 44 4e 52 bc b9 df 07 be b6 dc af 3d
       -0.21223912 -0.012836043 -0.13268937 0.08587019
000140 a7 d9 f6 bc d2 e8 5c bd 77 16 b5 bd df 54 87 bd
       -0.030133082 -0.053932972 -0.088421755 -0.06607985
000150 eb 3b 03 be c2 8a b0 bd 89 23 75 bd 0e 97 9f bd
       -0.12815826 -0.08620216 -0.059848342 -0.07792483
000160 7e 44 01 be 09 89 65 bd 19 d2 8d be 1b 31 53 3d
       -0.12623784 -0.05603889 -0.27699354 0.051560502
000170 1a b9 31 be 44 9f a5 bd 76 de 7d 3d 9a 1e 60 be
       -0.17355767 -0.08087018 0.061979733 -0.21886674
000180 a4 a5 8e bd 8c 65 2d be 1f 10 8d bd 7d d2 34 bb
       -0.06965187 -0.16933268 -0.068878405 -0.002759128
000190 50 d5 a8 be ca c5 3a be 23 75 e2 bd 01 79 72 bb
       -0.32975245 -0.18239513 -0.11057498 -0.0036998393
0001a0 68 14 b7 bd d2 6a cf 3c 55 fc a7 3c 0a f2 b4 bd
       -0.08939439 0.02531949 0.020506063 -0.08835228
0001b0 e6 80 a3 3d 75 50 0f 3e c5 05 b1 3c 3d 85 9d bd
       0.0798357 0.13995536 0.021609196 -0.07691429
0001c0 5b 46 80 3d 67 03 16 bd 83 db b6 bb fe 2d b0 bd
       0.06263419 -0.03662434 -0.005580367 -0.08602522
0001d0 2b 51 a6 3d 06 28 d9 3c 99 82 b8 3d 46 47 01 be
       0.0812095 0.026508342 0.090092845 -0.12624845
0001e0 08 88 5e 3d b0 f6 52 bc 00 31 3b 3d cf e6 a9 3d
       0.05432895 -0.012876198 0.045701027 0.08295976
0001f0 17 d0 df bd 6d 08 0a be ac 50 41 be 42 52 73 3c
       -0.10928362 -0.13479777 -0.1887843 0.014851155
000200 f1 67 30 3d 44 31 3d 3e d5 08 13 3e 83 64 c1 bd
       0.043067876 0.18475825 0.14358838 -0.09442999
000210 cb 78 d9 bd 65 95 fc 3d 7c 99 32 bd 73 02 ac 3d
       -0.106187426 0.12333182 -0.043603405 0.08398905
000220 3b d1 e0 bd 0e 68 2b 3e eb 93 56 bd a3 46 60 bd
       -0.109774075 0.16738912 -0.05238716 -0.054754864
000230 f5 d6 19 bd d4 22 1b be 01 30 cf bd 11 a3 20 3d
       -0.037558515 -0.15150005 -0.10116578 0.039218012
000240 1d 4c 0c 3e 7d 04 79 bd 9c 80 ee bc 7d 5b 68 bc
       0.1370091 -0.060795296 -0.02911406 -0.014181969
000250 70 e5 37 be 8c ab 43 3e a9 55 17 3e 95 b6 da bd
       -0.17958617 0.19108409 0.1477877 -0.10679356
000260 b9 f1 b7 bd bd d2 3b bd fd 45 ec 3d 2b bd 97 3d
       -0.08981652 -0.045855273 0.11536787 0.07409128
000270 81 3f 11 be de 7a c9 3b e0 d2 39 bd 20 82 bd 3c
       -0.14184381 0.00614868 -0.04536712 0.023133337
000280 dc 26 63 bc 0e 4d e3 bc 3f bf c4 3b ae 17 a0 3d
       -0.013864245 -0.027746703 0.0060042436 0.078170165
000290 3a 59 a7 3d c4 13 47 bd c4 0c 64 bd 97 a9 e6 3d
       0.081713155 -0.048602834 -0.055676237 0.112628154
0002a0 15 cb 02 3d 5a 75 10 3e 61 fd a9 3d a2 56 3b bc
       0.031931955 0.14107266 0.08300281 -0.011434229
0002b0 34 d8 7e bc 45 9e 57 3e dd 7c 58 3d c4 7d fa bd
       -0.0155544765 0.21056469 0.052853454 -0.12231019
0002c0 d5 3a 83 3d d5 93 cd bd b5 7d d9 bc 83 e4 2c 3b
       0.06407706 -0.10037962 -0.0265492 0.002638132
0002d0 94 46 ca 3d 16 c8 bf bc 07 bc a8 3d 67 9b 3a bc
       0.09876743 -0.023410838 0.08238988 -0.01138959
0002e0 d6 cc 3c 3d 58 ef 88 3e 62 00 82 bd 1d 83 ff 3d
       0.046093784 0.26745105 -0.06347729 0.1247618
0002f0 50 d2 2d bd 51 03 0d 3e 3a 3b a4 bd 2d e8 13 3d
       -0.042436898 0.13770796 -0.08019109 0.036110092
000300 a5 22 c5 3d c6 7c 8d bd 4e 28 91 3d 99 a7 f5 bd
       0.096257485 -0.06908564 0.07087766 -0.11994857
000310 12 be b5 bb 93 f8 23 be bd a3 96 3d 05 2e 4c bd
       -0.00554634 -0.16012792 0.07355449 -0.049848575
000320 41 c5 36 be bf 99 92 bd 00 e7 13 be ba 03 96 bd
       -0.17848684 -0.07158231 -0.14443588 -0.073249295
000330 08 59 1a 3e 25 8b e5 bd 50 17 30 bd 35 7e c2 bd
       0.15073025 -0.1120818 -0.042990983 -0.09496728
000340 ce b2 22 3d 26 fb b9 bd 83 27 9e bd 66 61 0d 3d
       0.039721303 -0.09081106 -0.0772238 0.034516715
000350 15 10 c3 bd 23 af 89 3b 15 e1 39 3d 60 d8 8f 3d
       -0.09524552 0.004201786 0.04538067 0.07023692
000360 23 4f 4c 3d c3 67 e6 bc cb ab f8 3c f0 63 54 bd
       0.04988016 -0.02812565 0.030355355 -0.05185312
000370 9f 69 18 bc 17 f6 5a 3b 43 f7 a4 3c 44 09 45 ba
       -0.009302526 0.003341084 0.020137435 -0.00075163343
000380 30 27 43 3d 55 3a cd 3d b7 b8 c7 3c 67 bb e0 bd
       0.047644794 0.100208916 0.024380071 -0.10973244
000390 9a 94 b7 3d 88 21 5c bd ec 43 c7 bb df d1 30 be
       0.089638904 -0.053742915 -0.006081095 -0.1726756
0003a0 6f 1f ba 3d 56 b8 cb bd 29 39 24 be d9 f9 7c 3e
       0.09088027 -0.09947269 -0.1603743 0.24704684
0003b0 38 d1 28 bd 04 de 8c bc a7 ee a6 bd 52 20 5a 3c
       -0.04121515 -0.017195709 -0.08150988 0.01331337
0003c0 5b 4b b3 bd f9 73 8d bd 5a 28 08 be 14 1a db bc
       -0.08754607 -0.06906886 -0.13296643 -0.026745833
0003d0 f8 dd d8 bd 60 b1 00 bc f5 4b 79 bd 2c 47 88 bd
       -0.10589212 -0.0078547895 -0.060863454 -0.066542
0003e0 38 b6 3e bd 73 fe 61 bc a8 ed 73 bc df e2 17 bd
       -0.046560496 -0.013793576 -0.014888205 -0.037081596
0003f0 24 d9 63 3d 87 b2 32 be a5 4f 34 3d 22 1f 16 be
       0.055627003 -0.17450915 0.044021267 -0.14660314

convs.2.fc_full.bias f4 [32]
000000 a7 84 72 3b c8 b8 40 3e fd 95 93 bd d1 4c 06 be
       0.0037005336 0.18820488 -0.07206342 -0.1311524
000010 d4 fa 1d 3d 6b 43 cb 3d e2 08 95 3d 7d 19 f3 3d
       0.038569286 0.09924968 0.07277085 0.11870096
000020 bd ab d7 bd 68 51 4d bd ab c3 93 3d 50 c8 ea bc
       -0.10530803 -0.050126463 0.07215055 -0.02865997
000030 10 12 96 bd 49 e7 99 bd 7f 4d ac bd cd b8 fd 3d
       -0.07327664 -0.07514817 -0.08413219 0.123887636
000040 34 ca f3 3a 74 af 83 bb 9e 75 7a 3d fc 78 71 3d
       0.001859969 -0.0040187184 0.061147325 0.05895327
000050 c5 64 ca bd 95 55 b5 bd 71 ad 83 3c 22 4c c2 bd
       -0.098825015 -0.08854214 0.016073914 -0.094871774
000060 3e e1 8f 3d a9 32 3f be 29 1b 03 3e 5b c8 82 bd
       0.070253834 -0.18671669 0.1280333 -0.06385871
000070 79 79 0a 3e be 0c 2f bd bc 4e ef bd 4d ca 2a 3d
       0.135229 -0.04273676 -0.11684939 0.041696835

convs.2.bn1.weight f4 [32]
000000 15 56 95 3f 19 90 8e 3f 56 05 a2 3f 79 f7 ab 3f
       1.1666895 1.1137725 1.2657878 1.3434898
000010 7e ba 98 3f 91 b5 97 3f 79 1a 8c 3f 94 5b 9f 3f
       1.1931913 1.1852285 1.0945579 1.2449822
000020 26 e0 b5 3f 68 4f 9b 3f 5e 64 93 3f 75 37 8e 3f
       1.420903 1.2133608 1.1515005 1.1110674
000030 b7 15 a6 3f 61 7f 9a 3f 91 5d 95 3f 62 78 a5 3f
       1.2975377 1.2070123 1.1669179 1.2927363
000040 2e e0 87 3f 2e 4c 91 3f ad 13 8c 3f 6f 1e 8d 3f
       1.0615289 1.1351373 1.0943505 1.1024913
000050 3b ae 8a 3f 9e 90 88 3f 49 7d 99 3f 97 f4 87 3f
       1.0834421 1.0669134 1.1991359 1.0621518
000060 e6 1d 8a 3f 57 34 81 3f 4d 22 80 3f c3 d5 8d 3f
       1.0790374 1.0094098 1.0010468 1.108086
000070 f8 29 86 3f 2e ef 87 3f 1a 8a 83 3f a1 c8 79 3f
       1.0481558 1.0619867 1.027652 0.9757176

convs.2.bn1.bias f4 [32]
000000 dd 33 a4 3a 75 1f 28 bb d7 6b 8a bd 47 e7 7d bd
       0.0012527663 -0.0025653515 -0.0675885 -0.06198814
000010 1b 0c 90 bc 34 b3 d4 3b 8f db 5b 3c 20 c4 8a bb
       -0.017583897 0.0064910892 0.013419046 -0.0042348057
000020 3e 7a b0 bd bd d2 ab 3a df e6 f2 bc 17 62 16 be
       -0.08617066 0.001310907 -0.029651104 -0.14685856
000030 0b 1f 90 bd 36 3a 2d 3d 2c 69 47 bd ea 3a 28 be
       -0.07037171 0.042291842 -0.048684284 -0.16428724
000040 3a d6 a9 bd 2f 0e c2 bd b1 2d 11 be 44 d2 e2 bd
       -0.082928136 -0.094753616 -0.14177586 -0.11075261
000050 db e3 07 bd 30 b4 3a bd 3a e8 12 be ab 7a cd 3c
       -0.033176284 -0.045581996 -0.143464 0.025082907
000060 bf a7 a1 bd 58 d2 24 bd 5b 0a e9 3c 68 cc 97 bd
       -0.07893323 -0.040239662 0.02844732 -0.07412034
000070 49 47 03 bd 4c f4 db bd ca 20 99 bd 34 33 8f 3c
       -0.032050405 -0.10739955 -0.07476957 0.01748047

convs.2.bn1.running_mean f4 [32]
000000 01 52 f0 bd dc 7f 53 c0 cc d5 c3 be d2 0c cd 3d
       -0.11734391 -3.304679 -0.38249052 0.10012211
000010 57 1f 76 bf 1c 6a e0 bf ed 1e 89 bf 55 39 08 c0
       -0.9614157 -1.7532382 -1.0712563 -2.1284993
000020 0c 5d 3d bf c5 1e 61 bf 42 65 22 bf eb 0f d6 be
       -0.73970103 -0.87937576 -0.6343576 -0.4180902
000030 93 33 8b 3f 15 86 88 3e 4b fb a5 bf 31 c1 87 3e
       1.0875114 0.26664796 -1.2967314 0.2651458
000040 f2 0b 1d 3d 21 ea e9 be bd 10 4a bf b1 53 d8 bf
       0.03834147 -0.4568644 -0.7893179 -1.690054
000050 95 ea 0f be b0 f7 a6 bf e0 7e 4e bf d3 2e c1 bf
       -0.1405433 -1.3044338 -0.80662346 -1.5092415
000060 d9 69 97 3e af 7f cc bf df 5c 1c 3e 39 fb b6 3e
       0.29572943 -1.5976466 0.15269803 0.35738543
000070 b6 ca 2d 3f 3e 55 56 be d6 50 3d 3e b5 69 4f 3e
       0.6788744 -0.20930955 0.18487868 0.20255168

convs.2.bn1.running_var f4 [32]
000000 5c 21 4b 3e a3 43 21 3e 43 4c 5a 3e 59 f4 7c 3e
       0.19836944 0.15748458 0.21318154 0.24702586
000010 d5 86 9c 3e d9 de a5 3e 7e 5d 2a 3e a5 29 e2 3d
       0.3057162 0.32396582 0.16637227 0.11043099
000020 28 0b 3a 3e 97 b3 50 3e 3b 28 08 3e a6 8c 34 3e
       0.18168318 0.20381008 0.13296597 0.17631778
000030 c3 51 a3 3e d7 fa 87 3e ef 6f 5f 3e 50 ca 82 3e
       0.31898317 0.26558563 0.21820043 0.25544977
000040 98 3f 89 3e b9 ee 21 3e ee c3 1e 3e 53 47 92 3e
       0.2680633 0.15813722 0.15504429 0.2857004
000050 b1 59 f2 3d b9 67 66 3e 5b 13 18 3e 84 8a 6a 3e
       0.118335135 0.22500505 0.14851134 0.22904402
000060 71 66 c1 3e b9 aa 8e 3e f4 d9 57 3e 03 1c 24 3e
       0.3777347 0.27864626 0.21079236 0.1602631
000070 e7 48 64 3e a0 18 0f 3e f6 fa 22 3e 2d 3a 40 3e
       0.22293435 0.13974237 0.15916047 0.18772192

convs.2.bn2.weight f4 [16]
000000 80 67 83 3f d0 ef 8b 3f 76 9c 95 3f d9 7a 8a 3f
       1.0265961 1.093256 1.1688373 1.081874
000010 79 d6 88 3f 5e f4 8c 3f ea fd 93 3f 09 87 84 3f
       1.0690452 1.1012075 1.1561863 1.035371
000020 9e 64 8f 3f b5 f7 80 3f 76 a2 88 3f 76 77 8d 3f
       1.1202581 1.0075594 1.0674579 1.1052082
000030 97 c9 88 3f fb 41 8f 3f 41 b6 8a 3f 5d 8f 94 3f
       1.068652 1.1192011 1.083687 1.1606251

convs.2.bn2.bias f4 [16]
000000 26 50 f8 3c 19 1f 2f 3c a3 fa 65 3d 9c 7d 1b ba
       0.030311655 0.010688567 0.05614723 -0.0005931498
000010 58 4f 55 ba 25 1a 26 bd f2 de 0f 3d 9e 49 b7 bc
       -0.00081371283 -0.040552277 0.035124727 -0.02237397
000020 b6 69 18 3d fb 4a 66 3d a6 49 40 3d 05 7e 2d 3d
       0.03721019 0.05622385 0.046945237 0.04235651
000030 9d 2c 04 bc bb de c1 3c 70 a9 75 3d 4f ce 02 3d
       -0.008067277 0.023665776 0.05997604 0.031935032

convs.2.bn2.running_mean f4 [16]
000000 9e 31 a2 40 a9 eb 8f 40 0b 31 86 40 dd 1e 7f 40
       5.068557 4.497517 4.1934867 3.9862587
000010 a7 28 90 40 1e 21 9b 40 08 a2 8f 40 8a 7c 9a 40
       4.5049624 4.8477926 4.488529 4.8277025
000020 3a a2 97 40 c2 07 ab 40 f1 96 99 40 53 80 92 40
       4.738553 5.344697 4.7996755 4.5781646
000030 f8 cb 9c 40 45 dc a5 40 c3 d3 a1 40 b1 9d a2 40
       4.8998985 5.1831384 5.0571 5.0817494

convs.2.bn2.running_var f4 [16]
000000 58 7b f9 40 76 59 e3 40 7f 7c e6 40 78 11 96 40
       7.7963066 7.1046705 7.2026973 4.6896324
000010 99 8b 14 41 27 d3 be 40 49 ab e2 40 84 74 74 41
       9.284081 5.9632754 7.083409 15.278446
000020 18 4e 41 41 79 ec 63 41 9e 5a 41 41 67 1f 17 41
       12.081566 14.245233 12.084623 9.445167
000030 f7 91 2b 41 d3 b9 5f 41 79 1f 5c 41 b7 87 45 41
       10.723136 13.982867 13.757684 12.3456335
