cgcnndefect/pretrain_formation_dropout/model_best.pth.tar (torch, 208623 bytes, 121 tensors)

embedding.weight f4 [16, 92]
000000 77 13 32 bf db 92 bb 3e c5 03 80 3d aa ac 69 bf
       -0.6956095 0.3663548 0.06250719 -0.9127909
000010 d1 88 43 bf cd 46 21 c0 bb 51 1d c0 f5 aa 92 3e
       -0.7638064 -2.5199463 -2.4581134 0.28646055
000020 8a ec 63 3b d2 36 59 3e dd 38 f4 3d 69 24 8e 3f
       0.003477844 0.21212319 0.11924908 1.1104861
000030 06 fc b6 3f 3b 06 0b 3f 39 4a 7d be af 9b 7c bd
       1.4295661 0.5430638 -0.24735345 -0.06167191
000040 29 01 54 3e df 21 6d 3e 96 b0 51 40 78 67 f3 bc
       0.20703568 0.23157452 3.276403 -0.029712424
000050 9d 79 15 bf 3d 95 fc be 56 fc b4 3d 9b 0c dd 3e
       -0.5838869 -0.4933261 0.08837192 0.4317368
000060 22 10 9d 3f 50 67 3f 3f 89 1f 42 be 73 15 26 bf
       1.2270548 0.7476702 -0.18957342 -0.6487648
000070 b8 77 40 be 8f 6e 5f 3c 9a 23 c8 3e a8 8f 04 3f
       -0.18795669 0.013637199 0.39089662 0.517817
000080 cb ab 22 be 6b 93 83 3f e7 f5 3d be b3 d1 0a be
       -0.15885846 1.0279363 -0.18550836 -0.13556556
000090 bb 05 39 bd 0f 94 f5 bd 88 a9 81 be 38 1a aa 3e
       -0.04517148 -0.119911306 -0.25324655 0.33223128
0000a0 de 8f 14 3d 9f e6 3a 3f e4 8d 38 bf b7 bb f1 3e
       0.036270015 0.7300815 -0.7209151 0.47213528
0000b0 63 b8 8c 3e 7b 5f 92 be 27 9e c0 3e 76 07 dd be
       0.27484426 -0.2858847 0.3762066 -0.43169755
0000c0 5c c8 85 3e a3 1a 00 bf 6a 44 56 bf 70 6c c4 3c
       0.26129425 -0.50040644 -0.8369814 0.023977488
0000d0 5d 02 8e 3e 9a fe 01 3f a1 45 82 3e ce 83 a0 3f
       0.27736178 0.50779116 0.25443748 1.2540224
0000e0 97 40 93 3f f0 75 31 3f 8a 64 b6 be 9d 0a e0 3c
       1.1504086 0.69320583 -0.3562358 0.02734881
0000f0 d0 47 02 bf f7 b9 be 3e 79 92 a5 3e 91 3a 74 3e
       -0.5089083 0.37251255 0.32338312 0.23850466
000100 d5 a3 da 3c 2f 3b 51 bd 8a 70 82 3b aa 99 bc bf
       0.02668945 -0.051081832 0.003980701 -1.4734395
000110 67 95 55 3e fb 04 cd 3d b1 2f 88 3e 0f 7f 1c bd
       0.20857774 0.100107156 0.26598886 -0.03820711
000120 6e d1 f6 bd 2c c2 85 3f 4a e3 ae 3e da 98 ae be
       -0.12051664 1.0449882 0.34157783 -0.3410099
000130 2d f9 a9 3c 38 7a a0 3d d1 1f 95 3e 97 66 a8 3e
       0.0207487 0.078358114 0.29125836 0.3289077
000140 e8 79 1e bf 69 29 1a bf fa 21 eb be b5 34 9f bf
       -0.61904764 -0.60219437 -0.4592436 -1.243796
000150 92 2c d0 3d 99 92 59 bd f0 eb f3 3e 69 90 b9 3e
       0.10164751 -0.053118322 0.47640944 0.3624299
000160 eb 34 d5 3f e4 76 04 be 77 48 23 bc bd b5 71 3e
       1.6656774 -0.12935978 -0.009966007 0.23604484
000170 31 ed b6 bd ee 5b 6f be 9d da 10 bf da 1e be 3e
       -0.089319594 -0.23374912 -0.5658358 0.37132913
000180 21 b7 92 3a 2f c6 e0 3e de f7 08 be 3b 2b 1a bf
       0.0011193493 0.43901202 -0.13375804 -0.60222214
000190 82 e7 00 bf 30 30 22 bf 90 7e 9c bf 1f 5c 8a bf
       -0.5035325 -0.6335478 -1.2226124 -1.0809363
0001a0 9b 26 b2 bc 27 8a e7 3b d2 bd dd 3e 61 bb f9 3e
       -0.021746924 0.0070660296 0.43308884 0.4877577
0001b0 31 9e 89 3e 7e 47 ec 3e c4 1b 55 c0 e9 1c 41 3e
       0.26878503 0.46148294 -3.3298197 0.18858685
0001c0 37 c9 75 bf d6 5a 08 3f cf cf 9f bc f8 2b c9 3e
       -0.96010154 0.53263605 -0.01950827 0.39291358
0001d0 3e f2 e0 3d 6b 5d e0 3e 28 c0 6f 3f a8 9d 3e 3d
       0.10983704 0.43821272 0.9365258 0.04653707
0001e0 8f 9a 81 3e c0 2d ce 3e b7 e3 a2 3e 6c 52 98 bc
       0.2531323 0.4026928 0.31814358 -0.01859399
0001f0 75 ba fc 3f c9 7e f9 be b9 f6 01 bf 37 c9 04 bf
       1.9744402 -0.48729542 -0.50767094 -0.5186953
000200 d7 d4 b8 3d 53 04 5c bf cb 18 13 bf 2e cd c1 3e
       0.09024971 -0.859441 -0.57459706 0.37851852
000210 b5 e9 00 3f ae 14 e4 bc 3f c7 9f 3e 38 ba 11 3f
       0.5035661 -0.027841892 0.312067 0.5692477
000220 29 57 04 3e 5c 27 aa 3f 03 d6 80 be ee 45 b4 be
       0.12923874 1.3293262 -0.25163278 -0.35209602
000230 a3 eb 75 3e 15 4c f3 3e a4 b8 3a 3f a7 98 66 3e
       0.2401567 0.47518983 0.7293799 0.2251917
000240 f4 74 eb 3d ce 3e 70 bf c6 ff 21 bf 56 21 0d bf
       0.114969164 -0.9384583 -0.63280904 -0.5512899
000250 57 a2 8d bf 20 d3 32 bf 08 e1 52 3f 6f 2f 3b be
       -1.1065167 -0.698534 0.8237462 -0.18279813
000260 a1 0a b3 be 22 a1 1b 3f 8b 35 70 3f ac a1 94 3e
       -0.34969047 0.60792744 0.938317 0.29029596
000270 2b e2 4d bf 7f ab 0c bf 6c 8f b4 bc 7d 44 82 be
       -0.8042323 -0.5494918 -0.022041045 -0.25442877
000280 68 f6 49 3e 00 b1 a7 bc a1 c1 85 bf 35 5c b8 bd
       0.19722903 -0.020470142 -1.0449716 -0.09001962
000290 6b 9d 64 3d 1b a4 19 bf ac 9f 8c be 42 dc 90 3f
       0.055814188 -0.6001603 -0.2746557 1.1317217
0002a0 ea 2d c0 bd 84 a9 e0 3e 8f 71 c8 be 43 71 5f 3f
       -0.093837574 0.4387933 -0.39149138 0.872822
0002b0 58 d4 62 bf c9 39 01 be 2e 51 25 bc 3a 96 a0 3e
       -0.8860526 -0.126197 -0.0100901555 0.31364614
0002c0 42 04 12 bf 0f fe 3f bf cf bd c6 bd 65 71 98 3d
       -0.57037747 -0.7499704 -0.09704172 0.07443503
0002d0 4b 69 9b 3e 99 eb 2d 3f b7 d2 eb be 48 37 47 3f
       0.3035377 0.6793762 -0.460592 0.7781873
0002e0 a7 cd 92 3d c8 8d fd be d0 82 f5 bc 46 29 29 3e
       0.07168131 -0.49522233 -0.029969603 0.16519651
0002f0 0f 1d 56 3f 0e f1 4f 3f 57 9c 06 be b9 10 a8 3d
       0.8363809 0.81227195 -0.13145576 0.082063146
000300 c7 1a f9 3e 87 e6 89 be cc 1e 14 c0 b7 e0 8d bf
       0.48653242 -0.2693369 -2.3143797 -1.1084203
000310 46 66 d0 3e 60 87 a1 3d 25 cb 58 be 8b 64 e2 be
       0.40703028 0.07887149 -0.21171243 -0.44217333
000320 86 9b c0 3d b6 27 ce 3e 71 5a ee bf 89 15 03 bf
       0.09404664 0.40264672 -1.862135 -0.51204735
000330 ce 9e ba 3d 21 0d 60 3f 2f 51 ae bf 0c 90 f6 be
       0.09112321 0.87520033 -1.3618525 -0.48156774
000340 1d 1c 9c bd 55 43 10 40 70 49 4f 3f 36 7c 8c 3f
       -0.0762255 2.2541096 0.8097143 1.0975406
000350 db c6 f4 3c 14 e0 64 3d 40 db 8a 3e a5 1f 6a bf
       0.029879978 0.05587776 0.271204 -0.91454536
000360 a6 c2 40 3d 12 60 95 3d 9f 62 60 be 47 18 b4 3d
       0.04706063 0.072937146 -0.21912621 0.08793693
000370 3b 5b e5 be db 59 23 be 46 0a 84 3e 05 c1 38 3f
       -0.44796166 -0.15952246 0.25789088 0.72169524
000380 c2 95 fd be ae 65 d8 be 3f cb a2 3e 61 3d c9 be
       -0.4952832 -0.42265075 0.3179569 -0.3930464
000390 9c 89 7d 3d af f7 f2 3e 28 e9 07 bf 17 a3 a0 3d
       0.061898813 0.47454593 -0.53090143 0.07843607
0003a0 08 c0 53 3e d6 c1 fc 3e 5b 17 bd 3d cb f9 6b bd
       0.20678723 0.49366635 0.0923297 -0.057611268
0003b0 96 36 66 3e 1e 2c 88 3e 81 e7 a2 be c4 13 d0 3e
       0.2248176 0.2659616 -0.31817248 0.4064008
0003c0 17 20 82 bf 15 13 df bf ba e4 46 3f 5c 6b cb be
       -1.0166043 -1.7427698 0.7769276 -0.39730346
0003d0 5b e5 b3 3e 33 8f cf bc ae 5b 95 3e cf fc 8e be
       0.35135922 -0.025336837 0.2917151 -0.27927253
0003e0 36 16 9a be 76 89 1e 3e bb e8 60 bd cb 9e 9d 3b
       -0.3009507 0.15482125 -0.05490945 0.0048101894
0003f0 62 34 56 bf ae a9 f9 bc 56 0c 64 3d 60 ef 1d bd
       -0.8367368 -0.030476417 0.055675827 -0.038558364

embedding.bias f4 [16]
000000 54 6a db 3d 41 31 30 be eb c1 73 be e3 25 9f be
       0.1071364 -0.17206289 -0.23804443 -0.31083593
000010 4b e3 83 be 87 81 76 be 73 6d 2e 3f 12 e6 ed be
       -0.25759348 -0.24072848 0.68135756 -0.46464592
000020 93 55 26 be 16 1a 2c be a6 4c bc 3e 21 7d 1a be
       -0.16243581 -0.16806826 0.36777228 -0.15086795
000030 55 48 d2 3d a9 26 12 3e cb 16 28 3f 8b 23 cd 3e
       0.102677025 0.1427256 0.6565978 0.4006618

convs.0.fc_full.weight f4 [32, 56]
000000 49 f4 8b be cd 6a 80 3e 93 67 a0 3e f5 5d 11 3f
       -0.27334812 0.25081483 0.3132902 0.5678399
000010 2e de 32 3f 90 8e 5c bf 4c 49 de 3e 0d 30 45 bf
       0.6987027 -0.86155033 0.43415296 -0.77026445
000020 9c 34 ed 3e 00 5f ec bd 5d 26 44 3e 80 ec c3 3d
       0.463292 -0.11541557 0.1915526 0.09566593
000030 2d 25 21 3f 75 c4 5f bf 6c de 28 3f 62 9d fd 3e
       0.6294735 -0.87409145 0.6596439 0.49534136
000040 2d 5c 90 bf 11 c9 bd 3d 3f e0 a1 be bc d1 c3 3f
       -1.127813 0.09266866 -0.316164 1.5298381
000050 f3 11 df bd 52 b5 9d ba f9 04 da be 05 39 3b 3f
       -0.108920954 -0.0012032187 -0.4258192 0.7313388
000060 59 a9 03 3e c3 27 9c 3e 37 84 45 3e 7f 2a 08 bf
       0.1285757 0.30499086 0.19288717 -0.53189844
000070 5d 18 f9 bd 68 38 1d be 09 ad 1d bd b4 49 bd be
       -0.1216285 -0.15353549 -0.038495097 -0.36970294
000080 9e 86 af 3f 26 de 07 40 a5 fc 19 40 b0 5c 2c 3d
       1.3712957 2.1229339 2.4060452 0.04208058
000090 32 e0 35 be 2a 42 ae 3f 1c f0 f4 3f c4 ce 1a 40
       -0.17761305 1.3613942 1.9135776 2.41887
0000a0 c3 a1 90 3d d4 f3 ad be a4 ae a9 3f 29 32 00 40
       0.070621036 -0.3397509 1.3256421 2.0030615
0000b0 de 3e 24 40 c4 30 92 3d b2 02 ac be de f4 6a 3f
       2.566337 0.071382076 -0.33595806 0.9177989
0000c0 9a 9b f5 3f 66 f0 3f 40 72 cd 5f 40 37 72 6e 40
       1.9188111 2.9990478 3.4969144 3.7257211
0000d0 3c cb e0 3f 76 80 0d c0 99 e8 11 c0 0e c5 e6 bf
       1.7562022 -2.2109656 -2.2798216 -1.8028886
0000e0 7d b1 d8 be 75 0b d7 bd 04 18 bd be e5 ec f9 bd
       -0.42322913 -0.10500232 -0.36932385 -0.12203387
0000f0 b1 b9 46 bf cd 39 37 bf 41 f5 9b bd a9 1e 81 3f
       -0.7762709 -0.7157257 -0.07615138 1.0087482
000100 69 3b 95 3f 6a 04 6f be 53 f7 23 3f 8f 58 82 bf
       1.1658756 -0.23341528 0.6404926 -1.0183276
000110 fd bf 9f be da 9b be bf 30 dc db ba a7 fd 3a bf
       -0.31201163 -1.4891312 -0.0016773995 -0.7304329
000120 26 f5 12 bf 70 d2 52 be be 68 99 3f d5 dc 9b bd
       -0.57405317 -0.20588088 1.198509 -0.0761048
000130 f1 5a 37 bf 97 6f 4e 3f 45 3d 26 3f f4 e7 95 be
       -0.7162314 0.8063902 0.6493724 -0.2927853
000140 42 7e ab bd b0 93 e5 3e 73 60 40 bf f6 e9 d4 bf
       -0.08373691 0.4483924 -0.7514717 -1.6633899
000150 c5 5e 55 3f 25 18 15 bf 9f fd 46 bf 2c 86 40 bf
       0.8334773 -0.58239967 -0.77730745 -0.7520473
000160 fa 31 be 3f 90 7a ad 3f 7c 4b a7 3f 7f e1 12 bf
       1.4859002 1.3553028 1.3069911 -0.5737533
000170 18 ce 9d bf 05 87 be 3f 18 fa b0 3f ee 92 b1 3f
       -1.232852 1.4884955 1.3826323 1.3872964
000180 d1 fd 1c bf 60 07 a5 bf 86 57 b1 3f b5 e1 c9 3f
       -0.61324793 -1.2892876 1.3854835 1.5772005
000190 ff f4 b8 3f c7 5f 38 bf ce ee a0 bf 6c 53 0e 3e
       1.4449767 -0.72021145 -1.2572877 0.1389901
0001a0 78 aa e8 3e 82 9d a4 3f 4a db 25 40 8b a0 ae c0
       0.45442557 1.2860568 2.5915093 -5.4570975
0001b0 83 7a 53 c0 59 9a 92 3f 14 60 95 3f b1 cc 87 be
       -3.3043525 1.1453353 1.1669946 -0.26523355
0001c0 f2 a9 72 3e f1 d3 37 bf 9c dc 1d be 7c 17 de 3e
       0.23697641 -0.7180777 -0.15416187 0.43377292
0001d0 8e d7 83 3f 82 c8 79 3e 54 a2 cf 3e 00 0e bd be
       1.0300157 0.24392894 0.40553534 -0.36924744
0001e0 6f 99 93 3e 6e 33 33 bf df b5 aa be 09 12 c1 be
       0.28827998 -0.7000035 -0.33341882 -0.37709072
0001f0 1d cc 4d 3f 87 cb 1b be 60 23 59 bf 84 3e fc 3e
       0.8038958 -0.15214358 -0.848196 0.49266446
000200 06 4c c9 bf c2 e3 97 3f da 88 9f bf 93 8a 5e bf
       -1.5726326 1.1866381 -1.2463639 -0.869302
000210 13 36 29 3f b1 a1 1d bf 4b 9e 4b bf 90 27 c8 3e
       0.66098136 -0.61574847 -0.7953841 0.39092684
000220 57 50 25 3f 63 24 df 3f 2d b6 08 bf fe 84 92 be
       0.64575714 1.7432979 -0.5340298 -0.2861709
000230 9e 4d 04 bf 7d fe db bd 87 4e 13 3f b9 92 1e bf
       -0.51680934 -0.10741899 0.575417 -0.6194263
000240 f7 27 bf bf 7f 81 a4 bf 5b a1 8a 3f 53 aa f6 3f
       -1.4934071 -1.2852019 1.0830492 1.9270729
000250 64 7b 01 40 94 f9 be bf 56 ac 98 bf f5 8d 99 3f
       2.0231562 -1.4919915 -1.1927593 1.1996447
000260 38 a3 07 40 c9 3f e8 3f 7c d7 da bf 99 57 b7 bf
       2.119337 1.8144466 -1.7097011 -1.4323608
000270 aa c5 a3 3f 51 15 01 40 2e 54 ee 3f 2a d5 fd be
       1.2794697 2.016926 1.861944 -0.49576694
000280 9f 0c 29 bf dc 9f 62 bf ae 68 55 bf c4 eb 32 c0
       -0.66034883 -0.88525176 -0.83362854 -2.79564
000290 33 ca 2f c0 80 54 85 bf 2b 40 8e bf 71 12 fc bf
       -2.7467163 -1.0416412 -1.1113333 -1.9693128
0002a0 ce dc af bc d5 19 8e bf ed 10 e4 be 2c f2 13 3e
       -0.021467593 -1.1101633 -0.44544163 0.1444785
0002b0 ec 8a 43 3e a8 cf b6 3e 9d 5b 67 3d c8 5e 1f 3f
       0.19095963 0.35705304 0.056483854 0.62254
0002c0 94 1f 30 3f f2 fe 78 3c ca d9 3f bc 4d 6f a6 be
       0.68798184 0.015197502 -0.01170964 -0.3250679
0002d0 03 9a c4 bf 0f bd f0 bc 3a 99 60 bd 09 7b 99 3e
       -1.5359501 -0.029387025 -0.05483363 0.2997668
0002e0 4b b3 01 bf db e7 48 bf 89 ae 0d 3f b7 57 6f bf
       -0.50664204 -0.78478783 0.55344445 -0.9349322
0002f0 5c 19 64 be 03 f7 81 3f ea d3 07 3f fa e0 38 3f
       -0.22275299 1.0153507 0.5305773 0.72218287
000300 87 d7 0b c0 45 7c 0f bf 41 e6 06 bf 61 a2 82 be
       -2.1850297 -0.56048995 -0.5269509 -0.2551451
000310 9a cc 08 3f 2f 5e f0 3e 74 ef 26 bf 11 dd f9 3e
       0.534372 0.46946856 -0.65209126 0.48801473
000320 5e ac b7 bf 6c 2f a9 bf e1 20 7f bf 27 f7 77 3f
       -1.4349477 -1.3217597 -0.99659544 0.968615
000330 78 a5 99 3f 4f 02 b3 bf ee b8 a2 bf f2 27 73 bf
       1.2003622 -1.398508 -1.2712686 -0.94982827
000340 c6 ea 80 3f 2f 4d a2 3f ab 0f b9 bf 13 a4 b0 bf
       1.0071647 1.2679805 -1.4457906 -1.3800071
000350 da 77 84 bf 31 5a 5d 3f 8e 92 9b 3f 06 d7 d4 bf
       -1.0349076 0.86465746 1.21541 -1.662812
000360 58 94 d0 bf a7 10 c4 bf b9 04 8f bf 92 6e b6 bf
       -1.6295271 -1.5317582 -1.1173316 -1.4252493
000370 2a ca 87 be 78 e8 0e 40 0c 31 26 40 bd 99 09 40
       -0.26521426 2.2329388 2.5967436 2.1500084
000380 09 ac eb 3d dc b2 9c 3e b2 6f 40 3d fd 11 95 be
       0.115074225 0.3060521 0.04698152 -0.29115286
000390 07 e5 1c 3e d3 4e 8d be bf c2 ab 3e bc 2e 4b bd
       0.15321742 -0.275992 0.33547017 -0.049605116
0003a0 7d 12 48 3f f9 51 dd bc f2 38 9f be b0 70 da bd
       0.7815321 -0.027016627 -0.31098133 -0.10666025
0003b0 13 0b 76 be 9e 1c 02 bf c0 4b 0b 3f ae ab b7 be
       -0.24027662 -0.50824916 0.5441246 -0.3587317
0003c0 82 96 24 3e de 23 63 be 32 7d 4f bd 2e 74 31 3f
       0.16073039 -0.22181651 -0.050656505 0.693179
0003d0 62 be 85 3e b4 00 bd 3e 61 24 a7 3e ca d1 c5 3d
       0.26121813 0.369146 0.32644942 0.09659155
0003e0 66 02 47 bc 21 5c 74 be 43 37 82 3e 6c 9a 30 be
       -0.012146568 -0.2386327 0.25432786 -0.17246407
0003f0 ea bc c9 3d ba f3 a7 3e 49 da 96 3d 5d 8e 1d be
       0.098504856 0.32803136 0.07365853 -0.15386339

convs.0.fc_full.bias f4 [32]
000000 4a 66 1d be 7c 9c 33 3e 7f 55 d9 bc 29 af 96 3e
       -0.15371051 0.17540163 -0.026530026 0.29430512
000010 02 c5 10 3f 8d b4 98 bd f6 79 8c be d7 1e 3c 3b
       0.5655061 -0.07456312 -0.274368 0.0028704905
000020 5c a6 10 3e 14 21 ac 3c 74 ab 36 3c bc 31 a8 3d
       0.14125961 0.021011867 0.011149276 0.08212611
000030 91 5e 15 bd 80 5f 05 3c 25 f1 9b 3e 25 19 ca 3c
       -0.03646714 0.008140445 0.30457416 0.024670193
000040 6b c7 ba bf 97 90 83 3e 08 f5 1f bd e4 55 11 bd
       -1.4592108 0.2569625 -0.03905204 -0.035482302
000050 fa 46 4d 3f 01 a5 26 3d 7c cb 09 be 4a 61 8c 3e
       0.80186427 0.040684704 -0.1345653 0.27417976
000060 c1 ef 6f 3c c3 a4 43 bd 11 c4 15 3e f7 b7 9d bd
       0.014644564 -0.04776455 0.14625575 -0.07701104
000070 a2 74 3b 3e c2 4c 48 bd c3 32 f3 be 7a 36 22 3e
       0.1830621 -0.048901327 -0.47499666 0.15841094

convs.0.bn1.weight f4 [32]
000000 f3 c0 9c 40 01 85 54 40 92 f3 89 40 6e af 3b 40
       4.8985534 3.320618 4.3109827 2.9325824
000010 77 ec 4b 40 f7 9d 11 40 2c 42 64 40 b9 92 7d 40
       3.1863077 2.2752664 3.5665388 3.9620802
000020 64 9b 77 40 ef 88 3f 40 e9 d1 79 40 66 ec 8c 40
       3.8688593 2.9927328 3.903437 4.403857
000030 74 68 8c 40 a2 1a cc 40 7e 63 83 40 37 d9 c2 3f
       4.3877506 6.378251 4.105895 1.5222539
000040 c9 7c 08 40 54 b4 49 3f 39 d6 69 3f a6 9b 05 3f
       2.1326163 0.78790784 0.913425 0.52190626
000050 fc f3 6f 40 57 f2 4f 3f 76 6e 1a 40 da d4 8e 3f
       3.7492666 0.81229156 2.412992 1.1158707
000060 aa 48 0b 40 2d 43 94 3f af 0c b5 3f d1 47 86 3f
       2.17631 1.1583 1.4144496 1.0490667
000070 e4 56 2d 3f 64 57 b2 3f f6 cf 77 40 21 0e 1c 40
       0.6771071 1.393292 3.872068 2.4383624

convs.0.bn1.bias f4 [32]
000000 d8 3d 5b bf 45 fe 80 3f cd a4 34 3f 0e ff a0 3f
       -0.8564124 1.0077597 0.70563966 1.2577837
000010 87 e5 94 bf 78 18 64 3f 7a e5 5e bf 27 1d 2c be
       -1.1632546 0.89099836 -0.87068903 -0.16807996
000020 3c cb 85 bf e6 f7 fa 3d 0b 18 6d bf 89 d9 bd bd
       -1.0452647 0.12254314 -0.9261481 -0.09270007
000030 91 71 38 bc 54 00 e7 3e 22 16 9a bf e7 8c 83 bf
       -0.011257545 0.45117438 -1.2038004 -1.0277375
000040 b2 d9 8f bf 5e 47 5e 3f 38 d6 b3 bf b5 fe 9a 3f
       -1.123831 0.8682765 -1.4049749 1.210898
000050 33 99 47 be 78 5e 2d 3f d7 89 07 c0 57 ef d2 be
       -0.19492035 0.6772227 -2.117788 -0.41198227
000060 b4 a1 29 c0 46 22 a6 3f 06 52 8e bf 59 5c 29 bf
       -2.6504946 1.297921 -1.1118782 -0.66156536
000070 e7 5c 57 3f 45 6f fc be 69 b3 10 c0 86 57 67 bf
       0.8412613 -0.49303642 -2.2609503 -0.90367925

convs.0.bn1.running_mean f4 [32]
000000 34 b8 a1 41 fb 9f 0c 41 c2 5b 79 40 4e 93 21 c1
       20.214943 8.789058 3.8962255 -10.098463
000010 2c 61 5f 3f cc cc c2 c0 8d a8 56 c0 b0 2b 51 c0
       0.8725765 -6.0874996 -3.3540375 -3.2682915
000020 b5 fd 4a be ba 89 39 40 60 e6 1a c1 43 7c 0c 40
       -0.19823344 2.8990312 -9.681244 2.1950843
000030 a4 74 10 c0 51 08 cb c0 f7 e3 0a c0 c3 d3 98 c0
       -2.2571192 -6.344765 -2.1701639 -4.77585
000040 28 f7 18 c1 b3 00 8d 41 96 cc b9 40 24 2c 1f 41
       -9.560341 17.625341 5.806224 9.9482765
000050 09 37 96 bf af 22 0c be a5 43 e0 c1 e1 48 f1 c1
       -1.1735545 -0.13685106 -28.03303 -30.160585
000060 ef 71 ec 40 ae 9a 97 3f ee cb 03 c1 f9 b4 ae c0
       7.388908 1.184408 -8.2372875 -5.4595914
000070 73 28 70 c1 17 34 d5 c0 17 d6 24 c2 ac a6 40 40
       -15.009875 -6.6626086 -41.209072 3.0101728

convs.0.bn1.running_var f4 [32]
000000 92 8b d3 41 98 a0 4f 42 aa d1 15 42 a4 23 3c 42
       26.44315 51.90683 37.45475 47.034805
000010 3b 2d 8f 41 bb 2a a6 42 76 ae 2b 42 7c 0a 3b 42
       17.897085 83.08346 42.920372 46.76024
000020 07 16 4e 42 da a0 3c 42 2c 21 d4 42 8b c1 98 42
       51.52151 47.15708 106.06479 76.37801
000030 73 07 5c 42 50 35 47 42 98 cb 6f 42 00 00 3d 42
       55.007275 49.802063 59.948822 47.25
000040 c0 96 1f 42 f4 ad c2 41 6e 59 80 42 d9 80 3e 42
       39.897217 24.334938 64.17467 47.625828
000050 73 6c a2 42 9f db 5f 42 4d 0a 9f 41 6f 0d 35 42
       81.211815 55.964474 19.88003 45.26312
000060 41 d0 88 42 50 53 ca 42 da 08 9d 41 df 2c 1c 42
       68.406746 101.16272 19.629322 39.04382
000070 0a 0f 08 42 bf 39 ac 42 72 74 b6 41 89 c9 3c 42
       34.014687 86.112785 22.806858 47.19681

convs.0.bn2.weight f4 [16]
000000 e3 da 75 3f cc 75 64 3f 1e 9a a1 3f fc 11 c1 3f
       0.9603712 0.89242244 1.2625158 1.5083613
000010 c6 00 de 3f 0f 85 a7 3f 9d 35 e0 3f 50 ed 95 3f
       1.7343986 1.3087481 1.7516361 1.1713047
000020 95 5e 54 3f f1 80 c6 3f ad 12 f6 3f 8b 6a a7 3f
       0.8295682 1.55081 1.9224449 1.3079389
000030 f1 80 8d 3f 1b 6c ce 3f 0d 4d ec 3f 57 d0 d1 3f
       1.1054975 1.6126741 1.8461014 1.6391705

convs.0.bn2.bias f4 [16]
000000 bf ee 48 3b 2c 00 89 be 45 88 3c be fb 73 63 be
       0.0030659882 -0.26757944 -0.18411358 -0.22212212
000010 b4 8b 27 be 55 18 43 be d9 fb 17 3f 02 d2 ff be
       -0.16361886 -0.1905225 0.59368664 -0.4996491
000020 35 ae 86 be 72 37 7b be bd 86 bb 3e b7 a3 b0 bd
       -0.26304784 -0.2453287 0.36626235 -0.08624976
000030 64 a4 5e 3a a2 fb 71 3d 53 88 1c 3f 2f 4c ea 3e
       0.0008493124 0.059077866 0.61145514 0.45761248

convs.0.bn2.running_mean f4 [16]
000000 93 87 5b 40 71 bc 10 41 3d 1e 1d 40 b0 30 45 41
       3.4301498 9.046006 2.4549706 12.324387
000010 bb e3 1b 41 40 ef 29 41 ee 1c 0e 40 a4 01 64 40
       9.743098 10.620911 2.2205157 3.5626001
000020 8f 68 80 3f 91 00 56 41 7c dc 12 40 3b 21 44 40
       1.0031909 13.375138 2.2947073 3.0645282
000030 0d cd 06 41 dc 9d b4 40 4d c8 a8 40 e8 f8 ab 40
       8.425061 5.64427 5.274451 5.374134

convs.0.bn2.running_var f4 [16]
000000 22 39 0b 41 61 f4 e3 41 ba 86 58 40 4e ca ac 41
       8.701448 28.494326 3.383223 21.598782
000010 48 96 bc 42 60 13 6f 41 85 61 08 41 d8 8f 66 41
       94.29352 14.94223 8.5238085 14.410118
000020 27 25 47 40 a0 37 b7 42 c5 0d 2b 40 5f ba 60 41
       3.1116426 91.60864 2.6727154 14.045501
000030 88 1c 3c 42 f3 42 d1 41 5d ab 34 42 46 09 1e 42
       47.027863 26.15769 45.167347 39.509056

convs.1.fc_full.weight f4 [32, 56]
000000 0f bc 46 bf aa 26 6a be 30 9a d7 be 1b 9f 7d be
       -0.77630705 -0.22866312 -0.42109823 -0.24767725
000010 81 db 45 3f 02 e3 43 3e 68 8c 75 3e 15 57 a6 3e
       0.7728806 0.19129565 0.23979342 0.32488313
000020 d6 98 ba be d6 58 86 3e a8 8a 23 3f 35 fe a7 3f
       -0.3644473 0.2623965 0.6388345 1.3124453
000030 06 80 87 bd b2 da 86 3e e2 b4 b8 3f b3 ce 9b 3f
       -0.066162154 0.26338726 1.4430201 1.2172455
000040 82 63 5a 3e 2a fc 33 3e 3d 10 d5 3f 0d c9 8e 3c
       0.21327022 0.17576662 1.664558 0.017429853
000050 60 43 39 bf 06 b8 45 be d1 28 6d 3e 71 9e 8f 3e
       -0.7236843 -0.1930848 0.23160101 0.2805057
000060 08 92 8c bf 9d 13 a3 bb 2b 5f c0 bf ba 84 81 3e
       -1.0982065 -0.0049767033 -1.5029043 0.25296575
000070 8a e2 34 3f ed e3 1d 3f bb 57 36 c0 20 15 96 bf
       0.7065817 0.6167591 -2.8491046 -1.1725197
000080 34 37 eb 3f 77 de 0a 40 a1 3f 14 40 f9 85 6b bf
       1.8376222 2.1698282 2.3163836 -0.920013
000090 b0 24 c2 bf 6a a3 fd 3f 01 38 0a 40 80 0b 1b 40
       -1.5167446 1.9815495 2.1596682 2.422577
0000a0 4f 19 88 bf e1 9b b1 bf 4e 96 00 40 78 b0 10 40
       -1.0632724 -1.3875695 2.0091739 2.2607708
0000b0 c9 ee 15 40 80 05 78 bf b8 80 bd bf 21 82 88 3f
       2.3426993 -0.9688339 -1.4804907 1.0664712
0000c0 93 2a 5d 3f 26 6a 32 3f fb 85 49 3f d8 bc 01 c0
       0.8639309 0.6969322 0.7872006 -2.027151
0000d0 98 c8 9a bf b7 56 84 3f 35 8f b5 3f 54 e9 90 3f
       -1.2092466 1.0338963 1.4184328 1.1321206
0000e0 e6 6e 28 3e 0d 9f aa bf 0a 95 a5 3e 47 64 a6 bf
       0.16448554 -1.3329788 0.3234027 -1.2999352
0000f0 57 5a fc be 95 8f a4 3e 16 45 01 3e fc cf ed 3e
       -0.49287674 0.32140794 0.1262401 0.46447742
000100 d5 02 4d be 10 dd 5b 3f f6 17 4e bf 35 9f 53 bf
       -0.20020612 0.8588419 -0.8050531 -0.82664806
000110 26 8c 54 bf 3c b9 09 40 fb ee 29 bf 50 92 c9 be
       -0.8302635 2.1519308 -0.6638028 -0.3936944
000120 c3 88 37 bf 2e f3 f1 bf 6c b3 da bf ef f8 03 bf
       -0.71693057 -1.8902338 -1.7086005 -0.5155172
000130 25 8a 38 3e 17 08 c9 bf be 55 85 be 77 31 c0 3e
       0.18021448 -1.5705594 -0.2604198 0.3753774
000140 e0 a9 43 bf d6 8f 25 bf 78 c8 03 3f 01 ce b0 bf
       -0.76431084 -0.646726 0.51477766 -1.3812867
000150 72 1a 20 3f c7 0d f7 3f 08 f5 a3 be ca ab 84 3f
       0.6254035 1.930108 -0.32022882 1.0364926
000160 fa a1 03 c0 07 99 1f c0 8f a0 c7 bf 6e a8 71 3f
       -2.0567613 -2.493715 -1.5595874 0.9439763
000170 80 b2 b5 3f a2 1e f8 bf 28 a2 14 c0 00 25 a7 bf
       1.4195099 -1.9384348 -2.3223972 -1.3058167
000180 bb ba 84 3f cd f1 b6 3f b1 db e9 bf 8d 53 0b c0
       1.0369486 1.4292542 -1.827017 -2.1769745
000190 26 2f b3 bf 12 29 96 3f c8 96 a7 3f a1 99 1d bf
       -1.3998764 1.1731284 1.309289 -0.61562544
0001a0 cc 64 27 3f 5e f7 b4 3f 27 ce d7 3f be ee 71 3e
       0.6538818 1.413799 1.6859788 0.23626229
0001b0 a3 df ca 3e 23 b6 93 3e 19 67 23 3f f2 f7 fb 3e
       0.39623746 0.28849897 0.6382919 0.49212605
0001c0 b8 be b3 3e c1 6b c9 bd 63 d2 15 bf 4a cf c1 3f
       0.35106444 -0.098350056 -0.5852415 1.5141385
0001d0 cd 71 99 be d5 4a 70 bf 97 c0 d3 3e 80 72 55 3f
       -0.29969636 -0.93864185 0.41357872 0.8337784
0001e0 7d 76 64 bf 7b 80 f7 3d ae bd 3c be 19 77 91 3e
       -0.892433 0.120850526 -0.18431732 0.28411177
0001f0 75 f1 e0 3f 3b f2 c4 bf 10 82 3e bf 9d 20 3c bf
       1.7573687 -1.5386423 -0.7441721 -0.73487264
000200 a4 78 e0 bf e3 2a 80 bf 9f 34 0e c0 47 a5 8b 3e
       -1.7536817 -1.0013088 -2.2219617 0.27274534
000210 33 24 d3 3b 0a 34 19 3f a3 fe 01 bf c2 6c 8f 3d
       0.0064435243 0.5984503 -0.5077917 0.07003166
000220 84 83 8f bf b3 bb 42 bd 11 b9 9c bd f5 14 0c c0
       -1.121201 -0.047542285 -0.07652486 -2.188779
000230 95 94 1c bd df 90 18 bf 91 66 db be 29 3c 91 bf
       -0.038227636 -0.59596056 -0.4285169 -1.1346484
000240 61 4e 3d be 8b 7a 08 3f 49 71 42 40 34 55 d8 3f
       -0.1848693 0.53311986 3.0381644 1.6901002
000250 cb 35 96 3f 40 44 0a be 78 08 04 3f ff 64 40 40
       1.1735166 -0.13502598 0.5157542 3.0061643
000260 e7 33 d8 3f fb 65 98 3f bb 43 8c be 72 be e1 3e
       1.6890839 1.1906122 -0.27395424 0.4409061
000270 4a 1a 48 40 b8 57 e9 3f 0e 88 92 3f 2d d5 1b c0
       3.1266046 1.8229895 1.144777 -2.4348862
000280 a8 51 fc bf f0 cc 8a bf 59 82 33 3e db 08 1b c0
       -1.971242 -1.0843792 0.17530192 -2.4224155
000290 9a cb b9 bf 52 88 5a 3f 8d 1b 89 3f 4b c0 3a 3f
       -1.4515259 0.8536426 1.0711533 0.72949666
0002a0 5f f2 da 3c f1 42 cb be 33 57 7d bf 9e f4 ee 3e
       0.0267269 -0.3969951 -0.9896118 0.46671003
0002b0 43 60 52 3f 2b 3f 9f 3d 3d 5b 1b be 51 0c c5 3e
       0.82178134 0.0777572 -0.15171523 0.3848596
0002c0 ce e5 41 3f e2 82 21 be bf 79 95 3f 84 55 9c 3d
       0.7574128 -0.15772584 1.1677779 0.07633498
0002d0 41 67 fa bc 46 5b 34 bf ac 8c a6 bd d3 aa 92 bf
       -0.030566813 -0.7045177 -0.081323 -1.1458381
0002e0 93 a2 d1 be ce be f3 be aa 0d b4 bf 2c e3 b5 3b
       -0.40944347 -0.4760651 -1.406667 0.0055507626
0002f0 bf 7b dd bf 95 6c e4 3e 67 b9 53 bf 9e 01 0f 3f
       -1.7303389 0.44614092 -0.82704777 0.5586184
000300 4e 8e 9b bf 2c e4 46 be 69 4f 1e 3f 3d 9d eb bd
       -1.2152803 -0.19422978 0.6183992 -0.115046
000310 e8 3a b0 be 8a 9e 2b bf e8 36 f3 bf 13 b2 b3 bf
       -0.34419942 -0.67038786 -1.9001131 -1.4038719
000320 5c 48 81 be 2d b0 26 bf 69 eb 0c c0 77 aa 4c bf
       -0.25250518 -0.6511257 -2.2018683 -0.7994761
000330 13 da 10 bf 19 92 0f be 4f 98 da be a8 a4 06 c0
       -0.56582755 -0.14020576 -0.42694327 -2.1037998
000340 1b 17 30 bf 78 fc d0 be fd 56 59 be 63 fc 04 bf
       -0.68785256 -0.40817618 -0.2122459 -0.5194761
000350 fb 66 07 c0 8f 96 48 bf 60 60 f5 be 0f 8b 57 3f
       -2.1156604 -0.78354734 -0.4792509 0.8419656
000360 a3 be fb 3e 34 df 9d bc 25 29 ba be 45 5d d6 bf
       0.49168882 -0.01927147 -0.36359516 -1.6747214
000370 9b 1a 01 c0 26 8b da bf 3a 7f 57 bf 7c 59 96 3e
       -2.0172489 -1.7073715 -0.8417851 0.29365146
000380 c4 67 8e be 58 c7 c4 be 07 91 3e bf f6 3f f4 be
       -0.27813542 -0.38433337 -0.74440044 -0.47705048
000390 09 db 11 bf 3c 00 98 3e 86 14 6f bf 27 74 51 bd
       -0.56974846 0.2968768 -0.9339069 -0.051136162
0003a0 e1 6d 7e bf 0f d1 c8 be e4 78 b2 be d1 f1 18 bf
       -0.9938641 -0.39222 -0.34857857 -0.5974398
0003b0 2d 13 9a be f3 be 21 be c3 4a 87 bf 96 28 31 3f
       -0.30092755 -0.15795498 -1.056969 0.69202554
0003c0 05 f1 52 3e 13 e6 ca 3f 74 cd 9d 3e d8 8b 32 bf
       0.20599754 1.5851463 0.3082081 -0.69744635
0003d0 1e 79 b3 be 49 fa 44 bf f9 14 9c 3f 05 18 e1 3e
       -0.35053343 -0.76944405 1.21939 0.43963638
0003e0 a7 74 23 3f f6 bc 50 3f 7c 54 71 3f 9c bf c6 3e
       0.6384987 0.8153833 0.9426954 0.3881806
0003f0 73 42 51 3e 6b f8 d3 bd c5 7f b3 3f 7e 02 07 bf
       0.20435505 -0.10350116 1.4023367 -0.5273818

convs.1.fc_full.bias f4 [32]
000000 4c 98 af bd 89 7a 1e 3c 9f ec a2 3d e4 43 87 3d
       -0.0857397 0.009672769 0.07955288 0.06604746
000010 3b cd 73 bd aa bc 82 3e e2 b1 9a 3d 2e 1d f7 be
       -0.059521895 0.25534564 0.0755346 -0.4826445
000020 df 0c 10 be 0c 3b 1a be 49 7e 35 3d 89 07 dc bd
       -0.1406741 -0.15061587 0.044309888 -0.10743625
000030 f8 3c 11 bd 10 74 e3 bd 1b ca 50 3d 50 f5 1e 3e
       -0.035458535 -0.111061215 0.050973993 0.15523267
000040 41 97 6e be c7 74 7b 3d 8c 3b e6 3c cd 9c 92 3e
       -0.23299886 0.061390664 0.028104566 0.28635255
000050 64 e3 ab be dc 91 a9 bd 53 df 2e 3e 9a ab d9 3d
       -0.33571923 -0.082797736 0.17077379 0.106284335
000060 a5 34 41 3c a4 46 9f bd 11 32 1c 3e ea de bb 3e
       0.011792337 -0.077771455 0.15253474 0.36693507
000070 29 0a 34 be 62 c7 11 3d 3a 64 0c 3e 35 b5 88 3d
       -0.17582001 0.035590537 0.13710108 0.066751875

convs.1.bn1.weight f4 [32]
000000 b7 c7 19 40 62 8d 28 40 d4 78 54 40 32 af 1a 40
       2.4028146 2.6336293 3.3198748 2.416943
000010 58 56 63 40 2a 3b 95 40 f8 7f a7 40 15 e8 59 40
       3.552145 4.663472 5.234371 3.4047902
000020 6b d4 09 40 84 be 8b 3f b4 7d 85 40 a5 d0 50 40
       2.15359 1.0917516 4.1715946 3.2627347
000030 5b 99 be 40 2e 34 8d 40 ae 16 66 40 02 af 89 40
       5.95622 4.4126196 3.5951343 4.3026133
000040 d6 78 e5 3f a1 d4 f1 3f 1e 5d 73 3f f1 77 a1 3f
       1.7927501 1.8893014 0.9506396 1.2614728
000050 99 a7 df 3f b6 97 d0 3f 9a 23 e6 3f fe 95 f2 3f
       1.7473022 1.6296299 1.7979615 1.8952024
000060 33 01 93 3f 89 d6 92 3f 0d 52 77 3f 2c 6a 82 40
       1.1484741 1.1471721 0.96609575 4.0754604
000070 11 01 06 40 b5 e1 c9 3f 7c 23 00 3f 84 d0 d2 3f
       2.093815 1.5772005 0.50054145 1.6469884

convs.1.bn1.bias f4 [32]
000000 06 9b 71 bf f3 84 5c 3f 3d f5 91 3e ba 0b cd be
       -0.9437717 0.86140364 0.28507414 -0.4004801
000010 fc 91 3d c0 b5 c5 ec 3e 44 bd b0 3e ad 53 3b bf
       -2.9620352 0.46244588 0.34519398 -0.73174554
000020 f4 30 85 bf 31 29 f1 bf 66 8b a2 3e c7 3a b7 be
       -1.0405564 -1.8840696 0.31746978 -0.3578703
000030 52 5c 8e 3e 4b e1 b6 3d 7c f7 07 3e b4 dd 1f bf
       0.2780481 0.0892969 0.13278002 -0.6244767
000040 77 e5 55 bf 81 01 02 3f 98 67 8e 3f 32 f7 d0 be
       -0.8355326 0.50783545 1.1125364 -0.40813595
000050 77 ed 4e c0 fd 37 d0 bf 7a 75 15 3f b1 4a 25 bf
       -3.2332437 -1.6267086 0.5838238 -0.64567095
000060 f5 d4 1f c0 18 05 81 bf f4 01 8f 3e 4e e9 0b c0
       -2.4973729 -1.007968 0.27931178 -2.1861148
000070 58 93 04 bf a5 a4 84 bf a2 8a dc 3d 8e 19 c2 bf
       -0.5178733 -1.0362746 0.107686296 -1.5164049

convs.1.bn1.running_mean f4 [32]
000000 8a d6 1d 41 ba 0e 7a c1 1d 1e a8 3f 66 99 b1 c1
       9.864878 -15.628595 1.313419 -22.199902
000010 73 d9 97 c0 fa 78 90 c0 64 e0 f8 c1 e3 c6 5a 40
       -4.745294 -4.5147676 -31.109566 3.418389
000020 31 12 ef c1 ba 29 05 c0 99 40 28 41 8c 5f a8 40
       -29.883883 -2.0806718 10.515771 5.2616634
000030 63 49 2b c1 e7 54 b4 c0 98 e3 c1 3f f6 78 d7 c1
       -10.705417 -5.635364 1.5147581 -26.934063
000040 67 ab 00 41 22 d7 d2 bf 59 65 28 40 ee 7b fc c0
       8.041846 -1.6471903 2.6311858 -7.890128
000050 67 85 57 c0 3a 38 3c c1 30 94 85 c0 b4 7f 13 41
       -3.3675172 -11.763727 -4.1743393 9.2186775
000060 e2 25 12 c2 b5 d3 bc 3f 3e 33 c3 c1 33 d6 4a 40
       -36.536995 1.4752108 -24.40002 3.1693237
000070 f8 d1 ee bf 38 14 0a c2 6f a3 29 41 fd 6d 06 c1
       -1.8657827 -34.519745 10.602401 -8.401853

convs.1.bn1.running_var f4 [32]
000000 b8 39 91 41 6e f1 0f 42 95 0a da 41 e9 1f 60 42
       18.153183 35.98577 27.255167 56.031162
000010 8b db a8 41 50 1e 2c 42 03 b8 95 42 ef 4e b0 41
       21.107199 43.029602 74.8594 22.038542
000020 27 90 ec 41 0a fb d6 42 08 da 08 42 0b 7b cc 41
       29.570387 107.49031 34.21292 25.56008
000030 e1 90 28 42 79 da a4 41 aa 18 fb 41 d0 59 7d 41
       42.141483 20.606676 31.387043 15.834427
000040 4d 59 82 41 0a 11 6a 42 fe f6 a9 41 83 d1 11 42
       16.293604 58.51664 21.245602 36.4546
000050 9f ed 6c 41 05 bd 0c 42 ad 35 a2 42 7f 19 31 42
       14.808013 35.18459 81.104836 44.2749
000060 3a fe 82 41 b2 7e db 41 d2 11 ad 41 d3 7d 8b 41
       16.374134 27.436863 21.633701 17.436438
000070 be 9d 27 42 10 e2 93 41 53 31 fa 41 40 87 db 41
       41.904045 18.485382 31.274084 27.44104

convs.1.bn2.weight f4 [16]
000000 0a ad 8f 3f 2b 3d ca 3f fe 76 8d 3f 33 e3 ae 3f
       1.1224682 1.5799917 1.1051939 1.3663086
000010 eb e5 86 3f b9 d7 85 3f ba 2a ed 3f c6 7f 80 3f
       1.0538915 1.0456458 1.8528664 1.0038993
000020 1c f7 40 3f 38 e0 9d 3f e0 ce c1 3f ef b0 8c 3f
       0.7537706 1.2334051 1.5141258 1.0991496
000030 8a 9e b8 3f 05 2c d0 3f 94 c7 e0 3f 7b d9 c1 3f
       1.4423382 1.6263434 1.7560906 1.5144495

convs.1.bn2.bias f4 [16]
000000 b2 da 53 3e 35 58 fc be 92 54 33 bf c0 67 04 3e
       0.20688894 -0.49286047 -0.7005092 0.12930202
000010 12 6c 40 3f 9d 81 a8 3d a1 ea 84 bf 7f 8f 31 bf
       0.751649 0.08227847 -1.0384103 -0.6935958
000020 46 15 2a bf ad ca 35 bf 79 1c c9 bd 89 79 74 3f
       -0.6643871 -0.71012384 -0.09819884 0.9549795
000030 46 53 3f 3e 15 00 14 bf c0 03 93 bf 9e 5d c8 be
       0.1868411 -0.57812625 -1.148552 -0.39133924

convs.1.bn2.running_mean f4 [16]
000000 d3 35 52 40 e7 0c 31 41 fb f2 0b 41 0d c0 58 40
       3.2845352 11.06565 8.746821 3.3867218
000010 55 7f fb 3e 10 a0 fb 3f 21 28 49 41 0c cc 42 40
       0.49120584 1.9658222 12.572297 3.043704
000020 25 a9 e0 3e 3a 70 a3 3f 4f 02 fb 40 c7 5d a5 40
       0.43879047 1.2768624 7.844032 5.1676974
000030 90 5f d8 40 5e 32 5c 40 eb fa b6 40 d8 38 56 40
       6.7616653 3.4405742 5.7181296 3.3472195

convs.1.bn2.running_var f4 [16]
000000 7f de 72 41 00 c0 20 42 dd cc d7 41 2b 39 e2 40
       15.17932 40.1875 26.97503 7.0694785
000010 bd 94 b1 3e 46 20 3e 40 a7 90 26 43 c0 42 88 41
       0.3468379 2.9707198 166.56505 17.032593
000020 a1 e3 4e 3e bd 3b 23 40 44 cc 24 42 06 e0 2c 42
       0.20204021 2.5505211 41.19948 43.218773
000030 4a 07 0b 42 58 75 6c 41 57 b3 61 41 6f d0 05 42
       34.75712 14.778648 14.106284 33.45355

convs.2.fc_full.weight f4 [32, 56]
000000 cd 8d 0e bf 89 25 00 3f ba 99 86 be 98 1b cf 3d
       -0.5568512 0.50057274 -0.2628916 0.10112685
000010 12 75 18 3f b1 7f 82 3f 15 38 ee 3e 48 4c 0a bf
       0.59553635 1.0195218 0.46527162 -0.54022646
000020 50 e0 05 3f 6d 9d 03 3f 38 51 2d be d0 f4 9b 3e
       0.522954 0.5141209 -0.16925514 0.30460215
000030 4a 76 2e 3e 62 7e 47 3f 54 83 90 bf 78 65 80 be
       0.17037311 0.7792722 -1.1290078 -0.25077415
000040 f8 2e 80 3f 74 b0 a7 3f 38 6b 32 bf 75 6b 76 3f
       1.0014334 1.3100724 -0.6969485 0.96257716
000050 7d 60 12 bf b0 56 3f 3a 9f cf 41 bf 90 d0 89 3f
       -0.5717848 0.0007298989 -0.7570743 1.0766773
000060 67 de 64 3f 56 fe 60 3f 23 f6 db be da ed 9a be
       0.8940186 0.87888086 -0.42961225 -0.3025959
000070 b5 ff 81 bf f8 fe d6 3d f2 9b 7e be 52 5c 0a bf
       -1.015616 0.1049785 -0.24864176 -0.5404712
000080 20 a3 02 40 93 38 07 40 71 62 51 40 7b 06 09 bf
       2.0412064 2.112828 3.2716334 -0.53525513
000090 e8 ad 91 bf 90 f5 04 40 da 8d 10 40 34 0f 52 40
       -1.1381197 2.077488 2.258658 3.282178
0000a0 3d 53 07 bf b5 43 a2 bf d9 bf ef 3f 30 91 15 40
       -0.52861387 -1.2676913 1.8730422 2.3369865
0000b0 a3 a1 5a 40 ef 76 f8 be 78 47 92 bf 8d aa 1e 3f
       3.4161155 -0.4852824 -1.142806 0.6197899
0000c0 0f 71 88 3f 80 d4 ba 3f 9c 16 1a 40 32 aa de bf
       1.0659503 1.45961 2.40763 -1.739569
0000d0 8f e9 9d bf 9a 9a c2 3e 42 a0 43 3f 7c 43 a1 3f
       -1.2336901 0.38008577 0.7641641 1.259872
0000e0 c6 d1 5f be 87 c8 4a bf ff 7b 34 bf b4 1e 3a bf
       -0.21857366 -0.7921223 -0.70501703 -0.727031
0000f0 1c dd 02 3f be 4e b8 be a0 b5 8d be d6 76 75 3f
       0.51118636 -0.35997576 -0.2767763 0.95884454
000100 b7 fc db bd ca 61 00 bd f0 ab 91 3f 20 ad d1 3e
       -0.10741561 -0.03134326 1.1380596 0.40952396
000110 d9 55 53 3f 0c 57 70 be fe 31 71 bf 55 32 09 3f
       0.8255287 -0.23470706 -0.9421691 0.53592426
000120 5b 9b a5 3f fb 96 c8 bf 13 a5 d2 bf 8b b7 e5 3e
       1.2938036 -1.5671076 -1.6456627 0.44866595
000130 6a eb e8 be 2f 34 54 3e 41 34 4c bf c1 54 ca 3f
       -0.45492107 0.20723031 -0.79767233 1.5807115
000140 e9 7c bd bf 93 b4 76 3f 51 55 5d 3e da ad f1 be
       -1.4803745 0.96369284 0.21614577 -0.4720295
000150 76 d5 fb bf e9 ee 39 3e 02 d1 c4 bc 70 1f 9c bf
       -1.9674518 0.18157543 -0.024025444 -1.2197094
000160 e1 ad cf 3f a3 34 0a 40 cf d1 a0 40 18 33 94 3e
       1.6224939 2.1594627 5.0256114 0.2894523
000170 8b 16 0f bf 98 38 d7 3f 40 ca 10 40 b4 86 a0 40
       -0.5589377 1.6814146 2.2623444 5.0164433
000180 97 b5 d4 3e bd e3 23 bf 0a 85 d5 3f d1 06 16 40
       0.41544792 -0.64019376 1.6681225 2.344166
000190 38 3a a2 40 be 24 e9 3e 31 6c 02 bf 07 ec 6e bf
       5.069607 0.45535845 -0.50946337 -0.933289
0001a0 8f ec 23 bf da dd 64 be b7 cb 73 3f 4e 9e 83 bf
       -0.64032835 -0.22350255 0.9523272 -1.0282686
0001b0 8c 40 b3 bf e4 d4 a1 bd cd 18 a0 3f 41 bd c0 3f
       -1.4004073 -0.07901934 1.2507569 1.5057756
0001c0 c7 65 c1 3f 74 6f cd 3f 40 78 8a be 62 82 70 be
       1.5109185 1.6049638 -0.27044868 -0.23487237
0001d0 81 e5 e9 be 61 2f a7 3e 36 4d 08 3e b9 c0 76 3f
       -0.4568291 0.32653335 0.13310704 0.9638782
0001e0 64 0f cf 3e 66 5f c9 3f e7 f1 2f bf df 2b 4f 3f
       0.4044143 1.5732238 -0.6872849 0.80926317
0001f0 b8 37 11 bf 98 3e 53 3e 4a 54 ad 3e ed 42 9c be
       -0.56725645 0.20629346 0.3385337 -0.3051981
000200 75 23 c7 bf 9e 8f 12 3e 11 cb e7 be 5f 90 34 bf
       -1.5557696 0.14312598 -0.45272115 -0.7053279
000210 7d 42 1b 3f 38 da 9f bf 90 6a 17 3f ed 7f 7c 3d
       0.6064833 -1.248847 0.59146976 0.061645437
000220 93 f0 ed bd e3 3e d4 3f 60 f1 34 3f 91 ff 00 bf
       -0.116181515 1.6581692 0.7068081 -0.50389963
000230 d3 a4 11 40 35 b5 8a 3f a7 30 38 3f 05 70 0c 40
       2.275685 1.083655 0.7194924 2.1943371
000240 77 c6 a3 3e f8 47 ed 3e 6a 96 8d be b8 ec c6 be
       0.31987354 0.4634397 -0.2765382 -0.38852477
000250 8c 95 99 be e4 b1 a0 3e 8e 34 d4 3e 32 bc 56 be
       -0.29996908 0.3138572 0.41446346 -0.20970228
000260 d0 07 92 be fa 95 b3 be 2f 2f dc 3e d4 86 a9 3e
       -0.28521585 -0.3507536 0.43004748 0.33110678
000270 3a 62 25 be 6d 3b 54 be d4 42 46 be 03 df 68 3d
       -0.16150752 -0.20725794 -0.1936143 0.056853306
000280 de ef 6b 3e 7d 44 48 3f 5b 07 af 3f 3d 9b 25 40
       0.23040721 0.78229505 1.367412 2.5876
000290 eb 60 f4 3f ce 8b 3d 3f 1a bc b0 3e ea 23 2e 3d
       1.9092077 0.7404145 0.3451851 0.04251472
0002a0 35 f0 81 3e 7b 09 14 bf 19 ec 2b bb 5f c6 3e bf
       0.25378576 -0.57826966 -0.0026233254 -0.7452144
0002b0 97 da d2 bf 1e 27 f8 3e dd c2 45 be 0a 2d ad 3e
       -1.6472958 0.48467344 -0.19312616 0.33823425
0002c0 00 16 12 bd ba fe a4 bc bb 0d da bf b7 8d e4 be
       -0.035665512 -0.020140994 -1.703544 -0.4463937
0002d0 2f 19 71 bf c5 54 49 3e 3c 63 4c 3d fe e9 bd bd
       -0.9417905 0.19661243 0.049899325 -0.09273146
0002e0 b1 1e 9d 3e 12 74 8b bd 86 8a 8c 3f b0 ee ce bd
       0.30687478 -0.06809248 1.0979774 -0.1010412
0002f0 60 ee b9 bf b5 8a fe 3e de 49 be bf 78 09 b6 3e
       -1.4525871 0.497152 -1.4866292 0.355541
000300 46 f5 d9 3c e8 46 0e 3e ee 12 0c c0 7b 0b 7b bf
       0.026606213 0.13894236 -2.1886554 -0.9806439
000310 0c d3 c6 bf 71 4b ee be 0b 3c 6b 3f 23 cc bd bf
       -1.5533156 -0.46541932 0.91888493 -1.4827923
000320 ea 2c 49 3e 06 cc 97 3e c1 a3 33 3f b6 b7 9b 3e
       0.1964604 0.29647845 0.70171744 0.30413598
000330 b9 2f 91 3d a4 58 a0 3d e0 c4 50 3e 30 0b 34 3f
       0.070891805 0.07829407 0.20387602 0.7032957
000340 8c d6 bd 3e 7d f4 22 3e 26 0e ee 3c 5a cf 3f 3e
       0.3707775 0.15913577 0.02905948 0.18731442
000350 49 1c 2d 3f c9 26 73 3e 98 8f 31 3e 15 4d db be
       0.67621285 0.23745264 0.17339933 -0.42832246
000360 d3 20 65 bf 28 bf 70 bf 90 5d 68 bf e5 bc 21 bf
       -0.8950321 -0.9404168 -0.90767765 -0.63178855
000370 ef 7b aa be 82 0b 40 3e a6 4b ae 3e e5 e2 7b 3f
       -0.3329768 0.1875439 0.3404209 0.9839309
000380 c2 bd 36 be 8b b1 07 40 80 68 6a bd fa b8 7d 3f
       -0.17845824 2.1202114 -0.057228565 0.99110377
000390 dd cd a9 bf 09 48 00 40 fd 8f 39 3e 6d 1f 7e be
       -1.326595 2.0043967 0.18121333 -0.24816675
0003a0 ce be 99 3e aa 41 50 bf 87 89 15 bf 5a f5 9b 3e
       0.30028385 -0.81350195 -0.58412975 0.30460626
0003b0 4a 1b fa 3e 1c 40 01 be 19 db 1e be a1 c2 59 3d
       0.48848945 -0.12622112 -0.15513267 0.05316413
0003c0 6c 16 89 3f 18 f4 34 3f 8c b8 57 3e 92 d0 87 3f
       1.0709968 0.7068496 0.21066493 1.0610526
0003d0 f1 35 f3 bf 59 a4 01 40 78 0c 1d bf 1f a3 67 3f
       -1.9000837 2.025656 -0.6134715 0.9048328
0003e0 5d 1e f6 be 25 a2 69 bf 1b 12 16 3f 5c 5a 98 bf
       -0.4807004 -0.9126304 0.58621377 -1.1902575
0003f0 4c a0 77 3f 3f c9 6a bf 38 1d 5c 3f ab 44 69 bf
       0.9672897 -0.9171333 0.85982084 -0.91120404

convs.2.fc_full.bias f4 [32]
000000 15 e5 03 3e 34 8d 83 38 9c f7 34 be 0d d1 70 3b
       0.12880357 6.272868e-05 -0.1767258 0.0036745698
000010 da 83 ec 3d 8a 3a 21 3e 5f 00 24 be 1c 36 89 3d
       0.11548586 0.15744987 -0.16015767 0.06699774
000020 68 24 5a 3c 10 4b e5 3d 91 b6 dd bd 39 d8 e9 3d
       0.013314344 0.11195958 -0.108258374 0.11418194
000030 d2 fd 8f bd b5 04 2e be be 24 74 3c aa c2 5e bd
       -0.07030834 -0.16993983 0.014901338 -0.054384865
000040 8e 78 09 3d b8 f2 f3 3d 13 60 88 3c 0f 44 9b bd
       0.033562236 0.11911529 0.016647374 -0.075813405
000050 e7 77 1e 3e 8d 97 7f be d5 79 ea 3c 21 48 e1 be
       0.15475427 -0.24960156 0.028622547 -0.44000342
000060 4d 50 9c 3d 21 c3 cd bd 93 98 59 3e cf 6a f3 3b
       0.07632504 -0.100469835 0.21249609 0.007428504
000070 f8 ca fa 3d 88 90 55 bc db 3d d9 3c 76 7f 95 be
       0.122457445 -0.013034947 0.026518753 -0.29198807

convs.2.bn1.weight f4 [32]
000000 f0 6d e5 3f 1d 9e 1d 40 0f b3 81 40 cf a1 d5 3e
       1.7924175 2.4627755 4.0531077 0.41725013
000010 3a 59 c3 3f 44 cc 74 40 4e 6f 40 40 00 a2 06 40
       1.5261605 3.8249674 3.0067935 2.1036377
000020 55 b1 64 40 39 8e 4f 3f 47 e0 34 40 5d cd 9d 40
       3.5733235 0.8107639 2.8261888 4.9313188
000030 1d 41 95 40 f0 1b 93 40 f9 2d 4e 3f f7 3c 62 40
       4.6641984 4.5971603 0.805389 3.534971
000040 ba 14 58 3f 24 e5 3f 3f 7c 87 6c 3f 78 00 37 3f
       0.84406626 0.74959016 0.9239423 0.7148509
000050 1d 1f 00 40 85 f1 ac 3f 66 92 30 40 bb 34 03 40
       2.001899 1.3511206 2.7589355 2.0500934
000060 52 51 08 40 19 ff 6d 3f c5 b1 73 3f 65 2a 4c 3f
       2.1299634 0.92967373 0.9519313 0.7975219
000070 4c ce c3 3f f9 a2 af 3f d2 53 64 3f bc 75 ab 3f
       1.5297332 1.372161 0.891904 1.3395305

convs.2.bn1.bias f4 [32]
000000 16 50 0e be 54 94 c7 3d be fb ac 3e 47 33 9c bf
       -0.13897738 0.09745088 0.33785814 -1.2203149
000010 de cb 99 bf 22 e9 00 be eb ed 49 bf 79 27 9b bf
       -1.201534 -0.12588933 -0.7887866 -1.2121421
000020 9f 39 e8 3c c5 45 b9 be dd 82 a9 3d 87 38 38 3e
       0.028347788 -0.36186042 0.08276913 0.17990313
000030 e8 81 17 3e 2a 52 a6 3f bc cb dc bf 18 d1 95 bf
       0.14795649 1.2993824 -1.7249675 -1.1704435
000040 7b 3e cf 3e fc 8a 85 bf cb 94 9d 3e ab 33 bb bf
       0.40477356 -1.043304 0.30777583 -1.4625143
000050 5e f4 53 bf 88 a1 1c 3f 54 a7 e5 be 64 44 d3 bf
       -0.8279475 0.6118398 -0.44854224 -1.6505246
000060 40 65 38 bf a9 b4 04 c0 e5 22 f4 be f8 be 4a 3f
       -0.72029495 -2.0735266 -0.47682872 0.79197645
000070 8a 8f df be b4 30 76 bf 01 aa 15 c0 8c 2a 9a bf
       -0.436642 -0.96168065 -2.3385012 -1.2044234

convs.2.bn1.running_mean f4 [32]
000000 eb 2f b0 41 3f bc b2 41 32 20 74 41 f6 7c df c1
       22.023397 22.341917 15.25786 -27.936016
000010 e3 94 16 c2 62 a2 83 c0 4f d6 1a c1 3f 61 f5 bf
       -37.645397 -4.113572 -9.677321 -1.9170302
000020 df 59 bf c1 00 2c e4 bd cf 4e b2 40 cb 45 84 41
       -23.918882 -0.11141205 5.57212 16.534079
000030 83 c6 4e c1 e0 b2 29 c1 52 75 a8 40 1a fb bd 40
       -12.923465 -10.606171 5.2643213 5.936902
000040 89 bf a0 c0 8f f8 51 c0 72 d0 60 c1 46 f3 26 c1
       -5.0233808 -3.2807958 -14.05089 -10.434393
000050 cc e4 33 c2 70 47 db c1 cc d2 e5 c1 2e 4d ed 3f
       -44.973434 -27.409882 -28.727928 1.8539178
000060 52 c9 ff c1 dc 14 b2 c1 d3 80 e8 c0 b6 56 a4 c1
       -31.9733 -22.260185 -7.2657256 -20.54234
000070 70 79 c9 bf 3e d6 41 c1 c8 dc d1 3e 1e 24 b4 c0
       -1.5740185 -12.114805 0.40988755 -5.629409

convs.2.bn1.running_var f4 [32]
000000 d0 b6 a0 41 20 0c 4c 42 10 40 36 42 8d e8 70 43
       20.089264 51.01184 45.56256 240.9084
000010 41 6e 5f 42 3f 08 87 42 e6 8d 13 42 64 84 c8 42
       55.85767 67.516106 36.888573 100.258575
000020 e3 72 63 42 ff fc f2 41 9c fe d7 41 7d 4f 25 42
       56.862194 30.373533 26.999321 41.327625
000030 45 f1 ab 41 5a 3b d2 41 09 95 ad 42 01 6f 03 42
       21.492807 26.27898 86.791084 32.858402
000040 16 f5 17 42 3a 9a 9f 42 b5 e5 4c 42 8c 9b 96 42
       37.98934 79.80122 51.224323 75.3038
000050 52 67 91 42 8b 2f 86 42 ca 0f 54 42 f4 54 88 42
       72.7018 67.09286 53.01542 68.165924
000060 b6 3d e5 42 0c e3 d4 42 df dc 02 42 cd 9d 75 42
       114.62053 106.44345 32.715694 61.404102
000070 9d 50 cd 41 5f f6 48 42 be 42 ec 42 cf 86 77 42
       25.664362 50.240597 118.130356 61.88165

convs.2.bn2.weight f4 [16]
000000 ad 37 a3 3f dc 43 1d 40 94 5c b5 3f e5 d8 10 40
       1.2751366 2.4572668 1.4168878 2.2632382
000010 2b 86 ff 3f ea 4b e2 3f 38 1f a4 3f 4c 29 9b 3f
       1.996282 1.7679417 1.2822027 1.2121978
000020 59 24 c0 3f 18 b7 ad 3f c9 a2 9b 3f d1 f2 08 40
       1.5011092 1.3571501 1.2159053 2.1398203
000030 68 24 ac 3f 62 35 c8 3f 33 16 0b 40 ac 3c d2 3f
       1.344861 1.5641291 2.17323 1.6424766

convs.2.bn2.bias f4 [16]
000000 21 04 46 be 62 6d 97 be 25 65 ba be 3c f0 0f 3c
       -0.19337513 -0.2957564 -0.36405292 0.008785304
000010 df 61 9c c0 7a 1a 3d 3e 1b 96 30 bf 62 ac 8f bf
       -4.886947 0.18467131 -0.6897904 -1.1224482
000020 4a 89 22 bf 01 a3 79 be d3 1e 73 be 75 97 a4 be
       -0.63490736 -0.24378587 -0.23742227 -0.32146803
000030 56 eb 97 bf 7f a3 9a be 05 e8 f0 be be 14 a8 be
       -1.1868694 -0.30202863 -0.47052017 -0.32828325

convs.2.bn2.running_mean f4 [16]
000000 e0 9b c4 40 bf 67 19 40 5c 2e 99 40 3e 38 4f 3f
       6.1440277 2.3969572 4.786909 0.80945194
000010 9a 23 4b 40 10 87 1a 41 b2 c1 e9 40 7f 46 ea 3e
       3.174048 9.657974 7.3048944 0.4575691
000020 6e b0 c7 40 0f 8b 37 3f 3e 6e 5e 40 05 7e 06 41
       6.240287 0.7169656 3.4754786 8.4057665
000030 1a 8f a0 40 fb e1 76 40 46 0b e2 3e d9 91 a4 3f
       5.0174685 3.8575428 0.44149226 1.2857009

convs.2.bn2.running_var f4 [16]
000000 07 92 ee 41 e2 f7 6b 40 9f c9 24 41 d6 41 fb 3e
       29.821302 3.6870046 10.299224 0.49073666
000010 3a 27 54 41 47 b7 7e 41 54 5d 26 42 33 5c 74 3d
       13.259577 15.919745 41.59114 0.05965824
000020 4a a0 be 41 31 ad 2b 3e e1 94 a0 40 ba ad f5 41
       23.828266 0.16765286 5.0181737 30.709827
000030 ef f3 bb 41 8e 3b 9c 41 e7 9a f8 3e 80 70 1c 40
       23.494108 19.52908 0.4855568 2.4443665
