cgcnndefect/pretrain_formation_dgnnpool/model_best.pth.tar (torch, 208623 bytes, 121 tensors)

embedding.weight f4 [16, 92]
000000 dd c6 b6 be 6c 60 84 3c 99 e6 ce be d3 38 d3 be
       -0.35698596 0.016159259 -0.40410307 -0.4125429
000010 86 3f a9 bd 5c d1 a8 3d 10 ac f4 be af b4 c5 be
       -0.08264069 0.08243057 -0.47787523 -0.38614413
000020 09 23 a5 be 56 8c 62 3f 91 8e 90 3f 30 1b 25 3f
       -0.32253292 0.88495386 1.1293508 0.6449461
000030 f8 f2 c4 be 89 fa 4e 3e 7b 7c 67 be e9 4c 08 bf
       -0.3846662 0.20212759 -0.2260608 -0.53242356
000040 e5 26 51 3e 2a 68 d4 3d 04 5d 3f 40 70 fa d2 be
       0.20424993 0.1037143 2.9900522 -0.41206694
000050 28 be 58 bf 03 4b ff be 54 75 14 3f 67 3e 98 3f
       -0.84665155 -0.49861917 0.5799153 1.1894044
000060 a7 cc 8a 3f 3d d3 a6 3e 01 db 0c be 0c 09 f1 be
       1.0843705 0.32583037 -0.13755418 -0.47077215
000070 6f b2 a4 bf 4a f4 ac be 26 6f cd 3d aa 8f 12 3f
       -1.2866954 -0.33780128 0.100309655 0.57250464
000080 5e f1 d9 3d 16 6d a0 3f 80 dd 58 be 48 64 1b bf
       0.1064174 1.253329 -0.21178246 -0.6069989
000090 aa e4 da be e3 39 10 bf 40 45 80 3f 58 4c 3b bc
       -0.42752582 -0.5633833 1.0021133 -0.011431776
0000a0 66 0f 9a bd 2a 10 a3 3f d2 ec 5e be ef cc 30 3e
       -0.07522468 1.2739308 -0.21770027 0.17265676
0000b0 56 e4 42 be e4 ba 04 bf 6c 14 d5 3c ee 9f d4 be
       -0.19032416 -0.5184767 0.026010714 -0.41528267
0000c0 86 a3 7c bc d5 dd 5f be b8 79 d7 be 06 50 62 3e
       -0.015419846 -0.21861966 -0.42085052 0.22100839
0000d0 e8 c0 3d 3c 17 d8 97 3e 6a 61 6d 3f 6e 2c 66 3f
       0.011581637 0.2965705 0.9272677 0.89911544
0000e0 78 53 2f 3f ea bc 87 3d 41 c2 9b be 72 81 39 3e
       0.6848674 0.066278294 -0.3042164 0.18115786
0000f0 78 a2 3d 3e ef 57 d6 be d9 a6 fc be ed a9 a3 3e
       0.18519008 -0.41863963 -0.49346045 0.3196558
000100 03 26 f1 3e 8e c3 05 bf 8a 70 82 3b fc 1c 4e bf
       0.47099313 -0.5225152 0.003980701 -0.80512977
000110 1d d8 07 bf fb 04 cd 3d ba 1e aa 3f 0f 7f 1c bd
       -0.5306414 0.100107156 1.3290627 -0.03820711
000120 5a d6 1b be ea 14 e9 3e f8 89 e9 bd 6b b8 3d 3e
       -0.15218487 0.4552377 -0.114032686 0.18527381
000130 2d f9 a9 3c d9 c2 4a bd 10 31 52 be f7 7c bf 3d
       0.0207487 -0.049502227 -0.20526528 0.09350007
000140 ce c8 e6 3d 0d f3 86 be 04 94 07 3c 3a 72 17 bf
       0.11268769 -0.26357308 0.008275036 -0.5915867
000150 9b d4 1c bf 96 5f 82 be 63 27 01 be b9 e8 0b 3f
       -0.6126191 -0.2546355 -0.12612681 0.5465198
000160 e6 04 86 3f 34 cd 77 3f 0e ed b6 3e 03 b6 8a be
       1.0470245 0.9679749 0.35727733 -0.2709199
000170 51 2f 1a bd 38 de 3a 3e c6 44 5a 3e 69 cd 55 3f
       -0.03764278 0.18248832 0.21315297 0.83516556
000180 94 6d 79 be dd e4 f5 be 56 a0 c1 bf 5c b8 80 be
       -0.24358207 -0.4802617 -1.5127056 -0.25140655
000190 08 00 24 be 58 20 6c bf e4 91 d1 bf 2b 70 cc bd
       -0.16015637 -0.9223685 -1.6372647 -0.09982332
0001a0 e3 61 8f 3f 30 a9 08 be cf b0 13 3f 0c 74 e9 3e
       1.1201748 -0.1334579 0.57691664 0.4559635
0001b0 15 6e 98 3e 6c 0d a5 be 07 97 23 c0 f6 f2 4f 3f
       0.29771486 -0.32236803 -2.556093 0.81230104
0001c0 88 a2 18 bf 23 29 72 bf 2c 52 2d 3f 0a 61 94 3f
       -0.59623003 -0.9459402 0.6770351 1.1592114
0001d0 4c 05 ff 3e a0 66 fd be bd c5 07 3e 62 96 c1 be
       0.4980873 -0.4949236 0.13259025 -0.37810045
0001e0 ea 16 fe be 52 f9 3b 3e a4 43 8b bd ca 65 b6 3e
       -0.49626857 0.18356827 -0.06800011 0.35624534
0001f0 f8 e6 56 3e c0 62 7d bd 41 1c d5 3d 9e 3c 56 bf
       0.20986545 -0.061861753 0.1040578 -0.83686244
000200 74 c6 36 3f 48 c7 03 bf 4a fe 21 bf 37 60 27 bf
       0.71396565 -0.51475954 -0.6327864 -0.6538119
000210 99 25 26 3f c9 2d ff 3e 85 a4 61 3c b7 75 1c 3f
       0.6490112 0.4983962 0.013772135 0.6111712
000220 bd 8b 11 bd b9 a5 68 3f 3c 8e 28 3e 47 f1 88 3e
       -0.035533655 0.9087787 0.16460508 0.2674658
000230 ae 21 aa 3e 60 aa bf 3e c9 f6 a6 3e d4 e3 c3 3d
       0.3322882 0.37434673 0.32610157 0.09564939
000240 16 24 ed be 60 8f 34 bf e6 ef 6b bf 7c 26 0e 3e
       -0.46316594 -0.7053127 -0.9216293 0.13881868
000250 08 6a 00 be 4b 6c ed be d4 48 a2 3c ab b1 9e 3d
       -0.12540448 -0.46371683 0.019810118 0.07748731
000260 0a 37 00 bf e7 d5 45 3f 43 c6 58 3d 5f e3 ea 3e
       -0.5008398 0.77279514 0.052923452 0.45876595
000270 77 08 c5 bd ea 1e 5e bf 6c 8f b4 bc 16 ac 98 3e
       -0.09620755 -0.8676592 -0.022041045 0.2981879
000280 3c 69 26 bf 00 b1 a7 bc 55 e2 81 bf 35 5c b8 bd
       -0.65004325 -0.020470142 -1.0147196 -0.09001962
000290 41 f0 1c bf 86 43 9e 3d 87 3c fe be 99 8d 88 3e
       -0.613041 0.07727723 -0.49655554 0.2667053
0002a0 ea 2d c0 bd 68 ab b0 be dd 60 d7 3e 57 05 ca 3e
       -0.093837574 -0.34505773 0.42066088 0.394572
0002b0 a8 ef 56 bf 4f 9e 98 bd 4b bc ac be bb c0 b2 3f
       -0.83959436 -0.0745207 -0.33737406 1.3965067
0002c0 4c 4d 41 bf 8f 13 c8 bf e2 3f 4b bf f5 39 11 be
       -0.7550857 -1.5630969 -0.7939435 -0.14182265
0002d0 ed e1 7e 3f f0 e8 e9 3e 1e f4 af be 2d a4 ff 3e
       0.99563485 0.4568553 -0.34365934 0.49929944
0002e0 3a 12 54 3e 56 ba 0d bf 7a 09 82 3d b2 35 e5 3e
       0.20710078 -0.5536245 0.06349464 0.4476753
0002f0 15 9d 01 bf 99 ab ff bd ce 24 f2 3f 5f c2 72 3f
       -0.50630313 -0.124839015 1.8917482 0.94827837
000300 a6 c1 67 3e 6d 01 80 be e8 5a 8a be 9d cb 8a bf
       0.22632465 -0.25001088 -0.2702248 -1.0843388
000310 87 3c 9e bf f0 a9 81 bf d5 bc 2f bf 87 29 5e bc
       -1.2362221 -1.0129986 -0.6864751 -0.013559706
000320 f3 4c f8 3e 2f 2e 93 3e 01 f0 66 c0 de 66 94 3e
       0.48496208 0.28746173 -3.6083987 0.2898473
000330 fb 5f e3 be 1d 53 09 3f 5e 7e 52 be b0 e1 06 3f
       -0.44409165 0.53642446 -0.20556018 0.5268812
000340 d5 1e 21 bf a0 be 39 3f eb 30 0e 3f 57 00 2c 3f
       -0.6293767 0.72556496 0.5554339 0.6718802
000350 44 f6 19 3e 2c e2 a2 be 2b 79 9a 3e 33 22 c2 3f
       0.15035349 -0.3181318 0.3017057 1.5166687
000360 73 d4 ac 3f e5 6b a7 be aa 43 91 bd a3 39 2b be
       1.3502334 -0.32699504 -0.07092984 -0.16721205
000370 0a 37 b5 3e 3b f4 b7 bd 82 65 5e 3e d3 a3 6f 3c
       0.35393554 -0.0898213 0.2171841 0.014626461
000380 55 8e cd bc 8c ca e9 be 30 2d bb 3e 4e 99 14 bf
       -0.025092283 -0.45662344 0.36557913 -0.58046424
000390 42 f6 46 be 1b 8c de 3d 96 dc 16 bf 4d 8a 74 3e
       -0.19429877 0.10866567 -0.5893034 0.23880883
0003a0 a5 85 2f bf dd f0 13 bf cc 3d 50 3b fc 5a 31 3f
       -0.685633 -0.57789403 0.0031775115 0.69279456
0003b0 33 79 f4 3e ef ed 35 be 96 02 99 be 45 0d 0c be
       0.47748718 -0.17766546 -0.29884785 -0.13676937
0003c0 86 15 7e bf de e0 5a bf 45 cc 05 3f a6 d3 85 be
       -0.9925159 -0.8549937 0.52264816 -0.26138037
0003d0 df 72 0d bf 5d 75 cc be 81 c6 1e 3f cb 4d 00 3f
       -0.55253404 -0.3993329 0.6202164 0.501187
0003e0 09 09 bd bd 2b 79 cd bd bb e8 60 bd 3d c6 7e bd
       -0.09230239 -0.100328766 -0.05490945 -0.062200774
0003f0 83 b8 2e bf ae a9 f9 bc 1f 07 b8 be 60 ef 1d bd
       -0.6825029 -0.030476417 -0.35942933 -0.038558364

embedding.bias f4 [16]
000000 f6 f9 2a be 3a 4f 03 3e cd 56 dc bd 1e 16 5d bd
       -0.16696915 0.12823191 -0.107587434 -0.05397617
000010 8f 2e 44 3f 01 14 a7 3c a7 ae 36 3f 57 2e c2 3e
       0.7663354 0.02039528 0.7136025 0.3792598
000020 45 95 a5 bc 3a 39 04 3e 0d cd 8f 3e 37 33 38 3e
       -0.020212779 0.12912455 0.2808613 0.17988287
000030 50 9b df be 65 61 ad 3e 47 30 d3 bd 0f 81 ab 3d
       -0.43673182 0.3386337 -0.103119425 0.08374225

convs.0.fc_full.weight f4 [32, 56]
000000 25 5a 78 be af 13 32 3f a4 51 55 3f 1a 3e 0a be
       -0.24253137 0.69561285 0.833277 -0.13500252
000010 c8 65 ce be bd a2 5c bf 70 e2 f3 3e d5 a8 74 3e
       -0.40312028 -0.8618582 0.47633696 0.2389253
000020 3b c8 37 3f 2a 54 0e 3f e4 11 d2 be c4 44 92 3f
       0.717899 0.55597174 -0.41029274 1.1427236
000030 ee ba 74 3f 6d 3e 1f bf 1a cb 8a 3f f3 9e 9e 3e
       0.9559773 -0.6220463 1.0843232 0.30980644
000040 bc 1f a6 be 06 98 69 3f c0 ec c7 3c 05 08 39 3f
       -0.32446086 0.91247594 0.024404883 0.7227786
000050 3d 1c 2b 3f b0 03 8d 3e a0 e8 08 bf f5 69 d5 3d
       0.66839963 0.27541876 -0.5347996 0.104206
000060 f5 73 5d bf b3 fe 25 bd 9f e6 34 be 8a 4e db be
       -0.8650506 -0.040526103 -0.176661 -0.42833358
000070 fe 82 2e bf d2 94 85 3e 18 3d 72 be 1c 88 eb be
       -0.6816863 0.26090103 -0.23656118 -0.4600228
000080 e8 de 4b 3f 5e 57 66 3f 18 ff 53 3f 54 84 c3 be
       0.79637 0.8997706 0.8281112 -0.38186896
000090 6b 02 c0 be dc 7c 55 3f eb f6 39 3f 32 a1 5d 3f
       -0.37501845 0.83393645 0.7264239 0.8657409
0000a0 4d 6c b7 be cb 4c 08 bf 52 c9 57 3f 52 85 59 3f
       -0.35824814 -0.53242177 0.84291565 0.84969056
0000b0 f9 1d 84 3f b2 30 b9 be 76 d6 05 bf 61 5c fd 3e
       1.0321647 -0.36169964 -0.52280366 0.49484542
0000c0 84 96 94 3f 59 3f f3 3f 9a 4e 1e 40 53 a6 0e bf
       1.1608434 1.9003707 2.4735475 -0.5572254
0000d0 c3 03 3c bf 15 7e b5 bf d7 3c 98 bf cf fd 51 bf
       -0.7344324 -1.4179102 -1.1893567 -0.82027906
0000e0 34 e8 67 3f fd e6 bd 3e 9a 98 9c 3e af 8e 9d 3f
       0.9058869 0.37090293 0.30585176 1.2309169
0000f0 86 d7 55 be 8c 7f 15 3f d7 3b d6 3d ac 16 c6 3e
       -0.20882997 0.58397746 0.10460632 0.38689172
000100 fc 51 7e be ae 51 9c 3e 5b 3a ce 3e fb bd b2 3e
       -0.24835962 0.30531067 0.40278897 0.3491057
000110 a1 16 99 bd a1 bb 3c bf 47 74 ac bf 9d 95 de be
       -0.07475019 -0.737238 -1.3472985 -0.4347352
000120 9d 56 d0 be 9f 3c 64 3f 41 a3 10 be d6 a5 06 3f
       -0.4069108 0.89155 -0.14124776 0.52596796
000130 bd 4b cf bb e7 0f 35 3e a2 d8 9d 3f 4b 5f 1d 3d
       -0.0063261674 0.17681848 1.2331736 0.038420957
000140 05 8e 3b 3f 7b e9 89 bf c1 d1 24 bf cc 2b 49 bf
       0.7326358 -1.0774378 -0.6438256 -0.78582454
000150 a9 6a 24 3f a4 6e e2 be 8d 35 84 3e 3e 43 17 3f
       0.6422525 -0.44225037 0.25822106 0.5908698
000160 8c 09 5a 40 4d 42 39 40 da 67 2a 3f cf ca 86 c0
       3.4068327 2.8946717 0.66564715 -4.212257
000170 cc 56 89 c0 b3 99 5a 40 37 1c 3a 40 3b b3 39 3f
       -4.2918453 3.415631 2.907972 0.7253911
000180 40 db 86 c0 71 2f 89 c0 a5 7d 54 40 bf a1 45 40
       -4.214264 -4.287041 3.3201687 3.0879972
000190 9c 69 43 3f 8b fd 88 c0 d1 32 86 c0 18 d0 1d 40
       0.7633302 -4.28095 -4.193703 2.465826
0001a0 85 3b 04 40 43 cd 03 40 71 44 1b 40 9a d7 80 40
       2.0661328 2.0594032 2.4260523 4.0263186
0001b0 7d 4b 75 40 65 f7 d4 3f 64 8c 8b 3f 49 4a 89 3f
       3.8327324 1.6637999 1.0902219 1.0725795
0001c0 cd d5 8c 3e 62 2b 7c 3f 05 6b c7 3e 83 6f 31 3f
       0.27506867 0.98503697 0.38948837 0.6931078
0001d0 4f f8 a3 3d 7e 16 1b 3e ce 6d 5a be 6f 2a 2e 3f
       0.080063455 0.15145299 -0.2133095 0.680335
0001e0 51 67 1e bf 56 08 db 3c 93 87 47 3f bb 90 8d 3e
       -0.618764 0.026737373 0.77941245 0.27649483
0001f0 e8 5e 76 bf cf 25 d2 be ba b4 b2 bd 16 7f 4c bd
       -0.96238565 -0.4104447 -0.08725877 -0.049925886
000200 bf e4 3a 3f ac 1b 65 bf fc 47 6a be d2 4d 87 be
       0.7300529 -0.8949535 -0.22879022 -0.2642656
000210 1a 81 db 3e d5 01 19 bf 5d d1 34 bf 54 fe d9 be
       0.42871934 -0.5976842 -0.70631963 -0.4257685
000220 14 6e a3 3e a2 5d 07 3f 42 38 a9 bd 59 ec 8f be
       0.3191992 0.5287725 -0.082626835 -0.28110006
000230 56 83 15 bf aa 7a c7 bf f0 88 3d bf 33 86 17 3f
       -0.5840353 -1.5584309 -0.74037075 0.59189147
000240 2a 38 b0 3f c3 c9 85 3f 46 75 14 c0 0e ee f7 bf
       1.376714 1.0452198 -2.3196578 -1.9369524
000250 37 e2 ca bf 98 26 b5 3f 36 60 95 3f 9c 2f 0e c0
       -1.5850285 1.4152403 1.1669986 -2.2216558
000260 e8 84 df bf 96 e4 e3 bf 18 68 9d 3f 79 66 73 3f
       -1.7462435 -1.7804134 1.2297392 0.95078236
000270 c9 17 09 c0 0c f3 eb bf 44 a6 db bf 22 2e 0b 40
       -2.1420767 -1.8433547 -1.7160115 2.1746907
000280 41 db db 3f b6 38 86 3f 40 55 a7 b6 b0 6b 69 c0
       1.7176286 1.0486057 -4.9869122e-06 -3.6471977
000290 0b ed 42 c0 a5 46 cc bf fb 9f 2c bf d3 bb 44 3f
       -3.045718 -1.5959059 -0.6743161 0.76849097
0002a0 39 1e 2c 3f 05 08 a2 3e ae ed d1 3e 8c 41 7b bf
       0.67233616 0.31646743 0.41001648 -0.9814689
0002b0 b3 c2 c4 bd f4 2f e0 3d c7 ee 62 3e 49 33 bc be
       -0.096074484 0.10946646 0.22161399 -0.36757877
0002c0 e4 ce b1 3e b3 4d 06 3f e2 9f 08 bf 48 69 2c 3e
       0.34728158 0.5246231 -0.5336896 0.16837037
0002d0 9e 9d 54 bf 9e 63 6d 3e ec 94 19 3f 42 f4 40 bd
       -0.83053005 0.23182532 0.5999286 -0.047107942
0002e0 b2 1c 7b bf 69 15 30 bd 4a f8 92 bf fe d3 6d 3f
       -0.9809066 -0.04298917 -1.1482022 0.929016
0002f0 45 fb 34 3d 71 6f 12 3f 57 09 23 3e 38 9c b7 3f
       0.04418494 0.57201296 0.15921532 1.4344549
000300 86 04 78 bf 10 ed 47 be 31 ef 95 3e 30 98 ef bf
       -0.968819 -0.19524026 0.2928405 -1.8718319
000310 99 3e bd 3f f1 5c 27 bf 9c 6f 37 c0 dd 93 13 bf
       1.4784728 -0.6537619 -2.866187 -0.57647496
000320 4c cf 0b 3f e4 fc 3e 3f 38 54 22 3f 5b 1c c5 be
       0.54613185 0.7460463 0.6340976 -0.38498196
000330 03 0e e3 be 73 7a 10 3f c4 e5 49 3f d7 66 32 3f
       -0.44346628 0.5643684 0.7886622 0.6968817
000340 28 f4 ab be ec 55 bf be e0 a2 fe 3e 35 5f 2b 3f
       -0.33584714 -0.3737024 0.4973364 0.6694215
000350 d0 57 1f 3f da 1d ef be 9b 24 d9 be 43 f3 60 bf
       0.62243366 -0.46702462 -0.4241074 -0.8787119
000360 55 76 80 bf 80 20 73 bf 92 e6 d2 be f1 99 30 40
       -1.0036112 -0.94971466 -0.41191536 2.7593958
000370 2a 57 66 40 62 56 4c 40 74 e0 16 40 fb 03 d4 3f
       3.59907 3.1927724 2.3574495 1.6563715
000380 dd dd 51 3f 98 d4 7a bf 86 13 c9 bd 5e 84 17 3e
       0.8197916 -0.9798064 -0.09818177 0.14796588
000390 b2 a5 14 bf 72 0d 52 bd 81 36 db bc 5b 44 b1 be
       -0.5806533 -0.051282354 -0.026759388 -0.34622464
0003a0 f5 42 13 bf 7c 50 1c bf 27 49 06 bf d5 66 9e be
       -0.57524043 -0.6106031 -0.5245537 -0.3093783
0003b0 5d df 67 bf 84 05 16 3f 3f 9f d5 3e ba 41 5d bf
       -0.905752 0.58602166 0.41723058 -0.86428416
0003c0 df e6 ef bc 01 a0 08 bf 25 36 7f 3f 74 f2 7a be
       -0.029284893 -0.53369147 0.99691993 -0.24506551
0003d0 85 f5 a1 3f 2f 2c 00 3e d8 22 f1 3d a9 e6 dc bd
       1.2653052 0.12516855 0.11774224 -0.107861824
0003e0 24 b0 59 3e 18 ac 90 3d 43 7b 24 3d 5d 91 08 3f
       0.21258599 0.07064074 0.040156614 0.53346807
0003f0 30 66 a5 bf d6 36 d6 be 41 24 73 3f dc d2 60 3f
       -1.292181 -0.41838712 0.94977194 0.87821746

convs.0.fc_full.bias f4 [32]
000000 e7 37 7b bd ec 80 c8 3d b7 57 44 bd d1 99 8e bc
       -0.06133261 0.09790215 -0.047935214 -0.01740733
000010 d7 43 ec bc d2 e9 1f be 71 85 97 be ed d3 6d bd
       -0.028840942 -0.15616539 -0.29593995 -0.058063436
000020 fd e5 83 3e 10 74 1d be ab 55 25 3e 54 26 ce 3c
       0.25761405 -0.15376306 0.16145961 0.02516476
000030 a0 7b 0d bf 0e c1 92 3e ff 56 93 3e ca 0b 13 3c
       -0.5526676 0.28662914 0.2877731 0.008974979
000040 a8 c3 9b be d6 53 7e 3d 49 6d da be 0d d8 0b 3e
       -0.3042271 0.06209167 -0.42661503 0.13656636
000050 a3 17 84 3e 6b e8 04 be ae 75 35 bf f6 76 23 be
       0.25799283 -0.12979285 -0.7088269 -0.15963349
000060 a8 8a 7e be 1f 4f 99 3e da e8 67 3b f6 b7 5c 3e
       -0.2485758 0.29943177 0.0035386593 0.2155455
000070 17 48 24 be dd f8 e3 3d ce 4c 04 be fe bf 25 3e
       -0.16043125 0.11131451 -0.12919924 0.1618652

convs.0.bn1.weight f4 [32]
000000 b4 d3 b8 3f 28 c2 a8 40 4f 9b f7 3f 70 eb 1f 40
       1.4439607 5.2737007 1.9344271 2.498745
000010 9f 8f 1b 40 26 a1 1e 40 1e 89 32 40 51 f8 11 40
       2.430641 2.4785857 2.789619 2.280781
000020 5b 28 5d 40 98 38 8c 40 cf 75 33 40 f9 23 81 40
       3.455588 4.3819084 2.8040655 4.035641
000030 53 4c 06 40 34 1a 65 40 d8 e6 7e 40 2e eb 8e 40
       2.0984085 3.5797243 3.9828396 4.4662085
000040 a4 b0 e9 3f 83 32 db 3f 9e d0 06 40 c3 fc c0 3e
       1.8257031 1.712479 2.106483 0.37692842
000050 ff c8 f8 3f 5d ae 13 40 d8 46 fb 3f c6 32 8d 40
       1.9436339 2.3075173 1.9630995 4.412448
000060 4b a3 d8 3f 21 ce d4 3f 93 d9 1e 40 92 26 72 40
       1.6924833 1.6625406 2.4820297 3.7836041
000070 41 eb 37 40 73 ba cf 3f 7c 80 cc 3f f9 a2 cc 3f
       2.8737338 1.6228775 1.597671 1.5987235

convs.0.bn1.bias f4 [32]
000000 9d 76 21 bf 49 08 f5 be 67 63 92 be 56 9f f1 3f
       -0.63071615 -0.47857884 -0.28591463 1.887675
000010 1f 8b af bf c3 fa bf bf 61 2b 05 bf 5d c6 5c bf
       -1.3714331 -1.4998401 -0.52019316 -0.8624018
000020 52 b5 a2 bf 19 fc 46 bf 10 a9 48 bf 22 73 4e bf
       -1.2711585 -0.7772842 -0.7838297 -0.8064443
000030 c5 27 82 bf f1 ab 0a 3f be 82 18 3e 7b 80 b2 3f
       -1.0168387 0.5416861 0.14893624 1.3945459
000040 b3 0c 95 bf 3a 51 49 3f 10 24 74 bf d7 4f b8 3f
       -1.16445 0.78639567 -0.95367527 1.4399365
000050 c8 39 86 c0 1a 54 60 be 34 f8 58 bf d8 14 bc bf
       -4.1945534 -0.21907082 -0.8475373 -1.4693861
000060 7c f5 90 3e c7 3f 21 be 11 31 f6 be 19 d9 e3 be
       0.2831229 -0.15746985 -0.4808431 -0.4450157
000070 f7 91 89 c0 c0 b8 1c c0 fa 29 2d 3f 7d af d5 3e
       -4.299068 -2.4487762 0.67642176 0.4173545

convs.0.bn1.running_mean f4 [32]
000000 35 ef f4 40 ea 57 79 c0 5c 52 b7 c0 90 32 3e bf
       7.6542 -3.8959908 -5.7288036 -0.742959
000010 0f 4f 26 41 e2 8f 8d c1 af b1 a5 3e bc 4c 87 c1
       10.394301 -17.695255 0.32362124 -16.912468
000020 a9 65 c1 c1 02 05 c7 40 1e f1 61 c1 d2 18 18 c0
       -24.174639 6.2193613 -14.1213665 -2.376515
000030 ce 33 2e c1 2c 0f 8d c1 fd 1b 8f c0 cb cc 7d 41
       -10.887648 -17.632408 -4.4721665 15.862498
000040 0a e9 4e 41 f3 32 1f 41 da e6 69 40 f7 2f 26 41
       12.931894 9.949939 3.654715 10.38671
000050 8c a7 c3 c0 79 8e d5 c0 7c 0d d6 3f fc 49 bc c1
       -6.1142025 -6.6736417 1.6722865 -23.536125
000060 68 09 8c c1 89 b5 41 41 e0 40 a6 c0 95 d8 76 c1
       -17.504593 12.10682 -5.1954193 -15.427876
000070 ba 0a a4 bf 24 ed b0 c0 97 43 7d 40 ee ef 8c c1
       -1.2815773 -5.528948 3.9572504 -17.617153

convs.0.bn1.running_var f4 [32]
000000 f3 d8 13 42 a2 ef 58 42 10 6b 05 42 9b 1f e8 42
       36.961864 54.234016 33.354553 116.06173
000010 1c 27 51 42 d8 16 16 42 76 3b 22 42 2d f6 f6 41
       52.288193 37.52231 40.558067 30.870203
000020 ee 4d 48 42 18 b6 55 42 5a 91 0e 42 d3 75 cc 41
       50.076103 53.427826 35.641945 25.557531
000030 a4 1b 7d 41 7c 3c 1b 42 d8 65 3e 42 44 d9 3f 42
       15.819248 38.809067 47.599457 47.962173
000040 2d a8 27 42 8f 43 85 42 5a e2 07 42 db 25 86 42
       41.914234 66.63195 33.971046 67.07394
000050 2f 44 d8 41 e4 24 24 42 ca d2 73 42 6d 21 03 42
       27.033293 41.036026 60.95585 32.782642
000060 02 13 88 42 98 0e c6 42 0a 54 0c 42 53 e7 9f 42
       68.037125 99.0285 35.08207 79.951805
000070 c3 bf a4 42 24 5c ee 41 57 84 09 42 29 2d 46 42
       82.374535 29.79499 34.37924 49.5441

convs.0.bn2.weight f4 [16]
000000 73 fc 77 3f 92 0d 91 3f 42 cf 3d 3f 3e 63 ff 3f
       0.9686958 1.1332266 0.74144375 1.9952161
000010 fe 75 ca 3f ff 11 9f 3f 0f c4 b1 3f c7 27 c0 3f
       1.5817258 1.2427367 1.3887957 1.5012139
000020 f6 ec c7 3f eb fa cd 3f 52 7a b0 3f 02 a9 b8 3f
       1.561919 1.6092199 1.3787329 1.4426577
000030 e9 a2 94 3f 08 88 5d 3f 48 94 88 3f b1 05 5e 3f
       1.1612216 0.8653569 1.0670252 0.86727434

convs.0.bn2.bias f4 [16]
000000 ca c5 8a be 3d d6 05 3d ea ad 5b bd 81 48 0e 3d
       -0.27104026 0.032675017 -0.053632654 0.034737114
000010 25 3d 5c 3f c7 94 90 3d d1 3d 20 3f 19 41 b0 3e
       0.860308 0.07059627 0.62594324 0.34424666
000020 89 6b f7 bd b2 61 54 3d cd 06 8f 3e a7 5d 7a 3e
       -0.120810576 0.051850982 0.27934876 0.24449788
000030 46 dd 09 bf cf 8e 82 3e 6e d0 17 be 42 13 10 3e
       -0.5385326 0.2549958 -0.14825603 0.14069846

convs.0.bn2.running_mean f4 [16]
000000 59 87 82 40 08 0e df 40 a1 08 6b 40 cb 01 6c 41
       4.079022 6.970463 3.6724017 14.750438
000010 09 8f 2c 3f 0a d4 98 40 1e e9 aa 40 53 13 98 40
       0.67405754 4.7758837 5.3409567 4.752359
000020 c0 d7 ec 40 ad 13 95 40 0d 8e cb 40 b4 fd 25 41
       7.4013367 4.658652 6.36109 10.374439
000030 c9 0b 34 3e 1b 87 6c 3f b7 1c 0f 41 eb 22 05 41
       0.1758262 0.92393655 8.94451 8.321025

convs.0.bn2.running_var f4 [16]
000000 27 c3 2a 41 3c 98 3a 42 54 f2 20 41 6e 9a 88 41
       10.672645 46.648666 10.059162 17.075405
000010 2b 09 d5 3f f4 e2 96 41 8b bb 1c 42 08 36 94 41
       1.6643423 18.860817 39.183147 18.526382
000020 0b 7c 01 42 c7 7e 13 42 b7 d3 79 42 d8 87 e9 42
       32.371136 36.873806 62.456753 116.76532
000030 11 5b 28 3d 17 f8 82 3f cb 29 da 42 60 d8 09 42
       0.041102473 1.0231961 109.08163 34.461304

convs.1.fc_full.weight f4 [32, 56]
000000 02 c2 4c 3f 02 94 3f bf f3 03 33 3e 67 74 8b be
       0.7998353 -0.74835217 0.17481975 -0.27237245
000010 45 9b 02 c0 17 b4 2b be b0 6f 0a 3e 2c 93 0e bc
       -2.040727 -0.16767918 0.13519168 -0.008702081
000020 ca 6a 0b 3f 99 c4 b0 3e 77 65 c8 3f c2 a2 f7 3e
       0.5445982 0.34524992 1.5655965 0.48366362
000030 0a 3a 34 bf 74 5a bc 3e 99 a3 96 3d 6b 42 75 3d
       -0.7040106 0.3678776 0.073554225 0.059877794
000040 de 3e 61 bd 88 61 05 bf 5b cd 3d 3f ce 63 75 3f
       -0.054991595 -0.52101946 0.7414147 0.95855415
000050 0b 53 d5 3e 82 ed 16 be af 6f 28 bf 5c 02 11 bf
       0.4166492 -0.1473904 -0.65795416 -0.56644225
000060 ce e9 66 3e 2d 7a 80 3e d4 46 e9 3e e7 93 83 bf
       0.22550127 0.25093213 0.4556185 -1.0279511
000070 e5 19 44 3f 5e 69 9a 3e 5b f2 16 c0 96 f7 95 bf
       0.7660201 0.30158514 -2.3585422 -1.1716182
000080 cd 46 01 c0 7c 6e f9 bf bd 32 b1 bf 8e f7 ac 3f
       -2.0199463 -1.9486842 -1.3843609 1.3513048
000090 51 60 bb 3f 57 95 e9 bf 5a f6 f5 bf 1b 26 a2 bf
       1.4638768 -1.82487 -1.9215806 -1.2667879
0000a0 0f 9c 9a 3f cd 11 cd 3f ad 9e df bf 35 00 e4 bf
       1.2078875 1.6021057 -1.7470299 -1.7812563
0000b0 fd 17 aa bf f0 6e a6 3f 56 30 c2 3f 29 49 9e bf
       -1.3288571 1.3002605 1.5171001 -1.2366077
0000c0 ca 5b 69 bf a7 f1 0e bf de d0 3a be bd c5 35 c0
       -0.91155684 -0.5583748 -0.18243739 -2.840194
0000d0 d4 7b 1a c0 f6 41 63 3e 33 1f 8a 3f 48 79 87 3f
       -2.4138079 0.22193131 1.0790771 1.0583887
0000e0 f0 65 98 3d a2 b7 6e bf e7 84 28 3e 54 7a d8 bf
       0.07441318 -0.9324895 0.16456948 -1.6912332
0000f0 e3 78 04 bd 49 ba a2 bf 77 70 8f 3e ae ef 2b 3f
       -0.03234185 -1.27131 0.2801549 0.671626
000100 54 cd 8d be 18 eb 84 3f 21 36 39 be 04 7a 2c bf
       -0.27695715 1.0384245 -0.18087055 -0.6737368
000110 cc 62 1c 3f 19 6a dc be 47 d2 84 3f 2a e7 31 bf
       0.6108825 -0.43049696 1.0376672 -0.69493353
000120 8a be b1 be 6b 12 45 3f d6 a5 05 40 60 2a d7 3e
       -0.34715682 0.7698123 2.0882468 0.42024517
000130 ef 3f 66 be af a1 84 bd f4 08 88 be 64 a6 5d bf
       -0.22485326 -0.06476151 -0.2656933 -0.86582017
000140 3d dc e8 bf 2e 7a 92 be 16 f3 01 3e 80 26 72 bf
       -1.8192211 -0.2860884 0.12690386 -0.94589996
000150 1f ed f8 3e 6f af 2a be 69 21 a2 3f 6d d6 c0 be
       0.4861841 -0.16668485 1.2666446 -0.37663594
000160 ba ea 35 40 0c 99 dc 3f 34 89 63 c0 9e 57 85 c0
       2.8424516 1.7234206 -3.5552492 -4.1669455
000170 92 e5 74 c0 73 ac 3b 40 ab 24 ed 3f db 27 57 c0
       -3.8265119 2.9324005 1.8526815 -3.3618076
000180 7a ff 81 c0 37 32 72 c0 16 ee 40 40 69 82 f9 3f
       -4.062436 -3.7843149 3.0145316 1.9492923
000190 2a 4e 60 c0 66 f4 79 c0 1f 6c 77 c0 1d da 40 40
       -3.5047708 -3.905542 -3.8659742 3.0133126
0001a0 57 3c 0c 40 82 6f 45 3f 13 f6 51 bf fd 89 d7 bc
       2.1911829 0.7712327 -0.82016104 -0.026310915
0001b0 8c 9c 1e 3e f5 e9 07 40 26 5b 35 40 cb 0e 4c 40
       0.15489405 2.1236546 2.8336883 3.188403
0001c0 3d 7b cc be 51 ab c5 bc 10 75 9c bf 8e 48 09 3f
       -0.39937773 -0.024129542 -1.2223225 0.53626335
0001d0 c2 e2 2f bf ff 35 15 bf 1a 96 1c bf 19 f3 b4 3d
       -0.6870538 -0.58285517 -0.61166537 0.0883543
0001e0 78 f8 c3 be b6 e2 ee 3f 01 c4 04 bf 6c 09 5a be
       -0.38275504 1.8662937 -0.5186158 -0.21292657
0001f0 9f 21 ab 3e ba 48 5c bd 6e 62 b1 be c0 f8 92 3f
       0.33424088 -0.053780295 -0.34645408 1.1482162
000200 0f 50 00 3d cf 8f 15 be cf ff 89 be ac c2 9a bf
       0.03132635 -0.1460564 -0.2695298 -1.2090659
000210 ac c3 e1 be 87 59 ce 3e 92 14 82 be 37 52 5d be
       -0.44094598 0.4030268 -0.2540632 -0.21613394
000220 0b d0 13 3e 8a d4 b0 3e 36 2a 0d bf 72 35 54 bf
       0.14434831 0.34537154 -0.55142534 -0.8289405
000230 08 b1 57 3f ef af a0 bd b1 ee 31 3e e1 d1 39 3f
       0.84254503 -0.07846057 0.1737621 0.72585875
000240 0d e4 89 c0 0e 1d 98 c0 e3 ba 8c c0 4c 88 e3 3f
       -4.309088 -4.7535467 -4.3978133 1.777597
000250 ec f7 2b 40 23 1b 84 c0 c4 02 96 c0 a7 0e 8e c0
       2.687007 -4.1283126 -4.6878376 -4.4392886
000260 1f 87 e1 3f 52 39 2f 40 b6 75 84 c0 9e ae 95 c0
       1.7619361 2.7378736 -4.139369 -4.6775656
000270 c1 99 89 c0 0e 3e f1 3f 43 98 2e 40 4a 83 d5 bf
       -4.300019 1.8847063 2.7280433 -1.6680691
000280 ab 87 ee bf 5b 95 0c c0 1d 09 25 c0 68 2c 2d c0
       -1.8635153 -2.196616 -2.5786812 -2.7058353
000290 6f 1d 02 c0 00 18 79 bf a0 f6 7c bf cb 75 15 bf
       -2.0330465 -0.97302246 -0.9881382 -0.5838286
0002a0 1d 22 44 bb bb 39 62 bf 29 21 a4 3e d3 b6 0c be
       -0.002992756 -0.8836934 0.3205655 -0.13741617
0002b0 5c 03 17 be 3c c4 12 be 1e b8 6a bf bb 78 7c 3d
       -0.14747375 -0.1433267 -0.9168719 0.061638575
0002c0 27 2f e1 bd 99 ca b3 bf 1f 4f 3a 3e f9 92 d0 3e
       -0.10995322 -1.4046203 0.18194245 0.4073713
0002d0 ea 2a de bd d4 5c 49 bd 58 d9 e5 be 60 1d 87 be
       -0.10848029 -0.049160793 -0.44892383 -0.263896
0002e0 5d 04 d9 bc 36 97 bd 3e 99 9f 0b bf e8 d0 5e 3e
       -0.026491338 0.37029427 -0.545404 0.21759379
0002f0 17 8f c3 be 96 8d 4f bf 5d 8b 00 c0 08 3e 50 3e
       -0.38195106 -0.8107542 -2.008506 0.20336163
000300 3b 79 6c bf 50 41 81 bf 34 e4 88 bf 64 9d 66 bf
       -0.92372483 -1.0098057 -1.0694642 -0.9008391
000310 a8 b5 33 3e 8c c9 7c bf 73 f0 4b be 7e 40 7c bf
       0.17549765 -0.98745036 -0.19915943 -0.9853591
000320 8e 68 ed 3e 66 7b 1a 3f 82 85 cc 3f fe 72 45 3e
       0.4636883 0.6034454 1.5978243 0.19282147
000330 f6 df 32 be fd 15 02 3f de 17 47 3f 5f 89 d9 3f
       -0.17468247 0.508148 0.77770793 1.6995047
000340 6c be a0 3e ef 8e c2 bc b5 72 bd 3e 8a 55 22 3f
       0.3139528 -0.023749797 0.37001577 0.6341177
000350 7e 92 d6 3f 82 24 69 3e 1a 1c d0 bd 67 9b 94 3e
       1.6763456 0.22767833 -0.1016161 0.29024813
000360 5e 33 1c bd 28 a1 ed be 01 d7 3b bf 58 a7 1e c0
       -0.038134925 -0.46412015 -0.73374945 -2.4789639
000370 4c 66 94 bf f8 b0 05 3f e2 34 b7 3e 69 29 1c be
       -1.1593719 0.5222316 0.35782534 -0.15250172
000380 0f 8b 0a bf c2 31 d9 be 65 51 64 3e 70 4f 42 3e
       -0.54118437 -0.42420775 0.22296675 0.18975616
000390 b3 c9 1e bd 0a be 8c bf da ac be bc 36 be 99 3e
       -0.038766574 -1.0995495 -0.023275781 0.30027932
0003a0 4c f0 a9 be 97 ac 5d be 52 2a 84 3e 65 60 e7 be
       -0.33191144 -0.21647869 0.25813538 -0.4519073
0003b0 5c eb da bf a5 f3 d0 3e 9c 11 24 bf 06 8e 47 3e
       -1.7103076 0.40810886 -0.6408937 0.19487771
0003c0 19 46 8c be 64 11 b2 3f fa 7a 04 bf 6b cc 22 be
       -0.2739723 1.3911557 -0.5175015 -0.15898292
0003d0 8e 8a 57 3f 79 42 c6 bf 8d aa 2a be a7 f8 ee 3e
       0.8419579 -1.5489036 -0.16666622 0.46674082
0003e0 c6 42 08 3e 98 6c cc 3d fe 1e 9d 3f db 9e a2 3e
       0.13306722 0.0998165 1.2275083 0.31761822
0003f0 69 dd 9c bf 8b 3e ee be 30 eb 42 3f ea 45 15 bf
       -1.2255069 -0.46532091 0.7614012 -0.58309805

convs.1.fc_full.bias f4 [32]
000000 ba f1 54 bd ef 7e 84 3d 93 3b 94 be c4 2b e3 bc
       -0.05198834 0.06469523 -0.28951702 -0.02773083
000010 cc 6b 6b be f8 0f 28 3e ae d7 d6 bc b8 c1 a1 bd
       -0.2299034 0.16412342 -0.026225891 -0.07898277
000020 ad ca 79 bd c6 1a 42 3d 66 bb c9 3d 38 a7 bc bd
       -0.060984302 0.047388814 0.098501965 -0.09211582
000030 c9 15 db bb dc a4 73 bd 97 a6 23 be fa a9 77 bc
       -0.0066859466 -0.059483394 -0.15981518 -0.015116209
000040 11 26 35 be bb e5 07 bd 63 80 22 bd be a0 9a 3e
       -0.17690302 -0.033178072 -0.03967322 0.30200762
000050 90 e8 08 bd ca 09 da bd 23 c4 4e be 73 91 fc bd
       -0.033424914 -0.10646398 -0.20192008 -0.1233243
000060 22 ad 02 3d df f1 cf bd 4d d5 cd bd e2 32 b8 3e
       0.031903394 -0.10153555 -0.100504495 0.3597632
000070 ac b6 8b 3e 88 9c a7 be 8f 34 ec be f7 7f 30 3c
       0.27287805 -0.3273661 -0.4613385 0.010772697

convs.1.bn1.weight f4 [32]
000000 76 a8 69 40 38 a2 2e 40 8e 09 62 40 bc fe 5b 3e
       3.650907 2.728651 3.5318332 0.21483892
000010 57 df 8b 40 d5 83 96 40 be 5f 3f 40 9a 3c 0d 40
       4.371013 4.703593 2.9902186 2.2068238
000020 3b a8 3c 40 f7 e0 dc 40 58 98 36 40 fe 49 30 40
       2.947768 6.9024615 2.8530483 2.7545161
000030 fb c2 53 40 9a 35 96 40 87 1a 0c 40 b0 d1 6d 40
       3.3087757 4.694043 2.189119 3.7159233
000040 cb c6 9c 3f c6 e8 47 40 15 50 dc 3f aa 03 24 3f
       1.2248167 3.1235824 1.7211939 0.6406809
000050 3c 9b e7 3f 80 bb df 3f 69 71 7d 3f eb d1 98 3f
       1.8094249 1.7479095 0.99001175 1.1939062
000060 a3 73 f0 3f 0d 96 b2 3f 94 e1 8c 3f 4d e0 26 40
       1.878529 1.3952042 1.1006341 2.6074402
000070 73 e2 0b 40 2f cd b4 3f 17 3d 62 40 e8 c5 41 40
       2.1856964 1.4125117 3.5349786 3.0277042

convs.1.bn1.bias f4 [32]
000000 da 17 40 3e ba c1 ae bf da 0f b4 bf 93 6e 9c 3e
       0.18759099 -1.3652871 -1.4067338 0.3055311
000010 95 76 c1 bf 6d b2 44 3e 12 13 3e bf ee 90 08 bf
       -1.5114313 0.19208689 -0.7424785 -0.53346145
000020 3b a1 2a 3f 74 cc 83 be ee cb 82 3e 1e 69 1d bf
       0.6665227 -0.25741923 0.2554621 -0.6148852
000030 44 2c 4a 3d da db 30 bf 10 f7 15 3f 00 27 25 be
       0.04935862 -0.69085467 0.5858011 -0.16128159
000040 c4 73 84 bf e7 df a5 bf d3 42 10 c0 c5 93 ce be
       -1.0347829 -1.2958955 -2.2540786 -0.40347114
000050 c2 ac 2d c0 79 b3 a7 3e b2 1e bf be 36 15 38 3f
       -2.7136693 0.32754114 -0.37328106 0.71907365
000060 a9 1f 18 3f 88 72 35 be 07 5d 93 be c6 66 0c c0
       0.5942331 -0.17719471 -0.28781912 -2.1937728
000070 52 33 e9 3e a2 f6 05 c0 9d c3 00 bf e5 e7 37 be
       0.45546967 -2.0931783 -0.5029848 -0.17959554

convs.1.bn1.running_mean f4 [32]
000000 ab 0d 63 c1 da b1 bf c1 67 da 10 c2 f7 71 39 c1
       -14.190837 -23.961842 -36.213284 -11.590323
000010 1d fe 1b c1 ed 42 c7 c1 8c 75 86 40 f0 ba ef c1
       -9.749539 -24.907679 4.201849 -29.966278
000020 c4 f6 c2 41 e9 76 6b 41 30 84 c6 bf 06 ee fb bf
       24.370491 14.716531 -1.550909 -1.9682014
000030 53 c9 be 40 6a 94 2e c1 e6 64 30 41 40 b9 dd 40
       5.9620757 -10.911234 11.024633 6.9288635
000040 5d 07 f0 c1 e6 d9 51 c1 32 95 13 c2 e3 21 6b c1
       -30.003595 -13.115698 -36.8957 -14.695773
000050 77 c2 46 c1 c9 c7 0d c1 bb 54 84 c0 12 f8 c5 c0
       -12.422477 -8.861276 -4.135343 -6.186532
000060 6c b9 8a 3e ec 6a 41 bf 28 b0 60 c1 ac 46 a6 c0
       0.2709459 -0.75553775 -14.043007 -5.196127
000070 f6 57 3a 41 09 04 d3 c1 64 d3 5f 41 7e b6 b5 c1
       11.646475 -26.37697 13.989109 -22.714108

convs.1.bn1.running_var f4 [32]
000000 22 81 93 41 a6 6f 14 42 26 e4 a7 41 96 25 22 42
       18.438053 37.10903 20.9864 40.536705
000010 a9 a2 f0 41 4e b3 28 42 24 02 00 42 19 26 48 42
       30.079424 42.175102 32.00209 50.037205
000020 fc 64 89 41 e1 99 60 42 55 9f a0 41 30 5d 18 42
       17.174309 56.150272 20.077799 38.091003
000030 c6 4f a6 41 2a 1e d2 41 bd 68 14 42 7e 65 6c 41
       20.788952 26.264729 37.102283 14.774778
000040 b4 d6 ec 41 7d 19 4b 42 45 5d 20 42 33 69 3d 42
       29.604836 50.77489 40.091084 47.352734
000050 19 04 6d 41 a9 da 14 42 0c 64 6c 41 f1 ce 01 42
       14.8135 37.213535 14.7744255 32.45209
000060 ec 2c b9 41 ff 1d 9f 41 6d ab 28 42 3a b7 d3 41
       23.146935 19.889647 42.167408 26.464466
000070 0b ff 02 42 89 f9 be 41 b3 bb 91 41 2c fd 88 41
       32.749065 23.871843 18.21665 17.12362

convs.1.bn2.weight f4 [16]
000000 4b 74 9f 3f f9 f1 9b 3f 36 3b 9f 3f 5f 0d d0 3f
       1.2457365 1.2183219 1.2439945 1.625408
000010 1b ae b4 3f 9a 4a d5 3f 4d a8 9d 3f b7 9d b3 3f
       1.4115633 1.6663392 1.2316986 1.4032506
000020 f7 5f cf 3f c9 da b5 3f bc 87 91 3f b7 7d af 3f
       1.6201161 1.4207393 1.1369548 1.371024
000030 4d 1e d5 3f ba ed dc 3f fc 98 af 3f 21 6a 8a 3f
       1.6649872 1.7260048 1.3718562 1.0813638

convs.1.bn2.bias f4 [16]
000000 db 39 b3 be f4 c1 23 be b6 ba 7e bf 60 d6 da 3e
       -0.35005078 -0.15991956 -0.9950365 0.4274168
000010 aa 7a ad 3d f4 da ed bd 96 a2 6c 3e 7b e7 09 3e
       0.08470662 -0.116140276 0.23108897 0.13467209
000020 29 0e ed 3d 17 5d 40 bf 63 d9 3b 3d 6a 22 b1 bd
       0.115749665 -0.75142044 0.045861613 -0.08649142
000030 e6 a0 77 be 7f 45 a3 3e 4a 05 2a 3f 73 56 18 3c
       -0.24182472 0.3188896 0.6641432 0.009297955

convs.1.bn2.running_mean f4 [16]
000000 cc 78 58 40 3a 7d e2 40 a1 ad 6e 3f d6 75 7f 40
       3.3823729 7.0777864 0.93233687 3.9915671
000010 12 fd c6 3f cd f7 0d 41 1b 31 5c 40 f4 e8 ac 40
       1.5545981 8.872998 3.4404972 5.4034367
000020 39 e6 1a 41 19 94 84 40 40 93 8b 40 9d 29 1c 40
       9.681207 4.1430783 4.361725 2.4400399
000030 39 d9 35 41 65 a8 bb 3f 30 9a d7 40 61 3e fa 40
       11.365533 1.4660765 6.7375717 7.8201146

convs.1.bn2.running_var f4 [16]
000000 5e f7 92 41 5e ed fb 41 46 47 82 3f a6 5a 5c 40
       18.370785 31.490902 1.0178001 3.4430327
000010 95 a1 2d 40 72 47 ba 42 d6 02 8c 41 23 57 3a 41
       2.7129872 93.13954 17.501385 11.646274
000020 3e d0 63 42 14 f9 50 41 2d 9f fe 40 aa 78 15 41
       56.95336 13.06081 7.9569306 9.341959
000030 32 38 a6 42 c9 4d 12 40 9e c7 2e 42 92 74 ed 42
       83.10976 2.2859976 43.69494 118.72768

convs.2.fc_full.weight f4 [32, 56]
000000 fd 63 3b bf bb 2c 03 3f c9 7e 87 be bb 5f 46 bd
       -0.73199445 0.5124013 -0.26463917 -0.04843114
000010 fc af 3e 3f 5c 1c 39 3f 16 a3 95 3f d5 41 dc 3d
       0.7448728 0.723089 1.1690395 0.10754744
000020 0c b6 bf bf de d4 8f bf da ab ad 3e 5c 8b d7 be
       -1.4977431 -1.1236837 0.33920175 -0.4209851
000030 c9 9a 45 3d a8 ae 27 be ea 40 ea bd f3 2e 1c 3f
       0.048243318 -0.1637522 -0.114381626 0.6100914
000040 f9 97 3a 3f 26 dd ab be 73 c4 24 40 b0 2f 01 3e
       0.7288814 -0.3356716 2.5744903 0.12615848
000050 f9 8b 85 bf 8e ef 90 bd d5 1b ec be d5 e1 4c bf
       -1.0433341 -0.070769414 -0.46114984 -0.8003209
000060 1d 8f 3f bf 3b 70 8b 3f 9f a9 83 bf c9 da d3 3e
       -0.7482775 1.0893625 -1.0286139 0.41377857
000070 b8 d6 65 3f c0 db cd 3e 3d d9 58 3f fc f6 11 3e
       0.8978076 0.40206718 0.8470648 0.14254373
000080 2c ea 0b 3f 97 cc 82 3d 20 a6 f3 bf 28 cf a1 bf
       0.5465419 0.06386679 -1.9035072 -1.2641344
000090 4b 62 76 bf 58 cc 1d 3f 10 39 5a 3e 84 93 fb bf
       -0.96243733 0.6163993 0.2131083 -1.9654393
0000a0 08 4a 9e bf c5 e0 85 bf d6 2c e6 3e 29 df 9a 3e
       -1.2366343 -1.0459219 0.44956082 0.30248383
0000b0 c0 fb ee bf e5 60 96 bf 7c ae 60 bf ed 8f 5f 3f
       -1.8670578 -1.174832 -0.8776624 0.8732899
0000c0 17 5d 02 3f ee 18 39 be 2c c6 35 bf ab 25 bc bf
       0.50923294 -0.18075916 -0.7100551 -1.4698995
0000d0 2a e5 20 c0 51 fe 07 c0 71 66 56 bf 19 4f b4 3f
       -2.513987 -2.1248972 -0.83750063 1.4086639
0000e0 a1 31 a5 3f a0 61 44 bf d3 03 ef 3e f9 74 ad be
       1.290577 -0.76711464 0.46682605 -0.33878306
0000f0 ce f7 f9 be 22 19 48 be 64 17 cf bd a7 69 63 bf
       -0.48821872 -0.19540837 -0.10111883 -0.8883309
000100 70 cb 6f 3f d6 ac 92 3e 87 d9 19 3f e3 42 12 bf
       0.93669796 0.28647488 0.60097545 -0.5713331
000110 d6 fd 35 3f bd ee 6c be 84 d9 c4 3e 95 e0 f8 be
       0.7109045 -0.23137946 0.384472 -0.48608842
000120 25 03 12 3f b6 fc 26 bf 61 96 14 bd 6b f9 86 3f
       0.5703605 -0.65229356 -0.036276225 1.0544866
000130 8d 85 e8 bf a9 b7 54 bf d4 d4 a3 bf 20 42 9e bf
       -1.8165756 -0.83092743 -1.2799325 -1.236393
000140 b1 ac 19 3e c0 8a c4 3e ff 25 89 bc e7 71 31 bf
       0.15007283 0.38387108 -0.01674175 -0.69314426
000150 fd 76 6a 3f 1c 35 5c 3a 02 23 ce 3f 71 ec 40 be
       0.9158781 0.0008400248 1.6104434 -0.18840195
000160 70 e4 82 3f b0 2d 96 3f 17 28 c7 3f a5 5d 04 bf
       1.0225964 1.1732693 1.555911 -0.5170539
000170 67 3d 4d bf 01 35 91 3f 6f 75 a8 3f 10 7c c5 3f
       -0.8017182 1.13443 1.3160838 1.5428486
000180 71 23 ca be 30 e7 64 bf 3a 72 93 3f e1 e9 b7 3f
       -0.39480165 -0.89415264 1.1519234 1.4368249
000190 16 b7 cd 3f b1 bd b6 be 61 ac 41 bf 59 20 e6 be
       1.6071498 -0.35691598 -0.75653654 -0.44946554
0001a0 93 0c 2f be ba 4b b0 3d ae 6b 64 3f 21 41 e7 bf
       -0.1709464 0.08608194 0.89226806 -1.8066751
0001b0 62 cb fd bd 18 3a 35 40 d7 71 2f 40 a5 96 f1 3f
       -0.12392308 2.8316708 2.7413232 1.8874098
0001c0 f4 40 55 3f 95 d4 c1 3d d6 b3 a3 bf 6b 75 3a bf
       0.83302236 0.09464375 -1.2789257 -0.72835416
0001d0 d6 d6 a6 be a3 11 40 3f 9f e0 07 be 38 24 bf 3e
       -0.32585782 0.7502691 -0.1326928 0.3733232
0001e0 65 28 97 be 43 09 d7 be 74 6e 18 3f 8f e1 95 3e
       -0.29523006 -0.41999254 0.5954354 0.2927365
0001f0 cc b4 e6 bd b5 bd 82 bf 93 e6 16 3f 25 d3 32 be
       -0.11264953 -1.0214144 0.5894558 -0.17463358
000200 41 a8 47 3f cc 11 78 bf ed ff 2e 3f 26 85 d5 bb
       0.7799111 -0.96902156 0.6835926 -0.0065161167
000210 13 b5 99 bf 1e 91 df be cd a7 1b bf b3 14 fb bf
       -1.2008384 -0.43665403 -0.6080292 -1.9615692
000220 f9 7b 58 3f cd d9 1b bf 21 2e d4 3e 2b b9 37 c0
       0.8456417 -0.6087921 0.41441444 -2.8706768
000230 2d f4 85 3f 6e 88 43 3f 12 22 3c 3f ec f9 80 3f
       1.0465142 0.7638005 0.7348949 1.007627
000240 5e e8 85 bf 29 5b 97 bf 69 55 18 c0 92 5b 62 bf
       -1.0461538 -1.1824695 -2.380213 -0.88420975
000250 24 3c d6 3d f9 d5 77 bf bb a8 94 bf c6 ba 11 c0
       0.1046069 -0.9681087 -1.1613992 -2.2770247
000260 11 c1 4c bf 6d 3c 09 3d cb d1 45 bf 5d 84 96 bf
       -0.79982096 0.033504892 -0.77273244 -1.1759144
000270 ee 0c 0c c0 2a 22 3d bf 26 13 2f 3e af fd e0 bd
       -2.1882892 -0.73880255 0.17097148 -0.10985886
000280 7f 01 b8 3e b9 b4 97 3f 3e b8 01 40 58 58 b8 3e
       0.3593864 1.1852027 2.0268703 0.360049
000290 0a 88 2e bf 5a 81 c9 bf 37 6f c1 bf 6c c7 b9 bf
       -0.6817633 -1.57426 -1.5112065 -1.4513984
0002a0 72 22 44 bf 0f ce 16 bf 9d 38 82 3e ca 61 19 bf
       -0.7661506 -0.5890817 0.25433818 -0.5991484
0002b0 35 f4 b6 be d3 e7 9f be 11 db bf bc 0c 97 fe 3d
       -0.3573319 -0.31231555 -0.023419889 0.12431154
0002c0 25 d9 93 3e f4 cd 64 3f af 57 30 bf a2 0b 26 bf
       0.28876606 0.8937676 -0.68883795 -0.648615
0002d0 0e 6b 09 be 26 a2 2d 3f 8f 8b ee 3e f0 a3 42 be
       -0.13419744 0.67825544 0.4659085 -0.1900785
0002e0 76 71 bc be 3c c5 c6 3d c5 d3 44 3e f7 9d 99 3e
       -0.36805314 0.09705588 0.19221409 0.3000333
0002f0 5e 06 e7 bd 00 2e 9a 3e 19 d9 da 3c 5a 91 b6 3d
       -0.11280511 0.3011322 0.026714848 0.08914442
000300 6c 5f 0b 3f 71 ea 0e 3e b3 3a c4 bf 77 df d8 be
       0.5444248 0.1395662 -1.5330414 -0.4235799
000310 ce b6 b5 3f 66 2d 4b bf 18 a5 f6 3f f0 62 cb be
       1.4196413 -0.7936615 1.9269133 -0.3972392
000320 05 da 28 40 66 62 42 40 72 16 a6 40 7e 68 10 bf
       2.6383069 3.0372558 5.19024 -0.5640944
000330 53 32 c2 bf c8 58 1e 40 f7 97 3b 40 0e fb a6 40
       -1.5171608 2.4741688 2.9311502 5.2181463
000340 82 52 01 bf 16 13 ba bf 14 5e 19 40 47 99 39 40
       -0.5051652 -1.4537075 2.396367 2.8999803
000350 1d 99 a6 40 f4 7d 25 bf 42 56 bb bf ea ae ac 3f
       5.2061906 -0.64645314 -1.4635699 1.349088
000360 d6 5c 8c 3f 67 15 9e 3f 0f 98 a3 3f 86 47 22 c0
       1.0965831 1.2350281 1.278078 -2.5356154
000370 6f 01 d3 bf ae 76 77 3f f2 20 75 3f 33 f6 63 3c
       -1.6484812 0.96665466 0.95753396 0.013913679
000380 89 4e f0 be 18 ec 09 bf 51 a1 c0 be 4c 75 15 3f
       -0.46934918 -0.53875875 -0.37623075 0.58382106
000390 6d 7a d3 3e 31 ea 38 3d f5 27 d2 be df 2c d8 3e
       0.4130434 0.045145217 -0.4104611 0.42221734
0003a0 31 8c 2f 3f 2f 08 30 3f 84 37 dd 3e 4c bf a8 3f
       0.6857329 0.6876249 0.43206418 1.3183379
0003b0 12 df 5f bf f2 51 cc bd ac a7 85 bf e3 39 9b 3e
       -0.87449753 -0.09976567 -1.0441794 0.30317602
0003c0 52 17 b2 3f 21 ad ec 3d 27 de 08 3f 41 76 f3 3f
       1.3913367 0.11556459 0.5346398 1.9020463
0003d0 be ea 74 3f af 01 62 bf 8f b6 9f bf e2 cb 04 3f
       0.9567069 -0.8828382 -1.2477587 0.518736
0003e0 23 6a bb 3e 88 0a 88 3e f9 99 54 be 1e e0 1b be
       0.36604413 0.26570535 -0.20761861 -0.15222213
0003f0 91 7a ed 3d 5a 84 cc be 12 f4 7f 3e 10 46 07 3f
       0.11595643 -0.39944726 0.24995449 0.5284128

convs.2.fc_full.bias f4 [32]
000000 60 d3 b3 3e 83 ee 92 bd 51 62 38 be 94 16 94 3d
       0.35122204 -0.07174399 -0.18006255 0.07230869
000010 9c b3 91 3d da ec 90 3d 57 bb 1f be 8c 86 b4 bd
       0.07114336 0.07076426 -0.15598808 -0.08814725
000020 c5 9b 47 3d ce d9 41 3d 1e 03 96 be 3a 3f 03 bc
       0.048732538 0.047326855 -0.29299253 -0.00801068
000030 2f 0c f6 bc 33 8a 76 3c 5a 36 07 bd 08 e5 10 3d
       -0.030035106 0.015047598 -0.033010818 0.03537467
000040 03 55 b5 3e b0 5f 56 3b 13 05 84 3d 0d 05 03 be
       0.3541642 0.0032710843 0.0644628 -0.12794895
000050 d5 23 87 3d 2b 89 0c be 00 5c 75 3d b2 85 c6 3d
       0.06598631 -0.137242 0.05990219 0.09693469
000060 5e be 46 be af 0d 49 3d a1 ce 23 3e cd 3b 04 3d
       -0.19408557 0.049085315 0.15996791 0.032283593
000070 b0 9c 92 bc 99 a2 0c 3d 2e 42 ec 3c f0 01 7b 3e
       -0.01789698 0.034334753 0.02884015 0.24512458

convs.2.bn1.weight f4 [32]
000000 7e 3a 4a 40 6f 5f 2a 3f 8e f2 01 40 d0 56 ea 3f
       3.15982 0.6655187 2.0304294 1.8307743
000010 40 14 a0 3e 04 b4 c4 3e c0 da 01 40 2d 86 7a 40
       0.3126545 0.3841859 2.0289764 3.9144394
000020 3a 6d 09 3f 35 95 65 40 0e 64 5a 40 37 17 55 40
       0.5368229 3.5872319 3.4123569 3.329542
000030 ae 86 04 40 9d c8 34 40 72 d3 07 40 01 3f 90 40
       2.0707202 2.8247445 2.1222806 4.507691
000040 04 c9 85 40 c2 17 9c 3f de 46 b9 3f 3c 7c d7 3f
       4.180788 1.219475 1.4474752 1.6834788
000050 ec 2a 37 3f 00 4c c7 3f 11 b3 fa 3e 91 3f 19 3f
       0.7154987 1.5570068 0.48964742 0.5986262
000060 05 9b dc 3f 8b 56 34 40 f5 dd 96 3f 07 17 d3 3f
       1.7234808 2.8177822 1.1786486 1.6491402
000070 52 60 1d 40 90 14 b8 3f ce 97 c4 3f 36 a6 22 40
       2.459004 1.4381275 1.5358827 2.5413947

convs.2.bn1.bias f4 [32]
000000 8b 1c 8b bf 1f 19 9e bf 62 4f 75 bf 1a 09 92 be
       -1.0868086 -1.2351416 -0.95824254 -0.2852257
000010 b2 09 cd be 82 a7 5c 3f b7 64 7b 3f d2 a3 b2 3f
       -0.4004646 0.86193097 0.98200554 1.3956244
000020 4f 12 c9 bd 89 f1 60 bf 1f c2 6d 3f 8e d3 61 bf
       -0.09817945 -0.87868553 0.9287433 -0.8821343
000030 d0 b5 e3 be 45 eb f6 3d 8f ad fb be 33 99 82 be
       -0.4447465 0.12056593 -0.49155852 -0.25507507
000040 e9 20 d7 be be 0a c6 bf 89 d3 36 bf 99 53 0e c0
       -0.42017296 -1.5472028 -0.7141653 -2.2238524
000050 20 bf 57 bf 18 0f 32 bf fc 2c a5 3f 49 9e b5 3d
       -0.8427601 -0.6955428 1.2904353 0.08868081
000060 9c 51 71 bf 08 f3 bf bf 91 ca a9 bd 9e ec b7 bf
       -0.9426515 -1.4996042 -0.082905896 -1.4369085
000070 2c a7 06 c0 02 1d 41 be 88 c3 70 bf 49 91 b7 be
       -2.1039534 -0.18858722 -0.94048357 -0.3585303

convs.2.bn1.running_mean f4 [32]
000000 61 11 00 c1 f1 cd 37 c0 2b a0 c6 c1 3c a7 c9 41
       -8.004243 -2.8719447 -24.828207 25.206657
000010 17 d7 30 41 7e f4 7b c1 32 c0 d7 c0 54 d6 11 c2
       11.052512 -15.74719 -6.7422113 -36.459305
000020 81 1d fe c1 3f 3e 21 c1 d3 7c d6 c1 1e 13 c9 41
       -31.764406 -10.077697 -26.81095 25.134335
000030 82 ab 8e c2 b6 da b3 c1 af bd 46 c0 62 61 cc 41
       -71.33498 -22.481792 -3.1053274 25.54755
000040 e3 fd 49 c1 29 5f 44 c1 59 ca 15 c2 e2 eb 81 c0
       -12.624484 -12.273232 -37.447605 -4.0600443
000050 ed 54 71 41 9c db 5e c1 bb 6d a1 c1 34 ff 26 c2
       15.083234 -13.928616 -20.17858 -41.74922
000060 9e f1 b8 c1 9f 28 49 41 d6 4c 20 c2 c4 4b 05 42
       -23.117977 12.572417 -40.075035 33.32399
000070 59 d3 c3 c1 dc 7b d4 c1 4e 29 87 c1 07 ac d7 c0
       -24.478197 -26.560478 -16.895168 -6.7397494

convs.2.bn1.running_var f4 [32]
000000 d2 a8 31 42 cc 21 89 42 61 92 19 42 53 94 ba 41
       44.414864 68.56601 38.39295 23.322424
000010 25 17 72 42 6c a9 cf 42 6a c7 38 42 86 f4 17 42
       60.522602 103.8309 46.19474 37.988792
000020 df 7a 29 42 09 e7 8a 42 5e 89 a2 41 1d 7c 0b 42
       42.36999 69.45124 20.317074 34.871204
000030 b1 4b 4f 42 02 23 04 42 7e 44 a2 42 59 b0 71 42
       51.823917 33.034187 81.13377 60.422215
000040 d4 fc b2 41 73 25 b7 42 30 82 66 42 92 14 ba 42
       22.373451 91.57314 57.627136 93.04018
000050 71 73 5c 42 82 5a b7 42 a9 f8 a7 41 ca 25 03 42
       55.112736 91.67677 20.996416 32.786903
000060 35 a0 3c 42 aa 81 5e 42 b3 02 c1 42 8f 29 ed 41
       47.156452 55.626625 96.50527 29.645292
000070 6f a2 f8 41 62 4c 49 42 7e 65 ca 42 ca f2 93 42
       31.079313 50.324593 101.19823 73.9742

convs.2.bn2.weight f4 [16]
000000 51 74 cb 3f 6d 03 ad 3f fb d0 be 3f 6d 76 91 3f
       1.5894872 1.351667 1.4907526 1.1364266
000010 bc 76 b1 3f 10 f3 c6 3f 86 82 b1 3f c4 70 ae 3f
       1.386436 1.5542927 1.3867958 1.3628163
000020 01 46 a7 3f ef 5c dd 3f 2b 30 85 3f e0 29 c8 3f
       1.3068238 1.7293986 1.0405325 1.5637779
000030 69 64 9d 3f 14 bf 89 3f 89 07 d1 3f 0d 45 b7 3f
       1.2296268 1.0761437 1.6330425 1.4317948

convs.2.bn2.bias f4 [16]
000000 7a 65 98 bd 53 a3 55 be 4f be a7 bf 7f ff fd 3e
       -0.0744123 -0.20863084 -1.3104953 0.4960899
000010 51 6b 8d bf aa bd b6 be 54 74 01 3d c9 2b 11 bf
       -1.1048375 -0.35691577 0.03160508 -0.56707436
000020 ad e6 4e 3c 66 c5 c7 bf d6 bb e4 bd 90 35 c3 bf
       0.01262824 -1.5607116 -0.11168639 -1.5250721
000030 97 ce 3f bf 42 83 62 be c1 d0 0a be 46 57 80 be
       -0.74924606 -0.22120383 -0.13556196 -0.25066584

convs.2.bn2.running_mean f4 [16]
000000 1d 50 3d 41 ea 95 99 3f 4a 8c 5f 40 5f 69 a1 3f
       11.832059 1.1998875 3.4929376 1.2610282
000010 3a 00 0e 40 88 9e b2 40 12 e9 44 41 8c f2 d3 40
       2.2187638 5.581852 12.306902 6.623358
000020 e2 69 64 40 b9 d1 03 40 06 20 be 40 b4 b0 de 3f
       3.5689626 2.0596755 5.941409 1.7397676
000030 11 b3 41 40 e8 a7 c3 40 19 63 3d 40 c2 00 12 41
       3.0265543 6.1142464 2.9591734 9.125185

convs.2.bn2.running_var f4 [16]
000000 ee 6c 54 43 44 c4 33 40 04 80 21 41 73 2d 29 40
       212.4255 2.808854 10.093754 2.643399
000010 a8 51 86 40 50 37 6b 41 5a f8 00 42 c4 80 45 41
       4.197468 14.701004 32.24253 12.343937
000020 b9 91 ae 40 d2 10 d9 40 d6 c0 8c 41 01 b2 5a 40
       5.4552884 6.7833033 17.594158 3.4171145
000030 74 56 6f 41 c6 0c 43 42 73 57 6a 41 52 72 bb 42
       14.958607 48.762474 14.64635 93.72328
