cgcnndefect/no_train/checkpoint.pth.tar (torch, 208559 bytes, 121 tensors)

embedding.weight f4 [16, 92]
00000000: 289e 4cba df14 653d 4ebc afbd 0423 9dbd
00000010: b179 24bd c906 e53c 2360 07bb f94b a93d
00000020: 9096 17bc bdff e13c 6b0e 01bd b0e1 a7bc
00000030: 1dfc cbbd df68 8dbd e408 30bd 9a1a 7d3b
00000040: add2 283d ba1d 803d cdc0 90bd 7ff5 39bd
00000050: 7a1b 1b3d ac4d b13d cfc4 afbc 52c7 9f3d
00000060: a5a9 89bc 11bf 343c 0e56 c13d 3413 c6bd
00000070: 0c6b 86bd dc38 d8bc 8e75 26bd fa7a b83d
00000080: 0566 8abd 5494 44bd 3f2c 95bd 2cf9 c7bd
00000090: 7247 79bd 518a b73d 4f8d 3e3d 2ef9 4e3d
000000a0: 27ab b33b 62ef 5abd 157f 903c 805c c7bd
000000b0: 0d48 9abd 9026 5cbd 93b7 863d 9461 7a3d
000000c0: 9663 3dbd 5989 76bb e68e 883d 1d44 d43d
000000d0: cc7b 293d 45c2 663c 5229 8f3d d170 7bbd
000000e0: db26 9f3c d28a a5bd a5fc 93bd be99 5cbd
000000f0: 1439 413d d2bc 2b3d edf4 7cbd d502 013d
00000100: 806e 6a3d 2399 57bc 8a70 823b a9e4 c53c
00000110: 4876 843d fb04 cd3d e78a a4bd 0f7f 1cbd
00000120: 79d4 273d 2ce9 b03d 3ace b93d 5466 bc3d
00000130: 2df9 a93c 16ac b9bd 1223 1d3c 1794 85bd
00000140: 5cfd c6bd b6b5 bd3d e059 a23d adfd d4bd
00000150: e6db 9f3c a3e0 8fbc 2d8c 8cbc b77a 43bd
00000160: 4c38 243d 92ef 7cbd 5a8c 1c3d d2f4 573d
00000170: 1dda 983d 91ac 1f3d b953 d3bd 4b82 8abd
00000180: eb39 553d 51c2 b23c 0490 a6bd 82e5 75bd
00000190: 1cde c83d 6ddf 8f3d f832 3abd 2bf5 d6bc
000001a0: c665 cbbd c59e f5ba ceca a0bd fab2 a4bd
000001b0: 9e3c bcbb 323c 803c 82e2 2ebd fd64 7d3d
000001c0: 3cef 81bd 93bd c13d 0a53 923d 850e b4bd
000001d0: dd90 d4bc 0527 9a3b 9038 793c 8b90 ca3c
000001e0: e394 273d 0ea3 cc3b 275d 50bd c711 4a3d
000001f0: 50d1 ccbd a51b 7dbd eccc d5bc 0304 50bd
00000200: 5864 15bd 2d01 afbd b9ac b5bc 6590 b63c
00000210: a419 8bbd 8552 afbb fbd8 983d 2799 2fbc
00000220: a2e4 3d3b 385c 13bc 50d9 ac3c 7fc3 873d
00000230: 3c41 ca3d aa98 873d b4b7 ca3d 8d12 f7bb
00000240: f9ce bfbd e272 4abd d362 913d 382b 31ba
00000250: e741 54bd 379f a3bd 6cd2 c7bd 2a36 b4bd
00000260: e13c adbc 9f30 6a3d bfdf 663d 9eec cdbd
00000270: 6d30 853d 9814 a7bd 6c8f b4bc eb26 2dbd
00000280: 0582 a4bc 00b1 a7bc de99 bfbd 355c b8bd
00000290: 2da5 85bc 89b8 b03a 0ffe 41bd 5cdd 203d
000002a0: ea2d c0bd 818e e6bb c5c5 bb3d 682f 2ebd
000002b0: dfce c03d 3ba7 1a3d 3db1 c0bd be17 873d
000002c0: 6f1c 45bc e9a1 3ebd b0bd aa3d 228b acbd
000002d0: fd4a 373c 0bd1 b2bc f879 983d 0e69 ee3c
000002e0: 9d31 4d3d e7cf 163d 2962 cdbc dc9d b3bc
000002f0: f3f4 afbd 4563 673d 7a87 a93d 4718 923d
00000300: 8b9c 96bd da5d 983b 4384 96bd d013 6bbd
00000310: 4cd6 78bd 1df0 113d 2f7a 7ebd 7911 15bb
00000320: a3b7 8f3b 9da3 893d 3267 a1bd 4f95 92bd
00000330: d9f6 77bd ec72 953d 4a81 19bd c419 b43d
00000340: 846b 1a3d d64b 583c bb72 4bba bad5 a8bc
00000350: ba50 563c 0306 c3bc 0609 40ba b4f2 593c
00000360: f503 a7bd e3d2 5fbd 336a ac3d cb47 adbd
00000370: be4f f5bb 9538 d33d 0343 1a3d a273 413b
00000380: 9809 b9bd 818b 533d d615 98bd fe70 f2bc
00000390: 2f47 0fbd 99f4 7cbc 5079 953a a41c b03d
000003a0: 533e 553c 493f bf3d b19c 823d 52fd 86bd
000003b0: 2f87 3f3d 81ef 96bd 3efd 34bd ee33 fb3c
000003c0: 2101 0d3d 1130 a03d 5c78 09bd 3d02 2f39
000003d0: 56d9 5b3d 087e cebd b35e 9a3d 3e90 b0bd
000003e0: 3457 bc3a 0335 91bc bbe8 60bd 99c4 613c
000003f0: 0a90 b03d aea9 f9bc 9787 7dbd 60ef 1dbd
-0.00078055495 0.055928107 -0.08580838 -0.07672694 -0.040155116 0.027957337 -0.0020656667 0.08266444
-0.0092522055 0.027587766 -0.03150789 -0.020493358 -0.09960196 -0.06904768 -0.04297723 0.0038620592
0.04121654 0.0625567 -0.07068024 -0.04540014 0.037868 0.08657393 -0.02145615 0.07801689
-0.016804526 0.011031882 0.09440242 -0.096716315 -0.06563386 -0.0263943 -0.040639453 0.09007831
-0.0675774 -0.04799302 -0.0728383 -0.09764323 -0.06085915 0.08961929 0.04652148 0.050530605
0.0054830494 -0.05345095 0.017638722 -0.0973444 -0.07533274 -0.053747714 0.06577983 0.061128214
-0.04623755 -0.0037618487 0.06667881 0.10364554 0.041377828 0.014084403 0.06990303 -0.061386887
0.019427707 -0.080831185 -0.072259225 -0.053857557 0.047173575 0.04192812 -0.061757017 0.03149684
0.057234287 -0.013159069 0.003980701 0.024156885 0.06467873 0.100107156 -0.08034306 -0.03820711
0.040974114 0.08638224 0.09072538 0.09199205 0.0207487 -0.09066026 0.009590881 -0.065223865
-0.09716293 0.09263174 0.079272985 -0.10399947 0.019514035 -0.01756317 -0.017156685 -0.047724452
0.04009275 -0.06175191 0.038219787 0.052723713 0.07463477 0.03898293 -0.10318703 -0.06763133
0.052057188 0.021821173 -0.081329376 -0.06003333 0.09807989 0.07025037 -0.045458764 -0.026239952
-0.09931521 -0.0018739334 -0.07851182 -0.080419496 -0.005744531 0.015653703 -0.042696483 0.061863888
-0.063444585 0.094599865 0.07144745 -0.08791832 -0.025947982 0.0047043585 0.015211239 0.024727127
0.040913474 0.0062450236 -0.050870087 0.04933336 -0.10000861 -0.061793942 -0.02609869 -0.050785076
-0.03647265 -0.08545146 -0.022177087 0.02228565 -0.06792 -0.0053504133 0.07463261 -0.010717667
0.0028975387 -0.008994155 0.021099716 0.06629085 0.09875724 0.06620915 0.0989832 -0.007540053
-0.09365649 -0.049425967 0.07098927 -0.0006758454 -0.051820662 -0.07989352 -0.09756932 -0.087993935
-0.021147193 0.057175275 0.056365725 -0.10054897 0.06503377 -0.08158225 -0.022041045 -0.042273443
-0.02008153 -0.020470142 -0.0935552 -0.09001962 -0.016314114 0.001348273 -0.04736143 0.039273605
-0.093837574 -0.0070360308 0.09168581 -0.04252568 0.094144575 0.03775714 -0.094088055 0.06596325
-0.012030705 -0.04654113 0.08336961 -0.08424975 0.011187312 -0.021828195 0.07445139 0.029102828
0.050096143 0.036819365 -0.02507122 -0.02192586 -0.08591642 0.056491155 0.08277793 0.07133537
-0.07354077 0.00464986 -0.07349446 -0.05739194 -0.060751244 0.03562938 -0.062128242 -0.002274601
0.004385905 0.0672066 -0.07881011 -0.071573846 -0.060538147 0.0729731 -0.037476815 0.08793977
0.03770019 0.013201674 -0.00077609316 -0.020609725 0.01308077 -0.023806578 -0.00073255633 0.013302494
-0.081550516 -0.054644477 0.084186934 -0.08460959 -0.0074863127 0.103135265 0.037661564 0.0029518385
-0.09035033 0.051646713 -0.0742604 -0.029594894 -0.034979995 -0.015439176 0.0011403952 0.08599213
0.0130153475 0.093382426 0.06377543 -0.06591286 0.04675978 -0.073699005 -0.044186823 0.03066441
0.034424905 0.07821668 -0.03356205 0.00016690134 0.053674065 -0.10082632 0.07537594 -0.08621262
0.001436925 -0.017725473 -0.05490945 0.013779783 0.08621223 -0.030476417 -0.061896887 -0.038558364

embedding.bias f4 [16]
00000000: 6d23 d53d d3b6 c33d 3f02 5dbd 06af b5bd
00000010: 2371 c0bd e2a4 4dbd 1186 b33d 9f6b 0f3d
00000020: a603 ce3d b943 9e3d f61c c63a 6c55 84bd
00000030: 4e80 d03d 5247 ab3d 05e2 383d 6546 69bd
0.104071476 0.09556355 -0.05395722 -0.08871274 -0.09396579 -0.050206073 0.087658055 0.035014745
0.1005929 0.07727761 0.0015114832 -0.064616054 0.10180722 0.08363213 0.045137424 -0.0569519

convs.0.fc_full.weight f4 [32, 56]
00000000: 8d98 d73d 4a45 473c a9f6 b43d 3472 643d
00000010: f152 913d c824 f0bd 77bf 97bd 8d24 a43d
00000020: d210 e4bc 9717 eebd 5ce1 f83d 5463 3dbb
00000030: 06c5 dc3d cde8 d5bd 1873 3c3d 842b 4ebd
00000040: 6e55 66bd 5e52 e4bc 8999 4abd 99f6 953d
00000050: 0efe cfbc 7081 cf3d e5ca f93c ef25 a9bc
00000060: 2713 9ebd e798 fabd acac 1fbd a26e fdbd
00000070: f1d0 cabc 1f23 0f3b f517 0dbc 1d6f 86bd
00000080: bff2 bd3d e720 9a3d d2da 06bd f742 58bd
00000090: 9d0e ac3d b71a ee3d 7d96 fabd 3c85 ecbc
000000a0: 732e 4bbc a62c 46bd a7a3 e93d 31b3 a1bc
000000b0: 0e09 e83d 4b2d 2d3a c97c 6dbc a8a2 9fbd
000000c0: 6bff 35bd 6a5f 303d 281d 723d 77cc 9bbb
000000d0: 8762 023e 786b bdbd 9adc 513d 2c7e f63d
000000e0: 7159 bebc 0246 d93d 275d 103b c4f0 ccbd
000000f0: 9324 96bd 87bb 4b3d 95dd 6cbd dba4 033d
00000100: ecae 063e a7ec 393d e6e7 4cbc 27d0 083d
00000110: 2bad 9dbd eaf4 e5bd c5b8 cdbd 4da4 e5bd
00000120: 7aa7 e03c c53a d53c 4f9b 68bd 12d9 05be
00000130: 5740 943d 3949 9bbd 0dc2 b6bc d278 e5bd
00000140: 7365 9abd 3955 643d a8fd febd 850f 9cbd
00000150: cc2e cd3d a95a 8cbd 8bc8 63bd 8bae 19bd
00000160: 5ef8 693d d785 b3bd 7d85 5b3c 258a 5f3d
00000170: 95ef 1ebc 4cf1 c53c cfc5 d0bd 0475 773d
00000180: ab8f 4c3d 914f 89bc 4e4b e2bd 51ed 5a3d
00000190: aa95 b23d d978 bfbc 5bfe 803d 72e1 4a3d
000001a0: 32ec 5abd 3afd 17bc ac36 083e 6361 253a
000001b0: 74e0 d9bd 67ab 1fbc cd26 883d 17ab 32bd
000001c0: c251 8fbd ac72 e13d 0ec7 903d 6cfb b9bc
000001d0: 68b5 df3b ad8e 67bc f226 fe3c e59e 9b3b
000001e0: 519c a5bd f1d1 ca3c a60d 653b 7c8d 0d3c
000001f0: bf96 50bd 633e 0c3d 7f4e ddbd aa9d 233d
00000200: 8e4d 943d 6df3 70bc 5797 d4bd eaae feb9
00000210: c0e8 4639 fd82 ecbd c291 c1bd 1022 fd3d
00000220: e0a8 cc3d fbab 973d 5197 bd3d b8b5 523d
00000230: 8005 9a3d e042 b53d 14bb ffbc 2829 8bbc
00000240: b224 c33d 5bd9 49b8 b413 b2bd 2a35 d4bd
00000250: 5b0f 993d d4b0 e23d 2e8a d43d e32d b63c
00000260: b3e9 bc3d 4545 fbbd 4d2c c5bd 61ab 03be
00000270: 207f dc3d ee7c 9eba 2c09 7cbd 7f35 393d
00000280: 39e4 4cbd 2c85 afbd c41c 533d 4970 c83c
00000290: edfb c3bd 7842 b4bd 7251 803d b518 d03d
000002a0: a43b 323c 8e76 89bd a126 843d 09ec be3c
000002b0: e698 efbd a25a b1bd dc9a ef3c e957 a93d
000002c0: 14d8 2fbd cf54 843d a17d a9bd d4f1 023e
000002d0: 8001 c33d ad0b cd3c 2b83 733d 6190 3e3d
000002e0: c27e a1bd 40bb 98ba f5f4 113d fd16 f7bc
000002f0: 4e38 033e 1914 53bd 4a69 f4bd 564a 82bd
00000300: 7dfe fdbd 9585 e13d 01b6 75bd ff8c c0bd
00000310: fdab 6cbc a667 b8bd f8f5 8ebd c585 8b3d
00000320: 7079 cdbd 3210 813d 2193 c73d 4d26 9db9
00000330: 3c0b 733d 3c4d 99bd b06a d53d 0cee 043e
00000340: 1812 023d d664 f93d 10e7 07be fa65 70bc
00000350: 7a82 d93c 0ae0 edbd df2d 853d 789a 50bd
00000360: a1f7 45bd 5923 d9bd 4ec4 5f3d 3a22 c7bd
00000370: 4d4d e8bc 8726 733d 232c ce3d 2e8a f73c
00000380: 702f 4cbd 2814 6ebd fe9b 993d c61b cb3c
00000390: 9361 e63d ed1f 4e3d d677 dc3d b487 dcbd
000003a0: f203 dc3d 937b 7bbd 7684 12bd aeab 513a
000003b0: 9e4a cdbc d389 d83c 13df f33d 5e84 a3bd
000003c0: da1f 293d 45f4 dbbd 97e2 ab3c fe74 e13d
000003d0: ea88 b83d 8f5d ea3d ae25 943d e523 35bc
000003e0: 57e9 0e3d 93b6 64bd 514d e83d d707 893d
000003f0: ff4e c8bd a2a2 ec3d aef4 01bb caa5 c2bb
0.105271436 0.012162516 0.08836109 0.055772975 0.07095898 -0.117257655 -0.07409566 0.08014784
-0.027840052 -0.11625593 0.12152359 -0.0028898316 0.10779767 -0.10444794 0.0460082 -0.05033447
-0.056233816 -0.027871307 -0.04946283 0.073224254 -0.025389697 0.1013211 0.030492255 -0.020647971
-0.07718497 -0.12236195 -0.038983032 -0.12374617 -0.024757834 0.0021841002 -0.008611669 -0.06564162
0.09274816 0.07525807 -0.032923527 -0.052798238 0.08401225 0.11626189 -0.122357346 -0.028872125
-0.012401211 -0.048382424 0.11408167 -0.019738765 0.11329852 0.00066061754 -0.014495083 -0.07794696
-0.04443304 0.043059744 0.059109837 -0.0047545987 0.12732898 -0.09249014 0.051235773 0.12035784
-0.023236008 0.10609056 0.002202818 -0.1000686 -0.07331195 0.049739387 -0.057828505 0.03213964
0.13152665 0.045391705 -0.012506461 0.033401635 -0.07699045 -0.11228354 -0.100450076 -0.112129785
0.027423609 0.026029 -0.05678874 -0.13071087 0.07238834 -0.075823255 -0.022309327 -0.11204685
-0.07538881 0.055745337 -0.12450725 -0.076201476 0.100186914 -0.068532296 -0.055611175 -0.037519973
0.057121627 -0.08765762 0.013398525 0.054575104 -0.0097006755 0.02416291 -0.10193979 0.06041433
0.0499417 -0.016761573 -0.110495195 0.05344898 0.087199524 -0.023373054 0.062985145 0.049531408
-0.05344791 -0.0092766825 0.13302106 0.0006308762 -0.10638514 -0.009745455 0.06648026 -0.043620195
-0.06998016 0.110082 0.07069217 -0.022702895 0.006827045 -0.014133138 0.03102443 0.0047491663
-0.080864556 0.024758311 0.0034950762 0.00863969 -0.050925013 0.034239184 -0.108059876 0.039945282
0.07241355 -0.014706475 -0.10380428 -0.00048576976 0.00018969458 -0.115484215 -0.09451629 0.123600125
0.09993148 0.074058495 0.09257377 0.05144283 0.0752058 0.08850646 -0.031217135 -0.016987398
0.095284835 -4.8124562e-05 -0.08695164 -0.10361703 0.07473632 0.110688835 0.10377918 0.022238677
0.09224262 -0.122690715 -0.0962759 -0.12858345 0.10766435 -0.0012091675 -0.061532184 0.045217033
-0.050022338 -0.085703224 0.051541105 0.024467604 -0.095695354 -0.088017404 0.062655345 0.101609625
0.010878477 -0.06712066 0.064526804 0.02330591 -0.11699085 -0.08659865 0.029248647 0.08268721
-0.042930678 0.064614885 -0.08275915 0.12787563 0.095217705 0.025029982 0.059451263 0.04652441
-0.07885505 -0.0011652485 0.035634 -0.030162329 0.12814447 -0.05153284 -0.11934145 -0.06361835
-0.124020554 0.11011807 -0.059988026 -0.09401893 -0.014445302 -0.09004144 -0.069805086 0.06812624
-0.10032928 0.06301917 0.097448595 -0.0002997391 0.059336886 -0.074854344 0.1042074 0.12981433
0.031755537 0.12177436 -0.13271737 -0.014672751 0.026551474 -0.11614998 0.0650289 -0.050928563
-0.04833186 -0.10602445 0.05463057 -0.09723325 -0.028357172 0.059362914 0.10067012 0.030217256
-0.049849927 -0.05812469 0.07500456 0.024793517 0.112490796 0.050323416 0.107650444 -0.10768071
0.1074294 -0.061397146 -0.035770856 0.00079982996 -0.025059994 0.026432907 0.119077824 -0.079842314
0.04129014 -0.1073995 0.02098207 0.110086426 0.09010489 0.11443626 0.07233749 -0.011055921
0.0348905 -0.05583818 0.11342872 0.066909485 -0.09780692 0.11554457 -0.0019829678 -0.0059401738

convs.0.fc_full.bias f4 [32]
00000000: 7b20 83bc 8549 fa3d 5785 79bd 4d90 003e
00000010: d618 d2bd 4656 e4bd bdfe 313d 1f47 9fbd
00000020: f25f 8c3d 0669 97bd 8382 d73d b87f 043e
00000030: 292a 0c3c a5f5 e93c 3927 ff3d 443d a23d
00000040: 5aea eebd 902b 8cbb 6d0a f7bd 9d0e d13d
00000050: 1883 c8bc 442e 74ba b424 a8bd edcf 94bd
00000060: 2e12 8e3c 44cd e13d 5490 89bd 7ee2 4e3c
00000070: 9fbb f73d 8b45 f53d 4a05 d6bc b440 003e
-0.016006699 0.12221054 -0.06091818 0.12555046 -0.10258643 -0.11149268 0.043455828 -0.07777237
0.068542376 -0.073930785 0.1052294 0.12939346 0.008554974 0.028559515 0.12458653 0.07921842
-0.11665793 -0.004277654 -0.120625354 0.102078654 -0.024476573 -0.00093147554 -0.082101256 -0.07266221
0.017342653 0.110254794 -0.067169815 0.012627242 0.12096333 0.11976155 -0.026125569 0.12524682

convs.0.bn1.weight f4 [32]
00000000: 0000 803f 0000 803f 0000 803f 0000 803f
00000010: 0000 803f 0000 803f 0000 803f 0000 803f
00000020: 0000 803f 0000 803f 0000 803f 0000 803f
00000030: 0000 803f 0000 803f 0000 803f 0000 803f
00000040: 0000 803f 0000 803f 0000 803f 0000 803f
00000050: 0000 803f 0000 803f 0000 803f 0000 803f
00000060: 0000 803f 0000 803f 0000 803f 0000 803f
00000070: 0000 803f 0000 803f 0000 803f 0000 803f
1.0 1.0 1.0 1.0 1.0 1.0 1.0 1.0
1.0 1.0 1.0 1.0 1.0 1.0 1.0 1.0
1.0 1.0 1.0 1.0 1.0 1.0 1.0 1.0
1.0 1.0 1.0 1.0 1.0 1.0 1.0 1.0

convs.0.bn1.bias f4 [32]
00000000: 0000 0000 0000 0000 0000 0000 0000 0000
00000010: 0000 0000 0000 0000 0000 0000 0000 0000
00000020: 0000 0000 0000 0000 0000 0000 0000 0000
00000030: 0000 0000 0000 0000 0000 0000 0000 0000
00000040: 0000 0000 0000 0000 0000 0000 0000 0000
00000050: 0000 0000 0000 0000 0000 0000 0000 0000
00000060: 0000 0000 0000 0000 0000 0000 0000 0000
00000070: 0000 0000 0000 0000 0000 0000 0000 0000
0.0 0.0 0.0 0.0 0.0 0.0 0.0 0.0
0.0 0.0 0.0 0.0 0.0 0.0 0.0 0.0
0.0 0.0 0.0 0.0 0.0 0.0 0.0 0.0
0.0 0.0 0.0 0.0 0.0 0.0 0.0 0.0

convs.0.bn1.running_mean f4 [32]
00000000: 4546 d83d 24b4 a43e 39e5 1d3b 2b88 a83e
00000010: 9de1 febe fbf5 a0bc 4468 363f 2317 b03e
00000020: 4a77 95be 3c13 6d3e 23fd 82be 7836 9c3d
00000030: 209a 0dbe 2ed1 9b3e fc73 773d 7a27 fd3c
00000040: 4c3c a7be 410f 01bf b6b5 fcbe 310e f03e
00000050: 5c07 ae3e 78a8 063e 1ec0 58be 588f 81be
00000060: d694 0ebf c3a5 8d3e 66cc 2a3e a085 abbe
00000070: 6362 363e 181f 9cbe e1d3 51be 30ea 16bf
0.10560278 0.32168686 0.0024092926 0.32916388 -0.49781504 -0.019648543 0.71252847 0.34392652
-0.29192573 0.23151869 -0.25583753 0.076275766 -0.13828325 0.3043303 0.060413346 0.030902613
-0.3266319 -0.504139 -0.49357384 0.46885827 0.3398999 0.13150203 -0.21167037 -0.25304675
-0.55695856 0.2766553 0.16679534 -0.33500385 0.17810969 -0.30492473 -0.20490982 -0.5895109

convs.0.bn1.running_var f4 [32]
00000000: 0876 ec3b edf5 323b 1f3e b43b f7de 0e3c
00000010: 9a03 cd3b f3af 813b 2309 ef3b 9223 c33b
00000020: bb41 823b af75 493b e97e c23b 8235 073c
00000030: aad3 a33b 8af3 693b f4f6 113c 634d cb3a
00000040: c048 633b ef24 a23b 5727 be3b c695 f23b
00000050: 07d3 f83a 9856 cd3b bc44 a13c bd93 eb3b
00000060: b576 f03b ad43 423c 2b33 543c 5978 ad3b
00000070: 135b 143c 8eab a43b 318f c03b b1e9 273c
0.007216219 0.0027307228 0.0055005695 0.008720151 0.006256533 0.0039577424 0.0072947904 0.005955168
0.003975121 0.003074031 0.005935539 0.008252503 0.0049995976 0.003569814 0.008908976 0.0015510734
0.0034680814 0.0049482505 0.0058030295 0.0074031083 0.001898379 0.0062664263 0.019686095 0.0071892426
0.0073383697 0.0118569555 0.0129516525 0.0052938876 0.009054917 0.0050253337 0.0058764447 0.0102485875

convs.0.bn2.weight f4 [16]
00000000: 0000 803f 0000 803f 0000 803f 0000 803f
00000010: 0000 803f 0000 803f 0000 803f 0000 803f
00000020: 0000 803f 0000 803f 0000 803f 0000 803f
00000030: 0000 803f 0000 803f 0000 803f 0000 803f
1.0 1.0 1.0 1.0 1.0 1.0 1.0 1.0
1.0 1.0 1.0 1.0 1.0 1.0 1.0 1.0

convs.0.bn2.bias f4 [16]
00000000: 0000 0000 0000 0000 0000 0000 0000 0000
00000010: 0000 0000 0000 0000 0000 0000 0000 0000
00000020: 0000 0000 0000 0000 0000 0000 0000 0000
00000030: 0000 0000 0000 0000 0000 0000 0000 0000
0.0 0.0 0.0 0.0 0.0 0.0 0.0 0.0
0.0 0.0 0.0 0.0 0.0 0.0 0.0 0.0

convs.0.bn2.running_mean f4 [16]
00000000: fc12 a040 7469 9040 2df3 af40 9a50 8e40
00000010: 8c0d ac40 28c1 7b40 9bd5 a040 84a9 ad40
00000020: a48b 8b40 06db a140 846c 8740 9fa8 9d40
00000030: 7c17 9740 c5d8 8640 54d6 9e40 9f0e 9140
5.0023174 4.5128727 5.4984345 4.447339 5.3766537 3.9336643 5.026075 5.426943
4.360796 5.0579863 4.2319965 4.9268336 4.7216167 4.213961 4.963663 4.533035

convs.0.bn2.running_var f4 [16]
00000000: 0025 9540 16fe bc40 709d 1341 afc3 9e40
00000010: 8656 d140 dbfc e63f 7692 8241 e23f 9240
00000020: a24b e33f 0c3c f240 12a9 843f 38f7 7940
00000030: 752c 1c40 77b1 1640 3a26 6640 cf04 0840
4.6607666 5.9060163 9.225937 4.961387 6.541812 1.8045915 16.321514 4.570298
1.7757456 7.56983 1.0364096 3.905714 2.4402134 2.3545816 3.5960832 2.1252935

convs.1.fc_full.weight f4 [32, 56]
00000000: 0154 473d e540 f93d ecea 813b 47f0 e7bd
00000010: b8fd 14bd d02a 243d adf1 913d a151 08be
00000020: dde0 d43d f681 f5bd 245a a03d 5f03 073e
00000030: cee2 063d c49a cebc edaf 963d 8174 22bd
00000040: 6bb8 cabd 6139 c2bd 62ad 803d 3803 d13d
00000050: 624f b13b 30ad 04be 3775 06be 1d31 f7bc
00000060: 3dbc 933d 4460 b6bd 8e88 133d 3595 95bd
00000070: 99aa de3d 486c 0fbd 8f22 e4bc 1209 f0bd
00000080: fd20 f5bd 68f8 133c f100 b13c a2db 933d
00000090: 514f efbd 7ad0 bf3c dd23 9ebc 7289 a03d
000000a0: d7e0 78bd 1212 233d d990 5c3d 3f7a 893d
000000b0: 49bc 3bbd bc24 303d d28a d6bc ed63 133d
000000c0: af48 a8bd 1177 d9bd e3dc dfbd 340a acbd
000000d0: 73a7 67bd d6f2 a23c bd73 efbc ffcb 9bbd
000000e0: 4423 933a 07da 2cbd b0b3 a83d 9066 e1bd
000000f0: 3208 4abd 76df afbd 8713 873c a7e3 ee3b
00000100: 31e5 fbbb 18c5 073e 38ce 50bd 3557 9dbc
00000110: 8169 0d3d af69 e43d 8870 cf3d 3f1d 7a3c
00000120: d613 4fbd a0d0 333d 5131 ac3d 2de6 3abb
00000130: cf41 963d 58fb df3d 71a0 92bd 3b03 f2bc
00000140: ef64 f6bd e24a fb3c be0b c33d d694 d4bc
00000150: 2fae ae3c b1e5 2e3d 2fcb 3abb 39c4 d43d
00000160: 8485 9f3c 0b81 06be 58ff e1bd f892 07be
00000170: 857a b43b b0f0 933d b06c 90bc b010 f63d
00000180: a9f0 c4bc efcf df3c cac8 f63d 4481 8a3d
00000190: 5cb2 8bbb 26ce 033e ea82 a3bd fadf 4b3d
000001a0: 11d6 ac3d 2475 a9bd a489 00be ad13 2f3d
000001b0: aaa8 4fbd aa1b 8abd fabd d93c 2d88 c6bd
000001c0: 1125 f63d aa88 44bc 5d4a 2fbd a0c9 e43d
000001d0: bf67 183d ae90 d03c 4cda 82bd a66a 023e
000001e0: bab4 26bd c99f e33d 97f0 20bc 3249 893d
000001f0: 6f6d c03d 88c0 cbbd d567 b6bd 0550 07be
00000200: 5464 c53d 665b eb3d 470a 48bd 630a 86bd
00000210: 0f3e b73c 5b57 933d 0c1b 073d 9125 e4bc
00000220: fe13 aebd dd10 ea3d 6a3c b1bd e839 04be
00000230: d08a 5abd db4a da3c 0472 4b3d 89a4 533d
00000240: 358a 9ebd 5b11 52bd 5a65 73bd ab87 84bd
00000250: 7482 e6bd c915 e03c df2d 1fbd 09b5 03be
00000260: c9cd 9fbd d05a a4bd 5a1b 6cbd f11a a9bd
00000270: a7d7 bdbc 7626 443d 497d ddbd f38d 3bbc
00000280: a185 1dbd 3aeb 8bbd a313 f3bc 05fc 67bd
00000290: d6c4 8c3b 7c8d c5bd 1999 cf3c 3445 fb3d
000002a0: 44c5 e23d ea68 75bd 84b5 283d f156 01be
000002b0: 566b e63d 205e 08be 4990 f4bd bba8 f5bd
000002c0: 5c26 febd 5e41 943c ccbc 10bd d001 033d
000002d0: af77 07bc ac1f 3cbb 6cbf 45bd c85e a2bd
000002e0: e822 e5bd 9b17 8a3d 5f1b 8dbd a1a3 debc
000002f0: 3aec 843d d68e 07bd 9501 0abd ce71 b6bd
00000300: 2c28 eabd ed5a 833d 10fc f6bc a816 ac3d
00000310: 5519 103c b2fa 31b9 1413 f7bd da59 413b
00000320: 2a66 f7bc 2d2b 9cbd fe5a fdbc 2ceb e43b
00000330: ac35 cebd f007 b63c 726d be3d 5c41 d83c
00000340: 6d9e 023e c46a 7f3d 7bd5 d7bd f771 57bd
00000350: 55b7 03bd 6bbc 233d dbc7 79bb cc39 dc3d
00000360: b755 7e3c 5452 adbd e2aa 48bd f9af e3bd
00000370: bceb 16bd f18d 863d fe22 a93a 347d 02be
00000380: 91cf ecbd a270 463d a934 f0bd fc49 dabd
00000390: 5f2b a3bd 2e6c 023e 0ea3 1bbd 6dac 61bd
000003a0: 0aca b8bd 7912 af3d 9ac2 b0bc c218 d33c
000003b0: b4c1 023d 195e 1a3d 332d af3d 473b e33b
000003c0: 7277 623c 1b2e 0ebc 0faa d4bd 4f85 fabc
000003d0: 643c 023e bff5 c1bd 17b8 acbd 37c9 07be
000003e0: adc2 043c 8ff9 ffbd cc2c 8cbd 052d fc3d
000003f0: 8eb1 623d 79ce 913d 7472 bb3c 5c90 e8bd
0.048664097 0.12170581 0.0039647724 -0.11325126 -0.036374778 0.04007989 0.07126174 -0.13312389
0.10394452 -0.11987679 0.07829693 0.1318488 0.03293114 -0.025220282 0.07357774 -0.039661888
-0.09898456 -0.094836004 0.0628307 0.10205692 0.0054110745 -0.12956691 -0.13130651 -0.030174786
0.07213638 -0.0890508 0.0360189 -0.073038496 0.10872383 -0.035015374 -0.02784851 -0.1172048
-0.11969183 0.009031393 0.021606894 0.07219626 -0.1168505 0.023414839 -0.01930421 0.078387156
-0.0607613 0.039812155 0.053849075 0.0671277 -0.04583386 0.043003783 -0.026189242 0.03598397
-0.08216988 -0.10618413 -0.10930803 -0.084003836 -0.056556176 0.019891184 -0.029229993 -0.076072685
0.001122572 -0.042200115 0.08237398 -0.1100589 -0.049324222 -0.08587544 0.016488804 0.007290322
-0.007687234 0.13258779 -0.050977916 -0.019206623 0.034524444 0.1115297 0.101288855 0.015265762
-0.050556026 0.043900132 0.08407844 -0.0028518543 0.07336771 0.10936612 -0.07159508 -0.029542556
-0.1203097 0.030675355 0.09523724 -0.025949877 0.021323292 0.04269952 -0.0028502455 0.10388989
0.019472845 -0.13135163 -0.11035031 -0.13239658 0.0055077695 0.07223642 -0.017629951 0.12014902
-0.024040537 0.02732083 0.12050016 0.06762937 -0.0042632055 0.12871608 -0.07983954 0.049774148
0.084392674 -0.08274296 -0.12552506 0.042743374 -0.05069796 -0.06743558 0.026579846 -0.09693942
0.120187886 -0.011995474 -0.042795528 0.111712694 0.037208315 0.025459614 -0.06389293 0.12735996
-0.040699698 0.11114461 -0.009822986 0.06703414 0.09395873 -0.09948832 -0.08906523 -0.13214119
0.09638277 0.11492042 -0.048837926 -0.0654495 0.022368459 0.07194396 0.03298478 -0.027849944
-0.08499907 0.11428998 -0.08654101 -0.12912714 -0.05335504 0.026647022 0.04966928 0.051670585
-0.07741205 -0.051286083 -0.05942283 -0.06471189 -0.11255351 0.027354138 -0.038862105 -0.12862028
-0.07802922 -0.080251336 -0.057643272 -0.08257092 -0.02317412 0.04788824 -0.10814912 -0.011447418
-0.038457517 -0.06831975 -0.02967245 -0.05663683 0.0042959256 -0.09646127 0.025341557 0.12269059
0.11072782 -0.059914507 0.04118873 -0.12630822 0.112509415 -0.13317156 -0.11941583 -0.119950734
-0.1240966 0.018097576 -0.0353363 0.03198415 -0.008268281 -0.0028705401 -0.048278257 -0.07928234
-0.111882985 0.06742784 -0.06889986 -0.027177634 0.06490369 -0.033095203 -0.033692915 -0.08908425
-0.114334434 0.06413827 -0.03014949 0.08402759 0.008795102 -0.00016973427 -0.12064186 0.0029503019
-0.030200083 -0.076254226 -0.030927178 0.0069860425 -0.10068831 0.022220582 0.09298219 0.026398353
0.12755747 0.06235768 -0.10538765 -0.05259892 -0.03215726 0.03997461 -0.0038113508 0.107532114
0.015523366 -0.084629685 -0.04899109 -0.111175485 -0.036845908 0.06570042 0.0012904105 -0.12743074
-0.11563028 0.04844726 -0.11728794 -0.10658643 -0.07967257 0.1273658 -0.037997298 -0.05509608
-0.09022911 0.08548445 -0.021577168 0.025768641 0.03192301 0.037687395 0.08553543 0.0069345566
0.013822423 -0.008677985 -0.103839986 -0.030581145 0.1271835 -0.094707005 -0.0843355 -0.13260351
0.008103055 -0.124987714 -0.06844482 0.12313274 0.05534511 0.0711946 0.022881724 -0.11355659

convs.1.fc_full.bias f4 [32]
00000000: 58bd 83bd 0edc ac3d 61a0 94bb 9070 9cbd
00000010: 81c2 a3bd 4dde 003e f702 b23d ce3d c4bd
00000020: f6f6 8538 e877 3dbb 8973 823d 9164 eabd
00000030: 4328 023b 3b5f 363d 3846 8b3d 3fee 643c
00000040: 28a7 87bd c25d 03be dfec 933d 0edb f93d
00000050: 9141 25bd 3b92 f4bd ac25 203d 9edf bfbd
00000060: 5ccf b2bd 3d33 153d 58e9 4fbc afec 14bc
00000070: 0979 f53d 6303 c0bc cb96 a63d 3359 2abd
-0.06432599 0.084404096 -0.00453572 -0.07638657 -0.07996083 0.12584801 0.08691972 -0.09582101
6.387934e-05 -0.002891058 0.06369693 -0.11444963 0.0019860424 0.044524413 0.068005025 0.013972818
-0.066236794 -0.12828735 0.07222914 0.121999845 -0.040345732 -0.11941954 0.039098427 -0.093688235
-0.08730957 0.036425818 -0.012689911 -0.009089633 0.11985976 -0.023439115 0.0813423 -0.041588973

convs.1.bn1.weight f4 [32]
00000000: 0000 803f 0000 803f 0000 803f 0000 803f
00000010: 0000 803f 0000 803f 0000 803f 0000 803f
00000020: 0000 803f 0000 803f 0000 803f 0000 803f
00000030: 0000 803f 0000 803f 0000 803f 0000 803f
00000040: 0000 803f 0000 803f 0000 803f 0000 803f
00000050: 0000 803f 0000 803f 0000 803f 0000 803f
00000060: 0000 803f 0000 803f 0000 803f 0000 803f
00000070: 0000 803f 0000 803f 0000 803f 0000 803f
1.0 1.0 1.0 1.0 1.0 1.0 1.0 1.0
1.0 1.0 1.0 1.0 1.0 1.0 1.0 1.0
1.0 1.0 1.0 1.0 1.0 1.0 1.0 1.0
1.0 1.0 1.0 1.0 1.0 1.0 1.0 1.0

convs.1.bn1.bias f4 [32]
00000000: 0000 0000 0000 0000 0000 0000 0000 0000
00000010: 0000 0000 0000 0000 0000 0000 0000 0000
00000020: 0000 0000 0000 0000 0000 0000 0000 0000
00000030: 0000 0000 0000 0000 0000 0000 0000 0000
00000040: 0000 0000 0000 0000 0000 0000 0000 0000
00000050: 0000 0000 0000 0000 0000 0000 0000 0000
00000060: 0000 0000 0000 0000 0000 0000 0000 0000
00000070: 0000 0000 0000 0000 0000 0000 0000 0000
0.0 0.0 0.0 0.0 0.0 0.0 0.0 0.0
0.0 0.0 0.0 0.0 0.0 0.0 0.0 0.0
0.0 0.0 0.0 0.0 0.0 0.0 0.0 0.0
0.0 0.0 0.0 0.0 0.0 0.0 0.0 0.0

convs.1.bn1.running_mean f4 [32]
00000000: 9475 95be 1917 d73e 3cb3 1bbf a5f2 5abf
00000010: 6db8 41bf df61 03bf 5e27 cc3e 546c 0c3f
00000020: 4da8 19be ab5a bbbd f0a9 d93e b7ac aabe
00000030: b0b2 993e 38d5 d2bd 26e4 073d 5c5f 27be
00000040: 6d73 72bc 92fd 09bf 4453 963d 29dc 22bf
00000050: 448a 1f3f de2d 233f c86f 37bf 22fb 5b3f
00000060: 7565 76bf 8247 90be 5948 ca3e 8cc4 abbc
00000070: 118e 5bbf 2e6c 49be 20c6 38bf e962 f23e
-0.29191267 0.4200981 -0.60820365 -0.85526496 -0.75672036 -0.51321214 0.39873785 0.54852796
-0.15005608 -0.09148153 0.42512465 -0.33334896 0.3001914 -0.102945745 0.033176564 -0.1634497
-0.014798027 -0.5390254 0.073401004 -0.6361719 0.6232035 0.6374186 -0.7165494 0.85930073
-0.9624856 -0.28179556 0.39508322 -0.020967744 -0.8576365 -0.19670174 -0.72177315 0.47341087

convs.1.bn1.running_var f4 [32]
00000000: 9476 273d 7d64 863d f342 483d bcca 853d
00000010: 76fd 253d c019 7b3d 60d3 4b3d 510a a63d
00000020: f73e 803d 3aa1 9c3d 5ab6 5b3d 7a55 323d
00000030: 054a d43d 2f91 453d 7cbc 893d cee5 2a3d
00000040: 321b 3a3d 2014 a83d acc2 8d3d 94a7 c13d
00000050: ef77 173d fce3 533d 86cf 8c3d ede0 983d
00000060: 859c 583d 7938 803d 8bf1 c63c e4cf 7c3d
00000070: 035c a53d 463c 543d dec1 403d 1892 763d
0.04088457 0.06562135 0.048891973 0.06532809 0.040524922 0.061303854 0.04976213 0.081074364
0.062620096 0.07647939 0.0536407 0.043538548 0.103656806 0.04823416 0.06725404 0.041723065
0.04543609 0.082069635 0.06921896 0.09455791 0.036979612 0.051731095 0.068755195 0.07464776
0.052883644 0.06260771 0.024285099 0.061721697 0.080741905 0.051815294 0.047059886 0.06019792

convs.1.bn2.weight f4 [16]
00000000: 0000 803f 0000 803f 0000 803f 0000 803f
00000010: 0000 803f 0000 803f 0000 803f 0000 803f
00000020: 0000 803f 0000 803f 0000 803f 0000 803f
00000030: 0000 803f 0000 803f 0000 803f 0000 803f
1.0 1.0 1.0 1.0 1.0 1.0 1.0 1.0
1.0 1.0 1.0 1.0 1.0 1.0 1.0 1.0

convs.1.bn2.bias f4 [16]
00000000: 0000 0000 0000 0000 0000 0000 0000 0000
00000010: 0000 0000 0000 0000 0000 0000 0000 0000
00000020: 0000 0000 0000 0000 0000 0000 0000 0000
00000030: 0000 0000 0000 0000 0000 0000 0000 0000
0.0 0.0 0.0 0.0 0.0 0.0 0.0 0.0
0.0 0.0 0.0 0.0 0.0 0.0 0.0 0.0

convs.1.bn2.running_mean f4 [16]
00000000: 4100 9640 48f5 9540 2e4d 9140 e61e 9240
00000010: 416f 9640 c0c3 9140 d75c a540 30c4 8340
00000020: 1b8e 8840 12ff 9240 3968 9a40 9649 8e40
00000030: fc44 9a40 442c 9b40 5d2f 9b40 42e9 8e40
4.687531 4.6861916 4.5406713 4.566272 4.701081 4.5551453 5.167583 4.1176987
4.267347 4.5936365 4.8252225 4.4464827 4.820921 4.8491535 4.8495317 4.465974

convs.1.bn2.running_var f4 [16]
00000000: 719f 2441 9c02 ec40 9f7a 9340 bf75 c340
00000010: afe2 dc40 70b7 1b41 942b d040 7133 2f40
00000020: a8c1 9b40 020b 2e40 bbd6 4941 cd90 ad40
00000030: 2ff0 e640 b49a f340 7800 c440 49da 1741
10.288926 7.3753185 4.6087184 6.1081233 6.9026713 9.732285 6.5053196 2.7375147
4.8673897 2.7194219 12.614924 5.423926 7.2168193 7.6126347 6.125057 9.490792

convs.2.fc_full.weight f4 [32, 56]
00000000: a1a4 cb3d 51fb 263d 2adf f33d a0e7 3e3d
00000010: 9ee1 41bd a690 6e3d 662a e93d 807b cf3c
00000020: 3358 7c3d 7f89 c0bd 9049 943d ea59 01be
00000030: 5fef f13d a611 623d ca14 103c e112 00be
00000040: b0de f83d bc81 ae3d f64a fc3d 6d2b 573d
00000050: e655 383d 3fc8 0dbd 2e4e 60bd b8f8 583d
00000060: 02d3 3d3d 0df6 8dbb 2a1f ae3c c405 3c3d
00000070: ec3b 04be ee05 f2bd fcb4 11bd b263 ba3d
00000080: 7c85 853d 3f9b 02be 6557 24bd 796e 67bc
00000090: c4c5 333d 55e6 df3d f48a 3f3b 7206 d5bd
000000a0: fa56 063c 985d 53bd 2c41 a7bd 0e96 973d
000000b0: 4c13 93bc 0e51 813d 8619 d53d 9d2d 573c
000000c0: b925 9a3d c140 81bd 1dc5 983d 3aef ae3b
000000d0: 8ddd b53d 35d3 023e e505 cfbd 27e7 013e
000000e0: d9e9 d03d e976 dcbd 8873 203d 28cd debd
000000f0: 968d 313d e148 a93c 7ba0 02be e1b2 463d
00000100: b558 16bd 9265 083e 048e 053e 7af3 3c3d
00000110: 08b9 d73d 4eb1 453d 3e76 013e ec23 4abc
00000120: 2d47 073d 7cd3 b4bc 0628 19bb 0e1e 25bd
00000130: e79d 58bd b250 9e3d 16e2 6a3d 179f 71bd
00000140: ce30 f1bd cdd0 853d 11bf fbbd 7dc4 c1bb
00000150: 6b7b ebbd 2d28 e53d 00d9 de3d 01eb e0bd
00000160: f871 febd 54cf a1bd 6709 173d c9db 88bd
00000170: 7859 02bd fcbd 0abd eecd c83c 3973 81bd
00000180: 83f1 783d add6 c3bd 20e3 42bc ea66 e53d
00000190: 261e 97bd 08f8 d13d ea6f 8e3d e9cd 30bd
000001a0: 47cd 3d3d 79e3 b8bd 7d35 303c 000b 1b3d
000001b0: feb7 ec3d 9e24 99bd 31a5 9bbd c097 88bd
000001c0: b74d 05be fb60 dd3c 548a e2bd ddee 12bd
000001d0: c937 74bd e6d2 f43b cc09 263d 46e0 c6bd
000001e0: 0796 21bd 9c7c 52bc fc34 9ebd 86e3 fc3c
000001f0: 9aa0 4a3d 1b0b c3bd 1132 d73d 4a79 c23d
00000200: 0d70 24bd dde1 a23c e949 853c d209 97bc
00000210: 8eac b7bd a283 e13d 31ad 863d bcb3 e4bd
00000220: 521a d4bd 6520 023e 46b8 ae3c c580 fbbc
00000230: ef7a b93d 123e 1d3d ab7b 443d 161e d93d
00000240: dae0 2abc aa63 023e 3a3d c0bd 1688 a6bd
00000250: 127c b93c ece6 84bc 602c 9c3d efd6 14bd
00000260: d623 ac3c 4777 e3bc ff75 cd3d ca9b 0fbc
00000270: 8f6c 063b 2d7e c83d db07 053e 13ef 023e
00000280: 1fca 05be aea4 9abd 73b6 edbc 71fe e1bc
00000290: e44d 9e3d 9b35 773d 1815 34bc 3977 4f3b
000002a0: 598c ea3c 7fec eb3d 81d2 8d3d 670b 8abd
000002b0: 0732 8cbd 2619 2d3d fc72 5dbc f192 afbd
000002c0: 2371 04be 4ece 9c3c d5d6 1fbd f63b 9fbd
000002d0: a5ec cd3c 1e40 053e 534f e33d 020a 9c3d
000002e0: 2168 cebd db31 9c3d c88c 8d3d b09e 363d
000002f0: c958 08bd 1e7f 18bb f370 94bd f096 f6bc
00000300: 3234 b4bc 7312 9bbc ee2d 08be 3d19 413d
00000310: 3aeb dfbd efa9 ccbd 5c6d 5e3d 6e06 e0bd
00000320: 828a 023e 4707 033e 36f0 2dbd 61a9 bcbc
00000330: 7860 d1bd 9f5a 073c 9726 c83c f820 96bd
00000340: e7a3 2b3d c684 a8bb f958 21bd a563 f2b9
00000350: e6a3 04be 2ec9 c0bd 31e7 903c b425 043e
00000360: b336 a2bd d272 af3d 735f 483c d07c 6bbd
00000370: 5e86 1939 fc34 833d bd3c 823c 4243 f23d
00000380: 3a2e cfbc 59c1 b6bd be4d f73d e552 1cbd
00000390: b2a5 ad3d f783 b43d 6be0 c13c 539e e0bd
000003a0: ea56 06be 7eec 813d 90d2 053d e83d 9f3d
000003b0: 2138 f1bd c3d1 96bc bc74 ec3d a7c8 8f3d
000003c0: 056f e33d 5bde d63d 564d 06bd 595e babd
000003d0: 8430 a3bd 1fe5 393d 6343 59bd 0eee 0a3a
000003e0: 5cb2 ae3c 33e4 a93d 3aa1 983d a032 9c3d
000003f0: c1f7 b13b de80 9a3d 161f 80bd 7813 5bbd
0.0994351 0.040767018 0.119077995 0.046607614 -0.047334306 0.058243416 0.1138504 0.025327444
0.06160755 -0.09401225 0.072405934 -0.12631956 0.118132345 0.055192612 0.008794019 -0.12507202
0.12151849 0.085208386 0.12318985 0.05253165 0.045003794 -0.034614798 -0.054762058 0.05297157
0.04634381 -0.00433231 0.021255095 0.045903936 -0.12913483 -0.11817537 -0.03557299 0.091010466
0.06519601 -0.12754534 -0.04012241 -0.01412546 0.043889776 0.10932604 0.002922711 -0.1040162
0.008199448 -0.05160293 -0.081667274 0.074016675 -0.017953537 0.06314288 0.10405259 0.013133434
0.07526726 -0.06311179 0.074594714 0.0053385766 0.08880148 0.12775882 -0.10108546 0.12685834
0.10200853 -0.10764868 0.03917268 -0.10878974 0.043347917 0.020664634 -0.12756531 0.048510436
-0.03670569 0.13319996 0.13042456 0.046130635 0.10533339 0.048264794 0.12642762 -0.012337666
0.033026863 -0.0220735 -0.0023369803 -0.040311866 -0.052884962 0.07730235 0.05734452 -0.05898961
-0.11776887 0.06533966 -0.122923024 -0.005913316 -0.114981495 0.111893035 0.10881233 -0.109823234
-0.124240816 -0.07900873 0.0368742 -0.06682546 -0.031823605 -0.03387259 0.024512257 -0.06320805
0.0607772 -0.095624305 -0.011894971 0.1120127 -0.07378797 0.10252386 0.0695494 -0.04316512
0.046338346 -0.09027762 0.01075494 0.037852287 0.11558531 -0.07477687 -0.07599867 -0.06669569
-0.13017927 0.027023783 -0.1106154 -0.03587233 -0.059623513 0.00747143 0.040536687 -0.097107455
-0.039449718 -0.012847092 -0.0772495 0.03087021 0.049469568 -0.095236026 0.10507596 0.0949579
-0.040145922 0.01988309 0.016270595 -0.0184373 -0.08968459 0.11011435 0.065760024 -0.11167094
-0.10356583 0.1270767 0.021328103 -0.03070105 0.09056651 0.038389273 0.0479695 0.106014416
-0.010429585 0.12733331 -0.09386678 -0.08131425 0.02264217 -0.016223393 0.07625651 -0.03633779
0.021013182 -0.027766837 0.100322716 -0.00876517 0.0020511483 0.09789691 0.12991278 0.12786512
-0.13065384 -0.075509414 -0.029017663 -0.027587147 0.077297 0.060353857 -0.010991357 0.0031656756
0.028631376 0.115197174 0.06924916 -0.06740456 -0.068454795 0.04226031 -0.013516184 -0.08572949
-0.12933783 0.019141342 -0.03902324 -0.077751085 0.025137255 0.1301274 0.11099114 0.07619096
-0.10078455 0.07626697 0.069116175 0.04458493 -0.033287797 -0.0023269127 -0.07248106 -0.03010127
-0.021997545 -0.018929696 -0.13298771 0.04714321 -0.10933538 -0.0999335 0.054303512 -0.10938726
0.12748149 0.12795745 -0.04246541 -0.023029985 -0.10223478 0.008261352 0.024432464 -0.07330507
0.041904356 -0.005142781 -0.03939149 -0.00046232078 -0.12953147 -0.09413372 0.017688366 0.12905008
-0.07920589 0.08566822 0.012229788 -0.057492077 0.00014641273 0.0640659 0.015898103 0.11829235
-0.025290597 -0.08923597 0.12075375 -0.038164992 0.084788695 0.08814233 0.023666581 -0.10967698
-0.13119093 0.063439354 0.03267151 0.077754796 -0.11778284 -0.018410569 0.11545703 0.07020693
0.1110516 0.1049163 -0.032788597 -0.09100027 -0.07968238 0.045384523 -0.05304278 0.0005299755
0.021325283 0.08295479 0.074526265 0.076268435 0.005431146 0.07544111 -0.06255929 -0.053485364

convs.2.fc_full.bias f4 [32]
00000000: 181a 043e 6d77 c4bc ab69 f6bd 6ad4 2dbd
00000010: 01cb 483d 50ae 6c3d 7196 b7bd 9cc8 c0bd
00000020: f6bc 1bbd bc00 0c3c bc38 e1bd 4bfb 7b3d
00000030: a574 cdbc 6533 9f3d 8221 233d 41b0 aebc
00000040: 8896 45bc a941 283d 6e37 8ebd 03e5 0dbd
00000050: 6f80 7a3d e343 f4bd 74ef d9bc 14df e33c
00000060: 6623 8dbd 5f8f 813d cb91 873d c1b5 9ebc
00000070: 07df 2fbd c974 843d 6cad f63b 4b9d d3bd
0.12900579 -0.023982728 -0.12031873 -0.042438902 0.049021725 0.057783425 -0.08964241 -0.09413263
-0.038022004 0.008545097 -0.10997149 0.06151895 -0.025080035 0.077734746 0.039826877 -0.021324279
-0.012059815 0.041078243 -0.06944166 -0.03464223 0.06115764 -0.11927011 -0.026603438 0.027816333
-0.06891517 0.06326174 0.06619605 -0.019373776 -0.042937305 0.064675875 0.0075279977 -0.10332736

convs.2.bn1.weight f4 [32]
00000000: 0000 803f 0000 803f 0000 803f 0000 803f
00000010: 0000 803f 0000 803f 0000 803f 0000 803f
00000020: 0000 803f 0000 803f 0000 803f 0000 803f
00000030: 0000 803f 0000 803f 0000 803f 0000 803f
00000040: 0000 803f 0000 803f 0000 803f 0000 803f
00000050: 0000 803f 0000 803f 0000 803f 0000 803f
00000060: 0000 803f 0000 803f 0000 803f 0000 803f
00000070: 0000 803f 0000 803f 0000 803f 0000 803f
1.0 1.0 1.0 1.0 1.0 1.0 1.0 1.0
1.0 1.0 1.0 1.0 1.0 1.0 1.0 1.0
1.0 1.0 1.0 1.0 1.0 1.0 1.0 1.0
1.0 1.0 1.0 1.0 1.0 1.0 1.0 1.0

convs.2.bn1.bias f4 [32]
00000000: 0000 0000 0000 0000 0000 0000 0000 0000
00000010: 0000 0000 0000 0000 0000 0000 0000 0000
00000020: 0000 0000 0000 0000 0000 0000 0000 0000
00000030: 0000 0000 0000 0000 0000 0000 0000 0000
00000040: 0000 0000 0000 0000 0000 0000 0000 0000
00000050: 0000 0000 0000 0000 0000 0000 0000 0000
00000060: 0000 0000 0000 0000 0000 0000 0000 0000
00000070: 0000 0000 0000 0000 0000 0000 0000 0000
0.0 0.0 0.0 0.0 0.0 0.0 0.0 0.0
0.0 0.0 0.0 0.0 0.0 0.0 0.0 0.0
0.0 0.0 0.0 0.0 0.0 0.0 0.0 0.0
0.0 0.0 0.0 0.0 0.0 0.0 0.0 0.0

convs.2.bn1.running_mean f4 [32]
00000000: 037d 8b3f 7687 083e 354d ea3b b920 07bf
00000010: 7abd c83e c491 88be 764b 83be 8163 de3e
00000020: cea5 91be b492 a8ba 3519 d2be f516 08bd
00000030: d272 673f 1de8 7dbf 7325 9c3f 38f7 9fbe
00000040: 42fc a93f 1b4a ea3e c460 c1bf 1fa4 20bf
00000050: 740a 543f 6c50 623e f60c d8bd 069d b43e
00000060: 2b51 a3be 4733 14bf 82e2 e73d 62f3 353f
00000070: 9c97 943e 0c6f 893f ed26 71bf edc6 4abe
1.0897526 0.13332924 0.007150317 -0.52784306 0.3920706 -0.2667371 -0.2564351 0.4343529
-0.2844681 -0.0012861104 -0.41034856 -0.03322502 0.90409577 -0.991823 1.2198929 -0.312433
1.3280108 0.45759663 -1.5107656 -0.6275043 0.8282845 0.22100991 -0.10549347 0.3527605
-0.31897864 -0.57890743 0.113225 0.710745 0.2902192 1.0737014 -0.9420002 -0.19802447

convs.2.bn1.running_var f4 [32]
00000000: 8996 193e a64f 443e c0df df3d 27ee f93d
00000010: a72d d53d e7a5 cc3d 5c32 163e 13c2 d43d
00000020: 2e03 033e b05a e13d 7805 bc3d e5be bf3d
00000030: 3be8 903d 36be e13d 3fc8 e53d f8b2 ad3d
00000040: f369 133e 5ca1 2d3e baa0 e33d c867 103e
00000050: 8f8b f83d 0c12 673e 0e8a ce3d d5c1 153e
00000060: 23fb 213e 7cda f83d 95ff 163e 0d9c 0e3e
00000070: 5f51 223e 4159 fc3d 9fe9 fd3d 0a6b dd3d
0.14998831 0.19171008 0.10931349 0.12203627 0.10409098 0.09992581 0.14667648 0.10388579
0.12794182 0.110036254 0.091807306 0.09362582 0.070755444 0.11022608 0.112198345 0.08481401
0.14395885 0.16956085 0.111146405 0.1410209 0.12135994 0.22565478 0.100849256 0.14624722
0.15818457 0.121510476 0.14745934 0.13926716 0.15851353 0.12321711 0.12398075 0.10811432

convs.2.bn2.weight f4 [16]
00000000: 0000 803f 0000 803f 0000 803f 0000 803f
00000010: 0000 803f 0000 803f 0000 803f 0000 803f
00000020: 0000 803f 0000 803f 0000 803f 0000 803f
00000030: 0000 803f 0000 803f 0000 803f 0000 803f
1.0 1.0 1.0 1.0 1.0 1.0 1.0 1.0
1.0 1.0 1.0 1.0 1.0 1.0 1.0 1.0

convs.2.bn2.bias f4 [16]
00000000: 0000 0000 0000 0000 0000 0000 0000 0000
00000010: 0000 0000 0000 0000 0000 0000 0000 0000
00000020: 0000 0000 0000 0000 0000 0000 0000 0000
00000030: 0000 0000 0000 0000 0000 0000 0000 0000
0.0 0.0 0.0 0.0 0.0 0.0 0.0 0.0
0.0 0.0 0.0 0.0 0.0 0.0 0.0 0.0

convs.2.bn2.running_mean f4 [16]
00000000: b7b3 ac40 faa9 a040 e947 9c40 7609 9b40
00000010: ddcc 9740 9235 a840 e218 9640 0c19 9140
00000020: ddb6 9740 c8c1 9040 7113 8a40 84af 8b40
00000030: 4e74 9640 f366 a140 b5c2 9340 c32b 9c40
5.396938 5.020749 4.883778 4.844905 4.7437577 5.2565393 4.6905375 4.5343075
4.741072 4.523655 4.314873 4.3651752 4.7016973 5.043817 4.617518 4.880342

convs.2.bn2.running_var f4 [16]
00000000: 60e7 bd41 f1d3 eb40 4393 fd40 4182 5541
00000010: d42d 3941 8a7e 5141 4684 3341 6a8f 2641
00000020: 7ecb 0d41 52a4 b640 9c92 b140 a87f 0741
00000030: 4c9a b440 2b76 b641 d8d8 ca40 6040 ef40
23.737976 7.3696218 7.9242263 13.3443 11.5736885 13.093393 11.219793 10.410013
8.862181 5.7075586 5.5491467 8.468666 5.643835 22.8077 6.33897 7.4766083

convs.3.fc_full.weight f4 [32, 56]
00000000: c5ba 9d3d 29b5 063e 323a ea3d 10f8 96bd
00000010: 3f15 fe3d 8b1b 64bd ab62 cfbd fdfa c33d
00000020: ddfe c0bd 908d fb3d ab1b 063e 88f0 b7bd
00000030: 2e3e b53d ecbf d0bc 1251 0ebd eb14 a63c
00000040: b9bb 4e3d 5e44 babd fc2f 063e bfc2 bf3d
00000050: 5b1c 9ebd d83b 813d 6c5a c23c fd66 963d
00000060: 58ef 4bbb 6d2b 393d 01f9 183d f0c2 ff3d
00000070: ca51 9a3c 1613 df3d f31d b53c 394d 303d
00000080: 23d6 73bc 5bc9 6dbc ebb0 cdbd 3788 033e
00000090: e711 94bd 983d 8f3d a592 fc3c eb79 b13d
000000a0: 3582 01be ba40 4cbc ca24 03be c16b d7bd
000000b0: b248 413d 3e4e 01bd fbca b63d 762a cc3d
000000c0: e3a3 ab39 2688 22bd aad5 bd3d 3278 023e
000000d0: ba52 843c b364 e4bd 20d6 643d 29b8 b6bc
000000e0: 2fa5 c9bd fba8 eb3c 6cc5 4c3b 3fc7 013b
000000f0: 2523 083e d7e9 8a3d ffc4 ac3d 9495 913a
00000100: 3574 d8bc a03e 4d3d 78c4 ccbd 9a4f 013e
00000110: 380e 883c 4d62 febd 8e08 9ebd 49f8 833d
00000120: d0a2 fc3c 332c 873d def0 06be aac6 2cba
00000130: 0f10 a33d 4d2f 973d 6fcd ed3b cd4a 07be
00000140: 6a2c ef3d fc3c 523d 52cf 553d 7bf2 a43d
00000150: 45bf a13d 614f 77bc bf45 b53d 65fa b93d
00000160: 9093 073d 27e2 d2bd 6135 bf3d 2b14 86bd
00000170: 9064 e93d a875 aabd badf 16bc 47a2 53bd
00000180: a4d9 95bd 8887 34bd 0b62 b03d 7dd5 343d
00000190: 89ed 49bc 7dcd dbbd c59c 97bd 896d 9b3d
000001a0: 1aaf 7fbd 9807 d3bd b61a 96bd c505 37bd
000001b0: 4c3e 73bd e9d4 903d 43a5 d1ba 2c29 013e
000001c0: f9ef fbbd af69 89bd b9d4 353d 92cb a73d
000001d0: f9c3 60bd 07f2 5a3d 67c2 96bd b3c0 a5bd
000001e0: afa8 953d 7651 05bc 4f46 c8bd a85d a9bb
000001f0: 86dc f03d e0ee f93c 1113 dbbc d74e c6bc
00000200: a81a a3bd 75ac 9b3d c1b7 103b e761 8dbd
00000210: a3ba fd3b cd2e 293d cc6a b93b 930e 33bc
00000220: e0a1 00be 6100 84bb 241a 2fbd aa46 e0ba
00000230: 381d a8bd 8d84 4e3d 4372 a9bd 66de 30bd
00000240: bfa3 7bbd 4cc6 89bd fd8b f93a 588e 73bd
00000250: bcec 6cbd 27c1 663c 190c 663d 4538 82bd
00000260: 08e5 913d fe66 223d 5048 d33d b2cf 533c
00000270: 358f e03d 5e9d f6bd 0578 1f3d bd2d ebbd
00000280: 5c69 673d 75fc 51bd 386f e0bc e4cc e73d
00000290: 2c1b 003e 5641 09bd 708a 9dbd 0c8d 953d
000002a0: da74 72bd a7b2 80bd 56cf cdbd 66fb 073e
000002b0: 5bda 013c 6609 d63c 3d23 9fbd 2228 7f3d
000002c0: 0ac1 01be 47e5 1ebd 584b a7bc a810 a13d
000002d0: a5fd 4bbc de35 9d3c f943 d13d 9cb8 403d
000002e0: 8b56 de3d b387 3abd 962b a93d 23ae a9bc
000002f0: 349e 1ebc a9ed e93c 70ed 033e 26e6 0d3a
00000300: 5ed3 69bc 5c3b 56bd 27df acbd 4c34 9d3d
00000310: fd21 e3bc db5f 38bd aca3 ed3c 10e0 ba3c
00000320: dfb3 b1bc 09b8 e43d 0975 a73d 045b 053d
00000330: 92a5 81bd 9bc0 62bd c4f9 ed3d 5000 e23c
00000340: bb73 f8bd b15c 93bc d447 f63c e7c2 133d
00000350: fd31 e83d 2074 8c3b 80ec 83bc fe82 c13d
00000360: 9eaf a1bc 6f59 303d acfd ccbd 3946 41bd
00000370: f46c cebd 75b6 593c c88f d6bd bc7a d03d
00000380: ddae 72bd a390 bbbd e8c1 033c b1f8 80bd
00000390: b0d7 a3bd 1767 c83d 891e 303d ca5f b33c
000003a0: 5193 863d 7be6 36bd 0d88 633c ce0a 043e
000003b0: f0c8 6cbd d78b 5c3d a21f e63d bbfd 98bc
000003c0: ab30 e13d f1ca 0fbd 708d dabc 3788 0b3d
000003d0: 6541 a9bc 35bb 0fbd 506b d5bc 1607 e03c
000003e0: 2d2b 97bd 4a00 d1bd fc7a d6bd 2b9c 063e
000003f0: 22ef 6a3b 9005 753d 0b10 03be b330 a0bc
0.07701639 0.13155045 0.11436881 -0.07371533 0.12406396 -0.05569033 -0.10126241 0.095693566
-0.09423611 0.1228286 0.13096492 -0.089814246 0.088497505 -0.02548214 -0.034745283 0.020273646
0.050471995 -0.09095071 0.13104242 0.09363317 -0.07720252 0.063102424 0.023724757 0.07343862
-0.0031118002 0.04520743 0.037346844 0.12488353 0.018837828 0.10892312 0.022109007 0.043042395
-0.014882597 -0.014513339 -0.1004351 0.1284493 -0.07229977 0.0699417 0.030831644 0.08665832
-0.12647326 -0.012466604 -0.12807003 -0.10518599 0.04718847 -0.03156876 0.08925434 0.09969036
0.00032737767 -0.039680623 0.09269269 0.12741163 0.016152728 -0.11152019 0.055868268 -0.022304611
-0.098459594 0.0287671 0.0031245602 0.0019802598 0.13294657 0.06782883 0.084360115 0.00111072
-0.0264226 0.050108552 -0.09998411 0.12628022 0.016608343 -0.12421093 -0.077164754 0.06443841
0.030839354 0.06600227 -0.13177821 -0.00065908825 0.07962047 0.07382069 0.0072571556 -0.13212128
0.11678393 0.05132769 0.05219967 0.08054062 0.0789781 -0.015094609 0.08851194 0.09080962
0.03309971 -0.102970414 0.09336353 -0.065468155 0.11396134 -0.083232224 -0.009208614 -0.05166843
-0.07316902 -0.044074565 0.0861245 0.04414891 -0.012324699 -0.10732553 -0.07402948 0.075892515
-0.06242285 -0.10304183 -0.073293135 -0.044683237 -0.059385583 0.070718594 -0.0015994686 0.12613362
-0.123016305 -0.06709611 0.04439232 0.08193125 -0.054874394 0.05345347 -0.07361298 -0.08093395
0.073075645 -0.008137098 -0.09779035 -0.0051686354 0.117608115 0.030509412 -0.02674249 -0.024207516
-0.07964069 0.07601253 0.0022082182 -0.06903439 0.007743196 0.0413044 0.005658483 -0.010928768
-0.1256175 -0.0040283655 -0.04274954 -0.0017110903 -0.08208698 0.05041938 -0.08273747 -0.043180846
-0.061435457 -0.06727275 0.0019038912 -0.05946192 -0.057842955 0.014084137 0.05616388 -0.06358389
0.07123762 0.039649002 0.10316527 0.012927936 0.109648146 -0.12041734 0.03893282 -0.11483333
0.056496963 -0.051266152 -0.027396783 0.11318377 0.12510365 -0.033509575 -0.076924205 0.07302293
-0.05919347 -0.06284075 -0.10049312 0.13279495 0.007925595 0.026127528 -0.07770393 0.062294133
-0.12671295 -0.038792875 -0.020421669 0.07864505 -0.01245061 0.019190725 0.10218043 0.047051057
0.108563505 -0.04553957 0.082602665 -0.020712918 -0.009681273 0.028555708 0.12883544 0.0005413018
-0.014271585 -0.052302703 -0.084410004 0.076759905 -0.027726168 -0.04501329 0.029008709 0.02281192
-0.021692215 0.111679144 0.081766196 0.032557502 -0.06330408 -0.055359464 0.11619905 0.02758804
-0.12131449 -0.017988535 0.030063547 0.036074545 0.113376595 0.004286304 -0.016103983 0.09448813
-0.019737061 0.04305404 -0.100093216 -0.04718611 -0.10079375 0.01328813 -0.10476643 0.1017966
-0.059248794 -0.09158447 0.008041836 -0.06297434 -0.080001235 0.09785288 0.04299787 0.021896262
0.06571067 -0.044653397 0.0138874175 0.12894747 -0.057808816 0.0538443 0.11236502 -0.018675676
0.10995611 -0.03510565 -0.02667877 0.03406545 -0.020661065 -0.035090644 -0.026052147 0.027347129
-0.07381282 -0.10205133 -0.10472676 0.13145511 0.00358481 0.059819758 -0.12799089 -0.019554472

convs.3.fc_full.bias f4 [32]
00000000: 24f0 9a3d 9590 b6bd 26cf e0bd 99b9 b63d
00000010: 6cb0 ba3d aebf d4bd 3b21 f2bc 5f83 683d
00000020: b431 923d 8111 a33d f2cd bf3d f881 7abd
00000030: 5a44 e93c 1616 eb3d 6198 e0bd 0985 b13d
00000040: 3279 0a3d 386c bf3b bc8e 073e 0c59 63bd
00000050: 55b5 16bd 5c60 cbbd 796c e63d 0a0c c8bd
00000060: 22c0 f43d c962 c9bd 72e0 9c3d e3a8 88bd
00000070: 7d81 f03d 7b3c b7bd 8137 b1bd d7ec 1dbd
0.075653344 -0.089142956 -0.109770104 0.08922119 0.09115681 -0.103881225 -0.029556861 0.05676591
0.07138386 0.07962323 0.09365453 -0.061159104 0.028474975 0.11478822 -0.10966564 0.086679526
0.033806987 0.005841758 0.13238043 -0.055504844 -0.036794025 -0.099304885 0.11251158 -0.09767921
0.11950709 -0.09833295 0.07659997 -0.066728376 0.11743448 -0.089470826 -0.08653165 -0.038555946

convs.3.bn1.weight f4 [32]
00000000: 0000 803f 0000 803f 0000 803f 0000 803f
00000010: 0000 803f 0000 803f 0000 803f 0000 803f
00000020: 0000 803f 0000 803f 0000 803f 0000 803f
00000030: 0000 803f 0000 803f 0000 803f 0000 803f
00000040: 0000 803f 0000 803f 0000 803f 0000 803f
00000050: 0000 803f 0000 803f 0000 803f 0000 803f
00000060: 0000 803f 0000 803f 0000 803f 0000 803f
00000070: 0000 803f 0000 803f 0000 803f 0000 803f
1.0 1.0 1.0 1.0 1.0 1.0 1.0 1.0
1.0 1.0 1.0 1.0 1.0 1.0 1.0 1.0
1.0 1.0 1.0 1.0 1.0 1.0 1.0 1.0
1.0 1.0 1.0 1.0 1.0 1.0 1.0 1.0

convs.3.bn1.bias f4 [32]
00000000: 0000 0000 0000 0000 0000 0000 0000 0000
00000010: 0000 0000 0000 0000 0000 0000 0000 0000
00000020: 0000 0000 0000 0000 0000 0000 0000 0000
00000030: 0000 0000 0000 0000 0000 0000 0000 0000
00000040: 0000 0000 0000 0000 0000 0000 0000 0000
00000050: 0000 0000 0000 0000 0000 0000 0000 0000
00000060: 0000 0000 0000 0000 0000 0000 0000 0000
00000070: 0000 0000 0000 0000 0000 0000 0000 0000
0.0 0.0 0.0 0.0 0.0 0.0 0.0 0.0
0.0 0.0 0.0 0.0 0.0 0.0 0.0 0.0
0.0 0.0 0.0 0.0 0.0 0.0 0.0 0.0
0.0 0.0 0.0 0.0 0.0 0.0 0.0 0.0

convs.3.bn1.running_mean f4 [32]
00000000: d0e1 db3f f0f9 423f a257 87bf 88bc 173f
00000010: 7184 89bc bfe4 313e be85 c5bd 9212 4abe
00000020: e535 153f 032f 1a3f 2570 ce3d 545f f5be
00000030: 0419 84bf baaf 80bf f638 52be 280b 8e3f
00000040: 8cc4 303f c95e 733f 48e7 263f 921a 60bd
00000050: 5db2 bcbf 108c 003f 44aa 1abf 1cda 12bf
00000060: 76e2 d13f d7c9 65bd b60f 83bf 43cf 523d
00000070: 82d8 f43f d039 933e 0579 f93e 6221 513e
1.7178288 0.76162624 -1.0573618 0.5927205 -0.016786786 0.17372416 -0.0964465 -0.19733647
0.5828536 0.60227984 0.100799836 -0.47924292 -1.0320134 -1.0053627 -0.20529541 1.1097155
0.69049907 0.95066506 0.6519666 -0.05471284 -1.4741932 0.5021372 -0.60416055 -0.5736406
1.6397235 -0.056100693 -1.023917 0.05146719 1.9128573 0.28755045 0.48725143 0.20422891

convs.3.bn1.running_var f4 [32]
00000000: 8dca 9f3e 7f4d 7f3e 3a38 203e a395 563e
00000010: c200 383e e4a0 173e 9e78 b93e 3fdd 623e
00000020: e269 4b3e 7b5e 963e 74d0 053e 5360 aa3e
00000030: 3c88 543e a820 0e3e 92d5 8c3e e7b3 a03e
00000040: 24ff 833e cbdf 883e f7b3 933e 87d6 413e
00000050: 1498 973e b459 623e 80d5 d03d 8aca 603e
00000060: f3fa 843e 3858 7e3e 8d98 a93e 5509 4d3e
00000070: 2738 893e cee7 2b3e 7c85 083e ff41 803e
0.3120922 0.24931906 0.15646449 0.2095552 0.17969039 0.14807469 0.36224836 0.22154711
0.1986461 0.29368958 0.130678 0.33276615 0.20755094 0.13879645 0.2750669 0.31387255
0.25780594 0.2673324 0.2884824 0.18929492 0.29608214 0.22104532 0.10196972 0.21952263
0.2597271 0.2483834 0.331242 0.20023091 0.26800653 0.16787645 0.1333217 0.2505035

convs.3.bn2.weight f4 [16]
00000000: 0000 803f 0000 803f 0000 803f 0000 803f
00000010: 0000 803f 0000 803f 0000 803f 0000 803f
00000020: 0000 803f 0000 803f 0000 803f 0000 803f
00000030: 0000 803f 0000 803f 0000 803f 0000 803f
1.0 1.0 1.0 1.0 1.0 1.0 1.0 1.0
1.0 1.0 1.0 1.0 1.0 1.0 1.0 1.0

convs.3.bn2.bias f4 [16]
00000000: 0000 0000 0000 0000 0000 0000 0000 0000
00000010: 0000 0000 0000 0000 0000 0000 0000 0000
00000020: 0000 0000 0000 0000 0000 0000 0000 0000
00000030: 0000 0000 0000 0000 0000 0000 0000 0000
0.0 0.0 0.0 0.0 0.0 0.0 0.0 0.0
0.0 0.0 0.0 0.0 0.0 0.0 0.0 0.0

convs.3.bn2.running_mean f4 [16]
00000000: 93c9 a840 4c7a 9b40 6fe9 a040 8359 9b40
00000010: 92e1 9040 5593 a140 49a0 9440 685b 8d40
00000020: 1cf5 af40 7877 9a40 e813 9c40 5070 aa40
00000030: 73b8 8d40 3237 9a40 fc0e a640 33c9 9540
5.274606 4.858679 5.0284953 4.8546767 4.5275354 5.049235 4.644566 4.417408
5.4986706 4.8270836 4.87743 5.32621 4.428766 4.8192377 5.189329 4.6808105
