cgcnndefect/defect_scratch_100/checkpoint.pth.tar (torch, 208623 bytes, 121 tensors)

embedding.weight f4 [16, 92]
000000 05 1f 40 bc df 14 65 3d 75 03 83 bd 29 e4 87 bd
       -0.011726146 0.055928107 -0.06397144 -0.06635315
000010 ff 72 be bd ba 66 53 3d 23 60 07 bb 63 b7 b5 3d
       -0.092992775 0.05161164 -0.0020656667 0.08872869
000020 cd 96 8a bc 1d 4a 01 bc f3 a9 54 3c b0 e1 a7 bc
       -0.01691761 -0.007891205 0.012979972 -0.020493358
000030 1d fc cb bd db 33 89 bd e4 08 30 bd 9a 1a 7d 3b
       -0.09960196 -0.06699344 -0.04297723 0.0038620592
000040 fb 1e 31 3d ba 1d 80 3d cd c0 90 bd 7f f5 39 bd
       0.043242436 0.0625567 -0.07068024 -0.04540014
000050 c9 67 23 3d 80 0c bd 3d 04 c6 48 bd 7e 67 86 3d
       0.0398939 0.092309 -0.049016967 0.06562708
000060 ed b5 3e 3c 11 bf 34 3c 0e 56 c1 3d 91 78 d5 bd
       0.011640054 0.011031882 0.09440242 -0.10423387
000070 69 e2 5c bd e2 0d 46 bd 72 35 7c 3b fa 7a b8 3d
       -0.05392686 -0.048353083 0.0038484004 0.09007831
000080 05 66 8a bd 54 94 44 bd 18 06 91 bd 2c f9 c7 bd
       -0.0675774 -0.04799302 -0.070812404 -0.09764323
000090 72 47 79 bd 72 b0 bb 3d 4f 8d 3e 3d e8 6c 2f 3d
       -0.06085915 0.09164514 0.04652148 0.04282847
0000a0 ca f8 49 bc 45 60 0d 3c 18 5b a1 3c 64 52 ba bd
       -0.012327382 0.0086289095 0.019696757 -0.09097746
0000b0 0d 48 9a bd 90 26 5c bd 93 b7 86 3d 63 68 8a 3d
       -0.07533274 -0.053747714 0.06577983 0.067581914
0000c0 8d 84 01 bd d7 d4 67 bd 9a 00 b9 3d 3c 6a d8 3d
       -0.03162055 -0.056599464 0.09033318 0.105671376
0000d0 61 52 42 3d 32 56 d2 3b 1a 00 0d 3d cd 6f 8a bc
       0.047441844 0.0064189667 0.034423925 -0.016899014
0000e0 db 26 9f 3c d2 8a a5 bd a5 fc 93 bd 8f ab 3e bc
       0.019427707 -0.080831185 -0.072259225 -0.011637582
0000f0 4a 49 31 3c aa 4c ea 3c ed f4 7c bd d5 02 01 3d
       0.010820696 0.02860101 -0.061757017 0.03149684
000100 f3 ba 72 3d 23 99 57 bc 8a 70 82 3b a9 e4 c5 3c
       0.05926032 -0.013159069 0.003980701 0.024156885
000110 48 76 84 3d fb 04 cd 3d e7 8a a4 bd 0f 7f 1c bd
       0.06467873 0.100107156 -0.08034306 -0.03820711
000120 3e 2e 2c 3d 50 69 55 3d 7c db d9 3d 54 66 bc 3d
       0.042036287 0.052102387 0.106375664 0.09199205
000130 2d f9 a9 3c 16 ac b9 bd 4a ba 00 3d 66 f7 87 bd
       0.0207487 -0.09066026 0.03142766 -0.066389844
000140 fb 8d e6 bd 50 4b a7 3d e0 59 a2 3d 01 4e e8 bd
       -0.112575494 0.081686616 0.079272985 -0.11343003
000150 6b f9 96 bb 5d ad 30 bd 97 73 77 3c c8 05 3a bd
       -0.0046073697 -0.043134082 0.015103242 -0.04541567
000160 bf 76 25 3d 25 db 62 bd 5a 8c 1c 3d d2 f4 57 3d
       0.04039645 -0.055384774 0.038219787 0.052723713
000170 bb 1d 89 3d 91 ac 1f 3d 31 40 df bd 8a e7 2f bd
       0.06695124 0.03898293 -0.109009154 -0.042945422
000180 b9 a2 36 3d a8 bb 97 3d 04 90 a6 bd e9 dc cc bd
       0.04458878 0.074088395 -0.081329376 -0.10003073
000190 7e e7 dd 3d d6 07 8e 3d c9 3c 79 3a 2b f5 d6 bc
       0.10835169 0.06935088 0.0009507654 -0.026239952
0001a0 c6 65 cb bd 9f bc f3 bc ce ca a0 bd fa b2 a4 bd
       -0.09931521 -0.029753027 -0.07851182 -0.080419496
0001b0 1b c6 90 bc 32 3c 80 3c 82 e2 2e bd fd 64 7d 3d
       -0.017672589 0.015653703 -0.042696483 0.061863888
0001c0 e8 5c 9a bd 41 4e d8 3d 38 87 88 3d c4 e3 ab bd
       -0.07537252 0.10561801 0.06666416 -0.08393052
0001d0 5b 50 98 bc 05 27 9a 3b 90 38 79 3c 55 46 b6 3c
       -0.018593004 0.0047043585 0.015211239 0.022250334
0001e0 87 e5 73 3d 99 ec 9d 3b c2 29 92 bb c7 11 4a 3d
       0.059545066 0.0048194644 -0.0044605443 0.04933336
0001f0 50 d1 cc bd a5 1b 7d bd e1 c1 1b bd 03 04 50 bd
       -0.10000861 -0.061793942 -0.038026694 -0.050785076
000200 58 64 15 bd da 6e c7 bd b9 ac b5 bc ba 6c 2f 3d
       -0.03647265 -0.0973794 -0.022177087 0.0428283
000210 7c f6 9c bd dc 2f 39 3b 84 0d b7 3d eb f3 85 bc
       -0.07664201 0.0028257286 0.08938125 -0.01635166
000220 a2 e4 3d 3b 38 5c 13 bc 50 d9 ac 3c ed ea 72 3d
       0.0028975387 -0.008994155 0.021099716 0.059306074
000230 8b a8 b2 3d 89 9a 70 3d 65 e1 1a 3e 95 7b 9f bc
       0.08723553 0.058741126 0.15125044 -0.019468108
000240 b0 dc 08 be 28 60 20 bd 3e 8b 8f 3d 64 53 3b 3d
       -0.13365436 -0.0391542 0.0700898 0.045733824
000250 e7 41 54 bd 37 9f a3 bd 6c d2 c7 bd 13 09 a9 bd
       -0.051820662 -0.07989352 -0.09756932 -0.08253684
000260 d7 c7 1b bd 8c b7 96 3d bf df 66 3d 9e ec cd bd
       -0.03803238 0.073592275 0.056365725 -0.10054897
000270 75 85 59 3d 98 14 a7 bd 6c 8f b4 bc eb 26 2d bd
       0.05310579 -0.08158225 -0.022041045 -0.042273443
000280 05 82 a4 bc 00 b1 a7 bc de 99 bf bd 35 5c b8 bd
       -0.02008153 -0.020470142 -0.0935552 -0.09001962
000290 98 18 cb bc 9a 5a 09 3d 9f ba 26 bd 5c dd 20 3d
       -0.024792 0.03353367 -0.04070532 0.039273605
0002a0 ea 2d c0 bd 81 8e e6 bb 4d d9 af 3d 20 97 8b bd
       -0.093837574 -0.0070360308 0.08586369 -0.06815934
0002b0 aa c3 06 3e 20 5c f6 3c 3d b1 c0 bd fd 44 77 3d
       0.13160577 0.030073225 -0.094088055 0.060368527
0002c0 8b 88 16 3c 32 25 a7 bb cc 29 7e 3d 17 78 93 bd
       0.009187828 -0.0051008696 0.06205158 -0.0720064
0002d0 8a 9c 16 bc 75 f8 e0 bc f8 79 98 3d 0e 69 ee 3c
       -0.009192595 -0.027462224 0.07445139 0.029102828
0002e0 7b 0e 80 3d e7 cf 16 3d 6a 61 bd 3b 50 0b e1 3c
       0.06252762 0.036819365 0.005779435 0.027471215
0002f0 71 09 bf bc 5e e6 f9 3d 7a 87 a9 3d 50 3d 51 3d
       -0.023319932 0.12202142 0.08277793 0.051083863
000300 f4 6b ad bd 4b 5a 2e bd 1e e3 00 be d0 13 6b bd
       -0.08467856 -0.04256658 -0.12586638 -0.05739194
000310 4c d6 78 bd ce ea 11 bd 2f 7a 7e bd 79 11 15 bb
       -0.060751244 -0.035624318 -0.062128242 -0.002274601
000320 01 85 cf 3c 9d a3 89 3d 32 67 a1 bd 4f 95 92 bd
       0.025331976 0.0672066 -0.07881011 -0.071573846
000330 a6 2b 22 bd 59 10 b0 3d c2 93 f8 bc bb b6 d1 3d
       -0.039592408 0.08596868 -0.030343894 0.10239931
000340 4a 2b d1 3c d6 4b 58 3c bb 72 4b ba 8d 00 68 3c
       0.025533337 0.013201674 -0.00077609316 0.014160288
000350 19 fa b2 3d 9b 6c c9 bd ea 84 59 bd b4 f2 59 3c
       0.087391086 -0.09835168 -0.053105272 0.013302494
000360 f5 03 a7 bd e3 d2 5f bd 0f 50 d7 3d cb 47 ad bd
       -0.081550516 -0.054644477 0.10513317 -0.08460959
000370 be 4f f5 bb 53 1e fe 3d 03 43 1a 3d 3a ac 59 bd
       -0.0074863127 0.12408128 0.037661564 -0.053142764
000380 a9 b2 a3 bd 03 dc 72 3c f9 58 eb bb 3e 1d 1f bd
       -0.07993061 0.014822963 -0.007182237 -0.038846247
000390 2f 47 0f bd 99 f4 7c bc 50 79 95 3a b4 8a ee 3d
       -0.034979995 -0.015439176 0.0011403952 0.11647549
0003a0 9c 8e e6 bc d2 b8 1f 3e aa 68 04 3e 74 2f 38 bd
       -0.028144173 0.15597847 0.12930551 -0.04496713
0003b0 a4 27 d9 3c ea be ad bd ab 31 bb bd 47 d5 b1 bc
       0.02650816 -0.084836796 -0.09140333 -0.021708144
0003c0 21 01 0d 3d 11 30 a0 3d 5c 78 09 bd 8b ba 0e bd
       0.034424905 0.07821668 -0.03356205 -0.03484587
0003d0 bf 96 8b 3d de 93 c9 bd b3 5e 9a 3d 3e 90 b0 bd
       0.06815862 -0.098426566 0.07537594 -0.08621262
0003e0 95 5c b7 3c 03 35 91 bc bb e8 60 bd 99 c4 61 3c
       0.022383014 -0.017725473 -0.05490945 0.013779783
0003f0 0a 90 b0 3d ae a9 f9 bc 97 87 7d bd 60 ef 1d bd
       0.08621223 -0.030476417 -0.061896887 -0.038558364

embedding.bias f4 [16]
000000 f2 eb 44 3d 9d 12 0b 3e bf 7e 87 3c 9f 99 29 bd
       0.048076577 0.13581319 0.01653993 -0.04140627
000010 64 6b a3 bd a5 59 f3 bd bb fb b2 3d ad df 9a 3d
       -0.079794675 -0.11882333 0.0873942 0.07562194
000020 cc 5d b4 3d 6e 3f 03 3e b7 32 ec 3c 68 a3 fb bc
       0.08806953 0.12817165 0.028832776 -0.030717567
000030 f3 dd ff 3d 0f c6 c4 3d 70 32 dd 3d 8c be 0e bd
       0.12493505 0.09608089 0.10800636 -0.03484969

convs.0.fc_full.weight f4 [32, 56]
000000 cc ba ac 3d 68 27 19 bd 6b 81 fb 3d 81 02 0c 3e
       0.08434066 -0.037391096 0.12280544 0.1367283
000010 01 da ed 3c 82 6c 85 bd 2b 70 89 bd 20 5d 89 3d
       0.029034616 -0.06514837 -0.067108475 0.06707215
000020 32 11 fd bb 39 1b 20 be 30 b1 94 3d f7 72 53 bd
       -0.007722997 -0.15635385 0.07260358 -0.05162331
000030 e4 70 ad 3d cd 8c c8 bd a5 84 56 bc 59 2e 21 bd
       0.08468798 -0.097924806 -0.013093148 -0.03935084
000040 d8 b3 c2 bd 09 d8 e1 bc 17 48 61 bd 96 d9 ea 3d
       -0.09506959 -0.027568834 -0.05500039 0.114672825
000050 4d 93 2f bd c1 6b e3 3d ff 3a 03 3c 74 67 03 bd
       -0.042865086 0.11104537 0.008009671 -0.032081082
000060 e8 db 2d bd fe 05 79 be cc fd f4 bd 57 73 1b be
       -0.042446047 -0.24318692 -0.119624704 -0.15180717
000070 fe 9d d7 bc 10 e0 5e 3c 39 ca 94 3b 2d a5 d9 bd
       -0.026320454 0.013603225 0.0045407084 -0.10627208
000080 c1 08 d6 3d b7 a3 94 3d fc f8 a5 bd a0 a4 a0 bd
       0.104508884 0.07257789 -0.081041306 -0.078439
000090 bd 33 7c 3d ac 87 05 3e c9 b7 fb bd e6 39 9f bd
       0.06157278 0.13040036 -0.122909136 -0.07774715
0000a0 fc c4 1d bd 02 6a 90 bd 99 7e 05 3e 7a 67 95 bc
       -0.038517937 -0.070514694 0.13036574 -0.018237818
0000b0 88 68 82 3d 26 05 d4 bc ad df 13 bd 06 6f dd bb
       0.06367594 -0.025881361 -0.036101986 -0.00675762
0000c0 b2 74 70 3d d3 bc 59 3d 55 03 93 3c c2 93 9b bb
       0.05870504 0.053158592 0.017945925 -0.0047478387
0000d0 b1 4f 04 3e 31 27 99 3d e2 cf 81 3e c1 29 8c 3e
       0.12921025 0.07478178 0.25353914 0.27375606
0000e0 60 fb 80 bc 2d ee ac 3d 16 20 07 bd c1 13 fe bd
       -0.015744865 0.08443866 -0.032989584 -0.124061115
0000f0 f0 41 e3 3b 9a d9 ab 3c 5c 84 97 bd 3b a1 05 3d
       0.0069353506 0.020977784 -0.073982924 0.032624464
000100 fa 7f e0 3d c4 fb 13 3d 94 5d 02 3d 70 5e d0 3b
       0.109619096 0.036128774 0.031827524 0.006358914
000110 1e e8 c1 bd 0e f9 08 be eb 35 cb bd a0 11 ed bd
       -0.09468101 -0.13376257 -0.099223934 -0.11575627
000120 cb 8b 23 3d f9 ed 2c bd 98 01 63 bd a0 08 0c be
       0.03992824 -0.042219136 -0.05542144 -0.13675165
000130 5c 0c 6b 3d f9 28 40 bd 75 46 03 3d 8c 6d e2 bd
       0.057384834 -0.046914075 0.032049615 -0.11056051
000140 9e 01 df bd 57 ec 9b 3d 42 d9 04 be 1e c1 f1 3c
       -0.1088898 0.076134376 -0.12973502 0.02951103
000150 8f 9a a3 3d c6 93 81 bd 4b 85 df bd e1 3b df 3c
       0.07988464 -0.06327014 -0.109140955 0.027250232
000160 5d 0a 63 3d 22 cc 80 bd ef f6 5d 3e a7 9f e5 3d
       0.055429805 -0.06288935 0.21676229 0.11212092
000170 2e 2c d9 3c fd 6b 9e 3c 51 e6 9f bd 55 d5 86 3e
       0.026510324 0.019338602 -0.07807601 0.26334634
000180 dc 26 d6 3d e4 76 6c 3c 9f ba f2 bd a6 64 98 3d
       0.104566306 0.014432643 -0.118520014 0.07441072
000190 80 52 94 3e 48 7a e8 3c cd 08 b7 3d 48 4e 7e bb
       0.28969193 0.02837862 0.089372255 -0.0038803983
0001a0 f3 da 87 bd ce d5 d1 3c ba 02 68 3e 00 69 24 3a
       -0.06633558 0.025614645 0.2265729 0.000627175
0001b0 d4 13 dc bd 65 06 5e bc f2 ac 8b 3c 03 93 75 be
       -0.107459694 -0.013551329 0.01705024 -0.23981862
0001c0 74 1a be bd 14 0b b1 3d d9 20 8c 3d 5c 15 cd 3b
       -0.09282389 0.08644691 0.06842203 0.0062586498
0001d0 5c b1 2b bd b4 49 14 3b 4b a5 26 3d 8c 9a b9 bc
       -0.04191719 0.0022626938 0.04068498 -0.022656702
0001e0 1d 61 89 bd 34 fd aa 3c a0 4c 8a bc 3d 8b 34 3c
       -0.06707976 0.02087269 -0.01688224 0.011019525
0001f0 c9 f1 f7 bc 7a 91 57 3d 9e ea 90 bd ff 15 e4 3c
       -0.03026666 0.05262897 -0.07076 0.02784252
000200 7d 8a f2 3d 00 68 42 bd ba b5 9f bd 9b 6c 45 3d
       0.11842821 -0.047462463 -0.077983335 0.048199277
000210 61 51 49 bc a2 56 ea bd b0 a2 f9 bd cf 2e 5a 3e
       -0.012287469 -0.11442305 -0.12189233 0.21306919
000220 d4 90 3e 3e 92 e6 04 3e d7 73 ac 3d 04 15 08 bd
       0.18609935 0.1297858 0.08420532 -0.033223167
000230 6d d3 eb 3b f6 00 06 3e ad cd c7 3a dc 2b 08 bd
       0.007196835 0.13086304 0.0015243791 -0.033244953
000240 a4 70 77 3d c3 f7 92 bd ea 3f 84 be 85 ce 28 be
       0.060410157 -0.07176163 -0.25830013 -0.16485031
000250 3e ab 47 3d 67 43 aa 3d 75 6b 10 3d a8 27 18 be
       0.048747294 0.08313637 0.03525873 -0.14858878
000260 f7 40 07 3d c9 6c 11 be 67 aa ee bd 02 92 46 be
       0.03302094 -0.14201654 -0.116535954 -0.19391635
000270 d5 45 80 bd 97 ff 6e bd 0a aa 97 bd 9a 1c ca 3d
       -0.062633194 -0.05834922 -0.07405479 0.098687366
000280 45 ba 99 3b ed b5 88 bd 73 f5 1a 3d 2f 70 c8 3c
       0.0046913945 -0.066753246 0.037831735 0.024467556
000290 97 39 c4 bd a2 9d 26 bd b2 49 17 3e 9c fb 84 3e
       -0.09581297 -0.040677674 0.14774206 0.25973213
0002a0 cf 14 ec 3c 70 79 84 bc dc b5 08 3e d9 d5 cc 3d
       0.028818516 -0.016171187 0.13350624 0.10001726
0002b0 85 5d 19 be b7 09 36 bd 42 f6 d4 3c 94 31 ea 3d
       -0.14977081 -0.04444286 0.025996331 0.114352375
0002c0 3f 91 5a bd 56 d3 90 3d df f3 b6 bd 14 78 a0 3d
       -0.053361174 0.07071559 -0.089332335 0.07835403
0002d0 8b bd 87 3d ce c6 c0 3d 72 5d 71 3d 86 f4 1a 3d
       0.06627949 0.09412919 0.058927007 0.037830852
0002e0 77 4b 66 bd 37 35 4b 3c ee 44 3e 3d 04 a1 20 bd
       -0.056224313 0.012402824 0.046452455 -0.039216056
0002f0 9b ae d7 3d bc eb a0 bd eb d0 b9 bd 4d dd 8d bd
       0.1053135 -0.07857463 -0.09073051 -0.069269754
000300 2c 67 9c bd 55 cb e6 3d ee 3d 8d bd f6 d3 c8 bd
       -0.07636866 0.11269251 -0.06896578 -0.09806053
000310 77 c1 1d 3d fe cc 80 bd 67 64 df bb ff c3 a3 3d
       0.03851458 -0.06289099 -0.006817389 0.07996368
000320 9f 4e ab bc 4d f4 e1 3d 0c e6 13 bd d1 06 dd bd
       -0.020911513 0.11032925 -0.03610806 -0.10792316
000330 19 66 28 bd 5d 40 d1 3b 2c ca 1b 3e 35 84 38 bb
       -0.041112993 0.0063858465 0.15213841 -0.0028154973
000340 50 23 98 bd d9 22 c5 3c 8b b5 4b bd 61 9b 0a 3d
       -0.0742861 0.024064468 -0.04973368 0.033839587
000350 cd 5c d7 bd cd f0 61 be ff b3 f5 bc 5f 0c fa bc
       -0.10515747 -0.22064514 -0.029993055 -0.030523477
000360 df 83 a7 bd ce 30 1c be fd 6c 79 3c cd 2a c7 bd
       -0.08179449 -0.15252993 0.015223739 -0.097249605
000370 82 d9 01 bd 54 5b 8a 3e fc 2c 01 3f 0b a8 05 3f
       -0.031701572 0.27022803 0.50459266 0.5220954
000380 5f d7 bb bd 2b 53 3b bd c0 75 93 3d 91 0a cd 3d
       -0.09171938 -0.045733612 0.072001934 0.10011781
000390 15 04 00 3e 16 78 17 bc ee 16 9e 3d e1 d3 93 bd
       0.12501557 -0.009244939 0.07719217 -0.07218147
0003a0 72 31 85 3d a5 5c b8 bc cf f8 2f bd 0f 8b 89 3a
       0.065035716 -0.022505114 -0.04296189 0.0010493713
0003b0 e8 98 39 bd 80 d5 02 3b 33 fd ca 3d 10 ca d5 bd
       -0.04531184 0.0019963682 0.09911575 -0.10438931
0003c0 53 cf 23 3d 21 b4 00 be ba ae 7c bb fb a3 12 3e
       0.03999264 -0.12568714 -0.0038556294 0.14320366
0003d0 bf 66 84 3d 1f fd 0b 3e 75 13 1d 3e 63 75 4f bd
       0.0646491 0.13670777 0.15339454 -0.050649058
0003e0 2e 6b bb 3c ee ee 57 bd cd 93 10 3e 7b e5 bf 3c
       0.022878256 -0.052718095 0.14118882 0.023424855
0003f0 af ba 89 bd ae 34 04 3e d8 49 e1 bb 3b 39 a8 3d
       -0.0672506 0.1291072 -0.006875258 0.08214041

convs.0.fc_full.bias f4 [32]
000000 49 5b 8c 3a f6 8b a9 3d 8f 36 58 bd 13 ad 17 3e
       0.0010708357 0.082786486 -0.052786406 0.14812116
000010 d2 79 d2 bd 17 d4 1d be 11 a4 9c 3d a1 cd b9 bd
       -0.10277142 -0.15412937 0.07648481 -0.09072424
000020 9c ef d6 3d ac 33 ee bd e7 51 2c 3e de 0a 15 3e
       0.104949206 -0.116309494 0.16828118 0.14554927
000030 6c aa f8 3c 56 e6 00 3d fd ed c2 3d 65 7a ab 3d
       0.030354701 0.031469665 0.09518049 0.08372954
000040 e9 e0 29 be c2 81 10 bd e1 d2 17 be 89 c9 be 3d
       -0.16589703 -0.035279997 -0.14826538 0.093157835
000050 c2 2c ad bc 7c aa 71 bb b1 4d d7 bd 4b 26 3a bd
       -0.021139506 -0.0036875298 -0.10512865 -0.045446675
000060 a4 70 e7 3c e4 95 eb 3d 69 31 d8 bd 00 ff 0a bb
       0.028251953 0.11503199 -0.10556299 -0.002120912
000070 16 7c b1 3d 84 ff e9 3d 2b a4 6c bd 33 27 10 3e
       0.08666246 0.11425689 -0.05777375 0.14077453

convs.0.bn1.weight f4 [32]
000000 41 22 8b 3f 61 b8 8e 3f 4c b1 84 3f b1 93 8b 3f
       1.0869828 1.1150018 1.0366607 1.0904447
000010 b1 8a 82 3f dd 1d 73 3f 40 01 88 3f af bc 87 3f
       1.0198575 0.9496744 1.0625381 1.0604457
000020 fb d2 8b 3f 74 4b 92 3f 60 0d 8d 3f ae eb 81 3f
       1.0923761 1.1429276 1.1019707 1.0150049
000030 de 5f 8b 3f 00 56 7a 3f 13 e7 85 3f ae 13 86 3f
       1.0888631 0.97787476 1.0461143 1.0474756
000040 99 d8 8b 3f 24 81 75 3f 89 d5 70 3f a1 02 88 3f
       1.0925475 0.9590018 0.9407583 1.0625802
000050 9d fd 7a 3f f0 13 86 3f df e9 80 3f 4f 69 70 3f
       0.98043233 1.0474834 1.0071372 0.9391069
000060 95 ed 7b 3f a4 18 74 3f c5 47 80 3f 84 e8 82 3f
       0.98409396 0.953501 1.0021902 1.0227208
000070 28 ee 82 3f b6 60 7e 3f 6f a1 77 3f e4 db 7d 3f
       1.022893 0.9936632 0.96730703 0.9916365

convs.0.bn1.bias f4 [32]
000000 58 8f 3b bd c7 16 a0 bc 2a 46 8d 3c ec a4 ac 3d
       -0.045791 -0.019542111 0.01724537 0.08429894
000010 2a 68 6c bc 7c 11 9e 3d 91 aa db 3c 3d df 20 bb
       -0.0144291315 0.07718179 0.02681473 -0.0024547123
000020 2f 53 8c bb dc bc a7 3d d7 ef 59 3c 05 f2 26 3b
       -0.004282377 0.08190319 0.013301811 0.0025473845
000030 21 de a3 3d 8d 3f 30 3d ee e3 2f 3d 2e 5f 47 bd
       0.08001352 0.043029357 0.04294198 -0.048674755
000040 bd 5e 2a bd 59 52 49 3d 21 30 c4 3d 93 d2 ae bd
       -0.041594256 0.0491508 0.09579492 -0.085362576
000050 74 3b 89 3c ab 58 ff ba 88 09 f3 3b 41 bd 1c 3d
       0.016751982 -0.0019481381 0.0074169077 0.038266424
000060 71 d6 8f bd 11 2e cf 3c b8 92 dc 3b d1 1a 3a 3d
       -0.07023323 0.02529052 0.0067313574 0.04543573
000070 1c 37 f3 bc 18 66 a6 3c ac aa 32 3d 6c 3c 06 3b
       -0.029689364 0.020312354 0.043619797 0.0020482792

convs.0.bn1.running_mean f4 [32]
000000 5d af 8a be b5 16 90 3f 8a 82 5c bf 38 c8 42 be
       -0.27086917 1.125693 -0.86136687 -0.1902169
000010 e2 7f 90 bf cb 96 00 be 22 b1 0f 40 ee d6 15 3f
       -1.1289027 -0.12557523 2.2451863 0.5853108
000020 60 ad 7f bf 60 7f 16 3f 27 2c 81 3e 68 9d 97 be
       -0.99873924 0.5878811 0.25228998 -0.2961228
000030 dc d7 62 3e e8 c5 8e 3e 74 65 a3 3e ba 7c d9 3e
       0.22152656 0.27885365 0.3191334 0.4247797
000040 2b 7c fb be ae d8 75 3e 9f 0c da bf 24 5c 8b be
       -0.4911817 0.24008438 -1.7035102 -0.27218735
000050 ee 4e 35 be ae 0d d6 bd c0 fc 7a 3f 73 4e 76 be
       -0.1770589 -0.10451828 0.98041916 -0.24053364
000060 98 8e 45 bf 16 35 97 3e 24 fb 63 3f 2e 37 c3 be
       -0.77170706 0.2953269 0.89055085 -0.38128036
000070 5a 2b ff 3e c0 34 0b bf 0c a4 a1 be 5c 92 ab bc
       0.49837762 -0.54377365 -0.3157047 -0.020943813

convs.0.bn1.running_var f4 [32]
000000 22 57 1d 3d 72 1d 6a 3c 15 09 9a 3c 37 24 f1 3b
       0.038413174 0.014289247 0.018803159 0.0073590535
000010 1e eb 09 3d 54 ba 32 3c 4c ed 5e 3c 77 73 31 3d
       0.03367149 0.010908682 0.013606381 0.043323006
000020 5c d5 75 3c d1 75 a9 3c f2 18 7f 3c 01 53 e1 3c
       0.015004482 0.020686062 0.015569912 0.0275054
000030 07 46 2a 3d f3 de 61 3c ca 8c 83 3c 15 fe 0d 3d
       0.04157069 0.013786065 0.016058344 0.03466614
000040 e4 ea 1b 3d f9 bc 13 3d fd 12 39 3d a0 76 dd 3c
       0.038065806 0.03606889 0.045184124 0.027034104
000050 62 60 ef 3c e2 bc 83 3c fb 89 15 3d ed b4 64 3c
       0.029220764 0.016081277 0.03650854 0.013959152
000060 86 03 a5 3c 1f 16 2b 3d 6e f2 26 3d 63 d0 54 3d
       0.020143282 0.041769143 0.040758543 0.051956546
000070 9d 81 e2 3c e6 f8 cf 3c c6 ac 08 3d ec ec b8 3c
       0.027649695 0.025387239 0.033367895 0.02257391

convs.0.bn2.weight f4 [16]
000000 7b e8 80 3f d0 5a 80 3f 10 e3 7c 3f 8f e2 88 3f
       1.0070947 1.0027714 0.9878397 1.069414
000010 62 d5 79 3f 32 71 7b 3f e8 9f 80 3f 6d 26 81 3f
       0.9759122 0.982196 1.00488 1.0089852
000020 59 30 79 3f d6 0d 81 3f 1f 46 80 3f e6 68 89 3f
       0.973394 1.0082347 1.0021399 1.0735137
000030 5c 7f 84 3f d7 92 7e 3f 7a d5 79 3f 7b 44 85 3f
       1.0351367 0.9944281 0.97591364 1.0411524

convs.0.bn2.bias f4 [16]
000000 2b 5a 65 bd 3c de 24 3d ff 60 90 3d 05 c4 41 3d
       -0.055994194 0.040251 0.070497505 0.04730608
000010 86 2e 68 3c 0e 87 8c bd 8a 6e 8a b9 1e 52 26 3d
       0.014171248 -0.06861697 -0.0002640377 0.040605657
000020 d9 2b 4d bc 40 77 50 3d a9 cf df 3c d4 d8 0a 3d
       -0.012522661 0.050894976 0.0273207 0.03389819
000030 dd 78 bd 3c 59 f3 4b 3c 93 c0 80 3d 33 0e b5 3c
       0.023128921 0.012448155 0.062867306 0.022101497

convs.0.bn2.running_mean f4 [16]
000000 13 5a c7 40 82 62 b5 40 76 08 a3 40 63 29 8f 40
       6.2297454 5.668275 5.094783 4.473802
000010 18 73 a9 40 22 79 8e 40 f9 b9 a0 40 57 7a b1 40
       5.2952995 4.4522867 5.0227017 5.546184
000020 04 0a ab 40 a6 a9 c6 40 b9 e7 99 40 bf a0 8c 40
       5.3449726 6.208209 4.8095365 4.3946223
000030 00 71 ae 40 aa 0a bc 40 27 e8 a2 40 57 bd a3 40
       5.451294 5.876302 5.090839 5.116863

convs.0.bn2.running_var f4 [16]
000000 df d0 87 40 02 aa e6 40 1a 4d 85 40 00 6a 79 40
       4.244247 7.208253 4.165662 3.8970947
000010 75 21 56 41 6a b3 66 40 aa 35 46 41 f9 37 2c 41
       13.383168 3.6047006 12.388102 10.763665
000020 96 fb 8b 41 f9 bf 7e 41 12 31 87 40 e3 fb 91 40
       17.497845 15.921868 4.22474 4.561998
000030 a5 3e 6c 40 62 b6 62 41 50 11 9d 40 24 0b 7d 40
       3.6913235 14.169527 4.9083633 3.953805

convs.1.fc_full.weight f4 [32, 56]
000000 11 a9 be 3d 61 88 02 3e 94 1a 14 bd 9f a1 dd bd
       0.093095906 0.12747337 -0.03615816 -0.108218424
000010 40 50 a6 ba b7 fb 8b 3d b9 49 03 3d 74 bc cb bd
       -0.0012688711 0.0683512 0.03205273 -0.09948054
000020 79 5f 8a 3d 17 61 22 be eb b0 8d 3d f7 c3 d2 3d
       0.06756491 -0.1585735 0.0691851 0.102912836
000030 6c e8 83 3c ec a1 70 bc e4 32 e7 3d 22 c4 10 bc
       0.016102038 -0.014687043 0.112890035 -0.008835824
000040 3d 1a 80 bd 26 98 54 bd 6d 15 d6 3d f0 a9 06 3e
       -0.062550046 -0.051902913 0.104533054 0.13150764
000050 d1 49 f0 3c b1 46 f6 bd 81 c4 9c bd bd d6 16 bd
       0.029332073 -0.12025202 -0.07654668 -0.036825884
000060 ca a8 07 3e 00 79 47 be a2 0b 1d bd fa e5 14 be
       0.13247982 -0.19479752 -0.038341172 -0.14540854
000070 64 0b fa b8 22 69 2b bb 2f 8a 27 bd 6d 6e 57 be
       -0.000119230506 -0.0026155193 -0.040903267 -0.21038218
000080 eb 3b 09 be 1a 98 31 bc bf 67 0c 3d 91 63 a7 3d
       -0.13401763 -0.0108394865 0.034278627 0.08173288
000090 08 aa d9 bd ff 1a 29 3c 25 e7 1c bd e4 94 b9 3d
       -0.10628134 0.010321378 -0.038306374 0.09061602
0000a0 d0 31 53 bd b4 19 4e 3d b1 63 2b 3d e4 8f 48 3d
       -0.051561177 0.05031748 0.04184312 0.04896535
0000b0 29 75 0b bd 91 97 54 3d a8 3e 80 bc 13 dd 7c 3d
       -0.03404728 0.051902357 -0.015654877 0.06173427
0000c0 51 f9 90 bd d3 3e f4 bd d7 5f 09 be 34 0a ac bd
       -0.07078803 -0.11926045 -0.13415466 -0.084003836
0000d0 97 30 67 bd eb d6 71 3e 04 a9 83 3e fa b6 c8 3d
       -0.056442823 0.23617141 0.25714886 0.09800525
0000e0 89 af c7 3c 7f 1f 9e bd a6 ee b7 3d 85 54 2b be
       0.024375694 -0.07720851 0.089810655 -0.1673146
0000f0 b1 9b a9 bd 4a 0a 54 bd 20 01 9d ba c3 08 18 3d
       -0.08281649 -0.051767625 -0.0011978485 0.03711773
000100 8e 9e bd 3b f0 6e f2 3d 8c 44 4a bd 06 79 93 bc
       0.0057867235 0.11837566 -0.049381778 -0.018002044
000110 06 2a 9b 3d 51 7f ed 3d ab 75 19 3d bf 60 39 3d
       0.07576375 0.11596549 0.037465733 0.04525828
000120 cf b4 53 bd 62 19 80 3d 09 f4 ee 3c df fc 42 3d
       -0.051686104 0.062548414 0.0291691 0.047604438
000130 39 d9 a1 3d d9 6e 37 3e 19 4f 57 bd 9b bd 9f bd
       0.0790276 0.17913379 -0.052565668 -0.07799836
000140 57 82 05 be 72 f5 50 3c 21 d9 e0 3d 6f 16 63 bd
       -0.13038002 0.012753831 0.10978914 -0.055441316
000150 4a f1 a8 3d 6f f4 8e 3d eb 2e 28 bc c9 9f 6a 3d
       0.08249147 0.06980216 -0.010265092 0.05728129
000160 1e 10 9d 3c 11 1b 02 be 2a 7f 8c bd f1 ea 01 be
       0.019172724 -0.12705638 -0.06860192 -0.1268728
000170 d4 5e 1b 3c b1 c4 92 3d 8b e3 5a bc 11 05 26 3e
       0.009483058 0.07166422 -0.0133599145 0.1621287
000180 32 68 9b bc 57 59 fb 3c 76 07 f5 3d 81 2b 93 3d
       -0.018970583 0.030682249 0.11964314 0.07186032
000190 9c 7c 1b 3d 0a 8e 08 3e 3e d6 9d bd 6a 1e 2e 3d
       0.037960634 0.13335434 -0.07706879 0.042509474
0001a0 c8 0a bc 3d d7 94 b9 bd 94 7d 12 be f9 13 2f 3d
       0.09181744 -0.09061592 -0.14305717 0.042743657
0001b0 d8 28 4f bd 73 fc 27 be d7 b4 52 be 59 b0 c4 be
       -0.05057606 -0.16404895 -0.20576797 -0.38415793
0001c0 e3 99 7e 3d f9 0f c3 bd 62 e8 03 be 1b 56 d1 3d
       0.062158477 -0.09524531 -0.12881616 0.102215014
0001d0 b1 9d 9a 3d 50 43 d2 3a f5 67 35 bd 1f c9 ec 3d
       0.075496085 0.0016041789 -0.044288594 0.11561798
0001e0 15 a7 80 3c 5d 90 cc 3d 44 5f 41 3d 90 af 7b 3d
       0.01570467 0.099884726 0.047209993 0.061446726
0001f0 64 6f 20 3e a5 95 af bc 5e 09 2d be 6f b3 17 be
       0.15667492 -0.02143366 -0.16898105 -0.14814542
000200 2b ee 35 3d 94 00 8c 3d 27 07 a1 bd 86 f2 9b bc
       0.044416588 0.06836048 -0.07862692 -0.019036543
000210 07 0b b6 3d a4 c6 e3 3d 62 e5 83 bd 75 10 3e bd
       0.08888822 0.11121872 -0.06440236 -0.046402413
000220 86 3b bb bd a1 9c 03 3e f6 33 25 be fc 60 a7 bc
       -0.091422126 0.12852718 -0.16133103 -0.020431988
000230 0c 18 70 bd 8d a5 c7 3c 46 b0 03 bd 7d 04 af 3d
       -0.058616683 0.024370933 -0.03215053 0.08545778
000240 85 73 25 bd b5 7b 37 bc f2 e3 65 bd 69 ae b4 bd
       -0.04039337 -0.011198928 -0.05612559 -0.088223286
000250 ba 43 0f be c0 c5 82 3d eb d9 9e 3a 83 13 00 be
       -0.1399068 0.06385374 0.0012119388 -0.12507443
000260 5b e3 d0 bd cd 9a de bd 73 dc b1 bc 7c 34 2e bd
       -0.101996146 -0.1086937 -0.021711564 -0.04253052
000270 85 c6 9e bc e2 26 c0 3c fe db 0f be 8c 67 d2 ba
       -0.01938177 0.02345604 -0.14048764 -0.0016052588
000280 37 8a a5 bc 20 dd 7c bd 89 b2 85 bb 2c f4 67 bd
       -0.020207508 -0.06173432 -0.004080121 -0.056629345
000290 87 24 d6 3b a5 2f d0 3d d6 da 66 3e b1 81 ab 3e
       0.006535116 0.101653375 0.22544417 0.33497384
0002a0 f7 52 97 3d fa 9c bd bd c2 90 14 3d a1 4d 0d be
       0.07388871 -0.092584565 0.036270864 -0.13799144
0002b0 a5 67 fa 3d b8 03 aa bd 23 3d f0 bd ae 15 16 be
       0.122268 -0.083014905 -0.11730411 -0.14656708
0002c0 93 23 bb bd 1b 80 9a bc 48 7d 32 bc dc 2c 2f 3b
       -0.091376446 -0.018859914 -0.010894127 0.002672962
0002d0 34 fc fc bc 93 54 21 bd 3a 99 a2 bc 56 ae e7 bd
       -0.030881979 -0.039387297 -0.019848455 -0.11312549
0002e0 7b de 2d be 38 37 c5 3d 82 29 68 bd 53 4d 8c bc
       -0.16979401 0.09629673 -0.05668021 -0.017126715
0002f0 1a 71 87 3d eb 32 a4 bd 62 09 63 bd ce f6 22 be
       0.06613369 -0.08017524 -0.05542887 -0.15914461
000300 bf fe 84 bd db 9f a1 3d c2 10 92 3c 96 39 8d 3d
       -0.064939015 0.07891818 0.017830256 0.06895749
000310 d0 4d 03 bc f3 6d 0e bd df f8 b8 bd e7 bb 82 3d
       -0.008014157 -0.034772824 -0.090318434 0.06383496
000320 00 f7 18 bd 00 aa ec bd eb 4a 46 be c2 af 8b bd
       -0.037344933 -0.115558624 -0.19364516 -0.068206325
000330 2b 1c 13 be 59 c2 a7 3c 8a fb 63 3d ec 2d 0b be
       -0.14366214 0.020478414 0.05565981 -0.13591737
000340 7d 25 61 3d 25 e0 d0 3c a0 31 d0 bd 4f 09 b4 bd
       0.054967392 0.025497505 -0.10165715 -0.08790838
000350 52 b8 46 be e3 be f5 bc 13 b7 0d bd 78 f3 15 3e
       -0.1940625 -0.029998248 -0.03459842 0.14643657
000360 68 16 7c 3d 58 85 8b bc 5d 93 1f bd 69 b1 e3 bd
       0.061544806 -0.017031357 -0.038958896 -0.11117823
000370 5f eb 1a bd 39 f0 86 3d 0e c3 0f 3e fb f0 ee 3d
       -0.037822124 0.065887876 0.14039251 0.11667057
000380 b2 76 0a be 55 85 70 3d e7 58 7f bd fe ce f5 bd
       -0.13521841 0.058720905 -0.062340643 -0.12002371
000390 8d 1f ca bd 1e f3 03 3e 82 64 c9 bb f2 5c 1f bd
       -0.09869299 0.1288571 -0.0061460147 -0.038907
0003a0 ef 43 cc bd 3b 07 3f 3d d2 d9 aa bc 1e 58 1b bd
       -0.09973895 0.046637755 -0.020855818 -0.037925832
0003b0 cf 62 c7 3c ce 16 91 bc b1 e7 ad 3d b3 43 87 3b
       0.024339108 -0.01771107 0.08491457 0.0041279434
0003c0 33 e8 a7 bc ee aa 31 bd 5f 5a 28 be f9 ef 6f 3c
       -0.020496463 -0.043375902 -0.16440724 0.014644616
0003d0 00 f5 cd 3d c8 3d fd bd f0 1a 2e be 70 58 3b be
       0.10056496 -0.123652995 -0.17002463 -0.18295455
0003e0 41 88 f0 3c 50 b6 5b bb bb 64 1b be 1e bc 5c 3e
       0.029361846 -0.0033525415 -0.15175144 0.21556136
0003f0 47 33 62 bc 11 41 48 3d 49 f0 87 3d 97 0d f6 bd
       -0.013806171 0.048890177 0.06637628 -0.12014311

convs.1.fc_full.bias f4 [32]
000000 44 98 7a bd cd b7 01 3e c2 26 e0 bb 9d 1e 45 bd
       -0.061180368 0.1266777 -0.006840558 -0.0481249
000010 4e dc 4c bd 4d ba ef 3d 84 38 c1 3d be be c1 bd
       -0.050014786 0.11705456 0.094346076 -0.09460209
000020 d2 66 c0 3b 22 99 89 3d d9 2c c0 3d 7b 4e 80 bd
       0.005871632 0.06718661 0.09383554 -0.06264969
000030 0f 7a 40 bc 9b b8 ff 3c 79 cb 51 3d df 0e ee bc
       -0.011747851 0.031215956 0.051219437 -0.029059825
000040 5d ab 6c bd f6 77 0f be aa 41 6b 3d 95 db f7 3d
       -0.057780612 -0.14010605 0.05743567 0.12102429
000050 90 b0 23 bd fc a3 1a be 37 4e 59 3d bd 13 ab bd
       -0.039963305 -0.15101618 0.053053107 -0.08353374
000060 a8 b8 5e bd 18 75 8a 3d 27 a5 10 bd ef b8 a6 bc
       -0.05437532 0.06760615 -0.03531375 -0.020351855
000070 50 3f 96 3d 31 50 ab bc d7 3f 29 3e 96 5f 3a bd
       0.07336295 -0.020912262 0.16528259 -0.045501314

convs.1.bn1.weight f4 [32]
000000 d4 31 82 3f d3 1d 88 3f 2c a7 8c 3f 66 b0 7c 3f
       1.0171456 1.0634102 1.0988517 0.9870666
000010 1c 5e 81 3f 25 d4 89 3f 47 7d 8f 3f 11 2a 71 3f
       1.0106845 1.0767866 1.1210107 0.94204813
000020 ad 71 85 3f 11 19 97 3f 7b 6f 79 3f 2f f1 7f 3f
       1.0425316 1.1804525 0.9743573 0.9997739
000030 32 32 89 3f 36 69 8d 3f c4 a4 8d 3f 4e 83 89 3f
       1.0718443 1.1047733 1.1065907 1.0743196
000040 a1 ff 86 3f 47 25 7b 3f 48 30 6f 3f 7e 63 8d 3f
       1.0546762 0.98103756 0.93433046 1.1045988
000050 2f ba 8b 3f e3 89 8b 3f 65 1e 8e 3f fb 90 96 3f
       1.0916194 1.0901455 1.1103026 1.1762995
000060 7a cb 89 3f 5b 8e 7e 3f 0e a4 91 3f 98 16 87 3f
       1.0765221 0.9943597 1.137819 1.055377
000070 fb 1d 76 3f 35 39 8e 3f c8 f9 73 3f 44 2e 87 3f
       0.96139497 1.1111208 0.9530301 1.0560994

convs.1.bn1.bias f4 [32]
000000 d8 90 cf 3d 39 a1 8a 3b 45 0a c2 bd 01 2b 15 3d
       0.10135049 0.004230645 -0.09474615 0.036417965
000010 ea 07 b3 3d 53 e1 75 bc ae dd c3 bd c4 29 25 3d
       0.08741744 -0.015007335 -0.095637664 0.040323034
000020 41 35 5a bd e8 9b 89 bd fb e8 25 3d 51 d4 1d 3d
       -0.053273443 -0.0671919 0.04050539 0.03853256
000030 13 34 cf 3c 33 8b 02 bc 40 dc 55 3b 9b 61 f4 3c
       0.025293386 -0.007967758 0.00326325 0.029831698
000040 28 0a 96 3b 59 27 e3 bb b4 5a a1 3d c8 55 d6 bd
       0.0045788474 -0.006932181 0.078786284 -0.1046558
000050 43 e8 7a bd e2 6e b4 bd fe a2 00 be c7 59 0f be
       -0.06125666 -0.08810212 -0.12562177 -0.13999091
000060 bc d8 a5 bd 1b a2 16 3c a3 0b 03 be 90 30 99 bc
       -0.080979794 0.009193922 -0.12797408 -0.018699914
000070 a7 ad ca 3c e5 e9 b1 bd 52 04 f6 3b 49 e6 9b bd
       0.024741007 -0.0868719 0.0075078392 -0.07612283

convs.1.bn1.running_mean f4 [32]
000000 d7 ba 0b bf 08 12 27 3f 17 36 29 bf 08 2b e6 bf
       -0.5458197 0.6526189 -0.6609816 -1.7981882
000010 73 c9 c1 bf 61 2f ca bf 1d 59 d9 3f 30 c5 b1 3d
       -1.5139602 -1.5795709 1.698032 0.08680189
000020 bc 71 f0 be 55 ca bc bc 20 02 bf 3f 42 f4 0a bf
       -0.46961772 -0.023045698 1.4922523 -0.5427896
000030 54 2b b7 3d a7 37 29 be 98 2d 40 be b0 3a b9 3d
       0.08943811 -0.16525136 -0.18767393 0.09044397
000040 72 bd 4c 3e 36 d7 bb be f5 11 b1 be 36 46 92 bf
       0.19994143 -0.3668763 -0.34584013 -1.1427677
000050 2c 61 e1 bb 09 85 7f bd e7 31 36 3e c4 64 0a 3f
       -0.006878039 -0.06238273 0.17792474 0.54060006
000060 e0 93 e6 bf 57 71 c9 be 9c 6e 9d 3f 6c f0 7c be
       -1.8013878 -0.39344284 1.229938 -0.24701089
000070 dd ec b2 bf 60 78 05 bf be b6 87 bf b6 69 9a 3e
       -1.3978535 -0.521368 -1.0602643 0.30158776

convs.1.bn1.running_var f4 [32]
000000 a7 a9 90 3e 24 83 c5 3d 59 b8 87 3d 58 b6 1d 3d
       0.28254434 0.09644154 0.066269584 0.038503975
000010 10 a3 51 3d 13 52 ed 3d 3d e2 81 3d ea b6 f8 3d
       0.0511809 0.1158792 0.0634198 0.12144263
000020 df 70 8a 3d 6c a3 87 3d 81 d0 f1 3d 90 f8 5a 3d
       0.0675981 0.06622967 0.11807347 0.053459704
000030 48 4c b2 3d af 08 29 3d 1d 5e 4c 3d 19 0d 04 3d
       0.08705956 0.041268047 0.04989444 0.032239053
000040 8c 04 b8 3d 5c 5e 07 3e 09 05 91 3e 54 6d 3a 3e
       0.08985242 0.13219589 0.28324154 0.18205768
000050 7c 56 50 3d 4e 47 93 3d 3e 23 85 3d ab f6 8d 3d
       0.050863728 0.07191335 0.065008625 0.06931814
000060 fc 8f 0b 3d 89 18 4c 3e eb 54 b2 3d 29 d5 2b 3e
       0.03407286 0.19931234 0.08707603 0.16780533
000070 ad 52 22 3e 5c 3a b4 3d 64 2b 67 3d b5 af 56 3d
       0.15851851 0.08800194 0.056437865 0.05241366

convs.1.bn2.weight f4 [16]
000000 14 71 7e 3f 10 e6 81 3f 08 5a 84 3f 76 e9 8a 3f
       0.99391294 1.0148335 1.0339975 1.0852497
000010 3c 51 87 3f 95 b5 8f 3f b4 be 7c 3f 54 cb 83 3f
       1.0571666 1.122729 0.9872849 1.0296426
000020 b8 1e 89 3f e2 35 85 3f a6 05 84 3f 0c 16 7a 3f
       1.07125 1.0407069 1.0314224 0.9768989
000030 f2 0d 80 3f e2 33 89 3f 6c a6 78 3f e9 5d 85 3f
       1.0004256 1.0718958 0.9712894 1.0419284

convs.1.bn2.bias f4 [16]
000000 cd c8 02 be 42 3b db 3c 8a 9b 94 3d 29 90 4b 3d
       -0.12771912 0.026761655 0.07256229 0.04969803
000010 66 6e c4 3b 44 93 c0 3c 48 72 7a bc 78 e5 88 3c
       0.005994606 0.023507722 -0.015286036 0.016710982
000020 03 d9 1d 3d c2 74 45 3d fa 28 af 3c e0 8a 0f bc
       0.038537037 0.048207052 0.021381844 -0.008761138
000030 6a dd 5d 3d 64 ec 1e 3d 20 b8 6a 3d 76 fb 28 3d
       0.054166235 0.03879966 0.0573045 0.041255437

convs.1.bn2.running_mean f4 [16]
000000 1e 6a bb 40 78 4c b3 40 61 b4 8d 40 14 75 9c 40
       5.8567038 5.6030846 4.428269 4.889292
000010 14 df 94 40 39 6e 9f 40 44 4d 88 40 de ea a7 40
       4.652231 4.982205 4.259432 5.2474203
000020 0e de 78 40 42 fc 96 40 33 5a 8d 40 80 6c 80 40
       3.8885531 4.718293 4.4172606 4.0132446
000030 2b 91 b8 40 74 16 88 40 bf 03 a7 40 a0 98 9c 40
       5.7677207 4.252741 5.2192073 4.893631

convs.1.bn2.running_var f4 [16]
000000 82 79 2d 41 cd f3 bd 40 26 f5 f2 3f a2 55 71 41
       10.842165 5.936011 1.8981063 15.083406
000010 da f7 cb 3f 94 5e 0a 41 11 47 3a 41 20 30 15 41
       1.5935013 8.64809 11.64235 9.324249
000020 80 d9 d5 40 53 75 9e 40 3c f9 bb 40 32 e5 27 40
       6.6828003 4.951822 5.874174 2.623364
000030 71 83 4f 41 37 ca 8e 40 f3 f4 19 41 01 ab f2 40
       12.96959 4.4621844 9.622302 7.5833745

convs.2.fc_full.weight f4 [32, 56]
000000 7b 75 c3 3d 7a 17 ba 3c f5 77 f2 3d cd 75 5c 3d
       0.09543892 0.022716273 0.11839286 0.05382328
000010 2b 6a c7 bd cc b0 53 3c 5f b1 ed 3d 44 20 76 3c
       -0.09737047 0.01292057 0.116060965 0.015022341
000020 e9 b0 9d 3d 63 c9 4e bd 2d fb 52 3d bd c2 ba bd
       0.076997586 -0.050485026 0.05150907 -0.09119175
000030 bd 63 34 3e b5 41 6e 3d 1b 78 24 3d a9 65 a4 bd
       0.17616172 0.05816813 0.040153604 -0.08027203
000040 be 13 75 3e 8b ec 3c 3d 05 2d 29 3e 81 cb 6a 3d
       0.23933312 0.046124022 0.1652108 0.057322983
000050 6b 46 fb 3c 53 71 5b 3c 6b 5c ca 3c 88 7a c5 3d
       0.030673226 0.013393718 0.024702271 0.096425116
000060 0e e3 34 3d 06 a0 c6 bc c5 fd 29 3c cb f5 88 3d
       0.04416185 -0.024246227 0.010375445 0.06687506
000070 80 9a 11 be 84 e3 db bd 57 0f ea bb 12 f1 c7 3d
       -0.14219093 -0.107367545 -0.007142942 0.097627774
000080 e1 34 a6 bc 12 ae 5d be 12 95 f2 bc 01 f6 46 3d
       -0.020288887 -0.21648434 -0.029612098 0.04857445
000090 96 5f ec 3d 3f 98 c4 3c ce ff b3 bd 75 9f bf bd
       0.11541669 0.023998378 -0.08789025 -0.09356586
0000a0 de 8d 94 3d e1 7f b9 3c ee 76 2a be b6 9c 97 bc
       0.072536215 0.022643985 -0.1664693 -0.018507343
0000b0 fb ac f8 bb b8 39 04 3e 01 47 39 3e e4 e5 19 3b
       -0.0075889803 0.12912643 0.18093492 0.0023482973
0000c0 e4 87 7c 3c 28 de 1c be 0a 51 d0 3b 4c f3 ae 3b
       0.015413258 -0.15319121 0.006357317 0.005339062
0000d0 40 2b b6 3d aa a5 6b 3e ce 2c 65 bd 41 b5 c9 3d
       0.08894968 0.23012415 -0.055950932 0.098490246
0000e0 28 78 1d 3d 9a c6 25 be 9b 5c 42 3d 41 cb b5 bd
       0.038444668 -0.16189042 0.047451597 -0.08876658
0000f0 46 d1 45 3d 30 24 13 3d a4 08 10 be c2 f3 4a 3d
       0.04829528 0.035923183 -0.14065796 0.04954887
000100 a6 fe e5 bc 18 79 fd 3d 4d ab 14 3e 0a 88 00 3d
       -0.028075527 0.123766124 0.14518471 0.031379737
000110 49 2d 4a 3e 62 94 1b 3d 7b a2 f2 3d ef 44 07 3d
       0.19743837 0.037983306 0.11847397 0.033024725
000120 55 1b ec 3d 04 17 21 3c 34 4e 30 3d 68 97 a1 bd
       0.11528651 0.0098321475 0.04304333 -0.078902066
000130 a7 67 43 3c 1f e8 a2 3d 61 91 c5 3d d5 b4 ca bc
       0.011926568 0.0795443 0.096468695 -0.02474443
000140 f5 03 03 be 0a 8c b9 3d 85 75 85 bd 7a ff a4 3d
       -0.12794478 0.090599135 -0.06516556 0.08056541
000150 6b 3b 91 bc 90 a5 95 3d 7d 5a 8e 3d 38 2c 0f bd
       -0.017728528 0.07306969 0.06950853 -0.03495428
000160 41 63 62 bd ef 2a 25 3d 9d 39 ac 3e 79 85 09 bd
       -0.055270437 0.040324148 0.33637705 -0.033574555
000170 31 d9 11 bd 06 b0 e9 3c c6 67 11 3e b1 a6 73 3e
       -0.03560752 0.028526317 0.14199743 0.23794056
000180 43 f6 b7 3d f3 37 dd bd f0 44 33 3d b7 05 69 3e
       0.089825176 -0.10801687 0.043766916 0.22756086
000190 44 5a 6a 3e ee 5f 02 3e e9 e7 46 3d 0e 2a 31 be
       0.22885996 0.12731907 0.04856101 -0.17301199
0001a0 7a a2 88 bd c4 ad 82 bd 37 e0 7c 3e ba 09 1b 3d
       -0.06671615 -0.063807994 0.24694906 0.037851073
0001b0 58 f9 eb 3d d4 83 65 be 39 95 8d be c2 98 b5 be
       0.11522168 -0.2241357 -0.2765291 -0.35468107
0001c0 47 f7 0f be 94 e2 3c 3d 15 62 ad bd ed a1 c2 bc
       -0.14059173 0.04611452 -0.08465973 -0.023758853
0001d0 36 4d a4 bc a4 15 ff bb e8 89 ba bc e7 ae ec bd
       -0.020056348 -0.007784562 -0.022770837 -0.115567975
0001e0 fd f4 62 bd 58 9c 47 bb f5 bd a4 bd 93 12 9e 3d
       -0.05540942 -0.0030458178 -0.08044044 0.077183865
0001f0 52 91 4f 3d 77 c0 88 bd 63 0a 05 3e c0 ea 9e 3d
       0.050675698 -0.06677335 0.12992243 0.07759619
000200 4d 2d bb bd 84 c3 c4 3b c2 e2 20 3d 98 30 41 3d
       -0.091395 0.0060047526 0.039278753 0.047165483
000210 26 2a 1f be e9 34 bd 3d 4f 81 31 3d 4a 69 70 be
       -0.15543422 0.092386074 0.04333621 -0.23477665
000220 d4 bd 25 be a3 f8 f8 3d ef cf 96 bd a6 a3 15 bc
       -0.16185695 0.12156799 -0.07363879 -0.009133255
000230 0c 93 a5 3d 38 9a d6 bd 48 82 bf bb ea aa 60 3c
       0.080846876 -0.10478634 -0.005844388 0.013712624
000240 d6 48 59 bc ce 4e 19 3e 2b 05 9b 3d ba 32 d3 bc
       -0.013261994 0.14971468 0.07569345 -0.025781024
000250 63 0f 74 3d 50 06 c0 bc c2 48 c6 3d 63 90 08 3e
       0.059584986 -0.02344051 0.09681846 0.13336329
000260 05 0a 99 3d c2 38 ae 3b b5 12 b6 3d 51 99 23 3c
       0.07472614 0.0053168247 0.08890287 0.009985284
000270 a7 fe 2f 3e 28 71 19 3e e9 ed 22 3e e9 60 02 3d
       0.17186986 0.14984572 0.15911068 0.031830702
000280 b1 c4 37 be b2 f1 88 bd c0 8b 26 b9 b1 fd e1 bc
       -0.17946126 -0.06686725 -0.00015883055 -0.02758679
000290 4a 4f 9e 3d 85 b5 1c 3b bd e9 25 be 9d 1e 7f be
       0.07729967 0.0023911905 -0.16202445 -0.24914022
0002a0 31 49 26 bc cd cf 94 3d 74 57 10 3e 51 b3 ba 3b
       -0.010149286 0.07266197 0.1409586 0.0056976457
0002b0 55 56 b3 bd 9e 75 a2 3d 5c dd 11 ba 6a 5a f4 bd
       -0.08756701 0.0793259 -0.0005564296 -0.119313076
0002c0 d5 06 0d be ae ea 36 bc 56 c1 aa bd bb 11 54 bd
       -0.13772137 -0.01116435 -0.08337657 -0.05177472
0002d0 9f 77 6e bc 92 8e 0e 3e 4c 29 d5 3d 10 d2 2a 3d
       -0.014554887 0.13921574 0.104082674 0.041704237
0002e0 79 28 2c be 67 72 1e 3e 37 70 b4 3b 8d 6a d6 3c
       -0.16812314 0.15473329 0.005506541 0.026173854
0002f0 28 53 97 bd 65 d1 9b bd 37 8a 72 bd 3c da 4c bc
       -0.07388908 -0.07608298 -0.059213843 -0.012503203
000300 b5 a3 6f bb 8e 79 be 3d fe 89 87 bd bb 5e ec 3d
       -0.0036566083 0.093005285 -0.06618117 0.11541506
000310 00 e2 03 3a 2f b1 04 be ea 66 2a 3d 2b 73 a6 bd
       0.000503093 -0.12958215 0.041602053 -0.08127435
000320 97 14 df 3d 07 5b 2c 3d 34 95 6e be f0 6d 12 be
       0.10892599 0.042078998 -0.23299104 -0.1429975
000330 e8 5a 3a be 50 5c b3 3a fb de 6a bd 97 9e 86 be
       -0.1819874 0.0013684127 -0.057341557 -0.2629287
000340 68 68 9a bd 1f 62 99 bd b8 eb 0d bd ec f0 9f bd
       -0.07539445 -0.07489418 -0.034648627 -0.07809624
000350 30 ef a2 be a7 a9 55 be e3 b6 29 bd 4a 30 36 3e
       -0.3182311 -0.20865498 -0.04143418 0.17791858
000360 80 e2 73 bd 7c 50 ae 3d 4b a1 16 bd a4 7c 6b bd
       -0.05954218 0.08511445 -0.036774915 -0.057491913
000370 32 12 7e 39 0b f9 6f 3e 5e 19 b3 3e c8 f9 ed 3e
       0.00024230106 0.23434846 0.3498029 0.4647963
000380 30 17 19 bb 17 d3 d2 bd f1 91 26 3e 45 8e ce 3c
       -0.0023359768 -0.102941684 0.1626661 0.025214324
000390 e2 7b 4d 3d b3 e7 06 3e 44 e8 1b 3d b0 74 e4 bd
       0.050166972 0.13174324 0.038063303 -0.11155069
0003a0 40 f1 ef bd 18 b3 fb 3c 14 56 48 bd bf 7d b6 3d
       -0.11715937 0.030725047 -0.048910215 0.08910703
0003b0 5e 9e 26 be 1b 30 c2 3c 45 a8 1c 3e 90 0b 84 3d
       -0.1627135 0.02370458 0.15298565 0.06447518
0003c0 63 bf 54 3d df 1e 3b 3e fe 8f a7 bd 68 89 c1 bc
       0.051940333 0.18273495 -0.08181761 -0.02362509
0003d0 5f a6 00 be 4a ff 9e bd cb 75 89 bc da dd e2 bc
       -0.12563466 -0.07763536 -0.0167798 -0.027693678
0003e0 46 a2 38 3d 04 ec c5 3d b6 55 11 3d 33 bc aa 3d
       0.04507663 0.09664157 0.03548213 0.083366774
0003f0 dc 66 e0 bb 3a 3c 81 3d fe 51 5b bd 3d 14 59 bd
       -0.0068481993 0.063103154 -0.05354499 -0.052997816

convs.2.fc_full.bias f4 [32]
000000 56 89 e8 3d ae 5f f7 bc 22 f5 21 be 51 be 28 bd
       0.1135432 -0.03019699 -0.15816167 -0.041197125
000010 9e 57 0a 3d 56 d3 79 3d f0 29 c3 bd 6e 7f c3 bd
       0.033774965 0.06099256 -0.09529483 -0.0954579
000020 e2 54 2f bd 30 af ab 3b f6 06 d2 bd b7 80 94 3d
       -0.04280556 0.00523939 -0.10255234 0.07251113
000030 6a 9c 46 bd 86 96 be 3d fd 71 81 3d 2e 77 89 bc
       -0.04848901 0.09306054 0.0632057 -0.016780462
000040 fb 1c b8 bb d3 9d 7b 3d a8 48 c0 bd c7 18 de bc
       -0.005618689 0.06142981 -0.09388858 -0.027111424
000050 91 52 cb 3c d2 c3 08 be 63 ec 72 bc 50 df 2c 3d
       0.024819644 -0.1335595 -0.014826867 0.042205155
000060 45 64 aa bd 18 f7 4d 3d cf a8 8c 3d f7 e8 49 bc
       -0.08319906 0.050284475 0.06868135 -0.01232361
000070 bd 7a b8 bc 30 c3 1a 3c 2a fe 0c 3c 2e 9d bf bd
       -0.022519464 0.00944595 0.008605519 -0.093561515

convs.2.bn1.weight f4 [32]
000000 13 34 8d 3f 8d 4d 8f 3f fc bd 92 3f ef d7 88 3f
       1.1031517 1.1195542 1.1464229 1.0690898
000010 cf f8 8c 3f 0c 46 8a 3f 3d fc 81 3f d0 f2 98 3f
       1.101343 1.0802627 1.0155102 1.19491
000020 cc 6e 8d 3f 43 12 88 3f e0 34 90 3f f0 b0 81 3f
       1.1049438 1.0630573 1.1266136 1.0132122
000030 ef 43 a2 3f 9f f1 7e 3f 92 64 8d 3f 80 1d 8d 3f
       1.2676982 0.99587435 1.1046317 1.1024628
000040 51 f2 85 3f aa ad 65 3f cc ee 87 3f ef 3f 86 3f
       1.0464574 0.89718115 1.061975 1.0488261
000050 d5 78 85 3f 6d 89 8a 3f 82 fc 9e 3f 25 a6 8c 3f
       1.04275 1.0823189 1.2420809 1.0988203
000060 d7 ab 86 3f da 2e 8d 3f 36 a0 86 3f b5 27 7a 3f
       1.0521191 1.1029923 1.0517642 0.9771684
000070 c7 46 79 3f 58 e0 8e 3f a5 7b 8e 3f be df 83 3f
       0.9737362 1.1162214 1.1131483 1.0302656

convs.2.bn1.bias f4 [32]
000000 e5 b2 80 bd f4 92 aa 3c 9d 87 8b bd 9a 7b c6 3c
       -0.062841214 0.020822026 -0.068129756 0.02422886
000010 51 27 af 3c 12 0f c1 bc eb c4 ab bd fe e5 9a 3d
       0.021381052 -0.023566756 -0.083871685 0.07563399
000020 ed ae 10 bc b0 84 b3 bd 26 66 75 bd 7a 87 8c bc
       -0.008830768 -0.087655425 -0.05991187 -0.017154444
000030 e8 b4 8a 3d b8 88 4d 3d d6 4b 93 bd 14 bb 45 3c
       0.067727864 0.050179213 -0.07192199 0.012068529
000040 35 08 8f bd 67 8b 7d 3d ec 53 a2 bd f5 09 56 bd
       -0.06983987 0.061900523 -0.07926163 -0.05225559
000050 8f b1 0d bd 64 c5 09 be 92 04 02 be eb 07 a3 bd
       -0.03459316 -0.13454205 -0.12697056 -0.079604946
000060 8b e2 85 bd 8e d0 e0 bd a9 ed 30 bd e8 9a 9d 3d
       -0.0653735 -0.10977279 -0.0431954 0.07695562
000070 c8 4e e0 3c 02 91 ea bd 3f c3 f6 bd c1 54 83 ba
       0.027381316 -0.11453439 -0.12048959 -0.0010019765

convs.2.bn1.running_mean f4 [32]
000000 a2 96 b8 3f 55 bf 1a 40 07 be b6 3b 68 e6 d0 bf
       1.442097 2.417928 0.0055768522 -1.6320314
000010 91 43 87 be 4a 85 9b be d0 d1 1a 3f 96 cd 70 3f
       -0.26418737 -0.3037513 0.604764 0.940637
000020 23 c8 ce bf cd 21 6d 3d b5 c3 23 3e 62 0e fa 3d
       -1.6154827 0.057893563 0.15992625 0.122097746
000030 91 39 ff 3f ed e2 ce bf 44 bb df 3f 54 94 80 be
       1.9939443 -1.6163002 1.7479024 -0.25113165
000040 80 16 03 40 0a 62 79 3f 12 fd c5 bf 44 5f d0 be
       2.0482483 0.9741522 -1.5467856 -0.40697682
000050 bc c0 fa be 0e e7 13 3e 46 77 06 3f 01 ef 06 3f
       -0.4897517 0.14443609 0.52525747 0.5270844
000060 9a a4 85 bf 0c b8 43 bf 79 29 86 3f 8b 5f c0 3f
       -1.0440857 -0.7645271 1.0481406 1.5029157
000070 9c 1d 56 3e b4 7c 31 3f 2e 0c 4b bf df f9 1d be
       0.20909733 0.69330907 -0.7931546 -0.1542735

convs.2.bn1.running_var f4 [32]
000000 2a 09 33 3e cf e6 ca 3e 45 08 23 3e f0 72 e6 3d
       0.17483965 0.39629218 0.15921123 0.11252391
000010 b5 d8 a6 3d c0 09 b2 3d 63 c1 8b 3e 2e 1a 05 3e
       0.08146802 0.08693266 0.2729598 0.12998268
000020 3c 95 ab 3e 31 ce 25 3e 19 31 d8 3d cb 52 ae 3e
       0.33512294 0.16191937 0.1055624 0.3404754
000030 56 ea 85 3e d5 0e 2a 3e 80 81 d9 3d c0 17 08 3e
       0.26155347 0.1660722 0.10620403 0.1329031
000040 a1 de 2e 3e f1 2c a4 3e 72 a1 31 3e 71 a7 4a 3e
       0.17077114 0.32065538 0.17346743 0.19790436
000050 d3 cc 9f 3e 08 82 44 3e d5 f5 c7 3d 2a 98 e1 3d
       0.31210956 0.19190228 0.097636856 0.11015351
000060 36 ca 52 3e 1f 99 9d 3d dc 2d 46 3e f5 f1 45 3f
       0.2058495 0.07695221 0.19353431 0.7732232
000070 0d b0 04 3f 45 e1 1b 3e 43 f0 94 3e 88 77 a4 3e
       0.5183113 0.15222652 0.29089555 0.32122445

convs.2.bn2.weight f4 [16]
000000 0e 5b 88 3f 0c 2c 86 3f 78 30 92 3f b9 79 86 3f
       1.0652788 1.0482192 1.1421041 1.0505897
000010 16 d4 8c 3f 66 87 90 3f 07 2f 8d 3f a2 60 80 3f
       1.1002223 1.129132 1.1029977 1.002949
000020 63 a5 87 3f c9 7c 84 3f 5d 33 8b 3f a8 80 87 3f
       1.0597347 1.0350581 1.087505 1.0586138
000030 f8 1f 85 3f ee 2e 86 3f db 7c 91 3f c1 0d 8c 3f
       1.0400381 1.0483072 1.1366228 1.0941697

convs.2.bn2.bias f4 [16]
000000 5b 00 cb bd 03 8d 39 3d 10 ee 2e 3d 84 68 14 3d
       -0.09912177 0.045300495 0.042707503 0.036232486
000010 91 7a 83 3c 1c f0 15 3d f1 18 3f 3c f2 da 98 3c
       0.016049655 0.03660594 0.011663661 0.018659089
000020 a8 e2 6f 3d a9 7d 79 3c bb 79 3b 3d b2 82 97 3c
       0.058565766 0.015227714 0.045770388 0.018494938
000030 a9 4e 81 3d 4f 37 de 3c 5a 66 9a 3d 25 4c 3d 3d
       0.06313831 0.027125983 0.07539053 0.046215195

convs.2.bn2.running_mean f4 [16]
000000 b1 2a ad 40 16 c0 a6 40 b8 b2 87 40 26 50 91 40
       5.4114614 5.210948 4.2405663 4.5410337
000010 a6 6d 9b 40 76 93 8d 40 52 9d 97 40 c4 54 9a 40
       4.857135 4.4242506 4.737954 4.8228474
000020 7b 55 a7 40 db 83 99 40 b8 77 a3 40 5c 65 a8 40
       5.2291846 4.7973456 5.108364 5.262373
000030 92 e9 a9 40 f5 c6 92 40 72 09 8b 40 5d 85 98 40
       5.309762 4.5867867 4.344903 4.7662797

convs.2.bn2.running_var f4 [16]
000000 89 ec 27 41 7b 40 21 41 53 a6 4e 40 c7 35 12 41
       10.495248 10.078242 3.2289016 9.138129
000010 97 88 f9 40 c0 61 cc 40 91 d3 f5 40 0e ab 4b 41
       7.7979236 6.3869324 7.682076 12.729261
000020 ad c6 31 41 12 5c 0f 41 33 37 8b 41 6c 5e d1 40
       11.111005 8.959978 17.401953 6.542776
000030 ec ac e6 40 c9 08 60 41 03 62 9e 40 0f fb f0 40
       7.2086086 14.002145 4.9494643 7.530647
