cgcnndefect/defect_scratch_100/model_best.pth.tar (torch, 208623 bytes, 121 tensors)

embedding.weight f4 [16, 92]
000000 f6 75 40 bc df 14 65 3d f5 15 85 bd ef fe 87 bd
       -0.011746874 0.055928107 -0.064983286 -0.066404216
000010 4d 62 b8 bd c0 4a 52 3d 23 60 07 bb 85 37 b5 3d
       -0.090031244 0.05134082 -0.0020656667 0.0884848
000020 e0 84 94 bc 2c cc f8 bb b1 dd 24 3c b0 e1 a7 bc
       -0.018129766 -0.0075926986 0.010062621 -0.020493358
000030 1d fc cb bd 02 f4 8b bd e4 08 30 bd 9a 1a 7d 3b
       -0.09960196 -0.0683365 -0.04297723 0.0038620592
000040 12 b9 35 3d ba 1d 80 3d cd c0 90 bd 7f f5 39 bd
       0.04436595 0.0625567 -0.07068024 -0.04540014
000050 e0 01 28 3d 82 10 b9 3d 18 8f 50 bd 5f 92 87 3d
       0.041017413 0.09036352 -0.050917715 0.06619715
000060 2d d7 40 3c 11 bf 34 3c 0e 56 c1 3d 60 33 d6 bd
       0.011770052 0.011031882 0.09440242 -0.10459018
000070 c3 9e 55 bd 12 98 4c bd e9 13 74 3a fa 7a b8 3d
       -0.05215336 -0.049949713 0.0009310828 0.09007831
000080 05 66 8a bd 54 94 44 bd fd b8 8e bd 2c f9 c7 bd
       -0.0675774 -0.04799302 -0.069688775 -0.09764323
000090 72 47 79 bd 8d fd bd 3d 4f 8d 3e 3d 43 39 2b 3d
       -0.06085915 0.092768766 0.04652148 0.041802656
0000a0 3d 11 57 bc 31 77 0b 3c fb f9 9c 3c a4 b5 b8 bd
       -0.0131266685 0.008512304 0.019162169 -0.0901902
0000b0 0d 48 9a bd 90 26 5c bd 93 b7 86 3d 06 9a 89 3d
       -0.07533274 -0.053747714 0.06577983 0.06718831
0000c0 d9 a8 05 bd 63 b3 5b bd 9b 72 b8 3d 57 b7 da 3d
       -0.03263173 -0.053637873 0.09006234 0.106795006
0000d0 a5 52 41 3d f4 9d aa 3b 20 39 0e 3d e3 55 a2 bc
       0.047197957 0.0052068178 0.034722447 -0.019816345
0000e0 db 26 9f 3c d2 8a a5 bd a5 fc 93 bd d0 bd 33 bc
       0.019427707 -0.080831185 -0.072259225 -0.010970548
0000f0 d1 92 25 3c 6f 45 e5 3c ed f4 7c bd d5 02 01 3d
       0.010105805 0.02798721 -0.061757017 0.03149684
000100 0a 55 77 3d 23 99 57 bc 8a 70 82 3b a9 e4 c5 3c
       0.060383834 -0.013159069 0.003980701 0.024156885
000110 48 76 84 3d fb 04 cd 3d e7 8a a4 bd 0f 7f 1c bd
       0.06467873 0.100107156 -0.08034306 -0.03820711
000120 4f 46 2a 3d 2c 4e 54 3d 7d b3 db 3d 54 66 bc 3d
       0.041570958 0.051832363 0.10727594 0.09199205
000130 2d f9 a9 3c 16 ac b9 bd e6 2a f9 3c 55 8e 86 bd
       0.0207487 -0.09066026 0.030415963 -0.065701164
000140 ec 87 e7 bd 6a 40 a7 3d e0 59 a2 3d 52 a1 eb bd
       -0.11305222 0.08166583 0.079272985 -0.11505379
000150 82 f8 d4 bb 10 26 28 bd 58 38 85 3c a1 11 3a bd
       -0.006499351 -0.041051924 0.016262218 -0.04542697
000160 b4 97 17 3d a9 a1 5f bd 5a 8c 1c 3d d2 f4 57 3d
       0.03700991 -0.05459753 0.038219787 0.052723713
000170 31 cd 8a 3d 91 ac 1f 3d 08 59 de bd 6f a7 34 bd
       0.067774184 0.03898293 -0.10856825 -0.04410499
000180 16 00 41 3d e9 9b 98 3d 04 90 a6 bd 5a 62 cd bd
       0.047119223 0.074516125 -0.081329376 -0.10028525
000190 e4 00 da 3d 52 76 94 3d 8d 5e fa 3b 2b f5 d6 bc
       0.10644701 0.0724913 0.007640666 -0.026239952
0001a0 c6 65 cb bd 00 30 ea bc ce ca a0 bd fa b2 a4 bd
       -0.09931521 -0.028587341 -0.07851182 -0.080419496
0001b0 a8 68 98 bc 32 3c 80 3c 82 e2 2e bd fd 64 7d 3d
       -0.018604591 0.015653703 -0.042696483 0.061863888
0001c0 90 45 9c bd 17 09 d8 3d a2 3d 88 3d 11 06 ac bd
       -0.076304555 0.10548609 0.066523805 -0.083995946
0001d0 1e 50 8c bc 05 27 9a 3b 90 38 79 3c 44 a4 c3 3c
       -0.017128047 0.0047043585 0.015211239 0.023882039
0001e0 66 6d 75 3d 8d 16 8d 3b 75 1a 12 3b c7 11 4a 3d
       0.059918784 0.004305667 0.0022293602 0.04933336
0001f0 50 d1 cc bd a5 1b 7d bd 1f 93 1f bd 03 04 50 bd
       -0.10000861 -0.061793942 -0.038958665 -0.050785076
000200 58 64 15 bd 82 57 c9 bd b9 ac b5 bc 54 96 43 3d
       -0.03647265 -0.09831144 -0.022177087 0.047750786
000210 48 5f 9e bd c2 71 79 3b 51 37 b8 3d f9 fd 81 bc
       -0.07733017 0.003806219 0.08994926 -0.015868174
000220 a2 e4 3d 3b 38 5c 13 bc 50 d9 ac 3c 68 fc 78 3d
       0.0028975387 -0.008994155 0.021099716 0.06078759
000230 62 92 b2 3d e7 f7 7a 3d 94 51 1b 3e 22 1e a7 bc
       0.087193266 0.061271574 0.15167838 -0.02040011
000240 6b 1f 09 be 91 2d 28 bd ba f9 95 3d 22 ba 56 3d
       -0.13390891 -0.04105908 0.07323022 0.052423604
000250 e7 41 54 bd 37 9f a3 bd 6c d2 c7 bd 5d aa a7 bd
       -0.051820662 -0.07989352 -0.09756932 -0.08186791
000260 11 0e 17 bd dd 34 96 3d bf df 66 3d 9e ec cd bd
       -0.03687865 0.073343016 0.056365725 -0.10054897
000270 37 b4 55 3d 98 14 a7 bd 6c 8f b4 bc eb 26 2d bd
       0.05217382 -0.08158225 -0.022041045 -0.042273443
000280 05 82 a4 bc 00 b1 a7 bc de 99 bf bd 35 5c b8 bd
       -0.02008153 -0.020470142 -0.0935552 -0.09001962
000290 17 a9 ce bc f5 92 10 3d 20 f7 28 bd 5c dd 20 3d
       -0.025227113 0.0352964 -0.0412513 0.039273605
0002a0 ea 2d c0 bd 81 8e e6 bb 76 c0 b0 3d 53 21 8c bd
       -0.093837574 -0.0070360308 0.08630459 -0.068422936
0002b0 41 45 06 3e 34 1a fd 3c 3d b1 c0 bd 97 5c 73 3d
       0.13112356 0.030896284 -0.094088055 0.059414472
0002c0 78 5c 1c 3c 5e dd 39 bb df 5e 7b 3d d0 92 92 bd
       0.009543531 -0.0028360705 0.061369773 -0.071569085
0002d0 94 e0 0a bc 82 02 dd bc f8 79 98 3d 0e 69 ee 3c
       -0.008476395 -0.026978735 0.07445139 0.029102828
0002e0 c6 15 7d 3d e7 cf 16 3d 95 06 bb 3b 55 bb e5 3c
       0.061788343 0.036819365 0.0057075717 0.028043428
0002f0 e8 cd c2 bc 72 51 fa 3d 7a 87 a9 3d eb 5a 3c 3d
       -0.023779824 0.12222566 0.08277793 0.045985144
000300 0e ee a9 bd 8a 14 21 bd 69 f7 05 be d0 13 6b bd
       -0.082973585 -0.03932623 -0.1308266 -0.05739194
000310 4c d6 78 bd 61 32 0d bd 2f 7a 7e bd 79 11 15 bb
       -0.060751244 -0.034471873 -0.062128242 -0.002274601
000320 98 4d d5 3c 9d a3 89 3d 32 67 a1 bd 4f 95 92 bd
       0.026037976 0.0672066 -0.07881011 -0.071573846
000330 67 47 1f bd fe 0e b2 3d 12 7b fe bc 6d b7 ce 3d
       -0.038886454 0.08694266 -0.031064544 0.100935794
000340 87 76 d2 3c d6 4b 58 3c bb 72 4b ba f4 9f 61 3c
       0.025691284 0.013201674 -0.00077609316 0.013771046
000350 2d f7 b1 3d ab e0 c7 bd 0f d6 6d bd b4 f2 59 3c
       0.08689723 -0.09759649 -0.05806547 0.013302494
000360 f5 03 a7 bd e3 d2 5f bd 12 c2 d8 3d cb 47 ad bd
       -0.081550516 -0.054644477 0.10583891 -0.08460959
000370 be 4f f5 bb 67 90 ff 3d 03 43 1a 3d 82 8d 54 bd
       -0.0074863127 0.124787144 0.037661564 -0.051892765
000380 ca 00 a4 bd 0e 04 66 3c f9 3a f4 bb 08 3e 20 bd
       -0.08007963 0.014039053 -0.007453319 -0.039121658
000390 2f 47 0f bd 99 f4 7c bc 50 79 95 3a c3 60 ed 3d
       -0.034979995 -0.015439176 0.0011403952 0.115907215
0003a0 fa ad dc bc 40 40 1f 3e 47 9e 04 3e 35 4b 35 bd
       -0.026938427 0.15551853 0.12951003 -0.044261176
0003b0 e0 62 af 3c 04 41 aa bd d5 8e b4 bd a8 77 da bc
       0.021409452 -0.08313182 -0.088163055 -0.026668385
0003c0 21 01 0d 3d 11 30 a0 3d 5c 78 09 bd af 47 07 bd
       0.034424905 0.07821668 -0.03356205 -0.033027347
0003d0 db 07 8b 3d da ac cc bd b3 5e 9a 3d 3e 90 b0 bd
       0.06788608 -0.09993906 0.07537594 -0.08621262
0003e0 2c 25 bd 3c 03 35 91 bc bb e8 60 bd 99 c4 61 3c
       0.023089014 -0.017725473 -0.05490945 0.013779783
0003f0 0a 90 b0 3d ae a9 f9 bc 97 87 7d bd 60 ef 1d bd
       0.08621223 -0.030476417 -0.061896887 -0.038558364

embedding.bias f4 [16]
000000 cc 63 43 3d d8 9e 0c 3e 60 1b 89 3c 74 83 29 bd
       0.047702596 0.13732469 0.016736686 -0.04138513
000010 2b b8 99 bd 66 62 ed bd ff 1d b2 3d 4c eb 9a 3d
       -0.075058304 -0.11591034 0.086971276 0.075644106
000020 08 31 b7 3d 9e 32 07 3e ea c3 dc 3c f3 c3 fe bc
       0.08944899 0.13202903 0.026948888 -0.031099295
000030 97 e0 01 3e f1 8d c2 3d 06 92 cf 3d f9 5c 05 bd
       0.1268333 0.094997294 0.10135274 -0.03255937

convs.0.fc_full.weight f4 [32, 56]
000000 ab c4 ac 3d 92 af 1a bd fb f7 f6 3d 8c 0e 0a 3e
       0.08435949 -0.037765093 0.12059017 0.13482112
000010 57 c6 00 3d 64 89 82 bd a5 f4 88 bd b7 f3 81 3d
       0.03143915 -0.063738614 -0.06687287 0.06345313
000020 4f 71 15 bc 34 b8 20 be ad e8 95 3d f5 f6 48 bd
       -0.009121253 -0.15695268 0.0731977 -0.04906364
000030 ea bc ae 3d 92 e5 ca bd 41 e8 59 bc cf f2 23 bd
       0.08532126 -0.09907068 -0.013300003 -0.040026482
000040 c6 b0 c3 bd 74 43 d8 bc 5a 80 63 bd 8d ad e9 3d
       -0.09555201 -0.026399352 -0.055542327 0.11410055
000050 41 1d 2e bd 9e 56 e1 3d b8 96 e7 3b ff 67 0e bd
       -0.042508367 0.11002849 0.0070675276 -0.034767147
000060 03 41 27 bd 25 b7 78 be c9 83 f5 bd bb 74 1d be
       -0.040833484 -0.24288614 -0.11988027 -0.1537656
000070 4f d5 b3 bc 88 72 5e 3c e6 57 55 3b 49 a7 db bd
       -0.0219523 0.013577111 0.0032553612 -0.107252665
000080 bd 2f d5 3d ba 3e 93 3d 89 ff a5 bd be 3f a0 bd
       0.10409496 0.071896985 -0.0810538 -0.07824658
000090 f0 36 7d 3d aa 14 05 3e 8d 46 fd bd 35 3f 9f bd
       0.06181997 0.12996164 -0.12366972 -0.07775728
0000a0 3c d6 1c bd 21 cf 8f bd e2 07 05 3e 39 38 9c bc
       -0.038290247 -0.070219286 0.12991288 -0.019069778
0000b0 b4 64 82 3d 3e dc d1 bc 74 78 12 bd 64 d8 fa bb
       0.06366864 -0.025617715 -0.035759404 -0.0076551903
0000c0 a4 4b 5a 3d aa 65 52 3d d4 e9 96 3c 94 94 9b bb
       0.053294793 0.051366486 0.018422045 -0.0047479365
0000d0 d0 44 04 3e 15 fa 4c 3d 75 e1 5a 3e 73 0b 6d 3e
       0.12916875 0.050043184 0.21375068 0.23148899
0000e0 26 3d 68 bc cf 4c b1 3d 2d e2 03 bd 24 e6 ff bd
       -0.014174735 0.08657228 -0.03219812 -0.12495068
0000f0 f8 fc b9 3b ce 04 bb 3c 97 91 93 bd 3e 13 09 3d
       0.005675908 0.02282944 -0.072055034 0.033465616
000100 99 22 df 3d 89 79 15 3d 33 3d 01 3d 4e 20 bf 3b
       0.10895271 0.036492858 0.031552505 0.0058327084
000110 d0 88 c3 bd 15 c1 08 be 43 b0 cb bd 42 ef e8 bd
       -0.09547579 -0.13354905 -0.09945729 -0.1137376
000120 cf cb 2f 3d 65 93 25 bd d8 0c 62 bd f2 d9 0a be
       0.042918976 -0.04042377 -0.05518803 -0.13559702
000130 d9 55 6b 3d 0b aa 45 bd 3a 44 0d 3d 84 ed e7 bd
       0.057454918 -0.04825787 0.034488894 -0.113245994
000140 fd 53 d8 bd 9b 51 9f 3d c5 09 04 be 14 ba cb 3c
       -0.105628945 0.07779237 -0.12894352 0.024869002
000150 9c 59 a9 3d 6f 60 75 bd 59 ac d7 bd e9 87 e5 3c
       0.08269045 -0.05990642 -0.105309196 0.028018909
000160 7b 57 66 3d 86 50 7a bd ad ae 64 3e 72 b7 e7 3d
       0.05623577 -0.06111195 0.22332259 0.11314286
000170 0d 31 dc 3c 40 93 a3 3c 62 7c 9c bd 0e 36 8a 3e
       0.026878858 0.019967675 -0.07640912 0.26994365
000180 f0 33 d8 3d d2 d3 70 3c 42 c9 f1 bd 82 95 9b 3d
       0.10556781 0.014698939 -0.11805965 0.07596876
000190 cc b7 97 3e b6 81 f0 3c 38 5b b7 3d e1 cf ad bb
       0.29632413 0.029358726 0.089529455 -0.005304322
0001a0 ab 59 8a bd 07 e8 bf 3c 7c be 64 3e 6a 5f 24 3a
       -0.06755384 0.023426069 0.22338289 0.00062703213
0001b0 8e 29 dc bd 95 a0 0b bd 8f 54 ce 3a fd b0 77 be
       -0.107501134 -0.03408869 0.0015741753 -0.2418861
0001c0 82 cc bd bd 16 e8 b6 3d be a0 8d 3d d0 1f fe 3b
       -0.092675224 0.08930986 0.06915425 0.007755257
0001d0 e5 e5 32 bd 68 e0 b1 3a 5c b7 29 3d e8 79 b2 bc
       -0.043676276 0.0013570907 0.04143463 -0.021786645
0001e0 16 cf 86 bd bb 8a a4 3c 6a 09 9b bc be e2 38 3c
       -0.06582467 0.020085683 -0.018925387 0.011284528
0001f0 cc 2c 06 bd 1c f2 5a 3d 50 89 94 bd ff a4 f5 3c
       -0.032757565 0.05345355 -0.07252753 0.029985903
000200 f2 a6 f1 3d bb 54 3b bd 74 a6 9e bd 5b c9 4d 3d
       0.117994204 -0.045735102 -0.07746592 0.050240856
000210 92 3a 52 bc 6f 89 eb bd a1 8c f6 bd 90 e3 56 3e
       -0.012831347 -0.11500823 -0.120385416 0.20985246
000220 38 4a 40 3e 31 5b 04 3e 76 9b a9 3d 3b 09 ff bc
       0.18778312 0.12925412 0.08281605 -0.031132331
000230 13 28 eb 3a 7f af 04 3e fc 74 99 3b 08 34 04 bd
       0.001794102 0.12957571 0.004683135 -0.032276183
000240 c3 a1 7a 3d d7 5d 8e bd e2 96 7b be a6 4f 25 be
       0.061189424 -0.06951492 -0.24569276 -0.16143665
000250 22 6f 4e 3d 03 42 ab 3d d5 0a 19 3d 36 5d 0b be
       0.050398953 0.083622 0.037363846 -0.13609776
000260 00 d2 14 3d c7 02 10 be 85 44 ee bd fa 8e 44 be
       0.036333084 -0.1406356 -0.11634163 -0.19195166
000270 87 dd 4d bd 3c d9 61 bd 62 63 95 bd 45 b7 c0 3d
       -0.050260093 -0.05513881 -0.072943464 0.09409956
000280 b7 fb 04 3a b3 87 82 bd 0d c2 38 3d 95 70 c8 3c
       0.0005072909 -0.06373539 0.045106936 0.024467746
000290 11 24 c4 bd 94 d1 28 bd a9 bf 11 3e 89 db 79 3e
       -0.095771916 -0.041215494 0.14233269 0.24400152
0002a0 47 60 e5 3c 96 b4 79 bc 7d ae 06 3e 1e 4b c3 3d
       0.02800001 -0.015240809 0.131525 0.09535812
0002b0 d1 cc 16 be 3b c3 3c bd 92 01 d4 3c 13 53 ea 3d
       -0.14726569 -0.046084624 0.025879655 0.114416264
0002c0 7d 76 5a bd f2 7c 94 3d 9e f6 b4 bd ba fb a4 3d
       -0.053335655 0.07250394 -0.08836101 0.080558255
0002d0 dc df 8b 3d 33 88 bf 3d 05 fd 6c 3d 36 ff 1b 3d
       0.06829807 0.0935215 0.057858486 0.038085185
0002e0 a7 aa 6b bd 7d bc 01 3c f1 5f 39 3d 69 d1 33 bd
       -0.057535794 0.007918474 0.045257512 -0.04390088
0002f0 03 e4 df 3d 86 91 9e bd dc 12 be bd fd 1d 90 bd
       0.10932162 -0.077426 -0.09280941 -0.0703697
000300 a4 86 9c bd f3 3d e7 3d 72 5c 84 bd 8c 8b d3 bd
       -0.07642868 0.11291113 -0.06462945 -0.10329351
000310 d9 2e 17 3d eb 44 8b bd 78 c9 8b bc 82 70 a4 3d
       0.03690991 -0.068002544 -0.017063841 0.08029272
000320 74 6b a2 bc b7 fa e4 3d cf c6 13 bd 56 53 de bd
       -0.019826628 0.111806326 -0.03607827 -0.10855739
000330 84 88 2b bd f1 da f3 3b 46 4a 1d 3e 23 7b 37 bb
       -0.04187824 0.0074418713 0.15360364 -0.002799698
000340 9c 7d 99 bd e1 82 be 3c 47 7f 47 bd 1c 90 10 3d
       -0.07494661 0.023255767 -0.048705366 0.035293683
000350 93 5b d7 bd a0 a4 62 be b6 ab fc bc 70 92 eb bc
       -0.10515513 -0.22133112 -0.030843597 -0.02875635
000360 42 b0 a4 bd 81 90 1d be 73 78 77 3c cd 2a c7 bd
       -0.08041431 -0.15387155 0.015104401 -0.097249605
000370 0f 9f 01 bd a8 50 84 3e 26 3c f9 3e a0 04 02 3f
       -0.03164583 0.25842786 0.48678702 0.5078831
000380 5e ac ba bd 08 66 3b bd 43 f0 92 3d 37 f0 cd 3d
       -0.09114908 -0.0457516 0.071747325 0.10055583
000390 f9 73 fd 3d 46 9a 16 bc c0 36 9d 3d 40 8e 8a bd
       0.12375636 -0.009192055 0.07676458 -0.06765413
0003a0 f6 b8 84 3d ef a3 cc bc f1 51 3b bd bd fa 96 3b
       0.06480591 -0.024980513 -0.045732442 0.004607527
0003b0 01 ca 32 bd 9e 9e be 3b aa fa c7 3d 06 0a d6 bd
       -0.043649677 0.0058172485 0.09764607 -0.104511306
0003c0 ce 60 08 3d 82 eb 06 be b5 1a 31 bc 12 97 10 3e
       0.033295445 -0.13175777 -0.01080959 0.14120129
0003d0 b7 67 87 3d f1 1c 0f 3e 53 7e 18 3e 92 a0 5a bd
       0.06611579 0.13975884 0.14891939 -0.053375788
0003e0 34 da 9b 3c 20 ea 72 bd 45 d7 12 3e b3 b8 b4 3c
       0.019024946 -0.05930531 0.14339931 0.022060728
0003f0 80 79 82 bd 08 54 04 3e 9c 7f 62 bc 25 7c a2 3d
       -0.063708305 0.1292268 -0.01382437 0.07933835

convs.0.fc_full.bias f4 [32]
000000 72 38 a4 3a 7a 98 9e 3d a6 0b 75 bd 19 ed 16 3e
       0.0012529029 0.07743926 -0.059825562 0.14738883
000010 84 51 d2 bd 17 57 12 be 31 72 9c 3d d8 40 b0 bd
       -0.10269454 -0.14291035 0.07638968 -0.08606118
000020 c9 d5 cd 3d 48 e8 ee bd bc 03 32 3e 7c 11 15 3e
       0.10050542 -0.11665398 0.17384237 0.14557451
000030 2f 3a 0a 3d 6f 1c 07 3d 56 b9 c8 3d 7f 7c a9 3d
       0.033746894 0.0329861 0.09800975 0.08275699
000040 6d 74 38 be 13 bb 00 bd a3 bb 1f be eb 91 b9 3d
       -0.18013163 -0.031428408 -0.15598921 0.09061035
000050 f3 48 d2 bc 82 46 82 3a 1e 3c cf bd d7 f2 18 bd
       -0.02566955 0.0009939226 -0.10118888 -0.037340965
000060 46 37 fb 3c 71 60 df 3d 4e cd e4 bd 23 27 9a 3b
       0.030666005 0.109070666 -0.11171971 0.0047043725
000070 b8 6d b2 3d 89 14 ed 3d 6e 60 52 bd cf 60 06 3e
       0.087123334 0.115761824 -0.051361494 0.13122867

convs.0.bn1.weight f4 [32]
000000 ef b2 8a 3f 63 82 8e 3f 1f 9e 84 3f 43 65 8a 3f
       1.0835856 1.1133541 1.0360755 1.0812153
000010 54 92 82 3f 02 b5 72 3f df 21 88 3f f9 b3 87 3f
       1.0200906 0.94807446 1.0635337 1.0601798
000020 c7 4c 8b 3f c7 92 91 3f fa b2 8c 3f 85 04 82 3f
       1.0882806 1.1372918 1.0992119 1.0157629
000030 ab bd 8a 3f 05 1d 7a 3f e0 7f 85 3f 0f 59 86 3f
       1.0839132 0.9770053 1.0429649 1.0495929
000040 89 b7 8b 3f 61 1e 75 3f f1 57 72 3f 0d 96 87 3f
       1.0915385 0.9574948 0.9466544 1.0592667
000050 4f 6c 7a 3f 9c 45 86 3f fd 9d 80 3f 12 d0 70 3f
       0.97821516 1.0489993 1.0048214 0.9406749
000060 38 44 7c 3f 33 9f 74 3f 28 f8 80 3f 92 06 83 3f
       0.98541594 0.9555542 1.0075731 1.023638
000070 cb aa 81 3f 5c af 7f 3f 21 35 78 3f 23 9b 7c 3f
       1.0130247 0.9987695 0.9695607 0.9867422

convs.0.bn1.bias f4 [32]
000000 3b 77 32 bd 47 16 93 bc 43 f4 7c 3c fa 78 aa 3d
       -0.04357074 -0.017954959 0.015439096 0.08323856
000010 d7 a8 75 bc f2 8d 9f 3d 59 5f c8 3c 7d e6 b1 bb
       -0.014993868 0.07790746 0.024459528 -0.0054290877
000020 63 c3 a8 bb 33 6f 9d 3d 32 ec 55 3c 03 aa 0c 3b
       -0.005150245 0.07687225 0.013056802 0.002146364
000030 7d af a7 3d 1c 5b 2b 3d c8 1f 36 3d e8 9e 42 bd
       0.081877686 0.041834936 0.044463903 -0.047514826
000040 a6 82 26 bd 3b a5 50 3d 1b 1d b8 3d 69 45 ad bd
       -0.04065194 0.050938826 0.089899264 -0.084605046
000050 52 f2 90 3c bf 37 9a 3b fe ee 0f 3c e8 82 18 3d
       0.017693672 0.0047063525 0.0087850075 0.037234217
000060 43 7c 92 bd c4 14 c3 3c 6a 47 8e 3b e9 cb 2d 3d
       -0.07152607 0.023813613 0.0043420093 0.042430792
000070 88 da 8a bc a8 8e 93 3c d9 56 2a 3d 05 b6 0b 3c
       -0.016949907 0.01801236 0.04158673 0.008527284

convs.0.bn1.running_mean f4 [32]
000000 16 ac 8e be f6 fc 93 3f 92 7d 4f bf d9 e2 3e be
       -0.27865666 1.1561573 -0.8105098 -0.18641223
000010 47 ee 87 bf cc 6e cd bd 46 4b 0c 40 03 f5 17 3f
       -1.0619591 -0.100308985 2.1920943 0.59358233
000020 d1 a4 80 bf 88 49 13 3f 5b ac 7c 3e 0d a5 8e be
       -1.0050298 0.57534075 0.24675123 -0.278603
000030 45 c2 64 3e b8 42 88 3e b6 52 a5 3e 7c 83 df 3e
       0.22339733 0.26613402 0.32289666 0.43655002
000040 08 9b 04 bf 10 dc 97 3e 0a d4 d8 bf f2 fa a3 be
       -0.5179906 0.29660082 -1.6939709 -0.32027394
000050 1e 90 25 be 05 d3 c5 bd 3b 04 73 3f cc 07 66 be
       -0.16168258 -0.096593894 0.9492833 -0.22463912
000060 50 f9 4d bf de 03 8e 3e c4 62 5e 3f 94 a0 b2 be
       -0.80458546 0.27737325 0.86869454 -0.34888136
000070 9c 89 f7 3e 18 90 0a bf 8e 09 a4 be 07 c0 85 bc
       0.48347175 -0.5412612 -0.3203854 -0.016326917

convs.0.bn1.running_var f4 [32]
000000 4c e6 1f 3d 9f bd 6e 3c 3d 55 95 3c 68 0b ef 3b
       0.039037988 0.014571576 0.018229121 0.007295061
000010 b4 50 08 3d 34 d2 34 3c 77 c6 69 3c 67 05 27 3d
       0.03328009 0.011036444 0.014268509 0.040776636
000020 20 03 77 3c da 2f ac 3c ae 4c 7a 3c 37 05 d8 3c
       0.015076429 0.021018911 0.015277071 0.026369674
000030 a5 ab 2e 3d 93 b8 62 3c ac f4 83 3c 54 c2 0a 3d
       0.04264416 0.013837951 0.01610788 0.033876732
000040 17 7e 1b 3d be 2b 10 3d 16 a0 37 3d f7 d6 db 3c
       0.037962046 0.035197966 0.044830404 0.026835902
000050 3c 19 00 3d 84 3b 90 3c a7 f2 18 3d f4 2a 64 3c
       0.031274065 0.017606504 0.037340786 0.013926256
000060 d8 16 a1 3c cf 90 31 3d 40 10 33 3d 97 1e 5a 3d
       0.019664213 0.04335099 0.04371667 0.05325183
000070 f2 19 e9 3c cc 27 d4 3c b1 c0 0e 3d d2 21 b7 3c
       0.028454755 0.025897883 0.034851734 0.022354994

convs.0.bn2.weight f4 [16]
000000 99 f5 80 3f b8 a4 80 3f 8a 3d 7d 3f fc ec 88 3f
       1.007495 1.0050268 0.98922026 1.0697322
000010 b8 de 7a 3f 97 92 79 3f f2 48 80 3f d9 5c 81 3f
       0.9799609 0.97489303 1.0022261 1.010646
000020 d2 1f 7a 3f 1e 67 81 3f 0f 3f 80 3f 87 59 89 3f
       0.97704804 1.0109594 1.0019244 1.0730447
000030 d8 6b 84 3f 5b 53 7e 3f e3 0a 79 3f 1e 84 84 3f
       1.0345411 0.9934594 0.97282237 1.0352819

convs.0.bn2.bias f4 [16]
000000 14 e2 66 bd bd 0e 2b 3d 2e c8 90 3d 21 da 41 3d
       -0.05636795 0.041762102 0.07069431 0.047327165
000010 ef e4 9a 3c c3 8f 86 bd 94 28 34 ba 1a 69 26 3d
       0.018907992 -0.06570389 -0.00068725017 0.040627576
000020 68 93 36 bc 3d 44 60 3d c4 60 d0 3c 95 48 09 3d
       -0.011143543 0.054752577 0.025436766 0.033516485
000030 bc 04 cd 3c 32 31 3a 3c 60 40 66 3d 17 d1 c7 3c
       0.025026672 0.011364268 0.056213737 0.024391694

convs.0.bn2.running_mean f4 [16]
000000 9a 71 c7 40 99 38 b6 40 fd e7 a1 40 d4 23 90 40
       6.2326174 5.694409 5.059569 4.5043736
000010 21 6f aa 40 1f 2f 8d 40 f0 c9 a1 40 2c 5b b1 40
       5.3260655 4.412002 5.0559006 5.5423794
000020 af f2 aa 40 d7 50 c6 40 d2 0c 9b 40 4f c0 8d 40
       5.3421245 6.197368 4.845315 4.429725
000030 5e 90 b0 40 d1 4e bb 40 8e 99 a3 40 27 f9 a3 40
       5.517623 5.853371 5.1124945 5.124164

convs.0.bn2.running_var f4 [16]
000000 c0 17 88 40 74 46 e6 40 53 cf 84 40 e4 78 82 40
       4.252899 7.1961 4.150308 4.077257
000010 13 56 59 41 92 06 68 40 8c 52 55 41 7b 9e 2c 41
       13.583514 3.625401 13.332653 10.7886915
000020 3c d8 88 41 37 88 81 41 89 a7 8a 40 b1 11 9b 40
       17.105583 16.191511 4.332951 4.8459096
000030 f1 2d 7b 40 79 b2 66 41 a1 81 95 40 eb ad 80 40
       3.924679 14.418572 4.672074 4.02123

convs.1.fc_full.weight f4 [32, 56]
000000 0d e8 b7 3d 13 bd 03 3e 71 05 10 bd e2 4a d5 bd
       0.08979807 0.12865095 -0.03516144 -0.104146734
000010 dc 7f 18 3a 13 67 8b 3d 1d 78 07 3d f4 fa ca bd
       0.00058173924 0.06806769 0.033073533 -0.09911147
000020 50 0a 84 3d c5 05 23 be 27 1b 8b 3d 4a ef d1 3d
       0.064472795 -0.1592017 0.06792288 0.10250719
000030 c5 14 91 3c ba 30 5b bc 7d 35 df 3d e6 49 17 bc
       0.017710099 -0.013378317 0.10898874 -0.009233927
000040 92 10 7f bd b6 18 4c bd 49 63 db 3d 0d 40 04 3e
       -0.062271662 -0.049828254 0.107122965 0.12915058
000050 15 79 da 3c 7c 88 ee bd 76 20 a0 bd 69 ed 0a bd
       0.026669065 -0.11647126 -0.078186914 -0.03391782
000060 cf 46 0b 3e 26 06 4e be 3e 97 1e bd 63 c9 1b be
       0.1360123 -0.20119533 -0.038718455 -0.15213542
000070 57 38 71 3a df 3d 0a bb a2 17 1a bd 67 30 51 be
       0.00092018157 -0.0021094007 -0.037620194 -0.2042862
000080 b9 c1 09 be 73 a3 40 bc 59 e1 0b 3d 1f c7 a7 3d
       -0.13452806 -0.011757719 0.034150455 0.08192276
000090 14 1c d9 bd 87 e0 20 3c ad b8 20 bd 43 58 b9 3d
       -0.106010586 0.0098191565 -0.03923862 0.09050038
0000a0 dd 4c 52 bd 87 60 4f 3d 3c 5f 29 3d ec b0 44 3d
       -0.051342834 0.050629165 0.04135059 0.04802029
0000b0 1f e1 0b bd 29 9a 55 3d 0d bd 7a bc 14 12 7a 3d
       -0.03415024 0.05214897 -0.015303862 0.061052397
0000c0 f3 1a 97 bd 99 50 fb bd a4 da 0a be 34 0a ac bd
       -0.07378187 -0.12271232 -0.13559967 -0.084003836
0000d0 4c 46 67 bd 05 08 5e 3e 32 47 71 3e 1c 5d b1 3d
       -0.056463525 0.21682747 0.23562315 0.08660337
0000e0 1e e9 af 3c 4b 6d a1 bd 6d f2 bd 3d 0c 3e 2f be
       0.021473464 -0.07882174 0.09274755 -0.17113513
0000f0 cc 59 a3 bd 55 18 5b bd 7e bd 9c ba f9 b3 18 3d
       -0.07976112 -0.05349 -0.0011958329 0.03728101
000100 35 39 34 3b 68 05 f4 3d 86 74 4d bd 03 09 8f bc
       0.0027499918 0.11915094 -0.050159954 -0.017460352
000110 3b e2 8e 3d 4d dc f4 3d 6f dd 33 3d 2a a5 2e 3d
       0.06976744 0.119560815 0.043912347 0.04263798
000120 fd 6e 56 bd 34 a5 7b 3d 7c 32 03 3d 0f a6 3a 3d
       -0.05235194 0.061436847 0.032030568 0.045568522
000130 78 cf a5 3d 0c ad 32 3e 2b cf 58 bd 4f 1b 99 bd
       0.08096212 0.17448825 -0.052931946 -0.07475912
000140 e7 3f 03 be 43 1e 39 3c 52 d8 eb 3d 70 67 7b bd
       -0.12817346 0.011298719 0.11515869 -0.061377943
000150 25 f6 90 3d d1 a5 8a 3d 03 92 08 bc 72 6f 57 3d
       0.07078198 0.06769908 -0.008335593 0.052596517
000160 29 5d 67 3c 74 e8 06 be 80 44 84 bd 91 46 f8 bd
       0.014121332 -0.13174611 -0.06458378 -0.121228345
000170 88 ba 74 3c ee 2e 88 3d 9b c4 94 bc ee 15 2a 3e
       0.014937051 0.06649576 -0.018160155 0.16609928
000180 3d 72 59 bc 1f 19 14 3d 09 3c ea 3d 53 20 89 3d
       -0.013271865 0.03615677 0.11437232 0.066956185
000190 97 8b 2b 3d 40 71 0e 3e c0 9a 92 bd 72 b3 10 3d
       0.04188117 0.13910389 -0.071584225 0.035327382
0001a0 68 23 af 3d 4a b0 be bd a2 64 15 be f9 13 2f 3d
       0.08551675 -0.09310968 -0.1458917 0.042743657
0001b0 7a 1c 4f bd 50 1f 11 be 96 85 2a be 8c 74 b2 be
       -0.050564267 -0.14172101 -0.16652521 -0.34854543
0001c0 d9 2a 80 3d fb 7f c8 bd 29 b9 05 be 9a a7 d0 3d
       0.062581725 -0.09790035 -0.13058914 0.101882175
0001d0 41 91 98 3d b0 59 59 3b 1c dc 34 bd a2 e5 ea 3d
       0.0744958 0.003316503 -0.044155225 0.1146958
0001e0 78 ca 57 3c 8b e6 cb 3d f8 ea 1f 3d 8f 26 78 3d
       0.013170831 0.09956082 0.039042443 0.060583647
0001f0 f9 96 23 3e 8e 02 d8 bc 26 65 2c be b3 0f 18 be
       0.1597556 -0.026368406 -0.1683546 -0.14849739
000200 96 01 47 3d 99 40 92 3d 63 78 9c bd ac 33 c2 bc
       0.048585497 0.07141227 -0.076401494 -0.02370628
000210 1f e2 b2 3d 8e 5a e0 3d 72 80 85 bd e0 0e 43 bd
       0.087345354 0.10954772 -0.065186396 -0.047621608
000220 d1 e6 b8 bd dd ab 03 3e 8b db 1a be f8 e3 c8 bc
       -0.090284 0.1285853 -0.15122811 -0.024522766
000230 98 81 4f bd 6e f3 c7 3c 06 6b f7 bc d1 e6 a6 3d
       -0.0506607 0.024408069 -0.0302024 0.081494935
000240 62 c5 33 bd 8e 5a 7a bc dc 58 68 bd 9c e5 af bd
       -0.04388941 -0.015280379 -0.056725368 -0.085887164
000250 1c 74 0c be 99 45 77 3d a6 5c 40 bb a5 b2 00 be
       -0.13716167 0.060369108 -0.0029352098 -0.12568147
000260 fb e1 cb bd 0f aa d8 bd f2 33 ce bc eb 70 3f bd
       -0.09955212 -0.10579311 -0.025171254 -0.046738546
000270 73 ce a3 bc fd 0e d5 3c ca bc 0c be 19 d4 13 bb
       -0.019995904 0.026008124 -0.13743892 -0.002255684
000280 94 cb be bc 0d b3 89 bd 31 ee 5b bc 38 f4 67 bd
       -0.023290433 -0.06723604 -0.0134234885 -0.05662939
000290 f4 f5 d2 3b f2 a6 ab 3d c5 15 54 3e a8 2c a3 3e
       0.0064380113 0.08381452 0.2071143 0.31870008
0002a0 11 a6 9a 3d c1 b5 bd bd c4 70 1b 3d c9 31 08 be
       0.07551206 -0.092631824 0.03794934 -0.13300242
0002b0 97 9b fc 3d e2 fc ad bd b6 12 fa bd f1 f4 1a be
       0.12334364 -0.08495499 -0.122106 -0.151325
0002c0 45 e7 b7 bd c1 0c a5 bc 22 6d 25 bc 3d a1 6c b9
       -0.08979658 -0.020147683 -0.01009682 -0.0002256678
0002d0 bf 8c 08 bd 57 9e 0c bd 6b 29 88 bc 01 97 ed bd
       -0.03333735 -0.034330692 -0.016621312 -0.11601067
0002e0 ad 04 30 be fd 82 b4 3d 8a 38 5a bd bc ae 94 bc
       -0.17189284 0.088140465 -0.053276576 -0.018149726
0002f0 40 05 81 3d 5a 9d 92 bd 10 9c 56 bd ab 96 23 be
       0.062998295 -0.07158919 -0.052394927 -0.15975444
000300 0d c3 85 bd d9 13 ac 3d 01 7a 88 3c 9c 60 90 3d
       -0.065313436 0.08402223 0.016659738 0.07049677
000310 0c e4 7d bb 2b d1 04 bd 4b a8 b8 bd 1d 79 88 3d
       -0.0038740663 -0.03242604 -0.09016474 0.066637255
000320 18 43 35 bd 75 e1 fc bd d2 d0 45 be bd 90 82 bd
       -0.04425344 -0.1234769 -0.1931794 -0.06375263
000330 ff b3 0d be fb d5 61 3c 22 fb 43 3d b2 b3 0a be
       -0.13838194 0.013783927 0.04784692 -0.13545111
000340 93 a2 73 3d 3b 86 fd 3c b1 7b dd bd 2e d4 c3 bd
       0.059481215 0.030947795 -0.10814608 -0.095619544
000350 da 3d 46 be 78 43 d0 bc 15 5a ed bc ef 2d 13 3e
       -0.19359532 -0.025422797 -0.028973619 0.14372991
000360 2a 57 6d 3d c4 c7 ae bc a5 34 27 bd 69 b1 e3 bd
       0.057944454 -0.02133549 -0.04082169 -0.11117823
000370 57 93 1a bd 66 e8 a4 3d 76 8b 17 3e 07 40 eb 3d
       -0.03773817 0.08052139 0.14799294 0.114868216
000380 df f4 0b be 97 0d 74 3d 9e 4e 7d bd b6 4a f7 bd
       -0.1366763 0.059583273 -0.061842553 -0.12074797
000390 5b f6 cb bd 14 28 03 3e 6b 18 9f bb 72 90 25 bd
       -0.09959098 0.12808257 -0.004855206 -0.040420957
0003a0 bf cf c9 bd c9 1f 3b 3d 73 86 bb bc 27 1a 19 bd
       -0.098540775 0.04568461 -0.022891259 -0.037378456
0003b0 23 5e c7 3c 0a 11 8a bc 74 9d b3 3d 3c 0a 24 3b
       0.02433688 -0.016853828 0.08770266 0.0025030514
0003c0 10 08 b9 bc 5c cf 38 bd 68 96 26 be d7 ab 74 3c
       -0.022586852 -0.04511963 -0.16268313 0.014933548
0003d0 26 2a ce 3d 14 3a 00 be 14 d2 27 be 60 98 3a be
       0.10066633 -0.12522155 -0.16388732 -0.18222189
0003e0 d3 99 fe 3c ac 8a a6 bb 3a 14 18 be dc a3 59 3e
       0.031079208 -0.005082449 -0.14851466 0.21253914
0003f0 1c 1d 4d bc 9c 22 53 3d 0b 74 92 3d c0 bb f7 bd
       -0.012519147 0.051546678 0.0715104 -0.12096357

convs.1.fc_full.bias f4 [32]
000000 f4 d7 74 bd 1f 7a 02 3e 5e 4d 95 bb d3 d0 5b bd
       -0.05977626 0.12741898 -0.004556342 -0.053665947
000010 f4 5d 22 bd 33 b3 f3 3d 38 43 c7 3d 54 31 c2 bd
       -0.039640382 0.11899414 0.09729618 -0.09482065
000020 fd 6b c0 3b 20 82 7e 3d 0f ba b3 3d 09 24 87 bd
       0.005872248 0.062135816 0.08775722 -0.0659867
000030 dd fe 05 bc 08 8b e6 3c bc 56 4b 3d 00 f3 f6 bc
       -0.00817844 0.028142467 0.049643263 -0.030145168
000040 d0 c3 77 bd 14 f1 0a be b4 09 76 3d 00 35 f8 3d
       -0.060489476 -0.13568527 0.060067847 0.12119484
000050 5d 05 3c bd 5f 08 1c be e2 f7 4f 3d 85 9d b7 bd
       -0.045903552 -0.15237568 0.05077351 -0.08965591
000060 96 a6 6e bd 8b 9c 83 3d c9 9d 09 bd 41 09 b4 bc
       -0.058264337 0.064263426 -0.03359774 -0.021977069
000070 63 9f 90 3d f7 de 94 bc 97 9b 29 3e af ca 2d bd
       0.070616506 -0.018172724 0.16563259 -0.042429622

convs.1.bn1.weight f4 [32]
000000 41 ab 81 3f c4 c6 87 3f 67 ae 8b 3f 8a 7d 7b 3f
       1.0130388 1.0607533 1.0912598 0.9823843
000010 2d 2c 81 3f d1 93 89 3f 90 d9 8d 3f 31 fd 70 3f
       1.0091606 1.0748235 1.108202 0.9413634
000020 8e 79 84 3f 6c 7f 95 3f 1f c2 78 3f fb 9f 80 3f
       1.0349596 1.1679511 0.97171205 1.0048822
000030 fd e0 87 3f 1a fc 8b 3f 13 19 8b 3f b1 19 89 3f
       1.0615536 1.093631 1.0867027 1.0710965
000040 90 9c 87 3f c0 69 7a 3f fc 89 6f 3f 19 a0 8c 3f
       1.0594654 0.9781761 0.9356992 1.0986358
000050 57 dc 8b 3f a7 f4 8a 3f 71 fc 8c 3f 93 49 95 3f
       1.0926617 1.0855912 1.1014539 1.1663078
000060 8b ff 88 3f 22 9c 7d 3f a7 09 91 3f 35 7b 85 3f
       1.0702986 0.99066365 1.1331071 1.0428225
000070 80 ac 76 3f 9a 8c 8e 3f 55 86 74 3f ea 91 86 3f
       0.96356964 1.1136658 0.95517474 1.051328

convs.1.bn1.bias f4 [32]
000000 76 5e cf 3d 5f a1 f7 3a ad 58 bc bd fd 8a 09 3d
       0.10125439 0.0018892697 -0.09196601 0.033579815
000010 26 5f b1 3d 84 63 67 bc 0e 3b b5 bd 21 72 2b 3d
       0.08660726 -0.0141228475 -0.088491544 0.04185689
000020 5b d7 54 bd d1 20 99 bd 8d 2a 1e 3d e7 a6 f7 3c
       -0.05196319 -0.07476962 0.0386148 0.030230952
000030 6c 1f b7 3c 68 ef 30 bc 58 08 f8 3a af 6c 05 3d
       0.02235385 -0.010799266 0.0018923385 0.032574352
000040 a6 30 e5 ba 2a 2f c3 b9 eb 97 9e 3d 25 74 c9 bd
       -0.0017485812 -0.00037228438 0.0774382 -0.09836606
000050 d7 6d 7e bd 04 f9 ae bd be 7c e5 bd 47 f9 07 be
       -0.06211647 -0.0854359 -0.11205433 -0.13278686
000060 d0 2c 9e bd f3 bc 59 3c 22 52 00 be 85 72 65 bc
       -0.07723391 0.013289678 -0.12531331 -0.014004354
000070 b5 bd b2 3c 61 63 ba bd 19 34 c3 3b 6d fd 8c bd
       0.021818975 -0.09100986 0.0059571383 -0.06884275

convs.1.bn1.running_mean f4 [32]
000000 bd 18 0e bf 8c 9f 24 3f b1 b5 2c bf 13 85 e7 bf
       -0.555065 0.6430595 -0.6746474 -1.8087486
000010 95 f5 be bf e8 40 bd bf 8d 92 d8 3f 5f 80 22 3e
       -1.4918696 -1.4785433 1.6919724 0.15869282
000020 fc a2 da be 56 f4 ef bb ed ab b2 3f 80 e4 06 bf
       -0.42702472 -0.0073228283 1.3958718 -0.52692413
000030 66 fa 9a 3d 91 79 51 be c1 91 41 be 05 cc 4d 3d
       0.07567291 -0.2045653 -0.18903257 0.050243396
000040 35 f6 5e 3e 24 b6 c0 be fe f4 c1 be e6 98 98 bf
       0.21773608 -0.37638962 -0.37882227 -1.1921661
000050 86 54 b6 bc 46 21 41 3b 5f bc 57 3e 50 62 17 3f
       -0.0222571 0.0029469295 0.21067952 0.5913439
000060 de c3 e3 bf 6c 20 cb be d0 68 a0 3f 94 c3 58 be
       -1.7794149 -0.39673173 1.2531986 -0.21168357
000070 59 43 b0 bf 95 48 09 bf 32 dd 8c bf f5 32 99 3e
       -1.3770553 -0.53626376 -1.1005003 0.2992169

convs.1.bn1.running_var f4 [32]
000000 04 1f 95 3e 29 1f cd 3d 1e 20 8c 3d 7a 1d 18 3d
       0.29125226 0.10015709 0.06842063 0.037137486
000010 e9 2b 50 3d d1 f6 f5 3d 57 58 85 3d db bd f6 3d
       0.050823126 0.12009967 0.0651099 0.12047931
000020 a9 b9 95 3d 96 82 87 3d 16 1b ee 3d 1b bb 4f 3d
       0.073108025 0.06616704 0.1162626 0.050715547
000030 3f 4b c1 3d e0 b7 35 3d 74 23 4c 3d e1 01 06 3d
       0.0943818 0.04436481 0.0498385 0.032716636
000040 d8 ba ad 3d d3 e7 1a 3e 6d 82 92 3e c0 11 40 3e
       0.08482903 0.15127496 0.28615132 0.18756771
000050 37 52 4d 3d 0f 92 95 3d 43 c2 87 3d 1c 7a 8f 3d
       0.050127234 0.07303249 0.06628849 0.070057124
000060 40 7c 08 3d f7 ae 5f 3e cf 5b b3 3d 2e e7 27 3e
       0.03332162 0.21844088 0.087577455 0.16396782
000070 de df 25 3e 3d 21 b4 3d 11 c6 55 3d e6 a4 56 3d
       0.1619868 0.08795402 0.052190844 0.052403353

convs.1.bn2.weight f4 [16]
000000 a8 0e 7f 3f cd ba 81 3f c5 c6 83 3f 3f 4e 8a 3f
       0.9963174 1.0135132 1.0295035 1.0805129
000010 98 5b 87 3f 40 3c 8f 3f b7 e8 7c 3f 5b 70 83 3f
       1.0574827 1.1190262 0.98792595 1.0268663
000020 ae 1d 89 3f 15 8e 85 3f d3 ad 83 3f ef 30 7b 3f
       1.0712183 1.0433985 1.0287422 0.9812154
000030 ab b4 80 3f 3b bc 88 3f 84 da 78 3f 59 44 85 3f
       1.0055135 1.0682443 0.9720843 1.0411483

convs.1.bn2.bias f4 [16]
000000 0d 0a 06 be a9 54 fc 3c 76 9c 94 3d 9d 3e 4d 3d
       -0.13089772 0.030802088 0.07256405 0.05010854
000010 a4 ff f9 3b 88 57 d5 3c 4e 40 40 bc 46 74 a5 3c
       0.0076293517 0.026042715 -0.011734081 0.020197045
000020 2c 1b 20 3d ef b5 54 3d f0 eb bc 3c a6 1f b6 bb
       0.039088413 0.051931318 0.023061723 -0.005557972
000030 59 b0 60 3d d2 13 0d 3d 9f e8 69 3d 33 96 34 3d
       0.05485568 0.03444273 0.05710661 0.044088554

convs.1.bn2.running_mean f4 [16]
000000 8f ef b8 40 29 e1 b4 40 d3 c6 8e 40 9e f6 9e 40
       5.779243 5.6524854 4.4617705 4.9676046
000010 96 e9 91 40 dd 03 9f 40 5f ef 8d 40 94 1e a7 40
       4.559764 4.9692216 4.43547 5.2224827
000020 26 58 7b 40 d1 1d 97 40 d1 f0 8d 40 f7 51 81 40
       3.9272552 4.7223897 4.4356465 4.0412555
000030 82 fd b8 40 38 52 88 40 d4 80 aa 40 50 4a 9c 40
       5.780946 4.2600365 5.328226 4.8840714

convs.1.bn2.running_var f4 [16]
000000 9a f3 2a 41 eb 7b be 40 97 de f6 3f 26 c0 79 41
       10.684473 5.9526267 1.9286679 15.609411
000010 0b 18 c7 3f 61 37 07 41 d4 03 53 41 f7 21 14 41
       1.5554212 8.45102 13.188435 9.258292
000020 cf 98 e3 40 58 a2 a0 40 e8 31 be 40 52 93 30 40
       7.1124034 5.0198174 5.943592 2.7589917
000030 36 bd 4e 41 df fc 98 40 5c 48 29 41 12 44 f3 40
       12.921194 4.780868 10.580166 7.6020594

convs.2.fc_full.weight f4 [32, 56]
000000 62 8c c8 3d 45 a6 aa 3c 4e 1c ef 3d b9 8f 5e 3d
       0.09792401 0.020831237 0.116753206 0.054336283
000010 9f 2c c9 bd 38 6e 47 3c d9 fe f6 3d 85 1e 29 3c
       -0.09822964 0.012172274 0.12060327 0.010322218
000020 55 eb 9c 3d 24 a0 4b bd d6 fd 57 3d 72 13 c4 bd
       0.076620735 -0.04971327 0.05273231 -0.095740214
000030 69 66 34 3e b2 24 82 3d 7a b8 0e 3d 39 70 a9 bd
       0.17617191 0.06354655 0.0348439 -0.08273358
000040 ef dc 73 3e bc 68 44 3d de 45 26 3e e4 da 6f 3d
       0.23814748 0.047951445 0.1623759 0.05855836
000050 e3 9a fb 3c 62 50 60 3b f9 e0 f2 3c ae d6 ab 3d
       0.030713504 0.00342276 0.029648291 0.08390556
000060 93 1b 4a 3d 8c c5 cf bc c1 88 2a 3c 11 b2 80 3d
       0.049342703 -0.025362752 0.010408581 0.062839635
000070 da bf 13 be 7e be d4 bd ac b0 0f bc 46 9e c1 3d
       -0.14428654 -0.10387896 -0.008770149 0.094540164
000080 d1 8a 72 bc 53 9e 56 be c5 6e bf bc 0d de 3d 3d
       -0.014803604 -0.20958833 -0.023368249 0.046354342
000090 ea 51 e5 3d 02 40 f0 3c 61 e2 a5 bd 74 c1 b2 bd
       0.111972645 0.029327396 -0.08099819 -0.087283045
0000a0 26 a4 8f 3d aa b7 9a 3c 23 2e 25 be 33 71 3e bc
       0.07013731 0.018886406 -0.16130881 -0.0116236685
0000b0 38 88 a6 ba f8 95 01 3e 62 1e 35 3e 5f 66 04 3b
       -0.0012705391 0.12654865 0.17687371 0.002020262
0000c0 47 5a 91 3c 93 10 17 be 21 cb 6f 3c 13 f3 ae 3b
       0.017743243 -0.14752416 0.014635832 0.0053390353
0000d0 c7 1f b6 3d f0 53 5a 3e 88 3b a3 bd f7 1c 8f 3d
       0.0889278 0.21321082 -0.07970339 0.069879465
0000e0 f6 38 1d 3d 3e 13 20 be 5d c9 4f 3d 07 bf c4 bd
       0.0383844 -0.1563234 0.050729144 -0.09606748
0000f0 d7 b5 35 3d ee 93 21 3d 38 28 12 be 5c 93 4a 3d
       0.04436287 0.039447717 -0.14273155 0.04945694
000100 24 af 01 bd c5 61 0a 3e 12 df 10 3e e1 0a 2a 3d
       -0.031661168 0.13513859 0.14147595 0.04151428
000110 8c fd 45 3e 79 26 37 3d ad f4 eb 3d b1 cd 0b 3d
       0.19335002 0.044714425 0.115212776 0.03413171
000120 66 1b d0 3d d2 a4 e0 3b bf a3 1e 3d ab a9 a8 bd
       0.10161476 0.0068555856 0.03873038 -0.082354866
000130 ad ca bb 3b 7d 99 b0 3d ba e5 c2 3d 6f 84 d1 bc
       0.005730948 0.086230256 0.09516473 -0.025575845
000140 f1 68 04 be 5c 5a b0 3d 5b 4d 82 bd d1 31 8d 3d
       -0.12930657 0.08610985 -0.06362411 0.06894267
000150 74 d5 00 bd 5c df 99 3d ef 45 8b 3d 48 be 24 bd
       -0.031453565 0.075133055 0.06800448 -0.04022053
000160 bc 52 68 bd dd a2 1a 3d 27 dd a8 3e b5 cd 0c bd
       -0.056719527 0.037752975 0.32981226 -0.034375865
000170 1f cd 11 bd 9f 8e de 3c e9 bd 0e 3e e0 e8 6c 3e
       -0.03559601 0.027167616 0.13939632 0.2313571
000180 5b 9e b6 3d 44 b5 dc bd 9c 20 2e 3d 5d 55 66 3e
       0.08916923 -0.10776761 0.042511567 0.22493501
000190 79 98 63 3e 0d da 01 3e b3 de 48 3d b1 47 2d be
       0.22226132 0.12680836 0.049040508 -0.1692188
0001a0 4a 7a 83 bd b2 a5 8d bd 9b 74 6d 3e ba 09 1b 3d
       -0.06419809 -0.069163695 0.23189013 0.037851073
0001b0 eb ff eb 3d fe 45 5a be 19 03 82 be 91 7e 9c be
       0.11523422 -0.21315762 -0.25392988 -0.30565313
0001c0 9e e1 0e be 7f ef 4d 3d e7 70 bd bd 9e 8f d4 bc
       -0.13953254 0.05027723 -0.0925005 -0.025947388
0001d0 00 be 18 bc 0a 41 07 bb 9b 99 9c bc 86 f0 e4 bd
       -0.009322643 -0.0020638132 -0.019116214 -0.11178689
0001e0 25 82 60 bd 61 89 41 bc 1a bc 94 bd 46 70 9a 3d
       -0.054811615 -0.011812539 -0.0726244 0.07540946
0001f0 64 22 5a 3d 63 22 92 bd 2d 86 00 3e d0 ea a5 3d
       0.053255454 -0.07135465 0.12551184 0.081014276
000200 b6 b3 cb bd 02 e7 8a 3b c3 3b 14 3d 7b 6e 32 3d
       -0.099463865 0.004238964 0.036189806 0.043562394
000210 14 53 1e be 2f ae bd 3d 2a 53 22 3d 98 13 6e be
       -0.1546138 0.092617385 0.039630093 -0.23249662
000220 7a ca 23 be 81 89 fb 3d e1 8d 93 bd cd 0d 88 bc
       -0.15995207 0.12282086 -0.07204796 -0.016608143
000230 5c e8 b4 3d 7c 53 dd bd a3 dd 20 3a 14 49 95 3c
       0.088333815 -0.10806939 0.0006136542 0.018223323
000240 76 7c f9 bb c8 14 1f 3e dc 8a 9a 3d 2a b1 fe bc
       -0.007613714 0.15535271 0.075460166 -0.031090338
000250 8f 85 5d 3d 82 4f 92 bc bb b6 d1 3d 97 6d 08 3e
       0.05408245 -0.017860178 0.10239931 0.13323055
000260 b3 47 8e 3d 87 02 23 b9 59 5e c1 3d c6 17 7e 3c
       0.06947269 -0.00015545833 0.094418235 0.015508598
000270 67 f6 2f 3e 86 1d 14 3e 7c 58 1d 3e c6 45 0c 3d
       0.17183839 0.14464387 0.15365785 0.03424623
000280 b8 92 38 be 07 4c 8b bd 78 74 15 3a b1 fd e1 bc
       -0.18024719 -0.068016104 0.0005701254 -0.02758679
000290 29 54 9e 3d f9 1f da 3b 4f 18 1f be 6d 79 73 be
       0.07730896 0.0066566435 -0.15536617 -0.23776789
0002a0 57 81 0f bc 71 07 90 3d fc c9 09 3e 00 ae 54 3b
       -0.008758864 0.07032669 0.13455957 0.0032452345
0002b0 7b ac b5 bd 19 c1 9a 3d 79 98 a0 b8 29 7b f6 bd
       -0.08870789 0.07556362 -7.657795e-05 -0.1203521
0002c0 73 d9 0d be 99 df 15 bc bc 27 ae bd bd 68 55 bd
       -0.13852482 -0.009147548 -0.085036725 -0.05210184
0002d0 6b 6d 79 bc 3a e2 13 3e 53 ef d0 3d 47 ad 2c 3d
       -0.015223841 0.14441767 0.102018975 0.042157438
0002e0 43 57 2b be ba 60 22 3e 6a 12 a2 3b 60 79 b7 3c
       -0.16732506 0.15857211 0.004946043 0.022396743
0002f0 68 43 97 bd 22 0d 96 bd 60 24 75 bd d4 80 88 bc
       -0.073859036 -0.07326724 -0.059849143 -0.016662993
000300 b3 34 83 bc 65 14 a5 3d c5 e1 81 bd 3b ad ea 3d
       -0.01601634 0.080605306 -0.0634189 0.11458822
000310 54 ff 74 b9 18 f6 03 be 49 5d 2f 3d fd 7a a0 bd
       -0.0002336477 -0.12886846 0.042813573 -0.07835958
000320 df a1 d5 3d db 98 1a 3d f6 34 6c be 80 37 0e be
       0.10431265 0.03774343 -0.23067078 -0.13888359
000330 89 e1 35 be bf 85 53 bb fd cf 7c bd 1f 76 85 be
       -0.17761816 -0.0032275764 -0.06172179 -0.26066682
000340 7a f7 91 bd fa 58 90 bd f1 9a 20 bd bb fa a8 bd
       -0.071272805 -0.07048221 -0.039210264 -0.08250948
000350 83 ce a1 be 59 6e 51 be 37 72 17 bd b2 a6 34 3e
       -0.31602868 -0.2045225 -0.03697416 0.17641714
000360 89 30 71 bd e5 e3 b0 3d 54 83 16 bd a4 7c 6b bd
       -0.058884177 0.086372174 -0.036746338 -0.057491913
000370 f1 e3 7d 39 5c 9e 69 3e b4 f2 ac 3e 96 20 e9 3e
       0.00024212875 0.22814316 0.33778918 0.45532674
000380 ca e9 8d b9 a5 d8 d1 bd 6e 45 24 3e 5a b2 b7 3c
       -0.00027067802 -0.102464 0.1604211 0.022423912
000390 0d d4 60 3d 13 7c 08 3e a3 49 17 3d b3 f6 e2 bd
       0.054889727 0.1332858 0.03693546 -0.110822104
0003a0 2f f7 f2 bd eb 64 ed 3c 62 0a 25 bd 92 82 b6 3d
       -0.11863553 0.028978785 -0.040293105 0.08911623
0003b0 d0 f6 26 be d2 a5 b1 3c 56 82 19 3e 03 78 80 3d
       -0.16305089 0.021685515 0.14991125 0.062728904
0003c0 fd b3 73 3d 7c 9d 37 3e 9c 2e af bd 10 9d d8 bc
       0.059497822 0.1793117 -0.08553812 -0.02644208
0003d0 08 b3 06 be 30 a4 82 bd 1c b6 f4 bc af 61 e4 bc
       -0.13154233 -0.063789725 -0.029871993 -0.02787861
0003e0 fa 3d 5c 3d 2e 1d d0 3d 28 43 f9 3c 4f 45 ac 3d
       0.053770043 0.101618156 0.03042753 0.08411657
0003f0 1a 6f b2 bb 51 f5 81 3d 5e 9e 36 bd b1 ae 66 bd
       -0.0054453732 0.063456185 -0.044584624 -0.056318942

convs.2.fc_full.bias f4 [32]
000000 80 f0 e5 3d 87 c4 eb bc e8 6b 20 be 05 cb 29 bd
       0.11227512 -0.028780235 -0.15666163 -0.04145338
000010 2a 52 08 3d 4c 5f 7f 3d a1 0d c5 bd f8 6c c9 bd
       0.033281483 0.06234674 -0.0962174 -0.09835237
000020 85 02 2a bd af ad df 3b 72 2d cb bd 82 42 8d 3d
       -0.04150631 0.0068261246 -0.099207774 0.06897451
000030 bf 4a 48 bd 14 b8 c6 3d 58 0c 93 3d 61 b1 93 bc
       -0.04889941 0.09703079 0.07180089 -0.018028917
000040 36 ca b5 bb 0d a3 75 3d 78 e1 bd bd 47 c8 07 bd
       -0.005547787 0.05996995 -0.092715204 -0.033149984
000050 af 6c c4 3c 73 fb 03 be 5e a4 8e bc a6 96 19 3d
       0.023977606 -0.12888889 -0.01741236 0.037497185
000060 4a 39 ab bd e5 1a 56 3d ad a2 94 3d fa 12 5b bc
       -0.083605364 0.052271742 0.072575904 -0.013371224
000070 2d 1c d5 bc 72 74 ea 3b 5f 7a f2 3b 09 92 bd bd
       -0.026014412 0.0071549946 0.0073998417 -0.092563696

convs.2.bn1.weight f4 [32]
000000 47 51 8d 3f 92 f0 8e 3f 65 f8 8f 3f e9 6c 88 3f
       1.1040429 1.1167166 1.1247679 1.0658237
000010 a1 51 8a 3f 77 47 88 3f 0a 1d 81 3f 6d fc 96 3f
       1.0806161 1.0646809 1.0086987 1.1795784
000020 87 d8 8c 3f 1b 89 87 3f d3 55 8d 3f 79 76 81 3f
       1.1003579 1.0588716 1.1041816 1.011428
000030 0d 11 a1 3f 3f 26 7e 3f ce a0 8c 3f 66 47 8c 3f
       1.2583328 0.9927711 1.0986574 1.0959289
000040 d1 d3 84 3f 98 9d 66 3f 58 08 87 3f 5b aa 86 3f
       1.0377141 0.9008422 1.0549421 1.0520738
000050 bc dd 84 3f ad 71 8a 3f 4c b3 9d 3f 6e 61 8c 3f
       1.0380168 1.0815941 1.2320342 1.0967233
000060 f2 7f 86 3f 30 d6 8b 3f 3b d0 85 3f b6 93 7a 3f
       1.0507796 1.092474 1.0454172 0.9788164
000070 26 d4 79 3f 89 cf 8d 3f 5f da 8c 3f 53 95 83 3f
       0.9758934 1.107896 1.1004142 1.0279945

convs.2.bn1.bias f4 [32]
000000 c8 1d 84 bd 47 7f be 3c 4c 33 7e bd cc 3f cb 3c
       -0.06450993 0.02325405 -0.06206064 0.024810694
000010 96 26 85 3c 01 05 87 bc fc 56 9e bd dc dd 98 3d
       0.01625375 -0.016481878 -0.07731435 0.07464191
000020 3a ee 2b bc 8c d2 af bd e1 da 6c bd 56 09 34 bc
       -0.010493809 -0.085850805 -0.057825927 -0.010988554
000030 ad 14 88 3d ac 4e 4d 3d 39 ef 87 bd f2 64 88 3c
       0.066445686 0.050123855 -0.06637425 0.016649697
000040 6a 55 82 bd 8d 99 6d 3d de d5 93 bd a5 8b 5f bd
       -0.06363948 0.058007766 -0.07218526 -0.054576535
000050 2c d1 17 bd 91 09 01 be bd 79 00 be 0e 5e a7 bd
       -0.037064716 -0.12601306 -0.1254644 -0.081722364
000060 4e 93 8f bd 33 88 c9 bd 4d 19 0d bd 0a e9 8f 3d
       -0.07010518 -0.09840431 -0.034447957 0.070268705
000070 04 e1 f1 3c 34 d5 e4 bd 29 15 db bd d7 31 c9 b9
       0.029526241 -0.11173478 -0.10697395 -0.0003837484

convs.2.bn1.running_mean f4 [32]
000000 2d aa b8 3f a2 65 14 40 7c d9 c6 3c c4 85 d6 bf
       1.4426934 2.3187032 0.024273627 -1.6759572
000010 bd 9d 44 be 61 43 9e be 18 9d 07 3f 66 a4 56 3f
       -0.19200797 -0.3091078 0.5297408 0.838446
000020 dd 50 cf bf 69 d1 4e bb 8c 25 18 3e 5e 4e 15 3e
       -1.6196553 -0.0031557924 0.14858073 0.14580676
000030 df dc f7 3f 1c 43 db bf 04 81 e1 3f 85 a4 2e be
       1.936428 -1.7129855 1.7617497 -0.17054947
000040 03 47 05 40 4f 10 68 3f b4 66 c6 bf 07 8e f1 be
       2.0824592 0.90649885 -1.5500093 -0.4717867
000050 6a c6 db be f4 2b 73 3e 1b fb 07 3f 29 09 fd 3e
       -0.42924815 0.23747236 0.5311753 0.4942105
000060 c5 4c 89 bf e7 05 4b bf 76 1c 7a 3f f2 aa c2 3f
       -1.0726553 -0.7930588 0.9769968 1.5208418
000070 bb 72 27 3e d3 00 1b 3f ba c7 44 bf 9a 3d 02 be
       0.1635236 0.6054813 -0.7686726 -0.12718812

convs.2.bn1.running_var f4 [32]
000000 16 78 36 3e e9 e0 d4 3e c6 59 21 3e 82 69 dc 3d
       0.17819247 0.41577843 0.15756902 0.107623115
000010 52 d0 ac 3d 54 08 b7 3d b0 0a 98 3e 00 7c 0b 3e
       0.084381714 0.08937135 0.29695654 0.13621521
000020 3e ad b0 3e c9 4a 30 3e 58 19 ec 3d 8e ec b3 3e
       0.34507173 0.17216028 0.115282714 0.35141414
000030 0e 24 88 3e e9 28 2f 3e 5e 20 c9 3d 40 f1 0b 3e
       0.26590008 0.1710545 0.09820627 0.13666248
000040 c8 b1 2f 3e b4 33 ac 3e 25 a6 2c 3e e6 4d 49 3e
       0.17157662 0.33633196 0.16860254 0.19658622
000050 e1 50 a1 3e 54 66 4c 3e bf 40 c3 3d d9 d5 f3 3d
       0.31507018 0.1996091 0.09533834 0.119060226
000060 eb 9a 59 3e 0c 87 b3 3d d3 b5 50 3e 40 c6 47 3f
       0.21250503 0.087659925 0.2038186 0.7803688
000070 c8 13 08 3f 10 6d 20 3e ca 03 9a 3e fe 7c 9d 3e
       0.53155184 0.15666604 0.30081016 0.30759424

convs.2.bn2.weight f4 [16]
000000 98 99 86 3f b4 38 85 3f 3b 90 91 3f a2 b8 86 3f
       1.0515623 1.040793 1.1372141 1.0525095
000010 a5 6a 8a 3f 4f 38 90 3f 0e 9e 8b 3f cc 88 80 3f
       1.0813795 1.1267184 1.090761 1.0041747
000020 53 c4 87 3f 8c 71 84 3f f0 ad 8a 3f 04 fd 86 3f
       1.0606788 1.0347152 1.0834332 1.0545964
000030 7c 77 85 3f fb 04 86 3f 70 f9 8f 3f 2a 7a 8b 3f
       1.0427089 1.047027 1.1247997 1.0896657

convs.2.bn2.bias f4 [16]
000000 da 98 d4 bd 82 60 3f 3d ed dd 31 3d 35 fd 19 3d
       -0.103807166 0.046722896 0.043424536 0.037594993
000010 a1 45 82 3c 71 ce 1c 3d 93 26 57 3c 6f 18 c2 3c
       0.015902342 0.038282815 0.013131755 0.023693291
000020 9c 39 6e 3d 3b 79 96 3c 0c ed 47 3d 98 af a8 3c
       0.05816041 0.018368354 0.04881005 0.020591542
000030 30 eb 80 3d 8d 33 ea 3c 56 db 9c 3d 0b d7 47 3d
       0.062948585 0.028589034 0.076590225 0.048789065

convs.2.bn2.running_mean f4 [16]
000000 83 d7 ab 40 28 67 a9 40 8a 6e 88 40 8a fa 90 40
       5.3700576 5.2938423 4.2634935 4.5305834
000010 f0 17 9c 40 f9 6f 8e 40 f8 4c 96 40 77 f3 9c 40
       4.877922 4.4511685 4.6968956 4.90472
000020 45 7e a7 40 4a a8 9a 40 25 ec a5 40 bb 68 aa 40
       5.2341638 4.833043 5.185076 5.3252845
000030 58 7d a8 40 cc 85 92 40 32 a5 8d 40 49 23 9b 40
       5.2653008 4.5788326 4.4264154 4.8480573

convs.2.bn2.running_var f4 [16]
000000 5d 21 25 41 0c 10 29 41 f5 b0 46 40 dd 57 17 41
       10.320645 10.566418 3.1045506 9.458951
000010 4b ee 08 41 ef e2 c5 40 2b f4 e4 40 62 ea 5a 41
       8.558177 6.183952 7.1548057 13.682222
000020 7c 4d 41 41 fa d8 10 41 1c fa 8e 41 23 d9 d1 40
       12.081417 9.052973 17.872124 6.557756
000030 1a 8b d8 40 be 66 59 41 f5 8e a4 40 20 b5 01 41
       6.76698 13.587584 5.142451 8.10672
