cgcnndefect/defect_transfer_all/checkpoint.pth.tar (torch, 208687 bytes, 121 tensors)

embedding.weight f4 [16, 92]
00000000: 9795 ffbc 2807 2a3e 4e9c 0fbf 06dc 40bf
00000010: a333 17be cf53 20bf c7f0 1cbe 70ee 2d3f
00000020: 1db6 413e eae2 cf3e 7360 893f e16a b6be
00000030: d5db e0bf 4253 6bbe 2983 41be a9e8 d13e
00000040: d9a0 8a3e 91d9 f43d d99d c63f 4bec ca3c
00000050: 12e9 36be b9b8 97be 397b 903f c915 e23e
00000060: 9f0d 0d3f 0b2c 643f e90c 863e 6cdf 953e
00000070: 6e25 07bf 795b fcbe 2ac3 00bf 16ed 1f3f
00000080: ab31 d83f 15ec 7c3f 98a7 38be d786 a3be
00000090: 5291 183c dc4a 7abe 0ae9 923f 9a59 8dbe
000000a0: cb7e 803f e5e3 1e3f 7cce 19bf 5567 28bf
000000b0: d604 b23e b69a 1d3e 8c1d 343e 99e1 d3bd
000000c0: daf7 d0be 5384 33be 67cc 923e 4765 9a3e
000000d0: 45f2 463e 7d48 363f 3c8d e53e 9489 82be
000000e0: 4bfa a1be 206b abbe 1fe1 c23d 2b92 673e
000000f0: 5af2 8f3e 3ab6 8dbe 77b9 a73d cb2c 0b3f
00000100: 9a60 903e d98a 70be 8a70 823b c583 44bf
00000110: a73c 74bf fb04 cd3d 19b5 b73f 0f7f 1cbd
00000120: 1ff6 033d 0be2 8bbc ba1a 513e ba15 a93e
00000130: 2df9 a93c 60e0 09bd fac2 5abd 70c0 a33e
00000140: 787c a5be 96d3 7e3d 92c2 8ebe dedc 41be
00000150: 6c93 84bf 9b71 7bbe 621e b4bd 8c38 063f
00000160: 0857 f23d 3286 463f 37e1 2d3f 3a1d 083f
00000170: cc3c 763e 767e 1abe 7b54 d9be 8133 debf
00000180: 9815 d53e d84f 013f f276 0a3f 225e ac3f
00000190: ef08 d03f 2491 683f f865 633f 8396 97be
000001a0: 7262 5ebf 9b71 093e 5d73 27bf 34b6 f6be
000001b0: b164 adbe 220c bfbe 12b1 2d3f bbe6 79bf
000001c0: 0ae7 4e3f 19b6 a0be e092 053e c23d 67bb
000001d0: 2dca e7be cbe7 c5bf 389c ba3d 44ec bd3e
000001e0: 5695 bc3c 1135 b7be ce32 e5be 748f e7be
000001f0: 0d5c 73be 5629 a2be 7537 983e 8218 183e
00000200: 9189 89bf 4706 b53e 24e5 713f bbf3 0c3e
00000210: d1b3 39bf 5cfe debe 9d45 8abe 40a8 73be
00000220: b79a 8c3e a31d 83bd 8cce 2cbe a623 e03c
00000230: 256c 2cbe 8dc1 adbe 9eab 12be d064 75be
00000240: ba77 063e f163 c43f 90c1 683f 9495 2abd
00000250: 6daf a4be 7242 643e 0f75 b1bc 7d5a c73e
00000260: 9e39 79be 4647 893d 93c5 023d 9c19 61be
00000270: 16e6 d6bd 601e f13d 6c8f b4bc be6b 313f
00000280: 010e 88bf 00b1 a7bc 5865 d63e 355c b8bd
00000290: 777e 433e 03cd 1d3e 6de9 393e 215f 323e
000002a0: ea2d c0bd 26aa cabe b843 37be c81e c1bf
000002b0: 63bf c53f 7479 503e 5152 8c3e c3c5 993f
000002c0: 0dbd d3bd 6c80 4dbe 55a7 8c3d 53d7 6cba
000002d0: 4ece eb3e 6b87 f6be d3e9 303e 77f1 3f3e
000002e0: 60f4 bf3e 2bd7 49be 552e 25bd b2a0 3a3f
000002f0: e5a6 1a3f eea7 4d3f 5929 0440 3778 8a3f
00000300: 5363 12bd 2047 46bf 5b69 93bf 7749 b5bf
00000310: 13a8 6ebf 79da 47bf 9cb0 bf3e a819 4fbe
00000320: fee1 5b3d 809b 833e 8923 09c0 58ea cabb
00000330: 2f27 b6bd c1cb 4a3f f553 783e 2e46 053c
00000340: d0ad 2abf 6c8d cd3e 475a 103e e276 5c3f
00000350: 1ab0 293e df7f cf3e d57d 39be 74e2 0b3f
00000360: 4a6f dc3f 35ce 44bf 4e6a 2abe f081 0f3e
00000370: 5023 6d3d 157f f2bc bcfc 2b3f 7f60 3e3f
00000380: c326 febe 7242 7cbe 2212 ad3e 4d39 b1be
00000390: 349e 81be 3ad4 23be 1d60 6ebe f22f b33e
000003a0: dfad d9be 108a 623f 967b 593e fe76 d93e
000003b0: 2158 203f afbb cdbe bec7 52bf 8ba9 44bf
000003c0: bb88 a9bf ec49 8fbf 2a8f dd3d 3b0c b2bd
000003d0: 77f4 ae3d 1757 56be 8b1c 4e3f eaa8 323e
000003e0: 30cc 99be 22ff 533e bbe8 60bd a9cb 2ebe
000003f0: ef43 c8bc aea9 f9bc fd5a 383e 60ef 1dbd
-0.03119926 0.16604292 -0.5609788 -0.7533573 -0.14765792 -0.6262788 -0.15326224 0.6794195
0.18917127 0.4060281 1.0732559 -0.35628417 -1.7567087 -0.22980979 -0.1889769 0.40997818
0.27075842 0.1195556 1.5516921 0.024770876 -0.17862347 -0.2963312 1.1287605 0.44157246
0.5509891 0.89129704 0.26181725 0.2927202 -0.5279149 -0.49288538 -0.50297797 0.6247114
1.6890157 0.9879773 -0.18032682 -0.31938812 0.009311991 -0.24442619 1.1477368 -0.27607423
1.0038694 0.6206649 -0.60080695 -0.6578267 0.34769315 0.15391049 0.17589396 -0.10345764
-0.40814096 -0.17530946 0.28671572 0.30155393 0.19428356 0.7120436 0.44834316 -0.2549559
-0.3163627 -0.33480167 0.09515595 0.22614352 0.28114587 -0.2767809 0.081896715 0.54365224
0.281987 -0.23490466 0.003980701 -0.76763564 -0.9540505 0.100107156 1.4352142 -0.03820711
0.03221714 -0.01707556 0.20420352 0.3302439 0.0207487 -0.033661246 -0.0534086 0.31982756
-0.32321525 0.062213503 -0.2788282 -0.1893191 -1.035749 -0.24555056 -0.087948576 0.52430034
0.11833006 0.77548516 0.67921776 0.53169596 0.2404663 -0.15087304 -0.42447266 -1.7359468
0.41618037 0.50512457 0.54087746 1.3466227 1.6252726 0.90846467 0.88827467 -0.2960702
-0.86868966 0.13422243 -0.65410405 -0.48185885 -0.33865884 -0.37313944 0.6784831 -0.9761769
0.8082129 -0.3138893 0.1304431 -0.0035284613 -0.45271435 -1.5461363 0.091118276 0.3709432
0.023020428 -0.35782674 -0.44765323 -0.45226634 -0.23765583 -0.31672162 0.2972981 0.14853099
-1.0745107 0.35356352 0.94490266 0.13764851 -0.72540003 -0.43553436 -0.27006236 -0.23794651
0.27461788 -0.06402137 -0.16875666 0.027360748 -0.16838129 -0.3393673 -0.1432328 -0.23964238
0.1313161 1.5343 0.9092035 -0.041646555 -0.3216509 0.22290972 -0.021662263 0.38936225
-0.24338385 0.067030475 0.031926703 -0.21982425 -0.10493104 0.11773372 -0.022041045 0.69305027
-1.0629274 -0.020470142 0.41874194 -0.09001962 0.19091211 0.15410237 0.18155451 0.17419101
-0.093837574 -0.39582938 -0.17896926 -1.5087519 1.5449032 0.2035883 0.27406552 1.2013477
-0.10338793 -0.2006852 0.068678536 -0.00090347714 0.46055835 -0.4815019 0.17276697 0.18744455
0.3749113 -0.19710986 -0.04032739 0.7290145 0.6041091 0.80334365 2.0650237 1.0817937
-0.035739254 -0.7745228 -1.1516527 -1.4163045 -0.9322521 -0.7806774 0.3743943 -0.20224631
0.05368232 0.25704575 -2.142794 -0.0061924867 -0.088941924 0.79217154 0.24250777 0.008134408
-0.66671467 0.4014696 0.14096938 0.861189 0.16571084 0.40527245 -0.18114407 0.54642415
1.7221463 -0.76877147 -0.16642115 0.14014411 0.057895005 -0.029601613 0.6718252 0.7436599
-0.49638948 -0.24634722 0.33802897 -0.3461403 -0.25316012 -0.15998927 -0.23278852 0.34997517
-0.42515466 0.88491917 0.2123855 0.42473596 0.62634474 -0.40182254 -0.8233603 -0.768212
-1.3244852 -1.1194434 0.10818322 -0.08693739 0.08542722 -0.2093166 0.80512303 0.17447248
-0.30038595 0.20702794 -0.05490945 -0.17069878 -0.024446456 -0.030476417 0.1800346 -0.038558364

embedding.bias f4 [16]
00000000: c71f f03e 57b2 f6be 7b87 8c3e db51 66ba
00000010: 653f a7bd d216 cfbe 6326 513f 7b91 d13e
00000020: 040a 393e c69f 8a3e f1eb ec3e cd57 27be
00000030: d6fc 623e e3de fbbd a265 e7be 1a9c ba3e
0.46899244 -0.48182938 0.27447113 -0.0008786001 -0.081663884 -0.40447098 0.816992 0.40931305
0.18070227 0.27075022 0.4627376 -0.16342087 0.22166762 -0.12298372 -0.45194727 0.3644722

convs.0.fc_full.weight f4 [32, 56]
00000000: f8aa 813e 30da 07bf 7e8c af3e 1429 c93e
00000010: 2f82 53bc 003a 72bf 6517 a7be 59e1 f83e
00000020: e902 c0be 79f9 de3e f8a9 013f c684 1b3c
00000030: 55a5 483f 0812 bdbe ef52 58bd d924 3b3f
00000040: 0742 cbbe 4841 b0bf 8de3 e8be 4863 773e
00000050: 82bb 423f 556b 443f a981 8d3e b275 f2be
00000060: 4f39 5fbe 9d14 343f 2200 f23e d8d6 fbbe
00000070: e670 9bbc 489c d43d b81f a03e 3e12 553f
00000080: 3343 fc3f 7e20 fa3f 7ba2 2d3f 44f1 cdbf
00000090: 8e89 cebf fb14 0040 c812 e23f d85d 2f3f
000000a0: 207e c9bf f035 e0bf 5449 0040 212e f03f
000000b0: 18cc 533f 7769 c8bf ae73 dcbf be16 fe3f
000000c0: 8c08 0740 5687 0240 ed74 ad3f 68ee 50bf
000000d0: 24d1 5dbf cfc1 a4bf eafa ebbe 65b8 0e3f
000000e0: 2b36 e83e 6a56 f43e ea0c 14bf 66dd 87bf
000000f0: 2cc5 cfbe aaa2 be3e 3ab1 42bf f44f 6f3d
00000100: aff7 783f 1930 cb3e 1556 38be b8ae 9cbe
00000110: e6c2 82bf cb6d 423f cef2 abbf 0580 0f3b
00000120: d95f 9dbe 66cf 08be 14b0 993f 8699 87be
00000130: 99c0 373f c1d3 81be bbd7 473e bd81 5bbf
00000140: 9317 403e 9c80 ef3f db32 29be 9c0d bcbe
00000150: 12d2 323f 714a 06bf 5c06 a7be 18b9 11bf
00000160: 5f91 f23e b7bb 093f 5163 a63f 8ca6 b03e
00000170: 0b27 a63c a357 e83e 7637 0d3f dc68 b03f
00000180: 0b16 9b3e c6f2 21bd 7980 a83e 8888 3b3f
00000190: e373 b73f 7c83 463e c804 26bc ee62 093f
000001a0: 826e e63f 1889 3c40 b5b3 6340 7133 2e3f
000001b0: 6e18 6e3e 60c2 cbbe 1af8 05bf 895a efbf
000001c0: 83f0 54be 8b73 0f3f 852b 253f bdcd 0bbe
000001d0: 09a1 1abf cacf 13be 387f e63e 8caf a4be
000001e0: 572e 2fbf c799 a0be 6f45 35bf 8d1f ebbd
000001f0: f0d6 40bf 3ed1 dc3e 9d3c 2dbe ce6f 133f
00000200: f34d 543e ba7e 78be cb5a f5bd 26ff bdbe
00000210: c2af 993f 8556 13bf bd80 d3be 1309 aa3f
00000220: a249 1cbe 3dad 153f da96 883c 3031 403f
00000230: ff8e b0be 0775 e73d 8020 03be 88cc 433d
00000240: 4f1c 6940 096e 6d40 7a9e 6340 5dad 17c0
00000250: 503d 36c0 1147 6940 a856 7440 c615 6c40
00000260: 9153 0cc0 1832 45c0 2e14 5b40 f490 6540
00000270: 0ca4 7240 dd61 13c0 f182 43c0 9a0b 1740
00000280: 5805 1d40 67a2 3040 b2c3 5940 3227 febf
00000290: 014b 20c0 101c 49bf 0ff6 c13e bc65 e03f
000002a0: 1f4f 92bf 3225 a8bf 7103 eebe 0e22 c7be
000002b0: 0d05 d3bd 66d5 a03f 9c79 bd3e bea3 a83f
000002c0: ec0d 56bd d930 323f 25e2 aabe 090d 1e3f
000002d0: 7e57 2a3f a442 4bbe 80db 8c3e ab7e 0a3e
000002e0: 9cac 97bf de85 303f 480e 7a3e c403 fbbc
000002f0: b360 cc3e 0d45 0c3f 12c7 263f 59ef 5fbd
00000300: 1b9e f9bc 4f90 cbbe 41cf 94bf 588b 52bf
00000310: 976f e03d f39c 37bf be3c c8bf 9206 923f
00000320: f361 913f db3a c83f a38e fa3f 7f3b 9cbe
00000330: fde7 15bf 9313 923f a127 cc3f 06fb ff3f
00000340: ffea 8abe f35f 07bf cd0d 883f 4d52 bb3f
00000350: 9b81 f33f e561 d5be 7c3e 17bf cb5c 1c3f
00000360: 123b 083e 3cce 00bf 8c29 0dbf d88a c6bf
00000370: 8470 a7bf 751a bd3f 0732 0540 d8a6 413f
00000380: f4b2 2e3f 80f8 463e 966d c83e 5388 91be
00000390: 59a0 533e befa 08bd d68f 19be 4031 f83e
000003a0: a194 e63e b1a1 13be 1e75 debe cef2 a4be
000003b0: fa93 a9be c0f4 e33e 8658 c2bd 83e5 66be
000003c0: 1979 bebd bb18 2f3e 5d26 14bf f4e3 403f
000003d0: 44d0 a4bc 8a88 a83e cc40 323f 1496 07be
000003e0: 0d31 75be 4dc1 ab3e 3dff 47bf 0040 a8bd
000003f0: f8b6 493e a076 873e 1360 cebe 44c1 e6bb
0.2532575 -0.530673 0.34286875 0.39289153 -0.012909456 -0.9461975 -0.32635036 0.48609427
-0.3750222 0.43549708 0.50649977 0.009492105 0.78377277 -0.3692782 -0.052813467 0.731031
-0.39698812 -1.3769922 -0.45486107 0.24158967 0.76067364 0.76726276 0.27637985 -0.4735542
-0.21799205 0.70343953 0.47265726 -0.4918735 -0.018974733 0.10381371 0.312742 0.8323096
1.9708008 1.9541166 0.6782605 -1.6089253 -1.6135728 2.0012805 1.7661982 0.6850257
-1.5741615 -1.751646 2.0044756 1.8764077 0.827333 -1.5657185 -1.7222803 1.985069
2.1098967 2.0395103 1.3551308 -0.8161378 -0.8664725 -1.2871646 -0.4608987 0.55750114
0.45353827 0.4772218 -0.57832205 -1.061444 -0.40580118 0.37233478 -0.76051676 0.05842586
0.97252935 0.39685133 -0.18001588 -0.3060205 -1.0215728 0.7594878 -1.3433473 0.0021896374
-0.30737188 -0.13360366 1.200686 -0.26484317 0.71778256 -0.25356868 0.19515888 -0.8574484
0.18758993 1.8711123 -0.16523306 -0.36729133 0.6985179 -0.5245734 -0.3262204 -0.56923056
0.47376534 0.53802055 1.2999059 0.34502065 0.020282289 0.45379362 0.5516275 1.3782
0.30290255 -0.039538167 0.32910517 0.73255205 1.4332241 0.19386095 -0.010132976 0.5366658
1.8002474 2.9458675 3.5578434 0.68047243 0.23251507 -0.39796734 -0.523317 -1.8699504
-0.20794873 0.5603568 0.6451953 -0.13652702 -0.6040197 -0.14434734 0.45018935 -0.32165182
-0.68430084 -0.31367323 -0.7080907 -0.11480627 -0.7532797 0.4312839 -0.16917653 0.57592475
0.2073286 -0.24267092 -0.11980208 -0.37108725 1.2006762 -0.57553893 -0.41309157 1.3284019
-0.15262464 0.58467466 0.016673494 0.75075054 -0.34484097 0.11301618 -0.12805367 0.047802478
3.6423528 3.709841 3.5565476 -2.3699563 -2.8474922 3.6449625 3.817789 3.688829
-2.1926005 -3.0811825 3.4231067 3.5869722 3.7912626 -2.302848 -3.054867 2.360083
2.4534512 2.7599123 3.4025693 -1.9855711 -2.5045779 -0.78558445 0.3788304 1.7531047
-1.1430396 -1.3136351 -0.46487 -0.3889317 -0.10303698 1.2565124 0.37006843 1.317497
-0.05225937 0.69605786 -0.3337566 0.6173864 0.6653975 -0.1984964 0.27511215 0.13524882
-1.1849551 0.68954265 0.2441951 -0.030641444 0.39917526 0.54792863 0.6514751 -0.05467162
-0.030470898 -0.39758536 -1.1625749 -0.8224387 0.10958784 -0.7172386 -1.5643537 1.1408255
1.1358017 1.5642961 1.9574779 -0.30514142 -0.5855711 1.1412224 1.5949594 1.9998481
-0.27132413 -0.5288078 1.0629212 1.4634491 1.9023927 -0.4167625 -0.5907972 0.6107909
0.13303784 -0.5031469 -0.5514152 -1.5511122 -1.3081212 1.4773699 2.0811784 0.7564521
0.6824181 0.19430733 0.39146107 -0.2842432 0.20666637 -0.03344225 -0.14996275 0.48475075
0.4503527 -0.14417149 -0.43448728 -0.32216495 -0.3312071 0.44522667 -0.09489541 -0.2254849
-0.09300441 0.17099278 -0.5787104 0.7534783 -0.02011884 0.3291667 0.6963012 -0.13240844
-0.23944493 0.33545914 -0.7812384 -0.08215332 0.19698703 0.2645769 -0.40307674 -0.007042082

convs.0.fc_full.bias f4 [32]
00000000: bb8b 1bbe 14de e83e dffe 733e fc2e 983e
00000010: 7d01 5f3f f155 9fbd b3ca e1bb 976a 37be
00000020: 7ec7 bdbd 9b9f c6be 8de0 bc3d e056 9abe
00000030: 4ae8 9ebd 92c3 15be 8511 6e3e 2738 bd3d
00000040: 8150 8fbe 27c3 1a3f c112 0ebe d063 d83d
00000050: 4cf2 b33e 6512 a73e 5f54 b5be 05f2 59bd
00000060: 5df2 07be 7371 a4bd 6fa2 333e 4757 7fbd
00000070: 9eab 933d 9193 1bbe 3e05 a73e 6592 4cbd
-0.15190022 0.45481932 0.23827694 0.29723346 0.87111646 -0.07780064 -0.0068906187 -0.17911755
-0.09266566 -0.38793644 0.09222517 -0.30144405 -0.077591494 -0.14625385 0.2324887 0.09239226
-0.27991107 0.6045403 -0.13874342 0.10565913 0.35145795 0.3263122 -0.35415933 -0.053209323
-0.13276048 -0.08029451 0.17542432 -0.062339094 0.07210468 -0.15193011 0.32621187 -0.0499443

convs.0.bn1.weight f4 [32]
00000000: d21d 2c40 d11a 8940 9532 3640 17a1 1f40
00000010: 5c2e 5a40 15f8 b640 1aba 6840 c558 9040
00000020: 3841 cd40 5f6b c440 2436 a740 e47f 8440
00000030: 3d9b 9140 9063 e640 2baf 9240 013b 6540
00000040: 564d 4940 6adb 3740 1743 b73f bb50 3e3e
00000050: 975b 1640 c072 be3f 739c 4840 6103 dc3f
00000060: 55b8 ff3f 55a2 1d40 3cec d33e 9d4a 3e40
00000070: 70c8 bf3f 7d53 843f c0d3 9840 e3a7 0540
2.68932 4.2845235 2.8468373 2.4942071 3.4090796 5.7177835 3.6363587 4.510836
6.4142113 6.138107 5.225359 4.1406116 4.5502 7.1996536 4.583883 3.5817263
3.1453452 2.872767 1.4317349 0.18585484 2.3493402 1.4878769 3.134549 1.7188531
1.9978129 2.463033 0.4139117 2.973304 1.4983044 1.0337979 4.7758484 2.088372

convs.0.bn1.bias f4 [32]
00000000: 1561 49bf 04bc 0ebe d7ce 833d 75ae 483f
00000010: 4fa7 76bf b3cb 8ebe 2b69 25bf 8a19 89bf
00000020: 5860 043f 04f1 81bf 48c2 d7bd a1d5 acbf
00000030: 7926 52bf 6d47 bfbf 9b22 44bf 656f b5bd
00000040: 3cc3 c7bf 0cba 33bf 2ded 783f b318 f93e
00000050: 722e 0dbe 5533 e8bf 3961 f7bf 961d 5b3e
00000060: e884 4dbe 086f 973f 58d3 ad3f c596 48c0
00000070: e62e a0bf fdf0 b7be 2a04 1dbf 8957 babf
-0.7866376 -0.1393891 0.06435936 0.783912 -0.9634904 -0.27889785 -0.646136 -1.0710919
0.5170951 -1.0151677 -0.10535103 -1.3502694 -0.82089955 -1.4943672 -0.76615304 -0.088591374
-1.5606456 -0.7020576 0.972369 0.48651657 -0.13787249 -1.8140665 -1.9326545 0.21398005
-0.20070231 1.1830759 1.3580122 -3.1342022 -1.2514312 -0.35926047 -0.6133448 -1.4557964

convs.0.bn1.running_mean f4 [32]
00000000: ad90 5b41 62e9 1941 a3ca a341 80d2 0641
00000010: 7457 fec0 53c5 9740 ccad 6bc1 ee85 79c1
00000020: 4155 0541 aebe 29c0 01dc 4741 a5d2 f940
00000030: 3f92 3241 c557 bbc1 c24f f640 8762 64c1
00000040: 1a02 3a41 bf68 d841 6c2f af41 82ab a241
00000050: 0aab 17c1 0644 c2c1 be19 0fc0 b119 1b40
00000060: f643 b7bc 2cb8 d3c0 2a47 e8c0 67b5 02c2
00000070: 6010 c140 8a54 38c1 64e8 88c1 c868 c9c0
13.722821 9.619478 20.473944 8.426392 -7.9481754 4.7428374 -14.729931 -15.595198
8.333314 -2.6522632 12.491212 7.8069634 11.160705 -23.417856 7.697236 -14.274055
11.625513 27.051146 21.898155 20.333744 -9.479258 -24.283215 -2.2359462 2.423443
-0.022371273 -6.616232 -7.258687 -32.67715 6.033249 -11.520639 -17.113472 -6.2940407

convs.0.bn1.running_var f4 [32]
00000000: a2cb 2642 8b8d 1242 1046 7a42 60cc c841
00000010: 0e37 4d42 ab4b ad41 2511 a342 5cf9 cd41
00000020: fd97 e541 f4de 8042 8feb 2a42 d673 4341
00000030: 967f f442 7aa2 0242 318f fd41 5705 4942
00000040: 3f7d c841 6ebc 8f42 ff4c c842 47ad 0c42
00000050: 04b7 6142 7427 2b42 f290 0542 658f 6842
00000060: 94d2 9742 edcc 8a42 27bb 6442 48dd b841
00000070: 03d2 9042 a42b b141 abcc 4c42 bcc9 8942
41.69886 36.638226 62.56842 25.099792 51.303764 21.661947 81.533485 25.746758
28.699213 64.435455 42.730038 12.21578 122.24919 32.65867 31.694918 50.255215
25.061155 71.86803 100.15038 35.169216 56.428726 42.78853 33.39155 58.140034
75.911285 69.400246 57.182766 23.108047 72.41018 22.146309 51.19987 68.89401

convs.0.bn2.weight f4 [16]
00000000: 9a96 823f 1a36 c83f 10bd 753f f8c2 9e3f
00000010: 3357 e13f 5bc2 ce3f 0723 193f c1f6 0240
00000020: bd3d a63f 2dc0 ce3f a3fd 903f 49b0 c53f
00000030: 7c92 b63f ffdd e63f 23f1 c23f ea46 c23f
1.020221 1.564151 0.9599161 1.240325 1.7604736 1.6153063 0.5981907 2.0463107
1.2987591 1.6152397 1.1327404 1.5444423 1.4263453 1.8036498 1.5229839 1.5177891

convs.0.bn2.bias f4 [16]
00000000: 4b15 f63e 06e4 e1be 56d5 c73e 2fb5 433d
00000010: e244 ee3d 7c8b 95bd ecb0 5b3e 930b 623e
00000020: 5ff7 a93e 2f17 b63e b995 123f 8be9 13be
00000030: 7e61 ed3d fa0f 4e3c 7ea9 c5be 7599 be3e
0.4806312 -0.4411928 0.3902995 0.047780212 0.11634232 -0.07301995 0.21454209 0.22074728
0.33196542 0.35564563 0.5725971 -0.14444558 0.11590861 0.012577051 -0.38605875 0.37226453

convs.0.bn2.running_mean f4 [16]
00000000: 0d00 bd40 5d4c 6640 d7fe ac40 9310 d240
00000010: 5f66 2541 1863 0140 a489 9940 df72 ca40
00000020: 0b1c 1b41 ce72 6441 7320 1a41 a711 5440
00000030: 3ce2 6240 3667 8140 47f0 7041 b67d ab40
5.906256 3.5984108 5.4061084 6.564523 10.337493 2.0216732 4.798052 6.3265224
9.694346 14.2780285 9.632922 3.3135774 3.5450583 4.043849 15.058661 5.3590956

convs.0.bn2.running_var f4 [16]
00000000: 7b11 8442 0cb1 d440 2603 b440 3d22 d440
00000010: a2a1 1542 6c92 cc40 6344 9641 f625 5842
00000020: 4fd8 1243 8d06 0143 4874 e241 5579 3341
00000030: 954b ea40 4a64 0841 1073 3343 a2ef a241
66.03414 6.646612 5.6253843 6.6291795 37.407845 6.392874 18.783392 54.03707
146.84496 129.02559 28.306778 11.217122 7.3217263 8.524485 179.44946 20.367008

convs.1.fc_full.weight f4 [32, 56]
00000000: 85c6 64be 2600 4f3f f98d 803f e6cc b3be
00000010: b88f 74bf ca71 30be 6230 7ebf dcce d7bd
00000020: 41e1 35be c72f 923e 5ddf 0abe cb4b 153f
00000030: ee74 24bf 3aba 6f3c b9bd 863e 4bac 693e
00000040: e845 24be f9c2 d6be 0443 83bf 36f4 55bf
00000050: 7b7c 34bf 6b20 48bd 0cc9 a9bf a699 13bf
00000060: c5cc a13e df88 1c40 8e62 763e 4cd0 3abf
00000070: 1d98 58bf b577 893e b208 37bf 0543 9dbf
00000080: 44b0 8fbf 16a6 4bbf 7a31 213f 561f c33f
00000090: b0a0 9b3f 1a64 7abf 0cef 4fbf ada2 373f
000000a0: f2c1 b13f bedc ad3f b99c 72bf 840b 37bf
000000b0: 6aa0 1e3f b588 be3f 4582 a33f f5da c2bf
000000c0: faba bebf 40bf a3bf f01c 4dbf 4169 32c0
000000d0: f0f3 e9bf c1c8 813e 9cf8 883f 8f1c 793f
000000e0: 8267 ae3e 032b bebf 7cdb 3ebf 20fb fcbe
000000f0: 1e87 9fbe da18 ba3e 9db8 063e 289b a93e
00000100: b404 dd3e 92b7 88be 76b7 5cbe 10c4 44be
00000110: fc36 063e c8e9 0bc0 984e 1cbf 466e 52bf
00000120: 45bf ccbe 5fbb 8cbf 9de4 f2be 3b44 a1bf
00000130: ee77 8a3f 74ad 40bf ac35 89bf 36f2 d43a
00000140: d8e6 0e3e 00a7 be3f f466 183e 9c33 0a3f
00000150: 59f0 a83f b31d 1a3f e802 063f 59ea 853f
00000160: 37a3 0640 c3a9 3840 f130 8340 c90a c53f
00000170: 54b0 aa3e bf46 0140 6b0c 3b40 2038 8a40
00000180: f584 d23f 120f a23e bcae f73f a883 3b40
00000190: da86 8540 a933 e53f e486 2d3e 65eb cfbf
000001a0: 7cd2 babe 02f6 ce3f 154f 3b40 c797 2f40
000001b0: f9d5 d43f 0069 35bf e2b1 cdbf e75f fcbf
000001c0: 95d0 993f 798b ac3e 6220 ec3f a765 e43e
000001d0: d9d6 dcbd a249 90bf 25c1 2f3f 1931 163f
000001e0: 63b1 6f3f d734 973e 7af6 123f e79b 1c3f
000001f0: e901 273f 3d87 08bf 4e3d 38bf 6d89 103e
00000200: a2b7 9bbe 46c2 c33f be02 733f be30 15bf
00000210: 5659 f83e 7cad abbe 090f 41bf 9828 673f
00000220: 3405 3d3f 20a0 47bf c16e 893f 58b2 ab3d
00000230: 682a 5fbd 7d85 13bf 731c 7d3e 6c9d 9f3d
00000240: 57e2 12c0 ddd5 18c0 a5ef 0fc0 f533 c03f
00000250: 655c e13f 34d5 09c0 5799 15c0 9ec2 11c0
00000260: 6632 bd3f 850f e33f 1518 0dc0 39f7 15c0
00000270: 6834 08c0 1fbd cb3f 86f3 dc3f dc6a 11c0
00000280: cf13 ecbf 5a8d 9fbf e552 10bf 876c f5bf
00000290: 9bc7 c5bf 6b28 85be 808d 883d e5be 8fbe
000002a0: ea38 57be 34db 4cbf e590 a1bf e3fe bbbf
000002b0: d1c1 a43e 6dfb 5abf ed26 87bf ca3a b4bf
000002c0: 687a 03bf 7147 343f 311b 14bf 50c2 5dbf
000002d0: ee47 99be a494 52bf 27f8 97be 3ca6 19bf
000002e0: 0b08 0ebf 83bb 8fbe a029 993d 349d 153f
000002f0: 197f a4bf 058c 97bc db64 933d 792f 87bf
00000300: eb01 6fbd d815 9dbf 72c8 13be ce0c c0bc
00000310: 6d8a 813e d006 073f 22f5 1fbf 60f8 ab3e
00000320: 17c3 7abe 61fd f1be 9064 06c0 04be d2be
00000330: 4e33 80be d691 fdbd 06ca 77be 3a5c fbbf
00000340: e1b9 94be a69f a3bd aaf7 3fbe cb8f a8be
00000350: 9c04 f9bf 084b c1be c379 0ebe e302 6b3f
00000360: 0f1f 413f bca1 fe3e 5d4c fe3e fe21 1dc0
00000370: 9a04 d3bf 4828 bebd 7242 2abe c79e 80be
00000380: fbba 05bf 4074 143f 7077 b13e 8418 913e
00000390: 9b37 cdbf 7aea 29bf f4b1 6d3f d001 aa3e
000003a0: 15cd 5b3d 5c42 1ebf a684 7b3e c58b c63d
000003b0: e634 b13e e626 b03f 5aba 0b40 19f3 72bf
000003c0: 9d3d 99be 7a06 373f 0fa0 043f 85d1 c83d
000003d0: 5add 9c3e ff04 223f b48a 8abb c07e 29bf
000003e0: fb72 7c3f bba9 5a3f f71d 58bf 1962 043e
000003f0: 8d9a 373f 65c6 ddbe a6c6 afbf 1ffb 00bf
-0.22341354 0.808596 1.0043327 -0.35117263 -0.955318 -0.17230907 -0.99292576 -0.10537502
-0.17761709 0.28552076 -0.13561769 0.58318776 -0.6424092 0.014631802 0.26316622 0.22819631
-0.16042292 -0.41945627 -1.0254827 -0.8357576 -0.7050244 -0.04885904 -1.326448 -0.57656324
0.3160154 2.445854 0.24061033 -0.72974086 -0.84607106 0.26849142 -0.71497643 -1.2286078
-1.1225667 -0.795503 0.6296612 1.5243938 1.2158413 -0.9780899 -0.8122413 0.717326
1.3887312 1.358299 -0.9477039 -0.71501946 0.6196352 1.488547 1.277413 -1.522307
-1.4900811 -1.279274 -0.8012228 -2.7876742 -1.8277569 0.25348476 1.070087 0.973092
0.34063345 -1.4856876 -0.74553657 -0.49410343 -0.31157774 0.36347085 0.13156362 0.33126187
0.4316765 -0.26702553 -0.2155436 -0.19215417 0.13106912 -2.1861439 -0.61057425 -0.82199514
-0.39989677 -1.0994681 -0.47440043 -1.2598947 1.081785 -0.7526467 -1.0719504 0.0016246501
0.13955247 1.4894714 0.14883024 0.53985 1.3198348 0.6020157 0.52348185 1.0462142
2.1037118 2.8853614 4.0997243 1.5393916 0.33337653 2.019943 2.922633 4.319351
1.6446825 0.31652123 1.93502 2.9299107 4.1727114 1.790639 0.16945988 -1.6243712
-0.36488712 1.6168826 2.9267018 2.7436388 1.6627799 -0.7086334 -1.606991 -1.9716767
1.2016779 0.3370016 1.8447382 0.44608805 -0.107831664 -1.1272471 0.6865409 0.5866867
0.93630046 0.295325 0.57407343 0.6117539 0.6523729 -0.5333136 -0.71968544 0.14114924
-0.30413538 1.5293663 0.9492606 -0.582775 0.48505658 -0.33530796 -0.75413567 0.90296316
0.73836064 -0.77978706 1.0736924 0.08383626 -0.0544838 -0.5762556 0.24717884 0.07793698
-2.2950647 -2.3880532 -2.2490017 1.5015856 1.7606322 -2.153638 -2.3374841 -2.2775035
1.4781005 1.7739111 -2.2045949 -2.3432143 -2.1281986 1.591709 1.7261817 -2.2721472
-1.8443545 -1.2465012 -0.56376487 -1.9173745 -1.545154 -0.260074 0.06667614 -0.28075328
-0.21017805 -0.8002198 -1.2622343 -1.468716 0.3217912 -0.85539895 -1.0558754 -1.4080441
-0.5135865 0.7042151 -0.5785399 -0.8662462 -0.2993769 -0.8225806 -0.29681513 -0.6001928
-0.5548102 -0.28072748 0.074786425 0.58443 -1.2851287 -0.018499384 0.07196971 -1.0561363
-0.05835144 -1.2272291 -0.14431933 -0.023443606 0.25300923 0.5274477 -0.6248342 0.33587933
-0.24488483 -0.47263625 -2.0998878 -0.41160595 -0.25039142 -0.123813316 -0.2419816 -1.963752
-0.29048064 -0.07989435 -0.1874682 -0.32922205 -1.9454532 -0.37752557 -0.13913636 0.9180128
0.75438017 0.4973277 0.49667636 -2.4551997 -1.6485779 -0.09285027 -0.1662691 -0.25121137
-0.52238435 0.57989883 0.34661436 0.28339016 -1.6032594 -0.6637341 0.9284966 0.33204508
0.05366238 -0.61820006 0.2456232 0.09694628 0.3461067 1.3761871 2.183249 -0.9490219
-0.2992982 0.7149426 0.5180673 0.09805588 0.30637628 0.63288873 -0.0042279605 -0.6620903
0.98612946 0.8541524 -0.8442072 0.12928046 0.717202 -0.43315426 -1.3732498 -0.5038318

convs.1.fc_full.bias f4 [32]
00000000: 04e5 88be 2e38 793d 4c3d 3c3e 08da 1dbe
00000010: e992 f13d ef04 af3d daad 9bbd 0568 683e
00000020: 6fc6 41be 88cb a2be b39f be3e f6f1 1bbd
00000030: d09d 00be 84dc 113d 0f57 133e 3302 2dbe
00000040: 2c28 18be 8def 2abf bfe7 4b3e 2307 f73d
00000050: 85f1 873d c096 83be 09b2 013f 2954 a2be
00000060: 3b1b c0be 8aec 34be d2e0 543f ccff f53c
00000070: 9f3c 77bb 3d0b dd3d 8ddc 403e 3121 4c3e
-0.26737225 0.060844593 0.18382758 -0.15415204 0.11795599 0.08545863 -0.07601519 0.2269593
-0.18923353 -0.31795907 0.37231216 -0.03807255 -0.125602 0.03561069 0.14388679 -0.1689537
-0.14859074 -0.66771775 0.19912623 0.12061908 0.06637863 -0.2570095 0.50662285 -0.31704834
-0.37520775 -0.17668357 0.8315555 0.0300292 -0.0037725342 0.10793159 0.18834133 0.19934537

convs.1.bn1.weight f4 [32]
00000000: 4057 9c40 bfd4 ad40 ef75 4e40 044e 2d40
00000010: ba31 a040 43d0 a840 9723 9b40 f612 cf40
00000020: 1c4d dc40 6ccb e83f 65ad 7e40 6abd 1340
00000030: 5b92 4b40 dd06 0041 0322 0b40 8f32 bd40
00000040: b19e 5b3f 6b3a a83f 3dca 1b40 d28f 7f3f
00000050: 7a74 2640 1fef b23f 6a6a 0840 cdd7 d73f
00000060: b238 3a40 9c1b 1340 5dc9 b13f 18a9 d13f
00000070: 3552 bc3f dac5 8b40 2389 803f e03f dc3e
4.8856506 5.43222 3.225948 2.7078867 5.00607 5.2754226 4.8480945 6.4710646
6.884413 1.818708 3.9793332 2.308436 3.1808078 8.001676 2.173951 5.9124217
0.8578902 1.3142828 2.4342186 0.9982883 2.6008592 1.3979224 2.131495 1.6862732
2.9097104 2.2985601 1.3889576 1.6379728 1.4712588 4.367902 1.0041851 0.43017483

convs.1.bn1.bias f4 [32]
00000000: 1cb0 07bc 2716 88bf 35c9 69be 80e3 ff3e
00000010: eb2b 8dbf 3f41 3cbf ebd8 39bf 2cc6 763d
00000020: 06b0 bb3e d5a3 71bd ab69 c8bc 9b42 f7be
00000030: 7f87 383f 9ca3 fc3e bdba 86bf 3274 2d3f
00000040: 19e3 b7bd 3a5b 73bf c9b5 d83e f773 bc3e
00000050: 497d d0bf e538 09c0 e974 a0be b102 18bf
00000060: b848 80bf 0e34 9abf a27a 6cbd fa17 e6bf
00000070: 8b26 7a3e 46c3 d5bf 6962 87bf 22fc 023f
-0.008281734 -1.063176 -0.2283066 0.49978256 -1.1029028 -0.7353706 -0.72596616 0.060247585
0.36657733 -0.058994133 -0.024464449 -0.48293003 0.7208175 0.49343574 -1.0525738 0.67755425
-0.08978862 -0.95061076 0.4232619 0.36807224 -1.6288234 -2.1440976 -0.31339195 -0.59379107
-1.0022192 -1.2047136 -0.05773414 -1.7976067 0.24428765 -1.6700218 -1.0576907 0.51165974

convs.1.bn1.running_mean f4 [32]
00000000: 673a 18c1 6a66 e841 10a0 ac40 c3d9 e3c1
00000010: 03fa f5c0 03c9 25c1 47ae 6bc2 8f72 c241
00000020: 060c cc40 54a0 a2c0 6640 eac0 d20a 0dc2
00000030: 664f 6140 592c f9c0 166f bbc0 d7cb f2c1
00000040: 0497 9fc1 5123 2bc0 d06b 81c1 4bc2 0cc1
00000050: 6f9e 95c1 a009 db40 922e 4fc2 316e 0140
00000060: ae0e c141 97e4 5bc1 a284 bcc1 16a1 a1c1
00000070: 46be aac0 3678 24c1 74ec b7c1 eae5 6fc1
-9.514258 29.050007 5.394539 -28.481329 -7.686769 -10.361575 -58.920193 24.305937
6.3764677 -5.0820713 -7.320361 -35.260567 3.520471 -7.7866635 -5.8573103 -30.349531
-19.948738 -2.6740305 -16.177643 -8.797435 -18.70236 6.844925 -51.79548 2.0223505
24.132168 -13.743308 -23.564762 -20.203655 -5.3357267 -10.279348 -22.990456 -14.993631

convs.1.bn1.running_var f4 [32]
00000000: a58e 2742 481d 1942 cbc7 f841 1390 8441
00000010: a866 cf41 ac75 c741 86ad 5941 c2fb 2242
00000020: 4cda bc41 5571 3b42 7cae 1542 c88e 3442
00000030: b13c d741 dc4a e541 e942 9741 2eac 0142
00000040: e905 da41 6c3e 8b41 9450 d141 7b81 1342
00000050: b64d 1042 8bfc cf41 fc6c ee41 beb2 1942
00000060: 3505 ee41 96b8 6642 bd3b 4e42 3a22 d541
00000070: fccd 5241 1fa7 0542 e398 3442 ef6f 2e42
41.8893 38.278595 31.097555 16.570349 25.925125 24.932457 13.604864 40.745857
23.60659 46.860676 37.420395 45.139435 26.904634 28.661552 18.907671 32.418144
27.252886 17.40548 26.164345 36.876446 36.07589 25.998312 29.803215 38.424553
29.752542 57.68026 51.55834 26.641712 13.175289 33.413204 45.149303 43.60931

convs.1.bn2.weight f4 [16]
00000000: dee8 0440 0e30 b43f 063e b13f 53af 0640
00000010: 85b4 b43f 861c 313f a9f4 e63f 59a7 0f40
00000020: 3259 bc3f 3813 ea3f a85a 0240 df48 1440
00000030: 1d09 d93f e4c9 b13f 6532 c13f e719 0640
2.076713 1.4077165 1.3847053 2.104451 1.411759 0.6918415 1.8043414 2.244589
1.471472 1.8287115 2.0367832 2.3169477 1.6955906 1.3889737 1.5093504 2.095331

convs.1.bn2.bias f4 [16]
00000000: aadf 883e 4af0 b4bc e626 56bf c896 4c3e
00000010: 6533 59bf f593 873e bb2b 83bf f690 27bf
00000020: 2ea7 1b3f 3a67 b7bd dab7 5c3e d03b 22bf
00000030: 36be debd f0d7 42be 902e 96be 8551 e8bd
0.26733142 -0.022087235 -0.83653104 0.19979393 -0.84844047 0.2648007 -1.024772 -0.6545557
0.6080197 -0.08955236 0.21554509 -0.63372517 -0.108761236 -0.19027686 -0.293324 -0.113436736

convs.1.bn2.running_mean f4 [16]
00000000: 1c92 b740 a05b 5540 2f56 4041 b5da ed40
00000010: 9d6a d040 8542 213f a624 fb40 4766 9540
00000020: 582e b340 f66d 7d40 5d54 a040 7abc 4240
00000030: 9027 0541 f86e 0b41 0677 0840 de4e ab40
5.7365856 3.3337173 12.021041 7.4329476 6.5130143 0.62992126 7.8482237 4.668735
5.599407 3.9598365 5.0102983 3.0427537 8.322159 8.714592 2.1322646 5.3533773

convs.1.bn2.running_var f4 [16]
00000000: 8444 ff41 ec8b 8e40 3dbe 3c43 8fdd b841
00000010: 5b93 b841 a34c 113f fbf2 9b42 bc22 0e41
00000020: f4eb 7042 c0c7 5241 b333 7f41 d420 a641
00000030: 7d60 2042 751c 4443 f7f3 d740 8b14 a941
31.908455 4.4545803 188.74312 23.108183 23.07195 0.56757563 77.97457 8.88348
60.230423 13.173767 15.950122 20.76603 40.094227 196.11116 6.748531 21.13503

convs.2.fc_full.weight f4 [32, 56]
00000000: 302d 413f 2e8f 603f 451c 133f b333 cabe
00000010: b239 5c3f 2579 793f cb5d d9bf e1cb c4bd
00000020: 8e56 22be 01da 443f 5cc8 e4bd 9df0 24bf
00000030: a76f 893e a139 093f 0d5a e0bd 2da2 83bf
00000040: 5537 2ebd 13d6 ac3f ce42 0040 7605 1e3c
00000050: 5e41 9a3f f3b7 0040 3c56 8bbf c886 953f
00000060: 5e59 1a3f 3cf3 633e a6bc 943d aeb3 dd3e
00000070: 3089 473c c5fd 953e 3722 5cbf c002 68bf
00000080: 0ba8 cf3e 53f5 0a3e 0173 48be 2659 0ebf
00000090: d361 d6be 68d3 003f 0437 a53e ddf9 33be
000000a0: 1daa 08bf 95a9 03bf 47ef b73e fd5d e33e
000000b0: cf6b 70bc d1e4 f3be ae8c b7be feaf 5dbc
000000c0: e7f2 8bbb 076e 1d3f cf73 973f cba1 15c0
000000d0: bcfa 59bf e0d0 a43f 7c34 9f3f 4b03 903f
000000e0: 1921 d53e c9b9 adbe 47ab f5be 5a3b 3cbf
000000f0: f4fc 5cbf c867 023f 6c07 c53d 0b60 e33e
00000100: edc2 893e eb9e 563f 0cc6 9c3e ff12 d8be
00000110: 0ac9 cebe 2d7d 2d3f 1571 8b3f 109f c9be
00000120: b2ea e9be c657 473e 9748 d4bf a38a dbbf
00000130: 8242 253d f269 edbf d953 32bf 7967 a2be
00000140: ff9e fabe 09a6 a03d fe3f c13f 1569 c23e
00000150: 7290 ac3f 0e3c 06be a4e7 cc3e 4c59 4abf
00000160: ea4b c93e 12ee 1d3f 3d80 0ebe 388c 19bf
00000170: ca00 f9be eac7 fc3e 1abd 423f 62cf 51be
00000180: 7e40 fdbe 9900 1abf f864 053f 0d5c 633f
00000190: 9e15 22be d727 f2be ab0b fabe 5b80 073f
000001a0: b28d 1b3f 8884 1cbf fd0d b1bf 0d95 c6be
000001b0: 967f 5dbe 40ee f3be cfa8 1bbf 6917 2abf
000001c0: 947e a33e 7886 2a3f 5314 04bf 4290 1bbf
000001d0: eeb9 63bf a8dd 8e3d c00b 083e ae2d 00bf
000001e0: f545 893f 7c3c 89bf 8eb3 1abf 877c 0e3f
000001f0: 8a3b 71bf a0f2 e7be 8f4c f0bd 7417 0fbd
00000200: 4a66 893e ee49 05bf 9398 cbbf d457 183f
00000210: 80be 42be 59cb d23e 77f5 f03e 0425 41bd
00000220: ba36 dbbf 4406 e03f 5361 33be 4fb4 663f
00000230: c31e f9be 704d ffbe 71b0 bf3f 9ff5 433f
00000240: b9a3 0d3f 0408 f23e 44c3 a4bf ef18 9ebf
00000250: d351 7abf 4da2 0f3f ac8c df3e 3c78 9ebf
00000260: 58d0 91bf 7f13 84bf f537 303f 4477 ba3e
00000270: ba6e 98bf 8d36 88bf ea49 60bf 967f 043f
00000280: fae5 10bf a15c 88bf e15d acbf a010 9ebf
00000290: 1d85 d1bf 8467 1b3e e57f 313f d7b3 583f
000002a0: 948c 3e3e 1575 9cbe d977 893d bd5d 873f
000002b0: 2120 983e a8bd fdbe 6482 1e3e 07bf e2be
000002c0: 01dc a93e 24b2 0f3e ac9d 8fbf 9afd 043e
000002d0: bde6 453e 8588 2dc0 845b 773f 2dc5 33bf
000002e0: 9b5a 493e 685a a63e f930 fd3d 107a 16be
000002f0: b2a7 233f bcdc 88be a385 04be 931d 03bf
00000300: 2775 6a3f 7c72 49bf 8621 c33e 71bb b83e
00000310: aef9 f43e 0b05 a3bf 7a69 813e 83a3 55be
00000320: 5519 a63f 35b1 e53f 79f1 2840 9405 083e
00000330: e994 d0be ecb7 903f 9ef8 d73f 6c53 2b40
00000340: 1e22 3c3e 1030 b7be 51ec 833f 6626 d33f
00000350: 532f 2a40 f75c 0f3d c4d9 c3be 359b 593d
00000360: 53c9 42be 7a44 e3bd 3269 5cbe 281e b1bf
00000370: 4c7d 32bf c5f1 da3f 31f2 0640 f713 ce3f
00000380: b8b7 b3bd 5028 b9be 22d1 88be 9bda 0d3f
00000390: 5bfe 18c0 aa1f 00c0 5852 3fbf 6a1f be3e
000003a0: 67e7 60bf 3df9 91bf 6e41 d9bf b9c6 a43e
000003b0: 30cd 29bf 5e09 43bf f64f bd3f e3fd 37be
000003c0: ce41 1e3f e27e 18bf 89ec 783f 58bb 5cbd
000003d0: ea98 a93d 2bac b7bf 4de3 043c 82b0 87be
000003e0: db21 90bf 5839 1b3f 9349 d93e 780e 34be
000003f0: 707d 453f 5896 4ebb aa1f bb3f d44d e9be
0.75459576 0.87718475 0.5746501 -0.39492568 0.86025536 0.97450477 -1.6981748 -0.09609199
-0.1585333 0.7689515 -0.11171028 -0.64429647 0.26842996 0.5360356 -0.10954676 -1.0283867
-0.042533237 1.350283 2.0040774 0.009644857 1.2051198 2.0112274 -1.0885692 1.1681757
0.60292614 0.22260755 0.07262544 0.43301147 0.012178704 0.29295173 -0.8598971 -0.90629196
0.40557894 0.13570146 -0.1957512 -0.5560478 -0.4187151 0.5032258 0.32268536 -0.17575784
-0.5338457 -0.51430637 0.35924742 0.44407645 -0.014674141 -0.4763551 -0.35849518 -0.013530729
-0.0042708996 0.61496013 1.1832217 -2.338 -0.85148215 1.2876244 1.2437892 1.1251005
0.41626814 -0.33930805 -0.47982237 -0.73528063 -0.86323476 0.5093961 0.09620556 0.44409212
0.2690653 0.8383624 0.30619848 -0.42201993 -0.40387756 0.6776913 1.0893885 -0.39379168
-0.4568687 0.19467077 -1.6584653 -1.7151684 0.04034663 -1.8547957 -0.6965919 -0.31719568
-0.4894943 0.07844169 1.5097654 0.37970796 1.3481581 -0.13108847 0.40020478 -0.79042506
0.3931573 0.6169139 -0.13916107 -0.5997958 -0.48633415 0.49371272 0.76069796 -0.20489267
-0.49463266 -0.6015716 0.5210719 0.88812333 -0.15828559 -0.4729602 -0.48837027 0.5293023
0.60763085 -0.61139727 -1.3832394 -0.38785592 -0.21630701 -0.47642708 -0.60804456 -0.6644197
0.3193251 0.66611433 -0.5159351 -0.60766995 -0.8895558 0.06975871 0.13285732 -0.500697
1.0724474 -1.0721583 -0.6043023 0.55658764 -0.94231474 -0.45302296 -0.117333524 -0.034934476
0.26835853 -0.5206593 -1.5905937 0.59509015 -0.19017982 0.41170767 0.47062275 -0.04715444
-1.7126076 1.7501912 -0.17517595 0.9011888 -0.48656282 -0.49863768 1.4975721 0.76546663
0.55327946 0.4727174 -1.287209 -1.2351359 -0.97781104 0.56107026 0.43662012 -1.2380443
-1.1391706 -1.031845 0.68835384 0.36419117 -1.1908791 -1.0641648 -0.87612784 0.5175718
-0.56600916 -1.0653268 -1.346615 -1.2348824 -1.6368748 0.15176207 0.69335777 0.84649414
0.18608314 -0.30558077 0.06712312 1.0575482 0.29712012 -0.4955876 0.15479428 -0.44286367
0.33175662 0.14032799 -1.1219993 0.12987366 0.19326301 -2.7114575 0.96624017 -0.7022274
0.1966347 0.3249085 0.123628564 -0.14695 0.6392776 -0.26730907 -0.12941603 -0.51217
0.9158501 -0.78690314 0.38111514 0.36080506 0.4784674 -1.2735914 0.25275785 -0.20863156
1.2976481 1.7944704 2.6397383 0.13283378 -0.4073861 1.1306129 1.6872747 2.6769667
0.1837239 -0.35778856 1.0306493 1.6496093 2.6591384 0.035000768 -0.3825208 0.053126533
-0.19022112 -0.11097045 -0.21524504 -1.3837328 -0.6972244 1.7105032 2.1085322 1.6099843
-0.08775276 -0.36163568 -0.26722056 0.5541169 -2.3905246 -2.0019326 -0.7473502 0.37133342
-0.8785309 -1.1404186 -1.6973093 0.32182863 -0.66328716 -0.7618617 1.4790027 -0.17967944
0.6181916 -0.5956861 0.97235924 -0.053889602 0.08281119 -1.4349416 0.008110833 -0.26501852
-1.1260332 0.60634375 0.42438945 -0.17583644 0.7714453 -0.0031522717 1.4619038 -0.4556719

convs.2.fc_full.bias f4 [32]
00000000: db54 ea3d 5804 7bbc 0118 0abf 55df 2ebc
00000010: 6f0d 4f3d 58cb 0f3e 8548 01bd d0dc 65bd
00000020: 772a 7d3c dbee 25bd 9fc6 20bd 927a bcbd
00000030: 58df a0bd 4d1c 223e fd72 683d 2980 fdbd
00000040: 9811 46bb d403 113e ae6d 2abf cc7c 473d
00000050: ae17 e93d 3f1f 8fbd 5e11 293e ffc3 d7bd
00000060: 37a4 41be ad85 96bd b62f 11bd 9aff 083e
00000070: 8ff8 8bbc 8281 813e d9f3 e63d dd23 03be
0.11441966 -0.01532086 -0.5394288 -0.010673364 0.05054992 0.14042413 -0.0315633 -0.056118786
0.015452019 -0.040510993 -0.03925192 -0.09203066 -0.078550994 0.15831108 0.056750286 -0.1237796
-0.003022289 0.14161617 -0.6657361 0.048703 0.1138147 -0.069883816 0.16510531 -0.1053543
-0.18910299 -0.073497154 -0.03544589 0.13378754 -0.017086295 0.2529412 0.11276979 -0.1280665

convs.2.bn1.weight f4 [32]
00000000: 284b a73f 3414 fa3f d2eb 9340 bfff 85be
00000010: 544a f43f 4efa 9c40 c42e 5640 d0d5 3540
00000020: 8f56 c1be 282f 4a40 3de6 2d40 4a9c f740
00000030: 3e2f 9c40 429c ba40 b223 993f 09a9 b340
00000040: 6225 4b3f e6c7 de3f cc81 9340 9ee2 0e3f
00000050: 665e e83f 950c 9dbe bdcc 6540 be3e 603f
00000060: cebf 4f3e d483 953f 7cdb 8b3f 2fe9 9d3f
00000070: 4259 453f 5943 0140 8196 0f40 ef6a 983f
1.3069811 1.9537416 4.6225367 -0.2617168 1.9085183 4.905555 3.3466043 2.841175
-0.3776135 3.1591282 2.7171776 7.7378283 4.880767 5.8315744 1.1964018 5.614384
0.79353917 1.7404754 4.6095943 0.5581454 1.8153808 -0.30673662 3.5906212 0.87595737
0.20288011 1.1680856 1.0926356 1.2336787 0.7708932 2.0197356 2.243561 1.1907634

convs.2.bn1.bias f4 [32]
00000000: 557c 9bbe bbe7 46bf 45ac bfbf 07d3 283f
00000010: b7e2 dfbf 217d 9c3f 5258 f0bf 1a8a f1bf
00000020: 562c 153d 5765 31bf 2dde ebbd 8a41 943f
00000030: 75f9 24bf 31f8 1abf e981 92bf bdb7 753f
00000040: 3309 673e f792 e3bf 3ed9 fabf 4bfa 8e3b
00000050: d691 f9bf 40e6 e43f 7c53 19bf c51d 9abf
00000060: 56bf 39bc d8c6 363d 5182 7cbe ac64 febb
00000070: 2caa cabc 27d4 a0be f6ca debe 7414 49bf
-0.30368295 -0.7769734 -1.4974447 0.65947 -1.7491063 1.2225686 -1.8776953 -1.887027
0.036419235 -0.6929526 -0.11516986 1.1582501 -0.6444314 -0.6053496 -1.1445895 0.9598349
0.22562103 -1.7779225 -1.9597547 0.0043633333 -1.9497631 1.7882767 -0.5989301 -1.2040335
-0.011337122 0.044623226 -0.24659087 -0.007763466 -0.024739347 -0.3141186 -0.43514222 -0.78546834

convs.2.bn1.running_mean f4 [32]
00000000: 6472 1e41 4e41 f4be 0cdb 49c1 7c22 3141
00000010: 769f bcc1 abb4 8dc1 6046 64c1 4e82 cbc0
00000020: 3ab1 5441 b77d c8c1 0bae c2c0 c149 01c2
00000030: 25e6 d440 a217 9041 e4c5 f0c1 6102 dabf
00000040: bc2a 6bc0 45b1 c7c1 1631 0ec2 5ad8 8740
00000050: eeb1 5bc1 4e5e acc1 8afa 10c2 d87c c5c0
00000060: 39a2 e2bf 17dc b7c1 8cd9 7fc1 3303 ffc1
00000070: 2e7a 1ac1 4ebe 9641 df75 70c1 cbe6 1fc1
9.902927 -0.47706074 -12.615978 11.070919 -23.577862 -17.713217 -14.267181 -6.3596563
13.293268 -25.061384 -6.0837455 -32.322025 6.653094 18.01154 -30.096626 -1.7031976
-3.6744833 -24.961557 -35.547935 4.24516 -13.73094 -21.546047 -36.244667 -6.1714897
-1.7705756 -22.982466 -15.990612 -31.876562 -9.654829 18.842922 -15.028777 -9.993846

convs.2.bn1.running_var f4 [32]
00000000: 35e9 a442 0705 1b43 dbc3 9d42 33af 8742
00000010: 5930 1543 fa30 ca42 6b22 9f42 2c2a c641
00000020: fc98 4442 51da 0842 33a1 6f42 6dbc 4542
00000030: fe70 8c42 d95b bf42 1f75 9242 3452 c541
00000040: a2e4 d042 f24a 6042 37b9 4542 488d 6b43
00000050: 2611 c542 a3a1 eb41 4b9f 1d43 141e 2443
00000060: 8506 9e42 74d6 0243 d132 fa42 969d d041
00000070: 1e84 a042 1b9a 6642 14e2 d642 c3ed 7142
82.45548 155.01964 78.88253 67.842186 149.18886 101.09566 79.56722 24.770592
49.1494 34.2132 59.90742 49.43401 70.22069 95.67939 73.22875 24.665138
104.44655 56.07319 49.430874 235.55188 98.53349 29.453924 157.62224 164.1175
79.01273 130.8377 125.09925 26.076946 80.25804 57.650494 107.44156 60.48219

convs.2.bn2.weight f4 [16]
00000000: def5 8f3f 2dbc f63f 9704 bc3f a298 e13f
00000010: da92 da3f 481a 1740 4d92 2440 f4a0 c13f
00000020: 82ee fe3f 78aa bf3f 6347 bd3f 38cd c13f
00000030: 0971 883f 166c f63f c6f5 9b3f 57a5 8d3f
1.1246908 1.9276177 1.4688901 1.7624705 1.7076066 2.360979 2.5714295 1.5127244
1.9916537 1.4973898 1.478741 1.5140753 1.0659496 1.9251735 1.2184379 1.1066083

convs.2.bn2.bias f4 [16]
00000000: e4a9 f73d ce9e 0bbf 1867 56bf 7206 003d
00000010: 1fe3 95bf ad33 60bd 782e 6bbf 8db7 61bf
00000020: 2502 203d 7778 b0be 6ce2 64be 9a66 30bf
00000030: 340c 15bf b30e efbe f689 44bf f862 7abe
0.12092951 -0.5453919 -0.8375106 0.031256147 -1.1709937 -0.054736782 -0.9186778 -0.881707
0.039064545 -0.34466907 -0.22351998 -0.6890656 -0.58221745 -0.46690902 -0.7677301 -0.24451816

convs.2.bn2.running_mean f4 [16]
00000000: b5af 9440 8e3b 9c3f 6862 3041 b7b1 b340
00000010: cf06 843f 598e 5541 96a0 f540 af1b 863f
00000020: c1fe 8340 0ee0 a340 7732 c440 a39e 5740
00000030: 3c06 8240 a692 c740 ad9d 9a40 21d7 6740
4.6464486 1.2205675 11.024025 5.6154437 1.0314578 13.347253 7.675853 1.0477198
4.124848 5.1211004 6.1311603 3.3690574 4.063261 6.2366514 4.8317475 3.6225054

convs.2.bn2.running_var f4 [16]
00000000: 34e9 2841 9921 5c40 80d3 8843 57f6 2840
00000010: 9e0b 8e40 6581 2942 3a03 1543 e0c2 183f
00000020: 82d4 2c3d 53f7 8241 2154 0442 97a4 e040
00000030: bcbf e240 a954 8942 d550 0642 45b5 1441
10.556934 3.4395506 273.65234 2.6400354 4.438918 42.37636 149.0126 0.59672356
0.04219485 16.370764 33.082157 7.0200915 7.085905 68.66535 33.578938 9.294255

convs.3.fc_full.weight f4 [32, 56]
00000000: 1dde c33f 7c13 083f 924a aabc c3a9 733e
00000010: d06a b03e c968 303f 24a7 39c0 51f6 21be
00000020: 21fa fabd 0b41 923e f5f8 c7be 4209 91bf
00000030: c5f1 7ebe f7e9 aa3f d97b 823f a394 85bf
00000040: f879 9a3e 084f 18bf 911b dd3f 18fc 163f
00000050: 44b1 e83e 13c4 b63f 47f7 2bbf 50c7 b9b7
00000060: bbca 62be 5ab5 83bf 7302 2e3f 8730 043d
00000070: 6bae 4a3f 77fd 343f 923b f23e c8ed 823e
00000080: ddbb fb3e f2b7 1f3f f43f b93f 500b 043e
00000090: 5879 7dbe 79eb 163f 609c 303f 8457 e13f
000000a0: bc42 ebbd d2a6 38be bc34 cd3e db2f 113f
000000b0: 4680 e53f 1b37 12bc ff38 91bd a497 43be
000000c0: 3a23 cbbe 5aac 8abe 1742 90be 4c32 0ac0
000000d0: 3b62 73be 2bc3 db3f 3bda be3f d82b 883f
000000e0: 7978 0fbf bbdc 543f 092b 98bf deda e13e
000000f0: d037 2a3b a460 d63f 7106 e1be 666b 99be
00000100: 96b9 b5bf 1542 d8be 8112 61bf 28ab a3bf
00000110: 3dcd 49bf d42d 8a3f 52c1 103f 9f3e 01c0
00000120: b3de d5be 0a40 633f d05c a23f 3e3b 02bf
00000130: 95f0 993f a639 5fbe e74d 223f a262 dc3f
00000140: 910c 88be f8f2 913e 8f44 633f 7841 103f
00000150: 4bee 5f3f 9f1f 5d3f 4448 753e 72f8 39be
00000160: 9e90 ca3e c092 fa3e b689 713f c41b 293d
00000170: dc33 503d c09b 683e c383 0d3f 32d1 3a3f
00000180: 8790 4f3c bdd0 15be f4b8 b03e 22a9 133f
00000190: caac 373f 93ec 25bd 63a7 5abe 3774 213e
000001a0: 6a71 563c 9b26 eabe 5c93 c2bf e6ed 5f3f
000001b0: 51c0 d23f 2ae5 45be 3992 5fbf 8ce8 7f3d
000001c0: f03f 273f 2413 263f 7555 20bf cf80 43be
000001d0: 2374 953e 3f1c e9be 946b a4bd aae8 edbd
000001e0: 3f30 453f 915a 913e fffa 7fbf ecc5 fe3e
000001f0: b5e0 5a3f fbcf ffbc cd12 3240 e2ff 943e
00000200: c007 cf3c 90e4 48bd b9eb a53e e42c cbbb
00000210: a508 423e 4183 a83f c8f4 073f 60a6 f3be
00000220: 8744 093f f5fd 2fbc 7360 ecbe d98b ac3e
00000230: db9c 503f e63a 3f3d 9a8e db3f 54b7 8f3e
00000240: 1208 17c0 c392 2ac0 7021 2dc0 4b30 3a3f
00000250: c2fb ad3f 4f26 0cc0 66be 1dc0 01b8 30c0
00000260: 7f2f 5b3f c680 ba3f 1972 00c0 44cb 1ac0
00000270: d384 21c0 d1e0 283f 50dc b93f 80f2 9cbf
00000280: e0f4 9cbf d5fd a5bf d10d 8dbf 1146 29c0
00000290: 3508 40c0 aa2b 69c0 cbb8 2ec0 2cbd 92bf
000002a0: 32ed 703e ddba 323f 5572 673e bdce a03e
000002b0: 2523 77be 3103 1bbe 13f1 32bf def0 403e
000002c0: 83a1 283f bbdf 80be b6b5 26c0 abc4 a4bf
000002d0: fb56 57bf 5748 a53f e935 583f edec 1bbf
000002e0: 7e26 babe c2fd 0bbf 4020 983f 88e5 9f3e
000002f0: 6d1a b93e 15dc bfbe 5034 103f 91a8 6cbe
00000300: 3b18 82be 1ecc 5dbf d5ce 4b3d 32fc 273f
00000310: 363e a23f 04ef 513f 3395 423b e046 a13f
00000320: 54ef ce3f cc5b 0340 a99a 3a40 bfe5 cebe
00000330: 7e6f 6fbf 9a56 cb3f b7f8 0440 970b 3e40
00000340: b817 0fbf 7d68 65bf ec16 d63f 1446 0040
00000350: 85af 4640 265e ddbe 534f 65bf 87fb 3a3f
00000360: c6da 123f 7f4f be3e 9059 89be cf32 d3bf
00000370: 294a 14bf ac1a fc3c 0673 a5be 3c1d 743e
00000380: d0be a43e a49b 263e c76c ac3f 5653 1ebf
00000390: 975e c43e c43d 38bf 659b 43bf 320b b23e
000003a0: 5ec0 94be aae4 10be 4c06 98bf 39ca 6e3e
000003b0: 1bf0 753e c4fd 1bbe f00a 8c3f cbd0 953f
000003c0: 0d4e b33e 0dcb bcbe 11a4 d43f 8567 f0bc
000003d0: 806b 463d a886 82bf 98a4 6fbe c920 23be
000003e0: 88bc 8bbf 4006 dabe d109 9cbe edd7 893f
000003f0: 31cc 7c3f a0a9 cfbe 95a3 fd3e e498 c73f
1.5302159 0.5315473 -0.020787511 0.23795228 0.3445649 0.6890989 -2.9008265 -0.15816619
-0.122547396 0.2856525 -0.39057127 -1.133095 -0.24896915 1.335265 1.0194045 -1.0435985
0.3017118 -0.5949559 1.7274038 0.58978415 0.45447743 1.4278587 -0.6717419 -2.214653e-05
-0.22147648 -1.0289719 0.6797249 0.03227284 0.7917239 0.70699257 0.47311074 0.25572038
0.49166766 0.62390053 1.4472642 0.1289494 -0.2475332 0.5895305 0.6898861 1.7604833
-0.11487338 -0.18032387 0.40079296 0.56713647 1.7929771 -0.008924271 -0.07090949 -0.19100815
-0.39675313 -0.2708462 -0.28175423 -2.1593199 -0.2376794 1.7168936 1.4910349 1.063838
-0.560432 0.8314931 -1.1888133 0.44112295 0.0025973208 1.6748242 -0.43950227 -0.2996475
-1.4197261 -0.42237917 -0.8791886 -1.2786608 -0.78828794 1.0795236 0.56544983 -2.019447
-0.4177147 0.8876959 1.2684574 -0.50871646 1.2026545 -0.21799335 0.6340012 1.72176
-0.26572087 0.28505683 0.8877649 0.563499 0.8747298 0.86376375 0.23953348 -0.1816118
0.3956346 0.48940086 0.94350755 0.041286245 0.050830707 0.22715664 0.5527918 0.72975457
0.012668735 -0.14630409 0.34516108 0.5767995 0.7174803 -0.040508818 -0.21352915 0.15766989
0.013088563 -0.4573258 -1.520122 0.8747238 1.646494 -0.193257 -0.87332493 0.062477633
0.65331936 0.64872956 -0.626304 -0.19092105 0.29190168 -0.45529363 -0.080283314 -0.11616643
0.7702674 0.2838941 -0.99992365 0.49760377 0.85499126 -0.031227103 2.7823975 0.29101473
0.02527225 -0.0490461 0.32406405 -0.0062004197 0.1894861 1.3165056 0.5310788 -0.47587872
0.5362019 -0.0107417 -0.46167335 0.33700445 0.8148934 0.04668703 1.7152894 0.28069556
-2.3598676 -2.6652076 -2.7051659 0.7272994 1.3592455 -2.1898382 -2.464746 -2.7612307
0.8561935 1.4570549 -2.006964 -2.4186563 -2.523732 0.6596804 1.4520359 -1.2261505
-1.226223 -1.2968088 -1.1019841 -2.6449015 -3.000501 -3.64329 -2.7300289 -1.1463981
0.23527983 0.6981638 0.22602208 0.3140773 -0.241345 -0.15137936 -0.698991 0.18841884
0.6587145 -0.25170693 -2.6048408 -1.2872518 -0.84117097 1.2912701 0.8445726 -0.60908395
-0.36357492 -0.5468408 1.1884842 0.31229806 0.36152974 -0.37472597 0.5632982 -0.23111178
-0.2540911 -0.86639583 0.049757797 0.65619195 1.2675235 0.82005334 0.002969098 1.2599754
1.6166787 2.0524778 2.9156897 -0.40409657 -0.935295 1.5885804 2.0776803 2.9694574
-0.55895567 -0.8961256 1.6725745 2.0042772 3.1044629 -0.43235892 -0.89574164 0.7304005
0.5736507 0.37170026 -0.26826143 -1.649988 -0.5792566 0.030774437 -0.32314318 0.23839277
0.32176828 0.1627031 1.3470696 -0.6184591 0.38353416 -0.71969247 -0.7640899 0.34774166
-0.29053015 -0.14149728 -1.1876922 0.2331933 0.24017374 -0.15233523 1.0940838 1.1704344
0.35020486 -0.36873665 1.6612569 -0.029346237 0.048442364 -1.0197344 -0.23402631 -0.15930475
-1.091691 -0.42582893 -0.3047624 1.076902 0.9874907 -0.405591 0.49538866 1.5593534

convs.3.fc_full.bias f4 [32]
00000000: f933 a33d bab1 93bd 9867 9cbd c826 d13d
00000010: 4768 ed3d fd7b 0dbe dd9b 833d ff8d a3bb
00000020: 1702 9b3d 2077 9d3d aea5 db3b da8d d6bd
00000030: 3ab6 05bd ef80 dd3d a182 15be dbc9 a83e
00000040: 8c25 5abc b13b 463e c483 283e 67a8 1bbc
00000050: 8c22 11bd 0844 953d 9eca ce3d 6929 c2bd
00000060: f0c2 1d3c 04fd d8bd 9a22 1abb bb34 28bd
00000070: 19f8 ad3e 05ce 62bd d2b5 30ba c02c 70be
0.07968897 -0.07211633 -0.076369464 0.10212475 0.11592155 -0.13816829 0.06426213 -0.0049912925
0.07568758 0.07688737 0.0067031 -0.10476275 -0.032644488 0.10815608 -0.14600612 0.32966504
-0.013314616 0.19358708 0.16456515 -0.0095005995 -0.035433337 0.072883666 0.1009724 -0.094805546
0.009628996 -0.10595134 -0.002351916 -0.041065913 0.33978346 -0.055372257 -0.00067409605 -0.23454571

convs.3.bn1.weight f4 [32]
00000000: 39a6 c43f 7a65 3740 1f66 a43f d8f5 5d3f
00000010: a4f9 c53f 49b8 1e40 50b2 a340 c1dd b33f
00000020: a768 63be 4e6b 1740 8ae0 1440 20c6 9540
00000030: 75dc 8140 816d 3a3f 3528 0a40 631d d340
00000040: 138e 0b3f c1c5 2940 e629 a13f 16b6 ac3e
00000050: a600 f93e 5668 c03f 98f5 c03f 4ae6 e73f
00000060: c14d 563e 5eac ba3f 924b 833f 0732 833f
00000070: 1b47 4840 a8fe 6840 d2cf 4140 2a71 723f
1.5363227 2.8655686 1.2843665 0.8670325 1.5466809 2.4799979 5.1155167 1.4052049
-0.2220789 2.3659244 2.3262048 4.680435 4.0581613 0.7282334 2.158704 6.5973372
0.54513663 2.652695 1.2590911 0.3373267 0.48633307 1.5031841 1.5074949 1.8117154
0.20928098 1.4583852 1.0257437 1.0249642 3.12934 3.640543 3.0283093 0.94703925

convs.3.bn1.bias f4 [32]
00000000: 5639 62be ac54 c6bd b461 c2bf 9728 943e
00000010: 8475 a6be 47d3 88bf 5c66 9a3e c838 80c0
00000020: 4bc8 073f c163 4bbf d000 00bf 6477 66bf
00000030: 7667 bc3c e749 76bf cda6 a5bf 589d 25be
00000040: 0460 053f 8b73 f23d 327a 2c3f e8a8 3f3f
00000050: e3fe 5f3f 6664 eebf 4eb7 80be 08c0 983f
00000060: 92ba fe3e 0649 843e 7208 103f a20b 1ebf
00000070: bd07 fcbf 89b7 9dbf fd34 223e da3e eb3e
-0.22092184 -0.09684119 -1.5186067 0.28937218 -0.32511532 -1.0689477 0.3015622 -4.0069313
0.5304 -0.7944909 -0.5000124 -0.90025926 0.022998553 -0.96206516 -1.2941529 -0.16173303
0.52099633 0.11838444 0.67373955 0.74867105 0.874983 -1.8624389 -0.2513985 1.1933603
0.49751717 0.25836962 0.56262887 -0.617365 -1.9689862 -1.2321635 0.15840526 0.4594639

convs.3.bn1.running_mean f4 [32]
00000000: 8587 8241 0056 5e40 cd51 bec0 ba01 0441
00000010: cc0d 3bc0 5527 0fc1 e18a e1c1 5712 5041
00000020: 66dc 83c1 cb73 2641 da94 b041 d17d 7941
00000030: 2801 86c1 2c1b 0441 922e 3442 1d52 5c41
00000040: e637 5fc0 5331 40c1 3e36 e7c1 a1b3 23c1
00000050: 6dc0 91c1 6d0c 8fc1 ab78 e3c1 13de 57c2
00000060: 7f16 76c1 1b1d b4c0 6d82 67c1 07f9 4ec1
00000070: 7923 2e41 3eb1 ad41 6774 94c0 8fac 8bc1
16.316172 3.473999 -5.9474854 8.250422 -2.922717 -8.947103 -28.192812 13.0044775
-16.482616 10.40327 22.072681 15.593217 -16.750565 8.256634 45.04548 13.770047
-3.4877868 -12.012042 -28.901485 -10.231355 -18.218958 -17.881067 -28.43392 -53.96687
-15.380492 -5.628553 -14.469342 -12.935798 10.88366 21.711544 -4.6392093 -17.459257

convs.3.bn1.running_var f4 [32]
00000000: 7ab5 b542 5f30 5b42 eed8 f442 a817 7743
00000010: d384 3c43 df65 2943 8ed5 3942 fbcd 9342
00000020: bf85 cf42 5d69 2d42 0943 5642 7eef 0b42
00000030: 4838 0b43 ef4b 2c43 c16a 9642 e0b0 6442
00000040: 043e 0343 beba 9242 3d43 7343 8a55 4d43
00000050: 1223 3643 b24f 9242 7da8 8542 e32a ec42
00000060: 4fb5 c342 4e37 d942 1ad1 1f43 3199 5942
00000070: c2ea cc42 8b1a a342 3ba1 6843 879b 9242
90.85445 54.797237 122.42369 247.0924 188.51884 169.39793 46.45855 73.902306
103.76122 43.352894 53.565464 34.98388 139.21985 172.29662 75.2085 57.17273
131.24225 73.36473 243.26265 205.33414 182.137 73.155655 66.82908 118.08376
97.85412 108.60802 159.8168 54.3996 102.45851 81.55184 232.6298 73.303764

convs.3.bn2.weight f4 [16]
00000000: 6a6c 4e3f 08bf 4540 951c 863f 9939 0340
00000010: e006 893f 346b 7940 1512 f13f 590f b43f
00000020: a8ee 0840 9b1b c13f da1f ec3f 8783 aa3f
00000030: ceda 0f40 fee8 b23f 7286 df3f 6591 0a40
0.80634177 3.0897846 1.0477473 2.0503905 1.0705223 3.8971682 1.8833643 1.4067184
2.1395664 1.508655 1.844722 1.3321389 2.2477298 1.3977354 1.7462904 2.1651242
