cgcnndefect/defect_transfer_all/model_best.pth.tar (torch, 208687 bytes, 121 tensors)

embedding.weight f4 [16, 92]
0	0xbcff9597	-0.03119926
1	0x3e2a0728	0.16604292
2	0xbf0f9c4e	-0.5609788
3	0xbf40dc06	-0.7533573
4	0xbe1733a3	-0.14765792
5	0xbf2053cf	-0.6262788
6	0xbe1cf0c7	-0.15326224
7	0x3f2dee70	0.6794195
8	0x3e41b61d	0.18917127
9	0x3ecfe2ea	0.4060281
10	0x3f896073	1.0732559
11	0xbeb66ae1	-0.35628417
12	0xbfe0dbd5	-1.7567087
13	0xbe6b5342	-0.22980979
14	0xbe418329	-0.1889769
15	0x3ed1e8a9	0.40997818
16	0x3e8aa0d9	0.27075842
17	0x3df4d991	0.1195556
18	0x3fc69dd9	1.5516921
19	0x3ccaec4b	0.024770876
20	0xbe36e912	-0.17862347
21	0xbe97b8b9	-0.2963312
22	0x3f907b39	1.1287605
23	0x3ee215c9	0.44157246
24	0x3f0d0d9f	0.5509891
25	0x3f642c0b	0.89129704
26	0x3e860ce9	0.26181725
27	0x3e95df6c	0.2927202
28	0xbf07256e	-0.5279149
29	0xbefc5b79	-0.49288538
30	0xbf00c32a	-0.50297797
31	0x3f1fed16	0.6247114
32	0x3fd831ab	1.6890157
33	0x3f7cec15	0.9879773
34	0xbe38a798	-0.18032682
35	0xbea386d7	-0.31938812
36	0x3c189152	0.009311991
37	0xbe7a4adc	-0.24442619
38	0x3f92e90a	1.1477368
39	0xbe8d599a	-0.27607423
40	0x3f807ecb	1.0038694
41	0x3f1ee3e5	0.6206649
42	0xbf19ce7c	-0.60080695
43	0xbf286755	-0.6578267
44	0x3eb204d6	0.34769315
45	0x3e1d9ab6	0.15391049
46	0x3e341d8c	0.17589396
47	0xbdd3e199	-0.10345764
48	0xbed0f7da	-0.40814096
49	0xbe338453	-0.17530946
50	0x3e92cc67	0.28671572
51	0x3e9a6547	0.30155393
52	0x3e46f245	0.19428356
53	0x3f36487d	0.7120436
54	0x3ee58d3c	0.44834316
55	0xbe828994	-0.2549559
56	0xbea1fa4b	-0.3163627
57	0xbeab6b20	-0.33480167
58	0x3dc2e11f	0.09515595
59	0x3e67922b	0.22614352
60	0x3e8ff25a	0.28114587
61	0xbe8db63a	-0.2767809
62	0x3da7b977	0.081896715
63	0x3f0b2ccb	0.54365224
64	0x3e90609a	0.281987
65	0xbe708ad9	-0.23490466
66	0x3b82708a	0.003980701
67	0xbf4483c5	-0.76763564
68	0xbf743ca7	-0.9540505
69	0x3dcd04fb	0.100107156
70	0x3fb7b519	1.4352142
71	0xbd1c7f0f	-0.03820711
72	0x3d03f61f	0.03221714
73	0xbc8be20b	-0.01707556
74	0x3e511aba	0.20420352
75	0x3ea915ba	0.3302439
76	0x3ca9f92d	0.0207487
77	0xbd09e060	-0.033661246
78	0xbd5ac2fa	-0.0534086
79	0x3ea3c070	0.31982756
80	0xbea57c78	-0.32321525
81	0x3d7ed396	0.062213503
82	0xbe8ec292	-0.2788282
83	0xbe41dcde	-0.1893191
84	0xbf84936c	-1.035749
85	0xbe7b719b	-0.24555056
86	0xbdb41e62	-0.087948576
87	0x3f06388c	0.52430034
88	0x3df25708	0.11833006
89	0x3f468632	0.77548516
90	0x3f2de137	0.67921776
91	0x3f081d3a	0.53169596
92	0x3e763ccc	0.2404663
93	0xbe1a7e76	-0.15087304
94	0xbed9547b	-0.42447266
95	0xbfde3381	-1.7359468
96	0x3ed51598	0.41618037
97	0x3f014fd8	0.50512457
98	0x3f0a76f2	0.54087746
99	0x3fac5e22	1.3466227
100	0x3fd008ef	1.6252726
101	0x3f689124	0.90846467
102	0x3f6365f8	0.88827467
103	0xbe979683	-0.2960702
104	0xbf5e6272	-0.86868966
105	0x3e09719b	0.13422243
106	0xbf27735d	-0.65410405
107	0xbef6b634	-0.48185885
108	0xbead64b1	-0.33865884
109	0xbebf0c22	-0.37313944
110	0x3f2db112	0.6784831
111	0xbf79e6bb	-0.9761769
112	0x3f4ee70a	0.8082129
113	0xbea0b619	-0.3138893
114	0x3e0592e0	0.1304431
115	0xbb673dc2	-0.0035284613
116	0xbee7ca2d	-0.45271435
117	0xbfc5e7cb	-1.5461363
118	0x3dba9c38	0.091118276
119	0x3ebdec44	0.3709432
120	0x3cbc9556	0.023020428
121	0xbeb73511	-0.35782674
122	0xbee532ce	-0.44765323
123	0xbee78f74	-0.45226634
124	0xbe735c0d	-0.23765583
125	0xbea22956	-0.31672162
126	0x3e983775	0.2972981
127	0x3e181882	0.14853099
128	0xbf898991	-1.0745107
129	0x3eb50647	0.35356352
130	0x3f71e524	0.94490266
131	0x3e0cf3bb	0.13764851
132	0xbf39b3d1	-0.72540003
133	0xbedefe5c	-0.43553436
134	0xbe8a459d	-0.27006236
135	0xbe73a840	-0.23794651
136	0x3e8c9ab7	0.27461788
137	0xbd831da3	-0.06402137
138	0xbe2cce8c	-0.16875666
139	0x3ce023a6	0.027360748
140	0xbe2c6c25	-0.16838129
141	0xbeadc18d	-0.3393673
142	0xbe12ab9e	-0.1432328
143	0xbe7564d0	-0.23964238
144	0x3e0677ba	0.1313161
145	0x3fc463f1	1.5343
146	0x3f68c190	0.9092035
147	0xbd2a9594	-0.041646555
148	0xbea4af6d	-0.3216509
149	0x3e644272	0.22290972
150	0xbcb1750f	-0.021662263
151	0x3ec75a7d	0.38936225
152	0xbe79399e	-0.24338385
153	0x3d894746	0.067030475
154	0x3d02c593	0.031926703
155	0xbe61199c	-0.21982425
156	0xbdd6e616	-0.10493104
157	0x3df11e60	0.11773372
158	0xbcb48f6c	-0.022041045
159	0x3f316bbe	0.69305027
160	0xbf880e01	-1.0629274
161	0xbca7b100	-0.020470142
162	0x3ed66558	0.41874194
163	0xbdb85c35	-0.09001962
164	0x3e437e77	0.19091211
165	0x3e1dcd03	0.15410237
166	0x3e39e96d	0.18155451
167	0x3e325f21	0.17419101
168	0xbdc02dea	-0.093837574
169	0xbecaaa26	-0.39582938
170	0xbe3743b8	-0.17896926
171	0xbfc11ec8	-1.5087519
172	0x3fc5bf63	1.5449032
173	0x3e507974	0.2035883
174	0x3e8c5251	0.27406552
175	0x3f99c5c3	1.2013477
176	0xbdd3bd0d	-0.10338793
177	0xbe4d806c	-0.2006852
178	0x3d8ca755	0.068678536
179	0xba6cd753	-0.00090347714
180	0x3eebce4e	0.46055835
181	0xbef6876b	-0.4815019
182	0x3e30e9d3	0.17276697
183	0x3e3ff177	0.18744455
184	0x3ebff460	0.3749113
185	0xbe49d72b	-0.19710986
186	0xbd252e55	-0.04032739
187	0x3f3aa0b2	0.7290145
188	0x3f1aa6e5	0.6041091
189	0x3f4da7ee	0.80334365
190	0x40042959	2.0650237
191	0x3f8a7837	1.0817937
192	0xbd126353	-0.035739254
193	0xbf464720	-0.7745228
194	0xbf93695b	-1.1516527
195	0xbfb54977	-1.4163045
196	0xbf6ea813	-0.9322521
197	0xbf47da79	-0.7806774
198	0x3ebfb09c	0.3743943
199	0xbe4f19a8	-0.20224631
200	0x3d5be1fe	0.05368232
201	0x3e839b80	0.25704575
202	0xc0092389	-2.142794
203	0xbbcaea58	-0.0061924867
204	0xbdb6272f	-0.088941924
205	0x3f4acbc1	0.79217154
206	0x3e7853f5	0.24250777
207	0x3c05462e	0.008134408
208	0xbf2aadd0	-0.66671467
209	0x3ecd8d6c	0.4014696
210	0x3e105a47	0.14096938
211	0x3f5c76e2	0.861189
212	0x3e29b01a	0.16571084
213	0x3ecf7fdf	0.40527245
214	0xbe397dd5	-0.18114407
215	0x3f0be274	0.54642415
216	0x3fdc6f4a	1.7221463
217	0xbf44ce35	-0.76877147
218	0xbe2a6a4e	-0.16642115
219	0x3e0f81f0	0.14014411
220	0x3d6d2350	0.057895005
221	0xbcf27f15	-0.029601613
222	0x3f2bfcbc	0.6718252
223	0x3f3e607f	0.7436599
224	0xbefe26c3	-0.49638948
225	0xbe7c4272	-0.24634722
226	0x3ead1222	0.33802897
227	0xbeb1394d	-0.3461403
228	0xbe819e34	-0.25316012
229	0xbe23d43a	-0.15998927
230	0xbe6e601d	-0.23278852
231	0x3eb32ff2	0.34997517
232	0xbed9addf	-0.42515466
233	0x3f628a10	0.88491917
234	0x3e597b96	0.2123855
235	0x3ed976fe	0.42473596
236	0x3f205821	0.62634474
237	0xbecdbbaf	-0.40182254
238	0xbf52c7be	-0.8233603
239	0xbf44a98b	-0.768212
240	0xbfa988bb	-1.3244852
241	0xbf8f49ec	-1.1194434
242	0x3ddd8f2a	0.10818322
243	0xbdb20c3b	-0.08693739
244	0x3daef477	0.08542722
245	0xbe565717	-0.2093166
246	0x3f4e1c8b	0.80512303
247	0x3e32a8ea	0.17447248
248	0xbe99cc30	-0.30038595
249	0x3e53ff22	0.20702794
250	0xbd60e8bb	-0.05490945
251	0xbe2ecba9	-0.17069878
252	0xbcc843ef	-0.024446456
253	0xbcf9a9ae	-0.030476417
254	0x3e385afd	0.1800346
255	0xbd1def60	-0.038558364

embedding.bias f4 [16]
0	0x3ef01fc7	0.46899244
1	0xbef6b257	-0.48182938
2	0x3e8c877b	0.27447113
3	0xba6651db	-0.0008786001
4	0xbda73f65	-0.081663884
5	0xbecf16d2	-0.40447098
6	0x3f512663	0.816992
7	0x3ed1917b	0.40931305
8	0x3e390a04	0.18070227
9	0x3e8a9fc6	0.27075022
10	0x3eecebf1	0.4627376
11	0xbe2757cd	-0.16342087
12	0x3e62fcd6	0.22166762
13	0xbdfbdee3	-0.12298372
14	0xbee765a2	-0.45194727
15	0x3eba9c1a	0.3644722

convs.0.fc_full.weight f4 [32, 56]
0	0x3e809492	0.2511335
1	0xbf082f0d	-0.53196794
2	0x3eb06ac0	0.34456444
3	0x3ec80520	0.3906641
4	0xbc2d09fe	-0.010561464
5	0xbf72e995	-0.9488767
6	0xbea63efd	-0.3246993
7	0x3ef876ca	0.4852813
8	0xbec004f1	-0.3750377
9	0x3edfbd94	0.43699324
10	0x3f016313	0.505418
11	0x3c3fac6f	0.011698826
12	0x3f4928bd	0.78577787
13	0xbebeb194	-0.37244856
14	0xbd61b348	-0.055102617
15	0x3f3b5820	0.73181343
16	0xbeca2d7f	-0.39487836
17	0xbfb0422e	-1.3770196
18	0xbee8810b	-0.45410952
19	0x3e76f5c6	0.24117193
20	0x3f42e7ad	0.7613476
21	0x3f43e13d	0.7651556
22	0x3e8e1f6e	0.27758354
23	0xbef2e238	-0.47438216
24	0xbe5fd497	-0.2185844
25	0x3f342e86	0.7038349
26	0x3ef17921	0.47162727
27	0xbefb446c	-0.4907564
28	0xbc8a3c8c	-0.016874574
29	0x3dcfe43e	0.101509556
30	0x3ea05d34	0.31321108
31	0x3f554f29	0.83323914
32	0x3ffc2008	1.9697275
33	0x3ffa118f	1.9536608
34	0x3f2e33d0	0.6804781
35	0xbfcdbc04	-1.6073003
36	0xbfce591f	-1.6120948
37	0x40000278	2.0001507
38	0x3fe20284	1.7657018
39	0x3f2fef84	0.68724847
40	0xbfc94954	-1.5725503
41	0xbfe006d0	-1.7502079
42	0x400035ef	2.0032918
43	0x3ff01c92	1.8758719
44	0x3f545e20	0.82956123
45	0xbfc83528	-1.5641222
46	0xbfdc45f9	-1.7208854
47	0x3ffdd122	1.9829447
48	0x4006e074	2.1074495
49	0x40026cd1	2.0378916
50	0x3fadc782	1.357651
51	0xbf50ee68	-0.8161378
52	0xbf5dd11e	-0.8664721
53	0xbfa4a9ed	-1.2864357
54	0xbeec4a0e	-0.4615025
55	0x3f0e5915	0.5560468
56	0x3ee9d1e2	0.4566794
57	0x3ef65ef6	0.48119324
58	0xbf1333cc	-0.5750091
59	0xbf877867	-1.0583619
60	0xbed19597	-0.4093444
61	0x3ebca2f6	0.3684308
62	0xbf42c51c	-0.76082015
63	0x3d770311	0.06030566
64	0x3f785609	0.9700628
65	0x3ecd1d9c	0.40061653
66	0xbe3c4030	-0.1838386
67	0xbe9b8e06	-0.30381793
68	0xbf830cd4	-1.023829
69	0x3f436381	0.76323706
70	0xbfab63c8	-1.3389826
71	0xbada83d6	-0.001667137
72	0xbe9e49bc	-0.3091563
73	0xbe074c60	-0.13212729
74	0x3f99fe5c	1.2030749
75	0xbe8793aa	-0.26479846
76	0x3f3719bc	0.7152364
77	0xbe833668	-0.25627446
78	0x3e499df5	0.19689162
79	0xbf5b559d	-0.8567751
80	0x3e3dcb1e	0.18534514
81	0x3fefcae8	1.8733797
82	0xbe2b76cc	-0.16744536
83	0xbebcc83d	-0.3687152
84	0x3f31fa4b	0.6952254
85	0xbf0598f9	-0.5218654
86	0xbea5a59b	-0.3235291
87	0xbf125fe6	-0.5717758
88	0x3ef10267	0.47072145
89	0x3f08cfbd	0.53441983
90	0x3fa5dded	1.2958351
91	0x3eb0b4f9	0.3451307
92	0x3cb268d4	0.021778502
93	0x3ee6d7e1	0.45086578
94	0x3f0c4d7b	0.54805726
95	0x3fafe387	1.3741311
96	0x3e9b3c12	0.30319268
97	0xbd1ab390	-0.0377689
98	0x3ea71120	0.32630253
99	0x3f3aa089	0.7290121
100	0x3fb6ee9d	1.4291569
101	0x3e46fde7	0.19432794
102	0xbc04ff01	-0.008117438
103	0x3f0a15c7	0.5393948
104	0x3fe6a258	1.8018293
105	0x403c699a	2.9439454
106	0x40637dce	3.5545535
107	0x3f2e3371	0.68047243
108	0x3e6e1771	0.2325113
109	0xbeccc333	-0.39992675
110	0xbf0623fa	-0.52398646
111	0xbfeef1fc	-1.8667598
112	0xbe537ce8	-0.20653117
113	0x3f0fe013	0.56201285
114	0x3f252685	0.645119
115	0xbe0c9111	-0.13727213
116	0xbf1a4f88	-0.60277605
117	0xbe12280f	-0.14273094
118	0x3ee574f9	0.44815806
119	0xbea30b45	-0.31844535
120	0xbf2eb6ef	-0.68247885
121	0xbea0faf0	-0.3144145
122	0xbf351b17	-0.7074446
123	0xbde911f1	-0.11380375
124	0xbf415b47	-0.75529903
125	0x3edcf237	0.43153545
126	0xbe2ef8c2	-0.17087081
127	0x3f12c44b	0.5733077
128	0x3e565286	0.20929918
129	0xbe7a8326	-0.24464092
130	0xbdf41dda	-0.11919756
131	0xbebe5fa3	-0.3718234
132	0x3f99accd	1.200586
133	0xbf1341e3	-0.5752241
134	0xbed31321	-0.41225532
135	0x3faa2581	1.3292695
136	0xbe1d1fb3	-0.15344124
137	0x3f14dd5d	0.58150274
138	0x3c7f3de2	0.015578719
139	0x3f407676	0.7518076
140	0xbeb03620	-0.34416294
141	0x3de37a4c	0.11107311
142	0xbe00d3cd	-0.12580796
143	0x3d48775b	0.04894195
144	0x40693c0c	3.64429
145	0x406d9182	3.712006
146	0x4063dc8d	3.5603364
147	0xc017bf75	-2.3710606
148	0xc03655e3	-2.848992
149	0x40696604	3.6468515
150	0x407479c3	3.8199317
151	0x406c53cf	3.6926153
152	0xc00c663d	-2.1937401
153	0xc0454b9b	-3.0827396
154	0x405b3255	3.424947
155	0x4065b3b9	3.5890944
156	0x4072e20a	3.7950463
157	0xc013751a	-2.3040223
158	0xc0439d60	-3.0564804
159	0x4016f962	2.358971
160	0x401d1a82	2.454743
161	0x4030c0ea	2.7617745
162	0x4059de75	3.4042027
163	0xbffe2732	-1.9855711
164	0xc0204b0e	-2.504581
165	0xbf493d35	-0.7860902
166	0x3ec21840	0.37909126
167	0x3fe08469	1.7540408
168	0xbf924e8b	-1.143022
169	0xbfa7f146	-1.3120506
170	0xbeee760c	-0.46574438
171	0xbec85d2d	-0.39133587
172	0xbdd176cb	-0.10227736
173	0x3fa0b740	1.2555923
174	0x3ebd287c	0.3694495
175	0x3fa8a49f	1.3175238
176	0xbd539b12	-0.05166156
177	0x3f31d496	0.69465005
178	0xbeaa7d8b	-0.33298907
179	0x3f1e4b84	0.6183398
180	0x3f2abbf5	0.6669305
181	0xbe4bf0fe	-0.1991615
182	0x3e8cb157	0.2747905
183	0x3e0a1901	0.134861
184	0xbf976cc9	-1.1830074
185	0x3f316950	0.6930132
186	0x3e7c3d25	0.246327
187	0xbd034488	-0.03204778
188	0x3ecd1776	0.40056962
189	0x3f0c8276	0.5488657
190	0x3f26f32e	0.6521481
191	0xbd61c38d	-0.055118132
192	0xbcf0881b	-0.029361775
193	0xbecb6251	-0.39723447
194	0xbf94e73b	-1.1633066
195	0xbf527fbf	-0.82226175
196	0x3de5c981	0.112200744
197	0xbf37e34d	-0.7183121
198	0xbfc8b6b4	-1.5680757
199	0x3f920467	1.1407593
200	0x3f917749	1.1364528
201	0x3fc863c3	1.5655445
202	0x3ffb7cb2	1.9647429
203	0xbe9bcfb8	-0.30431914
204	0xbf15d8d5	-0.58533984
205	0x3f922667	1.141797
206	0x3fcc4ff5	1.5961901
207	0x40007432	2.007092
208	0xbe8a8951	-0.2705789
209	0xbf075964	-0.52870774
210	0x3f881e03	1.0634159
211	0x3fbb7a0d	1.4646622
212	0x3ff46e25	1.9096113
213	0xbed50a46	-0.416094
214	0xbf17403b	-0.5908238
215	0x3f1b1663	0.60581034
216	0x3e0634ed	0.13106127
217	0xbf001e14	-0.50045896
218	0xbf0bfffd	-0.5468748
219	0xbfc68ad8	-1.5511122
220	0xbfa77091	-1.3081228
221	0x3fbcf0eb	1.4761022
222	0x400503f4	2.0783663
223	0x3f40d6d6	0.75327814
224	0x3f2ec101	0.6826325
225	0x3e466fee	0.19378635
226	0x3ec7f078	0.3905065
227	0xbe910dbd	-0.28330794
228	0x3e54904c	0.2075817
229	0xbd079cc8	-0.033108503
230	0xbe19e815	-0.15029939
231	0x3ef80a47	0.4844534
232	0x3ee6f605	0.45109573
233	0xbe13e3cf	-0.14442371
234	0xbeddfe39	-0.4335802
235	0xbea4d6cf	-0.32195136
236	0xbea904e9	-0.3301156
237	0x3ee36b81	0.44417956
238	0xbdc2e887	-0.09517007
239	0xbe665cbf	-0.22496317
240	0xbdbec134	-0.09314194
241	0x3e2db4c7	0.16963492
242	0xbf1416b2	-0.5784713
243	0x3f40b686	0.7527851
244	0xbca5d990	-0.020245343
245	0x3ea84062	0.3286162
246	0x3f32bad2	0.69816315
247	0xbe086391	-0.13319232
248	0xbe7614c9	-0.24031366
249	0x3eabfa56	0.3358943
250	0xbf48d185	-0.784447
251	0xbda81222	-0.082065836
252	0x3e4be042	0.19909766
253	0x3e870cbb	0.263769
254	0xbecdd8be	-0.40204424
255	0xbbd2cc7a	-0.006433067

convs.0.fc_full.bias f4 [32]
0	0xbe19a319	-0.15003623
1	0x3ee73c3d	0.45163146
2	0x3e71402c	0.23559636
3	0x3e975078	0.2955358
4	0x3f5ef842	0.8709756
5	0xbd9ef395	-0.07761303
6	0xbc06881a	-0.00821116
7	0xbe35d8fe	-0.17758557
8	0xbdbd7255	-0.09250323
9	0xbec5595e	-0.38544744
10	0x3db30cf6	0.087427065
11	0xbe9cb578	-0.306072
12	0xbd9f13b9	-0.07767434
13	0xbe172057	-0.1475843
14	0x3e6df566	0.23238143
15	0x3db0e383	0.086371444
16	0xbe8f4a00	-0.27986145
17	0x3f1b2eeb	0.60618466
18	0xbe0a71e3	-0.13520007
19	0x3ddc7e98	0.10766333
20	0x3eb524c7	0.3537962
21	0x3ea91393	0.33022746
22	0xbeb3bba3	-0.35104093
23	0xbd514d20	-0.051098943
24	0xbe065e2d	-0.13121863
25	0xbda49745	-0.08036665
26	0x3e35012b	0.17676227
27	0xbd826e6c	-0.063687176
28	0x3d93c8b9	0.07216019
29	0xbe1fdab0	-0.15610766
30	0x3ea632dc	0.32460678
31	0xbd4b5b40	-0.04964757

convs.0.bn1.weight f4 [32]
0	0x402c2fd8	2.6904202
1	0x40892ed6	4.2869673
2	0x4036340d	2.846927
3	0x401f6d17	2.4910333
4	0x405a304d	3.409198
5	0x40b6d05d	5.712935
6	0x4068b971	3.6363184
7	0x4090408e	4.50788
8	0x40cd13b4	6.408655
9	0x40c452e0	6.1351166
10	0x40a73b7c	5.2260113
11	0x40848beb	4.14208
12	0x40918454	4.5474033
13	0x40e66131	7.199364
14	0x4092b553	4.5846343
15	0x406522c2	3.5802464
16	0x40494fc6	3.145494
17	0x4037ba69	2.8707526
18	0x3fb72bf9	1.4310294
19	0x3e3e13b9	0.18562211
20	0x40165c4a	2.3493829
21	0x3fbdbc0f	1.4823016
22	0x4048be11	3.1366007
23	0x3fdcbc83	1.7245029
24	0x3fff38bd	1.993919
25	0x401d9143	2.461991
26	0x3ed5950a	0.4171527
27	0x403e3471	2.9719508
28	0x3fbfc3d4	1.4981637
29	0x3f83dc43	1.0301594
30	0x4098d3cd	4.7758546
31	0x4005e08c	2.0918303

convs.0.bn1.bias f4 [32]
0	0xbf48a1ac	-0.7837169
1	0xbe10d1c8	-0.14142525
2	0x3d88ecc1	0.06685782
3	0x3f48fe56	0.78513086
4	0xbf767dc6	-0.96285665
5	0xbe8e1154	-0.27747595
6	0xbf25a3b3	-0.6470291
7	0xbf8963c1	-1.0733567
8	0x3f03517a	0.512962
9	0xbf822b5e	-1.0169485
10	0xbdd882b2	-0.10571803
11	0xbfacba87	-1.3494424
12	0xbf51c47c	-0.81940436
13	0xbfbf4030	-1.4941463
14	0xbf43d557	-0.76497406
15	0xbdb7cf54	-0.089750916
16	0xbfc74a2c	-1.556951
17	0xbf3361f2	-0.7007133
18	0x3f78fad6	0.97257745
19	0x3ef937b0	0.486753
20	0xbe0c7ee4	-0.1372028
21	0xbfe7ae1f	-1.8100013
22	0xbff73111	-1.9311849
23	0x3e547ebf	0.20751475
24	0xbe4c8884	-0.19973952
25	0x3f9794b9	1.1842262
26	0x3fad6a06	1.3547981
27	0xc048923b	-3.1339252
28	0xbfa070f6	-1.2534473
29	0xbeb6817f	-0.35645673
30	0xbf1cbbd5	-0.6122411
31	0xbfba4652	-1.455271

convs.0.bn1.running_mean f4 [32]
0	0x415a4b88	13.64344
1	0x4118d44f	9.551833
2	0x41a2c1c1	20.344606
3	0x41066c4d	8.401441
4	0xc0fdf59a	-7.9362307
5	0x40974e3b	4.7282996
6	0xc16cb180	-14.793335
7	0xc179617e	-15.586302
8	0x4103bc76	8.233511
9	0xc0256e11	-2.584843
10	0x41481de6	12.507299
11	0x40fbced9	7.869
12	0x41324253	11.141192
13	0xc1baacf7	-23.334455
14	0x40f1c2cb	7.5550284
15	0xc1634004	-14.203129
16	0x41390375	11.563344
17	0x41d83e65	27.030466
18	0x41af1fa3	21.890448
19	0x41a20fd9	20.257738
20	0xc117da09	-9.490731
21	0xc1c2bd9b	-24.34258
22	0xc0103b27	-2.2536104
23	0x401c26ad	2.4398606
24	0xbdbd6ec8	-0.092496455
25	0xc0d246af	-6.5711284
26	0xc0e95165	-7.291186
27	0xc202bcdd	-32.684437
28	0x40c368c4	6.106539
29	0xc137187e	-11.44348
30	0xc1890e46	-17.13197
31	0xc0c8f51c	-6.2799206

convs.0.bn1.running_var f4 [32]
0	0x4226df35	41.717976
1	0x4210b829	36.179844
2	0x427b5785	62.83547
3	0x41c81722	25.011295
4	0x424ecabc	51.697983
5	0x41ae768e	21.807888
6	0x429f93ef	79.78893
7	0x41c8df1c	25.10894
8	0x41e9720a	29.180683
9	0x4281b098	64.84491
10	0x4227bcf2	41.934517
11	0x4142c33e	12.172667
12	0x42ef40d6	119.62663
13	0x42053f5f	33.311886
14	0x41fccb77	31.599348
15	0x424892be	50.143303
16	0x41c74410	24.908234
17	0x428fb065	71.84452
18	0x42c62826	99.078415
19	0x420e97f7	35.648403
20	0x425ff38e	55.987846
21	0x422d0c0e	43.261772
22	0x420649b5	33.57198
23	0x4261eace	56.4793
24	0x4294d8b2	74.42323
25	0x428c3464	70.102325
26	0x4263b9fb	56.93162
27	0x41b845dc	23.034111
28	0x428e140a	71.03914
29	0x41b31be5	22.38862
30	0x424cecf5	51.231403
31	0x428ae52e	69.44762

convs.0.bn2.weight f4 [16]
0	0x3f823f28	1.0175524
1	0x3fc84bbd	1.5648113
2	0x3f753257	0.9577994
3	0x3f9e6c33	1.237677
4	0x3fe175f2	1.7614119
5	0x3fced976	1.6160114
6	0x3f19041c	0.59771895
7	0x4002f664	2.0462885
8	0x3fa607cf	1.2971133
9	0x3fcf258e	1.6183336
10	0x3f913c0d	1.1346451
11	0x3fc58bcc	1.5433288
12	0x3fb6ba2b	1.4275564
13	0x3fe69f9e	1.8017461
14	0x3fc30388	1.5235453
15	0x3fc2870c	1.5197463

convs.0.bn2.bias f4 [16]
0	0x3ef5bb20	0.47994328
1	0xbee106e0	-0.43950558
2	0x3ec7a0e1	0.38989928
3	0x3d3634d8	0.04448399
4	0x3df2016d	0.11816678
5	0xbd94df3c	-0.07269141
6	0x3e5b2164	0.21399456
7	0x3e61154c	0.2198078
8	0x3eab13d2	0.3341356
9	0x3eb7d289	0.35902813
10	0x3f12f330	0.57402325
11	0xbe147b74	-0.14500219
12	0x3deb2ab3	0.114827536
13	0x3c23bd18	0.009993814
14	0xbec74f5b	-0.3892773
15	0x3ebf3994	0.37348616

convs.0.bn2.running_mean f4 [16]
0	0x40ba9fa0	5.8319855
1	0x40621c16	3.5329642
2	0x40ae0e6e	5.4392614
3	0x40d24106	6.5704374
4	0x4125df3d	10.367002
5	0x40020bbe	2.0319667
6	0x4099099e	4.782424
7	0x40c9f3fc	6.3110332
8	0x411b24cc	9.696484
9	0x41669d4b	14.413402
10	0x41194ca4	9.581211
11	0x4055f5bc	3.3431234
12	0x40636495	3.553014
13	0x4081cfd0	4.0566177
14	0x417337dd	15.2011385
15	0x40abe764	5.371996

convs.0.bn2.running_var f4 [16]
0	0x427c74f5	63.114216
1	0x40cd224b	6.410436
2	0x40b94c52	5.7905664
3	0x40d055d8	6.510479
4	0x4213b21f	36.923946
5	0x40cc9215	6.3928323
6	0x4196bafd	18.841303
7	0x425813e9	54.019444
8	0x43115654	145.33722
9	0x42fe805d	127.25071
10	0x41e30b57	28.380537
11	0x413204a4	11.126133
12	0x40ec9524	7.3932056
13	0x410b7fa4	8.718662
14	0x43374448	183.26672
15	0x41a0d371	20.103243

convs.1.fc_full.weight f4 [32, 56]
0	0xbe650304	-0.22364432
1	0x3f4e7c62	0.80658543
2	0x3f80a950	1.005167
3	0xbeb2fc61	-0.34958175
4	0xbf743b7c	-0.95403266
5	0xbe357c95	-0.17723306
6	0xbf7db4e2	-0.9910413
7	0xbde2883d	-0.11061142
8	0xbe369081	-0.17828561
9	0x3e936223	0.2878581
10	0xbe095ced	-0.13414355
11	0x3f14c618	0.5811477
12	0xbf23a942	-0.6393014
13	0x3c855109	0.016273992
14	0x3e86ccf6	0.26328248
15	0x3e6850f5	0.22687133
16	0xbe214cf4	-0.15752012
17	0xbed82bcc	-0.42220914
18	0xbf8367de	-1.0266073
19	0xbf557f2c	-0.83397174
20	0xbf33cf0b	-0.702378
21	0xbd640f0f	-0.055678423
22	0xbfa964d8	-1.32339
23	0xbf1436ef	-0.5789632
24	0x3ea01f0c	0.31273687
25	0x401ca0e6	2.4473205
26	0x3e789186	0.24274263
27	0xbf3c3dfb	-0.73532075
28	0xbf571b7f	-0.8402633
29	0x3e8a1b8d	0.26974145
30	0xbf36da66	-0.71427
31	0xbf9de597	-1.233569
32	0xbf8fc247	-1.1231164
33	0xbf4bd288	-0.7961812
34	0x3f20aa5e	0.6275996
35	0x3fc324ae	1.5245569
36	0x3f9bab93	1.2161735
37	0xbf7a8777	-0.9786295
38	0xbf501be2	-0.81292546
39	0x3f371c08	0.7152715
40	0x3fb1c854	1.388926
41	0x3fade908	1.358674
42	0xbf72bf43	-0.9482309
43	0xbf3738b0	-0.71570873
44	0x3f1e1a3e	0.6175879
45	0x3fbe901e	1.4887731
46	0x3fa38fd3	1.2778267
47	0xbfc2a8c0	-1.5207748
48	0xbfbea01f	-1.4892615
49	0xbfa3e714	-1.2804894
50	0xbf4db855	-0.80359393
51	0xc0326941	-2.7876742
52	0xbfe9f3ed	-1.8277565
53	0x3e820715	0.25396028
54	0x3f892365	1.0713927
55	0x3f799c78	0.9750438
56	0x3ead441e	0.33841032
57	0xbfbe60f1	-1.4873334
58	0xbf3f58a3	-0.74744624
59	0xbefd8549	-0.4951575
60	0xbe9f9f2c	-0.31176126
61	0x3eba47ef	0.36383006
62	0x3e090f6a	0.13384786
63	0x3ea922e8	0.33034444
64	0x3edc1976	0.42988175
65	0xbe87ddbd	-0.2653636
66	0xbe5c0c8f	-0.21489166
67	0xbe45694a	-0.19278446
68	0x3e08036f	0.1328256
69	0xc00ba7cb	-2.1821163
70	0xbf1bc837	-0.6085238
71	0xbf52dc6b	-0.8236758
72	0xbecdfda2	-0.4023257
73	0xbf8ce971	-1.1008741
74	0xbef529bb	-0.478834
75	0xbfa1897d	-1.2620083
76	0x3f8a62dd	1.0811421
77	0xbf409673	-0.7522957
78	0xbf891125	-1.0708357
79	0x3b303533	0.0026887178
80	0x3e0dde38	0.13854301
81	0x3fbec143	1.4902729
82	0x3e180b5b	0.14848082
83	0x3f0ab991	0.541894
84	0x3fa8f67f	1.3200225
85	0x3f1b6a35	0.60708934
86	0x3f0642d4	0.5244572
87	0x3f85ad06	1.0443428
88	0x4006830c	2.1017485
89	0x403880c7	2.88286
90	0x408333b9	4.100064
91	0x3fc5347f	1.5406646
92	0x3eab71bd	0.33485213
93	0x40012765	2.0180295
94	0x403ae3b0	2.920147
95	0x408a3ae4	4.319689
96	0x3fd2afac	1.6459861
97	0x3ea2d88e	0.31805843
98	0x3ff771b2	1.9331572
99	0x403b5b2e	2.9274402
100	0x4085899c	4.173048
101	0x3fe55f61	1.7919732
102	0x3e2f2a68	0.1710602
103	0xbfcfff7c	-1.6249843
104	0xbebb4b06	-0.36580676
105	0x3fcea3f3	1.6143783
106	0x403b2944	2.9243937
107	0x402f97c7	2.7436388
108	0x3fd4d5fc	1.6627803
109	0xbf35351b	-0.7078416
110	0xbfcd86bf	-1.6056746
111	0xbffc3321	-1.9703103
112	0x3f99ea97	1.2024716
113	0x3eac97bd	0.33709517
114	0x3fec1125	1.8442732
115	0x3ee5bf9e	0.44872755
116	0xbddba95a	-0.107256606
117	0xbf8f9bab	-1.1219381
118	0x3f2f96f3	0.68589705
119	0x3f17611c	0.5913255
120	0x3f706975	0.93910915
121	0x3e96a643	0.29423723
122	0x3f12f4df	0.57404894
123	0x3f1d3a27	0.6141686
124	0x3f2730da	0.65308917
125	0xbf07920e	-0.52957237
126	0xbf3855c6	-0.7200588
127	0x3e1097da	0.14120427
128	0xbe9b65e7	-0.30351183
129	0x3fc3a671	1.5285169
130	0x3f7285cb	0.947354
131	0xbf149d89	-0.5805288
132	0x3ef8ba4b	0.4857963
133	0xbeab4f7e	-0.33459085
134	0xbf40e5b5	-0.75350505
135	0x3f675473	0.90363234
136	0x3f3cd3df	0.7376079
137	0xbf481e51	-0.7817126
138	0x3f898d47	1.074624
139	0x3da7f79e	0.08201526
140	0xbd588dc9	-0.05286959
141	0xbf12e5e6	-0.5738205
142	0x3e7ec1d8	0.24878633
143	0x3d9ebab6	0.07750456
144	0xc012dd7c	-2.2947683
145	0xc018d4b2	-2.387982
146	0xc0101015	-2.2509816
147	0x3fc011d3	1.500544
148	0x3fe1454a	1.759927
149	0xc009cf37	-2.1532724
150	0xc0159764	-2.3373652
151	0xc011e274	-2.2794466
152	0x3fbd1031	1.4770566
153	0x3fe2f949	1.7732326
154	0xc00d1109	-2.2041647
155	0xc015f483	-2.3430488
156	0xc00853a7	-2.1301057
157	0x3fcb9ad6	1.5906627
158	0x3fdcde34	1.7255311
159	0xc0115d88	-2.2713337
160	0xbfebde41	-1.8427202
161	0xbf9f5285	-1.2447058
162	0xbf10022b	-0.5625331
163	0xbff56c87	-1.9173745
164	0xbfc5c79b	-1.545154
165	0xbe8499b0	-0.25898504
166	0x3d8f3195	0.06991879
167	0xbe8d5d1d	-0.27610102
168	0xbe5633c0	-0.20918179
169	0xbf4d51e4	-0.8020308
170	0xbfa166aa	-1.2609456
171	0xbfbbb7ce	-1.4665468
172	0x3ea3e329	0.32009247
173	0xbf5b5dbb	-0.85689896
174	0xbf870398	-1.0547972
175	0xbfb427eb	-1.4074682
176	0xbf03c4e1	-0.5147229
177	0x3f340a3d	0.7032812
178	0xbf1496b2	-0.5804244
179	0xbf5ded88	-0.8669057
180	0xbe997575	-0.29972425
181	0xbf524e99	-0.8215118
182	0xbe98cdcb	-0.29844508
183	0xbf18c4e9	-0.5967546
184	0xbf0d8b47	-0.55290645
185	0xbe8fe860	-0.28106976
186	0x3d9b6171	0.07586945
187	0x3f1615eb	0.58627194
188	0xbfa4e4a8	-1.288228
189	0xbca605ce	-0.02026644
190	0x3d97b0c0	0.07406759
191	0xbf8704db	-1.0548357
192	0xbd775eda	-0.060393192
193	0xbf9d3811	-1.2282735
194	0xbe15efec	-0.14642304
195	0xbcd6d015	-0.026222268
196	0x3e81e5db	0.25370678
197	0x3f072216	0.52786386
198	0xbf20486b	-0.626105
199	0x3eacaf0e	0.33727306
200	0xbe7ce8ec	-0.24698228
201	0xbef31477	-0.4747655
202	0xc00688d0	-2.1021004
203	0xbed1b916	-0.40961522
204	0xbe7e5015	-0.24835236
205	0xbe00ec79	-0.12590207
206	0xbe79f651	-0.24410369
207	0xbffba40f	-1.9659442
208	0xbe93b482	-0.28848654
209	0xbd9f6fd9	-0.07785005
210	0xbe421948	-0.18954957
211	0xbea9a511	-0.33133748
212	0xbff94bc5	-1.9476248
213	0xbec04546	-0.3755285
214	0xbe0c60ae	-0.13708755
215	0x3f6a7dc9	0.9159818
216	0x3f40473e	0.75108707
217	0x3efc64f1	0.49295762
218	0x3efd0026	0.49414176
219	0xc01d21fe	-2.4551997
220	0xbfd30597	-1.6486081
221	0xbdc2d87e	-0.09513949
222	0xbe2bd9c6	-0.16782293
223	0xbe808895	-0.25104204
224	0xbf076b85	-0.52898437
225	0x3f15160f	0.58236784
226	0x3eb2ee3a	0.34947377
227	0x3e8f731c	0.2801751
228	0xbfcd74d2	-1.6051276
229	0xbf285604	-0.6575625
230	0x3f6c6ee6	0.9235672
231	0x3eabc420	0.3354807
232	0x3d6bf341	0.057605032
233	0xbf1fe45f	-0.6245784
234	0x3e76bafe	0.2409477
235	0x3dd0d65b	0.10197135
236	0x3eaecd74	0.34141123
237	0x3fafadcb	1.3724912
238	0x400b684a	2.1782403
239	0xbf71f4ac	-0.94513965
240	0xbe9b6524	-0.30350602
241	0x3f374585	0.71590453
242	0x3f0570a7	0.5212502
243	0x3dc0dddc	0.09417316
244	0x3e9e790f	0.30951735
245	0x3f2399f6	0.639068
246	0xbc22ce84	-0.0099369325
247	0xbf2accf1	-0.66718966
248	0x3f7d3723	0.98912257
249	0x3f59138c	0.8479545
250	0xbf567396	-0.8377012
251	0x3e09f6c3	0.13473038
252	0x3f36611d	0.71241933
253	0xbedfd7a1	-0.437192
254	0xbfb084d5	-1.3790537
255	0xbf0053b9	-0.5012775

convs.1.fc_full.bias f4 [32]
0	0xbe87a2e8	-0.26491475
1	0x3d824268	0.06360322
2	0x3e3bc34e	0.18336222
3	0xbe19c410	-0.15016198
4	0x3de699ac	0.11259779
5	0x3da27f8a	0.079344824
6	0xbda27409	-0.07932288
7	0x3e677ed2	0.22606972
8	0xbe42a867	-0.19009553
9	0xbea32c8c	-0.31869924
10	0x3ebd4a68	0.3697083
11	0xbd1f39aa	-0.038873352
12	0xbe045bba	-0.12925616
13	0x3d1c0d70	0.038098752
14	0x3e17385a	0.1476759
15	0xbe2d8980	-0.16946983
16	0xbe150475	-0.14552481
17	0xbf2ac2a1	-0.6670323
18	0x3e4fb4d5	0.20283826
19	0x3dfc4d18	0.12319392
20	0x3d851f12	0.06500067
21	0xbe83b594	-0.2572447
22	0x3f021ebf	0.50828165
23	0xbea1b37a	-0.31582242
24	0xbebf4d91	-0.37363866
25	0xbe37b140	-0.1793871
26	0x3f54c488	0.8311238
27	0x3cf34a24	0.029698439
28	0xba963155	-0.0011458794
29	0x3de0c3f4	0.10974875
30	0x3e3d00ae	0.1845729
31	0x3e497296	0.19672617

convs.1.bn1.weight f4 [32]
0	0x409c4fe8	4.884754
1	0x40adbc1a	5.4292116
2	0x404ea4c6	3.228807
3	0x402d4057	2.707052
4	0x40a03b2a	5.007222
5	0x40a8e8bd	5.2784104
6	0x409b1dcb	4.847387
7	0x40cef496	6.4673567
8	0x40dc44d4	6.883402
9	0x3fe8ac9c	1.8177676
10	0x407eb25b	3.979636
11	0x4013d411	2.3098185
12	0x404b974a	3.181109
13	0x41000c52	8.003008
14	0x400b5758	2.177206
15	0x40bd457b	5.9147315
16	0x3f5ad7ae	0.8548535
17	0x3fa824ed	1.3136269
18	0x401bbad8	2.433279
19	0x3f7fe86b	0.99964017
20	0x40261cd3	2.5955093
21	0x3fb2f20b	1.3980116
22	0x40089342	2.133988
23	0x3fd821a9	1.6885272
24	0x403a1850	2.907734
25	0x40132111	2.2988932
26	0x3fb1ceb4	1.3891206
27	0x3fd1e38e	1.6397569
28	0x3fbc1fb2	1.4697173
29	0x408bd620	4.3698883
30	0x3f80dfd2	1.0068305
31	0x3edc3e4e	0.43016285

convs.1.bn1.bias f4 [32]
0	0xbc35d7f6	-0.011098852
1	0xbf88429a	-1.0645325
2	0xbe697c7d	-0.22801395
3	0x3f0054dd	0.5012949
4	0xbf8ca9da	-1.0989335
5	0xbf3d37c9	-0.73913246
6	0xbf39f228	-0.72635126
7	0x3d81d644	0.06339696
8	0x3ebc3b73	0.36764106
9	0xbd6a47cc	-0.057197377
10	0xbcc6a98f	-0.024250774
11	0xbef75c0f	-0.48312423
12	0x3f388713	0.72081107
13	0x3efd30fe	0.4945144
14	0xbf867701	-1.0505067
15	0x3f2e88da	0.6817757
16	0xbdb0d487	-0.086342864
17	0xbf73074d	-0.94933015
18	0x3ed85b59	0.42257193
19	0x3ebbe79b	0.36700138
20	0xbfd0d771	-1.6315747
21	0xc0092ee5	-2.1434872
22	0xbea0d5d6	-0.31413144
23	0xbf1805c0	-0.59383774
24	0xbf803c84	-1.0018468
25	0xbf9a5408	-1.2056894
26	0xbd6bf06c	-0.05760233
27	0xbfe6c54f	-1.8028964
28	0x3e7b606f	0.24548505
29	0xbfd5b051	-1.6694432
30	0xbf87c075	-1.0605608
31	0x3f030cf0	0.51191616

convs.1.bn1.running_mean f4 [32]
0	0xc116b1cb	-9.4184065
1	0x41e77712	28.93314
2	0x40ae0f9d	5.439406
3	0xc1e41208	-28.508804
4	0xc0f805ba	-7.750699
5	0xc125f988	-10.373421
6	0xc26b7e13	-58.87312
7	0x41c29254	24.32145
8	0x40c97255	6.2952065
9	0xc0a0bf02	-5.0233164
10	0xc0e97a1d	-7.2961564
11	0xc20d2dd4	-35.294754
12	0x405ee61f	3.4827955
13	0xc0fbc1f1	-7.8674245
14	0xc0bcbb87	-5.8978915
15	0xc1f2cfdd	-30.351496
16	0xc19fa23a	-19.954212
17	0xc027d7b0	-2.6225395
18	0xc1815542	-16.16663
19	0xc10d9039	-8.847711
20	0xc1954818	-18.660202
21	0x40db1a4f	6.8469615
22	0xc24f3124	-51.79799
23	0x400434b1	2.065716
24	0x41c16970	24.176483
25	0xc15bb318	-13.731224
26	0xc1bcbfe4	-23.593697
27	0xc1a282de	-20.3139
28	0xc0a93805	-5.2880883
29	0xc1231d6a	-10.194681
30	0xc1b74f40	-22.913696
31	0xc170dc36	-15.053762

convs.1.bn1.running_var f4 [32]
0	0x4224ce38	41.201385
1	0x421cc12f	39.188656
2	0x41fbed95	31.491007
3	0x41830e9f	16.38214
4	0x41d5c975	26.723368
5	0x41c3acbe	24.459347
6	0x4158d786	13.552618
7	0x4224c97c	41.196762
8	0x41c07521	24.057192
9	0x4241b1a2	48.42347
10	0x4212f396	36.737877
11	0x42320e6d	44.514088
12	0x41d7c58b	26.971457
13	0x41e6107e	28.758053
14	0x41967c11	18.81058
15	0x4201a6ea	32.413002
16	0x41d73488	26.90065
17	0x41868f18	16.81987
18	0x41d23828	26.27742
19	0x42134c78	36.824677
20	0x421228f5	36.539997
21	0x41cccd38	25.600204
22	0x41f0f9d7	30.121992
23	0x42171517	37.770596
24	0x41ed6844	29.67591
25	0x426676dc	57.616074
26	0x424da11e	51.40734
27	0x41ce476f	25.78488
28	0x414ece6d	12.925397
29	0x4202c473	32.691845
30	0x42329cbf	44.653072
31	0x423257cc	44.58574

convs.1.bn2.weight f4 [16]
0	0x4004cca4	2.0749903
1	0x3fb3c937	1.4045781
2	0x3fb14b05	1.3851019
3	0x40068b84	2.1022654
4	0x3fb4f874	1.4138322
5	0x3f308ca9	0.6896463
6	0x3fe722dd	1.8057514
7	0x400f9a58	2.2437954
8	0x3fbc4013	1.4707054
9	0x3fea11dc	1.82867
10	0x40026091	2.037144
11	0x401465cd	2.3187134
12	0x3fd8f25b	1.6948961
13	0x3fb1a103	1.3877262
14	0x3fc0c5a1	1.5060312
15	0x40062ac0	2.0963593

convs.1.bn2.bias f4 [16]
0	0x3e88bf4a	0.26708442
1	0xbcc2fa24	-0.023800917
2	0xbf55cf48	-0.8351941
3	0x3e4d0b4f	0.20023845
4	0xbf5918eb	-0.84803647
5	0x3e87baf7	0.2650983
6	0xbf8311e9	-1.0239841
7	0xbf27b6e5	-0.6551345
8	0x3f1bf84f	0.60925764
9	0xbdb5c138	-0.08874744
10	0x3e5aad97	0.21355282
11	0xbf21ff69	-0.6328035
12	0xbde08995	-0.10963742
13	0xbe476d70	-0.19475341
14	0xbe97de6c	-0.29661882
15	0xbde78f7d	-0.11306665

convs.1.bn2.running_mean f4 [16]
0	0x40b78ef7	5.736202
1	0x4053ecad	3.3113205
2	0x413ffe2c	11.999554
3	0x40ee5a1e	7.4485006
4	0x40d24d8b	6.5719657
5	0x3f1f5ce2	0.622511
6	0x40fcbe9e	7.8982687
7	0x4095c4a0	4.680252
8	0x40b5722b	5.6701865
9	0x407aefe8	3.9208927
10	0x40a08a42	5.016877
11	0x4042f984	3.0464792
12	0x41044bf2	8.268541
13	0x41098cc2	8.596865
14	0x4007d701	2.1224978
15	0x40ab2cee	5.3492346

convs.1.bn2.running_var f4 [16]
0	0x41fe4693	31.78446
1	0x40919692	4.54963
2	0x433df168	189.943
3	0x41b86241	23.047976
4	0x41be9902	23.82471
5	0x3f0bc34c	0.54594874
6	0x42a1dc02	80.9297
7	0x410b100f	8.691421
8	0x42713f57	60.311855
9	0x414ec6b4	12.9235115
10	0x417f7bdb	15.967738
11	0x41a91c3a	21.138783
12	0x421d3f30	39.311707
13	0x433bf38f	187.9514
14	0x40d85fd8	6.7616997
15	0x41aa13ac	21.259605

convs.2.fc_full.weight f4 [32, 56]
0	0x3f409d21	0.7523976
1	0x3f60d17a	0.87819636
2	0x3f12dcae	0.5736798
3	0xbecaff91	-0.39648107
4	0x3f5bfee9	0.8593584
5	0x3f7a8b36	0.9786867
6	0xbfd8f4ce	-1.6949708
7	0xbdbef7ad	-0.09324584
8	0xbe21d3f5	-0.15803511
9	0x3f44ae97	0.768289
10	0xbde7a744	-0.113112
11	0xbf250f71	-0.64476687
12	0x3e88801b	0.26660237
13	0x3f091e90	0.5356226
14	0xbddfef73	-0.10934343
15	0xbf8395f5	-1.0280138
16	0xbd2cebad	-0.042216945
17	0x3fad672c	1.354711
18	0x40006d09	2.006655
19	0x3c480039	0.012207084
20	0x3f9a2c17	1.2044705
21	0x4000b44a	2.011004
22	0xbf8b2b8e	-1.0872667
23	0x3f9560ad	1.1670128
24	0x3f1ab504	0.6043246
25	0x3e6007be	0.21877953
26	0x3d91b17f	0.07113933
27	0x3ede7471	0.43448213
28	0x3c4a5df7	0.0123515045
29	0x3e984a7c	0.29744327
30	0xbf5cc48f	-0.86237425
31	0xbf67c603	-0.90536517
32	0x3ece6d69	0.40317848
33	0x3e086df7	0.13323198
34	0xbe48b177	-0.19598947
35	0xbf0ddfbe	-0.5541953
36	0xbed54e06	-0.4166109
37	0x3f003505	0.500809
38	0x3ea3ee43	0.32017717
39	0xbe343938	-0.17599952
40	0xbf082bf3	-0.5319206
41	0xbf0319f5	-0.5121148
42	0x3eb6b13d	0.35682097
43	0x3ee21057	0.4415309
44	0xbc746abd	-0.0149180265
45	0xbef2defc	-0.4743575
46	0xbeb6634a	-0.35622627
47	0xbc466439	-0.012108856
48	0xbbcd5122	-0.0062657753
49	0x3f1bdf39	0.60887486
50	0x3f96cf2e	1.1781976
51	0xc015a1cb	-2.338
52	0xbf59f9e0	-0.85146904
53	0x3fa5517c	1.2915492
54	0x3f9fbec6	1.2480094
55	0x3f908340	1.1290054
56	0x3ed4bd73	0.41550788
57	0xbead3c13	-0.33834895
58	0xbef5dfe1	-0.4802237
59	0xbf3cef48	-0.73802614
60	0xbf5c9e97	-0.8617949
61	0x3f02ee5a	0.51144946
62	0x3dc5dd4b	0.09661349
63	0x3ee435b5	0.44572225
64	0x3e88f862	0.26752
65	0x3f567c0c	0.8378303
66	0x3e9ccb42	0.30623823
67	0xbed81be1	-0.4220877
68	0xbecf0455	-0.40432993
69	0x3f2daa30	0.6783781
70	0x3f8b751f	1.0895118
71	0xbec9dfca	-0.3942855
72	0xbee9599f	-0.45576188
73	0x3e47ea90	0.19523072
74	0xbfd3e88d	-1.6555344
75	0xbfdb346f	-1.7125376
76	0x3d2384a0	0.039921403
77	0xbfedd212	-1.8579733
78	0xbf31cc55	-0.6945241
79	0xbea25a9d	-0.31709757
80	0xbefc063b	-0.49223503
81	0x3d9b36d3	0.07578816
82	0x3fc0e8c8	1.5071039
83	0x3ec41a58	0.3830135
84	0x3faccd1b	1.3500093
85	0xbe08888e	-0.13333341
86	0x3eccee69	0.40025643
87	0xbf493633	-0.78598326
88	0x3ec907a9	0.39263657
89	0x3f1d6a32	0.61490166
90	0xbe10f509	-0.14155973
91	0xbf19d980	-0.60097504
92	0xbef963c5	-0.4870893
93	0x3efc93bd	0.49331465
94	0x3f4239a4	0.758692
95	0xbe544296	-0.20728526
96	0xbefdd1f9	-0.4957426
97	0xbf1a2811	-0.60217386
98	0x3f055307	0.52079815
99	0x3f62d923	0.88612574
100	0xbe248734	-0.16067201
101	0xbef2aff4	-0.47399867
102	0xbefa4597	-0.48881218
103	0x3f07b487	0.5300984
104	0x3f1b34d2	0.6062747
105	0xbf1d2146	-0.61378896
106	0xbfb16256	-1.3858135
107	0xbec6950d	-0.38785592
108	0xbe5d80b3	-0.21631126
109	0xbef47bfc	-0.47750843
110	0xbf1b9640	-0.6077614
111	0xbf295886	-0.661507
112	0x3ea1cf14	0.316033
113	0x3f2a7f59	0.6660057
114	0xbf044241	-0.51663595
115	0xbf1b8f0c	-0.6076515
116	0xbf6422cb	-0.8911559
117	0x3d8a8014	0.0676271
118	0x3e05f00b	0.1307985
119	0xbf0064f8	-0.50154066
120	0x3f89899f	1.0745124
121	0xbf893581	-1.0719453
122	0xbf1a8159	-0.6035362
123	0x3f0eda35	0.5580171
124	0xbf70a394	-0.939996
125	0xbee7863e	-0.45219606
126	0xbdf1e057	-0.118103676
127	0xbd12137a	-0.035663106
128	0x3e89536d	0.2682146
129	0xbf04f5e8	-0.51937723
130	0xbfcbd621	-1.5924722
131	0x3f18c6fd	0.5967863
132	0xbe3fc58a	-0.18727699
133	0x3ed3c221	0.41359046
134	0x3ef2d4c9	0.47427967
135	0xbd44f889	-0.048088584
136	0xbfdb7ee1	-1.7148095
137	0x3fdfced4	1.7484994
138	0xbe32ec50	-0.17472959
139	0x3f6668d4	0.90003705
140	0xbef940c8	-0.48682237
141	0xbefff178	-0.49988914
142	0x3fbf2407	1.493287
143	0x3f43af65	0.76439506
144	0x3f0e08d0	0.55482197
145	0x3ef2f248	0.4745047
146	0xbfa4dcad	-1.2879845
147	0xbf9e41a8	-1.2363787
148	0xbf7aa927	-0.97914356
149	0x3f1005ae	0.56258667
150	0x3ee07543	0.43839464
151	0xbf9e9185	-1.2388159
152	0xbf91f962	-1.140423
153	0xbf843fed	-1.0332009
154	0x3f3099aa	0.6898447
155	0x3ebb5e32	0.36595303
156	0xbf9887de	-1.1916463
157	0xbf885fe4	-1.0654263
158	0xbf60a463	-0.87750834
159	0x3f04af0d	0.51829606
160	0xbf10b117	-0.5652022
161	0xbf8836c5	-1.0641714
162	0xbfac3bb5	-1.3455721
163	0xbf9e10a0	-1.2348824
164	0xbfd1852f	-1.636877
165	0x3e18fd1b	0.14940302
166	0x3f318ddc	0.69357085
167	0x3f592f12	0.8483745
168	0x3e407e62	0.18798211
169	0xbe9c5882	-0.30536276
170	0x3d8a2862	0.06745984
171	0x3f879cdb	1.0594743
172	0x3e97df75	0.29662672
173	0xbeff06ae	-0.49809784
174	0x3e1bcca5	0.15214784
175	0xbee28dd2	-0.44248825
176	0x3eaa34db	0.3324345
177	0x3e121b72	0.14268282
178	0xbf8f7edf	-1.1210593
179	0x3e01d944	0.12680537
180	0x3e46751e	0.19380614
181	0xc02d98e8	-2.7124577
182	0x3f77a469	0.96735245
183	0xbf338c14	-0.7013562
184	0x3e476592	0.1947234
185	0x3ea66393	0.32497844
186	0x3dec9d30	0.11553419
187	0xbe145df4	-0.14488965
188	0x3f242710	0.64122105
189	0xbe89254d	-0.2678627
190	0xbe0906d3	-0.1338151
191	0xbf021038	-0.50806
192	0x3f69ea9a	0.913736
193	0xbf482b6d	-0.7819126
194	0x3ec4e8a5	0.38458744
195	0x3eb53b6b	0.35396895
196	0x3ef3f89c	0.4765061
197	0xbfa2e0ce	-1.2724855
198	0x3e81ca98	0.2534988
199	0xbe5d03eb	-0.21583526
200	0x3fa629a9	1.2981464
201	0x3fe5e413	1.7960228
202	0x40293fd6	2.6445212
203	0x3e09c1fa	0.13452902
204	0xbed01ba8	-0.406461
205	0x3f90c2fb	1.1309503
206	0x3fd8298e	1.6887681
207	0x402ba1a3	2.6817405
208	0x3e3dce69	0.1853577
209	0xbeb6cc5e	-0.35702795
210	0x3f83f21b	1.030826
211	0x3fd3556b	1.6510442
212	0x402a7d5d	2.6639016
213	0x3d15cb49	0.03657082
214	0xbec38c20	-0.38192844
215	0x3d4c06ed	0.049811292
216	0xbe450b0f	-0.192425
217	0xbddddb79	-0.10832877
218	0xbe57eb17	-0.21085773
219	0xbfb11e28	-1.3837328
220	0xbf327d93	-0.6972286
221	0x3fda8159	1.7070724
222	0x4006a795	2.1039784
223	0x3fcd7fed	1.6054665
224	0xbdb72fde	-0.08944677
225	0xbebbb2e9	-0.36659935
226	0xbe8992f9	-0.26869944
227	0x3f0dd0e0	0.5539684
228	0xc0191e6d	-2.392482
229	0xbfff6007	-1.995118
230	0xbf3df6b6	-0.74204576
231	0x3ebdf414	0.3710028
232	0xbf617e92	-0.88083756
233	0xbf929a63	-1.1453365
234	0xbfd98372	-1.6993239
235	0x3ea73d07	0.32663748
236	0xbf2c5c56	-0.67328393
237	0xbf41fc2b	-0.757754
238	0x3fbcde3f	1.4755324
239	0xbe385d4c	-0.1800434
240	0x3f1ebda4	0.6200812
241	0xbf198f58	-0.5998435
242	0x3f7a3d3c	0.97749686
243	0xbd698d49	-0.057019506
244	0x3da3211e	0.07965301
245	0xbfb7a52a	-1.4347279
246	0x3c22d5ce	0.00993867
247	0xbe889662	-0.26677233
248	0xbf8f9cb9	-1.1219703
249	0x3f19d7ee	0.6009511
250	0x3ed7732f	0.42080066
251	0xbe2ac7f0	-0.16677833
252	0x3f453610	0.7703562
253	0xbbd3653c	-0.006451277
254	0x3fbb0da5	1.4613539
255	0xbee756c1	-0.45183375

convs.2.fc_full.bias f4 [32]
0	0x3dea3b94	0.11437145
1	0xbc7fe9ca	-0.0156197045
2	0xbf097c9b	-0.5370576
3	0xbc385bc6	-0.011252349
4	0x3d4ffa9b	0.050776105
5	0x3e0e27eb	0.13882415
6	0xbd0429d5	-0.032266457
7	0xbd6a487c	-0.057198033
8	0x3c6a97f7	0.014318458
9	0xbd2a4db9	-0.04157803
10	0xbd1f4cca	-0.03889159
11	0xbdc0c477	-0.09412473
12	0xbda80e5b	-0.08205863
13	0x3e1fb9f9	0.15598287
14	0x3d667c04	0.056270614
15	0xbdfe7087	-0.12423807
16	0xbbb0ff6d	-0.005401543
17	0x3e124f5a	0.14288083
18	0xbf2a3e02	-0.66500866
19	0x3d48668a	0.048925914
20	0x3de6ac42	0.11263324
21	0xbd8d82c1	-0.06909705
22	0x3e2abdc5	0.16673954
23	0xbdd616a2	-0.104535356
24	0xbe40db88	-0.18833745
25	0xbd986af8	-0.07442278
26	0xbd108059	-0.035278652
27	0x3e0966d4	0.13418132
28	0xbc9050a9	-0.017616587
29	0x3e815bd7	0.2526538
30	0x3de60233	0.11230888
31	0xbe0207c2	-0.12698272

convs.2.bn1.weight f4 [32]
0	0x3fa718fe	1.3054502
1	0x3ffa42a3	1.9551586
2	0x4093e90e	4.622199
3	0xbe85c2ae	-0.2612509
4	0x3ff4dd46	1.9130027
5	0x409cddb4	4.9020634
6	0x40562566	3.3460326
7	0x4035a8b3	2.8384216
8	0xbec177ef	-0.37786815
9	0x404a17fa	3.1577134
10	0x402de7af	2.7172658
11	0x40f79efe	7.738158
12	0x409c2c99	4.880444
13	0x40ba9e39	5.8318143
14	0x3f99b93a	1.2009652
15	0x40b38ef5	5.611201
16	0x3f4b1cfb	0.79341096
17	0x3fdefb9a	1.7420533
18	0x4093aba8	4.614704
19	0x3f0f1ba3	0.55901545
20	0x3fe85586	1.81511
21	0xbe9c18e0	-0.30487728
22	0x40658b15	3.586614
23	0x3f603090	0.875741
24	0x3e4f0337	0.2021607
25	0x3f95770d	1.1676956
26	0x3f8bb9e0	1.09161
27	0x3f9e84eb	1.2384313
28	0x3f4581c5	0.7715114
29	0x40019e82	2.0252995
30	0x400f734d	2.2414124
31	0x3f9897c4	1.1921315

convs.2.bn1.bias f4 [32]
0	0xbe9c7441	-0.30557445
1	0xbf46dbfe	-0.7767943
2	0xbfbfc004	-1.4980474
3	0x3f28f23d	0.65994626
4	0xbfdf45e7	-1.7443208
5	0x3f9cb0c0	1.224144
6	0xbff06669	-1.8781253
7	0xbff1ea7b	-1.8899683
8	0x3d116ab2	0.035502143
9	0xbf323a6f	-0.6962041
10	0xbdf17f2c	-0.11791834
11	0x3f94a355	1.1612345
12	0xbf2482a6	-0.64261854
13	0xbf1a35d7	-0.60238403
14	0xbf92be4f	-1.1464328
15	0x3f75f802	0.96081555
16	0x3e66dcb9	0.22545137
17	0xbfe36dea	-1.7767918
18	0xbffa8f38	-1.9574957
19	0x3b76146e	0.0037548798
20	0xbff95f48	-1.9482203
21	0x3fe521a9	1.7900897
22	0xbf1a142e	-0.6018704
23	0xbf9a1042	-1.2036211
24	0xbc3151a8	-0.010822691
25	0x3d36b12a	0.04460255
26	0xbe7ab45d	-0.24482866
27	0xbc4dd266	-0.01256237
28	0xbcd32339	-0.025773631
29	0xbea31cc7	-0.31857893
30	0xbeddcdda	-0.43321115
31	0xbf49d5d6	-0.7884191

convs.2.bn1.running_mean f4 [32]
0	0x411f236e	9.94615
1	0xbee8288c	-0.45343435
2	0xc149152c	-12.567669
3	0x41320588	11.12635
4	0xc1bd982d	-23.699305
5	0xc18d2a96	-17.645794
6	0xc162d697	-14.17739
7	0xc0cac9a9	-6.3371167
8	0x4155225b	13.320888
9	0xc1c82d6a	-25.022175
10	0xc0c17a0e	-6.0461493
11	0xc2016348	-32.346954
12	0x40d8db8e	6.776801
13	0x419040f9	18.031725
14	0xc1f1c2be	-30.220089
15	0xbfd92931	-1.6965696
16	0xc06a1c6c	-3.6579847
17	0xc1c72cf9	-24.89696
18	0xc20e3363	-35.550182
19	0x4089652d	4.2936006
20	0xc15dd42d	-13.864301
21	0xc1abe15f	-21.485044
22	0xc210ebb0	-36.230164
23	0xc0c1bca6	-6.0542784
24	0xbfd5b2ea	-1.6695225
25	0xc1b7b5ca	-22.963764
26	0xc17fc5e5	-15.985814
27	0xc1fe9765	-31.823923
28	0xc11c459e	-9.766996
29	0x4197066f	18.878141
30	0xc1729be2	-15.163057
31	0xc12194a7	-10.098792

convs.2.bn1.running_var f4 [32]
0	0x42a1b148	80.84625
1	0x43194c67	153.29845
2	0x429d6993	78.7062
3	0x4284de2e	66.433945
4	0x4312e938	146.91101
5	0x42c57404	98.72659
6	0x429d3956	78.611984
7	0x41c5e5b7	24.737165
8	0x4241bd8a	48.435097
9	0x420ccab3	35.19795
10	0x426c1343	59.01881
11	0x4248a66e	50.16253
12	0x428bab9b	69.83517
13	0x42bff48a	95.977615
14	0x4295f659	74.98115
15	0x41c3e128	24.48494
16	0x42d1d315	104.91227
17	0x425fe6c7	55.97537
18	0x42482453	50.035473
19	0x436a83b7	234.51451
20	0x42c220d3	97.06411
21	0x41ebe0e0	29.484802
22	0x431a4308	154.26184
23	0x43243dea	164.24185
24	0x429d0589	78.51081
25	0x43005ad5	128.35481
26	0x42f7c8ed	123.89243
27	0x41c9ec5b	25.240408
28	0x42a10e49	80.5279
29	0x4266180c	57.523483
30	0x42d71926	107.54912
31	0x4272798b	60.618694

convs.2.bn2.weight f4 [16]
0	0x3f8fcff1	1.1235334
1	0x3ff6e302	1.9288027
2	0x3fbc3885	1.4704748
3	0x3fe1e31b	1.7647432
4	0x3fdac27d	1.7090603
5	0x40173a82	2.362946
6	0x4024d451	2.5754588
7	0x3fc1794b	1.5115141
8	0x3ffec3da	1.9903519
9	0x3fbfba64	1.4978757
10	0x3fbd8943	1.4807514
11	0x3fc20953	1.5159096
12	0x3f882cbb	1.0638651
13	0x3ff66c06	1.9251716
14	0x3f9bd23b	1.2173532
15	0x3f8dabb1	1.1068021

convs.2.bn2.bias f4 [16]
0	0x3df72755	0.12068049
1	0xbf0bc754	-0.54601026
2	0xbf562ac8	-0.8365903
3	0x3cfe6e35	0.03105841
4	0xbf95c6fb	-1.1701349
5	0xbd5d4264	-0.054018393
6	0xbf6ac225	-0.9170249
7	0xbf61c15e	-0.8818568
8	0x3d253887	0.04033711
9	0xbeafe0c6	-0.34351176
10	0xbe66d2b8	-0.2254132
11	0xbf305d82	-0.6889268
12	0xbf1579ca	-0.5838896
13	0xbeefbec3	-0.46825227
14	0xbf44682c	-0.76721454
15	0xbe7a3a02	-0.2443619

convs.2.bn2.running_mean f4 [16]
0	0x4095290e	4.6612616
1	0x3f9c47e6	1.2209442
2	0x41337aa8	11.217445
3	0x40b39d0a	5.61292
4	0x3f820b21	1.0159646
5	0x415658b9	13.396661
6	0x40f3a6c6	7.614108
7	0x3f85185c	1.0398059
8	0x4083ff60	4.1249237
9	0x40a1e9c4	5.059786
10	0x40c42b34	6.130274
11	0x4054f50e	3.327457
12	0x40824991	4.0714803
13	0x40ca1a44	6.3157063
14	0x409b3a98	4.8509026
15	0x40691786	3.6420608

convs.2.bn2.running_var f4 [16]
0	0x412f0415	10.938497
1	0x405926f4	3.3930025
2	0x438e3cbf	284.47458
3	0x4028d128	2.637766
4	0x40860a83	4.188783
5	0x422afa48	42.744415
6	0x43121ae1	146.105
7	0x3f0f9896	0.560922
8	0x3d34a64d	0.04410391
9	0x41847c78	16.560776
10	0x4202e0f5	32.719685
11	0x40d93b35	6.7884774
12	0x40e49048	7.1426125
13	0x428cdb3c	70.42819
14	0x420709cf	33.75958
15	0x4117a793	9.478412

convs.3.fc_full.weight f4 [32, 56]
0	0x3fc3c702	1.5295107
1	0x3f072df9	0.52804524
2	0xbcab2430	-0.020891279
3	0x3e71ad09	0.23601164
4	0x3ead5dea	0.33860713
5	0x3f303c76	0.68842256
6	0xc039b4ef	-2.9016683
7	0xbe20c4a8	-0.15700018
8	0xbdf7d3d1	-0.12100948
9	0x3e939c35	0.28830114
10	0xbec82285	-0.39088836
11	0xbf912681	-1.1339875
12	0xbe7ee38b	-0.24891488
13	0x3fab1555	1.3365885
14	0x3f8270e3	1.01907
15	0xbf85c3a7	-1.0450333
16	0x3e9ad3b2	0.30239636
17	0xbf187cd3	-0.59565467
18	0x3fdd775c	1.730205
19	0x3f1672e5	0.58769065
20	0x3ee79606	0.45231646
21	0x3fb6ac91	1.4271413
22	0xbf2b9623	-0.67025965
23	0x3a8c767c	0.0010716463
24	0xbe645f65	-0.22302015
25	0xbf83f325	-1.0308577
26	0x3f2d25e5	0.6763595
27	0x3d0e94f8	0.034810036
28	0x3f4a8528	0.7910943
29	0x3f354566	0.7080902
30	0x3ef24710	0.4731984
31	0x3e84e725	0.259576
32	0x3efb94a6	0.49136847
33	0x3f1fb518	0.623857
34	0x3fb96067	1.4482545
35	0x3e04fcb9	0.12987031
36	0xbe7cc13f	-0.24683093
37	0x3f16d3dc	0.5891702
38	0x3f309748	0.68980837
39	0x3fe177e6	1.7614715
40	0xbde95da8	-0.11394817
41	0xbe37f6c9	-0.17965235
42	0x3eccfdc4	0.40037358
43	0x3f11288b	0.5670249
44	0x3fe5a094	1.793963
45	0xbc0301e9	-0.007996061
46	0xbd8feb18	-0.070272624
47	0xbe42e3f5	-0.19032271
48	0xbecb23cd	-0.3967575
49	0xbe8be460	-0.27322674
50	0xbe915d77	-0.2839162
51	0xc00a324c	-2.1593199
52	0xbe7361c4	-0.23767763
53	0x3fdc0674	1.7189469
54	0x3fbf3f2c	1.4941154
55	0x3f88a733	1.0676025
56	0xbf0ff9ea	-0.56240714
57	0x3f55cac0	0.83512497
58	0xbf98940e	-1.1920183
59	0x3ee1b761	0.4408522
60	0x3bd3bc28	0.006461639
61	0x3fd6f19a	1.6792481
62	0xbee0a35b	-0.4387463
63	0xbe983048	-0.29724336
64	0xbfb5d4f0	-1.4205608
65	0xbed6676d	-0.41875783
66	0xbf5ff1b2	-0.8747817
67	0xbfa3a3f9	-1.2784415
68	0xbf4849f2	-0.7823783
69	0x3f8867b2	1.0656645
70	0x3f10ced9	0.56565624
71	0xc001505b	-2.0205295
72	0xbed6e96d	-0.41974965
73	0x3f64200c	0.891114
74	0x3fa1dec7	1.2646111
75	0xbf03bba9	-0.5145822
76	0x3f99f312	1.2027304
77	0xbe5a7c5f	-0.21336506
78	0x3f21bcc1	0.6317864
79	0x3fdcabe8	1.7239962
80	0xbe8b3144	-0.27186024
81	0x3e970883	0.2949868
82	0x3f644f26	0.8918327
83	0x3f0fa4b5	0.561107
84	0x3f60ef39	0.87865025
85	0x3f5a76b9	0.85337406
86	0x3e768624	0.24074608
87	0xbe3d135f	-0.1846442
88	0x3ecc86f2	0.39946705
89	0x3efc212b	0.49244055
90	0x3f7066b3	0.93906707
91	0x3d123d17	0.03570279
92	0x3d3bf552	0.045888253
93	0x3e6ca680	0.2311039
94	0x3f0e4dd5	0.5558751
95	0x3f39b029	0.72534424
96	0x3bea8ecd	0.0071581365
97	0xbe1ab9fb	-0.15110008
98	0x3eb2cd64	0.34922326
99	0x3f147608	0.579926
100	0x3f368de0	0.71310234
101	0xbd3c3224	-0.045946255
102	0xbe5f6ae9	-0.21818127
103	0x3e25ef7b	0.16204636
104	0x3c852e12	0.01625732
105	0xbee8eff4	-0.4549557
106	0xbfc24a29	-1.5178882
107	0x3f5fede6	0.8747238
108	0x3fd2c038	1.646491
109	0xbe4a2138	-0.19739234
110	0xbf60b32b	-0.8777339
111	0x3d7d87d4	0.061897114
112	0x3f276a2a	0.6539637
113	0x3f256088	0.6460042
114	0xbf201421	-0.62530714
115	0xbe45be75	-0.19310935
116	0x3e94e02d	0.29077283
117	0xbee96e9c	-0.455922
118	0xbda19de1	-0.07891441
119	0xbdeccd0e	-0.115625486
120	0x3f453470	0.7703314
121	0x3e921cfb	0.28537735
122	0xbf800b86	-1.0003517
123	0x3eff7e11	0.4990087
124	0x3f5b1593	0.85579795
125	0xbd007d35	-0.031369407
126	0x40320f5a	2.782187
127	0x3e94fe85	0.29100433
128	0x3cd51bba	0.026014198
129	0xbd463540	-0.048390627
130	0x3ea68f62	0.32531267
131	0xbc0d362f	-0.008618875
132	0x3e41e392	0.18934467
133	0x3fa8c2d8	1.3184462
134	0x3f07dbb2	0.53069603
135	0xbef35f46	-0.47533625
136	0x3f0913f9	0.535461
137	0xbc3d5c50	-0.011557654
138	0xbeecff90	-0.4628873
139	0x3eacdb9b	0.33761296
140	0x3f50ff3a	0.81639445
141	0x3d3afd6d	0.045651842
142	0x3fdb5a21	1.713688
143	0x3e8fe726	0.2810604
144	0xc0170878	-2.359892
145	0xc02a90a7	-2.6650789
146	0xc02d0bd1	-2.7038462
147	0x3f3a4747	0.7276501
148	0x3fae033e	1.359474
149	0xc00c2700	-2.1898804
150	0xc01dbc5f	-2.4646223
151	0xc030a26a	-2.759913
152	0x3f5b4551	0.85652643
153	0x3fba8746	1.4572532
154	0xc000731d	-2.007026
155	0xc01ac950	-2.4185371
156	0xc0216f3c	-2.5224142
157	0x3f28f587	0.65999645
158	0x3fb9e1df	1.4522055
159	0xbf9cea31	-1.225897
160	0xbf9ce0e1	-1.2256128
161	0xbfa5fceb	-1.296781
162	0xbf8d2042	-1.1025469
163	0xc0294611	-2.6449015
164	0xc0400815	-3.0004933
165	0xc068f7dc	-3.6401281
166	0xc02e7cf7	-2.7263772
167	0xbf9248df	-1.1428488
168	0x3e6f421d	0.23365064
169	0x3f31d539	0.69465977
170	0x3e675f19	0.2259487
171	0x3e9fef96	0.31237477
172	0xbe763721	-0.24044468
173	0xbe19ebf1	-0.15031411
174	0xbf3280c2	-0.6972772
175	0x3e420619	0.18947639
176	0x3f29a5c1	0.66268545
177	0xbe7f8c36	-0.2495583
178	0xc026baad	-2.6051438
179	0xbfa4656c	-1.2843451
180	0xbf565475	-0.8372262
181	0x3fa56726	1.2922103
182	0x3f57fa4f	0.84366316
183	0xbf1c3a38	-0.61026335
184	0xbeb9e63a	-0.3630846
185	0xbf0c38db	-0.54774255
186	0x3f98760d	1.1911026
187	0x3ea05238	0.31312728
188	0x3eba1878	0.36346793
189	0xbebf1bff	-0.37326047
190	0x3f1098d1	0.5648318
191	0xbe6dda60	-0.23227835
192	0xbe81aefc	-0.25328815
193	0xbf5dadc2	-0.8659326
194	0x3d3f5271	0.04670948
195	0x3f2950a5	0.6613868
196	0x3fa2ae81	1.2709504
197	0x3f5212c9	0.82059914
198	0x3b19ebe4	0.002348655
199	0x3fa1a6e0	1.2629051
200	0x3fcec243	1.6153034
201	0x40033c83	2.0505683
202	0x403a7524	2.9133997
203	0xbeceda52	-0.4040094
204	0xbf6f4a96	-0.93473184
205	0x3fcb2d1f	1.5873145
206	0x4004da75	2.0758336
207	0x403de66b	2.9671886
208	0xbf0f1067	-0.55884403
209	0xbf653e6c	-0.89548373
210	0x3fd5f0d7	1.6714123
211	0x400028cc	2.00249
212	0x40468ab7	3.1022165
213	0xbedd4c5b	-0.43222317
214	0xbf65200f	-0.8950204
215	0x3f3b203f	0.7309608
216	0x3f12be06	0.573212
217	0x3ebd23ef	0.36941478
218	0xbe8a73ff	-0.27041623
219	0xbfd332cf	-1.649988
220	0xbf1449fa	-0.5792538
221	0x3d081ed3	0.03323252
222	0xbea3b94b	-0.31977305
223	0x3e789575	0.24275763
224	0x3ea35c51	0.3190637
225	0x3e23a78b	0.15981881
226	0x3fac4914	1.3459802
227	0xbf1eca72	-0.6202766
228	0x3ec44737	0.38335583
229	0xbf385571	-0.72005373
230	0xbf434540	-0.7627754
231	0x3eb281c1	0.3486462
232	0xbe93e57f	-0.2888603
233	0xbe0efc45	-0.1396342
234	0xbf97e752	-1.1867468
235	0x3e729f03	0.2369347
236	0x3e7b0400	0.24513245
237	0xbe194394	-0.14967185
238	0x3f8bc72b	1.0920156
239	0x3f959ad8	1.168788
240	0x3eb2eb01	0.3494492
241	0xbebd9537	-0.37027904
242	0x3fd4fec7	1.6640252
243	0xbcea91a5	-0.028633902
244	0x3d497299	0.049181554
245	0xbf82442f	-1.0177058
246	0xbe71d647	-0.23616897
247	0xbe231daf	-0.15929292
248	0xbf8bf0d6	-1.0932872
249	0xbeda933d	-0.4269046
250	0xbe9c891e	-0.30573362
251	0x3f8a7250	1.0816135
252	0x3f7df9dd	0.99209386
253	0xbed0311d	-0.4066247
254	0x3efd22b5	0.49440542
255	0x3fc7cbde	1.560909
